results/GameLevelReached8/PlayerBehaviour/PlayerBehaviour-27664.onnx (onnx, 490727 bytes, 10 tensors)

network_body.observation_encoder.processors.0.normalizer.running_mean f4 [202]
0	0x3f5964e3	0.84919566
1	0x3f62a6d1	0.8853579
2	0x3f3969f6	0.7242731
3	0x3f4595ef	0.77181906
4	0x3f365e96	0.71238077
5	0x3f43db7c	0.7650678
6	0x3f3969f6	0.7242731
7	0x3f457cca	0.7714354
8	0x3f365e96	0.71238077
9	0x3f43be46	0.7646221
10	0x3f3d777d	0.7401045
11	0x3f473fdb	0.7783181
12	0x3f39a2c5	0.7251399
13	0x3f4526b1	0.77012163
14	0x3f3ce24d	0.7378281
15	0x3f46c0e7	0.77638096
16	0x3f3908dd	0.7227915
17	0x3f44a364	0.76811814
18	0x3f3c5da2	0.7358037
19	0x3f469ccd	0.7758301
20	0x3f36929f	0.71317476
21	0x3f43469c	0.76279616
22	0x3f36d4fe	0.7141875
23	0x3f425413	0.7590954
24	0x3f322d59	0.69600445
25	0x3f3fe4ee	0.74958694
26	0x3f393111	0.72340494
27	0x3f4437d2	0.76647675
28	0x3f35153d	0.7073553
29	0x3f41f2ac	0.7576091
30	0x3f385bea	0.7201525
31	0x3f43bd5a	0.764608
32	0x3f336f9e	0.7009219
33	0x3f41245e	0.75446117
34	0x3f345a27	0.7045006
35	0x3f3fcd45	0.7492259
36	0x3f306446	0.68903005
37	0x3f3df94b	0.74208516
38	0x3f33d32a	0.70244086
39	0x3f3fb601	0.7488709
40	0x3f2f729f	0.6853427
41	0x3f3db44d	0.7410324
42	0x3f38842b	0.7207667
43	0x3f4522af	0.7700605
44	0x3f329cd8	0.69770575
45	0x3f42bb5b	0.7606713
46	0x3f3ca244	0.736851
47	0x3f488d49	0.78340584
48	0x3f382c7a	0.71942866
49	0x3f470be4	0.7775252
50	0x3f3cca95	0.73746616
51	0x3f488b82	0.7833787
52	0x3f3822f3	0.7192833
53	0x3f470a24	0.7774985
54	0x3f3706aa	0.71494544
55	0x3f43de20	0.7651081
56	0x3f330e74	0.6994393
57	0x3f42afe9	0.7604967
58	0x3f2f18a2	0.6839696
59	0x3f3bc5b7	0.73348564
60	0x3f30161b	0.6878373
61	0x3f3dff5f	0.7421779
62	0x3f2f189c	0.68396926
63	0x3f3b982b	0.73279065
64	0x3f308c8f	0.68964475
65	0x3f3e0dae	0.74239624
66	0x3f2f7046	0.6853069
67	0x3f3cccaa	0.7374979
68	0x3f33c743	0.70225924
69	0x3f4188e7	0.7559952
70	0x3f308307	0.6894993
71	0x3f3d4ce4	0.7394545
72	0x3f355eb6	0.7084764
73	0x3f4243a8	0.75884485
74	0x3f2c2c17	0.67254776
75	0x3f3a9c8c	0.7289512
76	0x3f32a894	0.6978848
77	0x3f403e8b	0.75095433
78	0x3f31c076	0.694343
79	0x3f3ee651	0.74570185
80	0x3f37869c	0.7168977
81	0x3f43f663	0.7654783
82	0x3f327486	0.6970905
83	0x3f3f26a9	0.74668366
84	0x3f391715	0.72300845
85	0x3f44db85	0.7689746
86	0x3f342d1e	0.70381343
87	0x3f4054a1	0.75129133
88	0x3f3a30ee	0.7273091
89	0x3f45c564	0.7725432
90	0x3f2f9ae1	0.685957
91	0x3f3e4e1f	0.74337953
92	0x3f38de38	0.7221408
93	0x3f4552a8	0.7707925
94	0x3f2f9ae1	0.685957
95	0x3f3e682b	0.743777
96	0x3f38de38	0.7221408
97	0x3f456b13	0.7711651
98	0x3f5265fe	0.8218688
99	0x3f5ce8a3	0.86292475
100	0x3f5681bc	0.8379171
101	0x3f5ff6bc	0.8748586
102	0x3f32793e	0.6971625
103	0x3f3f81c9	0.7480741
104	0x3f2f9157	0.68581146
105	0x3f3e0303	0.74223346
106	0x3f32793e	0.6971625
107	0x3f3f664e	0.7476548
108	0x3f2f9157	0.68581146
109	0x3f3ddf03	0.74168414
110	0x3f36e59c	0.71444106
111	0x3f414323	0.7549307
112	0x3f32b461	0.69806486
113	0x3f3f369d	0.7469271
114	0x3f36150e	0.71125877
115	0x3f40999b	0.75234383
116	0x3f30d12a	0.6906916
117	0x3f3de239	0.74173313
118	0x3f35a110	0.70948887
119	0x3f408415	0.7520154
120	0x3f2f3e6b	0.6845462
121	0x3f3cfe58	0.738256
122	0x3f305ab5	0.6888841
123	0x3f3c6fbc	0.73607993
124	0x3f2a0d8d	0.66426927
125	0x3f392b57	0.72331756
126	0x3f31eb33	0.6949951
127	0x3f3dc587	0.7412953
128	0x3f2e7e8c	0.68161845
129	0x3f3c02b7	0.7344164
130	0x3f3093ae	0.6897534
131	0x3f3d1a05	0.7386783
132	0x3f2d084f	0.675908
133	0x3f3b6622	0.7320272
134	0x3f2dc5dc	0.67880034
135	0x3f3a1120	0.7268238
136	0x3f2a6c3a	0.6657139
137	0x3f389d51	0.72115046
138	0x3f2ce263	0.6753294
139	0x3f39c64b	0.72568196
140	0x3f2981d2	0.66213715
141	0x3f385f6a	0.7202059
142	0x3f32e883	0.69886035
143	0x3f40bfce	0.7529267
144	0x3f2ddd81	0.67916113
145	0x3f3dcb1c	0.74138045
146	0x3f37045e	0.7149104
147	0x3f443bfa	0.76654017
148	0x3f34dec2	0.706524
149	0x3f437153	0.76344794
150	0x3f37761c	0.71664596
151	0x3f44601b	0.76709145
152	0x3f34dc6a	0.70648825
153	0x3f436046	0.76318777
154	0x3f31f49e	0.6951388
155	0x3f400eee	0.7502278
156	0x3f2faddc	0.68624663
157	0x3f3f2dda	0.7467934
158	0x3f2aa078	0.66651106
159	0x3f37b810	0.7176523
160	0x3f2a0675	0.664161
161	0x3f388d82	0.72090924
162	0x3f2ab825	0.6668723
163	0x3f379206	0.7170719
164	0x3f2b35ad	0.6687878
165	0x3f38f6d8	0.72251654
166	0x3f2cb30d	0.6746071
167	0x3f3a18ce	0.726941
168	0x3f2fa463	0.6861021
169	0x3f3d42cd	0.73930055
170	0x3f2dcd03	0.6789095
171	0x3f3aa0a9	0.729014
172	0x3f30bc03	0.69036883
173	0x3f3ddc79	0.7416454
174	0x3f27d504	0.6555941
175	0x3f370a23	0.7149984
176	0x3f2ed8aa	0.68299353
177	0x3f3c3608	0.73519945
178	0x3f2c9425	0.6741355
179	0x3f3adecd	0.72996217
180	0x3f33da3f	0.7025489
181	0x3f401625	0.7503379
182	0x3f2e2bbf	0.680355
183	0x3f3b9725	0.73277503
184	0x3f351eb6	0.70749986
185	0x3f40b81e	0.7528094
186	0x3f2ee483	0.6831743
187	0x3f3c255c	0.73494506
188	0x3f3652b4	0.71219945
189	0x3f41988e	0.75623405
190	0x3f2b2c2b	0.6686427
191	0x3f3a929d	0.72879964
192	0x3f31dcf7	0.6947779
193	0x3f3fabb1	0.74871355
194	0x3f2b2c2b	0.6686427
195	0x3f3ab171	0.72927004
196	0x3f31dcf7	0.6947779
197	0x3f3fc4cb	0.7490966
198	0x3f52f68c	0.8240745
199	0x3f5dd748	0.8665662
200	0x3f52f68c	0.8240745
201	0x3f5dd748	0.8665662

network_body.observation_encoder.processors.1.normalizer.running_mean f4 [10]
0	0x00000000	0.0
1	0x00000000	0.0
2	0x00000000	0.0
3	0x00000000	0.0
4	0x00000000	0.0
5	0x00000000	0.0
6	0x00000000	0.0
7	0x00000000	0.0
8	0x00000000	0.0
9	0x00000000	0.0

network_body._body_endoder.seq_layers.0.weight f4 [256, 212]
0	0xbd6825e8	-0.056676775
1	0x3d5261a6	0.051362656
2	0xbd0e7761	-0.034781817
3	0xbd104f50	-0.03523189
4	0x3d520ad4	0.051279858
5	0x3cd37789	0.025813835
6	0x3c33b698	0.010968827
7	0xbce3787f	-0.027767418
8	0x3df93057	0.12167423
9	0xbd88a215	-0.0667154
10	0xbc65d7d5	-0.014028509
11	0xbd362ea1	-0.044478063
12	0x3d1e3709	0.038626704
13	0xbce5b753	-0.028041517
14	0xbd972964	-0.073809415
15	0xbd9a69db	-0.075397216
16	0xbd14afa5	-0.03630032
17	0x3de367ec	0.11103806
18	0x3d17946f	0.03700679
19	0x3cf5728b	0.029961845
20	0x3e0304e9	0.12794842
21	0xbd9e6302	-0.07733728
22	0xbccebfce	-0.025237944
23	0xbd04b6c3	-0.032400858
24	0xbd8f3702	-0.06992914
25	0x3d4d1685	0.050070304
26	0x3e045be6	0.12925681
27	0x3c12dc67	0.008963681
28	0xbd538614	-0.05164154
29	0x3dcf27f7	0.101150446
30	0x3d99cacd	0.07509384
31	0x3e2e56bc	0.17025274
32	0xbc90bdd8	-0.01766865
33	0x3dc28ee0	0.094999075
34	0xbdcb0725	-0.09913472
35	0xbc425e4f	-0.011863305
36	0x3cb06562	0.021532718
37	0x3ceb1a89	0.028699176
38	0xbd1b116a	-0.037858404
39	0xbd8d6aec	-0.06905159
40	0x3de79c28	0.11309081
41	0x3da49e9d	0.080380656
42	0xbccd7af7	-0.025083048
43	0x3d496748	0.049170762
44	0xbd055477	-0.032551255
45	0xbda30f4b	-0.07961901
46	0xbda84a37	-0.0821728
47	0xbadf1fd8	-0.001702304
48	0xbd5d9f0a	-0.05410675
49	0x3c751e0a	0.014960775
50	0xbc83c865	-0.016086766
51	0xbda1133a	-0.07864995
52	0xbd507a2b	-0.05089776
53	0x3d9a73f3	0.07541647
54	0x3cfce58f	0.03087118
55	0x3c896374	0.016771056
56	0x3d165d48	0.036710054
57	0x3db9e757	0.09077328
58	0x3d3e1a74	0.046411946
59	0x3db504d5	0.08838812
60	0xbc7f63f7	-0.015587798
61	0x3db4994e	0.08818303
62	0x3c523722	0.0128305275
63	0x3d5f5784	0.05452682
64	0xbcb24874	-0.021763064
65	0xbd60cb2b	-0.054881256
66	0x3cacc140	0.021088243
67	0x3d401d97	0.04690322
68	0xbd5a0108	-0.05322364
69	0xbca30eed	-0.019904578
70	0xbd720604	-0.05908777
71	0xbd78d9fd	-0.060754765
72	0x3dc3d087	0.09561258
73	0x3e4a4fbd	0.1975698
74	0x3c8893f8	0.01667212
75	0xbcdfe821	-0.027332367
76	0x3d775995	0.060388166
77	0xbe0e9dfb	-0.13927452
78	0xbe030168	-0.12793505
79	0x3dd40f5a	0.103544906
80	0xbcc1bf05	-0.023650656
81	0xbabd215c	-0.0014429498
82	0x3da84098	0.08215445
83	0x3b4619f2	0.0030227867
84	0xbe24efdc	-0.16107124
85	0x3e089dcd	0.13341446
86	0x3d285b88	0.041102916
87	0xbd5df6c9	-0.05419043
88	0xbdec9666	-0.11552124
89	0x3d179549	0.037007604
90	0xbc40acbd	-0.011759934
91	0x3c63d41f	0.013905554
92	0xbcac5278	-0.021035418
93	0x3d25891f	0.040413972
94	0xbd9d955b	-0.07694503
95	0xbd5d58c6	-0.05403974
96	0xbcf9c776	-0.030490618
97	0x3d66ce9c	0.05634938
98	0xbc04119a	-0.008060837
99	0xbd7905f7	-0.060796704
100	0x3d25dfad	0.040496517
101	0x3b0f0a79	0.002182631
102	0xbe3b7675	-0.18306907
103	0xbe01581d	-0.12631269
104	0xbdf1997d	-0.11796854
105	0xbccff590	-0.025385648
106	0xbd0a7283	-0.033800613
107	0xbcf59d9e	-0.029982384
108	0x3ccf0530	0.025271028
109	0xbdb85456	-0.09000461
110	0xbd46fa47	-0.048578527
111	0xbda49d55	-0.08037821
112	0xbd86b35f	-0.06577181
113	0xbb947a6b	-0.004531195
114	0x3d138ed1	0.036024872
115	0x3d4ac626	0.049505375
116	0x3d01c28d	0.03167968
117	0x3e15b428	0.14619505
118	0xbdf9baf8	-0.121938646
119	0xbdcdfff1	-0.100585826
120	0x3a3fd037	0.0007317098
121	0xbd9c4ed2	-0.07632221
122	0xbb8b4ece	-0.0042513376
123	0xbdae0877	-0.08497708
124	0x3d84ba7f	0.06480884
125	0xbdd65a70	-0.10466468
126	0x3dbea6d3	0.09309163
127	0xbd90fc38	-0.07079357
128	0x3caa7944	0.020809777
129	0x3e49f58e	0.19722578
130	0xbdca78ab	-0.09886297
131	0xbd799d1b	-0.060940843
132	0xbc25c882	-0.010118606
133	0xbcae18b3	-0.021252012
134	0x3d4407d9	0.047859047
135	0x3d9af788	0.07566744
136	0xbde9404d	-0.113892175
137	0xbdaacb8f	-0.08339607
138	0xbd992c83	-0.07479193
139	0xbdec5b82	-0.11540891
140	0x3d5aceaf	0.053419765
141	0x3dc2e934	0.09517136
142	0x3e099fdc	0.13439888
143	0xbd867f4d	-0.065672494
144	0xbd92b1c0	-0.07162809
145	0x3cb15240	0.021645665
146	0x3c04406e	0.008072002
147	0x3d9fa3f1	0.07794941
148	0xbd0f1c18	-0.0349389
149	0x3c9b26d9	0.018939422
150	0x3ddbbdd1	0.10729564
151	0x3c5a746e	0.013333423
152	0x3d98153d	0.07425926
153	0xbdb8aa3b	-0.09016844
154	0x3be3d631	0.006953024
155	0x3cdbb356	0.026818912
156	0xbb84e412	-0.0040555084
157	0x3db3915e	0.08767961
158	0xbd92d746	-0.071699664
159	0x3d921866	0.0713356
160	0x3d66a4ee	0.056309633
161	0xbc59f6a7	-0.013303435
162	0x3d82c328	0.06384879
163	0xbcac0c48	-0.02100195
164	0xbdbddbc3	-0.09270432
165	0xbdadc627	-0.0848506
166	0x3d9b5296	0.075841114
167	0x3da9719f	0.08273625
168	0x3deaff18	0.114744365
169	0x3d8bba8d	0.06822691
170	0xbdd6774f	-0.10471975
171	0xbc14d6fa	-0.0090844575
172	0xbd97a40f	-0.074043386
173	0xbd710104	-0.05883886
174	0xbddef59b	-0.10886689
175	0xbdb8bed2	-0.09020771
176	0x3b8af527	0.00424065
177	0xbcdd51a7	-0.027016474
178	0xbd3845e6	-0.044988535
179	0xbd919fcd	-0.07110558
180	0xbc840614	-0.01611618
181	0xbd906c21	-0.07051874
182	0xbdf6ebc3	-0.12056687
183	0xbda3eb24	-0.08003834
184	0x3d87e4ad	0.06635413
185	0x3dbce2d6	0.09222953
186	0x3c405f92	0.011741536
187	0x3b9252b7	0.004465427
188	0xbd912857	-0.07087772
189	0x3d9a85d9	0.07545061
190	0xbcb1b404	-0.021692283
191	0xbd33cf60	-0.04389894
192	0xbd0438b3	-0.032280635
193	0x3b9922da	0.004673344
194	0xbd16f5c4	-0.036855474
195	0xbddb2303	-0.10700037
196	0xbb90b16d	-0.004415682
197	0xbc6c48a7	-0.014421619
198	0x3c94226f	0.018082825
199	0xbd12ce76	-0.035841428
200	0x3db7572f	0.08952176
201	0xbd83210b	-0.06402787
202	0x3deae12c	0.114687294
203	0x3dbdd786	0.092696235
204	0xbdfb3c03	-0.12267306
205	0xbd2cf803	-0.04222871
206	0xbbd80c1e	-0.0065932414
207	0x3d1a2738	0.03763506
208	0xbcb4712e	-0.022026625
209	0xbd27f214	-0.041002348
210	0xbdd2b2f3	-0.10288038
211	0x3c155357	0.009114108
212	0x3d30c0c6	0.043152593
213	0x3dbc5b97	0.09197157
214	0xbe06643b	-0.13124172
215	0x3d09c7c2	0.03363777
216	0xbdcd6ce7	-0.10030537
217	0xbd6ca4b0	-0.057774246
218	0x3d0fcb4e	0.035105996
219	0x3d95a871	0.07307518
220	0xbdd9f351	-0.10642112
221	0x3d3741a6	0.04474034
222	0xbd949727	-0.072553925
223	0x3d4c2f24	0.049849644
224	0xb9f89da5	-0.000474197
225	0xbe398a8e	-0.1811926
226	0xbe03bff2	-0.1286619
227	0x3d9c7819	0.07640094
228	0xbd0beb13	-0.03415973
229	0x3dcec23d	0.10095642
230	0xbdd62387	-0.10455995
231	0xbdf0342d	-0.11728702
232	0xbd138ab3	-0.036020946
233	0x3d818942	0.06325008
234	0x3d9f51e0	0.07779288
235	0xbd8bf73b	-0.06834265
236	0xbca4e105	-0.020126829
237	0xbd7cfbb9	-0.0617635
238	0x3e18fe49	0.14940752
239	0xbe03c9e8	-0.1286999
240	0xbc43ac32	-0.01194291
241	0x3e4fd41f	0.20295762
242	0x3d9c3a10	0.07628262
243	0x3e202451	0.15638854
244	0x3c4ed9be	0.012625156
245	0x3d89ecb3	0.067346
246	0xbd131dee	-0.035917215
247	0xbce6bae7	-0.028165294
248	0xbd0b009d	-0.03393613
249	0x3e1bfc83	0.15233044
250	0x3d682905	0.056679744
251	0x3d29e2a9	0.041475926
252	0x3d0a4ec6	0.03376653
253	0x3ddf1b7d	0.10893915
254	0xbac3e5fc	-0.001494586
255	0x3cba78b6	0.022762638

network_body._body_endoder.seq_layers.0.bias f4 [256]
0	0xbcccf622	-0.025019709
1	0xbd71c665	-0.059027094
2	0xbb64aceb	-0.0034893106
3	0xb9f5a76a	-0.00046854775
4	0xbbfec948	-0.0077754594
5	0xbccc5e0f	-0.024947194
6	0xbbcdf163	-0.006284879
7	0xbb89d787	-0.004206601
8	0xbcbeb595	-0.023279944
9	0x3a69e818	0.00089228293
10	0xbc39ee39	-0.011348301
11	0xbd02a8b9	-0.031899188
12	0xbc01e8af	-0.007929011
13	0xbcd5b280	-0.026086092
14	0xbc808de5	-0.01569266
15	0xbc945a00	-0.018109322
16	0xbcfc93ff	-0.030832289
17	0xbcaf8599	-0.021426009
18	0xbc791e5d	-0.015204993
19	0x3c8bace3	0.017050212
20	0xbd47407f	-0.048645493
21	0x3ba79225	0.0051138573
22	0x3c66f946	0.014097517
23	0xbc9f740d	-0.019464517
24	0xbd13cf10	-0.036086142
25	0xbcce792e	-0.025204267
26	0xbcaf8eb6	-0.021430355
27	0xbce33b35	-0.027738193
28	0x3c6b9065	0.014377688
29	0xb76a07f0	-1.3949335e-05
30	0xbc353be3	-0.011061641
31	0x3c66be8f	0.014083519
32	0x3c385615	0.011250992
33	0xbbc91f9d	-0.006137802
34	0x3d30f684	0.043203846
35	0xbb6b1125	-0.0035868373
36	0x3c7a83a1	0.015290172
37	0xbd24dbcd	-0.04024868
38	0xbc123712	-0.008924263
39	0x3c418e02	0.011813642
40	0x3b0f8294	0.00218979
41	0xbce6b441	-0.028162124
42	0xbcf0eab5	-0.029408792
43	0x3c3b6828	0.011438407
44	0x3cbde5fa	0.02318095
45	0x3ae59784	0.0017516469
46	0xbca579ea	-0.020199735
47	0x3c888f50	0.0166699
48	0x3b7fc999	0.0039030074
49	0x3cad91e8	0.021187738
50	0xbd115083	-0.035477173
51	0x3c52feac	0.012878101
52	0xbc48c323	-0.0122535555
53	0xbc87641e	-0.016527232
54	0xbda9fa89	-0.08299739
55	0xbc8a88aa	-0.01691087
56	0xbc9dc620	-0.019259512
57	0xbcadc5af	-0.021212427
58	0x3c63f1e0	0.013912648
59	0x3c879c35	0.016553978
60	0xba678044	-0.0008831064
61	0xbae8904a	-0.0017743197
62	0xbd1407c3	-0.036140215
63	0x3c8a8a5e	0.016911682
64	0xbd4d1ba6	-0.050075196
65	0x3c947147	0.018120421
66	0xbc8e5931	-0.017376514
67	0x3c47fee9	0.012206771
68	0x3cc52e78	0.02407001
69	0xbc52c6df	-0.012864797
70	0xbcc22d42	-0.023703221
71	0xbc999928	-0.018749788
72	0xbc212008	-0.009834297
73	0xbd838156	-0.06421153
74	0xbc2e4ea3	-0.010638866
75	0x3c3b521f	0.011433153
76	0xb9db1334	-0.00041785243
77	0x3cd3f363	0.025872892
78	0xbd180140	-0.037110567
79	0xbb82b3fa	-0.00398874
80	0x3caad06c	0.020851336
81	0x3ba4a306	0.0050243167
82	0x3a606b52	0.0008560914
83	0xba3dedd3	-0.00072452164
84	0xbbddce9d	-0.006769015
85	0x3b2e565f	0.0026601774
86	0x3cf64220	0.030060828
87	0x3d090e60	0.033460975
88	0x3cb050ec	0.021522962
89	0xbc9bde23	-0.019026821
90	0xbc79778d	-0.015226257
91	0x3cd84ece	0.026404765
92	0xbd2612c4	-0.04054524
93	0xbcb9d1e9	-0.0226831
94	0xbc1d6366	-0.009606218
95	0xbc408434	-0.01175027
96	0xbcf8bebc	-0.030364387
97	0xbc1030bf	-0.0088006845
98	0xbaaefb9c	-0.0013350132
99	0x3ad89b80	0.0016525835
100	0x3ca51d3f	0.020155547
101	0xbca1f2f6	-0.019769173
102	0xbc53c1d7	-0.012924633
103	0xbc31e2a5	-0.010857259
104	0xbcd60bee	-0.026128735
105	0xbd42e15b	-0.047578197
106	0xbcfad899	-0.03062086
107	0x3c55c520	0.013047487
108	0x3c390a6e	0.011293991
109	0xbd1f88e6	-0.038948916
110	0xb8a77ca5	-7.9863974e-05
111	0xbcafa859	-0.02144258
112	0xbce9a38a	-0.028520364
113	0xbd3c52f8	-0.045977563
114	0xbd1e1fff	-0.038604733
115	0x3ca47739	0.020076381
116	0x3c5a045d	0.013306704
117	0xb98a9fb6	-0.00026440405
118	0xbc05f677	-0.008176438
119	0xbcdb347b	-0.026758423
120	0xbb301d4a	-0.0026872926
121	0xbbef3080	-0.007299483
122	0xbabb74a6	-0.0014301732
123	0xbc4cc5b8	-0.012498312
124	0x3af58afd	0.0018733438
125	0x3b48d96f	0.0030647179
126	0xbce03caf	-0.027372686
127	0xbcb59200	-0.022164345
128	0x3b288450	0.002571363
129	0xbcd4ea7e	-0.02599072
130	0xbc8782e6	-0.01654191
131	0xbd73f74f	-0.059562024
132	0xbc925b17	-0.0178657
133	0xbccce406	-0.025011074
134	0x3cc2cbd7	0.023778839
135	0x3bc3426e	0.005958847
136	0x3cd76e8c	0.02629783
137	0xbc353ccd	-0.011061859
138	0xbca92ba0	-0.020650685
139	0xbc8998c4	-0.016796477
140	0xbb91cfc8	-0.0044498183
141	0xbce14cec	-0.0275025
142	0xbb9ba3b2	-0.0047497386
143	0xbceed50d	-0.029154325
144	0x3c4a1c5b	0.012335862
145	0x3c7ebbda	0.015547717
146	0x3cfd6079	0.03092979
147	0x3c7af3ee	0.015316946
148	0x3bf03f0b	0.007331734
149	0xbc4df380	-0.012570262
150	0xbcd353c6	-0.025796782
151	0x3cdb4754	0.02676741
152	0xbd82dbaa	-0.06389554
153	0x3d3d4655	0.046209652
154	0x3a596fdc	0.00082945614
155	0xbd7cbd5f	-0.061704036
156	0xbcd5478a	-0.026035089
157	0x3d28e79a	0.041236497
158	0xbd1ab75a	-0.037772514
159	0xbcc1faa9	-0.023679094
160	0x3afe0080	0.0019378811
161	0x3bf0464d	0.0073325993
162	0xbcdf3e48	-0.027251378
163	0xbadb424c	-0.0016728132
164	0x39bcdc1d	0.00036022151
165	0xbdb06bdf	-0.08614325
166	0x3bd0c845	0.0063715302
167	0xbbb12e2d	-0.005407116
168	0xbbce3ce3	-0.0062938794
169	0xbc8fb1cc	-0.017540835
170	0xbd07ec08	-0.03318408
171	0x3c47c96b	0.012194018
172	0x3c7de8b4	0.015497375
173	0xbd59e7b6	-0.053199492
174	0xbc0aa203	-0.008461478
175	0xbcbcbd12	-0.023039375
176	0x3d06ec1a	0.032940008
177	0xbc3fc8fd	-0.011705634
178	0x3996c0b0	0.00028753793
179	0x3954b720	0.00020286115
180	0xbd201632	-0.039083667
181	0x3c8afd41	0.016966464
182	0xbbe85d43	-0.007091196
183	0xbd0cf3e7	-0.03441229
184	0x3cc3dd0e	0.023909118
185	0x3b0754fe	0.0020650025
186	0x3c48bbc7	0.012251801
187	0xbbf885f5	-0.0075843283
188	0x3bef8d5c	0.0073105525
189	0x3afe6f30	0.0019411799
190	0xbc213e9f	-0.00984159
191	0x3b174ad5	0.0023085375
192	0x3d444464	0.047916785
193	0x3cc4a367	0.024003698
194	0x3cc27a6d	0.023740018
195	0x3bf19608	0.0073726214
196	0xbcf5fad6	-0.030026834
197	0xbcaf7ff7	-0.021423323
198	0x3c1d738f	0.009610071
199	0xbcde0925	-0.02710397
200	0xbb8cee37	-0.0043008584
201	0xbc9771a8	-0.018486813
202	0x3c3d1a43	0.011541906
203	0x3ccfa9cc	0.02534952
204	0xbcb7df02	-0.022445206
205	0xbd0ea456	-0.03482469
206	0x3b1dff44	0.002410845
207	0xbcd8f0fe	-0.026482102
208	0x3cbac82a	0.022800524
209	0x3a133222	0.00056150754
210	0xbc36c882	-0.011156203
211	0xbc9d2cb2	-0.019186351
212	0x3cb26098	0.021774575
213	0xbca0ecb9	-0.019644128
214	0x3cf83ed2	0.030303393
215	0x3ce5bde9	0.028044658
216	0x3cd2cf6a	0.025733668
217	0xbad61c8e	-0.0016335414
218	0x3d2068e6	0.03916254
219	0x3cefd6a9	0.029277163
220	0x3ba1939f	0.004930928
221	0xbcc8bfbd	-0.02450549
222	0xbc9af778	-0.01891683
223	0xbce11b77	-0.027478917
224	0xbbf67ef3	-0.0075224577
225	0xbd04ea5a	-0.032450058
226	0xbcc7db64	-0.024396606
227	0x3c816312	0.01579431
228	0xbaeb7b02	-0.0017965736
229	0xbcb8ed00	-0.022573948
230	0xbd136ccd	-0.035992432
231	0xbb4b931a	-0.003106302
232	0x3c89ce2b	0.016821941
233	0xbbe25894	-0.006907532
234	0xbb3805c6	-0.0028079613
235	0xba8d6b88	-0.0010789493
236	0x3d0f2398	0.034946054
237	0xbc947482	-0.018121962
238	0xba7334f5	-0.00092776056
239	0xba0ecf6c	-0.00054477784
240	0xbd2b7959	-0.041863773
241	0xba9b110b	-0.0011830641
242	0xbb136680	-0.0022491515
243	0xbd2fe101	-0.04293919
244	0x3c847e70	0.016173571
245	0x3bd45e73	0.006480986
246	0x3c648a21	0.013948948
247	0xbc58d526	-0.013234412
248	0x3bd62270	0.006534867
249	0xbbba844e	-0.0056920415
250	0xbc77c296	-0.0151220765
251	0xbc2014a5	-0.009770547
252	0x3b6cb65c	0.0036119437
253	0x3b2a547a	0.0025990293
254	0xbcbdc0ec	-0.023163281
255	0xbcaa7c04	-0.020811088

network_body._body_endoder.seq_layers.2.weight f4 [256, 256]
0	0xbdc915de	-0.09818624
1	0x3d9fd050	0.07803404
2	0x3ddf4f8b	0.109038435
3	0xbad5f8c6	-0.0016324751
4	0x3df7b141	0.120943554
5	0x3dd1c56c	0.10242733
6	0xbdbfea8e	-0.0937091
7	0x3baea43f	0.0053296383
8	0x3b96aebb	0.004598466
9	0x3cfee8e6	0.031116914
10	0x3cab2ddd	0.020895893
11	0x3d503f5a	0.050841667
12	0x3de1c11d	0.110231616
13	0xbc812655	-0.015765348
14	0xbd6b05ca	-0.057378568
15	0xbde0eb33	-0.10982361
16	0x3bb64567	0.0055624726
17	0xba8e5be6	-0.0010861128
18	0x3c91f776	0.017818194
19	0xbd1aa26c	-0.037752554
20	0x3d7434e3	0.05962075
21	0xbd2cc873	-0.04218335
22	0x3d3577c9	0.04430369
23	0xbe18870e	-0.1489527
24	0x3dac8971	0.08424652
25	0xbbf250b7	-0.007394876
26	0x3cee83ac	0.02911552
27	0xbd5b80f1	-0.053589765
28	0x3d61ec87	0.05515721
29	0x3cb95c7d	0.02262711
30	0xbd9a1ad0	-0.07524645
31	0xbc8d050c	-0.01721432
32	0xbd34792a	-0.044060864
33	0xbb6f234a	-0.003648954
34	0xbdbf442d	-0.093391754
35	0xbd3a61f0	-0.045503557
36	0xbc1ddaeb	-0.009634714
37	0xbbf7bbf1	-0.007560246
38	0xbda4aa5e	-0.080403075
39	0x3e1707b6	0.14749035
40	0xbe06d04e	-0.131654
41	0x3e0d0f40	0.13775349
42	0x3d442464	0.047886267
43	0x3cca58a4	0.02470047
44	0x3dacd414	0.08438888
45	0x3ccab0b9	0.024742471
46	0x3d6a48a4	0.05719818
47	0x3dd84d16	0.10561578
48	0xbd9a0e7b	-0.07522293
49	0x3d9c0429	0.07617981
50	0xbd1f7f3a	-0.038939692
51	0x3d961b44	0.07329419
52	0x3cff2146	0.031143796
53	0x3bf48ffc	0.0074634533
54	0x3d163f25	0.036681313
55	0x3cfed482	0.031107191
56	0xbbf00d59	-0.00732581
57	0xbd470017	-0.04858407
58	0xbd978c1d	-0.07399771
59	0xbd296a11	-0.04136092
60	0xbdb4bdf0	-0.0882529
61	0xbd772ae8	-0.060343653
62	0xbc91c9ba	-0.017796386
63	0x3d9c76cb	0.076398455
64	0xbcc651ef	-0.02420899
65	0x3e1414b0	0.14461017
66	0x3c24bea5	0.010055219
67	0xbe16b3de	-0.14717051
68	0xbe1b9258	-0.15192544
69	0xbd4d5ce6	-0.050137423
70	0xbdd383a7	-0.10327845
71	0xbd95e565	-0.07319144
72	0xbd86350e	-0.06553088
73	0xbcf2daba	-0.029645313
74	0x3d41cfa7	0.047317173
75	0xbceb1e55	-0.028700987
76	0x3b808a82	0.0039227614
77	0x3b5a64f2	0.0033324328
78	0x3ddd0df4	0.10793677
79	0xbd98ca77	-0.07460492
80	0x3bb44dc3	0.005502434
81	0xbde58d1a	-0.112085536
82	0xbc30c222	-0.010788472
83	0xbb0490ba	-0.0020227865
84	0xbe24f5fd	-0.16109462
85	0x3cf34846	0.029697549
86	0xbb8935b4	-0.00418731
87	0x3d899727	0.06718283
88	0xbcb02204	-0.021500595
89	0x3d33043f	0.04370522
90	0xbd86dcf2	-0.06585111
91	0x3d5e4bc3	0.05427147
92	0xbc3cb388	-0.011517413
93	0xbe66dbc2	-0.22544768
94	0x3d926c43	0.071495555
95	0x3d43c56c	0.047795698
96	0x3da1c0e9	0.07898123
97	0xbd99073a	-0.074720815
98	0xbdd30ab5	-0.103047766
99	0x3d87ed21	0.066370256
100	0x3cb3043b	0.021852603
101	0xbdc07b26	-0.09398489
102	0xbd038c38	-0.032116145
103	0x3d260607	0.040533092
104	0x3d78c594	0.0607353
105	0x3d8eca9e	0.0697224
106	0x3d45a667	0.048254397
107	0x3c8e961f	0.017405568
108	0xbe3cd781	-0.18441583
109	0x3d926176	0.071474954
110	0x3d9032ad	0.07040916
111	0x3d126378	0.035739392
112	0xbc93c98c	-0.018040441
113	0xbdd7ae49	-0.10531289
114	0xbce31077	-0.027717812
115	0x3d694a1e	0.05695545
116	0x3d81813c	0.063234776
117	0x3dc572f0	0.09641063
118	0xbc43ee0d	-0.011958611
119	0xbcf7355d	-0.030176813
120	0x3c51986a	0.012792686
121	0x3deada36	0.11467402
122	0x3dc6bb55	0.097036995
123	0x3d81da2a	0.063404396
124	0xbda2a4d4	-0.07941595
125	0x3dc8aef6	0.09798996
126	0xbd849b93	-0.06474986
127	0xbdabf347	-0.08396011
128	0x3d233ddd	0.03985392
129	0xbdf81d7d	-0.121149994
130	0xbe0e5cc3	-0.13902573
131	0xbe49cbb2	-0.1970661
132	0xbc4ac23c	-0.012375411
133	0xbd08dc4c	-0.033413216
134	0xbda9c0ce	-0.08288728
135	0x3d1d0a21	0.038339738
136	0xbdfbf5e4	-0.12302759
137	0xbc873a90	-0.016507417
138	0x3d2ea4af	0.042637523
139	0x3d11634a	0.03549508
140	0x3d20e41f	0.039280053
141	0x3caf7450	0.021417767
142	0x3db326c8	0.08747631
143	0xbd9ff518	-0.0781042
144	0x3d9d775c	0.076887816
145	0x3d3d2671	0.04617924
146	0x3d8c4fc0	0.068511486
147	0x3d41380a	0.047172584
148	0x3b7a9016	0.0038232855
149	0x3de1cbc8	0.11025196
150	0xbda8aae5	-0.082357205
151	0x3d00e56c	0.031468794
152	0xbc2c5c77	-0.010520092
153	0x3d3c82d9	0.046023224
154	0x3ccbd3f7	0.024881346
155	0xbd734510	-0.059392035
156	0x3d0f428b	0.03497557
157	0xb94e5be2	-0.0001967992
158	0xbbe2df71	-0.006923609
159	0x3d4ddfc0	0.050262213
160	0x3be4e433	0.0069852113
161	0xbca120ad	-0.019668901
162	0xbbf2166d	-0.0073879273
163	0xbc78d20d	-0.015186799
164	0x3dbfa49c	0.093575686
165	0xbd0b89fa	-0.03406713
166	0xbdfdc23d	-0.12390564
167	0xbd84b93e	-0.06480645
168	0x3d35b329	0.044360314
169	0x3da278db	0.079332076
170	0xbbda3efc	-0.0066603404
171	0x3dae30d7	0.08505409
172	0xbce32e90	-0.027732164
173	0xbe2b3ec6	-0.16723165
174	0x3d1738b8	0.036919326
175	0xbd2db30f	-0.04240709
176	0xbd2880a4	-0.041138306
177	0xbc6ff0ca	-0.014644811
178	0xbdb43955	-0.08799998
179	0x3de3ae34	0.11117211
180	0xbdc1b5ef	-0.09458529
181	0x3d2d617d	0.0423293
182	0x3dcf7b16	0.10130899
183	0x39b6bd6f	0.00034854884
184	0x3e62ba47	0.22141372
185	0x3d8d323b	0.06894346
186	0xbb7b63f0	-0.0038359128
187	0x3dcc3663	0.09971311
188	0xbde67692	-0.11253084
189	0x3d3d6956	0.046243034
190	0x3da7ef8f	0.08199989
191	0x3d91edb9	0.0712542
192	0x3c94d8df	0.018169818
193	0xbce435d0	-0.027857691
194	0xbe0d7bf6	-0.13816819
195	0xbd8ff07d	-0.070282914
196	0xbbc45a7d	-0.0059922324
197	0x3d1f12fd	0.038836468
198	0x3c8fbebd	0.017547006
199	0x3c33d7fd	0.010976789
200	0xbcab74cc	-0.020929717
201	0x3d0d4051	0.034485165
202	0x3e1d422a	0.15357271
203	0xbe1fdfa4	-0.15612656
204	0x3a84a137	0.0010118847
205	0x3d83778d	0.06419287
206	0xbb4ae685	-0.0030960154
207	0x3d309c97	0.043118086
208	0x3deef714	0.1166822
209	0x3dbea1ef	0.0930823
210	0xbd3dae0f	-0.046308573
211	0x3dde5647	0.108563
212	0x3d81588f	0.06315719
213	0xbd64de25	-0.055875916
214	0xbe04c357	-0.12965141
215	0xbe0720ad	-0.13196059
216	0xbcb0b4e2	-0.021570627
217	0xbd580b26	-0.052745007
218	0x3bc15836	0.005900408
219	0xbd04aecc	-0.03239326
220	0x3bbc34f1	0.005743616
221	0x3b350089	0.0027618727
222	0xb9da412c	-0.00041628757
223	0xbd2defad	-0.0424649
224	0xbdb3fd7c	-0.08788583
225	0x3d8e45d2	0.06946911
226	0x3e00ccd6	0.12578139
227	0xbd1a081c	-0.03760539
228	0x3c9ec26f	0.019379823
229	0x3e1df222	0.15424398
230	0x3c684353	0.014176208
231	0xbd19af7a	-0.037520863
232	0x3d7349e2	0.059396632
233	0x3d5a12d5	0.053240616
234	0x3d911b2e	0.07085262
235	0x3e147491	0.14497592
236	0x3d82713f	0.06369256
237	0x3d6cefe1	0.057845954
238	0x3d0ccf08	0.034377128
239	0xbd173b64	-0.036921874
240	0x3d872a4c	0.06599864
241	0xbb736329	-0.0037137961
242	0xbbcf7693	-0.006331274
243	0x3c015cac	0.00789563
244	0x3e291a6a	0.16513982
245	0xbddca3e9	-0.10773451
246	0x3dd3a164	0.10333517
247	0xbd728f8d	-0.059218932
248	0x3ddf5c1b	0.109062396
249	0x3d3af04e	0.04563933
250	0x3bff6b4d	0.0077947737
251	0xbdeef0ce	-0.116670236
252	0x3d9785ca	0.07398565
253	0xbc0bcdb3	-0.008532929
254	0x3c9546c4	0.01822222
255	0xbc9ee51e	-0.019396361

network_body._body_endoder.seq_layers.2.bias f4 [256]
0	0x3be8f74c	0.007109558
1	0x3c4a7662	0.012357326
2	0xbad90ea4	-0.0016560149
3	0x3cb97ac4	0.022641547
4	0xbc6eb91a	-0.014570499
5	0xbc52200a	-0.0128250215
6	0xbb80214c	-0.0039102193
7	0xbcbc119a	-0.022957612
8	0xbb92eb84	-0.004483642
9	0xbcb09b75	-0.021558503
10	0xbc52a0bb	-0.012855704
11	0xbd024566	-0.031804465
12	0xbcd2963f	-0.025706409
13	0xbc93eb17	-0.018056436
14	0xbbc685c1	-0.006058425
15	0xbc6d4cc6	-0.014483636
16	0xbcc1ba4c	-0.023648404
17	0x3cb62df8	0.022238716
18	0xbcb9e82a	-0.022693712
19	0xbcbd13e2	-0.02308077
20	0xbcda7f2d	-0.02667197
21	0xbbb3fbc1	-0.005492658
22	0xbb0d73f5	-0.0021584008
23	0xbb56c5fc	-0.0032771816
24	0x3c33d9be	0.010977207
25	0xb98976ac	-0.00026219094
26	0xbc21432b	-0.009842674
27	0xbc83f3d2	-0.016107474
28	0x3c31dfe5	0.010856603
29	0xbce0c357	-0.027436895
30	0xbc6978a0	-0.014249951
31	0xbbf154c2	-0.0073648402
32	0xbcff5f8a	-0.031173486
33	0x3c98788d	0.01861217
34	0x3c287815	0.010282536
35	0xbb0160dd	-0.0019741573
36	0xbc85246f	-0.016252724
37	0xbc4ccae7	-0.012499548
38	0x3c8f8e7c	0.017523997
39	0x3b972dff	0.0046136375
40	0xbbee3e2b	-0.0072705946
41	0xbcfd9930	-0.030956835
42	0xbc991098	-0.01868467
43	0x3cdd5371	0.027017327
44	0x3d0844a6	0.033268593
45	0xbc7343e1	-0.014847727
46	0x3cc58b71	0.024114342
47	0x3ce14661	0.02749938
48	0xbb8b19d4	-0.0042450223
49	0xba32df75	-0.0006823459
50	0x3bcbf3ab	0.006224116
51	0xbcba07bd	-0.022708768
52	0xbcb83761	-0.022487344
53	0x3cd7ccae	0.026342716
54	0x38baa211	8.899358e-05
55	0xbbce483d	-0.0062952326
56	0xbb4df8a2	-0.0031428714
57	0xbbecf708	-0.007231597
58	0xbb9c0382	-0.0047611604
59	0x3c12a5c1	0.008950652
60	0xbc3a71cd	-0.011379671
61	0xbcdb16ec	-0.026744328
62	0xbaf10df6	-0.0018391002
63	0xbcd51a83	-0.026013618
64	0xbb6c7bfc	-0.0036084643
65	0xbb7285eb	-0.003700609
66	0xbc0e25cc	-0.008676004
67	0xbce85c2f	-0.028364269
68	0xbbc2abe9	-0.0059409034
69	0xbc79e448	-0.01525218
70	0x3c0d62b9	0.008629494
71	0xbc87239e	-0.016496476
72	0xbcda34cf	-0.02663651
73	0xbd2e7232	-0.042589374
74	0xbc0590de	-0.008152215
75	0x3ca3dd13	0.020002877
76	0x3c981901	0.01856661
77	0x3ab956d5	0.0014140258
78	0xbc41ca1a	-0.01182797
79	0xbacea43e	-0.0015765501
80	0xbc332c75	-0.010935892
81	0xbd09f6dc	-0.03368269
82	0x3ad0a32d	0.0015917771
83	0xbad2fb9f	-0.0016096717
84	0x3c9196bd	0.017772073
85	0x3c4c5431	0.012471245
86	0x3c92f477	0.017938836
87	0xbd11914d	-0.03553896
88	0xba4bb166	-0.000777027
89	0xbccf42ef	-0.025300471
90	0xbc1dfb5e	-0.00964245
91	0x3be7c63c	0.007073192
92	0x398bc1d2	0.00026656553
93	0x3b0e45fb	0.0021709192
94	0xbbab99b4	-0.0052368287
95	0xbbfec2da	-0.007774693
96	0xbca87ac7	-0.020566357
97	0x3ce5a2ba	0.028031696
98	0x3c96e49a	0.018419553
99	0xbca1fb7f	-0.019773243
100	0xbc8ee844	-0.017444737
101	0x3c6782ba	0.014130289
102	0xbd045dd5	-0.032316048
103	0xbc903686	-0.017604124
104	0xbab3120d	-0.0013661996
105	0xbd61942a	-0.05507294
106	0xbcf8fcf2	-0.030394051
107	0x3b9a5817	0.004710208
108	0xbc93bad6	-0.018033426
109	0xbd3f1a37	-0.04665586
110	0xbc2c44da	-0.010514462
111	0x3c84ee56	0.016226929
112	0xba232020	-0.00062227435
113	0xbb1f24f1	-0.0024283493
114	0x3bb1393a	0.0054084333
115	0xbcdfe1c0	-0.027329326
116	0x3cc3d840	0.023906827
117	0x3c38c7d3	0.011278111
118	0xbc7dd416	-0.01549246
119	0xbccfcbf2	-0.025365803
120	0xbc4a2a73	-0.012339222
121	0xbc06daee	-0.008230908
122	0xbb486a2f	-0.0030580868
123	0x3c7dc517	0.015488884
124	0x3b102c08	0.00219989
125	0xbd1faf66	-0.038985632
126	0x3c825235	0.01590834
127	0xbc0a8da1	-0.0084566185
128	0xbc88abde	-0.016683515
129	0x3b0dad75	0.002161828
130	0x3cb3fa37	0.021969898
131	0x3bfabd93	0.0076519935
132	0x3c01aedd	0.007915226
133	0xbc6a2e1a	-0.014293218
134	0xbcacf720	-0.021113932
135	0xbbb01521	-0.0053736125
136	0xbcb74c65	-0.022375295
137	0xbc1a193b	-0.0094054295
138	0xbc30c0d2	-0.010788159
139	0x3aeaedb4	0.0017923624
140	0xbaae21f4	-0.0013285265
141	0x3cb7b6f0	0.022426099
142	0xbab603af	-0.0013886596
143	0x3c94756b	0.018122396
144	0x3c3a284e	0.011362148
145	0xbc993e3d	-0.018706435
146	0xbc3cddb8	-0.011527471
147	0xbc649e91	-0.013953821
148	0x3cc0ff7f	0.02355933
149	0x3c634d17	0.01387336
150	0xbba4e04e	-0.005031622
151	0x3bd53483	0.006506504
152	0xbb18ac17	-0.0023295933
153	0xbd2a9cc7	-0.04165342
154	0xbb865a1c	-0.0041000973
155	0xbbc6305a	-0.0060482444
156	0xbd29f0f6	-0.041489564
157	0xba0d6747	-0.00053941127
158	0xbb889d85	-0.0041691684
159	0x3c9a0261	0.018799962
160	0xbcec7ff2	-0.028869603
161	0xbd28942f	-0.041156944
162	0xbc930fb0	-0.017951816
163	0x3c2e3250	0.010632113
164	0xbd136f5a	-0.035994865
165	0xbc9082b8	-0.017640457
166	0xbcaea364	-0.021318145
167	0xbd12db01	-0.03585339
168	0xbc4babcc	-0.012431096
169	0xbcbbaf08	-0.02291061
170	0xbd2b4251	-0.04181129
171	0xbd0bc03a	-0.03411887
172	0x3c259ad6	0.010107717
173	0x3c9b6cde	0.01897281
174	0x3bef43a4	0.0073017646
175	0x3ae878c2	0.0017736184
176	0x3c0417e2	0.008062335
177	0xbb9c9b5a	-0.0047792615
178	0xbc884c35	-0.0166379
179	0x3d16bbe7	0.03680029
180	0xbc774da4	-0.015094195
181	0xbc71f89f	-0.014768749
182	0xbc94b7e4	-0.018154092
183	0xbbee5b30	-0.007274054
184	0x3b4c35fa	0.0031160102
185	0x3b629984	0.0034576366
186	0xbaa84172	-0.0012836887
187	0xbcf75c4a	-0.030195374
188	0x3c32c0b8	0.010910206
189	0x3a5004d1	0.0007935288
190	0x3c9ac058	0.018890545
191	0x3c6571ae	0.014004154
192	0x3b54fb4c	0.0032498417
193	0x3c74a808	0.01493264
194	0xbc2d5403	-0.010579112
195	0xbca5f43e	-0.020258065
196	0xbb919915	-0.0044432976
197	0xbc67f72d	-0.014158052
198	0xbd2fb1e7	-0.04289427
199	0x3c041c74	0.008063424
200	0x3c96bc97	0.018400474
201	0x3bc2823d	0.005935936
202	0xbbc085d3	-0.005875328
203	0x3ae70027	0.0017623947
204	0xbcca5d85	-0.024702797
205	0x3b901106	0.0043965606
206	0x3cb6d9c2	0.022320632
207	0xbbcb60ca	-0.0062066065
208	0x3b889bf7	0.004168983
209	0x3cf91f71	0.0304105
210	0x3bb901a4	0.0056459475
211	0xbcb7c08e	-0.022430684
212	0xbceee0ad	-0.029159868
213	0xbc17ef8d	-0.009273422
214	0xbc1b0306	-0.00946117
215	0x3c2f6e77	0.010707489
216	0xbd4242e1	-0.047427062
217	0xbbded09e	-0.0067997715
218	0x3b0ea008	0.0021762867
219	0xbc90f6de	-0.01769584
220	0x3ca744cc	0.020418547
221	0xbcb1e3ba	-0.021715034
222	0x3cc98d30	0.024603456
223	0x3b019ff3	0.0019779175
224	0xbc6c73fc	-0.01443195
225	0xbc90975d	-0.0176503
226	0xbc8a1203	-0.016854292
227	0xba178ea2	-0.0005781447
228	0x3d089274	0.033342794
229	0xbbdc3c93	-0.006721088
230	0xbc1b232b	-0.009468834
231	0x3b59912c	0.0033198101
232	0xbcb5cc8d	-0.022192264
233	0xbba8ca8b	-0.005151098
234	0x3cf3b5a2	0.029749695
235	0xbbd6a336	-0.006550218
236	0x3c5b3754	0.0133798905
237	0xbcaaf14b	-0.02086701
238	0x3c280402	0.010254862
239	0xbc6058f6	-0.013693085
240	0x3b45b71c	0.0030168956
241	0xbb124c23	-0.0022323213
242	0xbc9150f3	-0.017738795
243	0xbbb5f6e2	-0.0055531124
244	0x3c5e8a16	0.013582727
245	0xbc9bd2e8	-0.019021466
246	0xbce62a45	-0.028096328
247	0x3d23b212	0.039964743
248	0x3c984294	0.018586434
249	0xbba57a0e	-0.0050499504
250	0xbb30eaa3	-0.0026995323
251	0x3c8e6d90	0.017386228
252	0xbcd64ddb	-0.026160171
253	0x3bf6d7f1	0.0075330664
254	0xbc4f9db7	-0.0126718795
255	0xbb004034	-0.0019569518

action_model._discrete_distribution.branches.0.weight f4 [4, 256]
0	0xbc7816b1	-0.015142129
1	0x3b5c2738	0.0033592712
2	0x3d3720eb	0.044709127
3	0x3d1b6128	0.037934452
4	0x3c849003	0.016181951
5	0xbc9fa089	-0.019485729
6	0x3c41afa2	0.011821659
7	0x3c946a4a	0.018117089
8	0xbbae0e5b	-0.00531177
9	0x3c295ae2	0.01033661
10	0x3d9e55ef	0.07731234
11	0xbc2f5d71	-0.0107034305
12	0x3b3d3241	0.0028869065
13	0x3d09e6a2	0.033667214
14	0x3ac32598	0.0014888523
15	0xbba10d9f	-0.004914954
16	0xbd3cff46	-0.046141885
17	0x3d4a38ab	0.04937045
18	0xbcc8573e	-0.024455663
19	0xbccc8807	-0.024967207
20	0x3cfcffec	0.030883752
21	0x3d0e4b8b	0.034740012
22	0x3bf5f894	0.0075064395
23	0xbd5a0955	-0.053231556
24	0x3c1f12b8	0.009709053
25	0xbc81dd43	-0.015852576
26	0x3c93ec43	0.018056994
27	0xbd05d720	-0.032675862
28	0xbcd21319	-0.025643872
29	0xbbf255e3	-0.0073954924
30	0xbb482a02	-0.0030542617
31	0xbd0c0c1d	-0.03419124
32	0xbc2e2093	-0.0106278835
33	0x3cb2322f	0.021752445
34	0x3d1de575	0.038548905
35	0xbd433896	-0.047661386
36	0xba95c2ad	-0.0011425816
37	0xbca70638	-0.020388708
38	0x3c3c57ff	0.011495589
39	0x3c9e5016	0.019325297
40	0x3a99496e	0.0011694857
41	0xbc6df542	-0.014523806
42	0xbc94f65b	-0.018183878
43	0x3c48d6e6	0.012258267
44	0x3c0ad719	0.008474135
45	0xbc7beaf6	-0.015375843
46	0xbcf13901	-0.029446127
47	0x3b714294	0.0036813365
48	0xbc9cabd2	-0.019124899
49	0xbd2725bc	-0.04080747
50	0x3cabfa76	0.020993453
51	0xbc42d031	-0.011890457
52	0xbc8389c0	-0.016056895
53	0x3c97778b	0.01848962
54	0xbca9894d	-0.020695353
55	0xbd059288	-0.032610446
56	0xbd1faf4e	-0.038985543
57	0x3c060129	0.008178988
58	0xbbb99430	-0.0056634173
59	0x3cf12a42	0.029439095
60	0xbc38420a	-0.011246214
61	0xbca413d6	-0.02002899
62	0x3ad0a9c9	0.001591974
63	0xbb6efaf4	-0.0036465498
64	0xbc1484b9	-0.009064847
65	0x3cf472c3	0.029839879
66	0xbb855983	-0.0040695085
67	0xbb2772b8	-0.0025550555
68	0x3c347533	0.011014271
69	0xbc90c3ac	-0.017671429
70	0x3b5afec1	0.0033416005
71	0x3b384a2a	0.0028120377
72	0xbd21dd2a	-0.03951756
73	0xbc8fb950	-0.017544419
74	0x3ad116cb	0.0015952227
75	0xbbb63f62	-0.005561755
76	0xbb02afc1	-0.0019941183
77	0x3c16c85d	0.009203044
78	0x3b6696c9	0.003518509
79	0x3c8c68cf	0.01713982
80	0x3c96d21f	0.01841074
81	0x3b0de4af	0.0021651199
82	0x3ab5f5aa	0.0013882418
83	0xbd180a4f	-0.037119206
84	0xbc8ea17c	-0.017410986
85	0xbaaf2bde	-0.0013364514
86	0x3c4b3548	0.01240284
87	0xbc82e609	-0.01597883
88	0xbc655f0e	-0.013999714
89	0xbc081090	-0.00830473
90	0x3c2fab9b	0.010722066
91	0x3a61c992	0.0008613105
92	0xbce9896a	-0.028507907
93	0xbcab9b5e	-0.020948108
94	0x3d0f6669	0.035009775
95	0x3c89d0b2	0.016823146
96	0xbcf23e91	-0.02957085
97	0x3cfd7962	0.030941669
98	0x3c50223b	0.012703474
99	0xbc9987b4	-0.018741466
100	0xba85edb1	-0.0010217932
101	0xbd847d9f	-0.06469273
102	0x3d085543	0.033284437
103	0xb985cc49	-0.0002551994
104	0x3c42a2b1	0.011879609
105	0xbcdc439d	-0.02688771
106	0xbcb1d326	-0.021707129
107	0xbca1f771	-0.01977131
108	0xbb0c7a05	-0.0021435034
109	0x3c80f163	0.015740102
110	0x39a97df4	0.00032328034
111	0xba8c0ca7	-0.0010684923
112	0xbd803531	-0.062601455
113	0xbd32cf99	-0.04365501
114	0xbc22c0c4	-0.009933654
115	0xbbb1db12	-0.0054277265
116	0x3c99d5a1	0.018778624
117	0x3d5efb4e	0.05443888
118	0xbc0b2895	-0.008493562
119	0xbd300b7d	-0.042979706
120	0x3cd01cae	0.0254043
121	0xbc86137c	-0.016366713
122	0xbb74a49f	-0.0037329567
123	0x3d757007	0.05992129
124	0xbc8cc18e	-0.017182138
125	0x3c08ef84	0.008357886
126	0x3caab6d0	0.020839125
127	0xbabca3b5	-0.001439205
128	0x3c0e42ba	0.008682901
129	0x3db9c1ae	0.090701446
130	0x3cd4756a	0.025934894
131	0xbab11713	-0.0013510905
132	0x3c85584c	0.016277455
133	0x3b552bf0	0.003252741
134	0xbc55bfaa	-0.013046185
135	0xbc13eb77	-0.009028307
136	0xbcbf13df	-0.023324905
137	0xbb909111	-0.0044118245
138	0xbcef657c	-0.029223196
139	0xbd129a03	-0.03579141
140	0x3d1c6482	0.03818179
141	0xbca58ef8	-0.020209774
142	0xbc96c4df	-0.018404422
143	0xbd2f4db5	-0.042798717
144	0x3c3b3624	0.011426482
145	0x3b9493c9	0.004534219
146	0xbbb2270f	-0.005436785
147	0x3d651aa9	0.05593363
148	0xbd0a3d49	-0.033749852
149	0xba730119	-0.0009269878
150	0x3d42f84f	0.047600087
151	0x3d90d86d	0.0707253
152	0x3c73831a	0.0148628
153	0xbc899f27	-0.016799523
154	0xbb369612	-0.0027860445
155	0x3d64bbaf	0.05584305
156	0xbc4164a9	-0.011803784
157	0xb99c7097	-0.00029838525
158	0x3c556750	0.01302512
159	0x3cf33f65	0.029693315
160	0xbd75432f	-0.059878524
161	0xbc75150a	-0.014958629
162	0xbd03e911	-0.03220469
163	0xbc507ec1	-0.012725533
164	0xbc8c16b4	-0.01710067
165	0xbbf1a878	-0.0073748194
166	0xbcd2273c	-0.025653474
167	0xbc8c0a33	-0.017094707
168	0x3b4bc5f0	0.0031093322
169	0xbc844d60	-0.016150177
170	0xbc2ab55d	-0.010419217
171	0xbc8e2759	-0.017352747
172	0x3bf34f2a	0.0074252086
173	0x3ce6d9e1	0.028180065
174	0xbc6feab2	-0.014643358
175	0xb98e7c17	-0.00027176805
176	0x3ca7f076	0.020500403
177	0xbb5e7914	-0.003394668
178	0xbc50d09f	-0.012745052
179	0x3d331aa2	0.04372657
180	0x3d1b6b5a	0.037944175
181	0xbca5374b	-0.020167967
182	0xbcf35f49	-0.029708521
183	0xbce6c9af	-0.028172342
184	0x3c0db4f5	0.008649101
185	0xbc8e70ae	-0.017387714
186	0xbcf0f96a	-0.029415805
187	0xbcb1e2e5	-0.021714637
188	0x3c0d781f	0.008634596
189	0xbbf414fe	-0.0074487915
190	0xbd3a63db	-0.045505386
191	0x3c37e998	0.011225127
192	0x3b8147b9	0.0039453176
193	0x3d6dd939	0.058068488
194	0x3c550feb	0.013004283
195	0xbc8218b3	-0.015880918
196	0xbac22410	-0.0014811773
197	0x3c3dc8b4	0.011583496
198	0x3c83582b	0.016033253
199	0x3cd294a1	0.025705637
200	0xb95e8fec	-0.00021225185
201	0x3d41896f	0.047250208
202	0x3d4d1cd2	0.050076313
203	0x3cb3f7ce	0.021968748
204	0x3bf9b8a3	0.0076208874
205	0x3d51ef4d	0.051253606
206	0x3c92c6cb	0.017917057
207	0x3c5db460	0.013531774
208	0x3b68f1dd	0.0035544552
209	0x3bc7bf71	0.0060958196
210	0x3c926e3c	0.01787483
211	0x3c4c42b0	0.012467071
212	0x3d9238cb	0.07139739
213	0xbcaa3a3f	-0.020779727
214	0xbc114a98	-0.008867882
215	0x3c2bdefa	0.0104901735
216	0xbcb0cfeb	-0.021583518
217	0x3cd50e17	0.026007695
218	0xbc99d9af	-0.018780557
219	0x3aa8cb35	0.0012877943
220	0xbcb505ee	-0.022097554
221	0xbc895b2e	-0.01676711
222	0x3cd668da	0.026173044
223	0xbd731539	-0.05934641
224	0x3c7973d3	0.015225369
225	0x3cde8b26	0.02716596
226	0x3d31ab51	0.04337627
227	0xbcb0d552	-0.021586094
228	0xbb549d47	-0.0032442377
229	0xbc20355c	-0.009778347
230	0x3bf90bb9	0.0076002744
231	0x3ac863f3	0.0015288576
232	0xbca37209	-0.019951837
233	0x3c1b4569	0.009476998
234	0xbd44a45b	-0.048008304
235	0xbd0e1976	-0.03469225
236	0xbcb17990	-0.02166441
237	0xbbcc8481	-0.0062413816
238	0xbc4a67ea	-0.012353877
239	0xbc50ca36	-0.012743523
240	0xbc6bb247	-0.014385766
241	0x3c745736	0.014913371
242	0xbcce3f18	-0.02517657
243	0xbc97c944	-0.018528588
244	0x3cb503d8	0.02209656
245	0x3ca17a3b	0.019711604
246	0xbc9d522d	-0.019204224
247	0x3d0be42f	0.03415316
248	0x3d016525	0.0315906
249	0x3b98598a	0.0046493458
250	0x3c18a971	0.009317742
251	0xbd00b009	-0.03141788
252	0xbc50bf4a	-0.012740919
253	0xbc66d57d	-0.0140889855
254	0x3bda239c	0.006657077
255	0x3c0ccc96	0.008593699

action_model._discrete_distribution.branches.0.bias f4 [4]
0	0x3cc4b465	0.0240118
1	0x3b3eb00e	0.0029096636
2	0xbc629150	-0.0138285905
3	0xbc1145f6	-0.008866778

onnx::Div_62 f4 [202]
0	0x3eb73fc6	0.35790843
1	0x3e909e2a	0.2824567
2	0x3ee4d2d2	0.44692093
3	0x3ec2e2b9	0.380636
4	0x3ee7c761	0.45269302
5	0x3ec30d86	0.38096255
6	0x3ee4d2d2	0.44692093
7	0x3ec36360	0.38161755
8	0x3ee7c761	0.45269302
9	0x3ec39784	0.38201535
10	0x3ee09281	0.43861774
11	0x3ec38d0b	0.38193545
12	0x3ee49997	0.4464843
13	0x3ec3cec3	0.38243684
14	0x3ee13502	0.43985754
15	0x3ec3f144	0.3827001
16	0x3ee533ce	0.44766086
17	0x3ec42df0	0.38316298
18	0x3ee1c39e	0.44094557
19	0x3ec3d72d	0.38250104
20	0x3ee79665	0.4523193
21	0x3ec4a8c8	0.3841002
22	0x3ee75791	0.45183995
23	0x3ec74047	0.38916227
24	0x3eeb879b	0.46001896
25	0x3ec73a7b	0.38911805
26	0x3ee50bac	0.44735467
27	0x3ec5d055	0.38635507
28	0x3ee8f7d4	0.45501578
29	0x3ec5f400	0.3866272
30	0x3ee5deaa	0.44896442
31	0x3ec609a8	0.38679242
32	0x3eea711a	0.45789415
33	0x3ec60f49	0.38683537
34	0x3ee9a103	0.45630655
35	0x3eca5031	0.39514306
36	0x3eed0525	0.46292987
37	0x3ec97d12	0.39353234
38	0x3eea1961	0.45722488
39	0x3eca1488	0.3946879
40	0x3eedc839	0.4644182
41	0x3ec92f7e	0.39294046
42	0x3ee5b720	0.44866276
43	0x3ec30453	0.38089237
44	0x3eeb284c	0.45929182
45	0x3ec20c4f	0.37900016
46	0x3ee179ed	0.44038334
47	0x3ec00607	0.37504598
48	0x3ee60d16	0.4493186
49	0x3ebeac0c	0.37240636
50	0x3ee14e8c	0.4400524
51	0x3ec02284	0.37526333
52	0x3ee61652	0.44938904
53	0x3ebeb552	0.3724771
54	0x3ee72858	0.45147967
55	0x3ec402e8	0.38283467
56	0x3eeac5ec	0.45854127
57	0x3ec27130	0.3797698
58	0x3eee0fde	0.4649648
59	0x3ecd2bc7	0.40072462
60	0x3eed44b7	0.46341488
61	0x3ec91e25	0.3928081
62	0x3eee0fc2	0.46496397
63	0x3ecd8b7f	0.4014549
64	0x3eece42b	0.46267828
65	0x3ec96809	0.39337185
66	0x3eedca24	0.46443284
67	0x3ecb5f45	0.39721122
68	0x3eea23d1	0.4573045
69	0x3ec5ad91	0.38608983
70	0x3eecebe8	0.46273732
71	0x3ecb5915	0.39716402
72	0x3ee8b4c0	0.454504
73	0x3ec58caf	0.38583896
74	0x3ef04b16	0.46932286
75	0x3ecc3903	0.39887246
76	0x3eeb1e29	0.45921448
77	0x3ec700a7	0.38867685
78	0x3eebe40c	0.46072423
79	0x3ec983ab	0.39358267
80	0x3ee6adde	0.45054525
81	0x3ec43288	0.38319802
82	0x3eeb4af4	0.45955622
83	0x3ec99733	0.39373168
84	0x3ee525c3	0.44755372
85	0x3ec3c83d	0.38238707
86	0x3ee9c941	0.45661357
87	0x3ec91f4b	0.39281687
88	0x3ee4095e	0.44538397
89	0x3ec31ed2	0.38109452
90	0x3eeda802	0.46417242
91	0x3ec8b884	0.39203274
92	0x3ee55e22	0.4479838
93	0x3ec2d6d8	0.38054538
94	0x3eeda802	0.46417242
95	0x3ec8379a	0.3910492
96	0x3ee55e22	0.4479838
97	0x3ec25ad5	0.37959924
98	0x3ec3ed5a	0.38267022
99	0x3e9cf2bd	0.30653945
100	0x3ebcb5de	0.36857504
101	0x3e9715ee	0.2950892
102	0x3eeb46dc	0.459525
103	0x3ec98cb1	0.39365152
104	0x3eedaf9d	0.46423045
105	0x3ec8c7b4	0.3921486
106	0x3eeb46dc	0.459525
107	0x3eca11e6	0.3946678
108	0x3eedaf9d	0.46423045
109	0x3ec95ef9	0.3933027
110	0x3ee747e1	0.45172027
111	0x3eca8e9c	0.39561927
112	0x3eeb13e3	0.4591361
113	0x3ec9c3f1	0.39407304
114	0x3ee80bfe	0.4532165
115	0x3ecaf4a9	0.39639786
116	0x3eecaba9	0.46224716
117	0x3eca4f66	0.395137
118	0x3ee877a3	0.45403776
119	0x3ecacab6	0.3960778
120	0x3eedf1b2	0.4647346
121	0x3eca8b3d	0.39559355
122	0x3eed0ce2	0.4629889
123	0x3ecd8498	0.40140224
124	0x3ef1cf28	0.4722836
125	0x3ecca53c	0.39969814
126	0x3eebbffd	0.46044913
127	0x3ecc92dc	0.39955795
128	0x3eee88cd	0.46588746
129	0x3ecb94bd	0.39761916
130	0x3eecde76	0.46263474
131	0x3eccab50	0.3997445
132	0x3eefa737	0.46807262
133	0x3ecb8989	0.39753368
134	0x3eef1785	0.4669763
135	0x3ecfc81e	0.40582365
136	0x3ef18cf9	0.47177866
137	0x3ece5ca7	0.40305063
138	0x3eefc3b8	0.4682901
139	0x3ecf7b41	0.40523723
140	0x3ef22fac	0.47301996
141	0x3ece0223	0.40236005
142	0x3eeae6d9	0.45879248
143	0x3ec7957b	0.38981232
144	0x3eef0550	0.4668374
145	0x3ec7ad06	0.38999194
146	0x3ee72aa8	0.45149732
147	0x3ec4cbb2	0.38436657
148	0x3ee92962	0.45539385
149	0x3ec3d14c	0.38245618
150	0x3ee6bdcf	0.45066687
151	0x3ec4e482	0.38455588
152	0x3ee92b92	0.45541054
153	0x3ec3ce93	0.3824354
154	0x3eebb813	0.46038875
155	0x3ec81d7c	0.39084995
156	0x3eed98de	0.4640569
157	0x3ec6bab0	0.38814306
158	0x3ef16836	0.4714982
159	0x3ed0e016	0.40795964
160	0x3ef1d40f	0.472321
161	0x3ece6a21	0.40315345
162	0x3ef1577e	0.47137064
163	0x3ed134b9	0.40860537
164	0x3ef0fdf9	0.47068766
165	0x3ecebdce	0.40379184
166	0x3eefe725	0.46856037
167	0x3ece5756	0.40301007
168	0x3eeda073	0.46411476
169	0x3ecadfc1	0.39623836
170	0x3eef1205	0.46693435
171	0x3ece5332	0.40297848
172	0x3eecbd40	0.46238136
173	0x3ecabe07	0.39598104
174	0x3ef34f01	0.47521213
175	0x3ecf1171	0.40442994
176	0x3eee4245	0.46534935
177	0x3ecbfa59	0.39839438
178	0x3eeffe09	0.468735
179	0x3eccb81e	0.3998422
180	0x3eea131d	0.45717707
181	0x3ec95bc2	0.39327818
182	0x3eeec926	0.4663784
183	0x3ecccc15	0.39999452
184	0x3ee8ef43	0.45495042
185	0x3ec93c7b	0.39303955
186	0x3eee38d9	0.46527746
187	0x3ecc90a0	0.3995409
188	0x3ee7d278	0.45277762
189	0x3ec8cce1	0.3921881
190	0x3ef104c3	0.47073945
191	0x3ecc0196	0.3984496
192	0x3eebcc07	0.46054098
193	0x3ec8644a	0.39139014
194	0x3ef104c4	0.47073948
195	0x3ecb741b	0.3973702
196	0x3eebcc07	0.46054098
197	0x3ec7e3f4	0.39041102
198	0x3ec2f8de	0.38080496
199	0x3e99d98e	0.30048794
200	0x3ec2f8de	0.38080496
201	0x3e99d98e	0.30048794

onnx::Div_65 f4 [10]
0	0x3bc50222	0.006012217
1	0x3bc50222	0.006012217
2	0x3bc50222	0.006012217
3	0x3bc50222	0.006012217
4	0x3bc50222	0.006012217
5	0x3bc50222	0.006012217
6	0x3bc50222	0.006012217
7	0x3bc50222	0.006012217
8	0x3bc50222	0.006012217
9	0x3bc50222	0.006012217
