results/GameLevelReached14/PlayerBehaviour/PlayerBehaviour-10460.onnx (onnx, 387523 bytes, 10 tensors)

network_body.observation_encoder.processors.0.normalizer.running_mean f4 [102]
000000 62 eb 51 3f 64 53 5d 3f f2 58 31 3f 19 e8 3f 3f
       0.8199979 0.8645537 0.69276345 0.7496353
000010 20 94 2d 3f 2b 1a 3d 3f e1 7a 34 3f 68 d3 40 3f
       0.67804146 0.73868054 0.705 0.7532258
000020 fd 83 30 3f 53 dd 3d 3f df 74 2d 3f eb d2 3b 3f
       0.689514 0.7416584 0.67756456 0.7336871
000030 63 4e 2c 3f e6 96 3a 3f 3c 57 2f 3f 22 81 3d 3f
       0.6730711 0.728865 0.68492484 0.74025166
000040 0e 62 2d 3f f2 b7 3b 3f 84 09 2c 3f 44 0f 3a 3f
       0.67727745 0.73327553 0.6720202 0.72679543
000050 a4 21 2b 3f 38 72 39 3f ad ae 36 3f 60 b2 44 3f
       0.66848207 0.7243991 0.71360284 0.7683468
000060 f9 56 36 3f 4e 2b 45 3f 11 60 32 3f 40 cf 40 3f
       0.7122646 0.770192 0.69677836 0.7531624
000070 1d 4e 33 3f 5e b9 41 3f 07 37 2e 3f 4f fc 3a 3f
       0.70041066 0.7567347 0.68052715 0.7304124
000080 f2 cf 31 3f fb 7d 3e 3f 2f e8 30 3f f2 7f 3d 3f
       0.69457924 0.7441098 0.69104284 0.74023354
000090 b2 50 36 3f 98 4b 42 3f 31 1b 32 3f 13 02 3f 3f
       0.7121688 0.75896597 0.6957274 0.7461254
0000a0 cc cf 38 3f 20 4e 44 3f 4e cc 34 3f e8 b8 40 3f
       0.7219207 0.7668171 0.70624244 0.75282145
0000b0 af 60 3a 3f d2 8e 45 3f d7 9d 31 3f 87 8e 3f 3f
       0.7280378 0.7717105 0.6938147 0.74826854
0000c0 fb d5 38 3f 8d 20 45 3f 3e 90 37 3f a4 3a 44 3f
       0.7220151 0.77002794 0.7170447 0.7665198
0000d0 9f 16 34 3f 4b 5a 42 3f 3f 05 3d 3f 36 83 46 3f
       0.7034702 0.75919026 0.7383613 0.7754396
0000e0 b4 25 37 3f b9 8a 43 3f 91 61 3b 3f 01 a5 45 3f
       0.71541905 0.7638355 0.7319575 0.772049
0000f0 96 a7 35 3f 64 95 42 3f 64 ca 39 3f ce 58 44 3f
       0.7095884 0.760092 0.7257445 0.76698005
000100 34 9a 34 3f 69 5c 41 3f df 93 34 3f bf 55 40 3f
       0.70547795 0.7553163 0.70538133 0.7513084
000110 4b 78 31 3f 31 9f 3e 3f f7 e7 37 3f d2 83 45 3f
       0.6932418 0.74461657 0.71838325 0.77154267
000120 07 f1 33 3f 13 7c 42 3f a2 f1 3b 3f 49 d6 48 3f
       0.70289654 0.7597057 0.7341558 0.78451973
000130 0c ef 38 3f de 79 47 3f 4b 80 33 3f 91 a3 3f 3f
       0.72239757 0.7792033 0.70117635 0.7485896
000140 a7 e3 32 3f 86 42 40 3f eb 4f 35 3f 45 a0 41 3f
       0.6987862 0.75101507 0.7082507 0.75635177
000150 68 8f 36 3f a2 62 43 3f 04 72 31 3f b1 f1 3e 3f
       0.7131257 0.76322377 0.693146 0.7458754
000160 ab 37 36 3f 48 97 42 3f 34 88 35 3f 5c f3 41 3f
       0.7117869 0.76012087 0.70910954 0.7576196
000170 1b e5 3b 3f 50 95 46 3f 31 bd 31 3f a5 90 40 3f
       0.7339646 0.7757158 0.6942931 0.7522071
000180 64 a8 36 3f 52 74 44 3f 7d 46 56 3f 08 fa 60 3f
       0.71350694 0.7673999 0.83701307 0.8788152
000190 7d 46 56 3f 08 fa 60 3f
       0.83701307 0.8788152

network_body.observation_encoder.processors.1.normalizer.running_mean f4 [10]
000000 00 00 00 00 00 00 00 00 00 00 00 00 00 00 00 00
       0.0 0.0 0.0 0.0
000010 00 00 00 00 00 00 00 00 00 00 00 00 00 00 00 00
       0.0 0.0 0.0 0.0
000020 00 00 00 00 00 00 00 00
       0.0 0.0

network_body._body_endoder.seq_layers.0.weight f4 [256, 112]
000000 f0 c2 8c 3d 5d 97 bf 3d e1 34 43 3c e7 a0 fd 3d
       0.06873119 0.09355042 0.011914463 0.12384205
000010 92 0e a1 3c c1 d3 12 bd 8f 4a 25 be 96 8f 43 3d
       0.019660268 -0.035846476 -0.16141723 0.047744356
000020 2f e4 68 bc 5c 4b 1f be 62 8c a2 3d 38 28 74 bd
       -0.014214559 -0.15556091 0.07936932 -0.059608668
000030 63 bf 03 3d 6a c2 5b be b8 c1 f8 3d ef 98 b0 3d
       0.032164942 -0.21460882 0.12146324 0.0862292
000040 48 f8 89 3d 39 ac f9 3c f8 6c 8a bd 64 1f 86 bb
       0.06736809 0.03047763 -0.067590654 -0.0040930975
000050 17 7b b5 bd 90 43 15 be ad 96 86 3d 77 62 03 bd
       -0.08861368 -0.14576554 0.06571708 -0.032076325
000060 39 57 82 bc 62 af 41 3e 82 3e 31 be 60 07 17 be
       -0.015910732 0.1891456 -0.17309001 -0.14748907
000070 b1 5a eb 3d 78 07 a7 3d 07 c9 2c be 56 8c c0 3c
       0.114919074 0.081557214 -0.16873561 0.023504417
000080 22 05 e6 bc 54 91 91 3d b5 1b 19 be 3f 0f 05 3d
       -0.02807862 0.07107797 -0.14951976 0.032485243
000090 e4 3f 1a be 70 e2 5b be 2b 94 2f 3e 5c ad b5 3c
       -0.15063435 -0.21473098 0.17146365 0.02217739
0000a0 9d 86 fb 3d 72 59 e4 bc 61 64 2f 3d 0a cf db bd
       0.12281535 -0.027874682 0.04282034 -0.10732849
0000b0 2e dd e0 bc b4 8d 8c bd ba 4d b4 3d 23 c8 43 3e
       -0.027449217 -0.06862965 0.08803888 0.19119315
0000c0 2f aa 20 be 22 20 95 3d 1f 0f ce 3d e2 07 0e be
       -0.1568992 0.072815195 0.10061478 -0.13870195
0000d0 80 64 d8 bd 0b 56 1d 3e b0 38 af 3d ec a7 06 bd
       -0.10566044 0.15364854 0.08555734 -0.032874987
0000e0 af 58 83 bd bd 93 d9 bd 58 ac 08 3d 0e 3d 33 3d
       -0.064133994 -0.10623882 0.033367485 0.0437594
0000f0 b3 d2 8a bd b7 c1 c8 3d 7c ef b5 bd 4f 19 1f bb
       -0.06778469 0.09802573 -0.08883569 -0.002427656
000100 01 a8 c5 bd 67 c4 31 be f4 df a0 3c 06 ec a7 bd
       -0.09651185 -0.17360078 0.01963804 -0.08199315
000110 16 35 a1 3d 14 de 03 be bc 60 a8 3d 94 41 4f bd
       0.078714535 -0.12877685 0.082215756 -0.05059965
000120 e7 76 c3 3d c7 af 2f 3c b8 14 ca 3c d6 75 ec bd
       0.09544163 0.010723061 0.024668083 -0.11545913
000130 f2 39 9a 3d 9e bf ac 3d 29 0b 60 3d 2d 61 68 3c
       0.075305834 0.084349856 0.054698143 0.014183325
000140 80 1d 26 3e 67 a4 6f bd 02 be 2a bd 0d 29 3c be
       0.16222191 -0.058506396 -0.04168511 -0.18375035
000150 13 38 d9 bc 4a c0 06 bd 87 7c 22 bc e3 96 81 bd
       -0.026515996 -0.032898225 -0.009917385 -0.063276075
000160 c2 ce da 3c 6d b1 22 bd 45 d8 1e 3d de ed 40 3d
       0.026709918 -0.039719988 0.03878047 0.047101848
000170 f1 32 db 3d 1f 5c 2d bd 6a b5 2b bb 0c ad ec bd
       0.10703076 -0.04232418 -0.002620066 -0.115564436
000180 20 b3 57 bd 89 f7 01 be 2e a8 d7 bc 0b 41 e8 bd
       -0.05266106 -0.12692083 -0.026325312 -0.11340531
000190 74 81 8a bc 0e cb 1d 3e b9 49 16 3c 73 b4 14 be
       -0.016907431 0.1540949 0.00917285 -0.14521961
0001a0 94 5a d7 bd 30 d6 56 bc ac 80 f9 3d 55 6e 5b bd
       -0.10515323 -0.01311259 0.12182745 -0.053572018
0001b0 05 83 49 3e 56 e0 53 3e 80 74 c4 bd c9 a9 8a bd
       0.19678886 0.20691046 -0.09592533 -0.06770665
0001c0 49 56 36 be 23 0e 52 bd b1 9e d4 3d ec 49 99 bd
       -0.17806353 -0.051283013 0.103818305 -0.074848026
0001d0 0a a6 83 bc cb 35 bc bd d2 99 0d be 78 a6 57 be
       -0.016070385 -0.09189948 -0.13828209 -0.21059597
0001e0 ac b6 0b bc ea 5f 26 3c 87 37 fb 3c 50 c1 08 3d
       -0.008527439 0.010154704 0.030666126 0.033387482
0001f0 8c 02 5a 3d fc 38 80 3d 47 56 a6 3d 55 1b 33 3e
       0.053225085 0.06260869 0.08121925 0.17490895
000200 95 90 c6 3d 0d 32 42 3c 58 c5 78 bd 3a ab c7 3d
       0.096955456 0.011852753 -0.060735077 0.09749456
000210 de fa 92 3c d0 1d 22 bd 46 58 2f be 78 6c b5 bd
       0.017941888 -0.039579213 -0.17123517 -0.088585794
000220 7a 80 ae 3d 73 54 fe 3c 1b b6 4c 3d ad 58 94 bd
       0.08520599 0.031046128 0.049978357 -0.07243476
000230 03 ba 0c bd d6 21 ac 3d b1 a0 16 bd 7a 87 6f 3c
       -0.034357082 0.08404891 -0.03677434 0.0146197025
000240 e3 a7 31 be 46 9c f1 bc b9 6b 09 3d 0c 3f 02 3e
       -0.173492 -0.029493462 0.033549998 0.12719363
000250 88 b3 f2 3d 4b ae 05 3c c6 98 fa 3d f6 5d 6e 3c
       0.11850649 0.00815923 0.122361705 0.014548769
000260 0f c4 be 3c b7 dd 10 3e c4 66 d6 3c d6 bd 3f be
       0.023286847 0.14147078 0.02617205 -0.1872476
000270 3e 92 b0 3d c3 ee 9c 3b 81 46 46 3c aa f1 ab 3d
       0.086216435 0.004789205 0.01210177 0.08395703
000280 4a db 02 bd 00 6f 61 3d 19 82 48 be c9 25 a1 3d
       -0.03194741 0.0550375 -0.19580878 0.07868535
000290 55 b6 aa bd 93 4f fb bc 52 e6 56 3d ee b1 ca bd
       -0.08335558 -0.030677592 0.052465744 -0.09897219
0002a0 8f 3c 8e 3d b9 b9 6b bd e2 37 82 bb a2 4a 93 bd
       0.069451444 -0.057550166 -0.003973947 -0.071919695
0002b0 c5 3b 11 be 61 be 47 bd 6f 68 05 3d 0c e0 39 3d
       -0.14182957 -0.048765544 0.0325703 0.045379683
0002c0 3b d2 85 bc c9 28 ad bd b7 b4 f7 bd f5 e8 01 3e
       -0.016335597 -0.08455045 -0.120950155 0.12686522
0002d0 87 95 88 3d f1 6f 14 3e 5a d0 ef bd d0 e4 f7 3c
       0.06669145 0.14495827 -0.11709662 0.030260473
0002e0 7b ac 35 bd 4d 0d 9c 3d 12 ce c4 bd 28 af 44 bd
       -0.044353943 0.076197244 -0.09609617 -0.048018605
0002f0 4a b5 04 3b 0e c2 26 be 13 8b 6c 3e 34 70 27 3d
       0.0020249658 -0.16284963 0.23099928 0.04087849
000300 fc e1 24 3e f2 78 a7 3d ec 6a a7 3d f1 85 cb 3d
       0.16101831 0.08177365 0.081746906 0.09937657
000310 4c 53 86 3d 74 00 e1 bc ca 8d 7b 3c 88 62 a1 3c
       0.06558856 -0.027466036 0.015353629 0.019700304
000320 8d 77 c9 3d 67 c9 4f 3e bf 76 7c bc 8c d1 b4 bc
       0.098372556 0.20291673 -0.015409171 -0.022072576
000330 cf ce 03 bc 5b 01 9b bc ee 8d 07 3e 28 fb 19 3d
       -0.0080449125 -0.018921545 0.13237736 0.037593037
000340 4f af 09 be 0f 13 b9 3d 9c 1e e7 3d 77 1a db 3d
       -0.13445781 0.09036838 0.11285135 0.10698407
000350 6a 20 4e 3e 13 4f f9 3c a0 e8 c0 3c 0a 43 2d 3e
       0.20129552 0.030433213 0.023548424 0.16920105
000360 c7 9a dd bd 1e 08 3d be 96 a7 1e bb 04 8c ed bd
       -0.10820537 -0.18460128 -0.0024208776 -0.115989715
000370 48 a4 2d be 8c c2 6e 3d 21 1c c9 bc f5 54 c2 bd
       -0.169572 0.058291003 -0.024549546 -0.094888605
000380 1b 15 96 bd 49 30 0f be 3f 57 b7 bd 53 e5 14 3d
       -0.07328244 -0.13983263 -0.08952188 0.036351513
000390 c3 62 7e 3d 26 3a 05 3c 6a 0e 52 bc 16 8b c3 bc
       0.062105905 0.008131539 -0.012820819 -0.023870032
0003a0 3e 16 c4 3d 03 ea ed bd 22 f4 29 bd 1c 6a 40 3e
       0.09574555 -0.116169 -0.04149259 0.18790478
0003b0 74 58 ae bd 0e c6 39 be 89 a6 97 3c 15 67 1f 3e
       -0.08512965 -0.18141958 0.018512027 0.15566666
0003c0 dd 08 8d 3c 36 ee f1 bb b2 29 d6 bd 97 b0 4d 3c
       0.01721614 -0.0073831333 -0.104571715 0.012554309
0003d0 83 85 39 3e 7a 81 08 bd 0e cc 0d be 8f f0 94 3d
       0.18117337 -0.033326603 -0.13847372 0.072724454
0003e0 be 13 e0 bd 90 ff 00 be 3f e5 f0 3c 9f 25 08 3e
       -0.109412655 -0.1259749 0.029406188 0.13295601
0003f0 9e 58 a6 bd cb 8c 10 3d 77 6e c0 3c 0d fe 9a 3d
       -0.08122371 0.03529052 0.023490174 0.075679876

network_body._body_endoder.seq_layers.0.bias f4 [256]
000000 91 af 90 bb e5 da 5d 3c 84 a2 31 bd 33 b2 f4 3c
       -0.0044154604 0.013540958 -0.043367878 0.029870128
000010 71 ec b3 b9 bf 2b de 3c 53 08 ee bc 9b 03 66 3b
       -0.00034317703 0.02712047 -0.029056704 0.0035097364
000020 58 2c 4a 3c 43 78 0b 3d 37 70 9e 3c fd aa 24 bb
       0.012339674 0.034050237 0.019340618 -0.002512633
000030 8d b8 9f bb 9e 85 14 3c d0 c3 e9 3b 7d 11 18 3c
       -0.004874295 0.00906506 0.0071339384 0.009281513
000040 86 7e 0b 3b 62 f2 9c 3c 82 d2 1b 3c 14 01 ae 3c
       0.002128513 0.019158546 0.009510638 0.021240748
000050 73 65 38 3c dd 2a 47 3c d7 4f 3f 3c 71 5b a5 3c
       0.011254656 0.0121562155 0.01167675 0.020185204
000060 7e 53 73 bc de 2e b5 3c d0 e3 86 3c 86 47 9c 3c
       -0.014851449 0.022117075 0.016466051 0.019077074
000070 c5 93 f8 3b 45 2e f3 3b 40 af 0a 3d 8a 7b 2d bb
       0.007585975 0.0074212872 0.033858538 -0.002647134
000080 97 f4 6b 3c b2 6f 88 3c 6f 19 e2 3b c9 6b 1f 3c
       0.0144015765 0.016654823 0.0069000046 0.009730288
000090 50 ae 02 3c ed 1b 01 3d a4 e9 85 bb fc 40 b2 ba
       0.00797613 0.031520773 -0.00408669 -0.0013599689
0000a0 af 84 8a 3c d0 ee 87 3c 44 42 53 ba 9d c7 36 3c
       0.016908972 0.016593367 -0.00080588856 0.01115599
0000b0 43 6d 09 3d 59 6e d8 3b f0 8b 52 3c c3 fe c2 ba
       0.033551466 0.0066049513 0.0128507465 -0.001487695
0000c0 bb b8 ab 3c e3 2f da 3b eb 1d 1e 3d f1 7e ca 3c
       0.02096211 0.0066585406 0.03860275 0.024718734
0000d0 27 81 66 3c bb f8 79 3c 8a bc 01 3c d1 8c 12 3b
       0.014068878 0.015257056 0.007918486 0.0022361765
0000e0 6f 50 e3 b9 84 14 8a bc bf f5 cc 3c 14 40 8e 3c
       -0.00043356742 -0.016855486 0.025019525 0.01736454
0000f0 a0 d2 64 bc 24 9b 94 3c 65 d3 aa 3c 64 d9 6f 3c
       -0.013966233 0.018140383 0.020852754 0.014639232
000100 cf 50 df 3c d6 09 f9 bb 70 1c 21 3c dc 4f 8d 3b
       0.027260212 -0.0076000495 0.00983344 0.0043124985
000110 a2 b2 b3 3c de b0 3d 3c dc 27 9e 3c cf 81 91 3b
       0.021935765 0.011577813 0.019306116 0.004440523
000120 20 6a a4 bc ed d9 03 3d dc 30 8d 3b d0 23 b4 3c
       -0.020070136 0.032190252 0.004308803 0.021989733
000130 7b e8 cc ba a8 d5 de bb 48 58 94 3c 68 39 49 3c
       -0.001563325 -0.006800372 0.018108502 0.012281753
000140 bd cf 2c 3b 1f 0a 09 3c 2f bb ae 3c 03 9b db 3c
       0.002636894 0.008364229 0.02132949 0.026807314
000150 48 49 09 3c 50 aa 3b b8 5d 86 35 3c bc fa 69 3c
       0.008379288 -4.474289e-05 0.011079398 0.014280971
000160 04 6a cf 3b 19 d5 0e 3d fa 27 00 3c 4c e1 38 3c
       0.0063297767 0.034871195 0.007822031 0.011284184
000170 e6 62 2d 3b 88 f8 e7 3b f5 f3 0a 3b c7 eb 46 3c
       0.0026456653 0.007079188 0.0021202539 0.012141175
000180 5d 10 d4 bc 1b ce 00 bc b3 46 4e 3c ef 48 c5 ba
       -0.025886709 -0.007861639 0.012590098 -0.0015051643
000190 f7 0f 3f 3c e0 23 db bb cd d2 5a 3b bb f5 b7 3c
       0.011661521 -0.0066876262 0.0033389807 0.02245604
0001a0 e1 3a cd bc c2 ef ac 3c 30 e7 cb 3c 3d 97 bf 3c
       -0.02505249 0.02111042 0.024890512 0.023387546
0001b0 84 6b 04 3d ae 7b 67 3c 1e 1e 41 3c 32 2f 91 3c
       0.032329097 0.014128609 0.011786966 0.0177227
0001c0 82 bb 7b bc 09 77 f3 3b a1 4a dc bb 48 55 0a 3d
       -0.01536453 0.0074299616 -0.0067227636 0.033772737
0001d0 cc 1c 92 3c c9 c6 aa 3c d8 8d fe 3c b4 cc a9 3c
       0.017835997 0.020846741 0.031073496 0.020727493
0001e0 ae 21 6c 3c e5 58 b5 3c b9 d2 51 3c fe d4 96 3b
       0.014412327 0.022137115 0.012806588 0.0046030274
0001f0 10 6a cc 3c 2b 49 e8 3b 12 c9 ed 3c 93 f6 8b 3c
       0.024952918 0.0070888004 0.029026542 0.01708535
000200 d2 87 0f 3c ad 72 61 3c 27 bc 84 3c ae b2 e8 3c
       0.008760409 0.013760251 0.016203 0.028405514
000210 b9 2b 59 3c a1 20 c6 3c f6 55 86 3c b0 17 18 3c
       0.013255053 0.02418548 0.016398411 0.009282991
000220 1b 20 b7 3c 58 3d 2b 3c 9a 97 c4 3b 14 1f c4 3b
       0.022354176 0.010451637 0.0059995176 0.00598515
000230 c8 0c 06 3c 4b 71 82 3b 7f 47 71 3c 65 c4 9b ba
       0.008181758 0.0039807907 0.014726519 -0.0011884092
000240 97 ee 18 bc 75 4d 14 bb 41 24 ab bb f0 e8 e1 b9
       -0.009334228 -0.0022629176 -0.0052228277 -0.00043088896
000250 cf 6e 5e 3c c5 69 08 3c 14 36 89 3c f0 bb dc 3a
       0.0135762235 0.008325999 0.01674942 0.0016840678
000260 d8 d5 ca bb f9 f0 a6 3c 0b 9a 5a 3a 08 eb 8a bb
       -0.006190043 0.020378577 0.0008338994 -0.0042394437
000270 c0 85 e8 3c 4d e6 ed 3b bf a8 2c 3c 5d bd 0f bc
       0.02838409 0.00726012 0.010538279 -0.008773175
000280 c0 81 6a 3c 35 91 34 3c 33 e4 9a 3c 7a 37 44 3a
       0.014313161 0.011020948 0.018907642 0.00074850733
000290 ca 99 6b bc c4 e6 fd 3b a9 0c f8 bb 6e 1a cf bb
       -0.014379928 0.0077484567 -0.0075698686 -0.0063202893
0002a0 b5 80 5b 3c 4b 3c 51 bc f6 4b 34 3c 9a bf ac bb
       0.013397385 -0.012770723 0.011004439 -0.005271864
0002b0 af 5d 9e 3c ab 93 3e 3c 5d 0d 9e 3c 4c 5e 20 3d
       0.019331781 0.0116318865 0.019293481 0.03915243
0002c0 c3 b7 2c 3c 78 79 e2 3c b7 54 6a 3b 6a ca bf 3c
       0.010541859 0.027645811 0.003575606 0.023411948
0002d0 08 5e 25 3c f8 34 9a 3c bd 45 ce ba 24 d2 4d 3c
       0.01009322 0.018824086 -0.0015737336 0.012562308
0002e0 18 4b b1 3c 39 22 43 bb 7b 95 80 3b f4 64 54 bb
       0.021642253 -0.0029775037 0.0039240695 -0.0032408806
0002f0 c6 0c 97 3c b2 83 2c 3b 71 17 26 3c 63 87 71 3c
       0.018438708 0.0026323614 0.010137425 0.014741751
000300 13 e0 13 3c ab 35 1d 3b 70 41 3c 3c fa db d7 3b
       0.009025591 0.0023988287 0.011490211 0.0065875025
000310 e1 9f c3 bb da 2c 7d bc f8 d0 da 3b 3b ac cf 3c
       -0.005969987 -0.015452588 0.006677743 0.02535068
000320 d7 e7 af 3c 29 5c 5e 3c 3f 52 ad 3c 3a a6 0e 3c
       0.021472855 0.013571777 0.021157382 0.008706624
000330 4a 40 dc 3c e9 b2 34 3c ec 7c 92 3c 3d b8 41 3b
       0.026886124 0.011028984 0.017881833 0.0029559277
000340 46 71 85 3c d9 d7 c3 3b d2 ce 71 3c e7 04 1b bc
       0.016289365 0.005976659 0.014758782 -0.009461618
000350 8c 8e 1b 3c 39 49 7c 3c fc 96 8a 3c 35 a9 7d 3c
       0.009494435 0.015398317 0.016917698 0.015482237
000360 e9 e8 82 bc 0f fb 0b 3c ef 1c f4 3b b3 0a f9 3c
       -0.0159802 0.008543744 0.007449738 0.03040061
000370 c7 76 93 3c 3a 03 01 3c ee 26 e4 3c 46 90 27 3d
       0.018000973 0.007874304 0.027850594 0.040909074
000380 05 0b 3c 3c ab 6c 37 bb 1f c3 ab 3c 76 ce 8f bc
       0.011477237 -0.0027988355 0.020967064 -0.017554503
000390 59 67 cd 3c 55 69 31 3b 97 3c c4 3c bc 39 4c 3c
       0.025073694 0.002707084 0.023954673 0.012464937
0003a0 be 9e bf 3b 1b f2 8e 3c 9a d3 ca 3b 50 75 d6 3c
       0.005847781 0.01744943 0.0061897757 0.026178986
0003b0 15 83 f7 3a 4c f7 3f bc 4f 87 29 bc b7 6f 29 3c
       0.001888367 -0.011716675 -0.0103472015 0.010341576
0003c0 78 1f a1 3b 6e 38 ae 3b 60 6b 23 bc 23 7c 1f bc
       0.0049170814 0.0053167855 -0.009974331 -0.009734186
0003d0 a0 9d 4f 3c 65 89 cb 3b 71 a4 64 3c cb de b1 3c
       0.012671858 0.006211447 0.0139552215 0.021712681
0003e0 59 1d 95 3c ae ec a8 3c 67 a2 05 3b 36 27 75 3c
       0.01820247 0.02062067 0.0020390989 0.014962962
0003f0 9e f9 df 3b d9 43 90 3c f7 2f 8c 3c d2 e8 cd 3c
       0.0068351766 0.017610477 0.017112715 0.025135431

network_body._body_endoder.seq_layers.2.weight f4 [256, 256]
000000 12 ee 61 3d 52 7e f5 3d 6f c0 e1 bc 48 ee 20 3d
       0.055158682 0.11986984 -0.02755758 0.039289743
000010 73 35 42 3d 20 b1 1b bd 8b 34 9c bb 38 a2 a1 3c
       0.047414254 -0.038010716 -0.004767006 0.019730672
000020 7b 23 99 3d f3 6f 0d be 57 b6 af bc 62 c2 55 3c
       0.074774705 -0.13812236 -0.021449251 0.013046833
000030 d3 ef 94 3d 18 57 53 3c 7c f3 e5 3d d8 9f f1 3d
       0.07272305 0.012899183 0.112280816 0.11798066
000040 75 29 4f bd 06 d1 09 3d 4b 97 a6 3d 30 be ce bd
       -0.050576646 0.033646606 0.081343256 -0.10094869
000050 48 11 3b 3d 01 60 06 3d b3 b9 d2 bc 91 df 7f bd
       0.045670778 0.0328064 -0.025723314 -0.06246907
000060 03 35 0b 3d 67 e2 af bb ad 0b 93 bd 3b bc ea 3c
       0.033986103 -0.0053675654 -0.07179961 0.028654208
000070 88 af ea 3c 0b 20 9a ba a5 f6 eb 3d de 2b b6 3c
       0.028648153 -0.0011758817 0.11521653 0.022237714
000080 e9 84 8d bd b4 26 c8 bc d3 44 4c 3d 5d e0 30 bd
       -0.06910116 -0.024432518 0.049870323 -0.04318272
000090 a2 5d de 3c 00 ed d2 bc a7 ee 5b 3b df e8 2b bd
       0.027144257 -0.025747776 0.0033558996 -0.04197013
0000a0 09 48 e0 3a 79 e2 76 bd 91 66 9e bd e9 94 68 3d
       0.0017111312 -0.060274575 -0.07734407 0.056782637
0000b0 9f e7 7e 3d c5 2d a8 bc bb f0 54 3d 06 ef 08 3d
       0.06223261 -0.020529637 0.05198739 0.033431076
0000c0 24 eb cd bd b0 59 45 bc c9 6d 66 3d f5 62 aa bd
       -0.10054615 -0.012045309 0.056257043 -0.08319656
0000d0 8a 34 84 bd 71 99 ba 3d e1 be aa bd 36 2a 80 3d
       -0.064553335 0.09111298 -0.083371885 0.06258051
0000e0 41 ef cb 3c 4a 62 05 bc 54 ab b0 3c be 49 10 3d
       0.024894359 -0.00814111 0.02156607 0.035226576
0000f0 35 be 83 3d 40 01 9e 3c dd 1c c6 bc 82 68 95 3d
       0.064327635 0.019287705 -0.024183685 0.07295324
000100 23 83 7d bc 4d a7 13 3d 10 ac c2 3a 2b 91 bd 3d
       -0.01547316 0.036048222 0.0014852304 0.09256204
000110 9f 46 3b bd 1b b7 b6 bc 79 82 28 3a 1d d9 a6 bd
       -0.045721646 -0.022304108 0.00064281333 -0.0814688
000120 33 38 24 3d fd 8d 4e 3d 5f e4 9a 3b 4e 8c 83 bc
       0.04009266 0.05042838 0.004726931 -0.016058113
000130 3b dc be bd 32 7b 1a bd 18 34 d8 bd 51 cb 3e 3d
       -0.093193494 -0.037715144 -0.10556811 0.046580616
000140 3a 35 2e bd 46 5a 56 bd dd 28 42 3c 2d e7 aa bd
       -0.04253123 -0.052332185 0.011850563 -0.083448745
000150 c6 44 f1 bd a2 9f f3 bc 0b 8d ae bd 4e 0c a8 3b
       -0.117806956 -0.029739205 -0.085229956 0.00512842
000160 c8 a4 bb 3c a8 71 8d 39 ec 94 97 3c 1a f9 5b bd
       0.022905722 0.00026978296 0.018503629 -0.05370436
000170 64 7c 19 bd 4a 63 d7 3c d7 95 9c 3c f8 ba 78 bd
       -0.037472144 0.026292462 0.019114418 -0.060725182
000180 d1 a9 22 3e e3 7c 91 3d 6d a4 05 3d b9 08 1f bd
       0.15885092 0.071038984 0.03262751 -0.038826678
000190 25 b8 af bd c5 d1 7e 3d cf 53 66 3d 34 c1 9b bd
       -0.08580045 0.06221177 0.05623227 -0.0760521
0001a0 b2 52 82 3c a9 c8 91 3d aa 24 44 3d e5 87 68 3d
       0.015908573 0.07118351 0.047886528 0.056770224
0001b0 32 e0 c3 bb 19 e8 9d 3c 9d 29 3a bc c9 5c 7d bd
       -0.005977654 0.019275712 -0.01136246 -0.061856065
0001c0 2b c3 95 bc ae 9b 49 3b a2 94 d8 3d 31 a5 47 bd
       -0.01828154 0.0030762958 0.105752245 -0.048741523
0001d0 19 eb 1f 3d ca d6 f4 bc c9 a7 82 bd 10 48 da bd
       0.039042566 -0.029887576 -0.06379659 -0.10658276
0001e0 c7 29 32 3d c0 c3 a3 3d d6 69 61 bd 86 03 5a bd
       0.043496873 0.07996321 -0.055032574 -0.053226016
0001f0 ab c4 42 3d 73 02 58 3d a1 4d 76 3d 57 0a 80 3c
       0.04755084 0.05273671 0.060132626 0.01562993
000200 98 fa 22 bc 18 00 1e bd 62 c9 48 bd ed 70 20 bd
       -0.0099474415 -0.03857431 -0.04902018 -0.039170194
000210 66 ed 7f 3d ee a8 4e 3e 7e b4 42 3d fa 1d ff bc
       0.06248226 0.20181629 0.047535412 -0.031142224
000220 ee c6 9a bd da 3a 62 3d 30 b2 c6 bc 57 65 c7 3c
       -0.07557474 0.055231906 -0.024254888 0.024340315
000230 2e 4c c6 bb b6 3e 93 bd c8 02 30 bd 02 16 82 3d
       -0.006051562 -0.071896955 -0.042971402 0.06351854
000240 b8 a4 01 3d ad a1 b4 3c fa be 10 be 0b ce 25 3d
       0.03165123 0.02204975 -0.14135352 0.0404797
000250 8e a6 dc bb a0 b7 36 3d 21 19 c8 bc 9f 10 35 be
       -0.006733722 0.044608712 -0.024426045 -0.17682122
000260 0e 28 8e bc 9d c4 9a bd 65 ae a9 3c 7d 7b 13 3d
       -0.017353084 -0.07557032 0.02071304 0.03600644
000270 85 fb 73 3d 9a 46 69 3d ff cc 85 3d f4 eb 8d 3a
       0.05956604 0.056952097 0.065332405 0.0010827766
000280 93 1b 15 3e 90 fc 37 3d 7b f9 4b bd c2 05 63 bd
       0.145613 0.044918597 -0.04979847 -0.055425413
000290 5b 1c 94 bd be 03 03 bd 0f f4 41 bc a2 49 49 bd
       -0.07231971 -0.03198599 -0.011837973 -0.049142487
0002a0 30 6b 55 3d 7a c6 73 3c e2 73 25 3c de a7 9a bd
       0.052104175 0.0148788635 0.010098429 -0.075515494
0002b0 df c7 bd 3d dd 58 9a bd b7 7f ff bd 9a 1b 18 bd
       0.09266638 -0.075364806 -0.124755315 -0.037135698
0002c0 c6 5c c1 bd 8d 15 f2 3d f3 63 cf bc cb 23 8d bc
       -0.09441523 0.11820517 -0.025316214 -0.017228981
0002d0 3a 8b b1 3c a4 17 36 3d 12 47 ef bc e6 5a 0b bd
       0.021672834 0.04445614 -0.029208694 -0.034022234
0002e0 6d 1b f3 3d 8b 5f 01 3c 7b 13 b1 bd c7 cd 51 bd
       0.118704654 0.007896314 -0.08646294 -0.051221635
0002f0 15 08 65 3d d8 f9 02 3e bc 0a 7d 3c 03 18 5e bd
       0.05591591 0.1279062 0.015444454 -0.054222118
000300 12 f3 27 3d 0b ac 4d bd 1e 5a 34 3d 12 7e 4c bd
       0.041003294 -0.0502129 0.044031255 -0.049924918
000310 9d 01 06 bd a3 08 12 bc 79 ad 97 3d fe ca 18 3d
       -0.032716382 -0.008913192 0.07406134 0.037302963
000320 20 46 c4 bb d1 4b fa ba 43 bb 61 bd c2 75 7b bc
       -0.005989805 -0.0019096081 -0.055110227 -0.0153479
000330 bf 2d 7e 3d 16 3e 64 3d 44 0a 94 bd 2b 0b 60 3d
       0.062055346 0.055723272 -0.072285205 0.05469815
000340 94 32 29 3e 8c b5 c5 3c 4d 71 13 3d e3 2a b4 3c
       0.165232 0.02413442 0.035996724 0.021993106
000350 ac 5f 75 bd 76 2d 65 3d d7 11 bf bc 2e 99 e2 3c
       -0.059905693 0.055951558 -0.023323936 0.027660932
000360 57 20 e8 3c 90 c8 0f bd 9f 43 88 3d 9d c1 92 bd
       0.028335733 -0.03510338 0.06653523 -0.07165835
000370 de 47 f9 3c e2 0d 80 3d 36 50 b7 bb bf c3 04 3d
       0.030429777 0.06252648 -0.0055942787 0.03241324
000380 72 8e 14 3d 7d 98 bb bd 57 7e c9 3d 06 d5 ee 3c
       0.03626866 -0.09159944 0.098385505 0.029154312
000390 ec 45 74 bc 55 55 6e 3d 0e 90 f8 3d ff f1 b1 3c
       -0.014909249 0.058186848 0.12136851 0.021721838
0003a0 33 e1 6a bd d6 93 76 3c 61 84 bb 3c f1 69 f6 bc
       -0.057343673 0.015049895 0.022890272 -0.030079814
0003b0 63 89 85 bd d9 84 c0 3c 45 bd a5 bd 5d e0 6d 3d
       -0.06520345 0.023500847 -0.08092741 0.058075298
0003c0 1b 93 a6 bc 9f a8 d8 3d 56 30 5e 3d 86 f4 82 3d
       -0.020333817 0.10579037 0.054245315 0.063942954
0003d0 f2 e1 7d 3c 59 21 b0 3d 40 f9 77 bb 21 33 1d 3d
       0.015495764 0.086001106 -0.0037837774 0.03837884
0003e0 6a 25 c0 bd 0e fc 9f 3d ff 4f ef bd c8 8d 48 bd
       -0.09382136 0.078117475 -0.1168518 -0.048963338
0003f0 fe b1 ff 3d d2 17 37 bc 16 76 1d bd 6a 32 1a bd
       0.12485121 -0.011175113 -0.038442694 -0.037645735

network_body._body_endoder.seq_layers.2.bias f4 [256]
000000 ab c2 95 38 95 ef 85 3c 3a 1d 31 3c 45 f3 b3 3c
       7.1411334e-05 0.016349593 0.010810191 0.021966586
000010 20 a2 04 3c 57 3f 52 3c 69 bd 52 3c fc 63 61 3c
       0.008095294 0.012832484 0.012862542 0.013756748
000020 a0 23 43 3c b3 ac 89 3c c6 2d 8d 3c c9 3e 13 3c
       0.011910349 0.016805982 0.01723374 0.008987137
000030 f9 bf 43 3c 14 3d f9 39 35 dd a2 3c 36 f4 18 3c
       0.011947625 0.00047538488 0.01988087 0.009335568
000040 e8 12 f3 3b b8 40 51 3c 56 68 22 3c 46 cf 69 3c
       0.0074180253 0.012771778 0.009912571 0.014270609
000050 a0 08 05 3c 2c 7c 99 3c 87 2a 86 3c 3c cb d1 3c
       0.008119732 0.018735968 0.0163777 0.025609605
000060 24 f9 b7 3c 00 21 80 3b e4 c3 a3 3c 4e cb f2 3a
       0.022457667 0.003910184 0.019990869 0.0018523724
000070 ca 14 b3 3c 43 ac 89 3c 03 03 64 3c 7e 47 b0 3c
       0.021860499 0.016805774 0.013916734 0.021518465
000080 68 62 97 3c 93 5d ed 3c d0 18 2e 3c fc 20 5d 3c
       0.018479541 0.028975284 0.010626033 0.013496634
000090 c1 0d 8b 3c 92 fd 5e 3b fc 26 51 3b 9f f9 a6 3b
       0.016974332 0.0034025651 0.0031914106 0.005095675
0000a0 35 58 01 3c 3a 4a e3 3b 2f 36 8d 3c 1e 05 82 3c
       0.007894565 0.0069363387 0.01723775 0.01587158
0000b0 97 09 0e 3d 30 22 fa 39 0d 34 62 3c b4 fe 96 3c
       0.034677114 0.00047709187 0.013806355 0.018431999
0000c0 5d c5 3f 3c 60 cf 7b 3c 4d 4d ce bb fc 1c c6 3b
       0.01170477 0.015369266 -0.006295836 0.0060459357
0000d0 34 60 38 3c 71 0a 83 3c 51 b7 de 3c c3 fa ec 3b
       0.011253405 0.01599619 0.027187021 0.0072320416
0000e0 bc ea 1d 3c 15 8f 85 3b 13 19 2f 3c 05 df c2 3c
       0.009638485 0.0040758946 0.0106871305 0.023787985
0000f0 e2 cc 88 3c 28 38 98 3b 75 e7 21 3c c4 97 4a 3c
       0.016699258 0.004645366 0.009881844 0.012365285
000100 6d 02 1b 3c 9a ed 5d 3b d8 f8 dd 3b 10 04 e9 3c
       0.009461028 0.0033863545 0.0067740493 0.02844432
000110 32 bc 04 3c 6c 0f 8f 3c 5b a8 5c 3b cd 92 84 3c
       0.00810151 0.017463408 0.0033669684 0.016183281
000120 cd ba 96 3b ff d4 cc 3c eb 43 cb 3c dd d5 a7 3c
       0.004599905 0.025003908 0.02481266 0.02048772
000130 b1 03 80 3c 73 37 ec 3b 1f 18 12 bb b4 0e 2a 3c
       0.01562676 0.0072087585 -0.002229221 0.010379482
000140 36 4b 2f 3c 09 20 92 3c 1a ac 44 3c 64 a1 6f 3c
       0.010699084 0.017837541 0.012003923 0.014625881
000150 97 11 ce 3c 55 60 aa 3c da 71 28 3d 53 5c 0e 3c
       0.025154872 0.020797888 0.041124202 0.008689004
000160 72 39 41 3c 42 0a c2 b7 c3 a1 8d 3c 70 7d 4a 3c
       0.011793481 -2.3131379e-05 0.017289048 0.012359008
000170 e6 f5 20 3c ee c3 a2 3b f9 b7 80 3c d1 8b 04 3c
       0.009824252 0.0049672043 0.015712725 0.008089975
000180 64 6d 44 3c d9 d0 71 3c 9b 15 79 3c 4d ea 37 3c
       0.011988971 0.014759266 0.015202905 0.011225295
000190 3f 39 e2 bb 71 36 46 3c 2e db 52 3c 43 55 82 3b
       -0.006903797 0.012097941 0.012869639 0.003977449
0001a0 b3 e8 b1 3c 13 81 2f 3c 42 4c fb 3a 84 fe 47 3c
       0.021717405 0.010711926 0.0019172507 0.012206677
0001b0 01 d9 ff 3c 79 b0 7f 3c 89 fc 7b 3b 25 3a 94 3b
       0.031231405 0.015606039 0.0038450083 0.004523533
0001c0 1f 83 38 3b 80 1b 6c 3c d8 5b 97 3c e5 2f 00 3d
       0.0028154326 0.014410853 0.018476412 0.031295676
0001d0 ac 33 e0 3b 5b 22 a7 3c 89 6b 0e 3d e4 ef c4 ba
       0.0068420973 0.020402124 0.034770522 -0.0015025106
0001e0 44 7e 1a 3c 6a a4 51 3c db 15 9b 3c 7c 54 21 3b
       0.009429518 0.012795547 0.01893132 0.0024617007
0001f0 ab 03 1d 3a 3f c7 94 3c 6b 71 40 3c 51 ad c0 3b
       0.0005989621 0.018161414 0.011745791 0.005880036
000200 ae 25 4d 3c a6 67 88 3c da 96 39 bb 28 85 17 3c
       0.012521191 0.016650986 -0.0028318674 0.0092480555
000210 23 40 0d 3c 67 f7 13 3c fd d3 99 3c 97 3c 1f 3c
       0.008621248 0.009031153 0.018777842 0.009719036
000220 ca b0 41 bc ca 5f ff 3b 59 81 94 3c 1f ae 89 3c
       -0.011821935 0.0077934014 0.018128084 0.01680666
000230 14 03 dc 3b fe e3 8f 3b 8e 00 9d 3c dd af 59 3c
       0.006714234 0.0043911925 0.019165304 0.013286558
000240 10 df 7f 3c 79 c9 8a 3c e5 a5 bc 3b 27 16 91 3c
       0.015617147 0.016941773 0.005757081 0.017710758
000250 a4 75 8d 3c 2f ed 4f 3c 95 3e dc 3a 62 30 47 3c
       0.01726801 0.012690826 0.0016803319 0.012157531
000260 07 ac 86 3c d5 56 fe 3b 2d 09 84 3c db 1b 20 3a
       0.01643945 0.007761816 0.016117657 0.00061076664
000270 8f 83 2c 3c 3a cf 44 3c 0f 19 3c 3c 66 d8 16 3c
       0.010529413 0.012012297 0.011480584 0.009206867
000280 48 f4 d1 3b 13 4b d9 3c ca 57 40 3c 30 90 1d 3c
       0.0064072944 0.026525056 0.011739681 0.0096168965
000290 58 e4 74 3c 40 22 1f 3c c4 42 da 3c da 43 25 3c
       0.0149470195 0.009712756 0.026643164 0.010086978
0002a0 c5 12 be 3c f1 09 4a 3c d7 bc a7 ba 19 5d dd 3b
       0.02320231 0.012331472 -0.0012797368 0.006755483
0002b0 32 13 5d 3c b7 6a be bb d3 a8 0f 3c 82 b7 12 3b
       0.013493346 -0.0058110612 0.008768278 0.0022387211
0002c0 92 83 57 3c 6b ee 85 bb 42 44 a6 3c 33 f1 a7 3c
       0.013153927 -0.0040872595 0.02029622 0.020500755
0002d0 3d 31 58 3c 54 63 5b 3c 8f 33 dc 3c 29 28 c4 3b
       0.013195333 0.013390381 0.026880054 0.005986233
0002e0 bc 40 d0 3b 47 82 a9 3c 0a de 4d 3c e2 b1 b8 3c
       0.006355373 0.020692004 0.012565145 0.022545759
0002f0 8e b8 86 3c 2c 45 21 3c a2 1b 8a 3b 02 87 d8 3b
       0.016445424 0.009843152 0.00421472 0.006607891
000300 bf 03 82 3c f2 64 4f 3c 2e 92 73 3c 8a 50 2c 3c
       0.015870927 0.012658345 0.014866395 0.010517249
000310 18 2c 24 3c b2 08 c8 3c e9 e9 69 3b 63 0c ba 3c
       0.010020278 0.024418209 0.00356924 0.022710985
000320 91 20 5d 3c 72 ac 83 3c e9 90 68 3c 20 af 1f 3c
       0.013496534 0.01607344 0.0141947055 0.009746343
000330 b5 09 f5 bb b9 92 72 3c 55 ae 2d 3b cd 9c ef 3b
       -0.007477964 0.014805489 0.0026501615 0.0073123933
000340 62 4a bd 3c 52 3e 62 3c bb 81 8e 3c bd 18 91 bb
       0.023106758 0.013808804 0.017395845 -0.004427998
000350 01 2d 96 3c c2 1c c8 3a 08 6f 2d 3b 69 9f 0b 3c
       0.018332006 0.001526736 0.0026463885 0.008521893
000360 92 02 e6 3b 43 3b a1 3b 50 b8 af 3c 0b cb 89 3c
       0.0070193494 0.0049203946 0.021450192 0.016820451
000370 ae ec 99 3c 04 a1 80 3c e5 54 b7 3c c9 3a 89 3c
       0.018789615 0.015701778 0.022379348 0.016751664
000380 1c 06 a5 3b 08 be f2 3b 70 a9 d6 3b 9c 4a 57 3c
       0.0050361287 0.0074079074 0.0065509602 0.013140347
000390 e9 d8 91 3c 37 62 1e 3c f3 f5 7d 3c 43 98 46 3c
       0.017803626 0.009666971 0.015500533 0.012121263
0003a0 fe 41 14 3c 37 63 31 3c 7e 89 82 3c 01 0d d5 3b
       0.009048937 0.010826877 0.015934702 0.0065017943
0003b0 4c 15 da 3a 14 3f 74 3c 79 57 60 3c 48 bd 0e 3c
       0.0016638427 0.014907617 0.01369273 0.00871212
0003c0 53 21 43 3c 2d c9 80 3c 49 b4 42 3c b9 7f c6 3c
       0.011909801 0.015720928 0.011883804 0.024230825
0003d0 08 53 ec 3c 00 99 e2 3b a8 06 9e 3c 70 ea 9d 3c
       0.028848186 0.0069152117 0.019290283 0.019276828
0003e0 3e c0 14 3c 25 7c 51 3c ae 2c 92 3c 70 18 be 3c
       0.009079037 0.012785946 0.01784357 0.023205012
0003f0 50 ed 35 3c 5d aa 2d 3c c3 7d 00 3c e8 ba 3f 3c
       0.011103943 0.0105997 0.007842484 0.011702277

action_model._discrete_distribution.branches.0.weight f4 [4, 256]
000000 2a 83 57 3a cf ce 90 bc be fd 5e 3c 53 5f 05 3d
       0.0008221144 -0.017676739 0.013610302 0.03256161
000010 d6 a5 e0 ba b9 a8 6e bc 83 e8 38 3d 01 82 15 3c
       -0.0017139267 -0.014566594 0.045143615 0.009125234
000020 66 70 6c 3b 70 56 d4 3c e5 7b 6f 3b 6c d1 2d 3d
       0.0036077737 0.025920123 0.0036542353 0.04243605
000030 33 29 62 3d b7 9e 8c bc 6e 4f 9a bc 48 5c 01 bd
       0.055215072 -0.017165525 -0.018836703 -0.031582147
000040 c2 e3 05 3d 65 80 41 bc 4b ae 11 bd 07 2e 98 bc
       0.03268791 -0.011810397 -0.03556661 -0.018576635
000050 b1 55 91 3c cb da a6 bc 6b ea bb 3b 22 2a ee 3c
       0.017741056 -0.020368 0.005734732 0.029072825
000060 32 7d 8f bc 03 30 7f 3c c6 02 0a 3d 5c 9b ca bc
       -0.017515752 0.015575412 0.03369405 -0.024732284
000070 b7 11 32 3d 8b f0 1f 3d 7f cd 1d 3d 13 a0 73 bd
       0.043473925 0.03904776 0.038526054 -0.05947883
000080 03 b6 81 3c ea 82 4b 3d 09 c3 16 3b 9e e7 0a 3d
       0.01583386 0.049685396 0.0023004434 0.033912294
000090 1e 2d e2 3c cc f6 b3 ba f4 c7 bf 39 18 dd f5 bc
       0.027609404 -0.0013730167 0.00036579336 -0.030012652
0000a0 34 8c 8c 3c a7 5e 00 bc 67 79 96 3c cf ad 83 bc
       0.017156698 -0.007835067 0.018368436 -0.01607409
0000b0 ed 7e 8a bc 35 ba c5 bb bd 3d ca bc 4b ac 25 bd
       -0.016906226 -0.0060341605 -0.024687642 -0.040447515
0000c0 f4 03 a2 3c 3a ab f1 bc 1b fd d4 3b a7 3e 6d bc
       0.019777276 -0.029500592 0.006499899 -0.0144802695
0000d0 3e 30 d2 bc 94 79 cb 3c f6 d7 1a bd 80 29 2b bd
       -0.02565777 0.024838246 -0.037803613 -0.041787624
0000e0 b9 a3 d0 bc 2e 06 9f bc 71 06 f8 3b 35 97 11 bd
       -0.025468694 -0.019412126 0.0075691273 -0.035544593
0000f0 20 6d 83 bc a7 81 bb ba c8 d9 6d ba c5 12 7b 3c
       -0.016043246 -0.0014305607 -0.00090732845 0.015324299
000100 e2 66 49 bc dd 73 45 bc 9a 72 87 bc ee 54 19 3d
       -0.012292596 -0.01205155 -0.016534138 0.03743451
000110 d7 03 42 3c 26 f9 bf 3c 1d b9 66 bc a7 f3 1c bd
       0.011841736 0.023434233 -0.01408222 -0.038318302
000120 af fb ae bc 9d 64 73 bc a3 48 5f 3c 16 c1 05 bc
       -0.021360246 -0.014855531 0.013628158 -0.008163711
000130 5c c6 04 bd 9c 6d 78 bc ff bc 57 bc 8f ec b1 bc
       -0.032415733 -0.015162852 -0.013167619 -0.021719245
000140 6c af ff 3c ca 55 23 bd c6 41 c0 bc 17 cd 33 3c
       0.031211577 -0.039876737 -0.023468863 0.01097419
000150 04 35 f6 3c 0d 6b 57 bd bc 87 0c 3d a9 fa 48 3a
       0.030054577 -0.052592326 0.034309134 0.0007666746
000160 3b dd 6b 3c e3 c4 ab bc 58 93 7e bc 8d 02 c2 3c
       0.014396007 -0.020967906 -0.015538059 0.023682857
000170 e8 d7 d6 bc b4 ab 05 3c 37 c7 f6 bb 6a 2a b2 3c
       -0.026225999 0.008158613 -0.0075310725 0.02174874
000180 a9 24 4a 3c 12 ce af bb 89 0d a1 3c 3e d2 99 bc
       0.012337842 -0.0053651417 0.019659774 -0.01877701
000190 f3 49 8d ba 93 fa 0d 3d 04 9a 02 bd 55 c7 c0 bc
       -0.0010779485 0.034662794 -0.031885162 -0.023532549
0001a0 b2 ba 0d 3d f7 9a e8 bb a4 63 d5 3c e8 38 9e bc
       0.034601875 -0.0070985514 0.026048489 -0.019314244
0001b0 9c 4e ee 3c 32 ce 5f 3c df 48 c6 3c 8f 4f 62 bc
       0.029090218 0.013660001 0.02420467 -0.013812914
0001c0 de 47 6a bc ee 14 e4 bc a1 e2 14 bd 43 ff 42 3a
       -0.014299361 -0.027842011 -0.036348943 0.00074385497
0001d0 4d a7 79 bb 29 55 f8 b9 62 64 bd 3c 75 5d 75 bc
       -0.0038094104 -0.00047365695 0.023119155 -0.014975895
0001e0 c0 75 10 bd d2 39 11 3b 3a 7f a7 bc 01 22 88 3c
       -0.035268545 0.0022159708 -0.020446409 0.016617777
0001f0 0f af a0 bb 46 42 5c bd e6 54 f0 3c 6b 8b d8 3c
       -0.004903681 -0.05377414 0.029337358 0.026433667
000200 0d 17 a5 bc 37 14 c0 bc 54 69 a3 3b 77 7c be 3c
       -0.020152593 -0.02344714 0.0049869213 0.023252709
000210 da 4f 5c bb df b8 d8 3b b7 05 d7 bc ca 9a 48 bd
       -0.0033616931 0.006613835 -0.026247842 -0.048975743
000220 f6 d8 99 3b f4 6b 18 3c ac a5 12 bd 8b a5 da 3c
       0.004695053 0.009303082 -0.03580253 0.026690265
000230 03 a5 de bc 1f 69 9d bc bd 3a c8 bc 9e fd 0e 3d
       -0.027178293 -0.019215165 -0.024442071 0.034909837
000240 ee bc 11 bd 29 6f de ba bb 79 1b 39 c8 24 08 3c
       -0.035580568 -0.0016970384 0.000148273 0.008309551
000250 f0 c8 5e bd 02 7e 26 bc c3 a1 8e bc 79 1c ec 3c
       -0.054390848 -0.010161879 -0.017411118 0.02882217
000260 e7 19 04 bd 04 d0 ed 3c 87 bf 0f bd a5 33 b7 3c
       -0.032251265 0.029029854 -0.035094764 0.022363493
000270 0d fa b6 bc e8 fc fb 3a a3 e9 e3 bc 18 63 7b 3c
       -0.02233603 0.0019225152 -0.027821368 0.01534345
000280 7b 3e 16 3c 91 f5 b7 bc 2a 64 00 3d 92 da c3 bb
       0.00917017 -0.022455962 0.031345524 -0.0059769833
000290 e2 9e f3 bc b1 f5 74 3c f1 04 75 3c 9c 8c 0c bd
       -0.029738847 0.0149511555 0.014954791 -0.034313783
0002a0 d2 db 40 bd fd 45 f0 3c 99 b9 21 bc 57 ac a8 bc
       -0.047084637 0.029330248 -0.00987091 -0.02058999
0002b0 e6 b7 97 bc b1 e2 d6 ba 36 00 45 bd 6a 50 b3 3b
       -0.018520307 -0.0016394464 -0.048095904 0.0054722326
0002c0 b1 b5 96 bc 55 85 de bc c8 a2 9e 3a 46 80 da bc
       -0.018397184 -0.027163187 0.0012102956 -0.026672494
0002d0 ab 3d fd bc 4e 13 af bc 78 76 5c 3d e2 f2 c2 bc
       -0.030913195 -0.02137151 0.053823918 -0.023797456
0002e0 de 52 d0 3b fe c3 5f 3d 6b 4c 4c bc 17 54 46 bc
       0.006357535 0.054630272 -0.012469391 -0.0121050095
0002f0 b8 6c 9d bc 56 54 26 3d 13 28 d6 3a bd d7 da bb
       -0.01921688 0.040607773 0.0016338847 -0.00667855
000300 7f 49 33 bd 54 22 86 bc 37 4f 61 bd a8 cd 14 bd
       -0.043771263 -0.01637379 -0.055007186 -0.03632894
000310 21 13 39 bc d6 00 08 bd 88 34 b2 3a d4 65 cd 3c
       -0.011296065 -0.033203922 0.0013595978 0.02507297
000320 db 44 b3 3c f5 b1 34 3d c8 fe 0b 3d 5a 95 58 bc
       0.021883419 0.044115026 0.034178525 -0.013219202
000330 6b 4b f6 3a b8 52 80 bc 5b 8f 7c bb 71 cf ef bc
       0.0018790787 -0.015664443 -0.0038537595 -0.02927372
000340 33 99 67 3d ab 54 14 bc f9 ef b5 3c 1b 40 28 bc
       0.056542587 -0.00905339 0.022209154 -0.01026919
000350 47 40 83 bc 72 45 1f 3c da d0 72 bc 58 e3 62 bc
       -0.01602186 0.009721147 -0.014820302 -0.013848148
000360 e7 b0 fe bc 42 88 7f b9 65 55 7b bc 58 eb 23 bc
       -0.031090213 -0.00024369455 -0.015340184 -0.010004841
000370 9b 9b 15 bd 5a ba 0a 3d 52 96 13 bd f9 66 54 3b
       -0.03652535 0.033869125 -0.03603203 0.003241001
000380 3f 26 a3 3c 54 29 b3 bc 57 98 46 3d 92 3d 08 bd
       0.019915698 -0.021870293 0.048485126 -0.033261843
000390 e1 16 1f bd 46 b2 31 3b aa 4f 85 3c c0 41 38 bd
       -0.03884018 0.0027114316 0.016273338 -0.04498458
0003a0 a2 92 45 3c 53 3e 74 bc 2c 2d 03 3d 47 68 e1 3c
       0.012058886 -0.014907437 0.0320255 0.027515544
0003b0 ab d6 6a 3b 7f 54 1b 3d d5 3b ab bb cd de 0c bd
       0.0035833518 0.03792238 -0.0052256384 -0.034392167
0003c0 3c 85 a7 bc ee b1 2c bd 5a 48 68 bc d4 bb 41 bd
       -0.020449273 -0.042161874 -0.014177406 -0.047298267
0003d0 3c 3f 4b 3d 72 8c 80 bc a4 50 92 3c b7 15 12 3d
       0.049620852 -0.01569197 0.017860718 0.03566524
0003e0 7c bc 34 bc 06 9f d5 bc 5e 98 8b 3b 7e 0c 08 3d
       -0.011031266 -0.026076805 0.004260107 0.03321504
0003f0 3d 93 41 3d f6 33 b9 bc d7 f2 58 3c 2b 20 a1 3c
       0.047259558 -0.022607785 0.013241491 0.01966866

action_model._discrete_distribution.branches.0.bias f4 [4]
000000 c9 e5 0f 3b 55 2d 1f 3b 59 32 9f b9 00 ed 2a bb
       0.002195703 0.0024288495 -0.00030364355 -0.0026081204

onnx::Div_62 f4 [102]
000000 b9 c4 c4 3e 90 d5 9a 3e 6f 43 ec 3e ec 8a c7 3e
       0.38431337 0.3024106 0.46145198 0.38973176
000010 c1 45 ef 3e 5e 68 c9 3e 31 8c e9 3e ba 7b c8 3e
       0.46732906 0.39337438 0.4561477 0.39156896
000020 9a f3 ec 3e 1a 77 ca 3e 97 5d ef 3e 0b 67 cb 3e
       0.46279603 0.39543992 0.4675109 0.39727053
000030 02 3a f0 3e d1 b0 cc 3e 73 e6 ed 3e 6b 6e ca 3e
       0.46919256 0.3997865 0.4646488 0.39537367
000040 d9 6b ef 3e 8d c8 cb 3e b0 6c f0 3e fb ca cd 3e
       0.4676197 0.39801446 0.46957922 0.40193924
000050 8c 14 f1 3e 08 fe cd 3e 88 84 e7 3e 76 6a c3 3e
       0.4708599 0.40232873 0.452183 0.3816716
000060 19 d7 e7 3e d4 37 c2 3e e0 64 eb 3e 15 a4 c6 3e
       0.45281294 0.37933218 0.459754 0.3879706
000070 e5 96 ea 3e d2 85 c5 3e b1 c8 ee 3e 01 01 ce 3e
       0.45818248 0.3857866 0.4663749 0.4023514
000080 65 df eb 3e 81 97 ca 3e 1a a1 ec 3e 92 74 cb 3e
       0.46068874 0.39568713 0.4621666 0.39737374
000090 ec dc e7 3e 8a 0f c7 3e b2 9f eb 3e 5e c7 c9 3e
       0.45285738 0.38879043 0.46020275 0.39409918
0000a0 3a 75 e5 3e 6e 39 c5 3e bb 42 e9 3e 8a 22 c9 3e
       0.44816 0.38520378 0.45558724 0.39284164
0000b0 4b e1 e3 3e bc 33 c4 3e a7 09 ec 3e f2 24 c8 3e
       0.44507822 0.3832072 0.46101114 0.39090687
0000c0 fd 6e e5 3e be 5b c3 3e 5f ad e6 3e 5c 38 c4 3e
       0.4481124 0.3815593 0.45054147 0.3832425
0000d0 ec e5 e9 3e 18 f1 c3 3e ed 17 e1 3e 62 f4 c4 3e
       0.4568323 0.38269877 0.43963566 0.384677
0000e0 81 13 e7 3e e5 c7 c4 3e 33 d7 e2 3e 72 2b c5 3e
       0.45132068 0.38433757 0.4430481 0.3850971
0000f0 4a 7a e8 3e ea 4f c5 3e 63 7a e4 3e 36 44 c6 3e
       0.454058 0.38537532 0.44624624 0.38723916
000100 04 70 e9 3e 0d ab c6 3e a7 75 e9 3e 6f c3 c9 3e
       0.45593274 0.38802376 0.45597574 0.39406916
000110 38 29 ec 3e ce 73 c9 3e 7b 58 e6 3e 0f 1f c2 3e
       0.46125197 0.39346164 0.4498938 0.3791432
000120 52 07 ea 3e 50 cf c3 3e 6b 3f e2 3e 54 29 bf 3e
       0.4570871 0.38244104 0.4418901 0.37336218
000130 24 56 e5 3e 4a 13 bf 3e ea 6a ea 3e 2d e6 c9 3e
       0.44792283 0.37319404 0.45784694 0.39433423
000140 94 f3 ea 3e af 03 c8 3e e5 ca e8 3e b8 7b c7 3e
       0.4588896 0.3906531 0.45467296 0.38961577
000150 13 a2 e7 3e f9 ea c4 3e 6c 2e ec 3e aa e3 c8 3e
       0.4524084 0.3846052 0.46129167 0.39236194
000160 63 f4 e7 3e a8 f0 c5 3e 29 97 e8 3e 4b d0 c6 3e
       0.4530364 0.3866017 0.45427826 0.3883079
000170 a9 4c e2 3e 57 1e c3 3e 44 ef eb 3e 85 1a c6 3e
       0.44199112 0.38109085 0.46080983 0.38692108
000180 67 8a e7 3e f5 a8 c2 3e d5 2c bd 3e d6 ff 92 3e
       0.4522278 0.3801953 0.36948267 0.28710812
000190 d5 2c bd 3e d6 ff 92 3e
       0.36948267 0.28710812

onnx::Div_65 f4 [10]
000000 72 30 20 3c 72 30 20 3c 72 30 20 3c 72 30 20 3c
       0.009777175 0.009777175 0.009777175 0.009777175
000010 72 30 20 3c 72 30 20 3c 72 30 20 3c 72 30 20 3c
       0.009777175 0.009777175 0.009777175 0.009777175
000020 72 30 20 3c 72 30 20 3c
       0.009777175 0.009777175
