results/GameAddedRewards/PlayerBehaviour/PlayerBehaviour-39526.onnx (onnx, 490727 bytes, 10 tensors)

network_body.observation_encoder.processors.0.normalizer.running_mean f4 [202]
0	0x3f3fb69c	0.74888015
1	0x3f4cf332	0.80058587
2	0x3f3d73fc	0.74005103
3	0x3f494be9	0.78631455
4	0x3f3d336e	0.739066
5	0x3f484065	0.7822326
6	0x3f3d73fc	0.74005103
7	0x3f496d2b	0.786822
8	0x3f3d336e	0.739066
9	0x3f486168	0.7827363
10	0x3f46b047	0.7761273
11	0x3f4d943b	0.80304307
12	0x3f4a6eb5	0.79075176
13	0x3f4e5015	0.80590945
14	0x3f471c00	0.777771
15	0x3f4dc819	0.8038345
16	0x3f4b30c3	0.7937128
17	0x3f4ecf87	0.8078541
18	0x3f48bc2e	0.7841214
19	0x3f4f34e8	0.80940104
20	0x3f4ccd84	0.8000109
21	0x3f504ed1	0.81370264
22	0x3f46537a	0.77471125
23	0x3f4e280a	0.80529845
24	0x3f4b197f	0.7933578
25	0x3f4fc078	0.8115306
26	0x3f4be1eb	0.796416
27	0x3f50d72d	0.8157833
28	0x3f4d3788	0.8016286
29	0x3f510a45	0.81656295
30	0x3f4b7490	0.79474735
31	0x3f50b68b	0.8152854
32	0x3f4bf2a5	0.7966712
33	0x3f50bdb1	0.81539446
34	0x3f4c7751	0.7986956
35	0x3f511f84	0.81688714
36	0x3f4d2052	0.8012744
37	0x3f5130be	0.81715
38	0x3f4c9bab	0.7992503
39	0x3f51833b	0.81840867
40	0x3f4c8635	0.79892284
41	0x3f513f8c	0.8173759
42	0x3f54b0ee	0.83082473
43	0x3f5be7e6	0.85900724
44	0x3f553c29	0.8329492
45	0x3f5b8d70	0.8576269
46	0x3f55146e	0.832343
47	0x3f5bfcd2	0.8593265
48	0x3f552004	0.83251977
49	0x3f5b6e38	0.85715055
50	0x3f54f4f0	0.83186245
51	0x3f5bfe0d	0.85934526
52	0x3f55976c	0.83434176
53	0x3f5b8c71	0.8576117
54	0x3f550575	0.8321145
55	0x3f5c2ab9	0.8600269
56	0x3f55fad5	0.83585864
57	0x3f5bbd24	0.8583548
58	0x3f4f7d8b	0.8105094
59	0x3f53d13c	0.8274114
60	0x3f4d58d0	0.8021364
61	0x3f518630	0.8184538
62	0x3f4fbfdb	0.81152123
63	0x3f53caa2	0.8273107
64	0x3f4daa0c	0.80337596
65	0x3f5163b0	0.81792736
66	0x3f4eb83d	0.80749875
67	0x3f53964d	0.82651216
68	0x3f4cd8fe	0.80018604
69	0x3f5126f4	0.8170006
70	0x3f4f6809	0.8101812
71	0x3f53cd73	0.82735366
72	0x3f4d8dbc	0.80294394
73	0x3f51514a	0.8176466
74	0x3f4e352a	0.8054987
75	0x3f53526e	0.8254765
76	0x3f48a862	0.7838193
77	0x3f4eb64c	0.8074691
78	0x3f503f7c	0.8134687
79	0x3f5454c9	0.8294187
80	0x3f4a3653	0.7898914
81	0x3f4f2bb2	0.8092605
82	0x3f4f981f	0.81091493
83	0x3f53913b	0.8264348
84	0x3f487196	0.7829832
85	0x3f4d9c36	0.80316484
86	0x3f4f6800	0.81018066
87	0x3f537c88	0.82611895
88	0x3f470eca	0.7775694
89	0x3f4cbdf2	0.79977334
90	0x3f449a63	0.76798075
91	0x3f4eb8fd	0.8075102
92	0x3f3c0def	0.7345876
93	0x3f47b86b	0.78015774
94	0x3f449a63	0.76798075
95	0x3f4eb00f	0.80737394
96	0x3f3c0def	0.7345876
97	0x3f47999c	0.77968764
98	0x3f4617d9	0.7738014
99	0x3f5cd066	0.8625549
100	0x3f3d6bb3	0.7399246
101	0x3f4bdf6b	0.79637784
102	0x3f44818b	0.76760167
103	0x3f51ceb5	0.81956035
104	0x3f3c112d	0.7346371
105	0x3f487692	0.78305924
106	0x3f44818b	0.76760167
107	0x3f51d39c	0.81963515
108	0x3f3c112d	0.7346371
109	0x3f489693	0.7835476
110	0x3f4f649d	0.810129
111	0x3f567739	0.8377567
112	0x3f459314	0.7717755
113	0x3f4cf49e	0.80060756
114	0x3f4f8c7d	0.81073743
115	0x3f56580e	0.8372811
116	0x3f468a2d	0.7755459
117	0x3f4d8d65	0.80293876
118	0x3f5017b3	0.8128616
119	0x3f56f3e5	0.83965904
120	0x3f47c529	0.7803522
121	0x3f4ed87e	0.8079909
122	0x3f4e5b8d	0.80608445
123	0x3f55ecbc	0.83564353
124	0x3f4617d1	0.7738009
125	0x3f4e52fa	0.8059536
126	0x3f4f50c0	0.8098259
127	0x3f564c09	0.8370977
128	0x3f4be88c	0.79651713
129	0x3f513fe2	0.817381
130	0x3f4eb195	0.8073972
131	0x3f561103	0.8361971
132	0x3f4b26a4	0.79355836
133	0x3f510eb2	0.8166305
134	0x3f4f9817	0.81091446
135	0x3f560bd4	0.836118
136	0x3f4c2fe9	0.79760605
137	0x3f5154be	0.8176993
138	0x3f4f25aa	0.80916846
139	0x3f560714	0.8360455
140	0x3f4b464e	0.7940415
141	0x3f5147ad	0.81749994
142	0x3f549ea7	0.83054584
143	0x3f5e2ee2	0.8679029
144	0x3f4ffecf	0.8124818
145	0x3f5ac3ac	0.8545482
146	0x3f54c9da	0.831205
147	0x3f5e4c5a	0.86835253
148	0x3f4fa1fa	0.8110653
149	0x3f5a885b	0.8536431
150	0x3f54f9dd	0.8319376
151	0x3f5e541f	0.8684711
152	0x3f4f918a	0.8108145
153	0x3f5a89be	0.8536643
154	0x3f54c4cf	0.83112806
155	0x3f5e3605	0.8680118
156	0x3f4fe451	0.8120776
157	0x3f5ad2e7	0.8547806
158	0x3f4d6e59	0.802465
159	0x3f54db81	0.83147436
160	0x3f4c6f06	0.7985691
161	0x3f524bdc	0.82147
162	0x3f4d67d5	0.8023656
163	0x3f549458	0.83038855
164	0x3f4d62b9	0.80228764
165	0x3f526857	0.8219046
166	0x3f4c8609	0.7989202
167	0x3f547135	0.8298524
168	0x3f4bb3aa	0.7957102
169	0x3f5205cc	0.82040095
170	0x3f4ce665	0.80039054
171	0x3f54a13a	0.8305851
172	0x3f4cfa2c	0.8006923
173	0x3f52715c	0.8220422
174	0x3f479bc6	0.77972066
175	0x3f5237da	0.8211647
176	0x3f4ba49b	0.79548043
177	0x3f518f41	0.81859213
178	0x3f4a3654	0.7898915
179	0x3f538cb1	0.82636553
180	0x3f4d8c1c	0.80291915
181	0x3f524529	0.8213678
182	0x3f491ab5	0.78556377
183	0x3f52d0f0	0.82350063
184	0x3f4d0fc7	0.801022
185	0x3f517738	0.8182254
186	0x3f487534	0.7830384
187	0x3f52c9e4	0.8233931
188	0x3f4c4070	0.79785824
189	0x3f51098f	0.8165521
190	0x3f40abff	0.75262445
191	0x3f4f6e8a	0.81028044
192	0x3f408430	0.752017
193	0x3f4bd3ea	0.7962023
194	0x3f40abff	0.75262445
195	0x3f4f60c8	0.8100705
196	0x3f408430	0.752017
197	0x3f4bc738	0.7960086
198	0x3f42ca20	0.7608967
199	0x3f595b64	0.84905076
200	0x3f42ca20	0.7608967
201	0x3f595b64	0.84905076

network_body.observation_encoder.processors.1.normalizer.running_mean f4 [10]
0	0x00000000	0.0
1	0x00000000	0.0
2	0x00000000	0.0
3	0x00000000	0.0
4	0x00000000	0.0
5	0x00000000	0.0
6	0x00000000	0.0
7	0x00000000	0.0
8	0x00000000	0.0
9	0x00000000	0.0

network_body._body_endoder.seq_layers.0.weight f4 [256, 212]
0	0x3dc71a2a	0.09721787
1	0xbdcaea56	-0.09907977
2	0x3dc5b951	0.09654487
3	0xbca025de	-0.019549306
4	0x3d7fe41e	0.06247341
5	0xbdac4f65	-0.08413581
6	0xbd9b364f	-0.07578718
7	0xbcf6c488	-0.03012301
8	0x3ddfccd5	0.109277405
9	0xbc03905f	-0.008030026
10	0xbd112ca6	-0.03544297
11	0xbdc6287a	-0.09675689
12	0x3b56ee23	0.003279575
13	0x3d44b921	0.048028115
14	0x3c7a18db	0.015264715
15	0x3d8cf311	0.06882299
16	0x3b176950	0.0023103543
17	0x3c4360f5	0.011924972
18	0xbd976ebe	-0.07394169
19	0xbd18f993	-0.037347388
20	0xbc748b2f	-0.014925762
21	0x395bb5f4	0.0002095325
22	0x3c4673c0	0.012112558
23	0xbd41dabb	-0.04732774
24	0xbd2d8fd1	-0.042373482
25	0x3d1a63a5	0.037692685
26	0xbd87f714	-0.06638923
27	0xbd024e07	-0.031812694
28	0x3e46cb02	0.19413379
29	0x3d7117fa	0.058860756
30	0xbe19e948	-0.15030396
31	0x3dbd95df	0.09257101
32	0x3d690862	0.05689276
33	0x3d962418	0.07331103
34	0xbd604c59	-0.05476031
35	0x3cba586c	0.022747241
36	0x3c65f698	0.014035843
37	0xbd07832e	-0.033084087
38	0x3de06483	0.10956671
39	0x3c34bd1c	0.011031415
40	0x3d3cc5fe	0.046087258
41	0xbd21bc63	-0.0394863
42	0xbd802dcf	-0.06258737
43	0xbd0f6345	-0.03500678
44	0x3dd34b1d	0.10317061
45	0x3dd0f17f	0.10202312
46	0xbd8937b9	-0.067000814
47	0xbd808a47	-0.06276374
48	0x3cf8df44	0.030379899
49	0x3dc9fb4b	0.098623835
50	0x3d81a0e4	0.063295156
51	0x3cbc72d1	0.023003967
52	0x3ce08d2b	0.027411064
53	0x3c3f31c5	0.011669581
54	0x3dc6f6be	0.09715031
55	0x3cbc0d88	0.022955671
56	0xbd66f060	-0.056381583
57	0xbdbc97a5	-0.092086114
58	0x3d211d04	0.039334312
59	0xbd8ed53a	-0.069742635
60	0x3d4d1802	0.050071724
61	0xbe0005b0	-0.1250217
62	0x3d139e1f	0.036039468
63	0xba90c3b9	-0.0011044658
64	0xbcf90916	-0.03039984
65	0xbce342e3	-0.027741855
66	0x3db04982	0.086077705
67	0xbc047c75	-0.0080863135
68	0xbb58f831	-0.0033106918
69	0xbce6d4ae	-0.028177585
70	0x3d0b4ad6	0.034006916
71	0x3d9b30db	0.07577678
72	0x3d781851	0.060570065
73	0xbdb6d6b9	-0.08927674
74	0x3de36d0b	0.11104783
75	0x3daec86e	0.08534323
76	0xbdbfdcce	-0.09368287
77	0x3d663607	0.05620387
78	0x3cf3edab	0.029776415
79	0x3d4455a7	0.047933247
80	0xbc5a87b5	-0.013338019
81	0x3d95785d	0.07298348
82	0x3d671a0a	0.056421317
83	0x3d18efad	0.037337948
84	0x3d0a09eb	0.033700865
85	0xbdf8fc7f	-0.12157535
86	0xbd8b7ab1	-0.06810511
87	0xbd3ff86d	-0.046867777
88	0x3d54b89e	0.051933877
89	0x3ce12a6c	0.027486049
90	0xbd8e0c60	-0.06935954
91	0xbd82b78d	-0.06382666
92	0x3d61deb8	0.05514404
93	0x3db05f07	0.08611875
94	0xbd90985a	-0.07060309
95	0xbd831fc5	-0.06402544
96	0x3cb039b9	0.0215119
97	0x3d0a27dd	0.033729423
98	0x3da5ade3	0.08089807
99	0xbe3c1e04	-0.18370825
100	0x3e13be0c	0.14427966
101	0xbd28757c	-0.041127667
102	0xbd3e9e2f	-0.046537574
103	0xbe284bd0	-0.1643517
104	0xbdb75319	-0.089513965
105	0xbd584762	-0.05280245
106	0xbadd7918	-0.0016897051
107	0xbd6f091f	-0.058358308
108	0x3d7cef6d	0.06175177
109	0xbe2bb1d2	-0.16767052
110	0xbd945c66	-0.07244186
111	0xbbc6ddc0	-0.006068915
112	0xbc9da970	-0.019245833
113	0x3d98ddc7	0.07464176
114	0xbc4bbcd3	-0.012435156
115	0xb9b6d358	-0.00034871208
116	0x3b0371bb	0.0020056802
117	0x3dcfc8e1	0.101457365
118	0x3d49580b	0.04915623
119	0x3d570317	0.05249318
120	0xbd95b3ce	-0.07309686
121	0x3d4e752d	0.050404716
122	0x3df79041	0.12088061
123	0xbce7f1c7	-0.02831353
124	0xbdcd65e4	-0.100292
125	0xbd38512f	-0.044999298
126	0xbca73cc3	-0.020414716
127	0x3d7fd9f7	0.062463727
128	0x3d3c7aa0	0.04601538
129	0xbc593e2f	-0.013259455
130	0x3c90a49b	0.017656615
131	0x3ddc191a	0.10746975
132	0xbd70eb7c	-0.058818325
133	0x3d813910	0.06309712
134	0x3d055543	0.032552015
135	0xbe08e518	-0.13368642
136	0xbdc19e54	-0.09454027
137	0xbdfdaa62	-0.123860136
138	0xbb35b168	-0.002772415
139	0x3da870f0	0.08224666
140	0xbdfe9891	-0.124314435
141	0x3d1ae737	0.03781816
142	0x3d09b3b1	0.033618633
143	0xbd484f81	-0.048903946
144	0x3d46554e	0.048421197
145	0x3cf028f7	0.029316409
146	0xbde36436	-0.11103098
147	0x3ce68d2a	0.028143484
148	0xbd60cf92	-0.054885454
149	0x3d916d48	0.07100922
150	0x3d8c6d3e	0.06856774
151	0x3d507c35	0.050899703
152	0x3c4e34ad	0.012585801
153	0x3daa6912	0.08320822
154	0x3d996362	0.07489659
155	0xbd45d613	-0.04829986
156	0xbd0b278f	-0.033973273
157	0xbd7b54ca	-0.061360158
158	0x3de5988d	0.112107374
159	0xbcb4410b	-0.022003671
160	0xbd6ae82f	-0.057350334
161	0x3cc5e8b4	0.024158813
162	0x3d1a11ae	0.037614517
163	0xbd94c41a	-0.07263966
164	0xbc9e6af3	-0.019338107
165	0x3d71698b	0.058938544
166	0x3e0e08e7	0.13870583
167	0xbd42db6c	-0.04757254
168	0xbd41e534	-0.047337726
169	0x3d9a9bbd	0.07549236
170	0xbda74e61	-0.081692465
171	0x3da54a0f	0.08070766
172	0xba8e128b	-0.0010839266
173	0x3d08e2f9	0.033419583
174	0xbd988070	-0.074463725
175	0xbd54d158	-0.05195746
176	0xbb8d0927	-0.0043040696
177	0x3dc53fab	0.09631284
178	0x3ceda857	0.029010935
179	0x3c95d0c3	0.018288022
180	0x3c771e8d	0.0150829675
181	0x3d28750c	0.04112725
182	0xbcf633ca	-0.030053992
183	0x3dde7f97	0.108641796
184	0xbcf1a0b6	-0.029495578
185	0x3e0ab023	0.13543753
186	0x385299bf	5.021109e-05
187	0xbe018ded	-0.12651797
188	0xbbb4c7b2	-0.0055169696
189	0x3d21206e	0.039337568
190	0x3dcd3b2e	0.10021053
191	0x3d9c39cf	0.076282136
192	0x3db8288d	0.089921094
193	0x3d3fa0d9	0.046784256
194	0x3d941018	0.07229632
195	0xbbd84178	-0.0065996014
196	0xbcb6ffc6	-0.02233876
197	0x3db65948	0.08903748
198	0x3e54aa56	0.20768103
199	0x3c7110cc	0.014713477
200	0xbd24942c	-0.04018037
201	0xbdaa3802	-0.08311464
202	0xbe0a94f0	-0.13533378
203	0xbd04f135	-0.032456595
204	0xbddeabca	-0.1087261
205	0xbd94f5df	-0.07273459
206	0xbd0830ee	-0.033249788
207	0x3bb17b01	0.0054162745
208	0x3c858db7	0.016302926
209	0xbd25bcab	-0.04046313
210	0xbc2ac49e	-0.010422854
211	0x3caaad27	0.020834519
212	0xbdaaf7d0	-0.08348048
213	0xbca6d2dd	-0.02036422
214	0xbd057636	-0.032583438
215	0x3ce41100	0.027840137
216	0xbd6b40a1	-0.05743468
217	0x3e0167a8	0.12637198
218	0xbdfc3b62	-0.12316014
219	0x3c4e88cb	0.012605856
220	0x3cd0a0fd	0.02546739
221	0xbd217fe0	-0.03942859
222	0x3cf10f09	0.029426115
223	0xbccdd2e5	-0.025124976
224	0xbb011a41	-0.0019699486
225	0xbdaf473e	-0.0855851
226	0x3de50a1c	0.11183569
227	0x3dd01ece	0.101621255
228	0xbd5d15bb	-0.053975802
229	0xbd6d4f0b	-0.05793671
230	0xbd80f54f	-0.06296789
231	0xbdcaa30e	-0.098943815
232	0xbd09f221	-0.033678178
233	0xbe0cb632	-0.13741377
234	0xbd108dc7	-0.03529146
235	0xbdfc3c02	-0.12316133
236	0x3c054548	0.008134194
237	0xbce8e764	-0.028430648
238	0xbd20d6ed	-0.03926747
239	0xbd837331	-0.064184554
240	0x3c876795	0.016528884
241	0xbcb22aa3	-0.021748846
242	0xbd24d1a3	-0.040238988
243	0xbdf88b08	-0.12135893
244	0x3d34497b	0.04401539
245	0xbe22fabf	-0.15915965
246	0xbda51d5e	-0.08062242
247	0x3d93068b	0.07178982
248	0xbd484783	-0.048896324
249	0xbdae4561	-0.08509327
250	0x3d8754b6	0.06607954
251	0xbe0c8c68	-0.13725436
252	0xbb4ae5a0	-0.003095962
253	0xbda3b362	-0.07993199
254	0xbd804abf	-0.06264257
255	0xbd529a9f	-0.05141699

network_body._body_endoder.seq_layers.0.bias f4 [256]
0	0x3bc71b0f	0.0060762237
1	0x3c511a66	0.0127626415
2	0x3bb6aa5c	0.0055745076
3	0x3c3b5cf3	0.011435735
4	0x3b3daeb5	0.0028943245
5	0x3c053455	0.008130153
6	0x3c25acf4	0.010112036
7	0x3c1a320b	0.009411345
8	0x3c5a0af0	0.013308272
9	0x3b22c34b	0.0024835642
10	0x3c54541c	0.012959506
11	0xbc387165	-0.011257504
12	0x3c4b0a08	0.012392528
13	0x3b3b0619	0.002853757
14	0x3c6c8397	0.01443567
15	0x3c09e80d	0.008417142
16	0x3c856e28	0.016287878
17	0x3c8e780d	0.017391229
18	0x3c264155	0.010147412
19	0x3b2b7a2d	0.0026165352
20	0x3c3af751	0.011411504
21	0x3c0f7c87	0.008757717
22	0x3be98047	0.0071258876
23	0x3c11f059	0.008907401
24	0x3c27ffe4	0.01025388
25	0x3bcf7930	0.0063315853
26	0xbb9a661f	-0.004711881
27	0x3b927592	0.004469582
28	0x3bb8631a	0.005627048
29	0x3c804726	0.015658926
30	0x3c17da7d	0.0092684
31	0x3c092b47	0.0083721345
32	0x3cb76242	0.02238572
33	0x3c06d367	0.008229113
34	0x3a3c5231	0.00071838783
35	0x3c68cfc9	0.014209696
36	0xbbc40abe	-0.005982726
37	0x3c8fc2c5	0.017548928
38	0x3c8f4f8f	0.017493991
39	0x3c63a6a9	0.013894715
40	0xbb1b6f1f	-0.0023717356
41	0x3c500587	0.01269663
42	0x3cceae0c	0.025229476
43	0x3c99fa15	0.018796006
44	0x3c718fcb	0.014743756
45	0x3c64e6e8	0.013971068
46	0x3c7daa97	0.015482566
47	0x3a318a62	0.0006772635
48	0x3caddb9f	0.021222888
49	0xbca4a6c9	-0.02009906
50	0xbbb26a7e	-0.0054448238
51	0x3c4b5ea4	0.012412701
52	0xbccbf94f	-0.024899153
53	0x3ce5dc83	0.02805925
54	0x3c8de2da	0.017320085
55	0x3bc2d0a0	0.00594528
56	0x3c073400	0.008252144
57	0x3c613285	0.013744955
58	0x3ce229b5	0.027607778
59	0x3c8ebf4a	0.017425198
60	0x3c445b26	0.011984622
61	0xbc1a22e2	-0.009407731
62	0xbbbece1f	-0.0058229114
63	0x3c9e617f	0.0193336
64	0x3cb32d05	0.021872053
65	0x3c79f9f1	0.015257345
66	0x3bbddda2	0.005794243
67	0x3c0fd191	0.008777992
68	0x3b731441	0.003709093
69	0x3cbb1fe2	0.022842351
70	0x3b69b5da	0.003566137
71	0x3c943278	0.018090472
72	0x3c3561ad	0.011070651
73	0x3c0d1b08	0.008612402
74	0x3ca7aa82	0.020467047
75	0x3c04200a	0.008064279
76	0x3bf228bc	0.00739011
77	0x3ba5d871	0.005061202
78	0xbc82ba6b	-0.015958032
79	0x3cacb798	0.021083638
80	0x3c896b42	0.016774777
81	0xbc4705e3	-0.0121474
82	0x3cb02189	0.021500366
83	0x3c2e9ea2	0.010657938
84	0x3c3c6e64	0.011500929
85	0x3c0d721a	0.008633161
86	0x3b98bd80	0.004661262
87	0xbc084a0f	-0.008318438
88	0xbbe13abf	-0.006873458
89	0x3ca16daf	0.019705622
90	0x3c822a20	0.015889227
91	0x3c97a587	0.018511547
92	0x3c813b45	0.015775332
93	0x3c0fcedf	0.008777349
94	0x3c639f29	0.013892927
95	0x3c667812	0.014066713
96	0x3c87a2c4	0.016557105
97	0x3c43bb16	0.01194646
98	0x3d1421e3	0.03616513
99	0x3c864120	0.016388476
100	0x3c2dd080	0.010608792
101	0xbb92c42c	-0.004478952
102	0x3b1cdefe	0.0023936625
103	0x3c4b63e0	0.012413949
104	0x3a384b46	0.00070302596
105	0x3bb2799c	0.005446626
106	0x3bd023f3	0.0063519417
107	0x3c793853	0.015211183
108	0x3c07e025	0.008293186
109	0x3cb2dbc4	0.021833308
110	0x3b9e30d2	0.004827597
111	0x3c57dbb8	0.013174944
112	0x3c9d4e03	0.019202238
113	0x3c81b129	0.015831547
114	0x3c84443c	0.016145818
115	0x3c2b3348	0.010449238
116	0x3cbe25d8	0.023211405
117	0x3ca70143	0.020386344
118	0x3c548d3a	0.012973124
119	0x3c2cf5cb	0.0105566485
120	0x3b4aaeb0	0.0030926876
121	0x3bddcfe9	0.0067691696
122	0x3c89369f	0.016749678
123	0x3be4984f	0.0069761644
124	0xbb9d1113	-0.004793295
125	0x3c412142	0.011787714
126	0x3cb6f224	0.022332259
127	0x3c800bd8	0.015630648
128	0x3c9f417a	0.019440401
129	0x3ca1dfe8	0.019760087
130	0x3b9194ba	0.0044427784
131	0x3c47e4de	0.012200562
132	0x3c285e02	0.010276319
133	0x3c2f5302	0.010700943
134	0x3c7e2db9	0.015513831
135	0x3bfb1b59	0.007663172
136	0x3bc1e5ce	0.0059172874
137	0x3c7251c2	0.01479
138	0x39c4e11f	0.00037551761
139	0x3bf41e19	0.007449877
140	0x3b81a469	0.003956367
141	0x3c819905	0.015820036
142	0x3cb346d4	0.02188436
143	0x3ca4b889	0.020107524
144	0xbc81c49e	-0.015840825
145	0x3a7868a5	0.00094760425
146	0x3c67e17c	0.014152881
147	0x3c244a7f	0.010027527
148	0x3cd90378	0.026490912
149	0x3b15e598	0.0022872444
150	0xbb858991	-0.004075237
151	0x3c9b0882	0.018924955
152	0x3caf2831	0.02138147
153	0x3ac34dd3	0.0014900513
154	0x3ca6df41	0.020370128
155	0x3ba3588a	0.00498492
156	0x3bcbc2e4	0.006218301
157	0xbaa75d2a	-0.0012768854
158	0x3a1fae3e	0.0006091333
159	0x3c39a9f7	0.011332027
160	0x3ceb985f	0.02875918
161	0x3c80ab82	0.015706781
162	0x3cb93907	0.0226102
163	0x3c48e7bf	0.012262284
164	0xbbf56332	-0.0074886316
165	0x3c16a9d1	0.009195761
166	0x3c0ab54f	0.008466079
167	0x3c80acd0	0.015707403
168	0x3c4d693c	0.012537297
169	0x3c805328	0.015664652
170	0x3c950cf5	0.018194655
171	0x3c4c5975	0.0124725
172	0x3c492c4a	0.012278626
173	0xbcc2c067	-0.023773385
174	0x3cb33875	0.021877507
175	0x3c5a6ace	0.013331128
176	0x3c70a008	0.014686592
177	0x3c880438	0.016603574
178	0x3c17e1aa	0.009270111
179	0x3c3b71dd	0.011440721
180	0x3c9cec50	0.019155651
181	0x3c36056d	0.011109692
182	0x3c216237	0.009850076
183	0x3be2565f	0.006907269
184	0x3c6741be	0.014114795
185	0x3b5c9dce	0.0033663395
186	0x3bbb6aed	0.0057195337
187	0x3c26bdc2	0.010177078
188	0x3cf0587c	0.029339068
189	0x3bab3085	0.00522429
190	0x3cbe0ddf	0.023199974
191	0x3c38e0a7	0.01128403
192	0x3c8b3439	0.016992675
193	0x3c5e8f69	0.013583996
194	0x3c8f3848	0.017482892
195	0x3c15c7d0	0.009141877
196	0x3b361042	0.0027780687
197	0x3ba00861	0.0048838113
198	0x3aa5be9a	0.0012645305
199	0x3c75dd24	0.015006337
200	0x3c61a48e	0.013772143
201	0x3c88b16a	0.01668616
202	0x3c2038d6	0.009779176
203	0xbc101af3	-0.008795488
204	0x3c0b9365	0.008519028
205	0x3c30845e	0.010773746
206	0x3c1d78c7	0.009611315
207	0x3c19da6c	0.009390455
208	0x3c871984	0.016491659
209	0x3bf612c7	0.0075095627
210	0x3c9a113d	0.018807048
211	0x3c9c9e66	0.019118499
212	0x3c9b5e0f	0.01896575
213	0x3c912387	0.017717136
214	0x3bd52348	0.00650445
215	0x3c03db44	0.0080478825
216	0x3c230db7	0.009952
217	0x3c662857	0.014047704
218	0x3cdc1154	0.026863731
219	0x3804cd27	3.1662315e-05
220	0xbbf6188a	-0.0075102495
221	0x3c14eabc	0.009089168
222	0x3ca0d14b	0.019631049
223	0x3ccf79d1	0.025326641
224	0xbabcd8ed	-0.0014407911
225	0x3cb7c97e	0.022434946
226	0x3c1949de	0.00935599
227	0x3c971e3f	0.01844704
228	0x3c849648	0.016184941
229	0x3bfc149b	0.007692886
230	0x3caec4a1	0.021333994
231	0x3ca1f8a9	0.01977189
232	0xbbbc4e28	-0.0057466216
233	0xb915f738	-0.00014301843
234	0xb8263eaa	-3.9635845e-05
235	0x3c815b76	0.015790682
236	0xbc0e8606	-0.008698946
237	0x3c4ba3e4	0.012429211
238	0x3c39b594	0.0113347955
239	0x3ca7306a	0.020408828
240	0xba4e482f	-0.00078690326
241	0x3c942018	0.01808171
242	0x3bd123e4	0.0063824523
243	0x3ca21409	0.019784944
244	0xbc4a3800	-0.012342453
245	0x3beb4c58	0.0071807317
246	0x3c84d31c	0.016213946
247	0x3b003f0a	0.0019568824
248	0x3c5989f0	0.013277516
249	0x3c7b3746	0.015333002
250	0x3ba56dca	0.0050484883
251	0xbb80fa18	-0.0039360635
252	0x3c2d2668	0.010568239
253	0x3c9535b5	0.018214086
254	0xbbacd85d	-0.005274816
255	0x3c783215	0.015148659

network_body._body_endoder.seq_layers.2.weight f4 [256, 256]
0	0xbd6dcd6f	-0.058057245
1	0x3b6ab630	0.0035814159
2	0xbbedc053	-0.007255593
3	0xbc01ec3c	-0.007929858
4	0x3d1af117	0.037827577
5	0xbd3805ac	-0.044927284
6	0x3cf9383f	0.030422328
7	0xbcf5e642	-0.030017022
8	0x3ce4cd4a	0.02792992
9	0xbd259791	-0.040427748
10	0x3db8e8a3	0.09028747
11	0xbd3aec11	-0.045635287
12	0x3d387e4d	0.045042325
13	0x3caf8341	0.021424891
14	0xbb91519b	-0.004434777
15	0x3d92fc24	0.07176998
16	0x3d2de5b9	0.04245541
17	0xbd738a2b	-0.05945794
18	0xbd5ef167	-0.054429438
19	0xbd95aabe	-0.07307957
20	0xbd3ffbf4	-0.04687114
21	0xbdceee67	-0.101040654
22	0x3bf7262e	0.007542393
23	0xbdd29790	-0.102828145
24	0x3cb850d7	0.022499485
25	0xbd51e244	-0.051241174
26	0xbcf6557d	-0.03007006
27	0xbdd746f3	-0.10511579
28	0x3c52c071	0.012863264
29	0x3d7ac6a0	0.06122458
30	0x3d4b8b06	0.04969313
31	0x3db68746	0.0891252
32	0x3da6594e	0.08122502
33	0xbc61ea40	-0.01378876
34	0x3d84d6a4	0.06486252
35	0x3d93deb9	0.07220215
36	0xbc51cc56	-0.012805065
37	0x3dd00818	0.10157794
38	0x3e08377c	0.13302416
39	0xbdc09fa8	-0.09405452
40	0x3d434db1	0.047681514
41	0xbda3130b	-0.079626165
42	0x3d9694bb	0.07352587
43	0xbb3926cc	-0.0028251885
44	0x3da30527	0.07959967
45	0x3dc0321a	0.09384556
46	0xbd097c3b	-0.03356574
47	0x3d383fe9	0.044982824
48	0xbcc45ba5	-0.02396948
49	0xba3b9902	-0.0007156284
50	0x3e00535a	0.12531796
51	0x3ce173c7	0.027521027
52	0xbcac5914	-0.02103857
53	0xbc401b5f	-0.011725276
54	0x3ccc8ddf	0.024969993
55	0xbb996af2	-0.0046819383
56	0x3d71aa58	0.059000343
57	0xbb9c16c3	-0.0047634556
58	0xbd14ba00	-0.036310196
59	0xbd0907f1	-0.03345484
60	0xbc85230a	-0.01625206
61	0x3e2aaf99	0.16668548
62	0x3d6f446d	0.058414865
63	0x3c8ba68a	0.017047185
64	0xbce419fa	-0.027844418
65	0xbdf4f001	-0.119598396
66	0xbd2fd2db	-0.042925697
67	0x3c5077f6	0.012723913
68	0xbc6adf08	-0.014335401
69	0xbd824a2a	-0.06361802
70	0x3d261169	0.040543947
71	0x3e008926	0.12552318
72	0xbd74ce11	-0.059766833
73	0xbd39ba7d	-0.045343865
74	0xbae5ac36	-0.0017522636
75	0xbc35a7d4	-0.011087377
76	0xbc3e59ce	-0.011618091
77	0x3df1f4c5	0.11814264
78	0x3bd0e566	0.0063750027
79	0xbcd81d4b	-0.026381155
80	0xbdb0b348	-0.08627945
81	0xbde10357	-0.10986965
82	0x3d67ad0e	0.056561522
83	0xbced99a2	-0.029003922
84	0x3c881279	0.016610371
85	0x3e1c2c48	0.15251267
86	0x3cc5b3c0	0.024133563
87	0xbc905a05	-0.01762105
88	0x3ceb2f57	0.028709097
89	0x3dd35fee	0.103210315
90	0x3d83c8a5	0.06434754
91	0x3d5f7602	0.0545559
92	0x3c166fab	0.009181897
93	0xbd9b29d9	-0.07576341
94	0xbdc78990	-0.09743035
95	0x3d0cd03b	0.03437827
96	0xbd31b057	-0.04338106
97	0x3d905c35	0.07048837
98	0x3d1618ed	0.036644865
99	0xbc7ece68	-0.015552141
100	0xbd89ce2c	-0.06728777
101	0xbcedae5d	-0.029013807
102	0x3dc1afa3	0.09457328
103	0x3dc8226c	0.097721905
104	0xbe00c11d	-0.12573667
105	0x3d7191e1	0.05897701
106	0xbdb5354a	-0.08848055
107	0x3d6a4346	0.057193063
108	0xbd33ee0c	-0.04392819
109	0x3d0dd48e	0.034626536
110	0x3d93ac39	0.07210583
111	0xbd895d04	-0.067071944
112	0x3c2ef25b	0.010677899
113	0xbd9d713b	-0.076876126
114	0xbdfbc123	-0.12292697
115	0xbc543835	-0.012952854
116	0x3d1a519c	0.037675485
117	0xbc4247cf	-0.011857941
118	0xbdf0d7d6	-0.117599174
119	0xbd150919	-0.03638563
120	0x3d12bc2c	0.035823986
121	0x39b9f236	0.0003546641
122	0xbd04e7c1	-0.03244758
123	0xbc284060	-0.010269254
124	0xbd4cd82b	-0.05001084
125	0x3e10a0b8	0.1412381
126	0x3da89fc1	0.08233596
127	0x3d0d5181	0.034501556
128	0x3d467bc6	0.048457883
129	0x3d5103f6	0.051029168
130	0xbd2e0a24	-0.04249014
131	0x3d5f0c4e	0.054455094
132	0x3d8f9ea3	0.070126794
133	0xbc07f8a4	-0.008299027
134	0xbd56261e	-0.052282445
135	0x3bb6284c	0.005559003
136	0xbd54c2f9	-0.051943753
137	0x3d7cf097	0.06175288
138	0x3d23ed13	0.040021013
139	0x3d2dd2a4	0.04243721
140	0xbccd958e	-0.025095727
141	0x3d0415c6	0.032247327
142	0x3e1cc4ac	0.153094
143	0xbd0425c6	-0.032262586
144	0xbbd071cb	-0.0063612214
145	0x3d2ed15d	0.042680133
146	0xb907dfd7	-0.0001295799
147	0x3d8a3a29	0.067493744
148	0x3bf0eba6	0.00735231
149	0xbc028163	-0.0079654185
150	0x3d0b6f8a	0.03404192
151	0x3dc4990d	0.095995046
152	0xbd838ff6	-0.06423943
153	0xbd7742d8	-0.06036648
154	0xbd89e241	-0.06732608
155	0xbb990681	-0.004669965
156	0x3d771683	0.060324203
157	0xbb909a49	-0.0044129235
158	0xbda119b9	-0.07866234
159	0x3ce3ca7c	0.027806513
160	0xbcf53286	-0.029931318
161	0xbdc6e4cf	-0.097116105
162	0xbde7167e	-0.11283587
163	0xbc8c6104	-0.017136104
164	0x3c903964	0.017605491
165	0x3ccb8c4c	0.024847172
166	0x3b299185	0.002587409
167	0x3d81d224	0.06338909
168	0xbc5ca2cc	-0.013466548
169	0xbd98528d	-0.0743762
170	0xbdec7ea6	-0.11547594
171	0x3d228e99	0.039686773
172	0xbdd82b6a	-0.105551556
173	0x3d7446e6	0.059637927
174	0xbd29b276	-0.04142996
175	0x3d93f396	0.07224195
176	0x3d3ac0eb	0.045594137
177	0x3db65c3f	0.08904313
178	0x3bdb9e39	0.006702211
179	0xbd242042	-0.040069826
180	0x3d4d987a	0.05019424
181	0xbe0d1e0c	-0.13780993
182	0x3dc50866	0.096207425
183	0x3add6ab8	0.0016892767
184	0x3d93f1b3	0.07223835
185	0xbd14bbf3	-0.036312055
186	0xbdcf5fca	-0.10125692
187	0xbb32f898	-0.0027308818
188	0xbb90c64a	-0.004418169
189	0x3d0d9ad4	0.034571484
190	0xbcf46242	-0.02983201
191	0xbd78a501	-0.060704235
192	0x3e3cacf5	0.18425353
193	0x3c8bcf5e	0.017066654
194	0xbc0a891d	-0.008455542
195	0xbd164b65	-0.036692996
196	0xbcec7993	-0.028866565
197	0xbab538b4	-0.0013826103
198	0x3c97feed	0.018554175
199	0x3c69da30	0.014273211
200	0x3cb8677d	0.022510285
201	0x3c20e7ed	0.00982092
202	0xbc530b53	-0.012881118
203	0x3d2e4d53	0.04255421
204	0xbcfd60da	-0.030929971
205	0x3bdf495d	0.0068141655
206	0x3cd68c62	0.026189987
207	0x3d165161	0.036698703
208	0x3c0855da	0.00832125
209	0xbd1afe6c	-0.03784029
210	0xbd989482	-0.074502006
211	0xbdbf71a9	-0.09347851
212	0xbd0334ad	-0.032032657
213	0xbdc07c72	-0.09398736
214	0x3d58d1ea	0.052934565
215	0xbd0cc203	-0.03436471
216	0xbde3a899	-0.11116142
217	0x3d8d7b41	0.069082744
218	0xbd606a53	-0.0547889
219	0x3d664f16	0.056227766
220	0x3ce33bdb	0.027738502
221	0x3d62213f	0.055207487
222	0x3df2a8da	0.11848612
223	0xba407419	-0.00073415186
224	0x3d1da588	0.03848794
225	0xbd05205d	-0.032501567
226	0x3d7a8e6c	0.06117098
227	0xbd45a8e0	-0.048256755
228	0xbdf13c29	-0.11779053
229	0xbddfc99d	-0.109271266
230	0x3d3cb636	0.046072207
231	0x3d389d50	0.0450719
232	0x3dc55b27	0.096365266
233	0xbcf07a9c	-0.02935534
234	0xbdbe5f87	-0.09295564
235	0xbd10825b	-0.035280567
236	0x3ce85408	0.028360382
237	0x3d23a7ae	0.039954834
238	0x3c903dfb	0.01760768
239	0xbd179501	-0.037007336
240	0xbcb0c75a	-0.021579433
241	0x3d31da76	0.04342123
242	0x3d238c0d	0.039928485
243	0xbdd15a92	-0.10222353
244	0xbd2dfbc8	-0.042476445
245	0xb9e89968	-0.00044364785
246	0xbdd810b8	-0.10550064
247	0x3c83f5b3	0.01610837
248	0x3c93f34c	0.018060349
249	0x3ce13f47	0.027495993
250	0xbcf10932	-0.02942333
251	0x3e217183	0.15765958
252	0xbd5eefd4	-0.054427937
253	0xbd5fae11	-0.054609362
254	0xbd75b595	-0.059987623
255	0xbc9d3118	-0.019188449

network_body._body_endoder.seq_layers.2.bias f4 [256]
0	0x3c53be2d	0.012923759
1	0x3c32af3f	0.01090604
2	0xbbc3d64c	-0.005976474
3	0x3be97a29	0.0071251583
4	0x3b26e473	0.0025465756
5	0xbbb0c55d	-0.0053946213
6	0x3a3fb92d	0.0007313665
7	0x3a93a2d8	0.0011263741
8	0x3c36ebfb	0.011164661
9	0x3c7a30da	0.015270436
10	0x3c609cbc	0.013709243
11	0x3c143a7e	0.009047149
12	0x3d0c1832	0.034202762
13	0x3c34769e	0.011014609
14	0x3bb5efa9	0.0055522514
15	0x3b8a5fd4	0.0042228494
16	0x39e80a8b	0.00044258343
17	0x3bda4680	0.0066612363
18	0x3c9aabfd	0.018880839
19	0x3c2f866a	0.010713199
20	0x3c7da92c	0.015482228
21	0x3c26cf4e	0.010181261
22	0x3c92b107	0.017906679
23	0x3bde3d1c	0.006782187
24	0x3c740631	0.014894054
25	0x3b55d4ab	0.003262798
26	0x3c112b15	0.008860369
27	0x3c03a02d	0.008033794
28	0x3c4ca1fa	0.01248979
29	0x3cff350e	0.031153228
30	0x3c8083d8	0.015687868
31	0x3c7d77e7	0.0154704815
32	0x3c8543d8	0.016267702
33	0x3c129b16	0.008948108
34	0x3c77fecb	0.015136431
35	0x3ca0e535	0.019640544
36	0x3c2e47a9	0.010637202
37	0x3c87f2f3	0.01659534
38	0x3befdfbc	0.0073203724
39	0x3c4b30e0	0.012401789
40	0x3c3f4348	0.011673756
41	0x3bc1eff6	0.005918498
42	0x3bb14572	0.00540989
43	0x3bcec6f8	0.00631034
44	0x3c922633	0.01784048
45	0x3c3f11d6	0.011661967
46	0x3c6f26e6	0.014596676
47	0x3ca6dba6	0.020368408
48	0x3ba9a1cf	0.00517676
49	0xbacf73af	-0.0015827323
50	0x389e6768	7.553288e-05
51	0x3c882e57	0.016623659
52	0x3c90ef9b	0.017692378
53	0x3c2da146	0.010597533
54	0x3cb64ee7	0.02225442
55	0x3c9aa8b2	0.018879268
56	0x3c5f12ab	0.013615291
57	0x3c0ada2c	0.008474868
58	0x3c8c8f14	0.017158069
59	0x3ba92c17	0.0051627266
60	0x3c272125	0.010200773
61	0x3c0ad919	0.008474612
62	0xbc0ac5fc	-0.008470055
63	0x391d78cf	0.00015017691
64	0xbb79e79b	-0.0038132432
65	0xbb54cb6b	-0.003246988
66	0x3c62bde6	0.013839221
67	0x3c33cb2e	0.010973735
68	0xbb8450ff	-0.004037976
69	0x3b03d924	0.002011844
70	0x3c44a01e	0.012001066
71	0x3bafdd21	0.005366937
72	0x3c60f407	0.013730056
73	0x3c63a3ae	0.013894005
74	0x3c3317c7	0.010930962
75	0x3c1a3bc9	0.009413668
76	0xba9159e8	-0.0011089416
77	0x3c50ccd2	0.0127441455
78	0x3cd07520	0.025446475
79	0x3c121c4a	0.008917877
80	0x3c6d1295	0.014469762
81	0x3b944e6b	0.0045259497
82	0x3c898ff5	0.016792277
83	0x3c392587	0.011300451
84	0xbb73ab09	-0.0037180802
85	0x3c4d78f9	0.012541049
86	0x3c7c92ee	0.01541589
87	0x3c3e1b97	0.011603258
88	0x3c996679	0.01872562
89	0x3b22505b	0.0024767134
90	0x3c09a3dc	0.0084008835
91	0x3c0712bc	0.008244213
92	0x3a79f1f9	0.0009534653
93	0x3834cdc8	4.3106993e-05
94	0x3c2213dd	0.009892431
95	0x3c4ebe01	0.012618543
96	0x3c5cab20	0.013468534
97	0x3c68f93c	0.014219578
98	0x3cb9d0ff	0.022682665
99	0x3c5b4299	0.013382577
100	0x3bb78f64	0.0056018103
101	0x3bd61a66	0.0065339087
102	0x3c43bd0a	0.011946926
103	0x3c3c2ac8	0.011484809
104	0x3c75e6bb	0.015008624
105	0x3cab2770	0.020892829
106	0x3cc725ee	0.024310078
107	0x3c5db91c	0.013532903
108	0x3c8d0c5c	0.017217807
109	0x3b8caaed	0.004292837
110	0x3c3516ce	0.0110528
111	0x3c12ba43	0.008955541
112	0x3c95c6ce	0.018283274
113	0x3ca1a9aa	0.019734222
114	0x3c59205b	0.013252343
115	0x3b9f333f	0.004858404
116	0x3c0ca2e3	0.008583757
117	0x3c305c47	0.010764188
118	0x3c4a22f1	0.012337432
119	0x3bc644c7	0.0060506794
120	0x3ccf2889	0.025287883
121	0x3c85cf18	0.016334102
122	0x3aea18a7	0.001786013
123	0x3c7313d7	0.014836273
124	0x3c83981c	0.016063742
125	0x3c65b763	0.014020774
126	0x3b9bbab0	0.0047524795
127	0x3c2acdb2	0.010425018
128	0x3cdb8d07	0.026800646
129	0x3d031a80	0.032007694
130	0x3b57bc7c	0.0032918742
131	0x3cb03efd	0.02151441
132	0x3c8e0bc2	0.017339591
133	0x3b863db2	0.00409671
134	0x3ccefde1	0.025267543
135	0x3cb199e4	0.021679826
136	0x3c20db2a	0.009817878
137	0x3c30acab	0.010783355
138	0xb9da2ff6	-0.00041615934
139	0x3c0cf9a4	0.008604441
140	0x3c72c0f4	0.014816511
141	0x3cc2f955	0.023800531
142	0x3c3fdd67	0.011710501
143	0x3b5bd20a	0.003354194
144	0x3bcf29fa	0.0063221427
145	0x3c90622c	0.017624937
146	0x3be4fb97	0.0069879997
147	0x3b432499	0.0029776453
148	0x3c50df26	0.012748515
149	0x3c4d0d33	0.012515354
150	0x3c87aa67	0.016560746
151	0x3c8af692	0.016963277
152	0x3c93c34b	0.018037459
153	0x3bb3ff65	0.005493092
154	0x3c37a73a	0.0112093035
155	0xbb7acbc9	-0.0038268438
156	0x3b08fa47	0.002090113
157	0x3c5d605a	0.0135117415
158	0x3c208f5e	0.009799806
159	0x3be1c19b	0.0068895346
160	0x3c8797ab	0.016551813
161	0x3becd58c	0.007227605
162	0x3c9a91f4	0.018868424
163	0x3bd51ebf	0.0065039094
164	0x3c31e600	0.010858059
165	0x3c17d166	0.009266233
166	0x3c25448c	0.010087144
167	0xba550f8f	-0.00081276236
168	0x3d04c0e8	0.032410532
169	0x3c725def	0.014792903
170	0x3b7ab3ac	0.0038254065
171	0x3c78016b	0.015137057
172	0x3c4e1d83	0.012580278
173	0x3b9f48e6	0.004860985
174	0x3cde1432	0.02710924
175	0x3bb6150e	0.005556709
176	0x3c910aec	0.017705403
177	0x3c245970	0.010031089
178	0xbb3a0fc2	-0.002839074
179	0x3c0e04aa	0.008668104
180	0xbb3abb85	-0.0028493118
181	0x3b2bd7eb	0.0026221226
182	0x3c94d653	0.018168604
183	0xba0b05d1	-0.0005303296
184	0xbb785a44	-0.00378956
185	0x3be4c956	0.006982009
186	0x3c10988e	0.008825434
187	0x386279f5	5.399618e-05
188	0x3c4c0ebb	0.012454684
189	0x3b55f38f	0.0032646393
190	0x3be17ffd	0.0068817125
191	0x3b83d278	0.0040228926
192	0x3c270827	0.010194815
193	0x3c421a74	0.011847127
194	0x3aa7243c	0.0012751888
195	0x3c8fc795	0.017551223
196	0x3b86eca7	0.0041175666
197	0x3cc4f892	0.024044309
198	0xbbe9b00c	-0.007131582
199	0x3bf78642	0.0075538466
200	0x3bd1b160	0.0063993186
201	0x3c89135b	0.016732862
202	0x3bb58fe5	0.005540835
203	0x3cccc6c7	0.024997128
204	0x3c486d4a	0.012233088
205	0xbbb70886	-0.005585733
206	0xbb23608e	-0.0024929377
207	0x3ce03638	0.027369604
208	0x3c2b9954	0.010473568
209	0x3c29e66b	0.010369877
210	0x3cb513ec	0.022104226
211	0x3bd3ca92	0.0064633572
212	0x3b166412	0.002294783
213	0x3c6f5b9a	0.014609242
214	0x3c331e65	0.01093254
215	0x3bf82486	0.0075727133
216	0x3cbc5846	0.02299131
217	0x3cd26893	0.02568463
218	0x3c3a8c57	0.011385999
219	0x3c3bae4d	0.011455131
220	0x3caf1fcb	0.021377465
221	0x3c6d23c9	0.014473864
222	0x3c518636	0.012788346
223	0xbc0a17bd	-0.008428511
224	0x3c1d5236	0.00960212
225	0x3c673e1d	0.01411393
226	0x3c46ee93	0.012141841
227	0xbb86f5b0	-0.0041186437
228	0x3cab8e4c	0.020941876
229	0x3b546d9c	0.0032413965
230	0x3c7563c0	0.014977396
231	0x3bb7873c	0.005600838
232	0x3cc5f5e2	0.024165098
233	0x3c37b2ac	0.011212032
234	0xbad3a9db	-0.0016148643
235	0x3c99c3f8	0.018770203
236	0x3c521a11	0.0128235975
237	0x3c34effb	0.011043544
238	0x3c3b9a9a	0.011450434
239	0x3c1a5f94	0.009422202
240	0x3b3f215a	0.0029164166
241	0x3ba054e7	0.0048929336
242	0x3c01caa4	0.007921848
243	0x3c840ddd	0.016119892
244	0xbbab657a	-0.005230603
245	0x3c4af246	0.012386864
246	0xbbbbd412	-0.005732068
247	0x3b996046	0.004680666
248	0x3c8ace98	0.016944215
249	0x3bff6383	0.007793845
250	0x3c5cc59c	0.013474848
251	0x3c5e8226	0.0135808345
252	0x3c83a583	0.016070133
253	0x3c6de8ac	0.014520805
254	0x3c8127a0	0.015765965
255	0x3b17d9e0	0.0023170635

action_model._discrete_distribution.branches.0.weight f4 [4, 256]
0	0xbc6d02e0	-0.0144660175
1	0x3c1b4e61	0.009479136
2	0x3c74369a	0.014905596
3	0xbcee93a7	-0.02912314
4	0xbc851cbf	-0.016249059
5	0x3c2d6cf3	0.010585058
6	0x3cc16c9f	0.023611365
7	0x3b9d5e48	0.004802499
8	0x3c307502	0.010770084
9	0x3d41bd8c	0.047299907
10	0xbc20c2a1	-0.009812028
11	0xbca590b1	-0.020210596
12	0x3bd29b63	0.006427215
13	0xbafff387	-0.0019527533
14	0xbca7aef3	-0.020469164
15	0xbcdb7ab0	-0.0267919
16	0x3c135f98	0.008994959
17	0xbc3e9fd6	-0.011634788
18	0x3d25e0d4	0.040497616
19	0xbcdb6e15	-0.02678589
20	0xbd24e159	-0.04025397
21	0x3b7dbb97	0.0038716549
22	0xbd1ed821	-0.038780335
23	0x3cbd5081	0.023109676
24	0xbbfd2996	-0.0077259047
25	0x3c65575f	0.013997882
26	0x3d04d3d4	0.032428578
27	0xbc837008	-0.016044632
28	0xbd1ff082	-0.039047725
29	0xbb9f9609	-0.0048701805
30	0xbc231c67	-0.009955502
31	0x3ab361f2	0.0013685806
32	0xbcf7db12	-0.030255828
33	0x3d082da2	0.033246644
34	0x3d2e237f	0.04251432
35	0xbd0d9204	-0.03456308
36	0x3d07bdda	0.03314004
37	0xbc1e7d29	-0.009673395
38	0xbcff5080	-0.031166315
39	0xbbf28ccc	-0.007402038
40	0xbcb70802	-0.022342686
41	0xbbfaef26	-0.0076579032
42	0xbbc279c1	-0.0059349244
43	0x3d0ed337	0.0348694
44	0xbcfe7de4	-0.031065889
45	0x3be2fff8	0.0069274865
46	0xbd1f5a2f	-0.038904365
47	0xbd077768	-0.03307286
48	0x3ca5b826	0.02022941
49	0x3d0a883f	0.03382134
50	0x3c803654	0.015650906
51	0xbcdb8540	-0.026796937
52	0xbcf1c847	-0.029514445
53	0x3c329e3f	0.010901987
54	0x3ce7614c	0.028244637
55	0xbc1ad736	-0.009450724
56	0xbd21c843	-0.039497625
57	0x3c3df3c8	0.0115937665
58	0xbc21e19a	-0.009880448
59	0xbc01dcfd	-0.007926223
60	0x3cb94842	0.022617463
61	0xbbdc15f7	-0.0067164856
62	0xbb384af0	-0.0028120838
63	0xbb8ebbf5	-0.0043559023
64	0x3b267756	0.002540072
65	0x3c122e0b	0.00892211
66	0xbd3b1039	-0.045669768
67	0xbd510563	-0.051030528
68	0xbb2d6c94	-0.0026462423
69	0x3c4a648f	0.012353077
70	0xbce39555	-0.027781168
71	0x3cc6f0f8	0.024284825
72	0xbae74786	-0.0017645217
73	0x3d4d67a7	0.05014768
74	0xbd189ae5	-0.037257094
75	0x3b525571	0.0032094384
76	0xbb7cb8cf	-0.0038562303
77	0x3ca2a869	0.019855695
78	0x3d15c4d4	0.036564663
79	0xbb15b21d	-0.002284176
80	0x3ca665ba	0.020312179
81	0xbbb6223d	-0.0055582807
82	0x3d5f4d82	0.054517277
83	0x3b2532bc	0.0025207242
84	0xbb1ed418	-0.0024235304
85	0xbd190a8a	-0.037363566
86	0x3c09247d	0.008370516
87	0x3b5151be	0.0031939591
88	0x3acecb02	0.0015777054
89	0x3c2faec4	0.01072282
90	0xbb26ba96	-0.0025440804
91	0xbb3f048d	-0.0029147
92	0x3cca771c	0.024714999
93	0x3cf1191a	0.029430915
94	0xbcdb823b	-0.026795497
95	0x3d08a094	0.033356264
96	0xbd1ead81	-0.038739685
97	0xbbe4bf8d	-0.0069808424
98	0x3cc93c53	0.024564898
99	0xbd13256d	-0.035924364
100	0xbc832222	-0.016007487
101	0xbd158bc1	-0.036510233
102	0xbc99678a	-0.01872613
103	0xbd07f5b1	-0.033193294
104	0xbc9c3916	-0.01907019
105	0x3cde1512	0.027109656
106	0xbccc1001	-0.024909975
107	0xbd1ca8d1	-0.038246933
108	0x3cdf05cd	0.027224446
109	0x3cd320a1	0.025772395
110	0xbcbcfa68	-0.023068622
111	0xbd00bfc5	-0.031432886
112	0xbcf4cc2b	-0.029882511
113	0xba6e0ea3	-0.00090811605
114	0x3d2928c3	0.04129864
115	0x3b9251c0	0.0044653118
116	0x3c314e4d	0.010821891
117	0xbd10e739	-0.03537676
118	0x3d275549	0.04085282
119	0x3bfea377	0.0077709514
120	0xbc50004f	-0.012695386
121	0x3ce9b6a8	0.02852948
122	0xbc54c0f5	-0.012985458
123	0xbc5e1e8b	-0.013557087
124	0x3c05e061	0.008171172
125	0xbcf731e2	-0.030175153
126	0xbcb9c8e9	-0.02267881
127	0xbbebdc59	-0.0071978983
128	0xbd2dc706	-0.04242613
129	0xbd361f2a	-0.044463314
130	0xbcabc05b	-0.020965746
131	0x3c2e7e7a	0.010650272
132	0xbcfa268a	-0.030535955
133	0xb9960c72	-0.00028619502
134	0x3d8aa9a0	0.06770635
135	0x3cc63276	0.024193984
136	0xbcc12890	-0.023578912
137	0x3d3113e0	0.043231845
138	0x3d147bb5	0.03625079
139	0xbbd7d89c	-0.006587101
140	0xbd0312a7	-0.03200021
141	0x3c009874	0.007848848
142	0x3d3ede4e	0.046598725
143	0xbc367b19	-0.011137747
144	0xbcfc0a48	-0.030766621
145	0xbd1b5570	-0.037923276
146	0x3c7458c1	0.014913739
147	0x3cfeb4f5	0.031092146
148	0xbcbc90f5	-0.02301834
149	0xbcf63164	-0.030052848
150	0xbcbfac92	-0.023397718
151	0xbcb8a256	-0.022538345
152	0xbd1d9dcb	-0.03848056
153	0xbcf6ae2e	-0.030112352
154	0xbc88c1ea	-0.016694028
155	0x3acf053c	0.0015794407
156	0x3bc018e5	0.0058623427
157	0xbcad1601	-0.021128656
158	0x3c499ee5	0.01230595
159	0x38e8d48c	0.00011102212
160	0xbc744558	-0.014909111
161	0xbc31fb13	-0.010863083
162	0xbcce2b38	-0.025167093
163	0xbbf6b4e9	-0.0075288904
164	0x3c814a3b	0.015782466
165	0x3c9b183b	0.018932452
166	0xbb7bae2c	-0.0038403375
167	0xbbd349f0	-0.006448023
168	0x3bed9674	0.0072506014
169	0x3b8cd03f	0.004297286
170	0x3cea5c00	0.028608322
171	0xbc0dad2c	-0.008647244
172	0xbd0c4ba0	-0.03425181
173	0x3c9f80b9	0.01947056
174	0xbc2a2f2f	-0.010387226
175	0xbcdfc422	-0.027315203
176	0x3cf7bcf3	0.030241465
177	0xbd0a3d06	-0.033749603
178	0xbb91f8c3	-0.0044547035
179	0x3c274191	0.010208503
180	0xbc4c54b7	-0.0124713695
181	0xbbd4d9c4	-0.0064956862
182	0xbb884f4b	-0.004159843
183	0x3c9e879b	0.019351771
184	0xbbeef443	-0.007292302
185	0x3d133f24	0.035948887
186	0x3c186eee	0.009303791
187	0xbc5a28fb	-0.013315435
188	0xbba642ff	-0.0050739045
189	0x3d18ad87	0.037274864
190	0xbcddf2b4	-0.027093269
191	0xbc12c51c	-0.008958127
192	0xbd170ee1	-0.036879424
193	0xbce07d47	-0.027403487
194	0x3c6147ff	0.013750075
195	0x3c0ade31	0.008475826
196	0x3d38da7b	0.045130234
197	0xbbf14386	-0.0073627857
198	0xbb67d001	-0.0035371783
199	0xbd20e9a8	-0.039285332
200	0xbba80ad0	-0.005128242
201	0x3b6761d8	0.0035306122
202	0x3d39716a	0.045274176
203	0xbc60a012	-0.013710039
204	0xbc465439	-0.012105041
205	0x3cca28b6	0.024677616
206	0xbc49aa2e	-0.01230864
207	0x3bae22b4	0.0053141955
208	0xbc363512	-0.011121051
209	0xbc4302e1	-0.011902542
210	0x3cec65d6	0.028857153
211	0x3c4a3c8d	0.012343538
212	0x3bf1db55	0.0073808827
213	0xbd1b8eb3	-0.037977885
214	0x3c69370f	0.014234318
215	0xbb932157	-0.0044900584
216	0xbd42153e	-0.04738354
217	0xbd2dbd0e	-0.042416625
218	0xbd186bc9	-0.037212167
219	0x3ca15ffb	0.019699087
220	0xbd089936	-0.03334924
221	0xbcbbae16	-0.02291016
222	0xbd1a2aa4	-0.03763832
223	0x3aa473a2	0.0012546668
224	0xbd00d639	-0.0314543
225	0x3d18b815	0.03728493
226	0x3d1172a3	0.035509717
227	0xbbf36b58	-0.007428568
228	0xbcbb974a	-0.022899289
229	0xbcd5ee3f	-0.026114581
230	0xbca07241	-0.01958573
231	0xbc9d552b	-0.01920565
232	0xbcce9c5a	-0.025221039
233	0xbc9408de	-0.018070634
234	0x3c6fed98	0.014644049
235	0x3c08b3ef	0.008343681
236	0xbc1eabcf	-0.009684517
237	0xbc95ed00	-0.018301487
238	0xbb96c49a	-0.0046010735
239	0x3cb959b0	0.022625774
240	0xbb945b4f	-0.0045274864
241	0x3d01cf48	0.03169182
242	0x3d0a245d	0.033726085
243	0xbc9bfa63	-0.019040292
244	0x3aa0f96e	0.0012281367
245	0xbc350f8b	-0.011051069
246	0xbb76564b	-0.0037588056
247	0x39461774	0.00018891488
248	0xbb75c431	-0.0037500972
249	0x3d1c2bde	0.038127773
250	0xbcd4d32d	-0.025979603
251	0xba8c50f8	-0.0010705283
252	0x3c4f2b4a	0.012644598
253	0xbd1eb455	-0.038746197
254	0xbcdb4dc8	-0.026770487
255	0xbc9de6d5	-0.019275108

action_model._discrete_distribution.branches.0.bias f4 [4]
0	0xbb905593	-0.0044047325
1	0xbb65c53a	-0.0035060183
2	0xb805d94d	-3.1912048e-05
3	0x3bd0eca0	0.006375864

onnx::Div_62 f4 [202]
0	0x3ede0c2b	0.43368658
1	0x3eba4c26	0.36386222
2	0x3ee094d3	0.43863544
3	0x3ec13604	0.37736523
4	0x3ee0db5c	0.43917358
5	0x3ec4145e	0.3829679
6	0x3ee094d3	0.43863544
7	0x3ec1191b	0.37714466
8	0x3ee0db5c	0.43917358
9	0x3ec3fbfb	0.38278183
10	0x3ed56fcf	0.41686866
11	0x3ec0a078	0.37622428
12	0x3ed04875	0.4068028
13	0x3ec35e74	0.38158
14	0x3ed4e053	0.41577396
15	0x3ec0828e	0.37599605
16	0x3ecf3107	0.40467092
17	0x3ec2f899	0.3808029
18	0x3ed2aaeb	0.41146025
19	0x3ebf0116	0.37305516
20	0x3eccd005	0.40002456
21	0x3ec1458c	0.37748373
22	0x3ed5ea49	0.41780308
23	0x3ebf7bc1	0.37399104
24	0x3ecf52d9	0.40492895
25	0x3ec13bd5	0.3774096
26	0x3ece2d7f	0.40269086
27	0x3ebe3172	0.371471
28	0x3ecc3039	0.3988054
29	0x3ebfff85	0.37499633
30	0x3ecece9b	0.40392002
31	0x3ebe1c84	0.3713113
32	0x3ece14c6	0.40250224
33	0x3ebfc20b	0.3745273
34	0x3ecd502b	0.40100226
35	0x3ebdff40	0.37108803
36	0x3ecc5318	0.39907146
37	0x3ebf87f4	0.37408412
38	0x3ecd19b4	0.40058672
39	0x3ebd2753	0.36944064
40	0x3ecd39e5	0.40083233
41	0x3ebecd45	0.37265983
42	0x3ebff839	0.37494066
43	0x3eabc21e	0.33546537
44	0x3ebf010b	0.37305483
45	0x3eae0ce7	0.3399422
46	0x3ebf47e9	0.3735955
47	0x3eab3a0f	0.33442733
48	0x3ebf3341	0.3734379
49	0x3eade0b1	0.33960488
50	0x3ebf8009	0.3740237
51	0x3eab228f	0.33424804
52	0x3ebe5d91	0.3718076
53	0x3eade584	0.3396417
54	0x3ebf6289	0.37379864
55	0x3eab49cd	0.33454743
56	0x3ebda9ed	0.37043706
57	0x3eae2611	0.34013417
58	0x3ec8aae5	0.39192882
59	0x3eba0436	0.36331338
60	0x3ecbfe37	0.39842388
61	0x3ebeb8b3	0.3725029
62	0x3ec84224	0.3911296
63	0x3eba7109	0.36414364
64	0x3ecb82b9	0.3974817
65	0x3ebf6b69	0.37386635
66	0x3ec9e151	0.39429715
67	0x3eba1988	0.36347604
68	0x3eccbe6c	0.3998903
69	0x3ebf6ac9	0.37386158
70	0x3ec8cd86	0.39219302
71	0x3eba19a5	0.3634769
72	0x3ecbad77	0.3978078
73	0x3ebf94c9	0.37418202
74	0x3ecaace4	0.3958503
75	0x3eba56b3	0.3639427
76	0x3ed2c67b	0.41167054
77	0x3ec14c64	0.37753594
78	0x3ec77527	0.38956568
79	0x3eb98f61	0.36242202
80	0x3ed098da	0.40741616
81	0x3ec1650d	0.37772408
82	0x3ec8813a	0.39161092
83	0x3ebaa63f	0.3645496
84	0x3ed311b5	0.41224447
85	0x3ec30993	0.38093242
86	0x3ec8cd95	0.39219347
87	0x3ebaaccd	0.36459962
88	0x3ed4f22c	0.41591012
89	0x3ec39d70	0.38206053
90	0x3ed8242e	0.42215103
91	0x3ebb9701	0.36638644
92	0x3ee216ff	0.4415817
93	0x3ec42332	0.38308102
94	0x3ed8242e	0.42215103
95	0x3ebb5b59	0.3659313
96	0x3ee216ff	0.4415817
97	0x3ec4309f	0.38318345
98	0x3ed63890	0.4184003
99	0x3e8cfe16	0.27537602
100	0x3ee09de8	0.43870473
101	0x3eb8d019	0.36096266
102	0x3ed843b2	0.42239147
103	0x3eb030eb	0.3441232
104	0x3ee2137c	0.4415549
105	0x3ec140b0	0.37744665
106	0x3ed843b2	0.42239147
107	0x3eb0790f	0.3446736
108	0x3ee2137c	0.4415549
109	0x3ec12d0c	0.3772968
110	0x3ec8d258	0.3922298
111	0x3eaf6f97	0.34264824
112	0x3ed6e544	0.4197179
113	0x3ec0a16f	0.37623164
114	0x3ec893c7	0.39175245
115	0x3eafd1fa	0.34339887
116	0x3ed5a267	0.41725466
117	0x3ec03736	0.37542123
118	0x3ec7b535	0.39005437
119	0x3eaef9e3	0.34175023
120	0x3ed3fc98	0.4140365
121	0x3ebeac29	0.37240723
122	0x3eca7218	0.39540172
123	0x3eb021c4	0.3440076
124	0x3ed6389e	0.4184007
125	0x3ebea089	0.37231854
126	0x3ec8f183	0.3924676
127	0x3eaff630	0.34367514
128	0x3ece23c9	0.40261677
129	0x3ebcf386	0.36904544
130	0x3ec9ebc1	0.39437678
131	0x3eb002dc	0.34377182
132	0x3ecf3fbd	0.40478316
133	0x3ebccd54	0.36875403
134	0x3ec880f9	0.39160898
135	0x3eb0dab9	0.34541872
136	0x3ecdba47	0.4018118
137	0x3ebce8a9	0.36896256
138	0x3ec935dc	0.39298904
139	0x3eb06598	0.3445251
140	0x3ecf11d1	0.4044328
141	0x3ebc2e40	0.36754036
142	0x3ec0185c	0.37518585
143	0x3ea0b058	0.3138454
144	0x3ec7dd43	0.39035997
145	0x3eab6d0c	0.33481634
146	0x3ebfcc50	0.37460566
147	0x3e9ff2e4	0.31239998
148	0x3ec87145	0.39148918
149	0x3eaae023	0.33374128
150	0x3ebf770f	0.37395522
151	0x3e9fffb4	0.31249774
152	0x3ec88b73	0.3916889
153	0x3eaace16	0.33360356
154	0x3ebfd522	0.37467295
155	0x3ea0d776	0.31414384
156	0x3ec807a6	0.39068335
157	0x3eab2da8	0.3343327
158	0x3ecbdd9f	0.3981752
159	0x3eb20096	0.34766072
160	0x3ecd5cc3	0.40109834
161	0x3ebae602	0.36503607
162	0x3ecbe6ef	0.39824626
163	0x3eb2af4b	0.34899363
164	0x3ecbef0e	0.39830822
165	0x3ebb76b9	0.36614016
166	0x3ecd3a08	0.40083337
167	0x3eb2218f	0.34791228
168	0x3ece71c7	0.4032118
169	0x3ebb1577	0.36539814
170	0x3ecca9f6	0.3997342
171	0x3eb206a3	0.34770688
172	0x3ecc8ca4	0.3995105
173	0x3ebb1c78	0.36545157
174	0x3ed434f8	0.41446662
175	0x3eb33581	0.35001758
176	0x3ece877f	0.4033775
177	0x3ebc2d97	0.36753532
178	0x3ed098e5	0.4074165
179	0x3eb1da83	0.34737024
180	0x3ecbafbd	0.39782515
181	0x3ebbf9c5	0.36713997
182	0x3ed22803	0.41046152
183	0x3eb26a79	0.34846857
184	0x3ecc6c29	0.3992627
185	0x3ebd3d85	0.36960998
186	0x3ed30d29	0.41220978
187	0x3eb2005a	0.34765893
188	0x3ecda217	0.40162727
189	0x3ebd782f	0.37005755
190	0x3edcefab	0.43151602
191	0x3eb29696	0.34880513
192	0x3edd1e19	0.43187025
193	0x3ebe3df0	0.3715663
194	0x3edcefab	0.43151602
195	0x3eb26e11	0.348496
196	0x3edd1e19	0.43187025
197	0x3ebe10fd	0.37122336
198	0x3eda66bc	0.42656505
199	0x3e96d6fc	0.29460895
200	0x3eda66bc	0.42656505
201	0x3e96d6fc	0.29460895

onnx::Div_65 f4 [10]
0	0x3ba4d140	0.0050298274
1	0x3ba4d140	0.0050298274
2	0x3ba4d140	0.0050298274
3	0x3ba4d140	0.0050298274
4	0x3ba4d140	0.0050298274
5	0x3ba4d140	0.0050298274
6	0x3ba4d140	0.0050298274
7	0x3ba4d140	0.0050298274
8	0x3ba4d140	0.0050298274
9	0x3ba4d140	0.0050298274
