results/GameAddedRewards9loss/PlayerBehaviour.onnx (onnx, 490727 bytes, 10 tensors)

network_body.observation_encoder.processors.0.normalizer.running_mean f4 [202]
0	0x3f4fdcea	0.81196463
1	0x3f5ef65e	0.87094676
2	0x3f4d3e17	0.80172867
3	0x3f5d081e	0.8634051
4	0x3f4c6d20	0.7985401
5	0x3f5c3bb6	0.8602861
6	0x3f4d3e17	0.80172867
7	0x3f5d411e	0.86427486
8	0x3f4c6d20	0.7985401
9	0x3f5c7467	0.86115116
10	0x3f5b0893	0.8555996
11	0x3f637f2a	0.8886591
12	0x3f5c64bf	0.86091226
13	0x3f63b3ed	0.8894642
14	0x3f5cdfd3	0.8627903
15	0x3f6497c1	0.8929406
16	0x3f5e4788	0.868279
17	0x3f64e69c	0.8941438
18	0x3f5fe961	0.8746548
19	0x3f6714f9	0.90266377
20	0x3f61dc72	0.88227
21	0x3f67c232	0.90530694
22	0x3f5d20c0	0.863781
23	0x3f65ea86	0.8981098
24	0x3f600c40	0.8751869
25	0x3f6734e6	0.9031509
26	0x3f6412d0	0.89091206
27	0x3f69756a	0.91194785
28	0x3f65e0b9	0.89796025
29	0x3f6a58f4	0.9154198
30	0x3f637055	0.8884328
31	0x3f694cf6	0.9113306
32	0x3f64d117	0.89381546
33	0x3f6a1fd1	0.914548
34	0x3f64e15a	0.8940636
35	0x3f6a0080	0.9140701
36	0x3f6613d1	0.8987399
37	0x3f6aa203	0.9165346
38	0x3f6575e1	0.89632994
39	0x3f6abae7	0.9169144
40	0x3f657a8d	0.8964012
41	0x3f6ad747	0.9173474
42	0x3f7174c7	0.94318813
43	0x3f795413	0.9739391
44	0x3f746994	0.954736
45	0x3f7a1ab5	0.97697
46	0x3f715200	0.9426575
47	0x3f793553	0.9734699
48	0x3f749349	0.9553724
49	0x3f7a39bc	0.97744346
50	0x3f70fe77	0.9413828
51	0x3f7922a7	0.973185
52	0x3f750e62	0.9572507
53	0x3f7a5e1a	0.9779984
54	0x3f71623f	0.94290537
55	0x3f7981f7	0.97463936
56	0x3f75e633	0.9605438
57	0x3f7ac126	0.9795097
58	0x3f69f2e7	0.91386265
59	0x3f6eafe3	0.9323713
60	0x3f6c817c	0.9238508
61	0x3f709254	0.9397328
62	0x3f6aa0f5	0.9165185
63	0x3f6ead44	0.9323313
64	0x3f6d1d05	0.92622405
65	0x3f709243	0.9397318
66	0x3f69a409	0.9126592
67	0x3f6e6a88	0.93131304
68	0x3f6c4754	0.9229634
69	0x3f70513a	0.9387394
70	0x3f6b2c2b	0.9186427
71	0x3f6ee7e5	0.9332259
72	0x3f6cf7d4	0.92565656
73	0x3f708623	0.93954676
74	0x3f6a00d4	0.91407514
75	0x3f6e76ec	0.9315021
76	0x3f6b3ed2	0.9189273
77	0x3f6f6e95	0.9352811
78	0x3f6c887e	0.9239577
79	0x3f6f9ef7	0.93601936
80	0x3f6da149	0.92824227
81	0x3f7024de	0.93806255
82	0x3f6be857	0.921514
83	0x3f6ec9f4	0.93276906
84	0x3f6c066b	0.92197293
85	0x3f6ea4fd	0.932205
86	0x3f6bb539	0.920734
87	0x3f6ea478	0.9321971
88	0x3f6a8076	0.91602266
89	0x3f6da738	0.9283328
90	0x3f5d4149	0.8642774
91	0x3f68304d	0.906987
92	0x3f5c6706	0.860947
93	0x3f673556	0.9031576
94	0x3f5d4149	0.8642774
95	0x3f6804a7	0.906321
96	0x3f5c6706	0.860947
97	0x3f670ded	0.90255624
98	0x3f5eb6f9	0.86997944
99	0x3f6951f1	0.9114066
100	0x3f5de61b	0.8667924
101	0x3f685b9d	0.9076479
102	0x3f5d8239	0.8652683
103	0x3f686c1a	0.9078995
104	0x3f5c15c1	0.85970694
105	0x3f671574	0.9026711
106	0x3f5d8239	0.8652683
107	0x3f689871	0.9085761
108	0x3f5c15c1	0.85970694
109	0x3f673cd1	0.90327173
110	0x3f69915d	0.9123743
111	0x3f6e0242	0.92972195
112	0x3f64b2ef	0.8933553
113	0x3f6b3346	0.9187511
114	0x3f69d978	0.91347456
115	0x3f6e320d	0.9304512
116	0x3f65b93b	0.89735764
117	0x3f6bc371	0.92095095
118	0x3f6ab13e	0.916767
119	0x3f6f39b5	0.9344743
120	0x3f668ed3	0.9006168
121	0x3f6cd65d	0.9251459
122	0x3f688fbd	0.9084433
123	0x3f6e857c	0.9317243
124	0x3f6437fa	0.89147913
125	0x3f6bdddd	0.9213541
126	0x3f6c476e	0.92296493
127	0x3f700c92	0.9376918
128	0x3f6a0c76	0.91425264
129	0x3f6ebfe9	0.9326158
130	0x3f6b78cf	0.91981214
131	0x3f6fe05b	0.93701714
132	0x3f691409	0.91046196
133	0x3f6e76ae	0.9314984
134	0x3f6ca1f2	0.9243461
135	0x3f703df4	0.9384453
136	0x3f6ae902	0.9176179
137	0x3f6f37cd	0.9344452
138	0x3f6c6a4a	0.92349684
139	0x3f7070a4	0.93921876
140	0x3f6adfb5	0.917476
141	0x3f6fa3ba	0.936092
142	0x3f7431c8	0.9538846
143	0x3f7bc8f8	0.9835353
144	0x3f72d5a2	0.9485723
145	0x3f79a3ed	0.97515756
146	0x3f743665	0.953955
147	0x3f7b7c87	0.9823689
148	0x3f72b78a	0.9481131
149	0x3f79ac66	0.97528684
150	0x3f749356	0.95537317
151	0x3f7b9498	0.9827361
152	0x3f72253f	0.94588083
153	0x3f798868	0.97473764
154	0x3f748ea6	0.95530164
155	0x3f7bd4d6	0.98371637
156	0x3f7308b9	0.94935185
157	0x3f79fd56	0.97652185
158	0x3f6d0cc7	0.9259762
159	0x3f70bd7a	0.9403912
160	0x3f6a6df0	0.91574
161	0x3f6f3118	0.93434286
162	0x3f6d2198	0.92629385
163	0x3f70784c	0.9393356
164	0x3f6ba74a	0.9205214
165	0x3f6f5ec4	0.93503976
166	0x3f6c294a	0.922505
167	0x3f7015e6	0.93783414
168	0x3f6a33e8	0.9148545
169	0x3f6ee08e	0.93311393
170	0x3f6c9414	0.9241345
171	0x3f7029ed	0.93813974
172	0x3f6b8dce	0.9201325
173	0x3f6f4336	0.9346193
174	0x3f67fb37	0.906177
175	0x3f6de701	0.9293061
176	0x3f6a0581	0.9141465
177	0x3f6e4389	0.930718
178	0x3f6a1365	0.91435844
179	0x3f6e9344	0.9319346
180	0x3f6c0679	0.92197376
181	0x3f6f1c87	0.93402904
182	0x3f683e8a	0.9072043
183	0x3f6d0650	0.9258776
184	0x3f6b0bbc	0.9181478
185	0x3f6dea1b	0.9293534
186	0x3f677dd1	0.90426356
187	0x3f6c8b5d	0.9240015
188	0x3f6a41e2	0.9150678
189	0x3f6d61da	0.92727435
190	0x3f5bafae	0.8581494
191	0x3f67306f	0.9030828
192	0x3f5b85e6	0.8575119
193	0x3f66bd75	0.9013284
194	0x3f5bafae	0.8581494
195	0x3f670635	0.90243846
196	0x3f5b85e6	0.8575119
197	0x3f6693aa	0.9006907
198	0x3f5dd81d	0.8665789
199	0x3f68adb9	0.9089008
200	0x3f5dd81d	0.8665789
201	0x3f68adb9	0.9089008

network_body.observation_encoder.processors.1.normalizer.running_mean f4 [10]
0	0x420a4fbe	34.577873
1	0x4161f26a	14.121683
2	0x00000000	0.0
3	0x00000000	0.0
4	0x00000000	0.0
5	0x00000000	0.0
6	0x00000000	0.0
7	0x00000000	0.0
8	0x00000000	0.0
9	0x00000000	0.0

network_body._body_endoder.seq_layers.0.weight f4 [256, 212]
0	0x3d8b055d	0.06788132
1	0x3da9df02	0.082944885
2	0x3d8d0014	0.068847805
3	0xbd37a06f	-0.044830736
4	0x3da8ac5e	0.082360014
5	0x3cb90b78	0.022588477
6	0xbc27e2a8	-0.01024691
7	0xbc0f658f	-0.008752241
8	0x3d343984	0.044000164
9	0xbd5a8abe	-0.05335497
10	0x3dd26cd8	0.102746665
11	0xbcdc3e77	-0.026885254
12	0x3d9dfd04	0.077142745
13	0x3c2229a5	0.009897624
14	0x3d3706a8	0.044684082
15	0xbd87c5d7	-0.06629532
16	0x3d9acdbd	0.07558773
17	0xbd8f45dd	-0.06995747
18	0x3c1ebc33	0.009688425
19	0x3c01a0ca	0.00791187
20	0xbd39f84d	-0.045402814
21	0x3be4baf3	0.006980294
22	0xbcb562d0	-0.022141844
23	0x3d9a90d1	0.07547153
24	0x3bf2549f	0.0073953415
25	0xbdf5f267	-0.12009125
26	0x3d8bf783	0.068343185
27	0xbd073902	-0.03301335
28	0xbcddc54d	-0.02707162
29	0x3d64d9db	0.055871826
30	0x3cd0a8a4	0.02547104
31	0x3dab6ae6	0.08369999
32	0x3d9ac5fb	0.07557293
33	0xbd9f22ef	-0.07770335
34	0x3cd6d581	0.026224853
35	0x3d9167d8	0.07099885
36	0x3db05c0d	0.08611307
37	0x3dc07df3	0.09399023
38	0xbd3d07f2	-0.046150155
39	0xbbda132b	-0.006655117
40	0x3d74be4f	0.059751805
41	0x3d332ddf	0.043744918
42	0x3dce1ce0	0.10064101
43	0xbdf2101c	-0.11819479
44	0xbdd9968a	-0.10624416
45	0xbd02d9b7	-0.03194591
46	0x3e2901f4	0.16504651
47	0x3c18c967	0.009325362
48	0x3dd786f5	0.10523788
49	0x3bef594f	0.0073043476
50	0x3cef0e4d	0.029181624
51	0xbd981ed6	-0.074277565
52	0xbcf2d2d0	-0.029641539
53	0xbc4314b4	-0.0119067915
54	0x3dbf2c1c	0.09334585
55	0x3c41bcff	0.011824845
56	0x3dbe944b	0.093056284
57	0xbd8d2399	-0.06891555
58	0x3e080ca5	0.13286074
59	0xbd3417df	-0.043968078
60	0x3e01aad5	0.12662823
61	0xbd43bb89	-0.04778627
62	0xbd911cf5	-0.07085601
63	0x3cd46c90	0.025930673
64	0x3d7a4484	0.061100498
65	0xbdd08903	-0.10182383
66	0x3ca58fca	0.020210166
67	0xbd26904f	-0.040664967
68	0x3d104bfc	0.035228714
69	0x3bca6dc8	0.0061776377
70	0xbd83d324	-0.06436756
71	0xbceb7c2c	-0.028745733
72	0x3c240b67	0.010012484
73	0x3dc41a04	0.095752746
74	0xbdd601dc	-0.104495734
75	0x3c3a4a84	0.011370305
76	0x3c379eb1	0.011207269
77	0xbcca43d9	-0.024690555
78	0xbdf7b844	-0.12095693
79	0x3d1a9266	0.037737273
80	0x3d0628a5	0.032753605
81	0xbc491596	-0.012273213
82	0xbe24c33d	-0.16090102
83	0xbd6a1859	-0.057152126
84	0x3d14859f	0.036260244
85	0x3e1f7f00	0.1557579
86	0xbdcd8dc6	-0.10036807
87	0x3e35358b	0.17696206
88	0x3ca8071b	0.0205112
89	0x3d1612f6	0.036639176
90	0x3d1b0a91	0.037851874
91	0xbcd35e42	-0.025801782
92	0xbd5ca8ec	-0.053872034
93	0xbdfc9a16	-0.12334077
94	0x3d8bc365	0.06824378
95	0x3b89f7e9	0.0042104614
96	0xbd188380	-0.037234783
97	0xbd56158f	-0.052266654
98	0x3e0422e1	0.1290393
99	0x3c41c7ac	0.011827391
100	0xbb876d07	-0.00413287
101	0x3ceb6fc8	0.028739825
102	0xbd3829a1	-0.044961575
103	0x3d889dc8	0.066707194
104	0x3d5f0e26	0.054456852
105	0xbda1eacc	-0.07906112
106	0xbc87d922	-0.01658303
107	0x3c793181	0.015209557
108	0x3e19642c	0.14979619
109	0x3c824a43	0.015904551
110	0xbd84c2e4	-0.06482485
111	0xbce93581	-0.028467895
112	0x3dfc710a	0.12326248
113	0xbba0eeeb	-0.0049112937
114	0xbc139dfe	-0.009009836
115	0xbd18da8d	-0.0373178
116	0xbdf94104	-0.12170604
117	0xbda83182	-0.08212568
118	0xbe74221e	-0.2384114
119	0x3bf199e8	0.0073730834
120	0xbdade074	-0.08490077
121	0xbc5d0afc	-0.013491388
122	0xbcfc2633	-0.030779934
123	0x3d7c3a9c	0.06157933
124	0x3dcd0c46	0.100121066
125	0x3cf0dea3	0.029403036
126	0x3dcc3017	0.0997011
127	0xbdc17810	-0.09446728
128	0xbc8dd8a5	-0.017315218
129	0x3c894678	0.016757235
130	0x3d90ce70	0.07070625
131	0xbd25de28	-0.040495068
132	0xbdbcb680	-0.092144966
133	0xbd6ae26d	-0.057344843
134	0x3b90cd47	0.004419002
135	0xbdcd4340	-0.100225925
136	0x3ccb2bd2	0.024801169
137	0xba2d62f6	-0.00066141726
138	0xbdc23c9b	-0.09484216
139	0xbc9086b8	-0.017642364
140	0xbb9f984b	-0.0048704497
141	0x3d8f3edc	0.06994411
142	0xbd2fcf9f	-0.042922612
143	0x3dd970a0	0.10617185
144	0xbe071da4	-0.13194901
145	0xbdc631be	-0.09677456
146	0xbde70bf8	-0.1128158
147	0xbdfe8bd8	-0.12429017
148	0xbd1a2c31	-0.0376398
149	0xbda00df8	-0.07815164
150	0xbd81052c	-0.062998146
151	0xbdee135d	-0.11624787
152	0xbbeeb84e	-0.0072851544
153	0xbd9c963f	-0.07645845
154	0xbdb2f727	-0.08738547
155	0x3d03bf6a	0.03216497
156	0xbc9da2fd	-0.019242758
157	0x3bf6e790	0.0075349286
158	0x3d0a1b18	0.033717245
159	0xba640347	-0.0008697998
160	0x3e0548fb	0.13016121
161	0xbdb5281d	-0.088455416
162	0xbd8500e8	-0.064943135
163	0xbd85bc8c	-0.06530103
164	0xbd1e0b2c	-0.038584873
165	0x3d3bce97	0.045851316
166	0x3df6c817	0.12049883
167	0xbd731443	-0.059345495
168	0x3d2e6e99	0.042585943
169	0xbca8851c	-0.020571284
170	0x3d9fac19	0.07796497
171	0xbdd119e1	-0.10210014
172	0xbd885fa3	-0.06658866
173	0xbde7d92d	-0.1132072
174	0x3c613f16	0.013747951
175	0x3c78ec0a	0.015192995
176	0xbc09fb6b	-0.008421759
177	0x3dbd9ff3	0.092590235
178	0xbd94c0cb	-0.07263335
179	0xbd189d28	-0.03725925
180	0xbcea54fa	-0.028604973
181	0x3d575fd8	0.052581638
182	0x3d72eaac	0.05930583
183	0x3cc6f11b	0.02428489
184	0x3d2ed7e2	0.04268635
185	0xbcdf1c4d	-0.027235175
186	0xbd8a2954	-0.06746164
187	0xbd9e061f	-0.07716011
188	0x3daf3c60	0.085564375
189	0xbda6b1f3	-0.0813941
190	0xbd47551c	-0.04866515
191	0xbcea4ae8	-0.028600171
192	0xbd9f1b58	-0.07768887
193	0xbdd36d77	-0.10323613
194	0xbd14d340	-0.036334276
195	0xbe057971	-0.13034607
196	0xbdeda19a	-0.11603089
197	0xbd798f12	-0.060927458
198	0x3d6caee9	0.057783995
199	0xbd7913bf	-0.060809847
200	0x3dba099a	0.090838626
201	0xbd7f70c2	-0.062363394
202	0x3d7529f9	0.05985448
203	0xbb8b704d	-0.0042553307
204	0xbd01c352	-0.031680413
205	0xbc0d0cdf	-0.008609026
206	0x3cbd2cfc	0.02309274
207	0xbd82840b	-0.063728414
208	0xbd5718fe	-0.05251407
209	0xbd1fe45e	-0.039036147
210	0x3d24d513	0.040242266
211	0x3acddbbf	0.0015705748
212	0xbd50f1c3	-0.051011812
213	0xbd6e4341	-0.058169607
214	0x3d216da1	0.03941119
215	0x3c90dfbb	0.017684808
216	0x3b42d8c7	0.002973126
217	0xbc7fb103	-0.015606168
218	0xbe17c628	-0.14821684
219	0xbe23af93	-0.15984945
220	0xbd77a5d6	-0.060460888
221	0xbc2b151e	-0.010442046
222	0x3da9d909	0.08293349
223	0x3e166414	0.14686614
224	0x3d19b897	0.037529554
225	0x3d28fe5b	0.041258197
226	0x3da9bc00	0.08287811
227	0x3d6077b4	0.054801658
228	0x3daabbe5	0.08336619
229	0x3dbaa137	0.091127805
230	0x3e639666	0.22225341
231	0x3ce292df	0.027657924
232	0x3d8a1e56	0.06744067
233	0xbc400165	-0.0117190825
234	0x3dfc6f75	0.12325946
235	0x3d09f756	0.033683144
236	0x3c2218e9	0.009893634
237	0x3dbb47c1	0.09144545
238	0x3dbe6306	0.09296231
239	0x3c0b8ac9	0.008516976
240	0xbaa0fe0d	-0.0012282744
241	0x3e00ef52	0.12591293
242	0x3dbf26aa	0.093335465
243	0x3d3ce16b	0.046113413
244	0x3e0ed9d1	0.13950278
245	0x3d6bac0b	0.05753712
246	0x3cd7ed27	0.0263582
247	0xbb06f948	-0.002059536
248	0xbd031a6a	-0.032007612
249	0x3b78b84e	0.003795165
250	0x3d8223f7	0.06354516
251	0x3d544370	0.051822126
252	0x3d6858eb	0.056725424
253	0x3dd8cf83	0.10586455
254	0x3df9a582	0.12189771
255	0xbdde3298	-0.10849494

network_body._body_endoder.seq_layers.0.bias f4 [256]
0	0x3c8b5d21	0.01701218
1	0x3c859691	0.016307147
2	0x3cc04e68	0.023474887
3	0x3ce47c48	0.027891293
4	0xba0fa796	-0.00054799893
5	0x3b3f1a97	0.0029160136
6	0x3d070d7e	0.03297185
7	0x3cffa8dc	0.031208448
8	0x3d1a045c	0.037601814
9	0xba421a5e	-0.0007404442
10	0xbc1b845d	-0.009492007
11	0x3c4938fa	0.012281651
12	0x3c91f151	0.017815264
13	0xbb6ebfe3	-0.0036430291
14	0x3c0874b6	0.008328607
15	0x3d0bdf1f	0.03414833
16	0x3c1c3edb	0.00953647
17	0x3d03783f	0.032097097
18	0x3bb1a4bb	0.0054212487
19	0x3ca7e7f3	0.020496344
20	0x3cd2ca82	0.025731329
21	0x3a914c4e	0.0011085363
22	0x3d115699	0.035482977
23	0x3c8957ec	0.016765557
24	0x3c9d57cb	0.019206902
25	0x3c6c3a25	0.01441816
26	0x3a3bddf7	0.0007166559
27	0x3c917f6f	0.01776096
28	0x3cf80515	0.03027586
29	0x3b830c5c	0.003999276
30	0x3c227c25	0.009917294
31	0xbb9121ff	-0.0044291015
32	0x3d015932	0.031579204
33	0x3c38990e	0.01126696
34	0x3ca7b73e	0.020473119
35	0x3c8c20c4	0.017105468
36	0x3c00f0af	0.007869883
37	0x3cae96e6	0.021312188
38	0xba6ad4ad	-0.0008958083
39	0x3c759259	0.014988505
40	0x3c4f08c8	0.012636371
41	0xbbcc0334	-0.006225968
42	0x3d2b8492	0.041874476
43	0x3d193ca4	0.037411347
44	0x3b41f3ed	0.0029594854
45	0x3cb90015	0.022583047
46	0x3c7c5157	0.015400252
47	0x3bee7ba8	0.0072779246
48	0x3bd3f821	0.0064687883
49	0x3cd46b22	0.025929991
50	0x3c97f621	0.01854998
51	0xbc7563fc	-0.014977451
52	0x3d00d8f2	0.031456895
53	0xbc9498c7	-0.018139256
54	0x3c234e4c	0.009967398
55	0x3c00d4f2	0.00786327
56	0x3cad1a76	0.021130782
57	0x3c807967	0.01568289
58	0xbc8d0379	-0.01721357
59	0x3b6bfc74	0.0036008628
60	0x3ced15fc	0.028941147
61	0x3cb43161	0.021996202
62	0xbab0bd4f	-0.0013484153
63	0x3c7bc072	0.015365707
64	0x3c6430a1	0.01392761
65	0x3cf93bd2	0.030424032
66	0x3c34da2d	0.011038345
67	0x3d0c28dc	0.034218654
68	0x3ca31ebc	0.019912116
69	0x3c83372d	0.01601752
70	0x3cdd8414	0.027040519
71	0xbbf46960	-0.0074588507
72	0x3d0d8005	0.034545917
73	0xbcad8755	-0.021182695
74	0x3c85c1aa	0.016327698
75	0xbca7ad69	-0.02046843
76	0x3d1ca427	0.038242485
77	0x3c3fd8a0	0.011709362
78	0xbb95e764	-0.004574703
79	0x3c89783e	0.016780969
80	0x3c9cb2e9	0.01912828
81	0x3cfecb5b	0.031102827
82	0x3c2056c8	0.009786315
83	0x3cc5cfad	0.02414688
84	0x3c3b4222	0.0114293415
85	0x3d2666c6	0.040625356
86	0x3c6ebe95	0.0145718055
87	0x39191d42	0.00014602116
88	0x3c9a5802	0.018840794
89	0x3ba70fab	0.0050983033
90	0x3cca85bd	0.024721975
91	0x3c211477	0.009831539
92	0x3c282dee	0.010264857
93	0x3ce1708e	0.02751949
94	0x3c9c19fb	0.019055357
95	0x3cb4a2d9	0.022050308
96	0x3b9de247	0.004818234
97	0x3b9123be	0.0044293096
98	0x3cd3df1b	0.02586322
99	0xba91b7d8	-0.0011117412
100	0x3cb81935	0.022472957
101	0x3ceb58d6	0.028728884
102	0xbc9342b8	-0.01797615
103	0x38fe0f82	0.000121145524
104	0x3cdf031f	0.027223168
105	0x3d018da8	0.031629235
106	0x3c636bbe	0.013880668
107	0xbb5962ac	-0.0033170385
108	0xbc4df7e0	-0.012571305
109	0x3cb87f6c	0.022521697
110	0x3c9d09de	0.019169744
111	0x3cab53e9	0.020914035
112	0x3c6f7112	0.01461436
113	0x3c76aa20	0.015055209
114	0xbbb9c3e9	-0.0056691063
115	0x3c09f1a4	0.008419428
116	0xbcad5554	-0.021158852
117	0xbb929271	-0.0044730236
118	0x3c50ca40	0.012743533
119	0x3d12d482	0.035847194
120	0x3c5bd9ff	0.013418674
121	0x3c8a73f6	0.016900998
122	0x3b8d2912	0.0043078745
123	0x3caeeb89	0.021352546
124	0x3cc2a7de	0.023761686
125	0x3ce1b628	0.02755268
126	0x3c7075d5	0.014676531
127	0x3c702c6d	0.014659029
128	0x3c926bb1	0.017873617
129	0x3ca082e5	0.019593665
130	0x3d25ef65	0.040511508
131	0x3c9d258e	0.019182947
132	0x3a6ee510	0.00091131125
133	0x3c04b0fb	0.008098836
134	0x3c7c7953	0.015409785
135	0x3ce54c73	0.027990555
136	0x3c0208ce	0.0079366695
137	0xbabfccba	-0.0014633157
138	0x3cb165f6	0.021655064
139	0x3c3dd083	0.011585358
140	0x3d12c17b	0.03582905
141	0x3b2461d8	0.0025082733
142	0x3d0de448	0.034641534
143	0x3b9bf0e5	0.0047589415
144	0x3d0117b3	0.031516742
145	0x3be480bd	0.0069733546
146	0x3cf79ff5	0.03022764
147	0xbbefb1a0	-0.0073148757
148	0x3c99ad44	0.018759377
149	0x3c57878a	0.013154874
150	0xbcbc7dbd	-0.023009175
151	0x3ce46583	0.027880436
152	0x3cb0f759	0.02160232
153	0xbc33a270	-0.010964021
154	0x3b846eb8	0.004041519
155	0x3ce1d7c0	0.027568698
156	0x3b2403d4	0.0025026696
157	0x3c769d8c	0.015052211
158	0x3d19faa0	0.03759253
159	0x3c97d753	0.018535292
160	0x3b60b011	0.0034284631
161	0x3ca54887	0.020176185
162	0x3cdf1f0e	0.027236488
163	0x3c175079	0.009235495
164	0x3d401700	0.046896935
165	0x3cd3e300	0.025865078
166	0xbb7ef362	-0.0038902392
167	0x3cc560b0	0.024093956
168	0x3ccbc79c	0.024875455
169	0xbb7b4b1d	-0.0038344332
170	0x3c6b7699	0.014371538
171	0x3cff0cae	0.031133976
172	0x3d3488e5	0.044075865
173	0xbaa1afac	-0.001233568
174	0x3bdee65d	0.006802364
175	0x3ca3cc7b	0.019994965
176	0x3c8ca8f7	0.017170412
177	0x3d10558b	0.03523783
178	0x3c7c9484	0.015416268
179	0x3c046391	0.008080379
180	0x3c78e0a8	0.015190281
181	0x3c6e376c	0.014539581
182	0x3c8e8e91	0.017401965
183	0x3c844bfe	0.016149517
184	0x3c42a65d	0.011880484
185	0x3d19da4f	0.03756171
186	0x3c0d19bd	0.0086120935
187	0x3ae7c792	0.0017683378
188	0x3cf9103a	0.030403245
189	0x3b5bf81d	0.0033564635
190	0x3bdcf97c	0.006743608
191	0x3b6c8854	0.0036092
192	0x3d0a3aa5	0.033747334
193	0x3c7da2e5	0.015480732
194	0x3c3a36fa	0.0113656465
195	0x3c881b12	0.01661447
196	0x3d040f10	0.032240927
197	0x3bc75a14	0.006083736
198	0x3d038251	0.0321067
199	0x3c824912	0.015903983
200	0x3cc66e76	0.024222594
201	0x3c7b77e7	0.015348411
202	0x3ce715c9	0.02820863
203	0x3cf1fa69	0.02953835
204	0x3c75712d	0.0149805965
205	0x3d15e1b7	0.03659221
206	0x3ccb9dca	0.024855513
207	0x3cb63e11	0.022246392
208	0x3c9f7fac	0.019470058
209	0x3c8cfb90	0.017209798
210	0x3c6fcfa8	0.014636911
211	0xbd1dae90	-0.038496554
212	0x3cbe8a34	0.02325926
213	0xbb304e6d	-0.0026902214
214	0x3caea253	0.021317637
215	0x3c3509b7	0.0110496795
216	0xbae105b4	-0.0017167837
217	0x3d02fb59	0.031977985
218	0x3c363066	0.0111199375
219	0x3cc3f818	0.023922011
220	0x3c2c7b03	0.010527375
221	0x3cbb5734	0.02286873
222	0x3c54835e	0.0129707735
223	0x3d154eea	0.03645221
224	0x3c8524a3	0.016252821
225	0x3ccda58d	0.025103355
226	0x3bbe466f	0.005806736
227	0xbc068cf4	-0.008212317
228	0x3b3d9fbe	0.0028934325
229	0x3b357006	0.002768518
230	0x3beca904	0.0072222967
231	0x3c90aa01	0.01765919
232	0x3b968be3	0.0045943125
233	0xbaf90d20	-0.0019001104
234	0x3c96d5e5	0.01841254
235	0x3c80567e	0.015666243
236	0x3c6c424c	0.014420103
237	0xbc6a0057	-0.014282308
238	0x3c475309	0.012165793
239	0x3ba7cf36	0.005121137
240	0xb9a3d6e7	-0.00031249897
241	0x3d00e1fe	0.031465523
242	0x3cda93c3	0.026681786
243	0x3c22654b	0.009911845
244	0x3ca35ac3	0.01994074
245	0xbc5f8a86	-0.013643866
246	0x3b3dafff	0.0028944013
247	0xbc8a97f7	-0.016918166
248	0x3cb85540	0.022501588
249	0x3d0d2a10	0.034463942
250	0x3bd63b92	0.006537863
251	0x3c9414ad	0.018076265
252	0xbc1d0ed3	-0.009586054
253	0x3c91293d	0.01771986
254	0x3cab2754	0.020892777
255	0xbbc5cc90	-0.0060363486

network_body._body_endoder.seq_layers.2.weight f4 [256, 256]
0	0xbe15baba	-0.14622012
1	0x3db1be30	0.086788535
2	0x3cac13bb	0.021005502
3	0x3d82d91e	0.06389068
4	0x3e05f1af	0.13080476
5	0xbd9704e8	-0.07373983
6	0xbd1c7fcf	-0.038207825
7	0xbd3b08c6	-0.045662664
8	0xbd96c1e8	-0.073612034
9	0xbd0a64de	-0.0337876
10	0xbddbd22a	-0.10733445
11	0xbd135362	-0.035968192
12	0xbda25df3	-0.07928076
13	0xbd174981	-0.036935333
14	0x3c913e74	0.017729975
15	0x3bcc5cf5	0.0062366673
16	0x3d5c180d	0.053733874
17	0x3d375ba8	0.044765145
18	0x3c02b82e	0.007978482
19	0x3ccfda66	0.025372695
20	0xbd54501b	-0.051834207
21	0x3d1ccfa9	0.038283978
22	0xbd192994	-0.037393168
23	0xbdb2df2e	-0.087339744
24	0xbc80d12e	-0.015724745
25	0x3bd89793	0.006609866
26	0xbd6c0e58	-0.057630867
27	0xbd179bec	-0.037013933
28	0xbd0e30f6	-0.03471466
29	0x3d8c7607	0.068584494
30	0x3cbf4eda	0.023353029
31	0x3cb7837d	0.022401566
32	0xbc989e11	-0.01863006
33	0x3d15a981	0.036538605
34	0x3c30d970	0.010794029
35	0x3de9ae54	0.114102036
36	0x3db439ef	0.088001125
37	0x3dcc70a6	0.099824235
38	0xbb7d52da	-0.003865412
39	0x3c1e1cf0	0.009650454
40	0x3bce3d63	0.006293939
41	0xbcb8691b	-0.022511056
42	0x3cc8ab99	0.024495887
43	0xbdc0b7dd	-0.09410069
44	0xbd449499	-0.047993276
45	0x3cadeab2	0.021230076
46	0x3cb692a0	0.022286713
47	0xbd02addd	-0.03190409
48	0xbd6bb051	-0.057541195
49	0xbd4d33c8	-0.05009821
50	0x3d9b2e7e	0.07577227
51	0xbd0bf697	-0.034170713
52	0x3d9b512e	0.07583843
53	0x3c865e90	0.016402513
54	0x3d16ace0	0.03678596
55	0xbd05842a	-0.032596745
56	0xbd04da9a	-0.032435037
57	0x3cae484c	0.021274708
58	0x3dc4f521	0.09617067
59	0x3d8cf8f9	0.06883425
60	0xbd59b97f	-0.05315542
61	0x3b08cc43	0.0020873703
62	0xbd448571	-0.047978822
63	0x3db9ba48	0.090687335
64	0xbce46d04	-0.027884014
65	0xbc418250	-0.011810854
66	0x3b95899a	0.0045635225
67	0xbcb190de	-0.021675523
68	0x3dd7b6da	0.10532923
69	0x3c9a2165	0.018814752
70	0x3dbcf768	0.092268765
71	0x3d9dc1ec	0.07703003
72	0xbc0f5d0a	-0.00875021
73	0xbc8cff79	-0.017211663
74	0x3d441a7d	0.047876824
75	0x3d56cc79	0.052441094
76	0xbc771387	-0.015080339
77	0x3b33436c	0.002735342
78	0xbdc49cb4	-0.09600201
79	0x3d84d640	0.064861774
80	0x3cd195c6	0.025584113
81	0x3dd734b6	0.10508101
82	0x3c7d3960	0.015455574
83	0xbdaed641	-0.085369594
84	0xbc984d3b	-0.018591514
85	0x3d758df8	0.059949845
86	0x3c14b432	0.009076165
87	0x3d252b79	0.040324662
88	0x3978865f	0.0002370118
89	0xbce2bfd0	-0.027679354
90	0x3d0a6e4a	0.033796586
91	0xbd14502d	-0.036209274
92	0xbc14dcdb	-0.009085859
93	0x3dca7dac	0.09887251
94	0x3d6c776d	0.05773108
95	0xbd544e92	-0.051832743
96	0xbd89e7e7	-0.06733685
97	0x3c5febfa	0.013667101
98	0xbcb45871	-0.022014828
99	0xbd921eea	-0.07134803
100	0x3d79539c	0.06087075
101	0x3e0bdefd	0.13659282
102	0xbd6ba52b	-0.057530563
103	0xbdcc2d3e	-0.09969567
104	0x3c905b05	0.017621526
105	0x3d258487	0.04040959
106	0x3c908f83	0.017646557
107	0xbca54e7d	-0.020179028
108	0xbd9f120f	-0.07767116
109	0x3d4d522d	0.050127197
110	0x3d10adf9	0.035322163
111	0x3cd11afd	0.025525564
112	0xbd9635a0	-0.07334447
113	0x3d9ef7ab	0.07762083
114	0xbd8a3b4d	-0.06749592
115	0xbcb78659	-0.02240293
116	0xbd74b5ab	-0.059743565
117	0x3cc66381	0.024217369
118	0x3d0f0f39	0.034926627
119	0x3b8fb397	0.0043854224
120	0xbc3c6e26	-0.011500871
121	0x3c4ca967	0.012491561
122	0x3c6357ea	0.013875941
123	0x3da2ae0f	0.07943355
124	0x3d9d463a	0.0767941
125	0xbc2665fd	-0.010156152
126	0xbc8b6958	-0.017018005
127	0xbd9b8913	-0.07594504
128	0x3e67807c	0.22607607
129	0xbd2270ac	-0.039658234
130	0x3d7b565d	0.06136166
131	0xbb67e87e	-0.003538638
132	0xbde1a22f	-0.11017262
133	0xbb85287f	-0.0040636654
134	0x3d97f474	0.074196726
135	0xbc24c2cb	-0.010056208
136	0xbe100b59	-0.14066829
137	0x3d75b774	0.059989408
138	0x3cf0773e	0.029353734
139	0xbde0db9f	-0.109793894
140	0x3d0b6ee4	0.0340413
141	0x3e04ace4	0.12956578
142	0xbcd65687	-0.026164306
143	0xbd942441	-0.072334774
144	0x3d7a25b7	0.061071124
145	0xbd83ec44	-0.064415485
146	0xbd65df3d	-0.0561211
147	0xbd89e5b1	-0.06733263
148	0xbd587405	-0.05284502
149	0x3d1c1d04	0.03811361
150	0x3c96d505	0.018412123
151	0xbe216455	-0.1576093
152	0x3b0d0b21	0.0021521526
153	0x3e00e346	0.12586698
154	0x3ca6da5d	0.020367796
155	0xbe21ced7	-0.1580156
156	0x3dbbd038	0.09170574
157	0xbc278a95	-0.010225912
158	0x3d20d09a	0.039261438
159	0x3d8bb888	0.06822306
160	0xbd690c9a	-0.056896783
161	0x3d17ac1c	0.03702937
162	0x3e0c1ffd	0.13684078
163	0xbd22f432	-0.039783664
164	0x3df303dc	0.118659705
165	0x3dbcfb95	0.09227673
166	0xbdced382	-0.10098936
167	0x3e05007f	0.1298847
168	0xbd3b3214	-0.045702055
169	0x3d56216c	0.052277967
170	0xbd5dfa2f	-0.05419367
171	0x3e0825ae	0.13295624
172	0xbc5f537f	-0.013630747
173	0x3c1ff7ea	0.009763697
174	0xbceb70d4	-0.028740324
175	0xbae44bb4	-0.0017417581
176	0xbd687e89	-0.0567613
177	0x3cbcc2a3	0.023042029
178	0x3da63b50	0.08116782
179	0x3d09dc07	0.0336571
180	0xbdb11898	-0.08647269
181	0xbdf3cbe3	-0.11904123
182	0x3bdbd01f	0.0067081596
183	0xbcd359a2	-0.025799576
184	0xbdbbbe27	-0.09167128
185	0x3c9577f1	0.01824567
186	0xbdd1252a	-0.102121666
187	0x3c84dede	0.016219553
188	0xbcb5c627	-0.022189213
189	0x3d80f2d4	0.06296316
190	0xbdc19ca7	-0.09453707
191	0xb94f9250	-0.00019795564
192	0x3c9e101c	0.01929479
193	0xbd5f4f6e	-0.05451911
194	0xbc93cddd	-0.0180425
195	0xbd624408	-0.05524066
196	0x3de47c68	0.11156541
197	0x3dabe076	0.08392422
198	0x3d119752	0.0355447
199	0xbbd9a28f	-0.006641693
200	0xbe03396d	-0.12814875
201	0xbcc4dbb7	-0.02403055
202	0x3d07aad0	0.033121884
203	0x3cf720e7	0.030167056
204	0xbe413471	-0.18867661
205	0x3e1c262d	0.15248938
206	0xbd5a4fbe	-0.053298704
207	0x3d7b567d	0.06136178
208	0xbc3dfb0a	-0.011595497
209	0xbd68292c	-0.05667989
210	0xbd535e0e	-0.05160337
211	0xbcb696ec	-0.022288762
212	0xbda4aaa8	-0.080403626
213	0x3c825759	0.015910791
214	0xbd456e7f	-0.04820108
215	0xbcc20c30	-0.023687452
216	0x3cfdb21e	0.030968722
217	0xbd50d7a1	-0.05098689
218	0xbc248b5d	-0.010042992
219	0xbd086c6e	-0.03330653
220	0xbd0883d1	-0.033328835
221	0xbdd48dbb	-0.103785954
222	0x3b8ca2f0	0.0042918846
223	0x3c579366	0.013157701
224	0xbdac8af4	-0.08424941
225	0xbdea035e	-0.114264235
226	0x3d602b7b	0.054728966
227	0x3d9af804	0.075668365
228	0xbe1a3ce5	-0.15062292
229	0x3c0d8b84	0.00863922
230	0x3d838560	0.06421924
231	0x3d94097b	0.07228371
232	0x3d9abf61	0.07556034
233	0xbccbf6bd	-0.024897927
234	0x3d8e4966	0.069475934
235	0x3e3617a7	0.1778246
236	0xbbe472c3	-0.0069716885
237	0xbd46e884	-0.048561588
238	0xbe432866	-0.1905838
239	0x3d942647	0.07233863
240	0x3a394042	0.0007066765
241	0x3c2e0c21	0.010623009
242	0xbe04bfe0	-0.1296382
243	0x3e20bec9	0.15697779
244	0xbdcaf4f3	-0.099100016
245	0xbd5d785c	-0.05406986
246	0x3da79b2e	0.08183895
247	0xbc200ae5	-0.009768222
248	0x3dec3bc9	0.115348406
249	0xbd80b3b5	-0.062842764
250	0xbde88d8c	-0.11355123
251	0x3db391e9	0.087680645
252	0x3d2fe625	0.042944092
253	0xbce08b7c	-0.027410261
254	0x3a4fcc97	0.00079269096
255	0x3ba7a174	0.0051156823

network_body._body_endoder.seq_layers.2.bias f4 [256]
0	0x3be7bd13	0.0070721
1	0x3baa033a	0.005188373
2	0x3cf40d8b	0.029791614
3	0x3ca7fb8a	0.020505685
4	0x3c591fdf	0.013252228
5	0x3c875d05	0.016523847
6	0x3c42f32b	0.011898796
7	0x3c15cd5a	0.009143198
8	0x3c0dd42b	0.008656542
9	0x3c3bde0e	0.011466516
10	0x3bcc68c3	0.0062380745
11	0x3bd5694e	0.0065127974
12	0x3cc1e05c	0.023666553
13	0x3c26403e	0.0101471525
14	0xbb90e31c	-0.004421605
15	0x3c8694c8	0.016428366
16	0xbb9b7487	-0.0047441158
17	0x3cbd5173	0.023110127
18	0x3c2ef09c	0.010677483
19	0x3c9d467b	0.019198647
20	0x3cc60dc6	0.02417649
21	0x3cf4c211	0.029877694
22	0x3ca77b32	0.020444486
23	0x3ccc5ab5	0.024945596
24	0x3c40432c	0.011734765
25	0x3c911ddc	0.017714433
26	0x3c5f2815	0.013620396
27	0x3c852c68	0.016256526
28	0x3c819b8d	0.015821243
29	0x3c841d43	0.016127234
30	0x3c7a695c	0.015283909
31	0x3c5f8071	0.013641463
32	0x3c5ca22c	0.013466399
33	0x3cb1f9da	0.021725584
34	0x3cacc725	0.021091053
35	0xba0c45cb	-0.0005350976
36	0x3c155d93	0.009116548
37	0x3b7113af	0.0036785414
38	0x3cbf79f8	0.023373589
39	0x3ca88221	0.020569863
40	0x3c0bc56c	0.008530956
41	0x3c803a19	0.015652703
42	0xbb1cf4d8	-0.002394965
43	0x3c492a5e	0.0122781675
44	0x3cbeaae1	0.02327484
45	0x3cff579d	0.031169707
46	0xb93c080d	-0.00017932076
47	0x3c2cd99b	0.010549928
48	0x3c98c744	0.018649705
49	0xbbb58ccd	-0.0055404664
50	0x390ea088	0.00013601978
51	0x3c834b7b	0.016027203
52	0x3c958989	0.018254058
53	0x3cad7c0f	0.02117732
54	0x3ca51110	0.020149738
55	0x3b4aa2ff	0.0030919907
56	0xbc08daad	-0.008352918
57	0x3c3ee6d9	0.011651718
58	0x3c53712c	0.0129054
59	0x3ca73ecc	0.020415686
60	0x3c864dae	0.016394462
61	0x3bfa305d	0.00763516
62	0x3ab994fc	0.0014158781
63	0x3c8b0af2	0.016972993
64	0x3ca204f3	0.01977775
65	0x3ca4abbc	0.02010142
66	0x3c96ed09	0.018423574
67	0xba76222f	-0.0009389249
68	0x3c44b361	0.012005658
69	0x3c68c940	0.014208138
70	0x3ca852ef	0.020547358
71	0x3aac0e72	0.0013126864
72	0x3caaac45	0.020834098
73	0x3beb3d95	0.007178972
74	0x38fbba60	0.00012003328
75	0x3c89d49b	0.016825011
76	0x3c461e5f	0.012092202
77	0x3ca60d43	0.020269996
78	0x3ccbda55	0.024884382
79	0x3c176cfd	0.009242293
80	0x3c72c01b	0.014816309
81	0x3c6b6002	0.014366152
82	0x3cb28250	0.021790653
83	0x3c8a0f03	0.016852861
84	0x3aa084b2	0.0012246578
85	0x3c6b4578	0.014359824
86	0x3c428f0b	0.011874924
87	0x3c51364f	0.012769296
88	0x3c1c28d7	0.009531221
89	0x3cccdb2d	0.025006855
90	0x3bda2eea	0.0066584246
91	0x3ccedb90	0.02525118
92	0x3c9a04ed	0.018801177
93	0x3c071596	0.008244893
94	0x3c3dbd3b	0.011580761
95	0x3c9fc1ad	0.019501531
96	0x3cb5de0a	0.022200603
97	0x3c5e599b	0.013571168
98	0x3c6b5a18	0.014364742
99	0xbad3daaa	-0.001616319
100	0x3ca87219	0.020562219
101	0x3c614b99	0.013750934
102	0x3cb83a2c	0.022488676
103	0x3cd28c59	0.025701689
104	0x3c982706	0.018573295
105	0x3c85521c	0.016274504
106	0x3c82bfac	0.015960537
107	0x3c8dad56	0.017294567
108	0x3c17b716	0.00925996
109	0x3c2f91e8	0.010715939
110	0x3c8817ba	0.016612876
111	0x3c2889c8	0.010286756
112	0x3beaf74b	0.007170593
113	0x3c96de89	0.01841666
114	0x3c1091c3	0.008823815
115	0x3c9f97e3	0.019481605
116	0x3be677c2	0.007033319
117	0x3cb9845f	0.022646127
118	0x3c55c767	0.0130480295
119	0x3c4b6e3d	0.01241642
120	0x3d047ae7	0.03234377
121	0x3c9d5752	0.019206677
122	0x3c97df72	0.018539164
123	0x3c6b5773	0.014364111
124	0x3c89e90a	0.016834754
125	0x3ca0437f	0.019563435
126	0x3b53b9c4	0.003230677
127	0x3c606daa	0.013698021
128	0x3c9f0dd0	0.019415766
129	0x3c1e2608	0.009652622
130	0x3c816b9e	0.015798386
131	0x3c9cc8fd	0.019138807
132	0x3c2f4f13	0.010700005
133	0x39d72490	0.00041035237
134	0x3be3012e	0.006927631
135	0x3c9bae0b	0.019003889
136	0x3caa2cdb	0.020773342
137	0x3c170b23	0.009218964
138	0x3ce777e7	0.028255416
139	0x3c251b3b	0.010077293
140	0x3cdb5e43	0.026778346
141	0x3bd3a939	0.006459382
142	0x3ba8df38	0.005153563
143	0x3c942328	0.01808317
144	0x3ba5d085	0.005060258
145	0x3c5758c6	0.013143724
146	0x3ccddac1	0.025128724
147	0x3c187ea8	0.009307541
148	0x3cafc73d	0.021457309
149	0x3bc88971	0.0061199
150	0x3d12f341	0.035876516
151	0x3c715f08	0.01473213
152	0x3cdb72ef	0.026788203
153	0x3c68f259	0.014217936
154	0x3d0fe6f6	0.03513237
155	0x3c963bea	0.018339116
156	0x3c80738a	0.015680093
157	0x3cba3f9a	0.022735406
158	0x3c596361	0.013268323
159	0x3cc2f175	0.023796776
160	0x3c82f88c	0.015987657
161	0x3ca8c38b	0.020601055
162	0x3cb854bc	0.022501342
163	0x3cf0ca64	0.029393382
164	0x3c944011	0.018096955
165	0x3a6c186a	0.00090063235
166	0xb950d444	-0.00019915501
167	0xbb86374c	-0.0040959474
168	0x3c3a30d3	0.01136418
169	0x3c8cc26e	0.017182555
170	0x3c4e44c2	0.012589635
171	0x3c1bb9cd	0.009504748
172	0x3c92b022	0.017906252
173	0xbb8338c0	-0.004004568
174	0x3b714b64	0.0036818618
175	0x3cb48045	0.02203382
176	0x3c8ddfc5	0.017318616
177	0x3ce6bf01	0.02816725
178	0x3c797ddc	0.015227761
179	0x3c885acd	0.01664486
180	0x3c02e617	0.007989428
181	0x3c8fa978	0.017536864
182	0x3c8f65f4	0.01750467
183	0x3c02944f	0.00796993
184	0xba96ceb2	-0.0011505692
185	0x3c528252	0.012848454
186	0x3c0f5e91	0.008750574
187	0x3ccdf837	0.025142772
188	0x3cb079a9	0.021542387
189	0x3c9446ce	0.018100169
190	0x3c0ca251	0.008583621
191	0x3be56b03	0.007001282
192	0x3c99f885	0.018795261
193	0x3c85bafa	0.016324509
194	0x3c639a56	0.013891777
195	0x3cd52397	0.026017947
196	0x3ba48766	0.0050210236
197	0x3c9a2e3a	0.01882087
198	0x3c9d1db8	0.01917921
199	0x3c9906d6	0.018680017
200	0x3c3c2045	0.011482303
201	0x3c671e0a	0.014106283
202	0x3ce310ca	0.027717967
203	0x3cc7e0ed	0.024399245
204	0x3c1c147f	0.009526371
205	0x3d113179	0.03544757
206	0x3cb5a821	0.022174897
207	0x3c7501a6	0.014954006
208	0x3c831aac	0.01600393
209	0x3a01994c	0.00049438025
210	0x3cd462e1	0.025926055
211	0x3cb81ace	0.022473719
212	0x3cb1bcc1	0.02169645
213	0x3cca195f	0.024670301
214	0x3cae5832	0.02128229
215	0x3c8af5fd	0.016963
216	0x3cd17cac	0.025572143
217	0x3c9f9ac0	0.01948297
218	0x3c0b512f	0.008503242
219	0x3d17f41a	0.037098028
220	0x3b182948	0.0023217965
221	0x3c6bd952	0.014395075
222	0x3c95cfbb	0.01828753
223	0x3c746586	0.014916783
224	0xbbf811e2	-0.007570491
225	0x3c069490	0.008214131
226	0x3a86a445	0.0010272345
227	0x3cab65d5	0.02092258
228	0xbba7c8f8	-0.005120393
229	0x3ca2c4dd	0.019869262
230	0x3c3ef863	0.0116559
231	0x3a1a4de6	0.00058862416
232	0x3c8798f8	0.016552433
233	0x3cdcb06c	0.026939593
234	0x3cd46385	0.02592636
235	0x3c8c5568	0.017130569
236	0x3c427bdf	0.0118703535
237	0x3af57085	0.001872555
238	0x3c1e098a	0.009645829
239	0x3cc25004	0.023719795
240	0x3bc7f5c9	0.006102298
241	0x3c9557d5	0.018230358
242	0x3c37eed5	0.011226376
243	0x3a38c2d8	0.0007048077
244	0x3c9fa8d1	0.019489678
245	0x3cbf558f	0.023356227
246	0x3ba50217	0.0050356495
247	0x3c622ce8	0.013804652
248	0x3ce1c5dc	0.027560167
249	0x3c9759f1	0.018475505
250	0xbc04151e	-0.008061675
251	0xbc0630d7	-0.008190355
252	0x3c96a080	0.01838708
253	0xb9373dac	-0.00017475215
254	0xbae91d39	-0.0017785198
255	0x3c8881ef	0.01666352

action_model._discrete_distribution.branches.0.weight f4 [4, 256]
0	0xbc693ed6	-0.014236173
1	0xbc603a00	-0.013685703
2	0x3c21f4a4	0.009884987
3	0x3c2299a8	0.00992433
4	0x3c8e7b45	0.017392764
5	0x3d162f0f	0.036665972
6	0xbce3787c	-0.027767412
7	0x3c775cc4	0.015097801
8	0xbcbc4b67	-0.022985173
9	0xbcfb4c12	-0.030675922
10	0xbcb5c7a7	-0.022189928
11	0xbceb7ecb	-0.028746983
12	0xbd137a91	-0.03600556
13	0xbb8df84d	-0.0043325783
14	0xbb277924	-0.0025554383
15	0x3c010199	0.007873916
16	0x3c1a8eae	0.009433432
17	0xbd239911	-0.039940897
18	0xbcc54b0b	-0.024083635
19	0xbd0fc3e7	-0.035098936
20	0x3d28d47d	0.04121827
21	0xbd129609	-0.035787616
22	0x3cea2fcf	0.02858725
23	0x3c9ce3a5	0.019151518
24	0x3cfc4b8b	0.03079774
25	0xbd22396e	-0.03960555
26	0xbca62783	-0.020282513
27	0xbd461589	-0.04836038
28	0x3cbcd043	0.023048526
29	0x3badb132	0.0053006643
30	0x3c334e4e	0.010943962
31	0xbd4b10e5	-0.04957666
32	0xbd02810b	-0.031861346
33	0x3d2eda27	0.042688515
34	0xbcba38da	-0.022732187
35	0xbc481ee1	-0.012214393
36	0x3aea1f48	0.0017862106
37	0x3c5cb8cc	0.013471793
38	0xbd6973b9	-0.056995127
39	0x3b9ad5e0	0.004725203
40	0x3ca05583	0.019572025
41	0xb9473922	-0.00018999403
42	0x3c90ef54	0.017692246
43	0x3c82eebe	0.015982982
44	0xbd774693	-0.06037004
45	0xbd807f31	-0.0627426
46	0xbc358ac7	-0.01108045
47	0xbd1c9a87	-0.038233306
48	0x3d455563	0.048177134
49	0x3af0dbe4	0.0018376079
50	0xbcab576a	-0.020915706
51	0x3cf09aa1	0.029370608
52	0xbc443839	-0.011976295
53	0x3d316835	0.04331227
54	0x3b1a7ed7	0.0023574138
55	0x3be41133	0.006960058
56	0xbc970192	-0.018433366
57	0xbce63445	-0.028101096
58	0x3d348518	0.04407224
59	0x3ca15b90	0.01969698
60	0x3d05851a	0.03259764
61	0xbcd66dfe	-0.026175495
62	0xbc50a847	-0.012735433
63	0x3c266166	0.010155058
64	0xbd1516bf	-0.036398645
65	0x3c961433	0.018320179
66	0x3cca6ea4	0.02471096
67	0xbbe073d1	-0.006849744
68	0xbd11ed32	-0.035626598
69	0xbc909b9b	-0.017652323
70	0x3d3a77c7	0.045524385
71	0xbc636b48	-0.013880558
72	0xbcbc8f9c	-0.023017697
73	0x3cc19cb4	0.023634292
74	0xbd24b6ec	-0.04021351
75	0xbd141a61	-0.03615797
76	0x3c94c651	0.01816097
77	0x3bda0471	0.0066533615
78	0xbd841f32	-0.064512625
79	0xbc325b6c	-0.0108860545
80	0xbc9359ec	-0.017987214
81	0x3b8ab071	0.0042324592
82	0x3d35307a	0.044235684
83	0x3ad5e983	0.0016320202
84	0x3baf654c	0.0053526517
85	0x3cf608ec	0.030033551
86	0x3ce24c38	0.027624235
87	0xbce6decf	-0.028182415
88	0x3cbd3481	0.023096325
89	0x3cf902d1	0.03039685
90	0x3c138414	0.009003658
91	0x3ced1e51	0.02894512
92	0xbd28ac66	-0.041180037
93	0xbb495ea6	-0.003072658
94	0xbb161116	-0.0022898368
95	0xbc6d0af1	-0.014467941
96	0x3d0d094e	0.0344327
97	0x3cf4a5bd	0.029864186
98	0x3b3e518f	0.0029040312
99	0xbccc849d	-0.024965579
100	0x3c5c1380	0.013432384
101	0x3bb7bb48	0.0056070425
102	0xbd0ddb1d	-0.03463279
103	0x3c5bd8fe	0.013418434
104	0x3af97153	0.0019030966
105	0xbd104edb	-0.035231452
106	0xbca7333f	-0.020410178
107	0x3c52553a	0.012837702
108	0x3c9a3807	0.018825544
109	0xbc84ebbf	-0.016225694
110	0x3bce6157	0.006298225
111	0x3cb394c1	0.021921517
112	0x3b3b868a	0.0028614127
113	0x3cd389e0	0.02582258
114	0x3b3c5599	0.0028737544
115	0xbbf89813	-0.007586488
116	0xbc5473cf	-0.012967064
117	0xbcf922fa	-0.030412186
118	0x3c130bd7	0.008974991
119	0xbcc7d742	-0.024394635
120	0x3d41ef0d	0.047347117
121	0xbd5b57b7	-0.05355045
122	0x3cb444f2	0.022005532
123	0x3c1987e6	0.00937078
124	0x3c4ebbeb	0.012618045
125	0xba09d584	-0.00052579516
126	0xbcc9a7cd	-0.024616146
127	0xbcf1bd0d	-0.029509092
128	0x3d3fbd4b	0.046811383
129	0xbcb0f846	-0.021602761
130	0xbcb65336	-0.022256475
131	0x3c9d0faa	0.019172508
132	0xbc33480a	-0.010942468
133	0x3c409dce	0.011756374
134	0xbc828ac4	-0.01593531
135	0xbd131e06	-0.035917304
136	0xbd25d733	-0.040488433
137	0xbcf56d2a	-0.02995928
138	0xbcf85a5d	-0.030316526
139	0xbd136aee	-0.035990648
140	0xbc8af21d	-0.016961152
141	0x3a0ab26c	0.0005290869
142	0xbbad7a92	-0.0052941525
143	0xbc75df81	-0.015006901
144	0xbc859ac7	-0.016309155
145	0xbccaecfe	-0.02477121
146	0x3c8dad63	0.017294591
147	0xbcbf7348	-0.0233704
148	0xbca34f30	-0.01993522
149	0x3cb011b0	0.021492809
150	0x3d3795d6	0.04482063
151	0x3c894a96	0.016759198
152	0x3d52f874	0.051506475
153	0x3ce14a9d	0.027501399
154	0xbd5ea417	-0.054355707
155	0xbcc020e3	-0.023453182
156	0xbc8c3bfc	-0.017118447
157	0x3d1c3e20	0.038145185
158	0xbc18b851	-0.009321288
159	0x3ceec454	0.02914635
160	0x3a372fd9	0.0006988026
161	0xbc8a1acf	-0.016858486
162	0xbd04457e	-0.032292835
163	0xbbc796e2	-0.0060909847
164	0xb8ed7bc1	-0.000113240916
165	0xbcc50944	-0.02405227
166	0xbbd5b0e5	-0.0065213316
167	0xbcaef47d	-0.021356815
168	0x3cd75d68	0.026289657
169	0x3ce4d992	0.027935777
170	0xbd057b99	-0.032588575
171	0xbcec048c	-0.028810762
172	0x3d1dc29f	0.038515683
173	0xbc14de92	-0.009086268
174	0x3b63569f	0.0034689081
175	0xbbbbc239	-0.0057299403
176	0x3c5cc678	0.013475053
177	0x3bb30f0f	0.0054644416
178	0xbc2f4a84	-0.010698918
179	0xbce2fb4c	-0.027707718
180	0xbd0043f7	-0.031314816
181	0x3bfa299e	0.0076343557
182	0x3cdd8a33	0.027043438
183	0xbccf1b88	-0.025281683
184	0x3c17af9a	0.009258175
185	0xbc9a4862	-0.018833343
186	0xbc9cd338	-0.019143686
187	0x3d66079d	0.056159604
188	0xbd24f144	-0.04026915
189	0x3d160a57	0.036630955
190	0xbaa16776	-0.0012314159
191	0xbbb9b70a	-0.005667572
192	0xbc7f52ae	-0.015583677
193	0xbcb8f041	-0.0225755
194	0xbbaf39ea	-0.00534748
195	0x3b0ed4be	0.0021794285
196	0xbc92711c	-0.0178762
197	0x3b9326ce	0.00449071
198	0xbd377686	-0.044790767
199	0x3ce82faa	0.02834304
200	0x3c62167f	0.013799309
201	0x3bd5be28	0.0065229125
202	0xbd3e1077	-0.04640242
203	0x3c27cced	0.010241729
204	0x3aa32f34	0.0012449981
205	0xbd4985e9	-0.049199972
206	0x3d02f7ab	0.031974476
207	0xbd6149cd	-0.055002023
208	0xbcdfcf94	-0.02732066
209	0xbbc26e85	-0.005933585
210	0xbd757923	-0.059929978
211	0x3d3fe517	0.046849336
212	0xbcf160b0	-0.02946505
213	0x3cc7c745	0.024387011
214	0xbd1ad3dc	-0.0377997
215	0x3d0a15e9	0.0337123
216	0x3d100dae	0.035169296
217	0x3d03ef4e	0.03221064
218	0xbc06377b	-0.0081919385
219	0xbd5be51d	-0.053685296
220	0xbc04acbb	-0.008097823
221	0xbc86b990	-0.016445905
222	0x3c5ecf84	0.01359928
223	0x3c4550c9	0.012043186
224	0x3b0ec018	0.0021781977
225	0xbb2061c4	-0.0024472335
226	0x3c308843	0.010774675
227	0xbd0482ff	-0.03235149
228	0x3c9e59fd	0.01933002
229	0x3cf39031	0.029731842
230	0xbcecad36	-0.028891187
231	0x3c4f5e12	0.012656705
232	0xbcdc6968	-0.02690573
233	0x3d6118eb	0.054955404
234	0xbd2ef9a0	-0.04271853
235	0x3d021310	0.03175646
236	0xba833404	-0.0010010009
237	0xbc60b7df	-0.013715713
238	0xbc84c026	-0.016204905
239	0xbd32100e	-0.043472342
240	0xbbaf58de	-0.00535117
241	0x3cdecd1d	0.027197415
242	0xbc86e675	-0.016467312
243	0x3c66522d	0.014057678
244	0xbd16fcc8	-0.036862165
245	0xbd457f4b	-0.0482171
246	0x3ca7ea1c	0.020497374
247	0xbb796bea	-0.0038058707
248	0xbd0753c9	-0.033038888
249	0x3c55fdb3	0.013060975
250	0xbc85376f	-0.016261784
251	0xbc876c56	-0.01653115
252	0x3a0803cc	0.0005188554
253	0xbc32e975	-0.010919918
254	0x3c50e2cd	0.012749386
255	0xbcc14f37	-0.023597343

action_model._discrete_distribution.branches.0.bias f4 [4]
0	0x3b3ba6fb	0.0028633464
1	0xb802ce8e	-3.1186784e-05
2	0x3b3ba3d6	0.002863159
3	0xbb965224	-0.0045874286

onnx::Div_62 f4 [202]
0	0x3ec81511	0.39078572
1	0x3e90e4e6	0.28299636
2	0x3ecc27f0	0.3987422
3	0x3e948e67	0.29014894
4	0x3ecd6164	0.40113366
5	0x3e968f67	0.29406282
6	0x3ecc27f0	0.3987422
7	0x3e940a65	0.2891418
8	0x3ecd6164	0.40113366
9	0x3e961188	0.2931025
10	0x3eb3fdca	0.35154563
11	0x3e8f6525	0.28006855
12	0x3eb1329a	0.34608918
13	0x3e90c731	0.2827697
14	0x3eb030aa	0.34412128
15	0x3e8dc033	0.276857
16	0x3ead2db4	0.3382393
17	0x3e8edea1	0.27904227
18	0x3ea98e51	0.3311639
19	0x3e88a22b	0.26686224
20	0x3ea50a2e	0.3223433
21	0x3e8913c7	0.267729
22	0x3eafa726	0.34307212
23	0x3e8a008f	0.2695355
24	0x3ea93f53	0.33056125
25	0x3e894263	0.26808462
26	0x3e9fa52d	0.31180707
27	0x3e849da7	0.2590153
28	0x3e9b034e	0.3027596
29	0x3e83e95b	0.25763974
30	0x3ea13940	0.3148899
31	0x3e847643	0.25871477
32	0x3e9dc33d	0.30813017
33	0x3e83a582	0.2571221
34	0x3e9d99b2	0.30781323
35	0x3e8341b2	0.2563606
36	0x3e9a7cab	0.3017324
37	0x3e82cc24	0.25546372
38	0x3e9c1a83	0.30488977
39	0x3e80d075	0.2515904
40	0x3e9c0e57	0.3047969
41	0x3e810657	0.2520015
42	0x3e6d1d6c	0.23155755
43	0x3e084068	0.13305819
44	0x3e54f5e2	0.20796922
45	0x3e056015	0.13024934
46	0x3e6e2731	0.23257138
47	0x3e0622c0	0.13099194
48	0x3e538709	0.2065698
49	0x3e02576a	0.12728658
50	0x3e709f2f	0.23498224
51	0x3e063978	0.1310786
52	0x3e4f3cbc	0.20238012
53	0x3e01b893	0.12668066
54	0x3e6dab51	0.23209883
55	0x3e055b82	0.13023189
56	0x3e477164	0.19476849
57	0x3e005d23	0.12535529
58	0x3e8faeae	0.28062958
59	0x3e6a3791	0.2287276
60	0x3e87d5e2	0.26530367
61	0x3e5fdbb7	0.21861158
62	0x3e8da7ed	0.2766718
63	0x3e6c8e31	0.23101117
64	0x3e85dff1	0.26147416
65	0x3e61f5be	0.220664
66	0x3e909667	0.28239748
67	0x3e6cfeb0	0.2314403
68	0x3e888ea0	0.26671314
69	0x3e62898f	0.22122787
70	0x3e8c010d	0.27344552
71	0x3e6c559e	0.23079535
72	0x3e8658c0	0.26239586
73	0x3e628b05	0.22123344
74	0x3e8f85a3	0.28031644
75	0x3e6de987	0.23233615
76	0x3e8bc820	0.2730112
77	0x3e693a79	0.22776212
78	0x3e87bf9b	0.2651337
79	0x3e69952f	0.22810815
80	0x3e842ccd	0.2581543
81	0x3e681599	0.22664489
82	0x3e89baaf	0.2690024
83	0x3e6f2e6e	0.23357555
84	0x3e895be6	0.26827925
85	0x3e70fac4	0.2353316
86	0x3e8a5a2f	0.2702193
87	0x3e701106	0.23443994
88	0x3e8e098e	0.27741665
89	0x3e75612b	0.23962848
90	0x3eaf6228	0.34254575
91	0x3e7f7658	0.24947488
92	0x3eb12db8	0.34605193
93	0x3e825be7	0.2546074
94	0x3eaf6228	0.34254575
95	0x3e803b96	0.2504546
96	0x3eb12db8	0.34605193
97	0x3e82cf57	0.25548813
98	0x3eac39cf	0.33637854
99	0x3e787c2b	0.24266116
100	0x3eae0103	0.33985147
101	0x3e7dfcd7	0.24803482
102	0x3eaed790	0.34148836
103	0x3e7d4be9	0.24735989
104	0x3eb1d69b	0.34734043
105	0x3e81f74c	0.25383985
106	0x3eaed790	0.34148836
107	0x3e7c3ef4	0.2463339
108	0x3eb1d69b	0.34734043
109	0x3e818239	0.25294665
110	0x3e90cc92	0.28281075
111	0x3e6f2275	0.23352988
112	0x3e9e1054	0.30871832
113	0x3e79c6e1	0.24392273
114	0x3e8ff9e2	0.28120333
115	0x3e6e1cbe	0.23253152
116	0x3e9b6ae4	0.3035499
117	0x3e77b8ed	0.24191637
118	0x3e8d76e7	0.27629778
119	0x3e676ecb	0.22600858
120	0x3e99356e	0.29923576
121	0x3e7127c2	0.23550323
122	0x3e93b10a	0.28846008
123	0x3e690010	0.2275393
124	0x3e9f47c2	0.31109434
125	0x3e7405ee	0.23830387
126	0x3e888e96	0.26671284
127	0x3e64413d	0.22290511
128	0x3e8f634a	0.2800544
129	0x3e69904d	0.22808953
130	0x3e8b156c	0.2716478
131	0x3e63e65a	0.22255841
132	0x3e923787	0.2855799
133	0x3e69b268	0.22821963
134	0x3e876dcf	0.26450965
135	0x3e63057f	0.22170065
136	0x3e8cce53	0.27501163
137	0x3e674fd4	0.22589046
138	0x3e881ff1	0.2658687
139	0x3e5feb00	0.21866989
140	0x3e8cea88	0.27522683
141	0x3e6343a4	0.22193772
142	0x3e56da6a	0.20981756
143	0x3dd18db3	0.10232105
144	0x3e62402c	0.22094792
145	0x3e068ab7	0.13138853
146	0x3e56b255	0.20966466
147	0x3dd35be3	0.103202604
148	0x3e6334a2	0.22188047
149	0x3e037901	0.12839128
150	0x3e5386f5	0.20656951
151	0x3dd2a18d	0.102847196
152	0x3e67c354	0.22633106
153	0x3e03b578	0.12862194
154	0x3e53aff5	0.20672591
155	0x3dd31a8d	0.103077985
156	0x3e609fab	0.21935908
157	0x3e0228f8	0.12710941
158	0x3e8614db	0.26187786
159	0x3e5e8355	0.21729787
160	0x3e8e4139	0.27784136
161	0x3e675813	0.22592191
162	0x3e85d0dc	0.2613591
163	0x3e61e7ab	0.2206103
164	0x3e8a8577	0.2705495
165	0x3e694a1e	0.2278218
166	0x3e88ee1e	0.2674417
167	0x3e635ceb	0.22203414
168	0x3e8eee4e	0.27916187
169	0x3e6ab06b	0.2291886
170	0x3e879a73	0.26485023
171	0x3e63ce9e	0.22246787
172	0x3e8ad4c4	0.27115452
173	0x3e6a6d18	0.22893178
174	0x3e95523d	0.29164305
175	0x3e6cd6d6	0.23128828
176	0x3e8f77d9	0.28021124
177	0x3e6ffab0	0.23435473
178	0x3e8f4eac	0.2798971
179	0x3e6b87ae	0.23000976
180	0x3e895be9	0.26827934
181	0x3e6d42c5	0.23170002
182	0x3e949605	0.29020706
183	0x3e73eb2b	0.23820178
184	0x3e8c6462	0.27420336
185	0x3e74e572	0.23915651
186	0x3e96ad00	0.29428864
187	0x3e7613c9	0.24030985
188	0x3e8ec4e4	0.2788459
189	0x3e7760bc	0.24157995
190	0x3eb2a934	0.34894717
191	0x3e813e1e	0.25242704
192	0x3eb2fecc	0.3496002
193	0x3e834027	0.25634882
194	0x3eb2a934	0.34894717
195	0x3e81b8a2	0.25336176
196	0x3eb2fecc	0.3496002
197	0x3e83b561	0.2572432
198	0x3eae1f15	0.3400809
199	0x3e7ac833	0.24490432
200	0x3eae1f15	0.3400809
201	0x3e7ac833	0.24490432

onnx::Div_65 f4 [10]
0	0x41b47a46	22.559704
1	0x4125dcc6	10.3664
2	0x3bc30359	0.005951327
3	0x3bc30359	0.005951327
4	0x3bc30359	0.005951327
5	0x3bc30359	0.005951327
6	0x3bc30359	0.005951327
7	0x3bc30359	0.005951327
8	0x3bc30359	0.005951327
9	0x3bc30359	0.005951327
