results/GameLevelReached5/PlayerBehaviour.onnx (onnx, 490727 bytes, 10 tensors)

network_body.observation_encoder.processors.0.normalizer.running_mean f4 [202]
000000 e2 78 5a 3f 62 de 66 3f 9a c9 3e 3f 03 25 4f 3f
       0.853407 0.9018308 0.7452637 0.8091585
000010 5c 10 3e 3f 38 bb 4d 3f 9a c9 3e 3f 9d 24 4f 3f
       0.7424371 0.803638 0.7452637 0.8091524
000020 5c 10 3e 3f 93 b3 4d 3f b4 00 47 3f 3d ab 52 3f
       0.7424371 0.80352134 0.7773545 0.8229254
000030 0d 19 46 3f 68 27 51 3f 74 1c 47 3f 64 93 52 3f
       0.77381974 0.81700754 0.7777779 0.8225615
000040 11 3e 46 3f 6b 1b 51 3f 79 56 45 3f 8a c3 51 3f
       0.77438456 0.8168246 0.7708507 0.81938994
000050 a0 da 43 3f e2 c6 4f 3f 03 b9 44 3f 93 c2 50 3f
       0.7650547 0.81162846 0.76844805 0.81546897
000060 81 45 40 3f 4d ee 4c 3f e9 f4 48 3f 8b 7b 53 3f
       0.75106055 0.8005112 0.78498703 0.82610387
000070 15 43 42 3f c5 5b 4e 3f d3 bf 46 3f b6 ae 52 3f
       0.7588361 0.8060878 0.7763645 0.8229784
000080 5b fb 3f 3f a1 70 4d 3f b9 25 47 3f 0c 21 52 3f
       0.74992913 0.80249983 0.77791935 0.82081676
000090 8d f4 3d 3f b7 e5 4a 3f 6c bc 45 3f 42 a4 51 3f
       0.7420128 0.7925677 0.77240634 0.8189126
0000a0 96 69 3d 3f 2a af 4a 3f a7 15 45 3f a3 84 53 3f
       0.73989236 0.7917353 0.76986164 0.8262426
0000b0 4f b0 3c 3f 40 91 4c 3f 7b 07 49 3f f2 fd 56 3f
       0.73706526 0.79909134 0.7852704 0.8398124
0000c0 c6 4e 40 3f c8 92 50 3f 28 14 4a 3f 99 5b 57 3f
       0.751202 0.8147397 0.78937006 0.8412414
0000d0 08 b8 41 3f 52 36 51 3f b0 ea 45 3f 18 c9 53 3f
       0.75671434 0.8172351 0.7731123 0.8272872
0000e0 1a 07 3e 3f 47 9a 4d 3f be ff 43 3f 3f 0e 50 3f
       0.74229586 0.80313534 0.76562107 0.8127174
0000f0 a3 19 3e 3f 70 54 4b 3f fd 08 44 3f 5d e0 4f 3f
       0.7425787 0.79425716 0.76576215 0.81201726
000100 66 10 3e 3f 45 2a 4b 3f 5e 21 43 3f 8f e5 4f 3f
       0.7424377 0.79361373 0.7622279 0.81209654
000110 50 76 3e 3f a4 61 4c 3f 46 72 45 3f 7e c1 50 3f
       0.7439928 0.7983649 0.7712749 0.81545246
000120 ba 4e 40 3f e9 31 4d 3f c9 99 43 3f b9 9a 4f 3f
       0.7512013 0.8015428 0.7640653 0.81095463
000130 c3 13 3f 3f 98 6f 4c 3f eb 1e 45 3f 59 05 51 3f
       0.7463953 0.7985778 0.770003 0.81648785
000140 df f8 41 3f 57 ef 4e 3f 8e 66 47 3f 48 5d 52 3f
       0.7577037 0.80833954 0.7789086 0.82173586
000150 5f bc 45 3f f2 cd 50 3f ae 3b 48 3f b2 32 53 3f
       0.77240556 0.8156425 0.78216064 0.8249923
000160 21 53 44 3f 1b 3c 50 3f e0 72 3d 3f 0a ab 4e 3f
       0.76689345 0.81341714 0.7400341 0.80729735
000170 63 9d 31 3f eb 0b 48 3f e0 72 3d 3f dd a7 4e 3f
       0.6938078 0.78143185 0.7400341 0.8072489
000180 63 9d 31 3f ac f9 47 3f 76 3a 58 3f 5e 90 66 3f
       0.6938078 0.78115344 0.84464204 0.90064037
000190 b8 5c 4f 3f b1 5f 62 3f 2a dc 3e 3f 5f 64 4f 3f
       0.8100085 0.88427263 0.74554694 0.8101253
0001a0 f0 9a 33 3f 3e f5 48 3f 2a dc 3e 3f a3 67 4f 3f
       0.7015829 0.7849921 0.74554694 0.8101751
0001b0 f0 9a 33 3f 32 01 49 3f 3f e9 4a 3f 1f 92 54 3f
       0.7015829 0.7851745 0.79262155 0.83035463
0001c0 93 54 3f 3f 9f c5 4d 3f 59 f8 49 3f a9 c5 53 3f
       0.74738425 0.8037967 0.78894573 0.8272348
0001d0 75 0a 3f 3f 0b 02 4d 3f 32 13 47 3f 1e 42 52 3f
       0.7462533 0.8008124 0.77763665 0.82132137
0001e0 21 a6 39 3f 0b 27 4a 3f 48 37 44 3f c4 ed 4f 3f
       0.7251912 0.78965825 0.7664685 0.81222177
0001f0 9f cd 37 3f b7 42 48 3f 49 22 46 3f 64 30 51 3f
       0.7179813 0.782268 0.77396065 0.81714463
000200 3f b5 38 3f f2 e9 48 3f 0b a3 43 3f 3a 17 50 3f
       0.7215156 0.7848197 0.7642066 0.8128544
000210 15 5b 36 3f c7 03 48 3f ab 9f 42 3f 1f 5f 4e 3f
       0.7123273 0.78130764 0.76024884 0.80613893
000220 69 74 38 3f 2b dc 47 3f 70 d0 40 3f 22 92 4d 3f
       0.7205263 0.78070325 0.7531805 0.80301106
000230 4b 9f 37 3f d2 8b 47 3f af b4 40 3f 95 29 50 3f
       0.71727437 0.77947724 0.752757 0.8131345
000240 85 98 35 3f d5 31 49 3f c4 24 44 3f 1f 5c 53 3f
       0.7093585 0.7859166 0.766186 0.8256244
000250 33 90 38 3f 11 32 4c 3f f0 58 43 3f 11 1f 53 3f
       0.7209503 0.79763895 0.7630758 0.8246928
000260 40 8a 39 3f 1c 83 4c 3f 1a 67 3f 3f 85 9d 4f 3f
       0.7247658 0.7988756 0.74766695 0.8109973
000270 a0 92 36 3f 03 b1 48 3f 66 5b 41 3f 48 94 4d 3f
       0.7131748 0.783951 0.7553009 0.80304384
000280 0e 96 37 3f 30 9b 46 3f 9a 7a 42 3f dd 11 4e 3f
       0.7171334 0.7758055 0.75968325 0.8049601
000290 7c be 38 3f 2e 36 47 3f 6e 81 44 3f 6f d3 50 3f
       0.72165656 0.77817047 0.76759994 0.8157262
0002a0 80 e4 3b 3f 8a a2 4a 3f d8 34 46 3f e4 98 51 3f
       0.7339554 0.79154265 0.77424383 0.8187392
0002b0 43 c6 3d 3f 4e 63 4b 3f 50 71 42 3f 08 43 4f 3f
       0.7413065 0.794484 0.7595415 0.80961657
0002c0 28 06 3b 3f 5c c3 49 3f 8c 7b 45 3f 33 b9 51 3f
       0.7305627 0.7881372 0.7714164 0.81923217
0002d0 20 2c 3e 3f 96 31 4c 3f 31 9e 47 3f 5d f6 52 3f
       0.7428608 0.7976316 0.77975756 0.8240717
0002e0 09 dd 41 3f 9a 3a 4e 3f d2 35 49 3f 24 1a 54 3f
       0.757279 0.8055817 0.7859775 0.8285239
0002f0 28 78 44 3f a9 1e 50 3f 13 a3 43 3f 5e c3 51 3f
       0.76745844 0.81296784 0.76420707 0.8193873
000300 72 fa 3c 3f 2a f0 4c 3f 13 a3 43 3f 9c cd 51 3f
       0.7381965 0.8005396 0.76420707 0.8195436
000310 72 fa 3c 3f 6e fe 4c 3f 6d 61 5e 3f 6b 5c 69 3f
       0.7381965 0.8007573 0.8686741 0.91156644
000320 6d 61 5e 3f 6b 5c 69 3f
       0.8686741 0.91156644

network_body.observation_encoder.processors.1.normalizer.running_mean f4 [10]
000000 16 f5 0a 42 20 2a 6a 41 00 00 00 00 00 00 00 00
       34.73934 14.635284 0.0 0.0
000010 00 00 00 00 00 00 00 00 00 00 00 00 00 00 00 00
       0.0 0.0 0.0 0.0
000020 00 00 00 00 00 00 00 00
       0.0 0.0

network_body._body_endoder.seq_layers.0.weight f4 [256, 212]
000000 35 ee d5 3d c7 be 64 3d 5b 6e 27 3d c3 cc c1 bc
       0.10445825 0.055846002 0.040876728 -0.023657208
000010 b4 55 00 be 91 54 c8 3b 3f e7 bb 3a 1c 0d 9f 3d
       -0.12532693 0.0061135967 0.0014335884 0.07766172
000020 c5 e3 9b 3d 54 8f 2c 3c 14 21 8f bc 60 dc ea 3d
       0.07611803 0.010532219 -0.017471828 0.114678144
000030 eb f4 85 3d a6 47 29 bc ff 24 ba 3c 03 bc a2 3c
       0.06540855 -0.010332024 0.02272272 0.019865042
000040 31 0b d6 bc c9 56 2a be 54 8e 93 3d 35 de ee 3d
       -0.026128383 -0.16634668 0.07204881 0.116634764
000050 81 64 b0 bd d8 fc b0 bd bd f6 f9 3d d1 a3 14 3d
       -0.086129196 -0.08641976 0.12205265 0.03628904
000060 d0 1d d2 bd fc 01 b0 bd f8 f2 07 3d 23 4f 96 3c
       -0.102595925 -0.085941285 0.033190697 0.018348282
000070 1c a3 b0 3c 89 3b 52 3d 73 ab b9 bd 27 1e e0 3d
       0.021562152 0.05132631 -0.090659045 0.10943251
000080 75 b1 e9 3d 57 30 0f bd b5 c1 99 3c 40 1b c2 3d
       0.114108 -0.03495821 0.018769125 0.09477854
000090 12 e9 a5 3c b9 5c 15 bd 85 18 09 3d 3b 1a 55 bd
       0.020252738 -0.03646538 0.03347065 -0.05202697
0000a0 9c ce b9 3c 08 76 a3 bd f9 96 b1 3d 93 72 f6 bd
       0.022681527 -0.07981497 0.08671374 -0.12033572
0000b0 8e 55 86 3b 89 cf 8d 3d d6 18 58 3d 76 02 ca bb
       0.0040995544 0.0692435 0.05275806 -0.006164844
0000c0 57 aa 70 bc 1d 4b a8 bd c4 ae d7 bd 9b 91 22 bd
       -0.01468905 -0.08217452 -0.10531381 -0.03968964
0000d0 cd 37 c3 bd 47 da 94 3c d5 d8 84 3b 0d 16 6f bc
       -0.095321275 0.018170489 0.0040541687 -0.01459266
0000e0 58 b6 c3 bd 1f 52 15 bd ae ef 38 bb 30 4a 63 3d
       -0.09556264 -0.03645527 -0.0028219032 0.055490673
0000f0 eb b3 65 bd b1 3f 52 3b 86 39 3d bd cd c6 19 3e
       -0.056079786 0.003208142 -0.046197437 0.15017243
000100 3d ee bb bc cd 20 d2 bd ee 1a 1e bc 9c fb 21 be
       -0.02294075 -0.102601625 -0.009649975 -0.15818638
000110 db cb f2 bc 0f cc 2b 3d fd b1 db 3b b8 90 1f bb
       -0.029638221 0.041942652 0.0067045675 -0.0024347734
000120 38 10 02 3d ad 33 06 3e 70 90 f4 3b 09 f0 96 3c
       0.03175375 0.1310565 0.0074635074 0.018425005
000130 d4 b3 97 bb 16 76 ac bd 66 cf 25 3d 07 42 5c bc
       -0.0046295915 -0.084209606 0.040480994 -0.0134434765
000140 af d9 58 3d 6f f5 14 3d 52 d8 64 3d 83 bd 68 3d
       0.052941974 0.036366876 0.05587036 0.056821357
000150 e5 8c 7d bd cb 02 3c bc c1 37 99 3d 88 e1 74 bd
       -0.061901946 -0.011475275 0.07481337 -0.059785396
000160 d5 e0 7e 3c 76 cd 2c ba 70 2b 89 bd 98 56 39 3d
       0.015556534 -0.00065918954 -0.06697738 0.045248598
000170 49 db 6c bd f0 cf f3 bd 53 9e f3 bd 58 e5 38 bd
       -0.057826314 -0.11904895 -0.11895432 -0.045140594
000180 3a aa a5 bd 54 32 2b bd 29 3b f4 bd a2 73 67 3c
       -0.08089109 -0.041796044 -0.119253464 0.01412669
000190 f2 62 ab bd d6 ac e5 bd 26 7c c9 bd 86 4c 81 bd
       -0.08368482 -0.112146065 -0.098381326 -0.06313424
0001a0 00 17 97 bd 99 5c c1 3d a2 17 e3 3c fc 14 52 3d
       -0.07377434 0.0944149 0.02772123 0.051289544
0001b0 5c 8c 29 3d 9c 9b 8f bd 29 b7 c7 3d b7 f6 0c 3e
       0.041393623 -0.07012102 0.09751732 0.13765989
0001c0 9b e9 70 bc 91 62 b1 3d 40 d7 19 3e 7c 02 28 3d
       -0.014704133 0.08661378 0.15023518 0.041017994
0001d0 7e 70 73 bd 57 70 22 3d eb f3 6e 3d 96 10 30 bd
       -0.059433453 0.039657917 0.058338087 -0.042984568
0001e0 46 d2 39 bb 2d 35 90 bd 23 f2 93 3d aa 94 cf 3c
       -0.0028354093 -0.070413925 0.07223918 0.025339443
0001f0 e2 8f d4 3d 67 0d 0d 3c 48 36 c7 3c f9 03 b1 bd
       0.10379006 0.008609152 0.024317876 -0.08643336
000200 77 82 2c bc a8 ce 83 3d 63 ee 48 3d fe 58 cb bd
       -0.010529152 0.06435901 0.04905547 -0.09929083
000210 43 a8 49 3d d6 b9 03 be 51 04 21 bd 1e 14 e4 bd
       0.049232733 -0.1286386 -0.039310757 -0.111366495
000220 9d fd 9c bc bd 32 69 bd 14 3d 63 3d 9f 1f 33 3d
       -0.019163901 -0.056933153 0.05547817 0.043731328
000230 8c 26 03 3c a4 72 c4 3b e5 47 86 3d c0 1a b7 bc
       0.008004796 0.0059951115 0.065566815 -0.022351623
000240 dc e5 e5 3c d1 0a bf bc be c5 c6 3d e7 3a 6a 3d
       0.028063707 -0.023320587 0.09705685 0.05718508
000250 6a 80 fd 3b b2 b2 1a 3d ad dd 0f 3d 8a c9 5e 3d
       0.0077362554 0.037768073 0.035123516 0.05439142
000260 1b 87 32 3e bf 05 b5 bd a8 56 09 bd 18 6c cf bd
       0.17434351 -0.088389866 -0.033529907 -0.10128039
000270 95 ba 8d bd 9d e4 8c 3d 77 f6 17 bd 02 3b aa bb
       -0.06920353 0.06879542 -0.03710028 -0.0051950226
000280 e5 19 c8 bd 51 e7 ae 3d 22 55 b6 bd 3e f9 24 bd
       -0.09770564 0.08540214 -0.089029565 -0.04027676
000290 8f 35 0f 3e b8 51 15 3d 8b 1d 6b 3d c3 e9 be 3d
       0.13985275 0.036454886 0.05740122 0.0932193
0002a0 cb b5 28 3d 33 da fb bc ff 3f a6 bb 03 bc 81 3d
       0.041188996 -0.030743694 -0.005073547 0.063346885
0002b0 44 eb 85 3d b5 0c 17 3d 08 76 39 3d 24 6c 88 bc
       0.06539014 0.036877353 0.04527858 -0.016653128
0002c0 9b b0 0c bd 1d f7 76 bd aa 74 41 3d 08 9f c4 bc
       -0.03434811 -0.06029426 0.0472304 -0.024001613
0002d0 d6 62 0c bd 30 9a 78 3d 41 07 c1 bc 32 4b 58 bb
       -0.034273945 0.06069392 -0.02356303 -0.0033003804
0002e0 53 5c 17 3d 65 20 fc bc cf 1f b3 bd c3 4c 35 bd
       0.03695328 -0.030777166 -0.087463014 -0.04426266
0002f0 a3 64 30 be 19 20 f2 3c 0e 10 07 bb e2 46 6e 3c
       -0.1722589 0.029556321 -0.0020608935 0.014543267
000300 d5 b3 9f bd ac 3a 05 3d fe 4e 08 3d 8b cb 81 bb
       -0.07797972 0.032526657 0.033278458 -0.003961032
000310 a4 d6 6c 3d ee fc c7 3d 25 cd 8d 3d 2c 2b e6 3d
       0.057821885 0.097650394 0.06923894 0.11238703
000320 50 c1 01 bc 3e 89 2c 3c e2 9a 03 3d 89 48 1d 3e
       -0.007919624 0.010530768 0.03213013 0.15359701
000330 c6 ee 51 bd 3c f6 33 3d 37 e7 05 be 2a 8f a2 ba
       -0.051253103 0.043936 -0.13076483 -0.0012402285
000340 45 61 28 bd a1 14 5d 3c 4c 73 a3 bb fb 2f 51 3c
       -0.04110839 0.013493688 -0.0049881097 0.012767787
000350 5c 34 3b 3d b8 c8 2d 3d a6 d4 5f bd e0 35 b1 3d
       0.04570423 0.04242775 -0.054646157 0.08652854
000360 f9 ac fb 3d 1e 79 b7 3c 72 fa 18 bd 7d 0b 92 bd
       0.12288851 0.02239662 -0.03734822 -0.071310975
000370 84 fa 01 3e 7f 11 79 3d f2 2d 7b bc e2 0d 95 bd
       0.1269322 0.0608077 -0.015330778 -0.072780386
000380 5f e0 aa 3d 4c 24 1c 3c 8a c1 b1 bd a3 5f 69 3d
       0.08343577 0.009530138 -0.08679493 0.056975972
000390 ff 05 f0 bc b9 9e b6 bd c4 e3 c3 bd 18 67 b2 bb
       -0.029299734 -0.08916993 -0.09564927 -0.0054444186
0003a0 30 58 2a bc a1 61 2a bd 27 94 f8 3c 62 4f 00 3e
       -0.010397002 -0.041597012 0.030344082 0.12530282
0003b0 55 57 b7 bd e1 7c 61 3c d2 07 ca bd 4f bc f2 bb
       -0.08952204 0.013762684 -0.09864773 -0.007407702
0003c0 94 50 08 bd 53 0e ea ba 89 57 64 3d 10 53 1b bd
       -0.03327997 -0.0017857052 0.055747543 -0.03792101
0003d0 78 51 d4 3d 4e da 98 3a d2 86 da bc 3f 1e 0c bc
       0.103671014 0.001166174 -0.026675615 -0.008552133
0003e0 6a 4f 63 3d 9f ea 0a 3b a8 89 2c 3e 66 99 3b bc
       0.055495657 0.0021196974 0.16849387 -0.011450147
0003f0 ae 27 a0 bd 6e df da 3d f4 8a d8 bd 7b 35 2e 3d
       -0.07820068 0.10687147 -0.10573378 0.04253147

network_body._body_endoder.seq_layers.0.bias f4 [256]
000000 50 c6 ff ba c9 1d e7 bc 3d 70 1e bc db 32 81 bb
       -0.0019514058 -0.028212445 -0.009670314 -0.00394283
000010 9d 3f 23 bc 2b cc 93 bb 2f c3 7f 3c 55 3f a1 bc
       -0.009963897 -0.0045104227 0.0156105 -0.01968352
000020 4e 89 69 bc a8 61 90 bc 41 37 d4 bc aa ac 6c ba
       -0.014253927 -0.017624691 -0.025905253 -0.00090284145
000030 6f ac 9b bc 45 88 9b bc a9 19 4a ba 4c ff f0 bc
       -0.019003121 -0.018985877 -0.0007709512 -0.02941861
000040 b5 01 06 3c 3b 25 85 3b 96 2d 3a 3c 83 d3 04 3c
       0.008179118 0.004063276 0.011363408 0.008107069
000050 61 09 2c 3d 9a 3a 44 bb 7b be 4b ba 4b d1 2c bc
       0.042001132 -0.0029942156 -0.0007772219 -0.010547946
000060 04 de a0 bb 6d d8 df 3b ce 5f 95 ba e2 f7 e4 bc
       -0.004909279 0.00683122 -0.001139635 -0.027950231
000070 19 0c 2a bc 7b 89 d3 bc f7 47 88 3b 47 aa 4d bb
       -0.010378861 -0.025822392 0.0041589695 -0.003138201
000080 de da 00 3c 01 d9 17 3d 22 c1 81 3c 91 e2 8a bc
       0.007864682 0.037072185 0.015839163 -0.016953738
000090 9e d5 44 bd 2a fa cf 3c f8 e7 24 3b 58 81 81 bc
       -0.048055284 0.025387842 0.0025162678 -0.015808746
0000a0 ad 66 b4 bc aa 13 d0 3a 7f d5 4d bc f9 71 bd bb
       -0.022021616 0.0015875001 -0.0125631085 -0.005781409
0000b0 d0 4f c4 3b a2 44 da bb 0a a7 a2 ba 9c a2 69 3b
       0.0059909597 -0.0066610137 -0.0012409401 0.0035649901
0000c0 84 8b 6a bc 47 91 dc bb 8d 87 e1 3b ff d3 54 bc
       -0.01431549 -0.0067311856 0.006882614 -0.012989997
0000d0 40 35 8a bc 4e b0 51 ba 81 a1 e3 bc 63 ac 13 bd
       -0.016871095 -0.0007998989 -0.027786972 -0.036053073
0000e0 b9 86 13 bd c3 57 9f 3c 4d ad 08 bc 38 34 57 3b
       -0.036017153 0.019451028 -0.008342099 0.0032837521
0000f0 cf 6e 2c bd 2b 65 11 bc bf 2c dc 3c 1f 23 c8 3b
       -0.042097863 -0.008874218 0.026876805 0.0061077024
000100 3a 15 c2 bb 6e 3e 4d 3b da fe 42 3a bc b8 be bc
       -0.0059229406 0.0031317729 0.00074384885 -0.023281448
000110 e3 0f 4b 3b 60 33 be bc 39 b8 b0 3c 8a 8d 7c 3c
       0.003098481 -0.023217857 0.02157222 0.015414605
000120 18 34 b9 3b 1c cd 61 bb d0 35 b1 3c 0b 3b 4d bc
       0.005651962 -0.003445453 0.021632105 -0.012526284
000130 30 dd 05 3a 58 45 25 3c 8b 86 38 3b 66 b0 9e bb
       0.0005106507 0.010087334 0.0028156366 -0.0048428057
000140 29 81 25 3c b7 36 6b bc 3f 72 e3 bb 60 6b ee bc
       0.010101595 -0.014356307 -0.0069411094 -0.029103935
000150 47 a6 90 3b 9b 45 11 3c 59 98 8f 3a 55 b4 b3 bc
       0.004414353 0.008866693 0.0010955437 -0.021936575
000160 6d 62 2b bb c1 48 9f bc 6b 15 16 bc 02 9d 8f bc
       -0.0026151196 -0.019443871 -0.00916038 -0.017530922
000170 d7 08 77 bb 8c b7 f2 bc 30 21 b9 bb 65 b2 ff bc
       -0.0037694478 -0.029628538 -0.005649708 -0.031212995
000180 b5 47 9e bc 4b 09 84 3b f3 1e 77 bc 69 46 17 3b
       -0.019321302 0.004029428 -0.015083062 0.002308274
000190 ce 51 74 3c 50 5f 84 3b 32 b2 db bb 19 cc 2d bc
       0.014912082 0.0040396824 -0.006704592 -0.010607743
0001a0 94 13 e4 3c 28 b1 1b bd bb 34 32 bc 9c c1 23 bc
       0.027841367 -0.038010746 -0.01087683 -0.009994891
0001b0 56 44 25 bd e2 31 f0 bb b3 64 12 ba a7 3a d4 bc
       -0.040348373 -0.0073301652 -0.00055844634 -0.025906874
0001c0 83 9a a4 bc 39 4b b7 3b e4 e4 0b 3a b5 90 80 bb
       -0.020093208 0.005593684 0.00053365366 -0.0039235004
0001d0 43 97 6e bc c9 1d e4 bb 35 07 0d bd 21 fd e0 bc
       -0.014562431 -0.0069615585 -0.0344307 -0.027464451
0001e0 70 eb c7 3b 66 76 b3 bb 68 a7 02 bb 96 23 24 bb
       0.0061010644 -0.0054767607 -0.0019936208 -0.0025045625
0001f0 18 9f c7 3a 86 4a ce 3a 22 d8 df 3b 90 1c 85 bc
       0.0015229909 0.0015738762 0.006831185 -0.016248971
000200 31 99 54 bc c8 04 09 bc 27 74 b8 bc 6a 53 d2 bc
       -0.012975977 -0.008362956 -0.022516323 -0.02567454
000210 fc cd 3f bc f7 b8 93 bc 5a ba 07 bd 02 55 df bb
       -0.011706825 -0.018032534 -0.033136703 -0.0068155536
000220 c9 07 07 bc 49 55 24 bd d7 19 78 bc b3 aa 86 3b
       -0.008241602 -0.040120397 -0.015142879 0.0041097044
000230 c0 92 7d ba a6 07 9b bc 0e e0 50 bc 36 09 48 bd
       -0.00096730515 -0.018924545 -0.012748731 -0.04883691
000240 dd b5 e7 3b c7 88 09 3c b5 d8 c1 3c 1c b2 96 3c
       0.0070712403 0.008394427 0.023662904 0.018395476
000250 24 e4 f5 bb 7c 08 bd bc 58 93 1d 3c 65 e9 0f bc
       -0.007504003 -0.023075335 0.009617649 -0.008783673
000260 19 0e 99 bc cb 16 16 bc 98 77 c0 3c 7e 01 90 3b
       -0.01868348 -0.009160708 0.023494527 0.004394709
000270 61 2a d4 bb c8 38 19 bd 2c 52 54 bc f2 e2 25 bb
       -0.0064747785 -0.037407666 -0.012959044 -0.0025312272
000280 05 9f cd bc b0 3c 0b bc 8e e3 9b 3b d3 c7 df bc
       -0.02510024 -0.008498356 0.0047573512 -0.027316963
000290 8b 92 44 bc 53 bd 36 3d 7c 5e a0 bb 33 86 30 bc
       -0.011997829 0.044614147 -0.004894076 -0.010774183
0002a0 00 28 1f 3c 5b 82 eb ba 34 40 9d ba d5 58 2e bd
       0.009714127 -0.0017967926 -0.0011997283 -0.042565186
0002b0 94 12 3e bc 26 20 79 bc ca 49 22 3c 0f 0c 7d bc
       -0.011601109 -0.015205419 0.009905288 -0.0154447695
0002c0 a8 14 8f bc da 6f e0 3a 1f f7 19 bd 0c f4 b3 bc
       -0.017465904 0.0017123178 -0.03758919 -0.021966957
0002d0 f0 57 c0 bc ff 83 0e 3c f2 cf 35 3c 29 0a ee bc
       -0.023479432 0.0086984625 0.011096941 -0.02905758
0002e0 9e 35 23 bb 73 d8 b5 bc 24 10 04 3d 68 59 24 bc
       -0.0024903785 -0.022197938 0.032241955 -0.010031082
0002f0 8a fa b4 ba ef 54 9e bc 8c c3 97 3c 88 7d 21 bc
       -0.0013807577 -0.019327609 0.018525861 -0.009856589
000300 76 c3 d1 bc 08 ed 0e bb 90 f6 7f 3c 43 65 77 bb
       -0.025605898 -0.0021808762 0.01562275 -0.0037749566
000310 33 1d 55 3b e5 b4 c1 39 44 a1 b3 bc 71 20 fe ba
       0.0032518625 0.00036946606 -0.021927483 -0.001938833
000320 70 cc fe bb 6c 61 6e 3b 57 72 2b bd cb b8 41 bc
       -0.0077758357 0.0036373986 -0.04185709 -0.011823843
000330 f4 5f 57 bc e3 98 c2 bb 25 6c b7 bc e4 7b 1a 3c
       -0.013145436 -0.0059386357 -0.022390435 0.009428952
000340 9d 67 02 bd 4f 79 91 3c dc c7 8e bc 5f a2 26 bd
       -0.031837095 0.01775804 -0.017429285 -0.040682193
000350 11 2b 95 bc 02 62 54 3b dc 44 12 bc 16 2c f0 3c
       -0.018209012 0.003240705 -0.00892755 0.029317897
000360 e7 69 6d 3c 1a 21 8f ba d6 88 94 bb b0 fb c2 ba
       0.014490581 -0.0010919899 -0.0045329137 -0.0014876034
000370 1a c1 1a 3b 6f 7a 04 3d a6 c6 d0 bb fa ce 83 bb
       0.0023613633 0.032343324 -0.006371337 -0.0040224763
000380 0c 04 b6 bc 79 ec a6 3b a2 ef 35 3c b5 b4 c6 3c
       -0.022218727 0.0050941077 0.011104496 0.02425609
000390 74 51 27 3c a6 1f 8b bc 3a d2 1e bc f2 fd b1 3b
       0.010212291 -0.016982865 -0.009693677 0.005431884
0003a0 e5 e7 11 bc 37 29 f0 bb e9 f1 90 3c 90 ba cd bb
       -0.008905386 -0.007329132 0.017693477 -0.0062783435
0003b0 e1 76 2f bc e8 f5 a7 bb fd 46 72 bc c2 a8 a8 3c
       -0.010709495 -0.00512575 -0.014787433 0.020588282
0003c0 5d eb 5d ba bc da 1f 3b 71 e6 3e bc 2c 54 c1 3b
       -0.0008465553 0.002439185 -0.011651621 0.0058999266
0003d0 cd 6c 6c bc 53 d2 cf bc 94 e2 00 3c 0d d5 5a bc
       -0.014430237 -0.025368845 0.00786652 -0.013356459
0003e0 cd 94 31 3c c8 1f 23 3c fc a3 db ba 5e 21 3d bb
       0.0108386995 0.009956308 -0.0016757245 -0.0028859
0003f0 25 4a ba ba bc 56 91 bc ec 03 04 bd c8 2e ad bc
       -0.0014212771 -0.017741553 -0.032230303 -0.021140471

network_body._body_endoder.seq_layers.2.weight f4 [256, 256]
000000 fb f1 35 3d 35 b1 33 bd 42 44 7b 3d 28 23 26 be
       0.044420224 -0.04387017 0.061344393 -0.16224349
000010 b7 70 0a bd ce ee 5b 3b 44 7e 9d 3d 8c 26 0b 3d
       -0.0337989 0.0033559087 0.07690099 0.033972308
000020 2b b6 cc bd 48 56 2d bd 6a ad c2 3d c5 11 67 3d
       -0.09995683 -0.042318612 0.09505732 0.05641343
000030 21 44 26 bd 45 3f dd 3d 0b fe 52 bd 75 b8 80 3b
       -0.040592317 0.10803083 -0.051511806 0.003928239
000040 79 29 49 bd 72 19 07 be 00 6b 86 bc 18 5b d8 3c
       -0.049111817 -0.131933 -0.016408443 0.026410624
000050 b1 5b a6 3b 21 6c 4f 3d e8 ff 37 bd 60 f6 78 bd
       0.0050768484 0.05064023 -0.044921786 -0.060781837
000060 c8 45 e5 3d 49 55 d0 3d a8 46 9c bb ac c6 4f 3c
       0.1119495 0.10172517 -0.004769165 0.012681644
000070 ae e6 ee 3d 9d d2 25 bc b6 96 ac 3d b3 77 50 ba
       0.116650924 -0.010121015 0.08427183 -0.0007952407
000080 6c 5a 8a 3d 54 d2 49 3c 5f 22 a8 3d ca b8 bf bc
       0.06755528 0.012318213 0.08209681 -0.023403544
000090 4d 80 af 3c ac fd 9d 3c 9b 47 49 bd 6b 78 3f bc
       0.021423483 0.019286 -0.049140554 -0.011686425
0000a0 4a 11 e4 3d 6a d7 2e 3a e3 04 58 bd 6a 45 06 bd
       0.1113611 0.00066696724 -0.052739035 -0.032781042
0000b0 97 72 de bd 9e 81 a2 3d 30 ae 8c bd eb 75 47 bd
       -0.108617 0.07934879 -0.06869161 -0.04869644
0000c0 1e d2 bd 3d 8b 8b 98 bd ea 44 0d 3d 69 2f 52 bc
       0.09268592 -0.07448491 0.03448955 -0.012828686
0000d0 4e 4d 8c 3c b8 c3 1c bd b5 90 78 3d 2e 36 b9 bd
       0.017126705 -0.03827259 0.06068488 -0.09043537
0000e0 12 5b a5 bb 63 2b f6 bc 86 d0 12 bd 13 f1 95 bd
       -0.005046257 -0.030049985 -0.035843395 -0.07321372
0000f0 06 1d 83 3d 37 70 c9 bd 6c ea 54 bd c9 dd b4 bd
       0.0640202 -0.098358564 -0.051981375 -0.08831365
000100 3c 5b 71 bd b7 f0 a9 3c d9 96 a1 3c 9c 3b 38 bc
       -0.0589249 0.020744665 0.01972525 -0.011244681
000110 4f 38 3e bd 64 35 96 3d b7 0d a1 bd 4b 0b 20 3e
       -0.04644042 0.07334402 -0.07863944 0.15629308
000120 80 f0 81 3b fa 88 32 bd d4 4d d4 bd 26 63 1e bb
       0.0039654374 -0.043587662 -0.10366407 -0.0024167984
000130 b0 76 52 bd 2c bb 0a 3d d0 79 7b bd 64 a0 01 be
       -0.05138272 0.033869907 -0.061395466 -0.1265884
000140 bd 54 7c 3c 10 e6 13 3d 0b 21 17 3d 1e 02 5a bd
       0.015401063 0.036108077 0.036896747 -0.053224675
000150 2a 4b 87 bd 34 a8 87 3d 0c 83 84 bd f5 c3 51 bb
       -0.06606133 0.06623879 -0.06470308 -0.0032007669
000160 21 84 be b9 1a a9 c7 3d 35 7f 64 bd 0a bb 89 bd
       -0.00036338068 0.097490504 -0.055785377 -0.06725128
000170 97 29 23 bc 61 61 c3 ba f6 ee 2e bd 0e f4 81 3d
       -0.009958646 -0.001490634 -0.04270836 0.06345378
000180 a2 e4 ce 3c d1 22 33 be b5 77 a1 3c f3 fc 81 bc
       0.025255505 -0.1749375 0.019710401 -0.015867686
000190 fd 2c 98 bc e3 d0 c3 3d b3 85 0f bd 17 0b 7d bd
       -0.01857614 0.09561326 -0.035039615 -0.061778154
0001a0 33 c1 a8 3d ae 25 0a 3d 03 05 b2 bb d2 cc 9b 3d
       0.08239975 0.03372734 -0.0054327263 0.07607426
0001b0 ce 76 3e 3c c1 2b ef 3c 65 c7 8e bd f6 1f 7d bc
       0.011625005 0.029195668 -0.06971625 -0.015449515
0001c0 c2 5e 8f 3d 0e a9 b0 bc d5 8d 3b 3d 8f a4 ac bd
       0.070004955 -0.021564987 0.04578956 -0.084298246
0001d0 8c c0 66 3d 00 61 35 bc f0 8f 4a 3c 85 09 ac bd
       0.05633597 -0.01107049 0.012363419 -0.08400253
0001e0 bc 2a 00 be e5 aa a9 3d c8 61 2b bd 7b f1 9a 3d
       -0.12516302 0.08284549 -0.0418413 0.0756559
0001f0 19 e4 05 bd c7 ff 97 bc 1e 26 87 3d 5d 08 a2 3d
       -0.032688234 -0.018554581 0.06599067 0.079117514
000200 9c 85 3f 3d 5b 9a b8 3d 86 eb 91 bb 83 c3 bd bb
       0.04675828 0.09013816 -0.0044531254 -0.005791129
000210 2c 8b 6e 3a b5 bc e9 3c 5b 33 9b 3d c7 b9 3e 3c
       0.0009099718 0.028532365 0.07578155 0.011640972
000220 66 d7 d2 3d 55 71 7f 3d 3d 80 c3 bc 13 f1 59 bd
       0.1029499 0.06236394 -0.02386486 -0.053208422
000230 e6 e8 96 bb 93 ed e7 bd 03 96 f7 3d 12 fe 90 bc
       -0.0046054004 -0.113246106 0.12089159 -0.017699275
000240 ae f1 12 be 9d fc 7a 3d b1 5c 5c 3d 85 b1 e9 bc
       -0.14350006 0.061276067 0.053799335 -0.02852703
000250 d3 f4 15 3d 1c 16 74 3d 00 cb 95 bd d4 a4 39 3d
       0.036610436 0.059591398 -0.0731411 0.045323208
000260 a3 93 0e 3b 14 88 c0 3b 02 2e 12 bd a1 e3 82 bd
       0.0021755479 0.005875597 -0.035688408 -0.06391073
000270 55 7f 82 bd 53 6a 92 3c ff 69 c3 bd 73 ed a4 bd
       -0.06371943 0.017872965 -0.095417015 -0.08053102
000280 d3 33 fe bc 1c 1b 2e bd bb 9a 44 bd 21 c0 eb 3d
       -0.031030571 -0.042506322 -0.047999125 0.11511255
000290 8e 30 9d 3d 6a 6f cb bc 82 e9 ac bd 9a a2 22 bb
       0.07675277 -0.0248334 -0.084429756 -0.0024816156
0002a0 f3 ae 2c 3d ca 01 29 3d fb 00 1e bd da ac 94 bd
       0.042159032 0.04126147 -0.038575154 -0.07259531
0002b0 a0 89 ee bd 61 e8 94 bd bd 8f 43 bc 56 7f 0c 3d
       -0.11647344 -0.07270885 -0.011936125 0.034301125
0002c0 0a 00 b9 bc 17 2f 52 bd 39 53 01 3d ee 60 49 3c
       -0.022583026 -0.05131444 0.031573508 0.012291176
0002d0 0f 39 5c 3c 84 32 03 3d e8 8f f9 bd 8a e7 6a 3c
       0.013441338 0.032030597 -0.12185651 0.01433743
0002e0 fd 71 16 3c d0 13 78 bd 26 ff c3 3d 95 dd 81 bb
       0.00918245 -0.06056577 0.0957015 -0.003963182
0002f0 b4 f5 93 bc d7 4d 9a bc 20 ad 22 be 62 fe 4c 3d
       -0.018061496 -0.018835945 -0.15886354 0.050047286
000300 78 9b 76 bd 99 42 b0 3c fd 69 ad 3c 46 96 ad 3d
       -0.06020686 0.021516131 0.021168703 0.08475928
000310 f1 ca 8a bd 2d 9d 1a 3d 93 ff e4 bd f1 a4 3d 3c
       -0.06776989 0.03774755 -0.111815594 0.01157497
000320 aa 78 9e 3d db aa 4b bd d7 43 3f 3d 85 6a ed 3d
       0.077378586 -0.049723487 0.046695556 0.115925826
000330 f5 0d ca bd e6 26 c9 3c 2d 51 d5 bb 46 ff b8 3b
       -0.09865943 0.024554681 -0.006509921 0.0056456653
000340 7e a0 82 3d 8e b9 49 3d 9a aa d7 3c 89 1e ed bd
       0.06378268 0.049249224 0.026326466 -0.1157809
000350 f5 5c 30 3d 3e df f6 3c f9 3b 35 3d 5d 05 b4 3c
       0.0430574 0.030135747 0.044246648 0.021975214
000360 58 d7 33 bd ce 7d 57 3d 5b d0 80 3b 5b 09 c5 bc
       -0.04390654 0.05261021 0.003931088 -0.024052313
000370 a3 be 88 3c 36 dd 30 3d b8 b5 17 3e 71 1f 29 be
       0.016692465 0.043179713 0.14815414 -0.165159
000380 0e 95 93 3d 56 81 a0 3b a4 63 5b 3c 01 60 8e 3d
       0.07206164 0.0048982305 0.013390455 0.06951905
000390 2f 65 c1 bd c7 0d 47 3d b6 69 f0 3d d5 04 2a be
       -0.09443127 0.048597123 0.11738913 -0.16603406
0003a0 f2 40 13 3b cf c4 c0 bd 2a 2f 0b 3d 83 8c d2 3c
       0.002246913 -0.09412538 0.033980526 0.025701767
0003b0 a6 d4 02 be ff 61 df bd 9e 6d 6d 3d 3b 43 3e bd
       -0.12776431 -0.10907363 0.057965867 -0.046450835
0003c0 1a 73 57 3d 4d e2 d1 3c fa 52 cd 3d 72 eb 9e bc
       0.052600004 0.025620604 0.10025592 -0.019399378
0003d0 c2 58 2d 3c 1a ed 6b bd d1 b7 13 3e a6 57 36 bc
       0.010580244 -0.057599165 0.14425589 -0.011129295
0003e0 88 ba 48 bc 9b c2 cf 3c 52 3b 83 bd 38 e4 2a bd
       -0.012251504 0.02536135 -0.06407799 -0.041721553
0003f0 d6 f5 18 bd 1a 5f 2c bd 00 51 58 3d ed ab 3f bc
       -0.037343822 -0.042082883 0.052811623 -0.011698705

network_body._body_endoder.seq_layers.2.bias f4 [256]
000000 0b 39 67 bc 39 3b de bc f5 27 9c bc b1 fe 2d bc
       -0.014112721 -0.027127849 -0.019062022 -0.010619805
000010 4a c4 5c bc c0 4f 50 bc 42 02 a0 bb 02 78 50 bc
       -0.013474533 -0.012714326 -0.0048830817 -0.012723925
000020 36 e1 57 bc 09 97 2f bc c1 25 08 bc 6f 0a dd 3b
       -0.013176253 -0.010717162 -0.0083097825 0.0067456285
000030 03 08 6b ba 0a 85 9e bc a8 ba 93 bc 6d e5 17 bc
       -0.00089657324 -0.019350547 -0.01803334 -0.009271008
000040 0f ca ee bc c4 3d 00 bd 0f fa 1c bc d6 ab b5 3b
       -0.029149083 -0.031308904 -0.009581103 0.005544166
000050 fc 3a 18 bc 44 fb 4f bc fa 79 f7 b9 af 54 ee bc
       -0.009291407 -0.012694184 -0.0004720239 -0.029093115
000060 69 f0 43 bc b3 f0 00 bd 7f d3 f2 bb 3e 25 11 3c
       -0.011959174 -0.03147955 -0.007410466 0.008858977
000070 02 90 2a bc 32 6d 4e 3d 5e da 90 bc 7e f2 c7 bb
       -0.010410311 0.050397106 -0.01768225 -0.0061019054
000080 32 e4 cb bb 33 42 34 3c 24 d9 a6 bc e6 9a fb bb
       -0.0062222714 0.011002111 -0.020367213 -0.0076783774
000090 a3 cf 16 bc b0 01 01 bb 4c af 98 3b a5 43 8d bc
       -0.009204778 -0.0019684844 0.004659569 -0.01724417
0000a0 3a 06 27 3c 84 15 b1 3a 99 63 79 bc e1 d6 6c bc
       0.010194356 0.001351044 -0.0152215 -0.014455528
0000b0 c7 ef 44 bc d3 65 3d bc 3a ee a7 bc 80 89 a4 3c
       -0.012020058 -0.011559921 -0.020499337 0.020085096
0000c0 d6 1a 23 3b 1c c0 cf bb 9a 23 cf bc c3 06 1b bb
       0.0024887822 -0.00634004 -0.02528553 -0.0023655153
0000d0 5c 57 98 bb c6 cd b8 bc 7b eb d9 bb 3a 37 67 bc
       -0.004649086 -0.022559058 -0.006650386 -0.014112288
0000e0 2a e3 49 3c fc 13 f5 ba 79 ab b7 bc b7 1f 6d bc
       0.012322227 -0.0018697972 -0.022420632 -0.014472893
0000f0 96 92 fc bc 0d aa 3d bc c3 7f d2 3c 83 4f a3 bc
       -0.030831616 -0.011576188 0.025695687 -0.019935375
000100 9a 95 c1 bc c3 8f 13 bd 87 f1 f7 bb 37 c0 7f bb
       -0.023630906 -0.036025774 -0.007566634 -0.003902448
000110 bf fc c9 bc 55 b0 00 3b 3b 19 d8 3b d7 23 b6 bc
       -0.024656652 0.0019636352 0.0065948046 -0.022233887
000120 f0 ad 91 3c 03 4b b8 bc 8a f3 27 bb 7c 16 b2 bc
       0.017783135 -0.022496706 -0.0025627338 -0.021739237
000130 81 13 0f bd 56 4c 63 bc 09 c9 1c bc fe ad 89 bc
       -0.03493071 -0.01387318 -0.009569415 -0.016806599
000140 38 2f 8f ba 53 68 30 bc fc cb 96 bc 49 5e e8 bc
       -0.0010924106 -0.01076706 -0.018407814 -0.028365271
000150 f6 92 a0 bc 5f d6 93 bc 70 e5 e1 3a 3a 08 4d bb
       -0.019601326 -0.018046556 0.0017234515 -0.003128542
000160 87 1f 72 bc af c5 0d bc 8b 01 86 bc 73 71 09 3b
       -0.0147780245 -0.0086530885 -0.016358158 0.0020972162
000170 92 cf cc bc 8a b8 6f bc 28 9e 8e bc a7 56 06 bc
       -0.025001321 -0.0146314 -0.0174094 -0.0081993705
000180 77 e3 4f bc 36 b6 db bb c9 9a 78 bc da da c0 3c
       -0.012688509 -0.006705071 -0.015173622 0.023541857
000190 50 80 63 3b 21 ec d5 bb 44 8f 23 bc 44 56 f3 bc
       0.0034713931 -0.006528393 -0.009982888 -0.02970422
0001a0 84 dc 1a bc 4c 42 cd bc 8a 9a 91 ba 40 fd 3b 3a
       -0.009451989 -0.025056027 -0.0011108678 0.0007171221
0001b0 3d 2b 88 bc 19 46 73 bc 13 cb c0 bb d1 f2 5e 3b
       -0.01662218 -0.014848256 -0.0058835833 0.0034019242
0001c0 cc c7 84 bc 37 52 15 3c 31 4c 42 3b c0 f6 4a bb
       -0.016208552 0.00911384 0.0029647464 -0.0030969828
0001d0 c2 ad 07 3d 52 d8 89 bc 35 72 2c bc 03 b8 ec ba
       0.033124693 -0.016826782 -0.010525276 -0.0018060211
0001e0 33 fb f8 bc 07 49 99 bc 9f 7a ac ba 72 0b 35 3b
       -0.030393219 -0.01871158 -0.0013159103 0.002762523
0001f0 77 ea 7d 3c 0f b7 0e bd bf f7 b7 3c 23 f7 97 bc
       0.015497795 -0.034842547 0.022457002 -0.018550461
000200 21 5a aa bc 64 8a b3 bb c5 b3 6d bc 45 01 cc bc
       -0.02079493 -0.005479144 -0.014508192 -0.02490295
000210 1c ff 0d 3c d1 ce e9 bb 5d 15 66 bb b7 ca 5d ba
       0.00866678 -0.00713525 -0.0035107948 -0.0008460688
000220 2f db 2f 39 ad 25 2d bc 87 a9 05 3b 48 5e ae 3a
       0.00016770953 -0.010568065 0.0020395236 0.0013303244
000230 21 3c f7 bc 4a 32 0d bc 46 6d 90 3c 72 cf 49 bc
       -0.030180039 -0.008617947 0.01763023 -0.012317525
000240 b9 c6 a6 bc d4 88 5b 3b cb 56 e6 bc 91 5c 02 3c
       -0.02035843 0.0033498304 -0.028117558 0.00795664
000250 72 e7 07 bc 6f 6e 88 bb cc 50 02 3c 25 f6 31 bd
       -0.008294927 -0.0041635553 0.007953834 -0.043447632
000260 9c 31 06 3b d5 b8 96 bb 93 e7 b0 bc d3 20 42 bc
       0.0020476347 -0.0045996704 -0.021594798 -0.011848646
000270 9d 55 55 bb d0 9b 3b bc 6d fb ea bb 61 4d da bb
       -0.003255225 -0.011450723 -0.0071710856 -0.0066620563
000280 ac c3 3a 3b a8 e0 ac bc 71 9d 8b bc 8c 82 86 bc
       0.0028497977 -0.021103218 -0.017042847 -0.016419671
000290 71 3d f0 bb 69 4a 7b bc df 53 4f bc 90 d3 a5 3b
       -0.007331543 -0.015337565 -0.012654274 0.0050606206
0002a0 fd 8d db bc c3 61 2f bc 36 49 cc 3c b7 ea 4c bc
       -0.026801104 -0.010704461 0.024937253 -0.012507132
0002b0 f2 aa 4a bc 01 03 64 3a 9a e9 39 bc df 0f ea 3c
       -0.012369858 0.00086979574 -0.011347199 0.028572021
0002c0 02 df c2 3b b2 73 dd ba a3 23 e3 bb b0 05 ac bb
       0.0059469948 -0.0016895442 -0.0069317385 -0.0052497014
0002d0 db 50 1b bc 55 43 46 bd 88 83 a5 3c 69 4e 88 bc
       -0.009479727 -0.048404057 0.02020432 -0.016638951
0002e0 c2 5d 95 bc 8b 3e 47 3b d0 94 b8 b9 d7 7d 18 bd
       -0.018233184 0.0030402269 -0.0003520609 -0.037229385
0002f0 31 62 95 bc 7e 5b b2 bc 53 5a a8 3c e7 79 91 bc
       -0.018235298 -0.021772142 0.020550882 -0.017758323
000300 5a 43 04 bd ac 6e 95 bb 18 d3 a9 bb b5 91 01 bd
       -0.032290794 -0.0045603123 -0.005182635 -0.031633098
000310 8c 52 b2 bc 09 0d db bc b2 02 08 bb 53 94 d3 3b
       -0.021767877 -0.026739614 -0.002075356 0.0064568906
000320 7d 00 bc bc 57 55 30 bd c9 3d 63 bc 72 84 8f 3c
       -0.022949452 -0.043050136 -0.013869711 0.01751921
000330 53 56 5a bc 4e 33 20 bd aa f2 e9 bc 14 0d 5d 3c
       -0.013326245 -0.039111428 -0.028558094 0.013491888
000340 e9 17 a5 bb 48 14 04 3d 48 1b 76 bb 01 8e f1 bc
       -0.0050382507 0.032245904 -0.0037552882 -0.029486658
000350 ce 7f a5 bc 06 38 6f bc 43 2e 80 bc bd 32 c6 ba
       -0.020202544 -0.014600759 -0.01564706 -0.0015121322
000360 7f 7b ee 3a ac f1 ee 3b 9a 82 6d 39 fa 37 cd 3a
       0.0018194764 0.007291993 0.00022650734 0.0015656941
000370 d1 00 b4 3b 65 78 30 3b 22 9f 1e bd c1 bd 00 bc
       0.0054932614 0.002692723 -0.03872598 -0.007857741
000380 c1 d9 ce bc 2e 8e 9f bc a9 1d 06 bd fd 9f f5 3b
       -0.025250318 -0.019476976 -0.03274313 0.0074958787
000390 5a 1d 86 39 8a a8 1f bb 33 ab 89 3b e1 5f 3d 3c
       0.0002558034 -0.0024361932 0.0042013167 0.011558504
0003a0 71 8d b7 3c 59 f4 b6 bc a8 6f 4c bc 16 11 e6 bb
       0.022406312 -0.02233331 -0.012477793 -0.00702108
0003b0 d4 13 9e bc 5a be ea 3c 9b dd 18 bd 65 bc 88 bc
       -0.019296564 0.02865522 -0.037320714 -0.016691396
0003c0 0c 4e e1 bb 8d 5d 9b bc 2a d0 91 bc c5 e2 09 bd
       -0.006875759 -0.018965507 -0.017799456 -0.03366353
0003d0 d0 89 57 bb 23 c7 f1 bb cb 23 c8 bc e2 01 6e bc
       -0.003288854 -0.0073784753 -0.02443113 -0.014526816
0003e0 9b 2f be bc c4 36 15 bd 1c b3 58 3b d9 0d 91 bc
       -0.02321606 -0.03642918 0.0033065742 -0.017706798
0003f0 43 f4 3f bd 29 16 51 bd ba 0e 69 3b 52 81 04 bb
       -0.046863806 -0.051046524 0.0035561756 -0.0020218682

action_model._discrete_distribution.branches.0.weight f4 [4, 256]
000000 6b 43 9b bb d7 69 17 3c 87 5c 35 3c dc 1c 7b bc
       -0.0047382615 0.009241543 0.0110694235 -0.015326705
000010 19 b3 22 bc f5 2b 4e bd c7 91 51 bc 2a d2 c5 3c
       -0.0099303955 -0.05033489 -0.012791104 0.024148066
000020 ff 77 9a 3c d9 f0 c7 3b 87 74 32 3c 63 e3 8d 3b
       0.018856047 0.0061017093 0.01089204 0.004330085
000030 72 ff 2d bd 32 97 81 bc 83 2d 75 b8 b8 90 10 3c
       -0.04247994 -0.015819166 -5.8454938e-05 0.008823566
000040 2c 11 1f bc 7a cf 57 bc 0b 10 b3 bb c2 85 ec 38
       -0.009708684 -0.013172025 -0.005464559 0.00011278271
000050 17 f4 a2 3c 62 6e a5 bc 69 f8 89 bc d3 08 71 3a
       0.019891782 -0.020194236 -0.016842084 0.00091947353
000060 5a 0f 84 3c a9 60 ff bc 3d cd 24 bb 72 ff 4f 3b
       0.016120601 -0.03117402 -0.0025146746 0.003173795
000070 03 89 bc 3b f0 d3 c9 3c c5 21 2e bc 6b c7 34 3c
       0.0057536378 0.024637192 -0.0106281685 0.011033873
000080 b6 9c 88 3b 5b 1f 3e 3b c5 0b c8 bb 8c 44 09 3d
       0.004169072 0.0029010389 -0.0061049187 0.033512637
000090 6d 27 56 3c 58 29 d4 bc 8d 0c ca bc 0f d4 71 bc
       0.013070923 -0.02589862 -0.024664188 -0.014760031
0000a0 cb b4 b6 3b f2 bd 0a 3d fb 57 a0 3c e9 87 fd 3b
       0.0055757514 0.033872552 0.019573202 0.007737149
0000b0 75 c0 58 bb 64 82 a5 3c 77 55 06 39 1d bd 08 bc
       -0.0033073698 0.020203777 0.00012811074 -0.008345869
0000c0 18 84 dd 3c de 51 f2 bb 14 3e 07 bc a2 e3 14 3c
       0.027040526 -0.0073950132 -0.008254547 0.009087475
0000d0 ce 09 1c 3a 6f cf 9c 3b c1 c3 f8 3c ce 05 26 bc
       0.0005952389 0.00478547 0.03036678 -0.01013322
0000e0 f2 26 b1 3c 30 97 c5 39 54 81 f1 bb 15 2f ff 3b
       0.021625016 0.00037687412 -0.0073701534 0.007787595
0000f0 b3 50 34 bb bc 81 f1 3a 7b 49 88 3b 31 07 28 3b
       -0.002751392 0.0018425505 0.00415915 0.0025639052
000100 cd 26 3e 3c 65 5c 00 bd 1f b8 76 3c 5d 80 ff 3b
       0.0116059305 -0.031338114 0.015058546 0.0077972845
000110 46 b3 c7 bb ba 25 6f bb a6 9f fc 3c c8 4f 64 bc
       -0.006094369 -0.0036490993 0.030837845 -0.013935037
000120 eb 33 f5 bc ae dc a5 ba a5 ae c6 3c 12 00 9b bb
       -0.029931983 -0.0012654269 0.024253199 -0.004730233
000130 21 46 28 bc 64 59 9c 3c 9b fb d4 bc 30 d7 a6 bc
       -0.010270626 0.019085594 -0.025998881 -0.020366281
000140 9b 32 2f 3c 1e c8 34 bd 19 e0 55 3b 02 84 a2 bb
       0.010693218 -0.04413616 0.0032634793 -0.004959584
000150 f3 ba ff bc 1c 35 d6 3a a4 35 8c bc e8 43 64 bb
       -0.031217074 0.0016342732 -0.017115422 -0.0034830514
000160 97 55 eb 3b 27 c8 24 bc a0 ad 90 bb 45 6f a9 3c
       0.007181834 -0.010057486 -0.004415229 0.02068294
000170 7e b0 8f bc a7 16 91 bc 6e e6 cb bc 42 36 b5 ba
       -0.017540213 -0.017710997 -0.02489015 -0.0013825374
000180 e6 1d 90 bb 01 28 e0 bb 04 97 b8 ba b8 7b 83 3c
       -0.0043980954 -0.0068407063 -0.0014083092 0.016050205
000190 be 97 55 3b df 79 07 bd ff 47 2d 3c 70 fe 37 bb
       0.0032591666 -0.03307521 0.010576247 -0.002807524
0001a0 20 e4 61 bb 5b 52 17 bc 9e e1 b2 bc d5 9f 63 3b
       -0.0034468248 -0.009235944 -0.021836098 0.0034732718
0001b0 6a 58 ba bb 2e 2d 7b 3c 44 d8 86 3b c7 67 3e ba
       -0.0056868093 0.015330596 0.0041151363 -0.0007263389
0001c0 82 b7 8d bc ad 38 63 3b 07 98 dc 39 1c 34 0e bd
       -0.017299417 0.0034671233 0.0004207494 -0.034717664
0001d0 3f cc 71 bb 33 44 9f ba 53 f0 a5 ba 07 10 91 3c
       -0.0036895422 -0.0012151062 -0.0012660123 0.017707838
0001e0 d4 a7 d7 bb db cc 3e bb 03 c1 21 bc aa 56 80 3c
       -0.006581286 -0.0029113803 -0.009872678 0.015666325
0001f0 4b a8 6d 3c 34 65 8e bc c9 ee a3 3b 61 cc 48 ba
       0.014505456 -0.017382242 0.0050028306 -0.00076598494
000200 99 c9 c4 3b eb c8 19 bd b8 f3 2d bc 51 c5 05 bd
       0.0060054776 -0.037545126 -0.010617189 -0.03265888
000210 f2 1b 5b 3c f7 3f c2 3b 3b b0 a6 bc a6 fe 21 3c
       0.013373362 0.0059280354 -0.020347705 0.009887373
000220 83 54 06 3c 76 ce 4f 3c b5 b1 16 3d 44 d7 22 ba
       0.00819886 0.0126835015 0.03679057 -0.00062118866
000230 8e 24 08 bc 4e ce 1d 3c 97 2e 10 bc 03 96 a7 3a
       -0.008309497 0.009631706 -0.00880017 0.0012785796
000240 74 ed 70 3c 20 fb 0d bc 98 f3 cf bb 31 91 52 bb
       0.014705051 -0.00866583 -0.0063461773 -0.0032129998
000250 75 7b 46 3c ab 0e bc 3c 09 44 ee 3c 15 fc 9a bc
       0.012114395 0.022956213 0.029085176 -0.01891903
000260 bc c9 83 bc 5e af 02 3d 95 0f 4e bc 09 b7 a7 bb
       -0.016087405 0.031905524 -0.012576957 -0.005118255
000270 06 b7 f0 bb de e2 57 bc c3 5b 96 3c e5 93 ab bb
       -0.007346037 -0.013176648 0.018354302 -0.0052361363
000280 93 9d 98 bc 09 76 83 bb 3a a4 d7 3b c7 5e 4f 3c
       -0.018629825 -0.0040118736 0.0065808566 0.012656874
000290 d4 a3 01 ba 8c f5 3e 3c d6 3e 33 39 bb 8d 1b bc
       -0.0004945372 0.011655223 0.00017094178 -0.00949424
0002a0 ff aa ad bc 22 5c d5 3c 93 0a c2 3c 1e 63 c8 3b
       -0.021199701 0.026044909 0.023686683 0.0061153313
0002b0 b9 68 4b bc 6b 8e 60 3a 0b 29 dd bb d8 b5 4e 3c
       -0.012415105 0.0008566144 -0.0067492775 0.012616597
0002c0 01 e2 f9 bb 2a ba b8 3c b8 46 94 3b 5a 60 c4 bb
       -0.0076258187 0.022549707 0.004525032 -0.0059929313
0002d0 e8 67 3b 3a c9 be 9c 3b 69 80 ca bb 45 9a bc bc
       0.0007148967 0.0047834856 -0.0061798585 -0.02302278
0002e0 24 5d a9 3b 1e 31 5e bc 87 d2 e5 3c 10 53 78 ba
       0.005168574 -0.013561515 0.028054489 -0.00094728265
0002f0 88 57 1f 3c 82 c2 81 3b c6 39 af bb e9 01 22 bc
       0.009725459 0.0039599547 -0.0053474633 -0.009888151
000300 5f b8 a9 3a 62 59 08 ba 7a 3a 6a 3c 17 9a 10 bc
       0.0012948624 -0.00052013074 0.014296168 -0.0088258
000310 56 ca d7 bb 42 de a4 ba d1 00 60 bb fb 2f 1c 3d
       -0.0065853996 -0.0012578445 -0.0034180174 0.038131695
000320 ca 3a 16 3c 5d a0 5e bb 9e d9 84 3c 48 54 e5 3c
       0.00916929 -0.0033970096 0.01621705 0.02799429
000330 c4 c1 89 3c 97 de c9 3b e7 b9 a5 bc 76 9f 93 ba
       0.016816027 0.006160568 -0.020230247 -0.0011262733
000340 4e 65 47 3b a4 0b 0b 3a 94 46 c8 3c f0 8c 5f 3c
       0.0030425373 0.0005304164 0.024447717 0.013644442
000350 e7 19 ee bb 7d 65 1e 3c f9 46 14 3d 6e 42 b7 bb
       -0.0072662714 0.009667751 0.036200497 -0.005592636
000360 13 fa 89 3c a7 0b 25 3d 0b e8 fa 3c 91 59 4a 39
       0.016842877 0.040294316 0.030628225 0.00019297587
000370 d0 0d c7 3c 34 ff 67 3b 9b 45 8c bc 9f 48 bf 3b
       0.024298579 0.0035399916 -0.017123034 0.0058375145
000380 77 6f 85 bb 23 d0 11 bb ea d8 10 3a 26 77 da 3c
       -0.0040721255 -0.0022249303 0.0005525487 0.026668143
000390 d8 1f c8 3c 1a c8 3c 3c 3f 95 56 3c e4 9b 77 bc
       0.024429247 0.011522317 0.0130971065 -0.015112851
0003a0 e5 71 27 bd 32 33 cb bb 90 51 74 3b 5f b5 50 bc
       -0.040880103 -0.0062011713 0.003728006 -0.012738555
0003b0 c1 68 86 bb 11 9c 50 bc a8 92 56 bc 99 98 03 bc
       -0.004101843 -0.012732522 -0.013096489 -0.008031988
0003c0 3a 99 b5 ba e7 13 ad bc 27 61 c4 bc bc 8c 2d 3a
       -0.0013854869 -0.021127654 -0.023972107 0.00066203973
0003d0 c1 06 25 bd 24 e3 ad 3b 03 e5 ac 3b 64 55 14 bc
       -0.040289644 0.0053066183 0.0052763238 -0.009053562
0003e0 ee 2f c6 bb 85 b9 30 bc 97 a4 69 3c 4a ef d9 bb
       -0.006048194 -0.010786419 0.014260433 -0.00665084
0003f0 fe 59 31 bc 30 d7 c5 bc f6 38 29 bc c0 5c d1 ba
       -0.0108246785 -0.024150461 -0.010328522 -0.0015973076

action_model._discrete_distribution.branches.0.bias f4 [4]
000000 82 e2 66 3c 2f 6d 9d bb 99 a4 9e bc 24 63 27 3c
       0.01409209 -0.0048042755 -0.019365596 0.010216508

onnx::Div_62 f4 [202]
000000 5b 32 b5 3e 1e 40 80 3e fa 2a df 3e 26 1a af 3e
       0.3538998 0.25048918 0.43587476 0.34199637
000010 e5 f9 df 3e 5a 38 b2 3e fa 2a df 3e 86 75 af 3e
       0.43745342 0.34808618 0.43587476 0.3426935
000020 e5 f9 df 3e 32 a7 b2 3e 36 17 d5 3e d5 ea ae 3e
       0.43745342 0.34893185 0.4161927 0.34163538
000030 14 49 d6 3e a2 42 b2 3e 20 f2 d4 3e e4 35 af 3e
       0.4185263 0.34816462 0.41590977 0.34220803
000040 85 18 d6 3e 3a 78 b2 3e a6 45 d7 3e 4f 98 af 3e
       0.41815582 0.3485735 0.42045325 0.3429589
000050 ad 27 d9 3e c5 60 b3 3e 52 0f d8 3e 54 93 b1 3e
       0.42413083 0.35034767 0.42199188 0.34682715
000060 d2 78 dd 3e c2 9e b6 3e 07 6f d2 3e 80 1d af 3e
       0.4325624 0.35667998 0.41100332 0.34202194
000070 f0 1c db 3e cc 58 b5 3e 65 6d d5 3e 1d 32 af 3e
       0.42795515 0.3541931 0.41685024 0.3421792
000080 9a ce dd 3e 7f 95 b5 3e ba e5 d4 3e 3c 24 b1 3e
       0.43321687 0.3546562 0.41581517 0.34597957
000090 b4 18 e0 3e d3 9a b9 3e de c1 d6 3e e9 e7 b0 3e
       0.43768847 0.36250934 0.41944784 0.34551933
0000a0 7f b1 e0 3e ca 8f b9 3e 02 99 d7 3e ba 94 ab 3e
       0.4388542 0.36242515 0.42108923 0.33511907
0000b0 82 7a e1 3e e0 f1 b4 3e 44 55 d2 3e b9 a5 a6 3e
       0.4403878 0.35340786 0.41080678 0.3254831
0000c0 12 6e dd 3e 86 cf af 3e 23 dc d0 3e 8b a7 a6 3e
       0.4324804 0.34338015 0.4079295 0.325497
0000d0 1a c4 db 3e 99 bf af 3e 90 85 d6 3e 7b aa ab 3e
       0.4292305 0.34325865 0.41898775 0.33528504
0000e0 28 04 e0 3e f5 4b b4 3e 4b f9 d8 3e b8 e6 b2 3e
       0.4375317 0.352142 0.42377695 0.3494165
0000f0 9f ef df 3e 57 c0 b8 3e b3 ed d8 3e d6 6c b3 3e
       0.43737504 0.36084244 0.4236885 0.35043973
000100 f3 f9 df 3e 7b f4 b8 3e 8f 0d da 3e 89 23 b2 3e
       0.43745384 0.36124024 0.4258847 0.34792736
000110 81 88 df 3e 05 3d b6 3e cf 21 d7 3e 88 0d b2 3e
       0.43658832 0.3559343 0.4201798 0.3477595
000120 0d 6e dd 3e 4f 04 b6 3e 89 78 d9 3e 93 16 b3 3e
       0.43248025 0.35550162 0.42474774 0.3497816
000130 4c d7 de 3e 7c 8b b6 3e 24 8d d7 3e c8 10 b1 3e
       0.43523633 0.35653293 0.4209987 0.34583116
000140 59 76 db 3e 0a 5b b3 3e d3 8e d4 3e 8a f3 af 3e
       0.4286373 0.35030395 0.41515216 0.34365493
000150 d3 c1 d6 3e 49 6e b2 3e 14 6e d3 3e ca d9 ae 3e
       0.4194475 0.34849766 0.4129492 0.34150535
000160 73 90 d8 3e 66 67 b2 3e 53 a7 e0 3e 62 67 af 3e
       0.42297706 0.34844512 0.43877658 0.34258562
000170 8f 10 ec 3e bf 13 b3 3e 53 a7 e0 3e 3f 0c af 3e
       0.46106383 0.34976003 0.43877658 0.3418903
000180 8f 10 ec 3e 4c c2 b2 3e ce 91 b9 3e 1b 3d 7d 3e
       0.46106383 0.34913862 0.36244053 0.24730341
000190 62 f2 c8 3e 8c 6a 82 3e 14 16 df 3e 9a e2 ae 3e
       0.39247423 0.25471914 0.43571532 0.34157258
0001a0 ff 59 ea 3e c3 9d b2 3e 14 16 df 3e d2 3f af 3e
       0.45771787 0.34885988 0.43571532 0.3422838
0001b0 ff 59 ea 3e f1 f7 b2 3e 56 ab cf 3e e9 55 ae 3e
       0.45771787 0.3495479 0.40560406 0.3404992
0001c0 b9 8d de 3e a3 3c b3 3e 85 03 d1 3e 6a 4b af 3e
       0.434675 0.350072 0.40822998 0.34237224
0001d0 c9 e1 de 3e 15 8f b4 3e 82 fe d4 3e 07 48 b0 3e
       0.43531635 0.35265413 0.41600424 0.34429953
0001e0 a8 a5 e4 3e 11 07 b6 3e 74 b3 d8 3e 9c 20 b3 3e
       0.44657636 0.35552266 0.42324412 0.34985816
0001f0 ad 78 e6 3e c5 67 b8 3e f2 3c d6 3e 28 f4 b1 3e
       0.45013943 0.3601667 0.41843373 0.3475659
000200 19 96 e5 3e 64 f1 b7 3e 06 6d d9 3e 4a 50 b2 3e
       0.44841078 0.35926354 0.4246599 0.3482688
000210 de d9 e7 3e 4a ee b7 3e 7d ac da 3e 6d af b5 3e
       0.45283407 0.35923988 0.42709723 0.35485402
000220 07 d6 e5 3e 80 97 ba 3e 97 d6 dc 3e e1 c0 b5 3e
       0.44889852 0.3644371 0.4313247 0.35498717
000230 6d a5 e6 3e 35 6f ba 3e 2c f7 dc 3e 47 44 b0 3e
       0.45048085 0.3641297 0.43157327 0.3442709
000240 c5 8e e8 3e e7 b1 b6 3e cf ca d8 3e a7 fe ab 3e
       0.45421425 0.35682604 0.4234223 0.33592722
000250 aa ba e5 3e ad b4 b2 3e fa c8 d9 3e be e2 ab 3e
       0.44868976 0.3490347 0.42536145 0.33571428
000260 a6 c1 e4 3e 20 98 b2 3e 97 78 de 3e fd 52 b0 3e
       0.44678992 0.34881687 0.43451378 0.34438315
000270 9e a5 e7 3e 37 a8 b7 3e 86 32 dc 3e 55 16 b6 3e
       0.45243543 0.35870525 0.43007296 0.35563913
000280 69 ae e6 3e 2b 7d bc 3e 95 d9 da 3e 3e 03 b6 3e
       0.4505494 0.36814246 0.42744127 0.3554935
000290 f3 8c e5 3e 9d 67 bc 3e e4 55 d8 3e 23 14 b1 3e
       0.44834098 0.367978 0.4225303 0.34585676
0002a0 12 54 e2 3e 45 74 b7 3e a0 24 d6 3e 6e c2 b0 3e
       0.44204766 0.35830894 0.41824818 0.34523338
0002b0 cc 4b e0 3e e0 6b b7 3e d0 e4 da 3e c7 81 b2 3e
       0.43807828 0.3582449 0.42752695 0.34864637
0002c0 45 3d e3 3e 79 5f b8 3e e0 15 d7 3e 53 79 af 3e
       0.44382682 0.3601034 0.42008877 0.3427225
0002d0 11 db df 3e ca f7 b5 3e fe 43 d4 3e 3c 6e ae 3e
       0.43721822 0.3554061 0.41458124 0.34068477
0002e0 b8 97 db 3e 7f a7 b4 3e d6 14 d2 3e 14 51 ad 3e
       0.4288919 0.3528404 0.41031522 0.3385092
0002f0 a9 61 d8 3e 42 fb b2 3e 07 6d d9 3e 47 ae ad 3e
       0.4226201 0.3495732 0.42465994 0.33922026
000300 7e 2a e1 3e 76 36 b3 3e 07 6d d9 3e 4b 41 ad 3e
       0.4397773 0.35002488 0.42465994 0.33838877
000310 7e 2a e1 3e 11 b9 b2 3e d4 09 ad 3e b7 cc 76 3e
       0.4397773 0.3490682 0.3379656 0.2410153
000320 d4 09 ad 3e b7 cc 76 3e
       0.3379656 0.2410153

onnx::Div_65 f4 [10]
000000 46 48 b3 41 56 e7 25 41 9f cc 42 3c 9f cc 42 3c
       22.41029 10.3689785 0.011889606 0.011889606
000010 9f cc 42 3c 9f cc 42 3c 9f cc 42 3c 9f cc 42 3c
       0.011889606 0.011889606 0.011889606 0.011889606
000020 9f cc 42 3c 9f cc 42 3c
       0.011889606 0.011889606
