results/GameLevelReached6/PlayerBehaviour.onnx (onnx, 490727 bytes, 10 tensors)

network_body.observation_encoder.processors.0.normalizer.running_mean f4 [202]
0.8358839 0.8730872 0.69166905 0.74471945 0.6970141 0.7486161 0.69166905 0.7442419
0.6970141 0.74815464 0.70281446 0.74893785 0.7050891 0.7512684 0.6990049 0.7460728
0.70253056 0.74895793 0.6933179 0.7428622 0.696958 0.74592125 0.6673296 0.7234911
0.67722434 0.7306685 0.6798408 0.7320077 0.69138443 0.7405714 0.67113876 0.728266
0.6866654 0.73844415 0.65442157 0.71157855 0.6824004 0.73068243 0.6515219 0.71123505
0.68114793 0.7308681 0.66647685 0.7306623 0.70144993 0.75546575 0.68603957 0.74771506
0.7190784 0.7699478 0.6895646 0.74855256 0.71845376 0.7697271 0.6610179 0.72494966
0.7027578 0.7559514 0.6471994 0.706037 0.6929777 0.74137306 0.64429885 0.703522
0.6933757 0.7411055 0.6539096 0.7144933 0.70321333 0.75199187 0.65959543 0.7170869
0.70770556 0.75449246 0.6416821 0.70630264 0.70042545 0.7489611 0.66738784 0.72545844
0.7239701 0.76603305 0.6790448 0.73253894 0.73346573 0.77182823 0.68473154 0.73712146
0.7368209 0.7745921 0.6856412 0.7382149 0.732443 0.7729689 0.6856412 0.7388646
0.732443 0.7735309 0.84481025 0.88059914 0.87068504 0.89791024 0.70702344 0.7562558
0.7172029 0.76218367 0.70702344 0.7557357 0.7172029 0.7615195 0.7182826 0.7604075
0.71481335 0.7599582 0.71305007 0.75644356 0.7090127 0.755342 0.70497537 0.752075
0.7011648 0.7506639 0.68262744 0.7349972 0.68552727 0.73789537 0.6942838 0.7434935
0.6988345 0.7465593 0.68939507 0.741083 0.69149894 0.7432857 0.67694044 0.7268095
0.68746114 0.73618627 0.6775651 0.7277134 0.68518627 0.7363699 0.6947957 0.7477986
0.6907588 0.7486137 0.7161794 0.7648528 0.7127101 0.76614577 0.71822584 0.7653141
0.7117998 0.76602256 0.6922945 0.74468464 0.69934523 0.75424135 0.6701164 0.71997434
0.67944145 0.73095036 0.6700029 0.71924937 0.6845037 0.73277617 0.679669 0.7303277
0.70076716 0.74903405 0.68353635 0.73231745 0.7056021 0.7511158 0.67102677 0.7231753
0.6927494 0.7421897 0.69024706 0.7383706 0.7094686 0.7550167 0.6953654 0.7416257
0.7143584 0.75729585 0.6994023 0.74474406 0.7188526 0.76071507 0.6863803 0.739333
0.7034967 0.7541861 0.6863803 0.73989815 0.7034967 0.7545791 0.83406305 0.87352145
0.83406305 0.87352145
00000000: 7dfc 553f a582 5f3f 3911 313f efa5 3e3f
00000010: 846f 323f 4ea5 3f3f 3911 313f a386 3e3f
00000020: 846f 323f 1087 3f3f a6eb 333f 64ba 3f3f
00000030: b880 343f 2053 403f fcf1 323f a1fe 3e3f
00000040: 0bd9 333f b5bb 3f3f 487d 313f 382c 3e3f
00000050: d76b 323f b2f4 3e3f 1dd6 2a3f b636 393f
00000060: 935e 2d3f 170d 3b3f 0c0a 2e3f db64 3b3f
00000070: 92fe 303f 1696 3d3f c0cf 2b3f a46f 3a3f
00000080: 4ec9 2f3f ad0a 3d3f 2c88 273f 032a 363f
00000090: cbb1 2e3f 010e 3b3f 24ca 263f 8013 363f
000000a0: b65f 2e3f 2c1a 3b3f 3a9e 2a3f af0c 3b3f
000000b0: 3992 333f 3466 413f 4aa0 2f3f 416a 3f3f
000000c0: 8615 383f 4d1b 453f 4e87 303f 24a1 3f3f
000000d0: 96ec 373f d60c 453f 7838 293f 4d96 393f
000000e0: efe7 333f 0886 413f dcae 253f d7be 343f
000000f0: fd66 313f a0ca 3d3f c5f0 243f 051a 343f
00000100: 1281 313f 17b9 3d3f 9f66 273f 08e9 363f
00000110: ca05 343f 8a82 403f 3fdb 283f 0293 373f
00000120: 312c 353f 6b26 413f 4745 243f 40d0 343f
00000130: 154f 333f eabb 3f3f eed9 2a3f a5b7 393f
00000140: 1b56 393f be1a 443f e1d5 2d3f ac87 3b3f
00000150: 69c4 3b3f 8996 453f 914a 2f3f feb3 3c3f
00000160: 4ba0 3c3f ab4b 463f 2f86 2f3f a7fb 3c3f
00000170: 6281 3b3f 4ae1 453f 2f86 2f3f 3b26 3d3f
00000180: 6281 3b3f 1f06 463f 7c45 583f f26e 613f
00000190: 37e5 5e3f 72dd 653f 7dff 343f fb99 413f
000001a0: 9c9a 373f 781e 433f 7dff 343f e577 413f
000001b0: 9c9a 373f f1f2 423f 5ee1 373f 11aa 423f
000001c0: 02fe 363f 9f8c 423f 738a 363f 49a6 413f
000001d0: db81 353f 185e 413f 4479 343f fd87 403f
000001e0: 897f 333f 822b 403f acc0 2e3f c728 3c3f
000001f0: b77e 2f3f b6e6 3c3f 95bc 313f 9755 3e3f
00000200: d1e6 323f 831e 3f3f 327c 303f 9eb7 3d3f
00000210: 1306 313f f947 3e3f f84b 2d3f 3010 3a3f
00000220: 74fd 2f3f b476 3c3f e874 2d3f 6d4b 3a3f
00000230: 5e68 2f3f bd82 3c3f 22de 313f bb6f 3f3f
00000240: 92d5 303f 26a5 3f3f 8857 373f 65cd 433f
00000250: 2b74 363f 2122 443f a6dd 373f a0eb 433f
00000260: 8338 363f 0e1a 443f 363a 313f a7a3 3e3f
00000270: 4a08 333f f615 413f c08c 2b3f 3d50 383f
00000280: e0ef 2d3f 901f 3b3f 4f85 2b3f ba20 383f
00000290: a23b 2f3f 3897 3b3f cafe 2d3f c2f6 3a3f
000002a0: 7a65 333f b2c0 3f3f 3dfc 2e3f 2879 3b3f
000002b0: 57a2 343f 2049 403f 69c8 2b3f 0422 393f
000002c0: 0658 313f 2500 3e3f 08b4 303f db05 3d3f
000002d0: bc9f 353f c648 413f 7803 323f 2fdb 3d3f
000002e0: 31e0 363f 24de 413f 070c 333f 8ca7 3e3f
000002f0: b906 383f 39be 423f 9fb6 2f3f ed44 3d3f
00000300: 5c18 343f 5712 413f 9fb6 2f3f f769 3d3f
00000310: 5c18 343f 192c 413f 2885 553f 1a9f 5f3f
00000320: 2885 553f 1a9f 5f3f

network_body.observation_encoder.processors.1.normalizer.running_mean f4 [10]
34.40888 14.441454 0.0 0.0 0.0 0.0 0.0 0.0
0.0 0.0
00000000: b1a2 0942 3210 6741 0000 0000 0000 0000
00000010: 0000 0000 0000 0000 0000 0000 0000 0000
00000020: 0000 0000 0000 0000

network_body._body_endoder.seq_layers.0.weight f4 [256, 212]
0.100565776 0.074591555 0.08119076 0.12042116 -0.10164483 -0.02242569 0.0098317545 -0.10994992
-0.013515193 0.012272286 -0.016135877 0.041714076 -0.0016567701 -0.00078969426 0.026247265 -0.044741154
0.007961201 -0.021702789 -0.083905496 0.0941221 -0.013041804 -0.038007423 -0.00044251743 0.03638635
-0.03324031 -0.1328605 0.026950022 0.12182651 -0.07828443 -0.026006466 0.08966213 0.04421677
-0.07454791 -0.022301419 -0.04249982 -0.024949463 0.012750547 -0.09067494 0.17952846 -0.037652966
0.07850749 0.025105275 0.071465604 -0.08096843 -0.0176895 -0.15585864 -0.0878636 -0.008090527
0.018134665 0.04252825 0.01952777 0.077231824 -0.10826804 -0.011380451 -0.052132696 -0.06987945
0.038184028 -0.055252206 0.15707062 0.01780495 0.079758875 0.06845384 -0.023685697 0.03126013
0.04299796 0.13416342 -0.011736249 -0.040756106 0.028121417 0.11982195 0.025418516 0.028711047
-0.054965906 -0.169381 0.15637085 0.14909361 0.088022135 -0.0798586 0.04802182 0.0085875485
-0.019217268 -0.008494479 0.028761268 0.06091174 0.050911136 -0.005125489 0.005730607 0.06342556
-0.17069446 0.005154004 0.07350845 0.07329012 -0.20292665 -0.16674215 0.15410846 0.061982285
0.037443385 -0.016122235 -0.02161466 0.09828056 -0.04774862 -0.13501462 -0.040117655 -0.042860627
-0.017262427 -0.03509312 0.018468255 -0.022310384 -0.082906716 -0.051110923 -0.05923817 -0.023327881
-0.019528707 -0.17256184 -0.12873006 0.030108463 0.06521627 -0.01707333 0.0430248 -0.072679415
-0.05330021 -0.031208852 -0.06896078 -0.0077111763 0.013872313 -0.048014574 0.035360467 0.057537988
-0.051437736 -0.043408185 -0.043782674 0.0069557093 0.03634625 -0.06731893 -0.05759664 -0.052848045
-0.0048277853 0.07072297 -0.03987465 -0.08708533 0.06507895 0.09712682 0.03299678 -0.0017535582
0.04581605 0.1190284 -0.09202177 0.0040246914 -0.02750086 0.02647792 0.11429518 -0.077934176
0.021585174 0.00682093 0.049325332 -0.054954175 0.14725825 0.087429315 -0.1560463 -0.024882693
-0.017888505 -0.019102748 0.07826286 0.01684718 0.011190915 -0.02477976 0.0036875396 0.0073745428
-0.0133484565 0.083810255 0.1332113 -0.08669942 -0.017030219 -0.044927284 -0.14160293 0.03230104
0.022247825 -0.018956756 -0.019978406 0.23105654 -0.10177712 -0.040269714 -0.03958637 0.0042693424
0.0180517 0.036266495 0.06496813 0.07129158 -0.011743209 0.095061325 0.03957884 0.005868147
0.06300135 -0.06495209 -0.003437412 0.033749517 0.020617401 0.011677743 0.03597176 0.06385106
0.001274781 0.18322104 -0.09187123 0.07210085 -0.12600279 0.03646366 0.01961392 -0.00377409
-0.0061396165 -0.04189452 -0.13773926 0.008338718 -0.022450415 -0.15561438 -0.021425305 0.03633591
-0.07371405 0.08125467 -0.17290029 0.022223247 -0.065314315 -0.06908233 -0.016981252 -0.1398422
-0.07574363 -0.1157899 -0.002715054 -0.106130786 0.0024234613 0.09872341 -0.030720077 0.106543414
-0.043848425 0.077348076 -0.0044076564 0.01037814 -0.061274048 -0.027801242 0.048930485 -0.08477703
-0.14869879 -0.05865582 0.015134593 0.08294168 -0.07903087 -0.02788723 -0.026464663 0.09553116
-0.048606977 -0.13529848 -0.07835054 -0.0025289718 0.025615154 -0.0006500039 0.03885745 0.19318883
00000000: 6ef5 cd3d 75c3 983d 5747 a63d 5e9f f63d
00000010: 2a2b d0bd 15b6 b7bc 5e15 213c 6c2d e1bd
00000020: d46e 5dbc b311 493c 632f 84bc 61dc 2a3d
00000030: fb27 d9ba 7c03 4fba 8104 d73c 8042 37bd
00000040: b26f 023c 0cca b1bc a5d6 abbd 16c3 c03d
00000050: 4aad 55bc acad 1bbd af01 e8b9 da09 153d
00000060: fe26 08bd 950c 08be 4bc6 dc3c 2d80 f93d
00000070: 9653 a0bd 830b d5bc c7a0 b73d a51c 353d
00000080: 93ac 98bd 77b1 b6bc 4b14 2ebd d162 ccbc
00000090: ace7 503c c8b3 b9bd 4fd6 373e ff39 1abd
000000a0: 89c8 a03d 94a9 cd3c 8f5c 923d c7d2 a5bd
000000b0: 92e9 90bc 6899 1fbe d5f1 b3bd 218e 04bc
000000c0: 268f 943c 1a32 2e3d b4f8 9f3c b82b 9e3d
000000d0: a2bb ddbd 1275 3abc 1889 55bd f51c 8fbd
000000e0: db66 1c3d 2350 62bd 1fd7 203e b0db 913c
000000f0: 9f58 a33d 8731 8c3d 8208 c2bc 9f0a 003d
00000100: a11e 303d 2362 093e 6549 40bc e0ef 26bd
00000110: e35e e63c 3665 f53d 7e3a d03c 6e33 eb3c
00000120: ee23 61bd 3672 2dbe ae1f 203e ffab 183e
00000130: f344 b43d e88c a3bd 87b2 443d cab2 0c3c
00000140: 886d 9dbc 6d2c 0bbc c09c eb3c 977e 793d
00000150: 3288 503d b8f3 a7bb d1c7 bb3b 43e5 813d
00000160: 87ca 2ebe ebe2 a83b 998b 963d 2119 963d
00000170: 01cc 4fbe 74be 2abe 9cce 1d3e 23e1 7d3d
00000180: 3c5e 193d c712 84bc 3a11 b1bc 5147 c93d
00000190: 0f94 43bd 4641 0abe 6952 24bd a08e 2fbd
000001a0: ef69 8dbc cebd 0fbd bd4a 973c 44c4 b6bc
000001b0: ffca a9bd b059 51bd b9a3 72bd 1d1a bfbc
000001c0: abfa 9fbc 0db4 30be d0d1 03be 06a6 f63c
000001d0: 1c90 853d 5edd 8bbc c63a 303d f2d8 94bd
000001e0: 5251 5abd b5a9 ffbc 4f3b 8dbd 09ae fcbb
000001f0: b348 633c eeaa 44bd 23d6 103d f4ac 6b3d
00000200: 60b0 52bd c8cc 31bd 7655 33bd b8ec e33b
00000210: cedf 143d 82de 89bd 74ea 6bbd 3177 58bd
00000220: 6632 9ebb 34d7 903d 9a53 23bd cb59 b2bd
00000230: 1d48 853d 6dea c63d a227 073d a6d7 e5ba
00000240: 9ca9 3b3d 29c5 f33d e975 bcbd 8fe1 833b
00000250: 7c49 e1bc 39e8 d83c 9713 ea3d f49b 9fbd
00000260: 64d3 b03c 1c82 df3b 5c09 4a3d a117 61bd
00000270: deca 163e 240e b33d 9aca 1fbe cad6 cbbc
00000280: ea8a 92bc 5e7d 9cbc 4748 a03d 1903 8a3c
00000290: 195a 373c ecfe cabc a6aa 713b 26a6 f13b
000002a0: 7cb3 5abc b6a4 ab3d 8b68 083e 778f b1bd
000002b0: f582 8bbc ac05 38bd 5c00 11be 184e 043d
000002c0: 1241 b63c 334b 9bbc c1a9 a3bc 169a 6c3e
000002d0: 8670 d0bd dbf1 24bd 5125 22bd d7e5 8b3b
000002e0: 29e1 933c 2d8c 143d 030e 853d 5201 923d
000002f0: 9766 40bc 83af c23d 6c1d 223d 9649 c03b
00000300: da06 813d 9a05 85bd 3446 61bb ef3c 0a3d
00000310: d3e5 a83c 0154 3f3c 2057 133d 58c4 823d
00000320: 8d16 a73a 4c9e 3b3e fc26 bcbd 9ca9 933d
00000330: e006 01be eb5a 153d 5fad a03c b956 77bb
00000340: d62e c9bb 9799 2bbd 850b 0dbe 1e9f 083c
00000350: efe9 b7bc 6059 1fbe 1f84 afbc f7d4 143d
00000360: 64f7 96bd d968 a63d c60c 31be 870d b63c
00000370: 83c3 85bd 097b 8dbd 441c 8bbc cb32 0fbe
00000380: 7a1f 9bbd 4123 edbd 0cef 31bb 195b d9bd
00000390: efd2 1e3b 802f ca3d aca8 fbbc 6f33 da3d
000003a0: 689a 33bd ab68 9e3d 1a6e 90bb 1309 2a3c
000003b0: 7ffa 7abd 6ebf e3bc 556b 483d 949f adbd
000003c0: 7f44 18be 1641 70bd 15f7 773c 54dd a93d
000003d0: f0da a1bd c373 e4bc 6ccc d8bc d7a5 c33d
000003e0: 1c18 47bd af8b 0abe 3f76 a0bd 1bbd 25bb
000003f0: dfd6 d13c 0665 2aba fd28 1f3d 4bd3 453e

network_body._body_endoder.seq_layers.0.bias f4 [256]
-0.038187854 -0.0044701057 -0.031131994 -0.01283212 -0.003445192 -0.009450072 0.0005561827 0.008008035
0.001582256 -0.007120528 0.018767847 -0.028827881 -0.023012087 0.04723423 0.007901586 0.018394468
-0.0029039453 -0.008868174 -0.0053288117 -0.025954485 0.0036595254 0.020758843 -0.01652934 0.042338524
0.0074005574 0.032724157 -0.045279063 -0.0015902525 0.01317162 -0.013126744 -0.02446695 0.01939725
-0.0072830557 0.02513936 -0.0006818664 0.0014424918 -0.03340082 -0.02517013 -0.020747498 -0.008413793
-0.00065019104 -0.012211962 0.04708717 0.0031968986 -0.00897373 0.016002212 -0.014944984 -0.009532995
-0.028659575 0.014566437 -0.029212214 0.0128235305 0.017244853 -0.0054579973 -0.014533403 -0.0046394793
-0.025783032 0.0036460806 0.0077283606 -0.014578534 0.020157654 0.028989008 -0.020269506 0.019365208
0.014323781 0.0056646736 -0.018665241 0.026144838 -0.036969725 -0.024989834 0.00052850443 -0.008301666
-0.021531187 -0.016564306 -0.008640045 -0.00982397 0.04432536 -0.03300957 -0.0055502127 0.012242731
-0.01919565 -0.01697902 -0.019240376 -0.028661953 -0.009197045 -0.013463595 -0.011793415 -0.013902252
0.0016883571 -0.031960074 0.013743524 -0.018466674 -0.008935411 -0.008241856 0.0029126895 -0.00903634
0.005539575 -0.008523028 -0.008049009 0.014383894 0.002651281 -0.006500922 -0.033711836 -0.0079849465
0.018617464 -0.023799112 0.0026932694 -0.016572632 -0.023047177 -0.007875465 0.007897579 0.012574428
-0.01711766 -0.008542051 -0.03484736 -0.0110473065 -0.020640524 0.031602927 -0.0083722975 0.012413886
-0.053088665 -0.0250934 0.009866713 -0.00142933 -0.005073416 0.0037686797 0.01156525 -0.012349233
0.009565827 -0.028948328 -0.021397213 -0.01131712 0.005815069 -0.021775654 0.030555597 -0.044425055
-0.005154921 0.021068674 -0.014546482 -0.038671438 -0.0076949545 -0.0069553195 -0.0027140232 0.009326548
-0.007441196 -0.03081153 -0.026863988 -0.0051850337 0.0074451435 -0.018747475 -0.01740365 0.001614034
0.032875847 0.017786182 -0.003182995 0.0025339294 -0.007977014 -0.0071598273 -0.02098772 -0.018215759
0.0061108805 0.0029678026 -4.0210107e-05 -0.01086865 -0.014591905 -0.029624576 0.004451694 0.005581133
-0.029301995 0.017085543 -0.04225644 0.03250867 -0.004187584 -0.0138953915 0.049345974 -0.011172781
0.0035022837 -0.0061395825 -0.0066956864 0.017999534 -0.00076333334 -0.024828631 -0.024595318 -0.017870521
-0.022640869 0.015460935 -0.010023257 -0.018341005 -0.018674573 -0.010980021 0.02318961 -0.020188691
-0.00073678675 0.004165444 -0.014485601 -0.03578219 -0.03310361 -0.027820079 0.025064467 0.01695744
0.016293151 -0.014635892 -0.024442183 -0.006187297 -0.0076699415 -0.04146449 0.005709404 0.006965181
-0.010170846 0.0048059938 -0.021253005 0.013245008 0.0092163365 0.006799855 0.026349425 0.04500907
-0.00027756844 -0.012459846 -0.040882424 0.042380653 -0.03758229 0.036480583 -0.019389464 -0.007741419
-0.012730023 0.007285881 0.021433318 0.015813485 0.008737454 -0.018821238 -0.008708736 0.017675696
-0.017588515 0.014959896 -0.008409167 -0.05441007 -0.035477366 -0.014246769 -0.0092111295 -0.0012282775
-0.011041546 0.016532253 -0.027221791 0.022476856 -0.00948694 -0.027011951 -0.011699329 -0.014052313
-0.01978815 -0.008346415 -0.0018898905 0.0089134695 0.008062763 -0.0141404 0.012939715 -0.018491542
00000000: de6a 1cbd f779 92bb 8608 ffbc d03d 52bc
00000010: bbc8 61bb 7ad4 1abc cacc 113a 2234 033c
00000020: b463 cf3a 5153 e9bb 07bf 993c 7328 ecbc
00000030: d883 bcbc ae78 413d a775 013c ffaf 963c
00000040: 1e50 3ebb d14b 11bc 509d aebb 809e d4bc
00000050: a6d4 6f3b 730e aa3c 8a68 87bc 296b 2d3d
00000060: 6080 f23b c409 063d 8a76 39bd 0570 d0ba
00000070: c7cd 573c 8e11 57bc ea6e c8bc fbe6 9e3c
00000080: b3a6 eebb 0ff1 cd3c 48bf 32ba fe11 bd3a
00000090: 4ccf 08bd 9731 cebc a8f6 a9bc 01da 09bc
000000a0: 9571 2aba ae14 48bc 7ade 403d 0f83 513b
000000b0: 8d06 13bc 1217 833c cedb 74bc 4730 1cbc
000000c0: 7cc7 eabc 11a8 6e3c 744e efbc c919 523c
000000d0: 1445 8d3c 00d9 b2bb 831d 6ebc c606 98bb
000000e0: f036 d3bc 15f3 6e3b 303e fd3b ceda 6ebc
000000f0: aa21 a53c 5b7a ed3c 3c0c a6bc c9a3 9e3c
00000100: 4bae 6a3c ba9e b93b d9e7 98bc b32d d63c
00000110: 916d 17bd 7bb7 ccbc 558b 0a3a b603 08bc
00000120: 2c62 b0bc deb1 87bc fa8e 0dbc b7f4 20bc
00000130: 828e 353d 0b35 07bd 8fde b5bb bc95 483c
00000140: 3240 9dbc 9617 8bbc fe9d 9dbc 79cc eabc
00000150: 34af 16bc 6996 5cbc 2b39 41bc 45c6 63bc
00000160: dd4b dd3a 91e8 02bd 852c 613c 6c47 97bc
00000170: d565 12bc d908 07bc d2e2 3e3b 280d 14bc
00000180: 5385 b53b 2ca4 0bbc fedf 03bc 6daa 6b3c
00000190: 1dc1 2d3b b005 d5bb 6c15 0abd 4bd3 02bc
000001a0: a783 983c 5bf6 c2bc 9081 303b 54c3 87bc
000001b0: 6fcd bcbc 1808 01bc d964 013c f904 4e3c
000001c0: 563a 8cbc f5f3 0bbc 1bbc 0ebd c3ff 34bc
000001d0: 5116 a9bc 1272 013d f62b 09bc 9d63 4b3c
000001e0: 8073 59bd ad90 cdbc fea7 213c 5b58 bbba
000001f0: e63e a6bb f4fb 763b 2d7c 3d3c 7054 4abc
00000200: fdb9 1c3c 0b25 edbc 3549 afbc 716b 39bc
00000210: 568c be3b db62 b2bc bb4f fa3c 0cf7 35bd
00000220: 9dea a8bb 3698 ac3c 5e54 6ebc f165 1ebd
00000230: f525 fcbb 73e9 e3bb c1dd 31bb 61ce 183c
00000240: 47d5 f3bb 7668 fcbc de11 dcbc 37e7 a9bb
00000250: 64f6 f33b 4e94 99bc 1992 8ebc fe8d d33a
00000260: d3a8 063d 54b4 913c cb99 50bb 4810 263b
00000270: 06b2 02bc fc9c eabb 70ee abbc 3739 95bc
00000280: c83d c83b 777f 423b 46a7 28b8 6c12 32bc
00000290: e312 6fbc 3daf f2bc 84df 913b f0e1 b63b
000002a0: bd0a f0bc fbf6 8b3c 1715 2dbd d027 053d
000002b0: 0038 89bb 7fa9 63bc 011f 4a3d 0a0e 37bc
000002c0: 9286 653b 8d2e c9bb 7d67 dbbb c273 933c
000002d0: 6f1a 48ba 6a65 cbbc 1f7c c9bc 3365 92bc
000002e0: 5879 b9bc dd4f 7d3c 9638 24bc e03f 96bc
000002f0: 6bfb 98bc 8ce5 33bc 23f8 bd3c c162 a5bc
00000300: ec24 41ba 477e 883b 0455 6dbc 5890 12bd
00000310: a797 07bd efe6 e3bc ff53 cd3c 54ea 8a3c
00000320: 3779 853c 61cb 6fbc f93a c8bc cfbe cabb
00000330: 2254 fbbb abd6 29bd f415 bb3b 2c3c e43b
00000340: 9fa3 26bc 997b 9d3b c81a aebc 9701 593c
00000350: 1e00 173c 51d1 de3b c0da d73c 6e5b 383d
00000360: 9b86 91b9 6224 4cbc 5474 27bd 5697 2d3d
00000370: e3ef 19bd aa6c 153d a7d6 9ebc bbab fdbb
00000380: 9691 50bc 66be ee3b ed94 af3c 488b 813c
00000390: 8a27 0f3c ff2e 9abc 16af 0ebc 9fcc 903c
000003a0: ca15 90bc 5a1a 753c 9ac6 09bc 18dd 5ebd
000003b0: b750 11bd 486b 69bc 47ea 16bc 27fe a0ba
000003c0: 9ae7 34bc a66e 873c 3c00 dfbc 6221 b83c
000003d0: 1c6f 1bbc 2b48 ddbc 8bae 3fbc ac3b 66bc
000003e0: c21a a2bc 67bf 08bc 34b6 f7ba cd09 123c
000003f0: ae19 043c 23ad 67bc 1901 543c 937b 97bc

network_body._body_endoder.seq_layers.2.weight f4 [256, 256]
0.06526171 0.041660376 0.054060932 0.069534004 0.12440605 -0.06729902 0.04091989 0.14388524
0.1252226 -0.009863803 -0.010620944 -0.025165025 0.07495091 -0.09619561 -0.05085935 0.05633281
-0.024581589 -0.08069376 0.05914683 0.041219432 0.10455235 -0.09885907 -0.05341938 -0.029859263
0.051115002 -0.062790714 -0.08673377 -0.07814168 0.08005221 0.23444222 0.057706106 -0.0042657834
-0.06291665 -0.024659518 -0.023342732 0.043922927 -0.05350408 -0.004234077 -0.027229723 -0.045257952
-0.10210655 0.045917273 -0.04825973 -0.03388018 0.03911815 0.04917749 0.020148296 0.05300717
-0.04933873 -0.0832211 -0.1695541 -0.08945536 -0.075026155 -0.005151791 0.014261175 0.016813645
-0.03550548 -0.007807063 -0.13680814 -0.0039545926 0.046917014 -0.06677718 0.121274956 0.16076398
-0.1313742 -0.05430135 -0.045637175 0.009102078 0.08206096 -0.03291518 0.003283723 -0.028388904
0.0031315982 0.07823196 0.006337613 0.0975653 -0.048805796 0.001170451 -0.047841694 0.09133978
0.072157174 0.028036842 -0.10685627 -0.018667653 0.053992573 -0.06788738 0.0031550927 -0.04505025
-0.048605908 -0.14690936 -0.046617076 0.04570647 0.02066369 -0.028493565 0.05515332 -0.040101286
0.059280857 0.07097876 0.055396132 -0.01671986 -0.08629886 -0.02131081 0.09143837 -0.044571687
-0.055239636 0.020188851 -0.004157287 -0.014229291 0.100387454 -0.045552988 -0.04959287 0.030217534
0.11683691 -0.033822514 -0.056795735 0.14468497 -0.07257303 -0.2616824 0.0215913 0.009273181
0.034974698 0.098470606 -0.025636492 -0.042966157 -0.044681575 0.058744464 -0.05136899 0.06992798
0.0018353658 0.02953112 0.0002647443 -0.07813154 0.0070097367 0.007574716 0.13790831 -0.026549054
-0.09364954 -0.006620131 0.01590636 -0.00363021 0.16499871 -0.02511183 -0.022590252 -0.020171981
-0.059595734 0.055412907 -0.14937748 0.0043512355 0.05771383 -0.10017696 -0.036361393 -0.039234824
-0.072913386 0.0697147 0.044925626 -0.006365827 -0.05990218 -0.05753032 -0.06955113 0.03002303
0.028124562 0.10768744 0.06866955 -0.16106838 0.041852217 0.03790072 -0.031371303 0.044585302
-0.05301455 -0.08923528 0.10347771 -0.031196473 -0.026582856 -0.033697397 0.031105626 -0.039308675
-0.064315334 0.12414269 0.014583115 -0.0032238993 0.08927173 -0.032740124 -0.035331007 0.12024813
0.037149128 -0.13594718 -0.106756896 -0.012684091 -0.08975138 0.0089245485 0.017181022 -0.017378256
-0.034964845 0.03728603 0.063923515 -0.010470776 -0.02317729 0.012174009 0.07839933 -0.06644911
0.038985416 -0.0159108 -0.03439674 0.053242624 -0.02618062 0.08571375 -0.053849142 0.0032144322
0.061456513 0.089394525 0.009330632 0.10420126 0.0154942805 -0.12752004 0.11000057 0.046639375
0.033705596 -0.050664417 0.056990534 -0.12083995 -0.0049599926 -0.0664698 0.076318555 -0.027257813
0.057197094 -0.036441233 0.024390288 -0.04598469 -0.05006981 0.0577402 0.01844839 0.049359605
0.027188428 -0.1479551 -0.080535375 -0.030595573 0.015611331 0.039739538 -0.06665889 0.09919466
-0.019576708 -0.09354258 -0.022687174 -0.00962935 -0.018034225 -0.18422763 -0.04086955 0.007474209
0.093673676 -0.05517131 -0.080376536 -0.028750071 -0.044382066 -0.070638694 0.0057790517 -0.04703272
00000000: eea7 853d 12a4 2a3d ff6e 5d3d d867 8e3d
00000010: 99c8 fe3d 12d4 89bd 9d9b 273d a756 133e
00000020: 5a3a 003e ca9b 21bc 7803 2ebc e226 cebc
00000030: dd7f 993d 3402 c5bd e551 50bd 3cbd 663d
00000040: 545f c9bc c542 a5bd f243 723d b5d5 283d
00000050: 8b1f d63d a076 cabd 48ce 5abd 6a9b f4bc
00000060: f75d 513d 6b98 80bd 7aa1 b1bd bf08 a0bd
00000070: 6af2 a33d 9f11 703e 3d5d 6c3d fcc7 8bbb
00000080: 72da 80bd c202 cabc 4239 bfbc 87e8 333d
00000090: 1827 5bbd 03be 8abb de10 dfbc 6760 39bd
000000a0: 3d1d d1bd c013 3c3d ffab 45bd f2c5 0abd
000000b0: 5a3a 203d 566e 493d 0a0e a53c 0c1e 593d
000000c0: 6817 4abd d36f aabd 979f 2dbe 5f34 b7bd
000000d0: 50a7 99bd 5bd0 a8bb b4a7 693c c5bc 893c
000000e0: 326e 11bd 64d2 ffbb 6f17 0cbe 8795 81bb
000000f0: 0e2c 403d 79c2 88bd 015f f83d 509f 243e
00000100: f586 06be 186b 5ebd 0cee 3abd e220 153c
00000110: 940f a83d 11d2 06bd bb33 573b d98f e8bc
00000120: 803b 4d3b 1438 a03d c0ab cf3b 51d0 c73d
00000130: 96e8 47bd d269 993a a7f5 43bd 5a10 bb3d
00000140: 24c7 933d 85ad e53c 76d7 dabd e8ec 98bc
00000150: 5127 5d3d 8a08 8bbd acc5 4e3b 9c86 38bd
00000160: fd16 47bd 686f 16be 8cf1 3ebd b536 3b3d
00000170: e646 a93c 566b e9bc 73e8 613d 3f41 24bd
00000180: 7cd0 723d 505d 913d 0ee7 623d 16f8 88bc
00000190: 75bd b0bd 0294 aebc 0a44 bb3d cd90 36bd
000001a0: f542 62bd 1763 a53c da39 88bb f921 69bc
000001b0: f097 cd3d c595 3abd e521 4bbd c38a f73c
000001c0: 3148 ef3d 7a89 0abd a5a2 68bd 4c28 143e
000001d0: 2ba1 94bd 3cfb 85be 3de0 b03c 8aee 173c
000001e0: a141 0f3d f5aa c93d 9f03 d2bc 48fd 2fbd
000001f0: 0704 37bd 099e 703d 4a68 52bd 6736 8f3d
00000200: a890 f03a 3feb f13c 61cd 8a39 6e03 a0bd
00000210: efb1 e53b 5335 f83b d637 0d3e 677d d9bc
00000220: 54cb bfbd afed d8bb 0e4e 823c d1e8 6dbb
00000230: 6cf5 283e 53b7 cdbc 310f b9bc b63f a5bc
00000240: a81a 74bd a5f8 623d 69f6 18be cf94 8e3b
00000250: 5665 6c3d 9429 cdbd afef 14bd b2b4 20bd
00000260: 9d53 95bd 95c6 8e3d ef03 383d 6d98 d0bb
00000270: fd5b 75bd eaa4 6bbd d370 8ebd dbf2 f53c
00000280: 7b65 e63c 3c8b dc3d 9fa2 8c3d 1cef 24be
00000290: 3b6d 2b3d c93d 1b3d 327f 00bd 149f 363d
000002a0: c925 59bd fdc0 b6bd 1fec d33d bf8f ffbc
000002b0: 4ac4 d9bc 4806 0abd 3ad1 fe3c 2202 21bd
000002c0: c2b7 83bd 863e fe3d 04ee 6e3c 0e48 53bb
000002d0: 19d4 b63d 821a 06bd 3fb7 10bd a744 f63d
000002e0: af29 183d bd35 0bbe 5ca3 dabd efd0 4fbc
000002f0: 92cf b7bd 4538 123c 37bf 8c3c d85c 8ebc
00000300: 4c37 0fbd 3cb9 183d 55ea 823d 9e8d 2bbc
00000310: 4dde bdbc 7f75 473c d48f a03d 7916 88bd
00000320: 2caf 1f3d 5e57 82bc 99e3 0cbd f014 5a3d
00000330: bd78 d6bc b18a af3d eb90 5cbd 39a9 523b
00000340: d3b9 7b3d 7a14 b73d 82df 183c 7867 d53d
00000350: b9db 7d3c 9d94 02be fb47 e13d ee08 3f3d
00000360: e10e 0a3d 7e85 4fbd e86e 693d f07a f7bd
00000370: 6f87 a2bb 5221 88bd e74c 9c3d c74b dfbc
00000380: 8047 6a3d 6743 15bd 24ce c73c 715a 3cbd
00000390: 0016 4dbd fd80 6c3d 1421 973c 4c2d 4a3d
000003a0: 44ba de3c 8b81 17be bbef a4bd 91a3 fabc
000003b0: abc6 7f3c edc5 223d 7584 88bd 9226 cb3d
000003c0: 555f a0bc 4193 bfbd 74da b9bc 6cc4 1dbc
000003d0: 83bc 93bc 2ba6 3cbe d466 27bd 36ea f43b
000003e0: fcd7 bf3d 50fb 61bd 749c a4bd 4585 ebbc
000003f0: f8c9 35bd 05ab 90bd 335e bd3b 62a5 40bd

network_body._body_endoder.seq_layers.2.bias f4 [256]
-0.023042336 -0.01742716 0.005924804 -0.0105526345 -0.01738304 0.00027420206 -0.0021698452 0.008292325
-0.0041919695 -0.0026877047 -0.02529277 -0.0096882 0.008982697 0.023399686 0.0018700239 -0.016634904
0.0070013646 0.013223643 -0.0038268475 0.02128563 -0.009174083 -0.015660796 0.003482746 -0.0361379
-0.028521683 -0.004620942 -0.001815866 0.009315613 0.014910431 -0.0123489285 -0.0010001264 0.017816259
0.03100767 -0.0010125992 -0.015792834 0.008154509 -0.009653035 -0.008310013 -0.028147193 0.008459564
-0.0012814768 -0.0053265677 -0.047463775 -0.028044239 0.018667974 0.011218263 0.013992576 -0.0019326613
-0.02492385 -0.0063924408 -0.0071020597 -0.020809896 -0.006456413 -0.017691072 -0.026868813 -0.01015776
-0.015851371 -0.0040651727 0.005616044 -0.023346625 -0.00021546429 -0.015537538 -0.025862157 -0.0028856664
-0.028571375 0.0005542752 0.008949988 0.00030563428 -0.016465142 -0.010274528 -0.007645992 -0.017511949
0.0066040456 -0.03871193 -0.010902764 0.014563719 -0.025612444 -0.020121656 0.028180491 0.016618514
0.00986333 0.009067563 -0.0018741806 0.031881545 -0.026892263 0.009033696 0.0052667777 -0.007613702
0.030896375 -0.0062997798 -0.01940679 0.0027816235 -0.0143949175 -0.020925835 -0.0046275365 -0.00469612
-0.019982545 -0.009528547 0.0005548033 -0.016272683 0.042870235 -0.018671101 0.0011852864 0.0032184212
-0.0037142092 -0.03203415 -0.015129792 0.005017816 0.004060724 -0.004919108 -0.012840452 0.018573703
-0.024273355 0.032585092 -0.0064015584 -0.005792846 0.017007612 0.009027914 0.019079879 0.004615161
-0.021998076 -0.0049121715 -0.012404418 0.015662896 0.0035134784 -0.02139099 0.02162092 0.008353752
0.010353594 -0.0013734804 0.014686502 0.016389128 -0.00314212 -0.014010501 -0.016586026 0.008653823
0.03914846 -0.014687842 -0.003463788 -0.014107114 -0.012609471 -0.002507679 -0.027526302 -0.022684153
-0.015346265 -0.004493075 -0.023864876 -0.014832066 -0.0064453837 -0.01810979 -0.017336698 0.011275728
-0.020036845 0.014498687 -0.02133462 -0.020665891 -0.027473088 -0.033772785 0.02299621 -0.005473653
-1.4307901e-05 0.009259902 -0.013817798 0.017505039 -0.025892688 0.035587773 0.0048730103 -0.009675246
0.014865079 -0.032125995 -0.015140277 0.008096931 -0.0024451 -0.022038244 -0.016049268 -0.019748218
0.015002323 0.00029302776 0.026588766 -0.012813874 0.027051998 -0.015488651 -0.0034639784 0.06663814
0.006940354 -0.009140735 0.0036529016 0.024584414 -0.021456782 -0.005326893 -0.005658693 0.030471686
-0.02265038 0.017987745 -0.026554657 -0.0001055133 -0.00044206792 -0.0068133767 -0.0051216013 -0.010166157
0.002230686 -0.0026797287 -0.011908278 -0.022602098 0.008158695 -0.019280476 0.034804683 -0.038302537
-0.010253702 0.010336301 -0.018080074 -0.014919716 0.022155862 -0.008624188 -0.02805409 -0.030247873
0.0031010138 0.0011772482 0.034739546 -0.027095336 -0.02311152 -0.005420027 -0.0131184915 -0.005342119
0.020525977 -0.0020503292 0.0010601225 0.029328452 0.0026992566 -0.015230251 0.0178376 -0.0059298943
0.014869885 0.004423627 -0.01177838 -0.022637662 -0.026731204 -0.01791357 -0.007506825 -0.0030051148
-0.011212408 -0.02962323 -0.012033281 -0.0005322755 -0.011308905 -0.0018292773 0.018805128 -0.026004128
-0.00015335674 -0.01565952 -0.024861714 0.0009982828 0.0037203329 -0.0056542982 -0.010838325 0.010202849
00000000: 48c3 bcbc 67c3 8ebc dc24 c23b f5e4 2cbc
00000010: e166 8ebc c7c2 8f39 f633 0ebb 88dc 073c
00000020: ca5c 89bb 3424 30bb c832 cfbc 42bb 1ebc
00000030: 292c 133c b3b0 bf3c 971b f53a ec45 88bc
00000040: b46b e53b fba7 583c d9cb 7abb 345f ae3c
00000050: e54e 16bc 124b 80bc c83e 643b 5605 14bd
00000060: 4ea6 e9bc 456b 97bb 5a02 eeba 83a0 183c
00000070: e14a 743c 2953 4abc ac16 83ba 67f3 913c
00000080: cc03 fe3c 31b9 84ba f95f 81bc 7d9a 053c
00000090: c327 1ebc b926 08bc f194 e6bc fc99 0a3c
000000a0: 3af7 a7ba 7d8a aebb 6069 42bd 08bd e5bc
000000b0: 94ed 983c cecc 373c 1e41 653c 5a51 fdba
000000c0: 1a2d ccbc ae77 d1bb 65b8 e8bb 8479 aabc
000000d0: 5190 d3bb deec 90bc fc1b dcbc bc6c 26bc
000000e0: bcda 81bc 2435 85bb cb06 b83b 6c41 bfbc
000000f0: 41ee 61b9 2891 7ebc e0dc d3bc 731d 3dbb
00000100: 840e eabc c74c 113a f8a2 123c 8a3d a039
00000110: e8e1 86bc 7e56 28bc 3b8b fabb 3875 8fbc
00000120: c066 d83b 6790 1ebd 82a1 32bc aa9c 6e3c
00000130: 30d1 d1bc 2cd6 a4bc c6da e63c 8d23 883c
00000140: ce99 213c 1e90 143c 11a7 f5ba 3996 023d
00000150: 2a4d dcbc 1102 143c ef94 ac3b 5d7c f9bb
00000160: 651a fd3c 626e cebb fdfa 9ebc e64b 363b
00000170: a9d8 6bbc a86c abbc 97a2 97bb e9e1 99bb
00000180: 6fb2 a3bc 9f1d 1cbc 3870 113a 4a4e 85bc
00000190: b398 2f3d 23f4 98bc 9d5b 9b3a 26ec 523b
000001a0: 176a 73bb 3e36 03bd f2e2 77bc 7e6c a43b
000001b0: d20f 853b 7830 a1bb c260 52bc e127 983c
000001c0: ead8 c6bc f277 053d 2ac4 d1bb ead1 bdbb
000001d0: 8c53 8b3c d1e9 133c 684d 9c3c c73a 973b
000001e0: 4f35 b4bc 48f6 a0bb e63b 4bbc 794f 803c
000001f0: 6342 663b 283c afbc 5b1e b13c 2dde 083c
00000200: 1fa2 293c 5b06 b4ba a79f 703c 7e42 863c
00000210: 07ec 4dbb 4d8c 65bc 6bdf 87bc c4c8 0d3c
00000220: 235a 203d 46a5 70bc b800 63bb 8621 67bc
00000230: f497 4ebc df57 24bb d77e e1bc 1ed4 b9bc
00000240: e76e 7bbc a53a 93bb 4680 c3bc 3202 73bc
00000250: cc33 d3bb fb5a 94bc b105 8ebc d5bd 383c
00000260: 4f24 a4bc e78b 6d3c f1c5 aebc 844b a9bc
00000270: 3e0f e1bc 5555 0abd 8c62 bc3c 545c b3bb
00000280: f80b 70b7 d8b6 173c 0c64 62bc ba66 8f3c
00000290: e71c d4bc 7cc4 113d c6ad 9f3b ec84 1ebc
000002a0: a98c 733c 8c96 03bd ed0e 78bc fda8 043c
000002b0: f93d 20bb 8c89 b4bc c179 83bc 04c7 a1bc
000002c0: 4ecc 753c 85a1 9939 afd0 d93c 48f1 51bc
000002d0: 279c dd3c 1cc4 7dbc ea03 63bb 9479 883d
000002e0: e96b e33b 05c3 15bc 8565 6f3b 4165 c93c
000002f0: 22c6 afbc 388d aebb 8f6c b9bb c29f f93c
00000300: 4a8d b9bc 095b 933c 2789 d9bc 0647 ddb8
00000310: 5ac5 e7b9 bf42 dfbb 1bd3 a7bb f48f 26bc
00000320: b330 123b 639e 2fbb f01a 43bc 0928 b9bc
00000330: 0cac 053c 17f2 9dbc 5b8f 0e3d 1fe3 1cbd
00000340: 25ff 27bc 9759 293c aa1c 94bc d371 74bc
00000350: 3680 b53c 774c 0dbc b1d1 e5bc 63ca f7bc
00000360: 613a 4b3b e54d 9a3a 0e4b 0e3d 0af7 ddbc
00000370: 5f54 bdbc 7b9a b1bb f1ee 56bc f10c afbb
00000380: 1826 a83c d15e 06bb cff3 8a3a 3942 f03c
00000390: 03e6 303b 4d88 79bc 2920 923c 8f4f c2bb
000003a0: d1a0 733c 13f4 903b 1bfa 40bc 9e72 b9bc
000003b0: 66fb dabc 7bbf 92bc d0fb f5bb 76f1 44bb
000003c0: 3fb4 37bc 6bac f2bc 3d27 45bc 6788 0bba
000003d0: fc48 39bc 5cc4 efba 360d 9a3c 9c06 d5bc
000003e0: 63ce 20b9 6548 80bc cbaa cbbc d0d8 823a
000003f0: d4d0 733b b147 b9bb 3b93 31bc da29 273c

action_model._discrete_distribution.branches.0.weight f4 [4, 256]
0.022796506 0.026543016 -0.012704864 0.0030373863 0.027607799 0.029020092 -0.008119081 -0.02944009
0.0043879626 0.018731918 -0.0033718124 0.01240465 -0.022351986 -0.036325518 0.004089273 0.037521195
0.017983597 -0.023918787 0.008702568 -0.014634023 0.014478413 0.0040869797 -0.013505433 -0.01582719
0.036008596 -0.003192236 0.009301576 -0.02342709 0.0027969296 -0.014941154 0.043206777 -0.018078193
-0.02226211 0.030098509 0.036327332 -0.012935717 -0.01251792 0.011189446 0.0048158816 0.025856834
-0.01901691 0.026526997 0.01870414 0.0025366093 -0.0080737695 -0.024206165 -0.00927536 -0.006586059
0.03139778 0.008350592 -0.00021809578 0.019801972 -0.006068983 -0.0021505128 -0.010459161 0.01287333
0.0032241247 0.0070427465 -0.011851085 0.0026344701 0.025707573 0.022144757 0.012238294 -0.011839176
-0.0012135596 0.03669196 -0.016801778 -0.031014761 -0.00077197386 0.023861144 0.04763661 0.029283267
-0.008143772 0.0045259004 -0.000104599196 -0.012478095 0.033820935 0.016809827 0.028752573 -0.014135035
-0.010334624 0.059159357 -0.025689764 -0.022023583 0.020909732 0.046439927 0.01584122 -0.0048463144
-0.020059528 0.0089817885 0.039088625 -0.006906871 0.008828836 0.0068551716 0.019202122 0.013596631
0.0047415737 0.026743848 -0.01195032 0.01840724 0.016964274 0.02013824 0.05840821 -0.0027213865
0.014242201 0.012690032 -0.017177058 -0.016637443 -0.034052275 0.027713615 -0.019762717 0.00589991
0.019984372 0.045407157 0.03486211 0.013826411 -0.008561623 0.0014038417 -0.04650773 -0.041976262
-0.0033627222 -0.004786286 -0.015056788 -0.024171552 -0.005274904 0.014169528 -0.013298852 -0.021224054
-0.018583076 0.016722048 0.008912912 -0.01974555 -0.00619573 0.0073409076 0.025021022 0.025668364
-0.010006899 0.004798714 0.041235577 0.008265414 -0.0019199967 0.008989308 0.00037771746 0.0147281885
0.007161236 -0.012202022 -0.006895095 0.02995437 -0.013818571 -0.01654017 0.013999314 0.03693532
0.0014827942 -0.00852779 0.020581014 0.03815793 0.027284632 0.0096644685 -0.03407094 -0.019305212
-0.041818988 -0.024651682 0.015579018 0.0050830455 0.020696241 -0.017535001 0.06606654 -0.004779291
0.039145812 -0.003856933 0.028959652 0.025974777 -0.018351829 0.03550069 0.00922186 -0.0017477137
-0.012336688 0.013456093 -0.02195385 -0.014823714 -0.017206425 -0.01024398 0.02445828 -0.028104657
-0.0059961025 0.0030309716 0.0074411603 -0.012030102 -0.015753439 -0.02281146 -0.014526648 -0.013146469
0.018891992 -0.041090954 0.004150359 -0.011761249 -0.013963145 -0.004593185 0.009015983 -0.00980437
-0.01558635 -0.010761513 0.01715238 0.020430125 0.028262578 -0.028780585 -0.034702715 0.01036887
0.050005704 -0.0035773339 0.020793816 0.034834176 0.000121566074 -0.025694419 -0.0045555476 0.01940158
-0.020238975 0.028778942 0.002211109 0.016559493 0.028478334 0.012035937 -0.0045735035 0.029693244
-0.021083057 -0.0088074 -0.0012055975 0.012579148 0.019803237 0.04628681 -0.010158737 -0.040026955
-0.011511449 0.0096882675 -0.0010079924 0.00090809265 0.028770316 0.03212988 -0.0066317543 -0.011823145
-0.015167217 0.03578506 0.023224998 -0.00702286 0.013530709 0.024525004 -0.035106108 -0.0049768384
-0.010774221 0.001608421 0.03519809 -0.029643053 0.031585764 -0.012749561 0.02887809 0.010761446
00000000: bdbf ba3c bd70 d93c 1028 50bc e30e 473b
00000010: c029 e23c 8bbb ed3c e505 05bc 582c f1bc
00000020: e6c8 8f3b ae73 993c a0f9 5cbb e03c 4b3c
00000030: 831b b7bc 11ca 14bd 4fff 853b d3af 193d
00000040: 5652 933c 55f1 c3bc 3795 0e3c 8bc3 6fbc
00000050: de36 6d3c 12ec 853b e445 5dbc 06a8 81bc
00000060: c07d 133d d534 51bb a365 183c 2bea bfbc
00000070: b14c 373b becb 74bc 97f9 303d b818 94bc
00000080: 075f b6bc 2691 f63c f8cb 143d 54f0 53bc
00000090: f617 4dbc f053 373c 8bce 9d3b b6d1 d33c
000000a0: 5ac9 9bbc 254f d93c 6d39 993c 3e3d 263b
000000b0: d847 04bc 024c c6bc aef7 17bc decf d7bb
000000c0: f59a 003d ecd0 083c a4b0 64b9 bf37 a23c
000000d0: 52de c6bb 9eef 0cbb e75c 2bbc a9ea 523c
000000e0: d64b 533b d7c6 e63b 0e2b 42bc 13a7 2c3b
000000f0: b098 d23c ec68 b53c 2083 483c 1af9 41bc
00000100: 4e10 9fba 4f4a 163d e2a3 89bc ab12 febc
00000110: 4a5e 4aba 7278 c33c 9b1e 433d 76e3 ef3c
00000120: 756d 05bc 014e 943b 445c dbb8 ec70 4cbc
00000130: d287 0a3d c3b4 893c 848a eb3c a296 67bc
00000140: 8e52 29bc 1551 723d 5773 d2bc cd6a b4bc
00000150: e34a ab3c cb37 3e3d 72c5 813c d5cd 9ebb
00000160: e153 a4bc 5a28 133c 651b 203d 0953 e2bb
00000170: d2a6 103c 59a1 e03b c54d 9d3c 67c4 5e3c
00000180: 345f 9b3b ea15 db3c 46cb 43bc c8ca 963c
00000190: a9f8 8a3c f3f8 a43c 723d 6f3d 4a59 32bb
000001a0: 1f58 693c dae9 4f3c e7b6 8cbc 3f4b 88bc
000001b0: 667a 0bbd aa07 e33c 6ce5 a1bc 0854 c13b
000001c0: 44b6 a33c dbfc 393d 92cb 0e3d 2c88 623c
000001d0: 0d46 0cbc 1c01 b83a e47e 3ebd 4def 2bbd
000001e0: 1e61 5cbb 47d6 9cbb bfb0 76bc 6b03 c6bc
000001f0: 1ad9 acbb 4f27 683c 6ee3 59bc 11de adbc
00000200: 893b 98bc adfc 883c 7607 123c 6bc1 a1bc
00000210: 8d05 cbbb ff8b f03b e3f8 cc3c 7646 d23c
00000220: faf3 23bc 883e 9d3b a3e6 283d a96b 073c
00000230: 66a8 fbba e447 133c 6108 c639 804e 713c
00000240: cda8 ea3b fdea 47bc 40f0 e1bb de62 f53c
00000250: 4a67 62bc 407f 87bc 615d 653c 7d49 173d
00000260: 515a c23a 25b8 0bbc 8499 a83c 7d4b 1c3d
00000270: 0584 df3c b857 1e3c f88d 0bbd f725 9ebc
00000280: 634a 2bbd 53f2 c9bc 233f 7f3c ad8f a63b
00000290: 2a8b a93c 90a5 8fbc e54d 873d 999b 9cbb
000002a0: 5c57 203d 99c4 7cbb cb3c ed3c 0ec9 d43c
000002b0: 9356 96bc 2c69 113d 4917 173c 8a13 e5ba
000002c0: d21f 4abc f276 5c3c 8fd8 b3bc 2adf 72bc
000002d0: 7df4 8cbc 5ed6 27bc bb5c c83c bd3b e6bc
000002e0: f47a c4bb 44a3 463b fad4 f33b e819 45bc
000002f0: 5b0d 81bc 19df babc 2e01 6ebc 4a64 57bc
00000300: 61c3 9a3c fd4e 28bd bcff 873b 41b2 40bc
00000310: adc5 64bc 6e82 96bb c6b7 133c 82a2 20bc
00000320: e45d 7fbc 0f51 30bc 2683 8c3c 145d a73c
00000330: ec86 e73c 43c5 ebbc 6f24 0ebd 31e2 293c
00000340: c8d2 4c3d b471 6abb cb57 aa3c 48ae 0e3d
00000350: 4af1 fe38 1a7d d2bc b446 95bb 10f0 9e3c
00000360: 35cc a5bc d1c1 eb3c 41e8 103b c6a7 873c
00000370: 654b e93c 6132 453c 54dd 95bb 3f3f f33c
00000380: 60b6 acbc ea4c 10bc 2405 9eba c518 4e3c
00000390: 663a a23c 3d97 3d3d d570 26bc 4ef3 23bd
000003a0: 849a 3cbc 8abb 1e3c 9d1e 84ba 110d 6e3a
000003b0: baaf eb3c 9f9a 033d 304f d9bb ddb5 41bc
000003c0: eb7f 78bc 5b93 123d 5a42 be3c 0520 e6bb
000003d0: e8af 5d3c a9e8 c83c 6ccb 0fbd bf14 a3bb
000003e0: 5c86 30bc a7d1 d23a df2b 103d fdd5 f2bc
000003f0: 1360 013d 89e3 50bc bf91 ec3c c750 303c

action_model._discrete_distribution.branches.0.bias f4 [4]
-0.011517992 -0.006444799 -8.131407e-05 0.019894654
00000000: f6b5 3cbc e42e d3bb 2987 aab8 1dfa a23c

onnx::Div_62 f4 [202]
0.37045857 0.29726928 0.46186575 0.3938613 0.4596111 0.39250046 0.46186575 0.39493626
0.4596111 0.39355606 0.4570809 0.3956808 0.4560649 0.39428088 0.45875266 0.39640188
0.4572071 0.39506388 0.46117768 0.39693087 0.4596348 0.39548203 0.47122976 0.40233666
0.46759814 0.40027305 0.46659833 0.4005072 0.4619837 0.39778337 0.46985942 0.4005672
0.46391067 0.39791578 0.47561643 0.40751323 0.46560383 0.40332735 0.47654814 0.40698782
0.46609226 0.40276626 0.47153172 0.39581126 0.45768395 0.3881169 0.46416196 0.3903074
0.4495125 0.3826411 0.4627329 0.3906091 0.44981658 0.38257822 0.4734237 0.39794543
0.45710647 0.3880174 0.47790065 0.40852842 0.46132073 0.3983469 0.47878426 0.4089622
0.46115384 0.3986286 0.47578204 0.4035302 0.4569042 0.39243838 0.4739049 0.40360788
0.45487937 0.39196154 0.47956526 0.40466547 0.4581337 0.39389014 0.4712098 0.40010244
0.4470959 0.3878675 0.46690452 0.39915058 0.44221085 0.38637608 0.46468395 0.3980142
0.44042304 0.38531443 0.46432152 0.39744028 0.4427495 0.38485435 0.46432152 0.39617512
0.4427495 0.38369086 0.36216345 0.28917822 0.3356329 0.2734832 0.4551906 0.38919514
0.4504222 0.3876968 0.4551906 0.390334 0.4504222 0.38897836 0.4498999 0.39100444
0.45156574 0.38948682 0.4524008 0.39215067 0.45427996 0.39094096 0.4561158 0.39276898
0.45780933 0.39191383 0.46551478 0.39831161 0.46436673 0.39665478 0.4607716 0.39585602
0.4588267 0.39469934 0.46280277 0.3960853 0.46193662 0.39459285 0.46770602 0.40392923
0.46358997 0.40003666 0.4674687 0.40361136 0.46450302 0.3992435 0.46055517 0.39182797
0.46224186 0.38963592 0.4509144 0.38595793 0.45256102 0.3832197 0.4499271 0.3862282
0.4529876 0.38302067 0.4616058 0.39356366 0.45860428 0.38811427 0.47023088 0.40719366
0.46675164 0.40181112 0.47027236 0.40778565 0.46477446 0.40237162 0.46666408 0.4018786
0.4579841 0.3942985 0.46515706 0.40179902 0.45583442 0.3942334 0.46990097 0.40405485
0.46141583 0.39674592 0.46245307 0.39935425 0.4540706 0.39221492 0.4603142 0.39866608
0.4517822 0.39206633 0.45858014 0.3978762 0.44962323 0.39108416 0.46402484 0.39691356
0.45677736 0.3903616 0.46402484 0.39571908 0.45677736 0.3893629 0.37210023 0.29474437
0.37210023 0.29474437
00000000: bfac bd3e ae33 983e ab79 ec3e 30a8 c93e
00000010: 2552 eb3e d2f5 c83e ab79 ec3e 1635 ca3e
00000020: 2552 eb3e 2e80 c93e 8206 ea3e ac96 ca3e
00000030: 5781 e93e 2fdf c93e a1e1 ea3e 30f5 ca3e
00000040: 0d17 ea3e d045 ca3e 7b1f ec3e 863a cb3e
00000050: 4155 eb3e 9f7c ca3e 0745 f13e 12ff cd3e
00000060: 0669 ef3e 97f0 cc3e fae5 ee3e 480f cd3e
00000070: 2189 ec3e 43aa cb3e 6a91 f03e 2517 cd3e
00000080: b385 ed3e 9ebb cb3e ff83 f33e 93a5 d03e
00000090: a063 ee3e ec80 ce3e 1efe f33e b560 d03e
000000a0: a5a3 ee3e 6137 ce3e 9b6c f13e c6a7 ca3e
000000b0: 8d55 ea3e 42b7 c63e a3a6 ed3e 5fd6 c73e
000000c0: 8126 e63e 89e9 c33e 54eb ec3e eafd c73e
000000d0: 5c4e e63e 4be1 c33e 9764 f23e 81bf cb3e
000000e0: dc09 ea3e 37aa c63e 65af f43e a32a d13e
000000f0: 3b32 ec3e 20f4 cb3e 3623 f53e 7e63 d13e
00000100: 5b1c ec3e 0c19 cc3e b499 f33e 839b ce3e
00000110: 59ef e93e afed c83e aaa3 f23e b1a5 ce3e
00000120: f3e5 e83e 2faf c83e 9489 f53e 5030 cf3e
00000130: 8090 ea3e f8ab c93e 6942 f13e 3ada cc3e
00000140: c1e9 e43e 9296 c63e 1c0e ef3e 775d cc3e
00000150: 7669 e23e 16d3 c53e 0eeb ed3e 84c8 cb3e
00000160: 217f e13e ef47 c53e 8dbb ed3e 4b7d cb3e
00000170: 10b0 e23e a10b c53e 8dbb ed3e 77d7 ca3e
00000180: 10b0 e23e 2173 c43e 7d6d b93e 2b0f 943e
00000190: 13d8 ab3e fd05 8c3e be0e e93e 9644 c73e
000001a0: bd9d e63e 3280 c63e be0e e93e dcd9 c73e
000001b0: bd9d e63e 2c28 c73e 4859 e63e bc31 c83e
000001c0: a033 e73e d16a c73e 14a1 e73e f9c7 c83e
000001d0: 6297 e83e 6a29 c83e 0388 e93e 0419 c93e
000001e0: fc65 ea3e eea8 c83e f457 ee3e 80ef cb3e
000001f0: 7ac1 ed3e 5616 cb3e 41ea eb3e a4ad ca3e
00000200: 55eb ea3e 0816 ca3e 7cf4 ec3e b1cb ca3e
00000210: f582 ec3e 1308 ca3e 2a77 ef3e d0cf ce3e
00000220: aa5b ed3e 9bd1 cc3e 0f58 ef3e 26a6 ce3e
00000230: 57d3 ed3e a569 cc3e e3cd eb3e ad9d c83e
00000240: f7aa ec3e 5c7e c73e 41de e63e 479c c53e
00000250: 14b6 e73e 5f35 c43e d85c e63e b4bf c53e
00000260: feed e73e 491b c43e 9857 ec3e 2d81 c93e
00000270: 2ece ea3e eab6 c63e 1ac2 f03e b07b d03e
00000280: 12fa ee3e 30ba cd3e 8ac7 f03e 48c9 d03e
00000290: ebf6 ed3e a703 ce3e 98ee ee3e 08c3 cd3e
000002a0: e47c ea3e 7ee1 c93e 1129 ee3e 9ab8 cd3e
000002b0: 2163 e93e f6d8 c93e dc96 f03e 47e0 ce3e
000002c0: b23e ec3e 4822 cb3e a6c6 ec3e 2978 cc3e
000002d0: f17b e83e 65d0 c83e 4eae eb3e f61d cc3e
000002e0: ff4f e73e ebbc c83e 04cb ea3e 6eb6 cb3e
000002f0: 0435 e63e 2f3c c83e aa94 ed3e 4138 cb3e
00000300: b9de e93e 7add c73e aa94 ed3e b19b ca3e
00000310: b9de e93e 935a c73e ec83 be3e bce8 963e
00000320: ec83 be3e bce8 963e

onnx::Div_65 f4 [10]
22.500744 10.356755 0.0075409976 0.0075409976 0.0075409976 0.0075409976 0.0075409976 0.0075409976
0.0075409976 0.0075409976
00000000: 8601 b441 45b5 2541 791a f73b 791a f73b
00000010: 791a f73b 791a f73b 791a f73b 791a f73b
00000020: 791a f73b 791a f73b
