results/GameAddedRewards2/PlayerBehaviour.onnx (onnx, 490727 bytes, 10 tensors)

network_body.observation_encoder.processors.0.normalizer.running_mean f4 [202]
00000000: 7f2b 483f e9b3 5d3f 29a1 443f c0d9 4f3f
00000010: f29e 453f dc81 513f 29a1 443f 6eda 4f3f
00000020: f29e 453f 6984 513f 5b07 473f d1ca 503f
00000030: 9895 4e3f 197c 553f 7e69 473f b7cb 503f
00000040: 4ca2 4f3f b30a 563f de4f 473f dcf2 503f
00000050: 11a0 4f3f 094f 563f ffed 433f fc3b 4f3f
00000060: 9702 4d3f 6343 553f abe0 493f 8626 523f
00000070: c119 4f3f b67b 563f 99ab 483f 48a2 513f
00000080: 7120 4d3f 64bd 553f 44eb 4a3f 6e6a 523f
00000090: a315 4e3f 0976 553f c975 4c3f 347c 533f
000000a0: 41ef 4c3f 6d29 553f 4664 513f 5faa 5a3f
000000b0: 10dc 4e3f ce70 5b3f 41b5 523f 106f 5b3f
000000c0: f52c 4f3f f79c 5b3f 2ac4 523f ae73 5b3f
000000d0: c58a 4f3f 34b4 5b3f be2e 533f 2ab0 5b3f
000000e0: 9386 503f 7508 5c3f 2efc 4c3f b2a8 523f
000000f0: 8a9e 4a3f fe49 523f 7853 4d3f fa9f 523f
00000100: 610d 4b3f c13e 523f c7f5 4c3f b0c8 523f
00000110: a380 4a3f 0d69 523f 9d93 4d3f c1f1 523f
00000120: 0e38 4b3f 16a4 523f 7d42 4c3f 9249 523f
00000130: 1a5f 443f 2cf1 4e3f 5762 4e3f c493 533f
00000140: e8ad 453f 3eb1 4f3f ea39 4d3f abaa 523f
00000150: 0e9f 443f 9eb4 4e3f 253e 4d3f 68ca 523f
00000160: 7d65 433f 1a13 4e3f 2d2e 423f b0ea 4d3f
00000170: 048f 393f cd93 493f 2d2e 423f 04d2 4d3f
00000180: 048f 393f d780 493f de5a 433f 49b4 523f
00000190: f8df 3a3f f035 523f b507 423f a285 4b3f
000001a0: 0ea0 393f a6d5 453f b507 423f cf97 4b3f
000001b0: 0ea0 393f 46e9 453f f984 4a3f 3f60 4f3f
000001c0: 8965 443f 07d4 4a3f fb55 4a3f b63e 4f3f
000001d0: b269 453f 026a 4b3f 86f1 4b3f e193 503f
000001e0: 73e9 463f c9c7 4c3f 8c7e 4a3f ee06 503f
000001f0: e00d 453f c6f6 4b3f 000b 4e3f 8999 513f
00000200: f0a4 4a3f 893a 4f3f 5e71 4d3f 9e76 513f
00000210: 63dc 493f 5001 4f3f d839 4e3f 9ebc 513f
00000220: 12c7 493f 72b9 4e3f 19eb 4d3f 63da 513f
00000230: 2d29 493f a4b5 4e3f 74ec 543f d582 5b3f
00000240: 8faa 513f 1acd 583f a050 553f 769d 5b3f
00000250: f38e 513f d9ee 583f ed74 553f 70a4 5b3f
00000260: ca4c 513f 11df 583f 5e7b 553f b3bf 5b3f
00000270: daec 503f d1b5 583f 1b00 503f f8a4 533f
00000280: e7f5 4a3f 5a09 513f 3f42 503f db85 533f
00000290: 5d6d 4c3f 3d5f 513f ad59 4f3f 1f39 533f
000002a0: 295a 4b3f 663d 513f bfd9 4f3f 395f 533f
000002b0: b4f5 4c3f dbba 513f 7211 4d3f bfe3 513f
000002c0: f2b7 4b3f 0afd 503f 48e2 4e3f ad82 523f
000002d0: 45b1 4e3f 4844 523f df77 4d3f c14b 513f
000002e0: 9675 4e3f eb82 513f 1beb 4c3f 89f2 503f
000002f0: 06dc 4d3f 5720 513f 003f 443f 9308 4d3f
00000300: add8 433f 17a1 4c3f 003f 443f 77ef 4c3f
00000310: add8 433f 4688 4c3f fde0 463f dc3e 503f
00000320: fde0 463f dc3e 503f
0.7819137 0.86602646 0.7680841 0.81191635 0.77195656 0.81838775 0.7680841 0.8119267
0.77195656 0.81842667 0.777456 0.81559473 0.8069701 0.83392483 0.77895343 0.81560844
0.8110702 0.83610076 0.7785624 0.81620574 0.81103617 0.8371435 0.7653503 0.80950904
0.80082077 0.8330595 0.7885844 0.8209003 0.8089867 0.8378252 0.7838684 0.81888247
0.80127627 0.8349211 0.79265237 0.8219365 0.80501765 0.8338323 0.79867226 0.82611394
0.8005257 0.83266336 0.8179363 0.85416216 0.8080454 0.85719 0.8230782 0.8571634
0.80927974 0.85786384 0.8233057 0.8572339 0.8107112 0.85821843 0.824932 0.8581568
0.81455344 0.85950404 0.80072296 0.8228866 0.7914816 0.82144153 0.8020549 0.82275355
0.7931729 0.82127005 0.80062526 0.82337475 0.79102534 0.82191545 0.80303365 0.8240014
0.7938241 0.82281625 0.79788953 0.8214351 0.76707613 0.8083675 0.80618805 0.8264735
0.77218485 0.81129825 0.80166495 0.8229167 0.768052 0.8074435 0.8017295 0.823401
0.76326734 0.80497897 0.7585171 0.8043623 0.7248385 0.7874115 0.7585171 0.80398583
0.7248385 0.7871222 0.7631053 0.82306343 0.72998 0.8211355 0.7579301 0.7950078
0.7250985 0.77279127 0.7579301 0.79528517 0.7250985 0.7730907 0.7910915 0.81006235
0.7671743 0.7922978 0.79037446 0.80955064 0.77114403 0.7945863 0.7966541 0.81475645
0.77699965 0.7999235 0.79099345 0.81260574 0.76974297 0.7967342 0.80485535 0.818749
0.79157925 0.8094869 0.8025111 0.8182162 0.7885191 0.8086138 0.8055701 0.8192843
0.7881938 0.8075172 0.80436856 0.81973857 0.78578454 0.8074591 0.831733 0.8574651
0.81900877 0.8468796 0.8332615 0.8578714 0.8185875 0.8473945 0.8338154 0.85797787
0.81757796 0.8471537 0.8339137 0.85839385 0.81611407 0.8465243 0.8125016 0.826736
0.7928147 0.81654894 0.81351084 0.8262612 0.79854375 0.8178595 0.8099621 0.82509035
0.7943445 0.8173431 0.8119163 0.82567173 0.80062413 0.81925744 0.80104744 0.8198814
0.79577553 0.81636107 0.8081403 0.82230645 0.8073924 0.8213544 0.80261034 0.81756216
0.8064817 0.8184039 0.8004624 0.8162008 0.80413854 0.8168997 0.7665863 0.8009121
0.76502496 0.79933304 0.7665863 0.80052894 0.76502496 0.79895437 0.77687055 0.81345916
0.77687055 0.81345916

network_body.observation_encoder.processors.1.normalizer.running_mean f4 [10]
00000000: b4d0 0b42 c8e4 5f41 0000 0000 0000 0000
00000010: 0000 0000 0000 0000 0000 0000 0000 0000
00000020: 0000 0000 0000 0000
34.95381 13.993355 0.0 0.0 0.0 0.0 0.0 0.0
0.0 0.0

network_body._body_endoder.seq_layers.0.weight f4 [256, 212]
00000000: a436 94bd 4a69 ac3d 638d b63d 7790 02bd
00000010: 5e0f a13d 21d2 09bc 3f05 c93d ef95 fa3c
00000020: d833 3ebd bbf1 703d 41d2 f03c 0f6d 9abc
00000030: c27d a2bc 370f 4fbd f155 ed3d 01cb cb3d
00000040: bcf4 4ebd d9c1 e83c a556 dc3d b3c5 d03d
00000050: 3121 4fbd ca77 1ebd 9f4b e73c 1424 ef3b
00000060: 42f5 1b3d f928 7fbd 50dd 44bd a364 f63c
00000070: 77c6 003d edbe 2f3d 6735 6b3b c37d b0bd
00000080: 885a c8bd 3013 90bd cc9e 01be 7a4c 0dbd
00000090: 3149 3ebc 5fab 99bd a418 5fbd d33e e2bb
000000a0: 1706 053d 3700 963d 8105 eebd e9c4 c0bc
000000b0: c387 43bd f182 cf3d eab0 b5bd 211e a63b
000000c0: d0d4 c43c 371a 97bd 4a7c 3ebc fc02 033d
000000d0: 2114 ef3b 5e90 54bd 4a5f e5bd 9be8 ad3b
000000e0: 582a 16bd 44de 41bd f645 f1bd 8b0f 463b
000000f0: 8909 b03d 0f13 63bd 6f96 a53c 10ca 8f3d
00000100: a32f 1e3b 01a0 973d 54bc 1f3d f86d 86bd
00000110: 4f1a 773c b3c0 b4bd a5eb 2d3d 3f6c 93bb
00000120: 994f a5bd 2eeb 90bd 22e1 8f3d 9180 8fbd
00000130: ede7 fbbc 0dd8 0f3c a621 d738 6451 123e
00000140: dc27 08bc fc20 1cbe c29f 213e e673 223d
00000150: 66b2 253c af29 343d 0991 eebb a1b4 99bd
00000160: 5da4 8fbd f4bd cd3c df27 c83d 2def 7bbd
00000170: e7dc 083b 1100 8e3d b541 cbbd f46a 3bbd
00000180: 2eea e23d b907 98bd 1f42 16bd 7ea6 053e
00000190: dc66 32bd b0cd 3cbd 53b5 fcbd 7b4d 92bd
000001a0: c6d9 963d 92c8 e53d 9aed 0fbe 26d2 85bc
000001b0: a40d a53d b5f4 e7bc 3070 e63c 59cb 6a3d
000001c0: a229 0d3d cdf2 1f3d 63b5 44bd c8fe ab3d
000001d0: 8a57 ae3c b558 853c 0531 ebbd 207b 933d
000001e0: 7a62 a23d 2127 86bc 2639 8b3d 59c0 903d
000001f0: 5c3a df3d 5071 153e 97f8 783d fee0 c63d
00000200: 0040 fd3d b2f8 a2bb 2930 c13d 7a4d 1a3e
00000210: 0c09 233d d6fc dbbb 0391 693d 5cf2 143d
00000220: 30e1 233d be10 8b3c ada6 a43d bb56 713a
00000230: 887a 83bc 8f22 26bc ce86 29bd 0553 123d
00000240: 9208 1a3e aab7 023e faa7 3b3d 34c1 3e3c
00000250: fba1 be3d b5bb 9ebd a7b2 fd3c 2dfe adbb
00000260: d695 9b3d 2999 83bd 4365 ca3c 4b3d f5bd
00000270: 0087 f53b 3342 12bd 5149 973d 47c1 a3ba
00000280: f250 4dbd b4a9 e5bb fb25 49bd d3f5 863d
00000290: 7145 8c3d d74d 98bd 755a 11bd fe97 83bd
000002a0: d22e c63d b595 0a3d 63a9 d63d a6ae 97bd
000002b0: fb56 8a3c 6e14 523d 9751 dabc 3887 13bd
000002c0: d684 39bd 6c17 8abd c386 88bc b8ea 563b
000002d0: 50d8 e23c 1707 973d 9b94 10bd 93d6 8fbc
000002e0: 5a49 05be 848e 0a3e 82d4 713c 6538 1d3d
000002f0: 2485 c13d dc4d e73d ae61 f93d 53b8 283d
00000300: 496e 7e3d 1534 283d 8bf5 133e eaa0 fb3d
00000310: ec25 613c 117c 4e3d f9e0 05bd 819b 053e
00000320: 07de 943c 5c33 c0bd 9984 953d 6ad5 ae3c
00000330: 36f2 28bd 9f1d d5bd bf60 743d 95ae 7cbd
00000340: 09bb 043d 32c8 b6bd dd60 0bbe c927 d73d
00000350: bcc4 7dbd e48a 143d 1cf4 4a3d 725c 6fbd
00000360: 3265 663d bb79 58bd 162f 4f3d 20e7 b0bd
00000370: 4f52 e9bc d1d7 f9bd a080 e53c 5100 02bd
00000380: c8ff 2439 e039 f7bc 7093 683d 188b 1dbd
00000390: a869 0e3d 16df 73bd 19ca c6bd aec9 18bd
000003a0: 0e40 153d 19de eebd 99bb e43d 8918 67bd
000003b0: 7d4c e03d 8284 9cbc e622 43bd 80f1 46bd
000003c0: 4b1a 373d 8c7b 563c bf50 87bb 88c5 f3b9
000003d0: 3856 e83c 3d09 253e 5d33 1cbd bb5f c2bd
000003e0: 3f8f 5d3d c5c4 2f3e 5007 c93d e0c8 af3d
000003f0: 31b0 86bc 93cd 133e 1907 bb3c fd5d 493d
-0.07236984 0.0841852 0.08913686 -0.031876054 0.07864259 -0.008411915 0.09815454 0.030589072
-0.04643616 0.058824282 0.029397132 -0.018850831 -0.019835357 -0.05055162 0.11588658 0.09950829
-0.050526366 0.028412746 0.10758714 0.10193958 -0.050568763 -0.03868846 0.028234301 0.007298002
0.038075693 -0.062294934 -0.048062623 0.030077284 0.03143927 0.04290669 0.0035889985 -0.08617737
-0.097828925 -0.0703491 -0.12658232 -0.03449676 -0.01161413 -0.075033896 -0.05446686 -0.006904462
0.03247651 0.0732426 -0.116221435 -0.023531394 -0.047736894 0.10132397 -0.08871634 0.0050695096
0.024027258 -0.07378047 -0.0116263125 0.031985268 0.0072961007 -0.05189549 -0.111998156 0.0053072697
-0.036661476 -0.04733111 -0.11780922 0.0030221667 0.08595569 -0.055438098 0.020213334 0.07020962
0.002413728 0.07403565 0.038997963 -0.065639436 0.015081956 -0.08825817 0.042461056 -0.004498988
-0.08071823 -0.07076107 0.070253626 -0.07006944 -0.03075024 0.008779538 0.000102582664 0.1428886
-0.008310284 -0.15246958 0.15783599 0.03966131 0.010113334 0.043985065 -0.007280473 -0.07505155
-0.07013772 0.02511499 0.0977323 -0.061507393 0.0020883621 0.069336064 -0.09924642 -0.045756295
0.110798225 -0.07423348 -0.03668415 0.13051793 -0.043555126 -0.046094596 -0.12339272 -0.071436845
0.07365756 0.112198964 -0.14055482 -0.016335558 0.08059242 -0.028314928 0.028129667 0.057322834
0.034463532 0.039049912 -0.048024546 0.08398205 0.021281976 0.01627765 -0.11483959 0.072012186
0.07928939 -0.01637608 0.067980096 0.070679374 0.10899803 0.14594007 0.06078395 0.097108826
0.12365723 -0.0049734944 0.09433014 0.15068617 0.03980355 -0.00671349 0.05702306 0.036363944
0.040009677 0.016975757 0.080396034 0.0009206344 -0.016049638 -0.010140075 -0.041388325 0.035723705
0.15042332 0.12765375 0.04581449 0.011642743 0.09308239 -0.07750646 0.030968977 -0.005309841
0.07596938 -0.06425697 0.024706488 -0.11974581 0.0074929 -0.035707664 0.07387031 -0.0012493514
-0.050126024 -0.0070087556 -0.049108487 0.06589856 0.068491824 -0.07436722 -0.035486657 -0.064254746
0.09676899 0.033834178 0.10481527 -0.074063584 0.016887179 0.051289015 -0.026650233 -0.036017627
-0.045292698 -0.067427486 -0.016665822 0.0032793712 0.027691036 0.07374399 -0.03529797 -0.017558372
-0.13016263 0.13530928 0.0147601385 0.03838386 0.09449223 0.11294147 0.12176834 0.04119141
0.062116895 0.041065294 0.14449136 0.12286551 0.013741951 0.050411288 -0.032685254 0.13047601
0.018172277 -0.09384796 0.073006816 0.021341998 -0.041246615 -0.104060404 0.059662577 -0.061689932
0.032404933 -0.08924903 -0.13611169 0.10505635 -0.0619552 0.03626527 0.049549207 -0.058437772
0.05624885 -0.052850466 0.050582014 -0.086378336 -0.02848163 -0.12199367 0.028015435 -0.031738583
0.00015735545 -0.030178964 0.056781232 -0.03846273 0.03476873 -0.059538923 -0.09706516 -0.03730171
0.03643804 -0.116634555 0.11168594 -0.056419883 0.10952089 -0.019106153 -0.047640704 -0.048570156
0.04470281 0.013090979 -0.0041294987 -0.00046495744 0.028361425 0.16116805 -0.03813492 -0.094909154
0.05409169 0.17164905 0.09815848 0.08583236 -0.016441436 0.14433889 0.022830533 0.0491619

network_body._body_endoder.seq_layers.0.bias f4 [256]
00000000: bfec 923b 95d3 81ba 3a6e 753b a80a 173c
00000010: d8d5 943c 32bc 873c b53d 073d 8271 8a3c
00000020: c368 63bc a427 a4bb 1ffc 9b3c 68ff 8c3c
00000030: 736d 623b 5d37 0cbc e6b6 a0bb 2c14 dcbb
00000040: 4790 593c 90f4 bb3c e908 38bc fd0a 203c
00000050: 89de e53b 27ae 04bc 1276 553c ecc7 843c
00000060: 7035 753c 9eb3 093c e270 bd3c 8c80 313c
00000070: 09aa c33c e392 543c 248a b23c 6b4f 043c
00000080: 8438 c83c 4305 20bc 62f1 ac3c 66b4 e23c
00000090: 920f b23c 2279 9d3c 422f 313c da4f 513b
000000a0: 8c55 433c e8ad dc3c aae4 aa3c 5c4a 9d3b
000000b0: 6776 3a3c 1405 ff3b d7ce 1c3c d294 eb3c
000000c0: 5614 e5bb b3a9 af3c 2060 86bb 7f7e ba3c
000000d0: 252e b23c 4a61 283c 2905 103c 9efa dc3b
000000e0: 2187 3a3c 853c cd3c f7d7 893c 0e46 fc3b
000000f0: ee17 313c a69c 19bc a3e5 ccba 9a0b 433c
00000100: a010 afba 84fe 45bc 9a74 e63a d22e 383c
00000110: 165a a03b 6378 c43c bd24 453c bb18 c33c
00000120: c01a 493c b57a 4c3c 3451 973c 1372 403c
00000130: 8359 9c3c c01c 443c 3ca7 33bc bd6e b0ba
00000140: 9ecf b73c d357 003b 1edd 8f39 f939 8b3c
00000150: 5f9b f93c 0102 763c ef4b c7bb 2e1d 10bc
00000160: 6a4a 8f3c 1d0b 9439 d4a1 d93b 280e 263d
00000170: ada5 623a 57d6 673c 4d84 8f3c f818 783c
00000180: dfdb 933c 2acd 4c3c 22a9 333c 5700 803a
00000190: 0e0b e53c 0668 0d3c 909c c63c 1600 23bc
000001a0: a586 8dba c8b4 7e3c f582 103c 44c9 a73c
000001b0: c3b4 793c 0cb9 b43c 76aa 9d3c a5ea 103c
000001c0: 7355 903c 9bd6 223c 86d1 113c d368 da3b
000001d0: 2d20 673c b09f 9a3a 1728 f43b 208b a73b
000001e0: 4007 7b39 287d ea3c 73a6 5a3c 599d 8b3c
000001f0: 3de8 7b3c 41a9 8b3c e067 a0ba ef1a b13b
00000200: 6b21 173c 3a13 983c 3048 b23c f374 4d3b
00000210: 029e 363c d55a 403b 1f40 523b 2ac1 573c
00000220: 559a 943c 34da c5bc 5311 be3b bdb5 bb3c
00000230: b5d8 063b aafb 823c 520b c0bb c1c6 153c
00000240: 907d 6f3c 421b 903c f6e1 f33a 21a4 993c
00000250: 082a 3d3c 9f46 5a3c 34e6 33bb 8df2 9f3c
00000260: bb7d 8f3c 4adf d93a 98e8 933b 8dab a03c
00000270: 3f6a b53c c2c2 063d f277 5a3c 810a 273c
00000280: 3f2f 433c 9bdf e63c 242c 193c 8e0e 673c
00000290: ecc6 8f3c a193 b03c 3b26 c9b9 78be b73c
000002a0: 8071 04bb f2c6 713c 1640 803b a792 db3b
000002b0: 7aa1 ef3c 3ca0 ba3c 86ba 5c3c 9ac3 b93b
000002c0: 4604 00ba 9cde 5d3c dec6 d23c 10c0 693c
000002d0: e3a6 783c 28de f339 2515 a23c badc 093a
000002e0: 779e 62bb 9303 a93c 38e7 ce3c c984 c83b
000002f0: ed25 3b3c 7591 6cbc 6ee9 ac3c 9bcf 293c
00000300: 9866 e83c 86ad 633c df4b ce3c 7105 903c
00000310: f9ad 903b 5a92 8bbb 2260 e33b f1f2 843c
00000320: 9cb9 893c 8e10 6c3b 2cf8 033c 3357 9a3c
00000330: be96 b53c abfb 9b3b 6865 093c dc5d ec3c
00000340: ad99 593c 4355 bbbc 5d4a b63c 83a3 5c3c
00000350: a153 663b 0b1c 6f3c 9986 993b 968d fbba
00000360: 3bdf 5dbc c185 8d3c ef00 993b 7e66 893c
00000370: 189a 673c 8f5a b83c 8d01 bd3b bfc8 b03c
00000380: acc8 7a3c 6300 ac3c e5b7 74bc 6d04 a93c
00000390: 3c8e 363c 4944 a73b 959f ed3c a561 ae3c
000003a0: 40d7 b63c 8741 003c aea5 c93a 7920 cf3c
000003b0: 1ccf 303c c896 fe3a 39fd 443c 8b9e 9dbb
000003c0: fcbd e3bc 53c2 a43c 9832 abbb ea64 c63c
000003d0: 3a4a 4e3c 5422 883c e246 05bc 0547 cc3c
000003e0: acfe 033d 8849 653c 9dcb 7b3b b390 cc3c
000003f0: 8788 553c fe2d 843b 3027 d23b 00d8 5b3c
0.0044837887 -0.0009904975 0.0037449733 0.009218849 0.018168375 0.01656923 0.033017833 0.016899828
-0.013879958 -0.0050096083 0.01904112 0.017211631 0.00345501 -0.0085581215 -0.0049046157 -0.006716272
0.013279027 0.022943765 -0.011232593 0.009768245 0.0070150536 -0.008098162 0.013028638 0.016208611
0.014966354 0.0084046405 0.023125116 0.010833871 0.02388479 0.012974474 0.021794386 0.008075575
0.024441011 -0.0097668795 0.021111194 0.027673911 0.02173594 0.0192228 0.01081449 0.0031938464
0.011922251 0.026938394 0.020860989 0.004800124 0.011380768 0.007782588 0.009570799 0.028757486
-0.0069909496 0.021443224 -0.0041008145 0.022765396 0.021750519 0.010277102 0.008790293 0.006743743
0.011384756 0.025053272 0.016826613 0.007698781 0.010808928 -0.009375727 -0.0015632402 0.0119046215
-0.0013356395 -0.012084607 0.0017582357 0.011241632 0.0048935516 0.023983186 0.012032685 0.023815503
0.012274444 0.0124804275 0.018471338 0.011745947 0.019085651 0.011969745 -0.010965165 -0.0013460737
0.022437867 0.0019583597 0.0002743983 0.016995417 0.030469595 0.015015126 -0.00608205 -0.0087960195
0.017491538 0.0002823704 0.006641606 0.040540844 0.00086459034 0.014150224 0.01751914 0.015142672
0.018049179 0.012500087 0.010965617 0.0009765726 0.027959373 0.008630758 0.024244577 -0.009948751
-0.0010797573 0.015546031 0.008820285 0.020481713 0.015240851 0.022060893 0.019246321 0.008845006
0.01761887 0.009938861 0.008900052 0.006665328 0.014106792 0.0011796858 0.007451068 0.0051130205
0.00023939926 0.028624132 0.013345349 0.017042803 0.015375194 0.01704848 -0.0012237988 0.005404822
0.009224276 0.018563855 0.021762937 0.0031350225 0.01114607 0.0029351015 0.0032081676 0.0131686125
0.018139997 -0.024151899 0.005800405 0.022913808 0.0020575945 0.015989143 -0.0058607245 0.009141625
0.014617339 0.017591123 0.001860677 0.01875502 0.011545666 0.013322501 -0.0027450444 0.019524837
0.017516008 0.0016622331 0.0045138113 0.019613052 0.022145389 0.03290058 0.013334261 0.010195375
0.01191312 0.028182795 0.009348903 0.014102591 0.017550908 0.02155477 -0.0003836619 0.02242969
-0.0020209253 0.014756905 0.0039138896 0.006700832 0.029251803 0.022781484 0.013472205 0.0056690695
-0.00048834493 0.013541844 0.025729593 0.014266983 0.015176508 0.0004651409 0.019785473 0.0005259026
-0.0034579316 0.020631587 0.025256738 0.006119345 0.011422616 -0.0144389765 0.021107402 0.010364438
0.028369233 0.013896352 0.025182663 0.01758072 0.0044152704 -0.00425939 0.00693895 0.016229125
0.016812138 0.003602061 0.008054774 0.018840408 0.022166606 0.004760226 0.008385994 0.02885335
0.013281268 -0.022867804 0.022252256 0.013466719 0.0035145062 0.014594088 0.0046852347 -0.0019191976
-0.013541992 0.017275693 0.0046693007 0.016772505 0.01413586 0.02250412 0.005768007 0.021580098
0.015306633 0.020996278 -0.014936422 0.020631993 0.01114231 0.005104576 0.029006759 0.021286795
0.022319436 0.007828123 0.0015384459 0.025284039 0.010791566 0.0019423598 0.012023264 -0.0048101596
-0.027800553 0.020112192 -0.005224537 0.024218041 0.012590939 0.016617931 -0.008134576 0.024936209
0.032225296 0.013994582 0.0038420924 0.024971342 0.013033039 0.004033803 0.006413363 0.013418198

network_body._body_endoder.seq_layers.2.weight f4 [256, 256]
00000000: c992 973d 7894 93bd f730 be3c 8483 d0bd
00000010: 3b5f 283d 9012 063d c622 c8bc d68b 953c
00000020: a7a6 34bd 399a febb f987 df3d b3ce 1a3e
00000030: 4107 cfbc 7c5a 82bd 0280 3bbc 31a2 99bd
00000040: e06c 8e3d 3234 17bd f5b9 c2bd deae 843d
00000050: 2795 83bc 0d17 e33d 8ff7 1e3c 3a74 49bc
00000060: 6585 fd3d 065b 9bbd dad4 7abb a85a c13c
00000070: c8c8 5f3a c538 d83c 81a9 34bd 7a97 3a3d
00000080: 7c93 96bc b1e2 0fbd f5b4 a03d a39f 253e
00000090: 8c33 2b3d c0c2 e43c 4a2d cdbc d2be 62bc
000000a0: 094b 29bc 05dc 333d 3b95 383d 94d6 c03d
000000b0: 112a f4bc fc12 9d3d 5b30 5d3d 8558 adbb
000000c0: 3e37 823d 950f 653c 2249 e9bc 2111 a5bd
000000d0: 7f8e 3239 d55b be3d f597 70bd 4c66 3f3d
000000e0: 033f 53bb ff15 0d3d e31f a4bd 5f33 85bd
000000f0: b72c a5bd bd2d aebd 0219 393c 629e f0bd
00000100: 5a44 d83c 0f17 f33b f4c9 0f3e 3861 bdbd
00000110: 6c8d e83c 5700 25bd c45e 93bd 3e28 413b
00000120: df9e 223d 7f4c 5fbd 345c 833c 85b8 1e3d
00000130: 1601 dfbc 7ed3 e33d daac cf3d 33c3 4dbd
00000140: 90d9 733d a99d c83d 9218 06bd 1579 a4bd
00000150: 9c84 34bd 8633 49bd 6aaf c5bc b826 fcbd
00000160: 8404 47bd 1864 bcbd fb84 dabc 93bc 9c3d
00000170: 3703 9abc b811 073d 6910 b2bd 1ff5 fc3c
00000180: 88d2 2a3d a831 dabb 7787 9cbc cd26 1ebd
00000190: 6db9 65bc d2da 2cbd e09d 983d b1d4 97bc
000001a0: f2b4 13bd de1b 4ebd c77d 21bd 7498 eebb
000001b0: 04f1 413c 400d 51bd 3013 713d 2aa0 2c3d
000001c0: e3e4 1d3d cdd7 90bc ceb8 313c fac9 5b3c
000001d0: 852c cd3d 63f3 463d 04e5 18bd a9b8 f13c
000001e0: d623 8f3d 9baf 11bd 46cf bebc 600f b5bd
000001f0: 00af 8dbc 4a07 eb3d 728c 0bbe e090 633b
00000200: e73c 703d 91c1 9c3d 6e5a 27bd a6a8 cb3d
00000210: 0a9a c63d 0670 f739 1c4a 3ebc ec29 b9bc
00000220: fab1 91bc ec04 383d 5106 ccbc 03a5 973d
00000230: fa18 f73c e328 cd3d 6f78 b43d 0aeb dc3d
00000240: 99e2 dc3d f6aa 16bc 8980 68bd 93e8 133d
00000250: fa3c fa3d 65ea 8b3c 1d72 82bd ac9e b1bd
00000260: 1b54 b23c 1a60 2f3c 907e 06bd 2902 b4bb
00000270: 1f4d fd3d 2bdd db3c 3514 323e a874 0abe
00000280: 7005 cb3d 8bc5 343d 1a1f 79bd ed97 31be
00000290: 4392 d7bd a68c 623d 9f05 603d d707 77bd
000002a0: b03e 1ebd e5f4 0cbd 8c79 1c3e 3e41 23bd
000002b0: 3e62 5a3d 939d d7bc eb32 623d ecd7 5f3c
000002c0: a9f4 9b3d a676 03be 4e42 d03b 1432 c83b
000002d0: fb4e dc3d 4c7f c2bc 0787 a4bc b8d8 853c
000002e0: 7f94 b4bc 3fc3 2e3d 6f52 78bd f3bd febc
000002f0: b3fa 813b 5548 433b 7490 f13d 9a21 d2bd
00000300: 06d8 90bd 8ea5 623c af11 a4bc 944e 483c
00000310: 473a 173d 5c79 99bd 5584 d83a cc62 a83d
00000320: 98c1 963d ebc0 053b b9dc f2bb a79c 573d
00000330: 662b 983c 972b 293c 1769 5ebb fb23 a93d
00000340: edfd bdbd a739 ac3d fed0 4bbd 98bc 44bd
00000350: 3e46 3e3c 15d0 b7bd 2daa 11bd 34e7 25bd
00000360: 9856 aa3d 0099 333e 5a2e 28bd e8ff 283c
00000370: 6a05 053d 53eb 04bc 7a8c 34bb ba6f 2f3d
00000380: 10d1 f33d c2b9 4b3e eb27 273d 38c5 a8bd
00000390: b448 8fbd 7c9e 1d3d 8a9c b73c 0672 b7bd
000003a0: cb4c 483a e291 9d3d a8b8 5cbd 7408 c73d
000003b0: ab6d 91bc 4fb2 84bd e6c4 2ebe f327 45bd
000003c0: e02d 7e3d e03c 8fbc 6ad6 f3bc 7193 2b3c
000003d0: 2cd2 a13b 6b7e 6e3d 0082 1f3c eb37 243e
000003e0: 872b 1eba 8376 0e3e b10b 4b3e d924 a83d
000003f0: a086 7a3c 847c cf3a c996 1a3d efe4 3c3d
0.07401044 -0.072060525 0.023216708 -0.101813346 0.041106444 0.032732546 -0.024430644 0.018255156
-0.044104245 -0.0077698496 0.109146066 0.15117912 -0.025272014 -0.06364915 -0.011444094 -0.07501639
0.0695436 -0.03691501 -0.09508125 0.06478666 -0.016062332 0.11088381 0.009702577 -0.012295777
0.123789586 -0.07585721 -0.0038273842 0.023602799 0.00085366936 0.026394257 -0.044106964 0.045554616
-0.018380873 -0.0351283 0.07847015 0.16174178 0.041797206 0.027924895 -0.02504601 -0.01383944
-0.010332831 0.043911 0.045064192 0.094159275 -0.029805215 0.076696366 0.054001193 -0.0052900934
0.06358193 0.013980766 -0.028477255 -0.08059908 0.00017028487 0.09294859 -0.058738668 0.046728417
-0.0032233603 0.034444805 -0.080138944 -0.06503939 -0.08065169 -0.08504818 0.011297466 -0.11748959
0.02639978 0.0074185203 0.14041883 -0.09247059 0.028387748 -0.040283527 -0.071958095 0.002947345
0.039702293 -0.05451631 0.016035177 0.03875019 -0.027222198 0.11124323 0.10140391 -0.050234985
0.059533656 0.09795696 -0.032738276 -0.08030907 -0.04407178 -0.049121402 -0.024131496 -0.123120725
-0.04858829 -0.09198779 -0.026674738 0.07653155 -0.018800361 0.032975882 -0.08694536 0.030878602
0.041704684 -0.0066587515 -0.019107563 -0.038611222 -0.01402126 -0.04220087 0.07451987 -0.018534036
-0.036061235 -0.050319545 -0.03942659 -0.0072813574 0.011837248 -0.051038027 0.05885619 0.04214493
0.03854836 -0.017681027 0.0108472835 0.013414854 0.10018257 0.048571955 -0.03732778 0.029506998
0.06989257 -0.03556786 -0.023292195 -0.08840823 -0.01729536 0.11476 -0.13627794 0.0034723803
0.05865183 0.07654107 -0.040857725 0.099442765 0.09697349 0.00047194975 -0.011614349 -0.022602998
-0.017785061 0.04492657 -0.024905356 0.0740452 0.030163277 0.10017564 0.088120334 0.10787018
0.107854076 -0.009196034 -0.056763206 0.036110472 0.122186616 0.017079541 -0.06369422 -0.086728424
0.02176862 0.010704065 -0.032835543 -0.0054934216 0.12368225 0.02683886 0.17390521 -0.13521063
0.099131465 0.044133704 -0.060820676 -0.17343111 -0.10525944 0.055309914 0.05469286 -0.06031021
-0.038634002 -0.034413237 0.15280741 -0.03985714 0.053316347 -0.026320254 0.05522434 0.01366232
0.076150246 -0.1283823 0.0063555604 0.0061094854 0.10757252 -0.02374234 -0.020083917 0.016338691
-0.022043465 0.04266667 -0.06062549 -0.031096434 0.0039666533 0.0029797752 0.1179513 -0.10260315
-0.07072453 0.013833417 -0.020027963 0.012225766 0.036920812 -0.074938506 0.001651893 0.08221969
0.07361144 0.0020409178 -0.007411566 0.05263963 0.018575381 0.010325334 -0.003393715 0.08258816
-0.09276948 0.08409434 -0.049759857 -0.04803142 0.011613427 -0.089752354 -0.035562683 -0.040503696
0.08317298 0.17538834 -0.04105983 0.010314919 0.032475866 -0.008112746 -0.002754955 0.04283116
0.1190511 0.1989508 0.040809553 -0.082407415 -0.06996289 0.03848122 0.02241351 -0.08957295
0.00076408376 0.076938406 -0.05388704 0.09718409 -0.01775249 -0.06479322 -0.17067298 -0.0481338
0.06205547 -0.017485082 -0.029765327 0.0104721645 0.0049383845 0.05822603 0.009735584 0.16036956
-0.0006033708 0.13912396 0.19828679 0.08210153 0.015290886 0.0015829955 0.037741456 0.046116766

network_body._body_endoder.seq_layers.2.bias f4 [256]
00000000: 0c1c 473c ca77 083b 91e5 6f3c b4b6 323b
00000010: 704b ad3c d301 f53b 6983 183c 2f81 663c
00000020: 9f16 19bc 8d63 753c 96f0 313c 7d2c 8a3c
00000030: b109 4e3c 35a1 313c 3ba6 11bb 1b4c 833c
00000040: da7f 973b 942d b53c 1de8 5c3b 6ec9 adb8
00000050: daea a73c 8a6b 5a3c fb8b 473c d88b 393c
00000060: a803 a23c b0af f83a ed05 6c3c b13e 2f3a
00000070: 325e 8b3c cb9b 573c 0ec6 073c f4d0 bf3c
00000080: b03d 563c 3cf2 ba3c db73 6a3c 82e8 963b
00000090: 12d8 cd3b 862d 853b c343 0dbc 112d 793b
000000a0: 8350 183c a0cd 033c 24fe 8a3b 9970 0739
000000b0: a16f 1f3c 2fe6 cf3c a28d e73b f17a 863c
000000c0: 687e 903c 51a5 82ba 3825 853c ebcc 583c
000000d0: 74dd bd3b 2dc3 553c 8a6d 8f3c 4d63 943b
000000e0: 0608 343c 5a24 6b3c 4997 8f3c eadf dfba
000000f0: c54d 8b3c c9f4 5d3b c1e0 053c 48e7 293c
00000100: cb60 2f3c 1336 183c ade5 df3b adbf 293b
00000110: a708 6f3c f2a2 1d3a e537 aa3c 3dd5 153c
00000120: 4b05 6d3c 1188 91bb 4ef4 053a 1831 363c
00000130: c67c b33c 419e c03b 612c 8d3c ce66 9f3c
00000140: 858f 333b be08 ba3b 303a 543c 9015 8c3c
00000150: 2d83 8b3c 9f86 2d3c 8c50 283b 92b9 b63c
00000160: 3153 c83a 6e7c d63c 41d3 753a c5c7 5c3c
00000170: 923e c73b 80a7 863c 2679 8e3c 3d6d ae3b
00000180: 4714 9f3c ec88 553c d10f f93a 11c0 943c
00000190: 2f3a de3b 073d cd3b 48f5 0e3c 662f b93c
000001a0: 0df4 5e3c 987e 26bb f11c ea3b 8f76 953c
000001b0: 07e6 b13c 883b a73c 686d 9f3c eb90 c0ba
000001c0: 57db 593c efef 7f3c fc88 643c 6a84 ab3c
000001d0: 4d44 93ba ff96 a43c d9cb 203c b79b 253c
000001e0: 1d06 283b 422e 9a3b 5b70 203c 2ade 493c
000001f0: f300 cf3b 3638 373c abbd f03b 81a8 003c
00000200: fb62 ac3b a23e bb3b 403f e23b ff8e 533c
00000210: b8aa 2f3c 4cb8 613c a2dc 2f3c 019a 843c
00000220: 6b09 1f3c 3657 473c 00c5 a53c aaea 9b3c
00000230: 2186 e6b9 976b 7ebc 0b3b 343c eb23 01bb
00000240: 5421 783c 3927 08bc f88c f8bb f7c0 923c
00000250: 8eea 5f3c a3cf 2abb 1247 0e3c 5411 793c
00000260: 0956 483c 142b 663c 76b5 50bb 3744 443c
00000270: b401 db3b 2266 cc3c 034e 563c a52d 5c3c
00000280: 6026 e53b d909 753c 42a8 f53b f01d 41ba
00000290: 64cb ae3c de54 b03c 0bf8 463c fbab 853c
000002a0: a35a b63b b5fd 8f3b 0587 ad3c 26cc a23c
000002b0: d3ce 263c c9fa cb3b 4e82 d83b f219 723c
000002c0: b370 d83a fa78 a83c 819f bd3c 6a01 903b
000002d0: 16af 9f3c fdfc 103c a039 413c ea51 bbba
000002e0: 2cd4 473c 5bfb a23b b0c4 1d3b d6b2 883c
000002f0: bd37 c03c 220a 613c 8b58 8a3c f486 c7bb
00000300: 80fb 163c 6cea 283c 6d13 ddba 49af fe3b
00000310: 4bb5 09bc 31db a43c 67e1 d03c 064b 5e3b
00000320: b3d9 463c b1eb a03c f650 393c d95b 933c
00000330: 6d48 6c3c bb1e 2f3c 000a 143c d17c ae3c
00000340: e777 ac3c 6f00 9e3c c973 9a3c f418 723b
00000350: 4987 713c a24d b93b 3365 4e3c 5478 bb3c
00000360: 1e0e 8c3a 3112 2b3c f33d d13b fbb7 3f3c
00000370: 83fe 6c3c 78b0 733c 27ce 3c3c f93a 07ba
00000380: 2286 11bb f6e2 1c3c 59e8 4a3c a9f4 453c
00000390: 507e 5d3c 2378 6fbb b47b ac3c f8f3 263b
000003a0: 1c6c c53c 414b 8b3c de80 253c d99b cb3b
000003b0: 2f26 563c 5d2d dc3b 190e 5c3c 71c1 d13b
000003c0: 2b09 803c 5403 533c 1bf9 813c 450e 963c
000003d0: 4db6 f33a fb32 743c b078 243c 3fdc 8c3c
000003e0: 58e6 a93b 57ae 763b 9ba5 8537 2d2a 8f3c
000003f0: 7034 aa3c a185 f63b 3ab9 693c 1cc5 523c
0.012152683 0.0020823353 0.014642135 0.0027269544 0.021154135 0.007477024 0.009308674 0.014068886
-0.009343772 0.014977348 0.010860583 0.016866917 0.012575553 0.010841657 -0.0022224325 0.0160275
0.0046233954 0.02211646 0.0033707686 -8.286802e-05 0.020497728 0.013331303 0.01217937 0.011324845
0.019777134 0.0018973257 0.01440571 0.0006685062 0.01701269 0.0131597025 0.008286966 0.023415066
0.013076231 0.022820584 0.014309849 0.004605354 0.006281861 0.0040642647 -0.008622113 0.0038021246
0.009296539 0.00804463 0.0042417217 0.00012916549 0.009731204 0.025378315 0.0070664445 0.016416045
0.0176384 -0.0009967481 0.016253099 0.01323245 0.0057942215 0.013047022 0.017508287 0.004528439
0.010988241 0.014351929 0.017528193 -0.0017080281 0.017004857 0.0033867827 0.008171261 0.010370083
0.01070423 0.009290236 0.0068327994 0.0025901601 0.014589465 0.00060133555 0.020778606 0.009145078
0.014466594 -0.004441269 0.00051099516 0.011120103 0.021910083 0.0058782403 0.017233076 0.0194582
0.0027398777 0.0056773117 0.012953326 0.017100126 0.017030323 0.010591178 0.0025682775 0.022305284
0.0015283582 0.02618238 0.00093774876 0.013475363 0.006080457 0.016437292 0.017391752 0.005323081
0.019418849 0.013033133 0.0019001906 0.01815799 0.0067818384 0.0062633785 0.008725472 0.02260561
0.013607991 -0.0025405046 0.0071445634 0.01824501 0.02171613 0.020414129 0.019461349 -0.0014691626
0.013296924 0.0156211695 0.013948675 0.020937163 -0.0011235565 0.020091532 0.009814226 0.010107926
0.002563841 0.0047052214 0.009792413 0.012321034 0.006317252 0.011182835 0.007346829 0.007852674
0.005260823 0.0057142535 0.0069045126 0.012912511 0.010721855 0.01377685 0.010733755 0.016186716
0.009706835 0.012166789 0.020235538 0.019032795 -0.00043968952 -0.015528581 0.011000405 -0.0019705247
0.015144665 -0.008310133 -0.007585164 0.017914278 0.013666762 -0.0026063703 0.008683937 0.015201885
0.012227544 0.014048357 -0.003184644 0.011979154 0.0066835526 0.024951044 0.013080123 0.013438617
0.0069931 0.014955961 0.0074968645 -0.0007366827 0.021337219 0.021524843 0.012144099 0.016317358
0.005565004 0.004394258 0.021182546 0.019872736 0.010181147 0.0062249643 0.0066073304 0.014776694
0.0016513079 0.020565499 0.023147346 0.0043947 0.019492667 0.00884938 0.011793524 -0.001429138
0.012196582 0.0049738116 0.0024073534 0.016686838 0.023464078 0.013735326 0.016887924 -0.0060890857
0.009215236 0.010309797 -0.0016866751 0.0077723605 -0.00840504 0.02012405 0.025498105 0.003391923
0.0121368645 0.019643636 0.0113108065 0.017988132 0.0144215645 0.010688479 0.009035587 0.021299751
0.021053268 0.019287316 0.018854039 0.0036941143 0.014741727 0.0056550065 0.01259737 0.022884525
0.001068536 0.010441349 0.0063855588 0.011701579 0.014464977 0.014873616 0.01152376 -0.0005158629
-0.0022205194 0.009575596 0.012384498 0.012082257 0.013518885 -0.0036540113 0.02105508 0.0025475007
0.024099402 0.017003657 0.010101525 0.006213647 0.013070627 0.006719275 0.0134310955 0.006401234
0.015629372 0.012879211 0.015865853 0.018317351 0.0018593759 0.014904733 0.01003854 0.017194865
0.00518493 0.0037640536 1.5931952e-05 0.017476166 0.020776957 0.007523254 0.014265353 0.012864377

action_model._discrete_distribution.branches.0.weight f4 [4, 256]
00000000: a031 0cbd 7c48 553c a6ea 90bc 4387 b03c
00000010: a3e7 15bd de7b 933b 859d 0b3d 6c28 d5bb
00000020: 51f7 c738 7b4e 88bc 400f 423c 7c90 dbbc
00000030: 2a26 a7bb 7851 0d3d 0603 b43c 5ee9 8b3c
00000040: d656 8f3c cffa d8bc 3601 2dbb 4410 0f3d
00000050: 3440 06bd 3aea 9abc 38cb 89bc e65e 10bc
00000060: a4c8 3abc 3438 6b3b d211 183d 41b8 d43c
00000070: 0faf 3bbd a9a3 613c 7e3e 013c 4957 263c
00000080: 2f0f 273d eb18 4bbc 12ea 763c 9180 043c
00000090: d574 873c f40e f13b c3ff 943c 0aa7 1f3d
000000a0: 2b9d bfbc fae8 233d d891 153d ae3c 883c
000000b0: 8aaf 5c3d 5ff3 95bc e902 21bd a5c4 45bd
000000c0: 7d60 dfbb 1aa7 283d e0a3 3ebc 7df1 b9ba
000000d0: 1836 e4bb 77f0 b9bc 7f39 7cbb 3fab d63c
000000e0: de07 4cbc f771 9abc 5a26 db3c 899c ae3b
000000f0: 6eea 1a3a 641e 933c 3d5d 6ebb 4759 9fbc
00000100: 799c 52bb aa4b f63c a8fd 693c a6ee b83c
00000110: 2c0c c33a 3c5f 303c 323e f0bc 6b49 a83c
00000120: a815 583d 60b9 983b ad37 ee3c f428 c53b
00000130: 30f1 de3a b67f 3dbc da39 f5bc 559b 443c
00000140: fa69 533d 6883 56bc aa9f d1bc de1c 03bd
00000150: 64f9 1d3d e121 80bc 794e 533c 061b d4bc
00000160: 5d2e 7e3c fc92 f1bc a0f4 443c c307 4d3c
00000170: 19fc c6bb 876f 0cbd eb57 8c3c 70d7 b53c
00000180: a669 95bc 6284 2dbc 329d 503c ec2f 903c
00000190: 9e38 6ebc 1465 31bc daab b8bc e92a e2bc
000001a0: 7b35 10bc 5078 473c 1d1f e13b 83f3 76bc
000001b0: b8b5 0fbc 2ee0 afbc c0c3 09bd b092 2ebb
000001c0: e9e3 00bd 288e debb dc46 403c beb1 b0bc
000001d0: 35ea d53c 4f7b 13bd 8852 483c 26cd 853c
000001e0: fb7d 773c 9f77 0c3a 6684 863c ca9b c13b
000001f0: 32b4 9f3c 5e55 d4bb b020 013b 9b67 4abb
00000200: d8d7 e73a 58e3 523c c3fd 3c3d e89b 53bc
00000210: d20b 5bbb 0e08 e1bc ce02 85bb 7570 153c
00000220: 7635 713d c600 1b3c 9ccd 16bc 4089 71bc
00000230: c134 193d 56ce b83a 9195 06bc 2102 ee3b
00000240: a1a6 20bd 8878 b63b 4f81 bc3c e6b7 1b3b
00000250: 1d13 853c 247e be3b 3aa7 9038 88fa d4bc
00000260: d6b9 42bc 1d28 66bc 6d00 2bbb 9b2d e8bc
00000270: 8f05 1a3c 8c00 fcbc b5c7 91bc 7baa 493b
00000280: e4e1 66bc 5601 96bc 9865 923c 60f8 0c3d
00000290: cf66 bbbb 3ad6 21bd 8b3c c7bc 78ee d5bc
000002a0: 48ef 1c3d 205b 9cbb 10fc 8abc fd96 0cbc
000002b0: 9715 003b 42a3 383c e286 9b3c 0d32 bc3c
000002c0: 4d23 333c 2dca b9bc 938a 22bd 9012 743c
000002d0: 8af0 923c 46c1 c6bb 0c45 d93c a422 9b3c
000002e0: d321 85bc eb6f 283d 29cc e63c 2e68 4c3d
000002f0: 6bf4 c5bc 073c 0cbd 048e 49bc e070 bf3c
00000300: fa64 a43b 9c95 ce3c 7db6 8f3c 876e 623c
00000310: 0fd0 653b 1cf1 2cbc 21d6 bbbc fba9 ae3b
00000320: 73e3 04bd 85e8 5fbd 9169 9e3c 0c32 febb
00000330: 9037 78bc 412b 76bc 9a14 253c 3318 473c
00000340: 4c7d 093c 0312 01bd 22d1 a8bc e3cf b53c
00000350: 5bae 87bc 90b3 4ebc 2040 44bb dda4 f9bc
00000360: 4fbc 1f3b 53c6 25bc 0d67 9bbb f6cf 31bb
00000370: 698b 2fbd 843d 313c 5e77 de3c 2d10 de3b
00000380: 3868 d03b 199a d93c 168f 72bc a2e8 283c
00000390: 3926 76ba 602b 8c3c 1ab1 c9bc 8df2 a43c
000003a0: 04ec cebc b3af c5bb d0a8 69bc 74d5 f8ba
000003b0: a23f e03c aeac c43c 6db9 3cbc 317b 8abb
000003c0: c3d7 debc b816 3c3c fb13 a5bc 6b19 883c
000003d0: 6256 a23b 57ca 25bd 87cf a6bc 780d 63bc
000003e0: 34be 85bc c003 32bb cd29 c03c 02fd b4bb
000003f0: 28ec 0abc ab8a 133c ed83 d5ba 7321 a13a
-0.034227014 0.01301777 -0.017690014 0.021548873 -0.03659786 0.00450085 0.03408577 -0.006505063
9.535126e-05 -0.016638985 0.011844456 -0.026802294 -0.005100985 0.034501523 0.021974098 0.017079052
0.017497461 -0.026486782 -0.0026398427 0.03492762 -0.032776073 -0.018910516 -0.016820535 -0.008811688
-0.0114003755 0.0035891654 0.03712637 0.025966765 -0.045821246 0.01377193 0.007888434 0.010152646
0.040785965 -0.012396078 0.015070455 0.008087293 0.016535202 0.007356519 0.018188363 0.03897766
-0.023390373 0.040017106 0.03651604 0.016630497 0.053878345 -0.018304525 -0.039309416 -0.048283238
-0.006816922 0.041174985 -0.0116357505 -0.0014186349 -0.0069644563 -0.02269767 -0.0038486419 0.026204703
-0.012453048 -0.01885317 0.026751686 0.005328719 0.00059095665 0.017958827 -0.0036371492 -0.01945175
-0.0032136722 0.030065376 0.014281668 0.022574734 0.0014880947 0.010764893 -0.029326532 0.02054282
0.052755028 0.0046607703 0.029079283 0.006016845 0.0017009135 -0.011566093 -0.029934812 0.011999925
0.05161474 -0.013092853 -0.02558883 -0.03200995 0.038567916 -0.015641155 0.012897127 -0.025891792
0.015513984 -0.029489033 0.012021214 0.012514058 -0.006072533 -0.03428605 0.017131766 0.022197455
-0.018238854 -0.010590645 0.012732791 0.017600976 -0.014539866 -0.010827322 -0.022542883 -0.027608352
-0.008801813 0.012174681 0.006870164 -0.015072706 -0.0087713525 -0.021469202 -0.033633947 -0.0026637726
-0.031467352 -0.0067918487 0.011735644 -0.02156913 0.026112655 -0.036006268 0.012226708 0.016333174
0.01510572 0.0005358401 0.016420554 0.005908464 0.019495104 -0.006479903 0.001970332 -0.0030884508
0.0017688228 0.012871586 0.046140444 -0.012915589 -0.0033423794 -0.027469661 -0.0040591722 0.00912105
0.058888875 0.009460634 -0.0092042945 -0.014742196 0.037403826 0.0014099579 -0.00821437 0.0072634374
-0.03922141 0.0055685677 0.023010878 0.0023760735 0.016244465 0.005813377 6.8976035e-05 -0.025998369
-0.011885127 -0.01404765 -0.0026092783 -0.028342059 0.009400739 -0.03076198 -0.017795423 0.003077178
-0.014091942 -0.018311184 0.01787071 0.034416556 -0.005719043 -0.039510943 -0.024320861 -0.026114687
0.038314134 -0.004771605 -0.016965896 -0.00858092 0.0019544119 0.011269392 0.018985216 0.022973085
0.010933709 -0.022679413 -0.039682936 0.014897004 0.017936964 -0.0060655205 0.026522182 0.018937416
-0.01625148 0.04112236 0.028173523 0.04990404 -0.0241644 -0.034236934 -0.012301926 0.023369253
0.00501692 0.025217824 0.017543072 0.013820297 0.003506664 -0.010555532 -0.022929253 0.005330322
-0.032443475 -0.054665107 0.019337447 -0.007757431 -0.015149966 -0.015024961 0.010075713 0.012151766
0.0083916895 -0.031511318 -0.020607535 0.022193855 -0.016562631 -0.012616053 -0.0029945448 -0.03047412
0.0024373715 -0.010118085 -0.004742509 -0.002713201 -0.04285756 0.010817889 0.027156528 0.0067768306
0.00636008 0.026562737 -0.014804622 0.01030937 -0.0009389851 0.017110527 -0.024620581 0.020135188
-0.025259025 -0.006032908 -0.014261439 -0.0018984512 0.027374092 0.024008121 -0.011518818 -0.0042261113
-0.027202493 0.011480026 -0.020151129 0.016613683 0.0049541453 -0.04047617 -0.020362629 -0.013858192
-0.016326047 -0.002716288 0.023457432 -0.005523325 -0.008479156 0.009005229 -0.0016289927 0.0012293294

action_model._discrete_distribution.branches.0.bias f4 [4]
00000000: d322 62bc 4e6b 773b dea7 ee3b be0e 1ebb
-0.013802248 0.0037753168 0.007283195 -0.0024117674

onnx::Div_62 f4 [202]
00000000: d572 d33e f5de 8d3e ba1c d83e 43b9 b63e
00000010: 0cd7 d63e c07f b23e ba1c d83e 4d00 b73e
00000020: 0cd7 d63e fdc0 b23e 43fd d43e a90c b73e
00000030: 7018 ca3e bbb8 b13e cb79 d43e 915a b73e
00000040: 0b72 c83e be5d b13e 209c d43e dff2 b63e
00000050: 7275 c83e acc5 b03e a2fe d83e 8c21 b83e
00000060: 2a81 cc3e f45d b13e c513 d13e 5e7b b63e
00000070: 9b49 c93e 7bf0 af3e 56c3 d23e 98ad b63e
00000080: 2054 cc3e 0527 b03e b896 cf3e a6d5 b63e
00000090: 93de ca3e da8c b13e 0d54 cd3e 06d4 b53e
000000a0: 189e cc3e b050 b13e ca99 c53e 6225 a93e
000000b0: a6aa c93e 5ca3 a43e 0267 c33e b1d9 a73e
000000c0: 7b2b c93e 81b6 a33e cb4d c33e 79e3 a73e
000000d0: 0f97 c83e bfca a33e 4b98 c23e b240 a83e
000000e0: f203 c73e 7e9d a43e b18a cc3e c0b2 b83e
000000f0: 3505 d03e a959 b63e 6f06 cc3e 5d47 b93e
00000100: a565 cf3e e1f1 b63e 3f94 cc3e 49a1 b83e
00000110: df2f d03e 6207 b63e cea5 cb3e 59bd b83e
00000120: df27 cf3e c6ff b53e 07a0 cd3e 232c b93e
00000130: 8970 d83e 428a b83e f867 ca3e 97ed b73e
00000140: abc3 d63e 10c7 b73e 462d cc3e 78eb b83e
00000150: 3a1f d83e 94dd b83e d626 cc3e 9ebd b83e
00000160: 96a8 d93e f82c b93e 6a25 db3e 55a9 b93e
00000170: fdac e43e 1fcc b93e 6a25 db3e fdae b93e
00000180: fdac e43e 6fae b93e c3b5 d93e f2da ac3e
00000190: d554 e33e a8c2 a23e ba53 db3e ed4a c13e
000001a0: e39b e43e 7d6a c53e ba53 db3e 575f c13e
000001b0: e39b e43e 678a c53e fc29 d03e a7e1 c03e
000001c0: 6568 d83e cf3f c53e e86c d03e 33f3 c03e
000001d0: 0f1c d73e 0cf0 c43e ec17 ce3e 2c95 bf3e
000001e0: 0925 d53e 918d c33e f832 d03e aabb bf3e
000001f0: b291 d73e 2cd2 c33e f1ee ca3e 1922 bf3e
00000200: 2cfc cf3e 0d7b c13e ead9 cb3e 71f8 be3e
00000210: 7819 d13e 3a64 c13e 87a6 ca3e 8ce7 be3e
00000220: 9437 d13e e6be c13e 3620 cb3e 903c be3e
00000230: d514 d23e 431c c13e 2290 bf3e e8f4 ad3e
00000240: 9e25 c53e b06c b13e aedd be3e 4e75 ad3e
00000250: 7553 c53e 05c9 b03e b99c be3e 5f7b ad3e
00000260: 62c0 c53e 6bbd b03e 4191 be3e c9db ad3e
00000270: 9c5d c63e 2718 b13e 63dc c73e 46d5 bb3e
00000280: 9e87 cf3e 978d bd3e 1872 c73e b06e bc3e
00000290: 9e60 cd3e 7907 be3e cee4 c83e 0574 bc3e
000002a0: 22f6 ce3e 0fb0 bd3e cf19 c83e 9d8c bc3e
000002b0: 7394 cc3e 47c9 bd3e d26a cc3e 6eba bd3e
000002c0: e66c ce3e 1fa6 be3e bfa0 c93e 90a4 bd3e
000002d0: 26ed c93e 762d be3e c8cf cb3e e304 bf3e
000002e0: 2d4a ca3e 4589 bf3e 97a4 cc3e 8c50 bf3e
000002f0: 1737 cb3e 73dc bf3e dd98 d83e f310 c03e
00000300: 4f19 d93e b5ad c03e dd98 d83e f728 c03e
00000310: 4f19 d93e 07c4 c03e 4730 d53e aaf3 b93e
00000320: 4730 d53e aaf3 b93e
0.41298547 0.27709165 0.42209417 0.35688218 0.41960943 0.3486309 0.42209417 0.35742417
0.41960943 0.34912863 0.41599473 0.35751846 0.3947177 0.3471125 0.4149917 0.35811284
0.39149508 0.34641832 0.41525364 0.3573217 0.39152104 0.34525812 0.4238177 0.35963094
0.39942294 0.34641993 0.40835395 0.35640997 0.3931397 0.3436316 0.41164654 0.35679317
0.39907932 0.3440477 0.40544677 0.35709876 0.39622936 0.34677774 0.40103188 0.35513324
0.39964366 0.34631872 0.38593894 0.33036333 0.39388007 0.32155883 0.38164526 0.32783273
0.39290985 0.31975177 0.3814529 0.32790735 0.3917775 0.3199062 0.38006815 0.3286186
0.38870198 0.32151407 0.39949563 0.36073875 0.40628973 0.3561528 0.39848658 0.36187258
0.40507236 0.35731414 0.39956853 0.3606055 0.40661523 0.35552508 0.39774936 0.3608196
0.40460107 0.35546702 0.40161154 0.36166486 0.42273358 0.36042982 0.39532447 0.35923454
0.41946158 0.3589406 0.3987829 0.36117148 0.42211324 0.3610655 0.3987338 0.36082166
0.42511433 0.3616712 0.42801982 0.36262003 0.4466323 0.36288545 0.42801982 0.36266318
0.4466323 0.36265895 0.42521486 0.33760792 0.4440066 0.31789136 0.42837316 0.37752476
0.44650182 0.38557807 0.42837316 0.3776805 0.44650182 0.38582155 0.40657032 0.3767216
0.42267147 0.38525245 0.4070809 0.37685546 0.42013595 0.3846439 0.40252626 0.37418497
0.41629818 0.38193944 0.40663886 0.37447864 0.42103344 0.38246286 0.39635423 0.37330702
0.4062208 0.37789193 0.39814693 0.3729892 0.40839744 0.3777178 0.39580175 0.3728603
0.40862715 0.37840956 0.39673012 0.3715558 0.4103152 0.37716874 0.37414652 0.3397591
0.38505262 0.34653234 0.37278503 0.3387856 0.38540235 0.34528366 0.37228945 0.33883187
0.3862334 0.34519514 0.37220195 0.33956745 0.38743293 0.3458874 0.3903533 0.36686152
0.40533155 0.37022087 0.38954234 0.36803198 0.40112776 0.37115076 0.39237064 0.36807266
0.4042216 0.37048385 0.3908219 0.3682603 0.39957008 0.37067625 0.39925247 0.37056297
0.40317458 0.37236115 0.39380452 0.37039614 0.39438742 0.3714406 0.39806962 0.37308416
0.39509717 0.37409416 0.39969322 0.3736614 0.39690468 0.37472877 0.42304125 0.3751293
0.4240212 0.37632528 0.42304125 0.37531254 0.4240212 0.37649557 0.41638395 0.36318713
0.41638395 0.36318713

onnx::Div_65 f4 [10]
00000000: db8a b341 5425 2b41 29ec ba3b 29ec ba3b
00000010: 29ec ba3b 29ec ba3b 29ec ba3b 29ec ba3b
00000020: 29ec ba3b 29ec ba3b
22.4428 10.696613 0.005704422 0.005704422 0.005704422 0.005704422 0.005704422 0.005704422
0.005704422 0.005704422
