results/GameAddedRewards3AllPlayers/PlayerBehaviour.onnx (onnx, 490727 bytes, 10 tensors)

network_body.observation_encoder.processors.0.normalizer.running_mean f4 [202]
000000 00 00 00 00 e5 83 db 3d 00 00 00 00 3a c6 03 3d
       0.0 0.10718516 0.0 0.032171465
000010 00 00 00 00 20 a2 cc 3c 00 00 00 00 92 3e 00 3d
       0.0 0.024979651 0.0 0.03130967
000020 00 00 00 00 1d 85 c5 3c 00 00 00 00 f2 7d fc 3c
       0.0 0.024111325 0.0 0.030821774
000030 00 00 00 00 33 b2 c2 3c 00 00 00 00 46 ca f9 3c
       0.0 0.023766613 0.0 0.03049196
000040 00 00 00 00 e9 f1 be 3c 00 00 00 00 1e ab f5 3c
       0.0 0.023308711 0.0 0.029988822
000050 00 00 00 00 3a d6 bb 3c 00 00 00 00 9e 85 ec 3c
       0.0 0.0229293 0.0 0.028872307
000060 00 00 00 00 2b d7 b5 3c 00 00 00 00 dc 3a ed 3c
       0.0 0.022197327 0.0 0.02895873
000070 00 00 00 00 51 9f b7 3c 00 00 00 00 70 04 ea 3c
       0.0 0.022414835 0.0 0.02856657
000080 00 00 00 00 21 20 b6 3c 00 00 00 00 e4 5d dd 3c
       0.0 0.022232117 0.0 0.02702231
000090 00 00 00 00 de 2a aa 3c 00 00 00 00 e0 b3 db 3c
       0.0 0.020772394 0.0 0.02681917
0000a0 00 00 00 00 36 f8 a7 3c 00 00 00 00 da 9a e0 3c
       0.0 0.020504098 0.0 0.027417589
0000b0 00 00 00 00 69 f2 ac 3c 00 00 00 00 a9 ba e8 3c
       0.0 0.021111684 0.0 0.028409319
0000c0 00 00 00 00 de 60 b4 3c 00 00 00 00 19 2b e8 3c
       0.0 0.022018846 0.0 0.028340863
0000d0 00 00 00 00 11 29 b4 3c 00 00 00 00 6b 52 df 3c
       0.0 0.021992238 0.0 0.02726098
0000e0 00 00 00 00 82 bf ab 3c 00 00 00 00 39 a0 d9 3c
       0.0 0.020965341 0.0 0.026565658
0000f0 00 00 00 00 9b 21 a8 3c 00 00 00 00 93 da da 3c
       0.0 0.020523837 0.0 0.026715552
000100 00 00 00 00 ac 5f aa 3c 00 00 00 00 73 f2 e4 3c
       0.0 0.020797573 0.0 0.02794764
000110 00 00 00 00 4a 84 b4 3c 00 00 00 00 18 a3 e6 3c
       0.0 0.022035737 0.0 0.028153941
000120 00 00 00 00 7e 48 b6 3c 00 00 00 00 a7 eb e5 3c
       0.0 0.022251364 0.0 0.02806647
000130 00 00 00 00 8b df b4 3c 00 00 00 00 0c bc ed 3c
       0.0 0.02207925 0.0 0.029020332
000140 00 00 00 00 dc 9f bb 3c 00 00 00 00 bc c6 f1 3c
       0.0 0.022903375 0.0 0.02951371
000150 00 00 00 00 b4 b5 c0 3c 00 00 00 00 37 5b f7 3c
       0.0 0.023524143 0.0 0.030194862
000160 00 00 00 00 c4 57 c7 3c 00 00 00 00 e5 e5 fc 3c
       0.0 0.024333842 0.0 0.030871341
000170 00 00 00 00 b6 1d d1 3c 00 00 00 00 a6 24 03 3d
       0.0 0.025526863 0.0 0.032017373
000180 00 00 00 00 1c ee e8 3c 00 00 00 00 11 3d 06 3e
       0.0 0.028433852 0.0 0.13109232
000190 00 00 00 00 f6 7e dc 3e 00 00 00 00 a3 69 0f 3d
       0.0 0.43065614 0.0 0.035012852
0001a0 00 00 00 00 df db 20 3e 00 00 00 00 7d c7 0a 3d
       0.0 0.15708874 0.0 0.033881653
0001b0 00 00 00 00 5e e3 1d 3e 00 00 00 00 19 f7 07 3d
       0.0 0.15418765 0.0 0.033194635
0001c0 00 00 00 00 73 c6 19 3e 00 00 00 00 30 4d 05 3d
       0.0 0.15017109 0.0 0.032544315
0001d0 00 00 00 00 2b db 12 3e 00 00 00 00 b0 a9 03 3d
       0.0 0.14341418 0.0 0.03214425
0001e0 00 00 00 00 2f 9a 09 3e 00 00 00 00 1b 8f fe 3c
       0.0 0.13437723 0.0 0.031074097
0001f0 00 00 00 00 ef e7 fd 3d 00 00 00 00 0b 16 00 3d
       0.0 0.123977534 0.0 0.03127102
000200 00 00 00 00 c3 a7 fb 3d 00 00 00 00 92 07 ff 3c
       0.0 0.122878574 0.0 0.03113154
000210 00 00 00 00 86 2d f8 3d 00 00 00 00 f4 62 f0 3c
       0.0 0.12118058 0.0 0.02934406
000220 00 00 00 00 86 76 e1 3d 00 00 00 00 2a 4e ee 3c
       0.0 0.11008935 0.0 0.029090006
000230 00 00 00 00 61 b5 de 3d 00 00 00 00 65 51 f5 3c
       0.0 0.10874439 0.0 0.029946038
000240 00 00 00 00 82 72 db 3d 00 00 00 00 aa 69 00 3d
       0.0 0.107152 0.0 0.03135077
000250 00 00 00 00 47 cf e3 3d 00 00 00 00 e5 a2 00 3d
       0.0 0.111235194 0.0 0.03140535
000260 00 00 00 00 41 df e3 3d 00 00 00 00 3e e9 f8 3c
       0.0 0.11126567 0.0 0.030384656
000270 00 00 00 00 45 a3 d9 3d 00 00 00 00 a7 bf f3 3c
       0.0 0.10626844 0.0 0.029754473
000280 00 00 00 00 d5 ab dd 3d 00 00 00 00 07 de f6 3c
       0.0 0.1082379 0.0 0.030135168
000290 00 00 00 00 2a e9 e1 3d 00 00 00 00 07 4b 01 3d
       0.0 0.11030801 0.0 0.031565692
0002a0 00 00 00 00 8c 71 fa 3d 00 00 00 00 0d 29 03 3d
       0.0 0.122286886 0.0 0.03202157
0002b0 00 00 00 00 31 28 ff 3d 00 00 00 00 84 a3 02 3d
       0.0 0.12458838 0.0 0.031894222
0002c0 00 00 00 00 12 72 ff 3d 00 00 00 00 1e ec 07 3d
       0.0 0.12472929 0.0 0.033184163
0002d0 00 00 00 00 02 fb 07 3e 00 00 00 00 fd 53 0b 3d
       0.0 0.13279346 0.0 0.034015644
0002e0 00 00 00 00 e0 95 10 3e 00 00 00 00 a5 2f 0f 3d
       0.0 0.14119673 0.0 0.034957547
0002f0 00 00 00 00 f5 7a 17 3e 00 00 00 00 82 17 14 3d
       0.0 0.14792998 0.0 0.03615523
000300 00 00 00 00 4c 60 1b 3e 00 00 00 00 e8 fa 1f 3d
       0.0 0.15173453 0.0 0.039057642
000310 00 00 00 00 79 77 1e 3e 00 00 00 00 09 25 de 3e
       0.0 0.15475263 0.0 0.4338763
000320 00 00 00 00 09 25 de 3e
       0.0 0.4338763

network_body.observation_encoder.processors.1.normalizer.running_mean f4 [10]
000000 46 cd 10 42 f5 a3 83 41 00 00 00 00 00 00 00 00
       36.200462 16.455057 0.0 0.0
000010 00 00 00 00 00 00 00 00 00 00 00 00 00 00 00 00
       0.0 0.0 0.0 0.0
000020 00 00 00 00 00 00 00 00
       0.0 0.0

network_body._body_endoder.seq_layers.0.weight f4 [256, 212]
000000 02 75 98 3d 5c d4 d2 bd 73 1b a5 bc 7f ea 08 3e
       0.074441925 -0.102944106 -0.02015469 0.13370703
000010 15 95 10 3e be fb ed 3c 30 cb 91 3d be d3 15 3e
       0.1411937 0.029050704 0.07118833 0.14631554
000020 f7 72 f7 3b af 4e fd 3d b0 fa c3 3c bd 20 7d 3d
       0.0075515467 0.12368523 0.023923248 0.0617988
000030 21 03 71 bd 21 2f 47 3d dc fa 3c 3d 4d f2 db bc
       -0.058840875 0.04862893 0.046137676 -0.026848936
000040 8c 77 9f 3d ef 79 ac 3d 5c 50 2c 3d cf a8 57 bc
       0.07786474 0.084216945 0.042068824 -0.013162806
000050 ee bf e3 bd a6 49 92 bd 65 ca ba 3d 4d 57 ad 3d
       -0.11120592 -0.071429536 0.09120635 0.08463917
000060 b4 39 27 3d cb 90 9a 3c ca bc b5 bd b5 f2 d8 bc
       0.040826514 0.01886787 -0.08873899 -0.02648292
000070 77 45 bb bd e7 46 a7 3d 4c 59 4a bd f9 49 8a bc
       -0.09144109 0.081678204 -0.049401566 -0.016880976
000080 48 57 3e be 16 4a c3 3d 9f 0c bf bd b4 68 a2 bc
       -0.18587983 0.09535615 -0.09328579 -0.019825317
000090 72 3e 80 bd 0b 02 cf 3d 99 81 79 3d bd 1c 3f bd
       -0.062619105 0.101078115 0.06091461 -0.046658266
0000a0 57 e7 3e 3e 6e f6 9d 3c c2 c4 02 3d 59 e0 a6 bd
       0.18642937 0.019282546 0.031925924 -0.0814826
0000b0 61 ca 26 be 8d ff 2c 3c 4f 93 87 3d b2 f4 21 bc
       -0.16288139 0.010558975 0.06619894 -0.009885
0000c0 35 21 ae 3d fa fe 87 3d f6 2f 06 3d 15 88 81 3d
       0.085024275 0.0664043 0.032760583 0.06324784
0000d0 1e d5 08 3d 7c dc 26 bd 08 91 b8 3d 33 26 55 3d
       0.03340637 -0.040737614 0.090120375 0.052038383
0000e0 11 f1 c1 bd f5 6e 29 3e d6 ee 14 bd 7b 6c b0 3b
       -0.09469808 0.16546233 -0.036360584 0.0053840256
0000f0 d7 6e 70 bd 58 01 80 3c ef d2 84 bd f8 b1 3b 3d
       -0.058699455 0.01562564 -0.06485545 0.04582402
000100 90 82 83 3c 6e cf 90 bd 5e c9 8c 3d 62 7b 82 3d
       0.016053468 -0.07070814 0.06874345 0.0637119
000110 9c bf 6c 3d 51 d5 9e 3c 3a 6f 2d bd 71 ea dc bb
       0.05779992 0.019388827 -0.042342402 -0.006741815
000120 2f ea 04 3d 0d 82 4e 3c 20 12 ee 3d 94 1e 08 3d
       0.032449897 0.012604249 0.11624551 0.033232287
000130 7f 6b fe 3d 1a f3 ff 3d 4c f3 90 3d e3 b9 3f bd
       0.12422847 0.1249754 0.07077655 -0.046808135
000140 08 56 67 bd 72 2b eb 3c f6 09 83 bd 1a 29 7a bd
       -0.05647853 0.02870724 -0.06398384 -0.061074354
000150 3a 50 6a 3c eb c7 b5 bd d1 44 1c bd 14 ab f8 bc
       0.014301354 -0.08876022 -0.038151566 -0.030355014
000160 11 3f 56 3d b3 04 8c 3d 7c 80 0a bd 95 01 9e bb
       0.05230624 0.06836834 -0.03381394 -0.004821966
000170 8a 18 52 3d 47 69 a5 3d b9 64 f4 3d 90 bc 9f 3c
       0.051292934 0.08076721 0.11933274 0.019499093
000180 4d e2 12 3d 11 b3 db bc d1 85 56 3c 12 1a 96 bb
       0.03586035 -0.026818784 0.013093428 -0.0045807445
000190 fd ee 26 bd b0 c8 e8 bd aa b6 02 be 4f 41 76 bc
       -0.04075526 -0.11366403 -0.12764993 -0.015030219
0001a0 b2 78 d1 3d 6f 65 92 bb 81 0a 84 3d f8 4b b8 3c
       0.10228099 -0.0044676582 0.06447316 0.022497162
0001b0 60 3f e1 bc 3c 12 23 bd f4 d8 14 3d 0d c9 78 3d
       -0.02749604 -0.03981231 0.036339715 0.060738612
0001c0 40 a4 0a bd bc 1e 26 3d 30 b9 b7 3c ce 12 b3 bd
       -0.033848047 0.040556654 0.022427171 -0.08743821
0001d0 f2 a3 09 bc e0 2f 63 3c b6 65 bc 3d 09 5e f7 3b
       -0.008400904 0.013866395 0.09199087 0.0075490517
0001e0 44 38 9e bb c3 19 68 bd f8 5c e7 3c 2f 35 9c bd
       -0.0048284847 -0.056665193 0.028242573 -0.076273315
0001f0 b7 5d 96 3c cf ce 65 bd b8 89 cd bd 3e c5 2b bc
       0.018355234 -0.05610543 -0.100360334 -0.010484038
000200 59 99 30 3d 18 e8 de bb 84 77 59 3d c4 7b f6 bc
       0.043114994 -0.00680257 0.053092495 -0.030088313
000210 98 c8 15 bd 90 7c 67 bd da 5b 8b 3d 3b 2d 49 bd
       -0.036568254 -0.056515276 0.06804629 -0.0491154
000220 97 86 45 3c f9 21 8d 3d 81 c6 12 3e be 40 51 bd
       0.0120560145 0.068912454 0.14333536 -0.051087134
000230 45 d2 36 3d ae cd f2 3a e3 c5 cb bc 86 d8 15 3d
       0.044634122 0.0018524432 -0.024874633 0.036583446
000240 75 ab 02 bd 7c 2c 51 bd c0 6e 94 bd 3a 75 43 bc
       -0.031901795 -0.051067814 -0.072476864 -0.011929804
000250 80 3f 3c 3c 5e 86 00 3d 95 79 fc bc 32 08 57 bc
       0.011489749 0.031378143 -0.030819694 -0.0131245125
000260 84 31 99 3d 7e 85 6d 3d 7c 06 9e bc 2e 6e 22 bd
       0.074801475 0.057988636 -0.019290201 -0.039655857
000270 f8 7a 54 bd cd 5d 4b 3d 42 b8 95 bd 56 5d 8e bd
       -0.051875085 0.049650002 -0.07310535 -0.06951396
000280 e4 31 8b bc d7 1e c4 bd a0 42 12 bd 56 16 43 3d
       -0.016991563 -0.09576195 -0.03570807 0.047628723
000290 1b 01 67 3c d3 93 c8 3d c6 03 aa 3d d3 3a 8c bc
       0.014099385 0.0979382 0.08301501 -0.017117893
0002a0 dc f0 7a bd 10 8f c2 bd de 45 47 bc 16 ec 11 3c
       -0.061264858 -0.09499943 -0.012162654 0.008906385
0002b0 55 b5 c0 bd 7c 41 46 3d 63 b5 e3 bc e6 73 e2 3c
       -0.09409586 0.048402295 -0.027796453 0.027643155
0002c0 54 d3 4c 3d a9 0f 9e bd e0 83 02 3d a4 5e ab bd
       0.050006226 -0.07717831 0.031864047 -0.08367661
0002d0 24 a8 72 bd af 01 cf 3c b1 ed 30 3e 21 cf de 3d
       -0.059242383 0.025269357 0.17278172 0.108793505
0002e0 06 88 03 3d 50 d1 f0 bc 75 d1 18 3d f0 25 46 3d
       0.032112144 -0.029396683 0.03730913 0.048376024
0002f0 bb a7 be 3d 3e fc 09 3c 83 d2 c0 3c e8 33 89 3b
       0.09309336 0.008421956 0.02353788 0.004187096
000300 65 ac 72 bd 6e 58 86 3d 4e b5 0d 3e 1d 8e ad 3c
       -0.05924644 0.065598354 0.13838693 0.021185929
000310 90 a5 de bc af 42 ce bd 15 18 82 3d 32 83 e7 3c
       -0.027178556 -0.10071313 0.063522495 0.028260801
000320 ab cd 35 bd 09 48 7a 3c 3e 3c 1d 3a 84 62 88 bd
       -0.044385593 0.015275964 0.00059980515 -0.06659415
000330 da dd 1b be 01 d3 c1 bd c4 41 ad bd 51 62 ed 3d
       -0.15221348 -0.09464074 -0.084598094 0.11591018
000340 0f 48 c7 3d cd 22 8e bc 30 db 37 3e b5 12 ac 3d
       0.09730541 -0.017350579 0.17954707 0.084020056
000350 79 8e 05 3d 08 7d 67 3d 6e a9 1b bc df d6 c9 3d
       0.032606576 0.056515723 -0.009500844 0.098554365
000360 40 d0 6d bd cf 66 2d 3d 2a 30 9a 3d cd 9a 64 bd
       -0.05805993 0.042334374 0.07528718 -0.055811692
000370 f0 7d 8c 3d 2c f8 12 bb 04 d5 09 3c 6f 81 ff bd
       0.06859958 -0.0022425754 0.008412603 -0.124758594
000380 08 24 a1 bd 0d 00 16 3d 87 bd 0e bd 5a 79 a0 3b
       -0.078682005 0.036621142 -0.034848716 0.0048972787
000390 bb 86 3a 3c 4c c9 2c bd f4 d3 6d bc d0 5e d5 3d
       0.011384661 -0.04218416 -0.014515866 0.10418475
0003a0 e3 be 7d bd 88 c7 c2 3d 28 02 16 bd 4d ad 02 be
       -0.061949622 0.09510714 -0.03662315 -0.12761422
0003b0 91 9a 12 3c f8 00 a5 3b 93 74 82 bc 6b 59 ed bd
       0.008947984 0.005035516 -0.015924728 -0.11589321
0003c0 d1 89 ce 3d 39 a4 a1 bc 6a 67 6a 3b b9 e6 86 3d
       0.1008488 -0.019731628 0.0035767206 0.065869756
0003d0 76 f2 aa 3c 5a 5b 03 bc a7 b7 0f be 0d 5a 41 3c
       0.020867568 -0.008017385 -0.14034902 0.011801255
0003e0 17 70 15 3d 98 3e 73 3b 8a 91 7b 3d 21 57 e9 bd
       0.03648385 0.0037116166 0.061418094 -0.11393572
0003f0 80 01 11 bd 28 67 85 3c e3 ed 03 3c 06 76 af 3d
       -0.03540182 0.01628454 0.008052322 0.08567433

network_body._body_endoder.seq_layers.0.bias f4 [256]
000000 ff 61 7a bc af 1a 81 3c 60 19 29 3d 32 e1 3d 3c
       -0.015282153 0.015759794 0.041283965 0.011589335
000010 8a 05 0e 3d 7d 71 13 bc af 45 5c 3d d6 74 51 3c
       0.03467325 -0.008999226 0.053777393 0.0127842035
000020 e7 36 2b bd 9d 06 1a 3d ca 73 21 3d 2e 57 a5 3b
       -0.041800406 0.037603963 0.039417066 0.005045793
000030 a5 42 82 3d 1b cf 6b 3d 7f 00 f3 3c db 59 1b 3c
       0.06360368 0.057570558 0.029663322 0.009481872
000040 95 4a 69 bc 07 8e ad 3c d0 3c a0 3c 55 fb 97 bc
       -0.014238973 0.021185888 0.019560248 -0.018552462
000050 2b d4 71 bc 02 e1 0d bd 80 17 0c 3d 73 13 23 3d
       -0.014760057 -0.034638412 0.0342021 0.03981347
000060 41 51 15 3d d0 af 1b bc 1b e3 0f 3d b5 cd 66 3d
       0.036454443 -0.009502366 0.035128694 0.05634852
000070 63 48 b4 3c b7 7d 59 bc 99 b3 24 bd ae bb 0f 3d
       0.022007173 -0.013274602 -0.04021034 0.035091095
000080 40 d6 60 3c 00 35 6b 3d 54 6c 6c 3d 67 5b 28 3d
       0.013722956 0.05742359 0.057720497 0.041102793
000090 fa 9d 04 3d 03 7c 3c 3b db 21 e8 3c 8e 50 8e 3c
       0.03237722 0.002876044 0.028336456 0.017372396
0000a0 4a f9 0d 3d d6 fc 20 bd f0 02 7a bc db 1b 43 bd
       0.03466157 -0.039303623 -0.015259489 -0.047633987
0000b0 9f 64 80 3d 80 91 0f bd d9 4d 50 3d 5e e4 93 3c
       0.06269192 -0.03505087 0.05085549 0.01805323
0000c0 7f 8a 40 3d 84 7f b0 3c 40 5b 37 3d 03 b8 1e 3d
       0.04700708 0.02154518 0.044764757 0.038749706
0000d0 48 de 81 3c 55 54 ac 3c 82 a0 ad 3c 10 38 e3 3c
       0.015853062 0.021036306 0.0211947 0.027736694
0000e0 25 54 bc 3c 6d ed 05 3b c3 47 80 bc 26 78 5f bc
       0.022989342 0.0020435706 -0.015659219 -0.013639485
0000f0 45 d4 73 3c 1a 63 16 3d 18 2c 44 bd 78 26 21 3d
       0.014882152 0.036715604 -0.047893614 0.039343327
000100 22 3e 84 bc 6f 85 42 3d b6 9b 07 3c 4f b6 3a bb
       -0.016142908 0.047490533 0.0082768705 -0.0028490012
000110 fb 3b 69 3d 33 24 44 3c f0 b7 30 bd 3b fe 57 3d
       0.056941967 0.011971521 -0.043144166 0.052732687
000120 a4 ba a7 3c 6b 8a f1 3c 2f ed ce 3c 6a a8 20 3b
       0.02047474 0.029484948 0.025259582 0.0024514445
000130 cd 2d 83 3c 3c a2 b3 bb 41 f0 a4 bb 3c 18 6d 3d
       0.01601305 -0.0054819863 -0.0050335233 0.05788444
000140 b8 87 77 3d 8f 13 6a 3d ce 74 b9 b9 a2 c5 f2 3c
       0.060432166 0.05714756 -0.00035372976 0.029635254
000150 f0 a9 13 3d d7 a3 29 3d 29 eb 16 3d 6a c2 a3 3c
       0.036050737 0.041416015 0.03684536 0.019990165
000160 6f c3 f1 3c 83 17 28 3d b3 69 85 3d a9 74 97 3c
       0.029512135 0.041038048 0.06514301 0.018488245
000170 a2 4d 5d 3c bd a9 fb 3c 55 fb d1 3c 7c 2e 14 3b
       0.013507279 0.030720586 0.02563254 0.0022610715
000180 cd 28 c4 3c a1 70 6e 3b 9b ad 7e 3c 7b 7c 0e bc
       0.023945237 0.003638305 0.01554432 -0.008696671
000190 54 20 28 3d 63 01 85 bc 8c 65 13 3d 8d ef 81 3c
       0.041046456 -0.016236013 0.035985515 0.015861297
0001a0 dc ae 04 3d ad da e9 3c 98 5b 07 ba 35 77 84 3c
       0.03239332 0.028546656 -0.000516349 0.016170124
0001b0 49 1d 91 3d b7 36 4a 3c 0e 98 64 3d c1 02 de 3c
       0.07085664 0.012342147 0.055809073 0.027100923
0001c0 41 cc a2 3c 93 24 0e 3d 98 85 2b 3d 7c 38 ec 3c
       0.019872786 0.03470285 0.04187545 0.028835528
0001d0 a4 57 c2 3c 38 cc d8 bc 94 31 36 bd 75 fc e0 bc
       0.023723431 -0.026464567 -0.044480875 -0.02746413
0001e0 e1 35 c2 bc ca 47 a0 3d 05 8d 26 3c fd 66 2e 3d
       -0.023707332 0.07826193 0.010165458 0.042578686
0001f0 fe 86 ea 3c c4 ef 3f 3d bc ef 30 bd 3d eb 22 3d
       0.028628822 0.046859518 -0.04319738 0.039775122
000200 0c da 14 3d d6 1d c1 bc 09 85 c9 3c e0 8c 5a 3d
       0.03634076 -0.023573797 0.024599569 0.053357005
000210 cf bd 3e bd 93 4e 06 3d 92 a1 57 3c 32 6b fb bc
       -0.046567734 0.032789778 0.01316108 -0.030690763
000220 4a 1c 5a 3d 87 06 17 3d f6 2c 36 3d c4 e8 90 3c
       0.053249635 0.03687146 0.04447647 0.017689116
000230 c2 2e 13 bc ed 4c ae 3c f0 52 2f 3d 90 ff 88 bb
       -0.008983316 0.021276915 0.042803705 -0.004180856
000240 dc 24 65 3c 15 54 17 3d 54 6d 39 3d 70 62 8a 3d
       0.013985839 0.03694542 0.04527028 0.06757057
000250 ee 7b d9 bb 1a 3d 50 3c 98 7b f7 3b 4e d1 ab bc
       -0.006637088 0.01270988 0.0075525753 -0.020973828
000260 ee 78 84 3d 6f 0b a4 3d 06 07 01 bd 91 ab cc 3c
       0.06468378 0.08009993 -0.03150084 0.024984153
000270 1b 4a 39 3d 50 5e 5f 3b 12 6f e7 3c 9d 57 45 bb
       0.045236688 0.0034083314 0.028251205 -0.0030112036
000280 dc 00 1d bc c7 c1 b8 3b 88 37 88 3c 93 00 2c 3d
       -0.009582724 0.0056383344 0.016628042 0.041992735
000290 13 37 27 3d e9 b4 79 3d ff 80 a4 3c b5 36 2d 3d
       0.040824007 0.060963545 0.020081041 0.0422885
0002a0 38 b1 d8 bc 2f d0 0b 3d 78 94 f7 3c 05 95 4a 3d
       -0.026451692 0.034134086 0.030222163 0.049458522
0002b0 a3 8a d5 bb 13 c2 dd 3c 73 1d ac 3c 7a 54 b4 3a
       -0.006516771 0.02707008 0.021010136 0.0013758086
0002c0 7f 8a 29 3d 8d 1e 22 3d 0b 50 aa bb 77 8e fd 3c
       0.041391846 0.039579917 -0.00519753 0.030951722
0002d0 98 7f ba 3b 21 82 5f 3c 38 5b b6 3c b5 15 c5 3c
       0.00569148 0.013641865 0.022260293 0.024058202
0002e0 cf 6f 85 3d 42 7b b6 3c 1c b3 10 3d eb bf 95 3c
       0.065154664 0.02227557 0.035327062 0.01827999
0002f0 75 c7 9c bc f3 85 00 3c b7 40 f3 bb df 5e e0 3c
       -0.019138077 0.007844436 -0.007423486 0.027388988
000300 d0 ca 50 3d 54 c7 a4 3c e5 60 85 3d 48 3d fd 3b
       0.050974667 0.020114578 0.06512622 0.0077282526
000310 a8 ad 8b 3c 91 8f 3d 3d 5a d9 fa bb b9 3e 34 bd
       0.01705058 0.046279494 -0.007655305 -0.04400513
000320 4e 2f a0 bc 30 1c ad 3c 10 8c 92 3c ea d6 38 3d
       -0.019553807 0.021131605 0.017889053 0.045126833
000330 52 99 1f bc 7b e1 25 3d f8 8f 35 3d 50 0d fd 3c
       -0.009741144 0.040498238 0.044326752 0.030890137
000340 1a 8b 32 3d fe da 42 bd 4e b2 82 3c ee 5c e8 3c
       0.04358969 -0.04757213 0.015954163 0.028364625
000350 3b ea 7e 3d ef db 0a bd e9 a8 8e bc f6 1f 9c bc
       0.0622351 -0.03390115 -0.017414527 -0.019058209
000360 81 3f 8f 3c c7 bf fd 3c 01 3c 01 3d 93 82 3d 3d
       0.017486336 0.030975236 0.031551365 0.046267103
000370 c2 f1 bc ba 43 e5 08 3d 2f 94 81 3d 09 f9 d0 3c
       -0.0014415311 0.033421766 0.06327092 0.025509374
000380 fa 85 f4 bc ca f5 b0 3c 4b 4a 21 3d 88 2a 87 3d
       -0.029849041 0.021601576 0.039377492 0.06599909
000390 35 0e 1b 3d 00 43 25 3d 4b 1f 26 bb 01 8d 48 3c
       0.037855346 0.0403471 -0.0025348242 0.012240649
0003a0 3d 55 66 3d 6a b6 ed bc 5f 57 a4 3d 5e 51 1b 3b
       0.056233633 -0.029017646 0.08024477 0.0023699622
0003b0 0f 82 26 3c ee 72 93 bc 4f c6 74 3d 52 de e7 3c
       0.010162844 -0.017999139 0.059759434 0.028304253
0003c0 2f ec f7 3c f7 a3 ee 3a 0e df 2a bc 6c cc 32 3d
       0.030263988 0.0018206824 -0.010429157 0.043651983
0003d0 8d 7f 16 3c 42 0e 04 3d d8 ef 4f 3d 42 81 64 bc
       0.009185684 0.03224016 0.050765842 -0.013946833
0003e0 7a 3d 67 3d 64 73 12 ba 5c 09 56 3d d4 50 07 3d
       0.056455113 -0.00055866526 0.05225502 0.033036068
0003f0 8a a8 2e 3d 5a e9 31 3c d9 d6 4d 3c 35 6a e6 3c
       0.0426412 0.010858858 0.012563431 0.028126815

network_body._body_endoder.seq_layers.2.weight f4 [256, 256]
000000 33 f4 04 be 29 6d b5 3b 04 f0 07 3d c6 59 18 bd
       -0.1298378 0.0055366945 0.03318788 -0.03719499
000010 bd 82 a0 3d 80 7d bb 3b c3 14 32 3d 39 df 89 bd
       0.07837436 0.005721748 0.04347683 -0.067320295
000020 df c6 e3 3c 85 61 81 3c 4b 3c c0 3d 91 69 80 3d
       0.02780479 0.015793571 0.093865 0.06270135
000030 2f d3 48 3d cc c5 ec 3c 74 ee 8a bd bc e7 b9 bc
       0.049029525 0.02890291 -0.067837626 -0.022693507
000040 59 43 b5 bd 99 af ba bd d5 22 a7 bb d5 7e f9 3c
       -0.08850736 -0.09115524 -0.005100588 0.030455986
000050 c8 d2 a4 3c e8 da dc bc 90 c0 38 3c ef 2f 0c be
       0.02012004 -0.026959851 0.011276379 -0.1369016
000060 bf 39 3b bd f7 88 a9 3c 01 9a 6f 3c 62 14 e5 bd
       -0.045709368 0.020695193 0.01462412 -0.11185528
000070 18 57 6f bc 29 08 85 bc 41 5f 2d bc 76 bd e4 ba
       -0.014608167 -0.016239243 -0.010581792 -0.0017451483
000080 60 6f 52 bd fd 3c 79 bc 95 f0 25 bd 86 41 24 3d
       -0.051375747 -0.015212295 -0.04051264 0.04010155
000090 ba 36 eb 3b 5a cc 25 3c 98 f4 f5 3c d8 55 45 bb
       0.007178155 0.010119522 0.030023858 -0.0030110981
0000a0 6a 59 08 be cd 22 9b bc ac d9 32 3c f7 c3 17 3d
       -0.13315359 -0.018937493 0.010916155 0.03705212
0000b0 97 f7 cd bd 77 8c 02 3d 67 8f be bc fa 56 c2 bd
       -0.1005699 0.03187224 -0.023261739 -0.09489246
0000c0 a4 3f 0f bd bc c4 cc bd 01 df cd bd cf 33 bc 3d
       -0.0349728 -0.099984616 -0.100523 0.09189569
0000d0 e0 56 08 be 22 5c 9e 3d d8 30 20 3e 1c 58 91 bd
       -0.1331439 0.07732417 0.15643632 -0.07096884
0000e0 8f 9d 83 bd a5 7e b5 3b cd 2b 74 3d c0 ad ae 3d
       -0.06426536 0.005538779 0.059612084 0.08529234
0000f0 de 59 2a bd 97 33 79 3d d5 6c 34 3d 8f 66 50 bc
       -0.04158961 0.060840216 0.044049103 -0.012719764
000100 fd 07 55 3c 01 85 35 bd 4b cb 90 3c fc 39 86 bd
       0.013002393 -0.044316296 0.017675063 -0.065540284
000110 bd ce 12 bd d5 53 34 3c b1 cf 5a bb 15 0a 18 bd
       -0.035841692 0.011006315 -0.0033387954 -0.03711899
000120 c9 16 83 bc 57 d6 8a 3c 69 16 5b bd 69 8c 95 bd
       -0.016002076 0.016947908 -0.05348817 -0.07302172
000130 c9 de 77 3b 8b 6c 11 3d ca 49 f8 bc 48 72 5f 3d
       0.0037822 0.035503905 -0.030308623 0.054552346
000140 2d 4b aa bc f5 e7 d1 3c c1 a2 93 bd fc da ad 3d
       -0.0207878 0.025623301 -0.07208777 0.084890336
000150 38 74 86 bd 85 d9 9d bd d7 2a be 3d 41 8f 80 bd
       -0.06565136 -0.07707504 0.09285515 -0.062773235
000160 ba 69 16 3e 31 59 62 bd 53 2c 8c bc 8c 4d 90 bc
       0.14688769 -0.05526084 -0.01711098 -0.017615102
000170 c0 ca 87 3d d1 35 ae bc d4 c9 14 bd ed 16 9d 3c
       0.06630468 -0.021265896 -0.03632529 0.01917597
000180 2c 6a 53 bd bd 99 b5 3c b6 5f ec bd e4 bc 55 bd
       -0.051614925 0.022168035 -0.11541693 -0.052182093
000190 1a 15 2d bb 2e 1c fe 3c 61 69 1c be d6 62 dc bd
       -0.0026410283 0.031019296 -0.15274574 -0.10761039
0001a0 53 2e 91 bb 56 1d 0c 3d f5 8c 65 bd 37 86 b0 bb
       -0.004430571 0.034207664 -0.05604263 -0.0053870934
0001b0 7d c8 a8 3c 80 90 d3 3d 14 83 c4 3c b2 0c 19 3d
       0.020603413 0.103302956 0.023988284 0.037365623
0001c0 04 74 8b 3d 0a bb 9b bb d1 9c 3a 3c 6f ee bd bd
       0.068092376 -0.0047525214 0.011389927 -0.09273993
0001d0 77 ba 9e 3d 69 96 9f 3c ba 30 8d bd a2 6f a3 3d
       0.07750409 0.0194809 -0.068940595 0.07980277
0001e0 18 32 4e bd f6 e8 0f bd ea 4e 91 3d 82 d7 04 3d
       -0.050340742 -0.03513428 0.0709513 0.032432087
0001f0 f9 e1 57 bd 3a 69 88 bd 96 b5 e5 bd cf 03 e1 bd
       -0.05270574 -0.066606954 -0.112162754 -0.109870546
000200 3f 65 d9 bd 45 c8 d7 bc 49 bc 2d 3d 88 92 a0 bd
       -0.10615014 -0.026340613 0.04241589 -0.078404486
000210 5e f3 8e bc 0f 6f ba bc 2c 15 06 3c 33 ca 89 3c
       -0.01745003 -0.022758035 0.008183759 0.016820049
000220 58 44 e8 3b 37 ec 53 be 3e 6d 46 bd 07 34 8f 3c
       0.0070882253 -0.20695578 -0.048444025 0.017480863
000230 d0 6d ba 3d 0e fb dd bc 6a c0 13 3d 59 1c 82 3d
       0.09102976 -0.027097251 0.036072172 0.06353063
000240 27 74 4f bd c2 49 04 be ed ff 13 be b6 5d 8f bc
       -0.05064788 -0.12918761 -0.14453097 -0.01750074
000250 9f 99 ea 39 80 eb b8 bd 33 d4 95 3d 68 65 32 3c
       0.00044746415 -0.09029293 0.073158644 0.010888435
000260 48 af 94 3d 16 2b e9 3c 5c 11 8e bd 0f a0 15 bd
       0.07259995 0.028462928 -0.06936905 -0.036529597
000270 9f 51 56 bc 70 09 24 bc 55 14 cc 3d 67 f9 55 bc
       -0.013080983 -0.010012016 0.099648155 -0.01305995
000280 15 81 a2 bd 0b 6e aa bc c6 ae 96 3c 66 4e ed 3c
       -0.07934777 -0.020804426 0.018393885 0.028968047
000290 8f 9b a9 3d cd 2a 10 be 34 67 e4 bc 43 95 8f bd
       0.082816236 -0.14078827 -0.027881242 -0.07010891
0002a0 ec c3 07 bd 11 f0 d7 bd 43 99 d6 bc 09 a2 16 3d
       -0.03314583 -0.10543836 -0.026196128 0.036775623
0002b0 20 7c 17 bd 48 29 e5 3b 28 9b 4a bd d6 89 95 bd
       -0.03698361 0.0069934465 -0.049464375 -0.07301681
0002c0 c6 1a a5 bd 89 0b 00 bd 42 cd a9 bd c6 1a 94 3d
       -0.08061747 -0.031261 -0.08291103 0.07231669
0002d0 64 a5 8c bd 44 ed 01 bd 72 13 0b bc 83 cd bc bc
       -0.06867483 -0.031720415 -0.008488523 -0.023047214
0002e0 19 af 8b 3c 1e 44 24 3c c8 d8 4f bd 53 6d 1c 3d
       0.017051267 0.010026006 -0.050743848 0.038190197
0002f0 07 60 1d 3d f5 e0 17 bd 6e dd b5 3c 31 5d 21 3c
       0.038421657 -0.03707977 0.022200312 0.009848879
000300 31 d9 d7 3c ca 64 17 3c ca 76 db bd b8 31 db bc
       0.026348682 0.009240339 -0.107160166 -0.026757106
000310 8b 49 ff bd 95 3e f3 3a 0a 46 b3 3d 08 c1 96 3c
       -0.12465199 0.001855808 0.08753593 0.018402591
000320 38 a9 b9 3d 9d ac 42 bc b9 c9 96 bc 10 5b 07 bd
       0.09065479 -0.0118819745 -0.018406736 -0.03304583
000330 08 b0 f6 3d 4a 38 dd bd 13 67 47 3c e5 04 ff bd
       0.12045294 -0.10801752 0.012170571 -0.124521054
000340 f1 ac eb bc e2 7d 4f 3d 46 7e fb 3c 9d 04 e6 bd
       -0.028768988 0.05065716 0.03069986 -0.11231349
000350 b7 17 6a bd d9 f7 6a 3c e7 22 22 be 4a 25 a1 3c
       -0.057151522 0.014341318 -0.15833627 0.019671101
000360 58 d8 8c bd e9 e8 99 3d 85 2d 9a 3d 47 42 4a ba
       -0.06877202 0.07515127 0.075282134 -0.00077155646
000370 b5 3c 8b bc 24 bd 3d 3d 4a fa 01 3d b0 1b 44 be
       -0.01699672 0.046322957 0.031732835 -0.19151187
000380 78 b6 b7 3d 7a 3f 28 bd cd 3b 69 bd 04 75 64 3d
       0.0897035 -0.04107616 -0.056941796 0.055775657
000390 48 5a b0 bd 72 b6 b8 bd ee 1f 04 be 79 c1 0e bd
       -0.0861097 -0.09019174 -0.12902805 -0.03485248
0003a0 87 fb 14 3d 28 27 32 3b 8c 2b ac 3d 81 66 5d 3d
       0.036372688 0.0027183983 0.084067434 0.054052833
0003b0 5c 84 0c 3c bf 16 d2 bd 79 78 f6 3b 6f 47 08 3e
       0.008576479 -0.10258245 0.0075216857 0.133085
0003c0 9e 2e 3f bd f2 2d 4a 3d d3 a7 0a 3d aa d8 fc 3c
       -0.046675317 0.049360223 0.033851456 0.030865032
0003d0 53 d8 3a bd 27 8f 63 bd 18 0f 0e 3d 74 85 5f 3c
       -0.04561646 -0.055556443 0.034682363 0.013642658
0003e0 74 b6 85 bd de cb 43 bd 2a ad c9 3d d8 55 7d bc
       -0.06528941 -0.047801845 0.098474815 -0.015462361
0003f0 28 67 98 bc 0c c1 7c 3d 42 ad 13 bc 7b 26 5e 3b
       -0.018603876 0.06170754 -0.009013476 0.0033897448

network_body._body_endoder.seq_layers.2.bias f4 [256]
000000 2c db f5 bc ba 4b f3 bc a5 c5 28 3d 91 3c db bc
       -0.030011736 -0.029699195 0.041204114 -0.026762279
000010 bc fa 2c 3c 74 d6 15 3d 57 57 81 3d 0f 57 06 bc
       0.010557827 0.03658147 0.06315487 -0.008199467
000020 ca 85 43 bd 62 36 a2 bc 00 26 54 3d 44 54 f5 ba
       -0.047735013 -0.019801322 0.051794052 -0.001871713
000030 4d be fa bc f8 71 0c 3d bb 69 33 3d 42 9c 1c bd
       -0.03060832 0.034288377 0.043802004 -0.038234957
000040 e3 eb bc 3c e1 b8 2b bc ab 2b be bc 2c 78 36 3d
       0.023061698 -0.01048109 -0.023214182 0.0445482
000050 4a d4 4f bc ce 70 19 bc 47 ed a3 bb c3 42 2c bc
       -0.012684891 -0.009365274 -0.005002651 -0.010513964
000060 9c 60 53 3d c4 f8 70 bc 16 6a ee bc ea 9d f0 bc
       0.051605806 -0.014707748 -0.02910332 -0.029372174
000070 b2 54 c3 bc 4f fc 51 bd ae 8c f0 3b 72 31 0f 3c
       -0.023844097 -0.05126601 0.007340989 0.008739816
000080 dc 7e ae 3b c2 7c 24 3c e8 4e bd 3b 6e 7e 9c bc
       0.0053251814 0.01003951 0.0057772286 -0.019103255
000090 95 f5 e4 3b c5 5b d7 3a 0e fa 18 3d 99 9b 57 bd
       0.0069872835 0.0016430548 0.037347846 -0.052638624
0000a0 d8 d7 5a 3c ae ad c4 3c 4d 84 02 3d c1 54 c7 bc
       0.013357125 0.024008598 0.031864453 -0.024332406
0000b0 51 9c c3 3a 6e 20 08 3c 08 63 18 3d e8 b2 f5 3c
       0.0014923905 0.008308513 0.03720382 0.029992536
0000c0 46 ec f2 bc 09 11 c2 bb 89 d9 a4 bc e1 bb 86 bc
       -0.02965368 -0.005922441 -0.02012326 -0.01644701
0000d0 10 4b 21 bb 75 6d 30 bb 49 25 dc bc fa df 9a bc
       -0.002461139 -0.002692071 -0.026873248 -0.018905628
0000e0 09 80 32 bd b6 fc b7 3a 76 10 90 bc fd b7 d3 bc
       -0.043579135 0.0014037106 -0.017585974 -0.025844568
0000f0 a6 eb c6 bc de dc 13 3d a8 a9 14 3d 02 27 f9 bb
       -0.024282288 0.036099307 0.03629461 -0.007603527
000100 a9 d4 91 bc 23 05 36 bd cb d2 e9 3c 32 2e 14 bc
       -0.0178016 -0.044438493 0.028542897 -0.009044217
000110 9e 19 93 3c 50 20 b8 bc 25 c3 15 bd 22 9e 9a 3d
       0.017956551 -0.022476345 -0.036563057 0.07549693
000120 87 d7 36 3d 33 6c 8d 3c 54 54 46 bc 17 83 43 bd
       0.044639137 0.017263507 -0.012105066 -0.04773244
000130 74 b1 54 3d 1e 01 9e 3c 92 15 cf bc b7 00 a8 3c
       0.051927045 0.019287642 -0.02527884 0.020508153
000140 39 f9 80 3c 3d a4 82 3d 94 6b bf 3c 5c 58 f0 bb
       0.015743839 0.06378982 0.023366727 -0.007334752
000150 ae b3 58 bc 78 18 20 bb 6d 81 17 3d 53 9a c4 3c
       -0.013226433 -0.0024428647 0.036988664 0.023999369
000160 22 c1 e9 3b 94 6a 35 bc 8d 28 b3 bc bf bd 46 3c
       0.007133619 -0.0110727735 -0.021869922 0.0121302
000170 9d b2 42 3b fb a6 99 3c d1 fd 4a 3d 46 4f 02 bb
       0.0029708513 0.01875638 0.049558464 -0.0019883676
000180 ec 1b 1c bd 16 22 8a 3d 80 6c 39 3d 69 f7 78 3d
       -0.038112566 0.067447826 0.04526949 0.060782824
000190 90 d2 2c bd 44 fe 24 3d 9b ea 3e 3d 63 f7 80 bc
       -0.042192996 0.04028155 0.046610456 -0.015742963
0001a0 25 33 c9 ba fe 4f 10 bd e6 7e fe 3c b1 43 ba bc
       -0.0015350325 -0.035232536 0.03106637 -0.022737356
0001b0 cd e9 1b 3d 5a 3c f6 3c a6 f8 28 3d 49 07 0b 3d
       0.038064767 0.030058075 0.041252755 0.033942495
0001c0 f8 34 e4 3c 21 86 22 3c 4a 15 c7 bc 19 6f 45 3d
       0.027857289 0.009919674 -0.024302144 0.048201654
0001d0 ac 53 d7 bc 99 46 36 3c 7c 37 cc 39 9b 4d 12 3d
       -0.026285015 0.01112523 0.0003895125 0.03571854
0001e0 33 8f a3 3c 6a 33 39 3d f7 ab 9b 3c 96 16 4e 3d
       0.019965744 0.045215048 0.019002898 0.05031451
0001f0 fb c2 18 3d 19 58 80 bc 9a e6 da 3c e6 44 96 3c
       0.037295323 -0.015667008 0.026721288 0.0183434
000200 f4 1f 6f bc cc 65 1a 3d 2d 59 1d bd 47 cf 01 bd
       -0.014595021 0.037694737 -0.038415123 -0.031691816
000210 67 fc 3b 3d 37 0f 61 3d b4 00 30 3d 03 ba f5 3c
       0.045895007 0.05494615 0.04296942 0.029995924
000220 00 12 4d 3a 4b ca 58 3d 7b 14 20 bc ee 2f 18 bd
       0.00078228116 0.052927297 -0.009770508 -0.037155084
000230 a5 e7 e4 bc 6b ae a1 3d 97 5d f5 3b 50 72 21 bc
       -0.027942488 0.07894596 0.0074879634 -0.009853914
000240 7b d8 42 3c 04 2a 03 3b b7 8e 12 bd 84 3a 89 bc
       0.011892433 0.0020014057 -0.035780635 -0.016751535
000250 48 37 3b bc b3 51 e5 3b 60 06 d5 3c 91 fc 5c bc
       -0.011426754 0.0069982647 0.026004016 -0.013487951
000260 3f 29 69 3d 86 fd 80 bc 90 57 db 3c 67 bd 93 bc
       0.0569241 -0.01574589 0.026775151 -0.01803465
000270 77 3d 17 bd 0c 78 b7 3c 30 90 20 3d d0 91 b7 3c
       -0.03692385 0.02239611 0.039200008 0.022408396
000280 da da 1a 3b 24 b6 24 3d 3d 93 45 3b 68 06 8f 3d
       0.002362898 0.040212765 0.0030147575 0.06983644
000290 dd 58 d0 3c 3a db 04 bc 63 2c 20 bd 48 8c c5 bc
       0.025432998 -0.008108908 -0.03910483 -0.024114743
0002a0 c1 17 28 bd 1e d2 4f 3d 26 ed b6 bc 88 da 95 3c
       -0.04103828 0.050737493 -0.022329878 0.01829268
0002b0 ad 28 0c bd 13 45 3e 3c ad fe d7 bc 64 f2 0e bd
       -0.03421848 0.011613148 -0.026366556 -0.03489913
0002c0 2e 95 5b bc 0d 86 b7 3c 8b a5 2a bd 82 46 d6 bc
       -0.013402266 0.022402788 -0.04166178 -0.026156668
0002d0 5b 22 24 3d df 1f 7e bc 85 44 00 3d e8 c8 8d 3c
       0.040071826 -0.015510528 0.031315345 0.017307714
0002e0 34 6c 0a bd 0c 39 03 bc 31 1f 69 3d 89 8c e3 3c
       -0.033794597 -0.0080092065 0.056914512 0.027776973
0002f0 26 8a c5 3c 1d 80 fd bc ae ea 15 bd ca 34 45 bc
       0.024113726 -0.030944878 -0.03660076 -0.012036512
000300 27 22 59 3c 4e a4 79 3d af 0d 87 3c 38 ab 65 3d
       0.013252771 0.06094771 0.016486017 0.05607149
000310 24 91 d2 3b c2 1e 44 bd 79 25 ba bc c6 24 77 bc
       0.0064259935 -0.047880895 -0.022722946 -0.015084451
000320 8e 95 e0 3c 20 ff 4a bc c0 67 93 39 17 04 c8 bc
       0.027415063 -0.012389928 0.00028115325 -0.024416013
000330 44 1d 95 bc d6 f4 4c bd 15 7a ff 3c 44 92 49 3c
       -0.018202431 -0.05003818 0.031186143 0.012302939
000340 0d 28 7b bc ab fe 12 3d cf 26 87 3c 3d 92 fa 3c
       -0.015329373 0.0358874 0.016497998 0.03058731
000350 aa 9d 25 bc a1 ed e7 3c 7e 97 fb bc 9c ec 04 3d
       -0.010108391 0.028311552 -0.030711886 0.03245221
000360 10 c4 e3 3c 1d 63 c4 bc 11 e4 20 bd f8 c1 78 3d
       0.02780345 -0.023973042 -0.03928 0.060731858
000370 f7 0d 0c bd 63 05 06 3d 95 69 9a bc ad 62 b9 3c
       -0.034193005 0.03271998 -0.018849174 0.02263006
000380 3f 58 29 3d 79 42 84 3c 7d be 0c 3d 08 4c 1a 3d
       0.041343924 0.016144978 0.03436135 0.037670165
000390 05 83 d3 bc 3d a0 71 3d 5c a5 40 3d 51 e4 6a 3c
       -0.02581931 0.058990706 0.0470327 0.014336661
0003a0 10 5e 46 3c 4b 58 45 bc 3f 8b 93 3c 8b b4 3a 3d
       0.012107387 -0.012044976 0.018010734 0.045582335
0003b0 37 c7 fc 3b b3 42 6e bc 43 e2 87 3c ee 7d 81 3d
       0.007714178 -0.0145422695 0.016587382 0.06322847
0003c0 c3 8a 3c 3d 6a 73 ec bc a2 0d e5 3a cf 51 00 bd
       0.04603077 -0.028863627 0.0017475376 -0.03132802
0003d0 06 44 68 39 ec 7c fb bc 53 f9 8a 3d b9 1b 3b 3d
       0.00022150585 -0.030699216 0.06785836 0.045680735
0003e0 48 a3 e8 bc 60 f2 f6 b9 29 7a 5a 3c 95 e0 80 3d
       -0.028398171 -0.0004710136 0.013334789 0.062928356
0003f0 db 87 bd 3c 2a c7 13 3d d8 63 a1 bb ce bb 57 3c
       0.02313607 0.03607861 -0.0049252324 0.013167335

action_model._discrete_distribution.branches.0.weight f4 [4, 256]
000000 85 d0 73 3c fa 7f bf 3c 83 5a c7 bc f1 99 85 3c
       0.014881258 0.023376454 -0.024335152 0.016308757
000010 d3 80 9c bc 63 f2 9b bc 9e 27 0f bd fc aa 52 3c
       -0.019104397 -0.019036477 -0.03494989 0.012858149
000020 26 bc 8c 3c f7 76 30 3c 8e a5 41 bd b6 34 5d bc
       0.01717956 0.010770551 -0.047277026 -0.013501337
000030 c3 76 4a 3c f3 7e 38 bc 47 74 ed bc 9c e4 fb 3c
       0.012357417 -0.011260736 -0.02898611 0.030748658
000040 8e 5e 8c bc f0 ad 73 3b 6d 3e 4d 3c 55 bf 25 bd
       -0.017134931 0.0037182532 0.0125270905 -0.04046567
000050 81 1a 08 bb 52 96 20 3b 8c 21 2e 3c 6e d2 76 3a
       -0.002076775 0.002450366 0.010628115 0.0009415512
000060 da e5 1a bd 76 b1 1b 3c 56 96 c8 3c 7c 19 0f 3c
       -0.03781686 0.009502759 0.024485748 0.008734103
000070 52 25 8e ba ed 54 0d 3d a8 3d 45 bb 00 82 b2 bc
       -0.0010844863 0.03450482 -0.0030096564 -0.021790504
000080 26 ba 82 bb b2 43 53 bb 24 76 ce ba c5 1b 8d 3b
       -0.003989476 -0.0032236394 -0.0015751761 0.004306289
000090 f9 b8 a0 bc d2 cb ce 3b aa b6 0a bd c7 e7 c1 3c
       -0.019619452 0.0063109184 -0.03386561 0.02367009
0000a0 3c 47 fc bb ed 74 c6 bc 7c 7d 1e bb 98 65 98 3c
       -0.0076989215 -0.024225676 -0.0024183681 0.018603131
0000b0 d5 dc bd 3b 86 c9 a4 b8 af 22 22 bd ac cd c7 bb
       0.0057941475 -7.857666e-05 -0.039583858 -0.006097516
0000c0 56 89 ef 3c 4c 56 49 3c 4a 40 85 3b d7 2e af 3b
       0.029240292 0.012288641 0.0040665017 0.00534616
0000d0 dd 52 b9 bb 5d a6 07 3c d0 a1 80 3c a3 89 6f 3c
       -0.00565563 0.00827941 0.015702158 0.0146202175
0000e0 2a 84 78 3c ad 3b c3 bb 60 52 61 3c 6c c2 dd 3b
       0.015168229 -0.0059580416 0.01375255 0.0067675617
0000f0 13 89 82 ba 73 3d df bc d3 00 29 bd f9 b2 f1 3b
       -0.0009959064 -0.027250981 -0.04126055 0.0073760715
000100 4b d6 b6 3c cc de 17 3c bb c3 d5 bc 3d 52 74 3c
       0.02231898 0.0092694275 -0.026094308 0.014912185
000110 8a 77 97 bc c8 ff 5d 3c 1a 9a 51 3c 82 a0 44 bd
       -0.018489618 0.0135497525 0.012793088 -0.048004635
000120 c6 f2 85 bc 69 ec 48 bc 4c c9 11 3c 6c 3d e8 3c
       -0.016351115 -0.012263396 0.008898091 0.0283496
000130 d7 2e 54 bd e0 09 83 bc 5a be fe 3c 96 b8 95 bb
       -0.051802482 -0.01599592 0.031096626 -0.0045691235
000140 a8 1e 48 bc a5 ae 17 bd 0f d8 07 3b bd f2 6b 3b
       -0.01221434 -0.03703179 0.0020728146 0.0036002838
000150 4e 37 b5 bb a5 1c 39 bc 18 34 25 bd 1a f4 44 bc
       -0.0055302745 -0.011298333 -0.040332884 -0.012021089
000160 4b 4f 07 bd 60 20 21 3c f8 b0 0e 3c 7e 8c b3 bc
       -0.033034604 0.009834379 0.008709185 -0.021917578
000170 23 89 a0 3b a2 ca ff bb 35 25 25 bd 82 91 4a bc
       0.0048991605 -0.007806138 -0.040318687 -0.012363793
000180 d4 50 67 3c e8 c4 04 bd 9b af 17 bd 1a a6 38 bd
       0.014118392 -0.032414347 -0.037032705 -0.04508028
000190 d8 55 4a 3d a6 84 e9 bc 41 33 32 bd e6 55 f3 3b
       0.049398273 -0.028505635 -0.04350591 0.0074260114
0001a0 51 a8 54 bc 8a 4b da b9 e3 fa ae bc 62 76 6f 3c
       -0.012979583 -0.0004163648 -0.021359866 0.014615627
0001b0 05 27 73 bb 70 64 d8 bc 66 ab 05 bd 9a 69 c9 bc
       -0.0037102115 -0.02641508 -0.03263416 -0.024586488
0001c0 32 05 82 bc 84 9e d1 3a d0 bc 00 3d f4 ba e7 bc
       -0.015871618 0.0015992676 0.031430066 -0.028287388
0001d0 ec 91 3b 3c 4e c2 59 bc 4f 0e 5c b8 05 1c ee bc
       0.011448365 -0.013290955 -5.2465413e-05 -0.029066095
0001e0 7b 46 27 bc b8 ce 0f bd 0b 73 e2 bc 3d 27 12 bd
       -0.010209675 -0.03510925 -0.027642747 -0.03568195
0001f0 15 77 7a bc 48 0e bd 3c f4 27 69 bc 52 e9 87 bc
       -0.01528718 0.023078099 -0.014230717 -0.016590748
000200 e0 8a 31 b9 53 ab 0e bd ce 5e de 3c d0 36 91 3c
       -0.0001693177 -0.034831356 0.027144816 0.017726332
000210 c7 37 33 bd 7b b2 c3 bc b6 01 fb bc 73 64 32 bc
       -0.043754365 -0.023888817 -0.030640464 -0.010888207
000220 3b ce c7 3b 15 99 46 bd 2d 5b ba bb 96 fe a2 3c
       0.0060975826 -0.048485834 -0.0056871385 0.019896787
000230 ba 30 b4 3c 1c fd 04 bd c8 15 55 bc 3a df cc ba
       0.02199589 -0.032467946 -0.013005681 -0.0015630492
000240 68 02 4a bc 44 7c 2d bc e2 71 0a 3d b0 f4 17 3c
       -0.012329675 -0.010588709 0.033800013 0.009274647
000250 03 4d 37 bb 5c 9d ac 3a ac 84 4e 3a 6d d1 6e 3b
       -0.0027969487 0.0013169455 0.0007878046 0.0036440745
000260 31 fe da bc df 47 ec 3b 7f d6 93 bc c5 6e 2d 3a
       -0.026732536 0.007210716 -0.018046616 0.0006615932
000270 00 e3 c5 3c 21 02 a6 bb c4 04 cd bc 7f 3d f1 bb
       0.024156094 -0.0050661718 -0.025026686 -0.0073620672
000280 e7 4d 1c 3b 9e ec 00 bd 3c 11 37 3a ed 6e 07 bd
       0.0023850144 -0.031475656 0.0006983464 -0.03306477
000290 cb f1 92 3a f4 49 a5 bb ea 85 d8 3c 88 1f dd 3c
       0.0011210976 -0.0050442163 0.026431043 0.026992574
0002a0 89 ba 8a 3c 8b ae 41 bc 1b e3 bb bb 97 0b 26 bc
       0.01693465 -0.011821399 -0.00573386 -0.010134599
0002b0 2e ef 6a 3c 84 94 fc bb d6 68 bf 3c 46 ad 8e 3c
       0.014339251 -0.007708134 0.02336542 0.017416608
0002c0 05 dd cc 3b 73 fc 20 3b 96 95 13 3d 2f a4 6f 3c
       0.0062519335 0.0024564534 0.03603133 0.014626547
0002d0 43 ef 92 bc 68 f1 9e 3a f6 7d 1d bc c4 d8 90 bc
       -0.017936355 0.0012126388 -0.009612551 -0.017681487
0002e0 a6 c3 0e 3d 55 68 90 3c f0 41 bb bc df ef fa bc
       0.034854554 0.017627874 -0.02285859 -0.030631958
0002f0 d0 c5 d2 bc 79 d4 83 3c 7f 60 6e 3c b5 12 c2 3b
       -0.02572909 0.016092526 0.014549374 0.00592264
000300 8a c2 db bb 8a 6e 20 bd 9b 7b e5 bb 65 37 22 bd
       -0.0067065405 -0.03916792 -0.0070032603 -0.03960361
000310 8f 46 2b 3c f0 27 a8 3c b2 95 82 3c fd 7b 37 3b
       0.010453834 0.020526856 0.01594052 0.0027997487
000320 c1 18 17 bd c2 f1 20 3c a5 fe 3d bc e6 e7 f7 3a
       -0.03688884 0.009823265 -0.0115963565 0.0018913716
000330 a3 38 b4 3c 80 d0 94 3c 76 d5 96 bc a1 1c 4d bc
       0.021999663 0.018165827 -0.018412333 -0.012519033
000340 7a 85 18 3a f0 79 1d bd d7 be df bb a2 b7 b1 bc
       0.00058182294 -0.038446367 -0.00682817 -0.021694008
000350 09 66 07 3c 87 72 87 bc b3 93 83 3c b6 5d 12 3c
       0.008264073 -0.016534103 0.01606164 0.008933475
000360 99 9e ad bc 1a c7 d8 3c 4b e7 9f 3c 45 19 1c bd
       -0.02119379 0.026462127 0.019519469 -0.038110036
000370 32 3f b6 3c cf 51 0b bd 32 df 84 3c 47 d8 0a bd
       0.02224693 -0.034013566 0.016219709 -0.033897664
000380 e4 aa de bc 66 04 48 bc c6 61 dc bc 85 07 01 bd
       -0.027181096 -0.01220808 -0.02690209 -0.03150131
000390 72 71 a2 3c 46 dd 35 bd 82 e6 8c bc d3 ed 96 bc
       0.019829486 -0.044400476 -0.017199758 -0.01842395
0003a0 b8 81 9f bb 08 00 63 3c e1 7a a6 b9 3e bd 05 bd
       -0.0048677586 0.013854988 -0.0003175354 -0.03265118
0003b0 48 0b b1 bc b1 45 4a 3c 91 be 9d bb a5 0e 3d bd
       -0.021611825 0.012345717 -0.004813977 -0.046156544
0003c0 8f a5 91 bc 12 90 fa 3c 9c 5c b6 ba cf 1e 28 3c
       -0.01777914 0.030586276 -0.0013913098 0.010261252
0003d0 72 1a 27 bc 5f f8 13 3c 9c 63 6b bd 9b 29 0f bd
       -0.010199176 0.009031384 -0.05746804 -0.034951787
0003e0 db 3d dd 3c 08 6f 65 3c b3 c6 30 bc e6 43 24 bd
       0.027007034 0.014003523 -0.010789561 -0.040103815
0003f0 fd b1 95 bc 1b 7e cc bc c1 9b a8 3b 8b 01 5a bc
       -0.018273348 -0.024962476 0.0051455204 -0.013306032

action_model._discrete_distribution.branches.0.bias f4 [4]
000000 17 42 04 bd 14 b3 f8 3c 32 a9 8b bc 76 d7 8e 3c
       -0.03228959 0.030358829 -0.017048452 0.017436724

onnx::Div_62 f4 [202]
000000 dd 86 dd 3b 56 7b 51 3e dd 86 dd 3b 56 21 bf 3d
       0.0067604617 0.20457205 0.0067604617 0.0933253
000010 dd 86 dd 3b fc 46 a1 3d dd 86 dd 3b 9d c7 be 3d
       0.0067604617 0.07874867 0.0067604617 0.09315417
000020 dd 86 dd 3b 8c e4 a0 3d dd 86 dd 3b ba 5e bc 3d
       0.0067604617 0.07856092 0.0067604617 0.09197755
000030 dd 86 dd 3b 7e 05 a0 3d dd 86 dd 3b 0c 7d ba 3d
       0.0067604617 0.078135476 0.0067604617 0.09105882
000040 dd 86 dd 3b 87 0a 9c 3d dd 86 dd 3b 26 09 b6 3d
       0.0067604617 0.076191954 0.0067604617 0.08888464
000050 dd 86 dd 3b 97 92 98 3d dd 86 dd 3b ee 8d ad 3d
       0.0067604617 0.07449835 0.0067604617 0.084743366
000060 dd 86 dd 3b aa 4a 92 3d dd 86 dd 3b 58 fa ac 3d
       0.0067604617 0.07143147 0.0067604617 0.08446187
000070 dd 86 dd 3b 0b 3f 94 3d dd 86 dd 3b f6 12 a9 3d
       0.0067604617 0.07238587 0.0067604617 0.0825557
000080 dd 86 dd 3b 94 26 92 3d dd 86 dd 3b 15 84 9f 3d
       0.0067604617 0.071362644 0.0067604617 0.077888645
000090 dd 86 dd 3b 3d c8 87 3d dd 86 dd 3b c9 44 9e 3d
       0.0067604617 0.06629989 0.0067604617 0.077279635
0000a0 dd 86 dd 3b 44 41 85 3d dd 86 dd 3b fc 43 9d 3d
       0.0067604617 0.06506589 0.0067604617 0.076789826
0000b0 dd 86 dd 3b 08 8f 86 3d dd 86 dd 3b 2a 7c a5 3d
       0.0067604617 0.0657025 0.0067604617 0.08080323
0000c0 dd 86 dd 3b ea 66 90 3d dd 86 dd 3b a0 dd a4 3d
       0.0067604617 0.07050879 0.0067604617 0.08050084
0000d0 dd 86 dd 3b 24 6b 90 3d dd 86 dd 3b 60 02 9c 3d
       0.0067604617 0.070516855 0.0067604617 0.076176405
0000e0 dd 86 dd 3b 66 9b 85 3d dd 86 dd 3b 02 5b 9b 3d
       0.0067604617 0.065237805 0.0067604617 0.07585718
0000f0 dd 86 dd 3b cb 4b 84 3d dd 86 dd 3b 78 54 9c 3d
       0.0067604617 0.06459769 0.0067604617 0.07633299
000100 dd 86 dd 3b f8 bc 86 3d dd 86 dd 3b f9 2a a2 3d
       0.0067604617 0.06579012 0.0067604617 0.07918353
000110 dd 86 dd 3b 67 de 8f 3d dd 86 dd 3b 00 80 a4 3d
       0.0067604617 0.07024842 0.0067604617 0.080322266
000120 dd 86 dd 3b f7 af 91 3d dd 86 dd 3b 0e 38 a5 3d
       0.0067604617 0.07113641 0.0067604617 0.08067332
000130 dd 86 dd 3b db 5a 8f 3d dd 86 dd 3b 38 86 ad 3d
       0.0067604617 0.06999751 0.0067604617 0.08472866
000140 dd 86 dd 3b 5d 3f 95 3d dd 86 dd 3b 92 51 b1 3d
       0.0067604617 0.07287476 0.0067604617 0.086581364
000150 dd 86 dd 3b f6 c2 98 3d dd 86 dd 3b ff b7 b6 3d
       0.0067604617 0.07459061 0.0067604617 0.08921813
000160 dd 86 dd 3b 48 8a 9c 3d dd 86 dd 3b 06 10 ba 3d
       0.0067604617 0.076435626 0.0067604617 0.090850875
000170 dd 86 dd 3b 30 4d 9f 3d dd 86 dd 3b 1d ed b9 3d
       0.0067604617 0.07778394 0.0067604617 0.09078429
000180 dd 86 dd 3b cb b6 9e 3d dd 86 dd 3b 70 83 5a 3e
       0.0067604617 0.07749709 0.0067604617 0.21339202
000190 dd 86 dd 3b 89 aa 7a 3e dd 86 dd 3b b1 89 ba 3d
       0.0067604617 0.24479116 0.0067604617 0.09108294
0001a0 dd 86 dd 3b 4f 68 3f 3e dd 86 dd 3b f2 88 ba 3d
       0.0067604617 0.18692134 0.0067604617 0.091081515
0001b0 dd 86 dd 3b 37 37 41 3e dd 86 dd 3b 26 5a b7 3d
       0.0067604617 0.18868719 0.0067604617 0.08952741
0001c0 dd 86 dd 3b 6e b8 3b 3e dd 86 dd 3b 3c c6 b2 3d
       0.0067604617 0.18332073 0.0067604617 0.087292165
0001d0 dd 86 dd 3b a5 a7 30 3e dd 86 dd 3b 05 d4 af 3d
       0.0067604617 0.17251451 0.0067604617 0.085853614
0001e0 dd 86 dd 3b 87 fd 21 3e dd 86 dd 3b d9 a8 a7 3d
       0.0067604617 0.1581937 0.0067604617 0.08186502
0001f0 dd 86 dd 3b 59 10 12 3e dd 86 dd 3b db 4f a8 3d
       0.0067604617 0.14264049 0.0067604617 0.08218356
000200 dd 86 dd 3b 80 7f 12 3e dd 86 dd 3b b6 8f a6 3d
       0.0067604617 0.1430645 0.0067604617 0.081328794
000210 dd 86 dd 3b ce 17 10 3e dd 86 dd 3b 8c 0f 9b 3d
       0.0067604617 0.14071581 0.0067604617 0.07571325
000220 dd 86 dd 3b 01 99 01 3e dd 86 dd 3b 53 6a 99 3d
       0.0067604617 0.12656023 0.0067604617 0.07490983
000230 dd 86 dd 3b 5e 35 01 3e dd 86 dd 3b fb 17 9b 3d
       0.0067604617 0.12618014 0.0067604617 0.07572933
000240 dd 86 dd 3b 79 06 f9 3d dd 86 dd 3b 4b f9 a7 3d
       0.0067604617 0.12159438 0.0067604617 0.08201846
000250 dd 86 dd 3b cb a1 03 3e dd 86 dd 3b 15 47 a8 3d
       0.0067604617 0.12854688 0.0067604617 0.08216683
000260 dd 86 dd 3b 84 57 03 3e dd 86 dd 3b ba a7 9f 3d
       0.0067604617 0.12826353 0.0067604617 0.07795663
000270 dd 86 dd 3b 40 4e f0 3d dd 86 dd 3b 12 4a a0 3d
       0.0067604617 0.11733675 0.0067604617 0.07826628
000280 dd 86 dd 3b 51 44 fd 3d dd 86 dd 3b 0e 7c a3 3d
       0.0067604617 0.12366546 0.0067604617 0.07982646
000290 dd 86 dd 3b 7a 7b 01 3e dd 86 dd 3b 57 73 ac 3d
       0.0067604617 0.12644759 0.0067604617 0.08420437
0002a0 dd 86 dd 3b 0d 7c 12 3e dd 86 dd 3b 5f 2d b0 3d
       0.0067604617 0.14305134 0.0067604617 0.08602404
0002b0 dd 86 dd 3b 05 5a 17 3e dd 86 dd 3b 44 7b af 3d
       0.0067604617 0.14780433 0.0067604617 0.08568433
0002c0 dd 86 dd 3b 78 a7 14 3e dd 86 dd 3b d4 5e b8 3d
       0.0067604617 0.1451701 0.0067604617 0.09002462
0002d0 dd 86 dd 3b 42 22 20 3e dd 86 dd 3b 52 79 bd 3d
       0.0067604617 0.15638068 0.0067604617 0.09251656
0002e0 dd 86 dd 3b 9e ce 2e 3e dd 86 dd 3b e8 88 c1 3d
       0.0067604617 0.17071006 0.0067604617 0.09449941
0002f0 dd 86 dd 3b 09 66 3a 3e dd 86 dd 3b a2 0c c3 3d
       0.0067604617 0.18202986 0.0067604617 0.09523894
000300 dd 86 dd 3b 21 8c 3f 3e dd 86 dd 3b ac 01 c2 3d
       0.0067604617 0.18705799 0.0067604617 0.09472975
000310 dd 86 dd 3b 8c e1 3d 3e dd 86 dd 3b a1 02 7f 3e
       0.0067604617 0.1854307 0.0067604617 0.24903347
000320 dd 86 dd 3b a1 02 7f 3e
       0.0067604617 0.24903347

onnx::Div_65 f4 [10]
000000 32 42 b4 41 71 97 25 41 dd 86 dd 3b dd 86 dd 3b
       22.532322 10.349473 0.0067604617 0.0067604617
000010 dd 86 dd 3b dd 86 dd 3b dd 86 dd 3b dd 86 dd 3b
       0.0067604617 0.0067604617 0.0067604617 0.0067604617
000020 dd 86 dd 3b dd 86 dd 3b
       0.0067604617 0.0067604617
