results/GameLevelReached15/PlayerBehaviour/PlayerBehaviour-23791.onnx (onnx, 493184 bytes, 12 tensors)

network_body.observation_encoder.processors.0.normalizer.running_mean f4 [102]
0.7995964 0.84624726 0.65538865 0.7193887 0.677496 0.7374251 0.6646346 0.7217036
0.6921229 0.7426548 0.6382829 0.70296085 0.6725793 0.729985 0.6533293 0.715218
0.691198 0.7443245 0.6406358 0.7039911 0.6793039 0.73302627 0.686239 0.7538887
0.73655015 0.7891079 0.6603887 0.73242426 0.7168787 0.77339387 0.65332955 0.7136035
0.7154507 0.7617951 0.67085785 0.72898334 0.7317587 0.7761887 0.6813624 0.7377574
0.7408781 0.782318 0.69859606 0.74918216 0.75088245 0.7885746 0.68367517 0.7436033
0.7419305 0.78541017 0.6992691 0.75783986 0.7450824 0.78881663 0.7192765 0.7659317
0.7510518 0.7906677 0.705407 0.7575214 0.7455449 0.7866313 0.70048666 0.7522827
0.74020547 0.782942 0.6868688 0.7396848 0.7280602 0.7712784 0.7117106 0.7677521
0.73953444 0.7876562 0.7354995 0.78612685 0.7624846 0.8056814 0.68972737 0.74137414
0.7130117 0.7598253 0.7070864 0.75702995 0.7255382 0.7708241 0.69552743 0.747675
0.713224 0.76085514 0.71662784 0.7627548 0.7306673 0.7723676 0.7078433 0.76048213
0.71755314 0.7679428 0.82544595 0.86629474 0.82544595 0.86629474
00000000: 5ab2 4c3f a9a3 583f 8dc7 273f dc29 383f
00000010: 6170 2d3f e4c7 3c3f 7e25 2a3f 91c1 383f
00000020: f72e 313f a01e 3e3f 8266 233f 3ef5 333f
00000030: 282e 2c3f 4ce0 3a3f 9740 273f 8718 373f
00000040: 5af2 303f 0d8c 3e3f b500 243f c338 343f
00000050: dce6 2d3f 9ca7 3b3f 5cad 2f3f dafe 403f
00000060: 8d8e 3c3f fa02 4a3f 3c0f 293f 2880 3b3f
00000070: 5d85 373f 24fd 453f 9b40 273f b8ae 363f
00000080: c727 373f 0105 433f 57bd 2b3f a79e 3a3f
00000090: 8a54 3b3f 4db4 463f c46d 2e3f abdd 3c3f
000000a0: 30aa 3d3f fe45 483f 31d7 323f 67ca 3f3f
000000b0: d539 403f 06e0 493f 5605 2f3f c95c 3e3f
000000c0: 28ef 3d3f a410 493f 4d03 333f cb01 423f
000000d0: b8bd 3e3f e3ef 493f 8122 383f 1a14 443f
000000e0: ee44 403f 3369 4a3f 8e95 343f ecec 413f
000000f0: 08dc 3e3f ab60 493f 1853 333f 9995 403f
00000100: 1b7e 3d3f e36e 483f a2d6 2f3f fc5b 3d3f
00000110: 2762 3a3f 8072 453f aa32 363f 678b 443f
00000120: 2152 3d3f d6a3 493f b249 3c3f 9c3f 493f
00000130: 3132 433f 2341 4e3f f991 303f b2ca 3d3f
00000140: ef87 363f e983 423f 9d03 353f b7cc 413f
00000150: dfbc 393f ba54 453f 160e 323f a167 3f3f
00000160: d995 363f 67c7 423f ec74 373f e643 433f
00000170: 030d 3b3f e2b9 453f 3835 353f f5ae 423f
00000180: 90b1 373f e697 443f 6d50 533f 7ec5 5d3f
00000190: 6d50 533f 7ec5 5d3f

network_body.observation_encoder.processors.1.normalizer.running_mean f4 [102]
0.9999258 0.9999258 0.9999258 0.9999258 0.9999258 0.9999258 0.9999258 0.9999258
0.9999258 0.9999258 0.9999258 0.9999258 0.9999258 0.9999258 0.9999258 0.9999258
0.9999258 0.9999258 0.9999258 0.9999258 0.9999258 0.9999258 0.9999258 0.9999258
0.9999258 0.9999258 0.9999258 0.9999258 0.9999258 0.9999258 0.9999258 0.9999258
0.9999258 0.9999258 0.9999258 0.9999258 0.9999258 0.9999258 0.9999258 0.9999258
0.9999258 0.9999258 0.9999258 0.9999258 0.9999258 0.9999258 0.9999258 0.9999258
0.9999258 0.9999258 0.9999258 0.9999258 0.9999258 0.9999258 0.9999258 0.9999258
0.9999258 0.9999258 0.9999258 0.9999258 0.9999258 0.9999258 0.9999258 0.9999258
0.9999258 0.9999258 0.9999258 0.9999258 0.9999258 0.9999258 0.9999258 0.9999258
0.9999258 0.9999258 0.9999258 0.9999258 0.9999258 0.9999258 0.9999258 0.9999258
0.9999258 0.9999258 0.9999258 0.9999258 0.9999258 0.9999258 0.9999258 0.9999258
0.9999258 0.9999258 0.9999258 0.9999258 0.9999258 0.9999258 0.9999258 0.9999258
0.9999258 0.9999258 0.9999258 0.9999258 0.9999258 0.9999258
00000000: 23fb 7f3f 23fb 7f3f 23fb 7f3f 23fb 7f3f
00000010: 23fb 7f3f 23fb 7f3f 23fb 7f3f 23fb 7f3f
00000020: 23fb 7f3f 23fb 7f3f 23fb 7f3f 23fb 7f3f
00000030: 23fb 7f3f 23fb 7f3f 23fb 7f3f 23fb 7f3f
00000040: 23fb 7f3f 23fb 7f3f 23fb 7f3f 23fb 7f3f
00000050: 23fb 7f3f 23fb 7f3f 23fb 7f3f 23fb 7f3f
00000060: 23fb 7f3f 23fb 7f3f 23fb 7f3f 23fb 7f3f
00000070: 23fb 7f3f 23fb 7f3f 23fb 7f3f 23fb 7f3f
00000080: 23fb 7f3f 23fb 7f3f 23fb 7f3f 23fb 7f3f
00000090: 23fb 7f3f 23fb 7f3f 23fb 7f3f 23fb 7f3f
000000a0: 23fb 7f3f 23fb 7f3f 23fb 7f3f 23fb 7f3f
000000b0: 23fb 7f3f 23fb 7f3f 23fb 7f3f 23fb 7f3f
000000c0: 23fb 7f3f 23fb 7f3f 23fb 7f3f 23fb 7f3f
000000d0: 23fb 7f3f 23fb 7f3f 23fb 7f3f 23fb 7f3f
000000e0: 23fb 7f3f 23fb 7f3f 23fb 7f3f 23fb 7f3f
000000f0: 23fb 7f3f 23fb 7f3f 23fb 7f3f 23fb 7f3f
00000100: 23fb 7f3f 23fb 7f3f 23fb 7f3f 23fb 7f3f
00000110: 23fb 7f3f 23fb 7f3f 23fb 7f3f 23fb 7f3f
00000120: 23fb 7f3f 23fb 7f3f 23fb 7f3f 23fb 7f3f
00000130: 23fb 7f3f 23fb 7f3f 23fb 7f3f 23fb 7f3f
00000140: 23fb 7f3f 23fb 7f3f 23fb 7f3f 23fb 7f3f
00000150: 23fb 7f3f 23fb 7f3f 23fb 7f3f 23fb 7f3f
00000160: 23fb 7f3f 23fb 7f3f 23fb 7f3f 23fb 7f3f
00000170: 23fb 7f3f 23fb 7f3f 23fb 7f3f 23fb 7f3f
00000180: 23fb 7f3f 23fb 7f3f 23fb 7f3f 23fb 7f3f
00000190: 23fb 7f3f 23fb 7f3f

network_body.observation_encoder.processors.2.normalizer.running_mean f4 [10]
0.0 0.0 0.0 0.0 0.0 0.0 0.0 0.0
0.0 0.0
00000000: 0000 0000 0000 0000 0000 0000 0000 0000
00000010: 0000 0000 0000 0000 0000 0000 0000 0000
00000020: 0000 0000 0000 0000

network_body._body_endoder.seq_layers.0.weight f4 [256, 214]
-0.038268685 -0.0008477554 -0.029381234 -0.12258913 -0.09128262 0.03222723 -0.080320574 -0.14959322
-0.017119473 0.06158193 0.057759266 -0.03763792 0.11433123 -0.09253558 -0.15055746 -0.08703287
0.070997216 -0.0140972 -0.15223143 -0.06459686 0.0050495933 0.047733843 -0.060475092 -0.040711787
0.021678194 0.0800274 -0.12083241 -0.00469555 -0.041687302 0.11381282 0.058569707 0.0060945186
-0.065724544 -0.14189671 -0.13715471 0.010874126 0.080731526 -0.091655165 -0.080402546 -0.11150178
-0.06344319 -0.07566137 -0.13174577 -0.082220815 -0.017282192 0.108522035 -0.06184955 -0.024850383
-0.022502962 0.0754187 0.036739696 -0.058822796 0.0738034 -0.05027474 0.05139362 0.08628756
0.026392441 0.09116252 0.012272391 -0.018885292 -0.004207322 -0.082990475 -0.027773106 0.025985336
-0.08483447 0.03570902 -0.019417118 0.10992641 -0.02525175 0.096284494 0.06385947 0.03532804
-0.00073718873 0.073367685 0.10392917 -0.037922595 -0.054641288 -0.002103531 0.032403253 0.037953
-0.06410581 -0.016545998 -0.06743312 0.113642916 -0.029654032 0.028221894 0.024161048 0.011499702
-0.114500284 -0.008507454 0.019908395 -0.05707015 0.06461799 -0.009168422 -0.021879936 -0.0800761
-0.021713683 -0.05356991 -0.10309052 -0.08780321 0.068594344 -0.017563738 -0.09794476 -0.09107671
0.0017052151 -0.02864531 0.111733176 -0.024281733 0.05337528 -0.03504918 -0.06316255 0.09812288
-0.09749909 -0.061079875 -0.001072133 0.04878246 -0.032813407 0.07523747 0.012768047 0.076024145
-0.13781151 -0.09193363 0.06216013 -0.04888016 0.058499176 -0.002139461 -0.0025033574 -0.048104912
0.061803736 -0.00911239 0.039581448 0.006741273 -0.002486154 -0.17651701 -0.017016685 -0.05704139
-0.054762445 -0.010723801 -0.08692092 0.07965264 -0.014144102 0.085234255 0.024763126 0.07744999
-0.04723464 0.06318559 0.0037020051 0.10845028 -0.09261454 0.015319628 0.086069904 -0.037247695
-0.18337706 0.01737557 -0.010573605 -0.03077502 0.09412294 0.0054598134 -0.054721877 0.024507858
-0.013086645 0.068829924 0.045656666 0.05467567 -0.003222716 0.06738263 -0.14616418 -0.008081529
0.01974487 0.0018627543 0.105402514 -0.029028926 -0.037533857 -0.001190905 0.10182859 0.08195336
0.038213797 -0.005320998 -0.03817918 0.01168284 -0.14602879 0.048000887 -0.17416236 -0.09460618
0.018278867 -0.019008549 0.08193969 -0.078431234 -0.01111364 0.013886226 0.03525193 0.024202064
-0.0590737 -0.092158295 -0.0028171935 -0.015102837 0.105910346 0.0682556 0.104470395 -0.07212724
0.13627675 -0.02236553 -0.032145005 -0.030652562 0.0006883645 0.068965875 -0.018241072 0.014902676
0.02215977 0.010954586 -0.06682878 -0.003085743 0.01649282 0.07395565 0.01109308 -0.057857264
0.045594044 -0.12396358 -0.0034658918 -0.077105224 0.0636758 0.09259744 0.09107342 -0.027582085
-0.13624826 -0.026094425 0.028354093 -0.09845505 -0.055650078 0.03348802 0.031153183 0.15358561
0.14937815 -0.13531794 -0.09336734 0.034702774 0.0028083206 0.050458964 0.11459026 -0.12251728
-0.09720316 -0.17704077 0.09990653 -0.028991023 0.07312035 -0.033533335 0.086773865 -0.0010707588
0.08470686 0.15802021 0.03590026 -0.06278031 -0.09193876 -0.0029996515 -0.02748541 -0.06793215
00000000: a0bf 1cbd e73b 5eba eab0 f0bc 0310 fbbd
00000010: 62f2 babd b300 043d 1d7f a4bd f72e 19be
00000020: 233e 8cbc 553d 7c3d fb94 6c3d 382a 1abd
00000030: 7e26 ea3d 4b83 bdbd bc2b 1abe 4a3e b2bd
00000040: fd66 913d f1f7 66bc 8ee2 1bbe 5c4b 84bd
00000050: 0f77 a53b 9084 433d bbb4 77bd 67c1 26bd
00000060: 7896 b13c 68e5 a33d fc76 f7bd 21dd 99bb
00000070: 4ec0 2abd b216 e93d cae6 6f3d 87b4 c73b
00000080: 979a 86bd 5f4d 11be 4972 0cbe 6429 323c
00000090: 9256 a53d b4b5 bbbd 17aa a4bd 0c5b e4bd
000000a0: 81ee 81bd 59f4 9abd 5de8 06be 6363 a8bd
000000b0: 6293 8dbc cd40 de3d f455 7dbd 0893 cbbc
000000c0: 2258 b8bc 1f75 9a3d 5d7c 163d 2cf0 70bd
000000d0: 3d26 973d e3ec 4dbd 1e82 523d 88b7 b03d
000000e0: f634 d83c 6ab3 ba3d 2312 493c 54b5 9abc
000000f0: 93dd 89bb e9f6 a9bd 6d84 e3bc 33df d43c
00000100: b2bd adbd 9f43 123d a610 9fbc 1921 e13d
00000110: c2dc cebc ce30 c53d c1c8 823d 23b4 103d
00000120: e63f 41ba cc41 963d d1d8 d43d b954 1bbd
00000130: 8bcf 5fbd 65db 09bb 46b9 043d 9b74 1b3d
00000140: e849 83bd 798b 87bc 601a 8abd 9ebd e83d
00000150: 03ed f2bc 9a31 e73c 64ed c53c 3f69 3c3c
00000160: 207f eabd d962 0bbc ee16 a33c 64c2 69bd
00000170: 7056 843d 2637 16bc 8d3d b3bc f0fe a3bd
00000180: e5e0 b1bc 1f6c 5bbd 1f21 d3bd 2bd2 b3bd
00000190: 317b 8c3d d4e1 8fbc 4397 c8bd 6d86 babd
000001a0: 8681 df3a 92a9 eabc 5dd4 e43d 7cea c6bc
000001b0: 0aa0 5a3d bb8f 0fbd 5e5b 81bd a6f4 c83d
000001c0: 9aad c7bd e42e 7abd d086 8cba 1ed0 473d
000001d0: 5a67 06bd 1a16 9a3d 1231 513c 8cb2 9b3d
000001e0: 761e 0dbe b347 bcbd 9f9b 7e3d 9036 48bd
000001f0: d59c 6f3d 3336 0cbb 5e0f 24bb a809 45bd
00000200: ea25 7d3d 224c 15bc 2820 223d e6e5 dc3b
00000210: beee 22bb e0c0 34be 9366 8bbc 3ca4 69bd
00000220: 964e 60bd e2b2 2fbc 9803 b2bd ec20 a33d
00000230: aabc 67bc 4c8f ae3d 0adc ca3c 1a9e 9e3d
00000240: 1c79 41bd 7267 813d 579d 723b 2e1b de3d
00000250: b1ac bdbd 2dff 7a3c 6b45 b03d 0a91 18bd
00000260: 32c7 3bbe 3657 8e3c ea3c 2dbc e51b fcbc
00000270: 87c3 c03d 3ce8 b23b 0c24 60bd b4c4 c83c
00000280: 5e69 56bc b4f6 8c3d 7c02 3b3d 98f3 5f3d
00000290: 3434 53bb e8ff 893d 10ac 15be 6468 04bc
000002a0: febf a13c aa27 f43a 46dd d73d 12ce edbc
000002b0: 1abd 19bd 2418 9cba 828b d03d 2ad7 a73d
000002c0: 1286 1c3d c45b aebb c661 1cbd 6269 3f3c
000002d0: 9288 15be 949c 443d 9e57 32be e3c0 c1bd
000002e0: 90bd 953c d1b7 9bbc ffcf a73d 8ea0 a0bd
000002f0: fc15 36bc 0e83 633c 5464 103d 6843 c63c
00000300: 44f7 71bd 7dbd bcbd aaa0 38bb e471 77bc
00000310: 86e7 d83d 98c9 8b3d 93f4 d53d 72b7 93bd
00000320: 228c 0b3e ea37 b7bc 7baa 03bd 151b fbbc
00000330: 5c73 343a fb3d 8d3d 4d6e 95bc 5b2a 743c
00000340: 6888 b53c dd7a 333c 87dd 88bd 2d3a 4abb
00000350: f31b 873c 0f76 973d c0bf 353c bdfb 6cbd
00000360: d2c0 3a3d 9ee0 fdbd 0424 63bb 58e9 9dbd
00000370: 7568 823d baa3 bd3d b484 ba3d d3f3 e1bc
00000380: aa84 0bbe fac3 d5bc d846 e83c cda2 c9bd
00000390: 56f1 63bd bc2a 093d f634 ff3c 8c45 1d3e
000003a0: 96f6 183e c990 0abe 6037 bfbd 7f24 0e3d
000003b0: cd0b 383b 0fae 4e3d 4cae ea3d 57ea fabd
000003c0: 7312 c7bd 2d4a 35be cb9b cc3d 957e edbc
000003d0: 1fc0 953d 405a 09bd 7fb6 b13d b458 8cba
000003e0: ca7a ad3d 0dd0 213e 270c 133d f792 80bd
000003f0: 634a bcbd cd95 44bb 1529 e1bc 0320 8bbd

network_body._body_endoder.seq_layers.0.bias f4 [256]
-0.003918319 -0.003751614 0.028667403 0.030229501 0.019173594 0.0152891865 0.002554209 -0.029539378
0.010154356 -0.009062147 0.0029801917 0.000994881 0.02579012 0.006362882 0.013790594 0.01477918
-0.024704758 0.043364245 0.017941158 0.018489877 0.008199158 0.022066282 0.0303555 0.013455372
0.020238537 0.0077137877 -0.005806407 0.011817865 0.018733392 0.026889762 0.0137505885 -0.0057802284
0.013229413 0.019302983 -0.009518279 0.00085252844 0.020690417 0.027576284 0.022867423 0.020399459
0.016418617 0.013458043 0.010405013 0.014511453 0.015009869 0.014978232 -0.019280126 0.03759674
0.016876271 0.034974515 0.008325197 0.002496845 0.019052908 -0.000504178 -0.011106943 -0.008886276
0.007476135 -0.00712678 0.0031076295 -0.015334019 0.026250964 0.014922547 0.016240217 0.036159772
-0.008180999 0.027508434 0.01820831 0.012804958 0.0065077636 0.023594648 0.011283619 0.024691857
0.016208695 0.017394392 -0.0040987944 0.009575313 -0.013297975 0.019787075 -0.0059934617 0.029837565
-0.0020549826 -0.006811344 -0.011207155 0.020249002 0.0088767605 0.025494523 -0.0094048865 0.028037978
0.00045052424 0.030669509 -0.0033479927 0.037204284 0.012551997 0.008502722 -0.0032187307 0.01720191
0.022576168 -0.011251393 -0.013122948 0.0027538743 0.0064428616 -0.005054256 -0.0051211426 0.02145327
0.012385627 0.009297087 0.01383276 0.018992139 -0.005883245 0.016978618 0.01708233 -0.0009403085
0.0031603407 -0.00092909514 0.017352084 0.010339503 -0.0073897094 0.028638102 0.027986107 -0.0030473818
0.023342047 0.017774409 0.037013073 0.045213316 0.0051101455 0.032973852 0.014804057 0.0005582315
-0.010275425 0.018250652 0.031494953 0.021387385 -0.011138156 0.017315803 0.015758002 0.02997201
0.024064282 0.018262638 0.005553174 -0.001659481 0.0027928813 0.014957447 -0.008326216 0.049244437
-0.024298698 0.001299758 -0.02894463 0.019103864 0.02619757 0.010711716 0.0144092925 0.014805417
0.027581204 0.017995592 0.026209995 0.009227633 0.01204827 -0.0024989257 -0.011469576 0.020608287
0.00090341765 0.03215033 -0.023914611 0.01572336 0.03160471 0.008639523 0.032959007 0.012490667
0.041526344 0.040253986 0.014466988 0.0007100157 -0.005988051 0.03917419 0.02830313 0.026143989
0.0012883443 0.042491794 0.023320224 0.005943047 0.0007206951 0.027407572 0.04370317 0.0034971684
0.020726604 0.025066879 0.028778754 0.004643644 0.017766822 -0.023255343 0.0060665286 0.03486695
0.02136392 0.018824274 -0.00030048058 0.0073808366 0.005449184 0.039380044 0.012834448 -0.0033207606
0.010669544 0.027212964 -0.009061514 0.018070368 0.011283972 0.004977268 0.002927313 0.013936258
-0.0140718445 -0.015822457 0.02972742 0.00898814 0.024693742 0.028351333 0.020804664 0.0069795735
-0.016195988 0.018030811 0.0250414 0.011901072 0.015642058 0.038162816 0.0059313634 0.018015996
0.024352958 0.0109560955 0.029079776 -0.013401475 -0.006446234 0.016986325 0.001012061 0.005217564
0.015798243 0.029868988 0.032678433 -0.0022303069 0.016511219 0.011204213 0.0011321967 0.051836617
0.009869709 0.021762643 0.015921801 0.030831045 0.03187649 0.0062917424 -0.010512112 0.005054945
0.0020730614 0.0049096965 0.0016635654 0.0021536206 -0.0055289716 -1.4690058e-05 0.011236034 -0.014917154
00000000: 3e65 80bb a3dd 75bb e7d7 ea3c dca3 f73c
00000010: f111 9d3c 7f7f 7a3c 8464 273b 91fc f1bc
00000020: 755e 263c 6679 14bc 524f 433b ab66 823a
00000030: cd45 d33c b97f d03b f2f1 613c 6024 723c
00000040: a261 cabc b59e 313d 56f9 923c 1578 973c
00000050: c355 063c 59c4 b43c 19ac f83c ec73 5c3c
00000060: 4acb a53c f1c3 fc3b ac43 bebb b89f 413c
00000070: c576 993c eb47 dc3c 264a 613c 1268 bdbb
00000080: 2ec0 583c 4a21 9e3c 8ef2 1bbc 377c 5f3a
00000090: f37e a93c a9e7 e13c 7654 bb3c c41c a73c
000000a0: 5680 863c 207f 5c3c ca79 2a3c 72c1 6d3c
000000b0: f4eb 753c 4267 753c 5bf1 9dbc 0aff 193d
000000c0: 1b40 8a3c 7041 0f3d 6866 083c 1ca2 233b
000000d0: d814 9c3c d02a 04ba e5f9 35bc be97 11bc
000000e0: 5efa f43b c487 e9bb 5fa9 4b3b 8a3b 7bbc
000000f0: 430c d73c b37d 743c 340a 853c 451c 143d
00000100: 9909 06bc 5e59 e13c 9829 953c e3cb 513c
00000110: 143f d53b 9049 c13c eede 383c 9446 ca3c
00000120: 19c8 843c af7e 8e3c 2e4f 86bb c6e1 1c3c
00000130: c0df 59bc 8118 a23c cd64 c4bb e96d f43c
00000140: e3ac 06bb b231 dfbb 379e 37bc 3ce1 a53c
00000150: d56f 113c e4d9 d03c f416 1abc e7af e53c
00000160: 5734 ec39 9f3e fb3c ff69 5bbb 8563 183d
00000170: e4a6 4d3c 004f 0b3c 57f1 52bb 05eb 8c3c
00000180: a8f1 b83c c357 38bc a201 57bc 587a 343b
00000190: a41e d33b 2c9e a5bb 42cf a7bb c5be af3c
000001a0: 16ed 4a3c cf52 183c cda2 623c 6795 9b3c
000001b0: 3cc8 c0bb be16 8b3c 3ef0 8b3c 097f 76ba
000001c0: b81d 4f3b 858e 73ba f525 8e3c 0567 293c
000001d0: 6025 f2bb 749a ea3c 1f43 e53c 95b6 47bb
000001e0: d237 bf3c a39b 913c 059b 173d 9931 393d
000001f0: 0273 a73b 970f 073d b78c 723c 4856 123a
00000200: 425a 28bc 6482 953c da00 013d 9934 af3c
00000210: d07c 36bc dfd9 8d3c ed16 813c dc87 f53c
00000220: 7522 c53c 879b 953c 66f7 b53b f182 d9ba
00000230: c608 373b 1410 753c ae6a 08bc 89b4 493d
00000240: 100e c7bc a45c aa3a 4a1d edbc b57f 9c3c
00000250: 499c d63c 3180 2f3c f414 6c3c 6b92 723c
00000260: faf1 e13c 7e6b 933c 58b6 d63c 7f2f 173c
00000270: 1b66 453c 04c5 23bb e3ea 3bbc b6d2 a83c
00000280: 55d3 6c3a 10b0 033d 93e8 c3bc 47ce 803c
00000290: f173 013d c98c 0d3c 0600 073d a8a5 4c3c
000002a0: 8717 2a3d 5de1 243d f206 6d3c 5920 3a3a
000002b0: 6a37 c4bb 1e75 203d f7db e73c eb2b d63c
000002c0: a9dd a83a e00b 2e3d 0e0a bf3c e4bd c23b
000002d0: 08ed 3c3a d885 e03c 1802 333d c030 653b
000002e0: d7ca a93c 0e59 cd3c 6cc1 eb3c b629 983b
000002f0: ba8b 913c fd81 bebc bbc9 c63b a6d0 0e3d
00000300: 6303 af3c 5d35 9a3c d289 9db9 f2da f13b
00000310: 128f b23b f84c 213d 9447 523c 1ea1 59bb
00000320: 50cf 2e3c b9ed de3c bf76 14bc 4f08 943c
00000330: 69e0 383c 5a18 a33b 2ad8 3f3b e754 643c
00000340: 988d 66bc 199e 81bc eb86 f33c fe42 133c
00000350: 884a ca3c 0e41 e83c 8b6e aa3c e8b4 e43b
00000360: 73ad 84bc 5ab5 933c 9f23 cd3c b7fc 423c
00000370: c623 803c 9d50 1c3d e25b c23b 4896 933c
00000380: db7f c73c 3281 333c b638 ee3c dc91 5bbc
00000390: ee3a d3bb e826 8b3c 22a7 843a 19f8 aa3b
000003a0: 516b 813c cfaf f43c d2d9 053d 572a 12bb
000003b0: 8942 873c e091 373c 3866 943a a252 543d
000003c0: 8fb4 213c 9247 b23c 706e 823c 6391 fc3c
000003d0: ec90 023d f62a ce3b fe3a 2cbc f4a3 a53b
000003e0: 33dc 073b 85e1 a03b fe0b da3a c223 0d3b
000003f0: 602c b5bb 5275 76b7 5817 383c 1467 74bc

network_body._body_endoder.seq_layers.2.weight f4 [256, 256]
-0.01214479 0.06906157 0.0064871856 -0.0005964475 0.05137528 0.0130227925 0.09414978 0.122815914
0.13331039 -0.03674188 0.05965801 0.081664234 0.024468089 0.0058787 0.03423409 0.123431355
-0.11757974 -0.030357445 -0.102826 0.068587616 0.010510944 -0.022474675 0.13316455 -0.09436009
0.0956237 0.033501778 0.04215604 -0.08558163 0.023004042 -0.07488976 -0.10044201 0.0010700498
-0.065562196 0.029344095 -0.04285511 0.034767475 0.011824397 0.011876822 -0.00996423 0.017301146
-0.023182845 -0.0016972871 0.12598187 -0.1151225 0.16747676 0.058184713 -0.075632125 -0.0826105
0.005926591 -0.010352128 -0.0036497323 0.08078442 0.030411491 -0.10439215 -0.0685287 -0.061767727
0.031365372 -0.07845525 0.119458675 0.025473591 0.12464853 -0.033385772 0.022782106 0.0054081203
0.017489448 -0.027072744 0.055192724 -0.03139281 -0.045363333 0.025316117 0.023242855 -0.06024654
0.021057367 0.04180543 -0.039975576 0.050676942 0.054718465 0.040111713 -0.13566847 -0.09846638
-0.1466853 0.017945692 -0.01626036 -0.009154885 -0.036311373 -0.0041169 -0.03259586 0.13312751
-0.048958357 0.042089336 0.03850221 -0.019879585 -0.061554693 0.02860929 0.07787706 0.006497791
0.1797368 -0.005532628 -0.063628644 0.12906624 0.026570003 0.111043565 0.047687564 0.037342288
-0.0039197705 -0.012369218 0.076048546 0.02841566 -0.016000723 0.09947869 -0.12296974 0.080105215
-0.09234404 0.0182042 -0.15351096 0.07345856 0.01939141 0.14167951 0.025990661 -0.029736025
-0.0020792128 0.05201493 -5.5293403e-05 0.0034577686 0.0045515057 0.05938676 0.08828149 -0.084127754
0.0078819655 0.06593242 -0.04628645 -0.007333573 0.039197132 0.032893356 0.11640559 0.03228857
0.079290345 -0.08005091 -0.017081799 -0.13890776 0.053836126 0.033838317 0.019735057 -0.13030821
-0.039998945 -0.0813027 0.00014495422 -0.057575144 0.030555077 0.15026224 -0.015056636 -0.11157878
-0.02945399 0.040407926 0.024575917 -0.0722252 -0.01700697 0.04576854 0.14441314 -0.043728158
0.108630784 -0.013810734 0.0077662542 0.037708018 -0.17868432 0.035978805 -0.04596139 -0.04743872
-0.0707431 0.048663653 0.009311638 0.016172485 0.074305505 0.06890908 -0.024862971 -0.064233385
0.0887546 0.10571572 -0.08016769 -0.058840092 0.018816 -0.021392345 0.05361478 -0.09386714
0.072822005 0.012679015 -0.024789909 0.07705302 0.12121451 0.04434901 -0.095084324 0.1272474
-0.02258001 0.057398695 0.1269273 -0.024522059 0.0038982327 0.11287044 -0.078819126 -0.025783446
-0.060461134 -0.04224549 -0.039355926 0.14641592 -0.015447857 0.024051271 0.01589673 0.005577916
-0.0009661695 0.011006157 -0.008662898 0.09021384 0.022436101 0.018586596 0.048467346 -0.0063288985
-0.053942397 0.12623233 0.09299178 0.05254792 -0.05726854 0.064442374 -0.2025252 0.0357436
0.020280877 -0.049252592 -0.039768353 -0.04802894 0.082164735 0.010799179 -0.052672345 0.078355715
-0.0047429414 -0.037172053 -0.069694795 0.10367111 0.041645158 -0.11999505 -0.03958212 0.065879606
-0.070546135 0.060215145 0.06570121 0.13581422 0.021197917 0.06861166 -0.020260053 -0.021178147
-0.042020068 -0.00818503 0.11359858 0.07247614 0.025272578 0.020945076 0.07850096 0.06545905
00000000: f1fa 46bc 2770 8d3d 7592 d43b ea5a 1cba
00000010: e36e 523d 8d5d 553c 9ad1 c03d e986 fb3d
00000020: 8582 083e a77e 16bd f55b 743d 943f a73d
00000030: 4d71 c83c 1ca2 c03b 0c39 0c3d 94c9 fc3d
00000040: a6cd f0bd 2db0 f8bc 7096 d2bd aa77 8c3d
00000050: 1836 2c3c cf1c b8bc 4a5c 083e dd3f c1bd
00000060: 5cd6 c33d 2939 093d d0ab 2c3d 6c45 afbd
00000070: f972 bc3c cd5f 99bd 8ab4 cdbd ea40 8c3a
00000080: 7945 86bd 0763 f03c d788 2fbd 5768 0e3d
00000090: 1ebb 413c 0197 423c 0241 23bc 22bb 8d3c
000000a0: f3e9 bdbc 8177 deba 6401 013e 58c5 ebbd
000000b0: 077f 2b3e 1853 6e3d 04e5 9abd b22f a9bd
000000c0: d933 c23b f99b 29bc 5930 6fbb 4d72 a53d
000000d0: 8521 f93c 8dcb d5bd c658 8cbd 2800 7dbd
000000e0: fa78 003d 25ad a0bd c0a6 f43d fead d03c
000000f0: ba47 ff3d 85bf 08bd 8aa1 ba3c 9a36 b13b
00000100: 0846 8f3c a9c7 ddbc c411 623d bf95 00bd
00000110: e7ce 39bd bf63 cf3c cd67 be3c 13c5 76bd
00000120: 8080 ac3c 2c3c 2b3d 6ebd 23bd a092 4f3d
00000130: 7820 603d 2e4c 243d adec 0abe bea8 c9bd
00000140: ac34 16be d802 933c 7234 85bc 5ffe 15bc
00000150: 3cbb 14bd 0fe7 86bb 3d83 05bd 9452 083e
00000160: 8f88 48bd de65 2c3d 7eb4 1d3d 83da a2bc
00000170: c620 7cbd 085e ea3c 027e 9f3d 6ceb d43b
00000180: ec0c 383e 0c4b b5bb bc4f 82bd f129 043e
00000190: 56a9 d93c cf6a e33d 0954 433d 3af4 183d
000001a0: 6b71 80bb 43a8 4abc 57bf 9b3d f5c7 e83c
000001b0: f313 83bc 7cbb cb3d 8fd7 fbbd 340e a43d
000001c0: df1e bdbd f920 953c fa31 1dbe 7171 963d
000001d0: bcda 9e3c 6f14 113e 5eea d43c f798 f3bc
000001e0: 6743 08bb 9b0d 553d d7ea 67b8 bb9b 623b
000001f0: cc24 953b 883f 733d edcc b43d 2c4b acbd
00000200: 5c23 013c 9407 873d dc96 3dbd 784e f0bb
00000210: 2c8d 203d 2fbb 063d 0e66 ee3d 0541 043d
00000220: fa62 a23d bbf1 a3bd 21ef 8bbc d63d 0ebe
00000230: 4583 5c3d 0c9a 0a3d 6aab a13c 846f 05be
00000240: efd5 23bd 0882 a6bd dafe 1739 ead3 6bbd
00000250: a44e fa3c 58de 193e 1cb0 76bc 6a83 e4bd
00000260: 7e49 f1bc c882 253d 6f53 c93c ceea 93bd
00000270: 3352 8bbc cb77 3b3d 0ae1 133e 4c1c 33bd
00000280: d179 de3d 6b46 62bc 107c fe3b b973 1a3d
00000290: 06f9 36be 835e 133d 0342 3cbd 1a4f 42bd
000002a0: c2e1 90bd 8a53 473d d78f 183c 297c 843c
000002b0: 7c2d 983d 3420 8d3d 6ead cbbc cb8c 83bd
000002c0: f9c4 b53d 7c81 d83d f52e a4bd 4f02 71bd
000002d0: 0324 9a3c 003f afbc 2c9b 5b3d 6a3d c0bd
000002e0: b423 953d a5bb 4f3c 3514 cbbc f9cd 9d3d
000002f0: 503f f83d 4fa7 353d 92bb c2bd 244d 023e
00000300: b7f9 b8bc e51a 6b3d 3bf9 013e 7ce2 c8bc
00000310: 7e79 7f3b 9e28 e73d ec6b a1bd ce37 d3bc
00000320: 18a6 77bd 9b09 2dbd ae33 21bd 0eee 153e
00000330: 0219 7dbc 2c07 c53c dc39 823c f3c6 b63b
00000340: 8a46 7dba 2b53 343c d4ee 0dbc 09c2 b83d
00000350: eacb b73c eb42 983c b285 463d a662 cfbb
00000360: b4f2 5cbd 0c43 013e 7972 be3d 7d3c 573d
00000370: 6b92 6abd 5dfa 833d c462 4fbe e267 123d
00000380: 1524 a63c 16bd 49bd 24e4 22bd feb9 44bd
00000390: fc45 a83d 0aef 303c f5be 57bd f678 a03d
000003a0: ad6a 9bbb b941 18bd 25bc 8ebd 8551 d43d
000003b0: 1d94 2a3d f7bf f5bd dc20 22bd e3eb 863d
000003c0: 7e7a 90bd 28a4 763d 5b8e 863d e212 0b3e
000003d0: 41a7 ad3c 4584 8c3d 69f8 a5bc cb7d adbc
000003e0: 3c1d 2cbd 811a 06bc 5fa6 e83d 5f6e 943d
000003f0: 7008 cf3c 0295 ab3c 1cc5 a03d 650f 863d

network_body._body_endoder.seq_layers.2.bias f4 [256]
0.017480373 0.024204377 0.009306396 0.020092387 0.0108633805 0.0034813588 0.04483391 0.012464471
0.01765825 0.016415738 0.007126306 0.0098092975 0.03707118 0.0028345557 0.01072788 0.010138824
0.02549126 0.0051980424 0.00327747 0.01520907 0.019593278 0.030548776 -0.0037005278 0.001437697
0.007832596 0.02536754 0.053084373 0.013605836 0.014783278 0.021076284 0.015469094 0.00441997
0.016893808 0.01302181 0.008306208 0.012072973 0.035734266 -0.0010698441 0.014703222 0.02540728
0.029200569 0.042023275 0.022876658 0.013614518 0.002572519 0.009566462 0.022032328 0.01610868
0.0039221374 0.016866783 0.012473949 0.010765895 -0.0106283855 0.022775363 0.022063486 0.033347894
0.021491433 0.0053346036 0.028219467 0.01144692 0.005582742 0.010251123 0.018055089 0.005481786
0.010501522 0.028000765 0.02552201 0.009518276 0.014167633 0.014039781 0.016246635 0.02639465
0.016709592 0.006502396 0.025568087 0.014616123 0.012238916 0.020765861 0.016564555 0.012070203
0.015941028 0.014100755 0.022803497 0.034722857 0.008682969 0.010679235 0.022039413 0.030907711
0.0074619255 -8.968855e-05 0.009708673 0.01676027 0.0040898663 0.011826521 0.016554032 0.01920104
0.00878271 0.017590487 0.0198035 0.030410707 0.0095810015 0.016699828 0.029208926 0.006519441
0.030088713 0.016696021 0.009613302 0.001787736 0.016761178 0.019188358 -0.0007875973 0.008863242
0.013299437 0.016628223 0.034691207 0.013146299 0.010686308 0.019853277 0.023194153 0.008697851
-0.00014796146 0.026277239 0.01184754 0.001147581 0.021782551 0.021853143 0.01537182 0.015895942
0.021225661 0.0052837194 0.018516043 0.009749438 0.0021119316 0.008373667 0.007861018 0.0051189186
0.01499501 0.017150294 0.024389993 0.029663742 0.005768365 0.012841914 0.0150939645 0.022950483
0.0061748927 0.02247423 0.0020038818 0.015194998 0.0130202165 0.011071103 0.016862765 0.0061510033
0.013115321 0.0092528295 0.009772899 0.020281991 0.01184158 0.022994177 0.0042778766 0.019121785
0.012888749 0.011036483 0.03146712 0.031044837 0.02139633 0.016443342 0.018453712 0.014298711
0.02069057 0.024933726 0.010935955 0.010908059 0.006796645 0.017025307 0.00452763 -0.0030416637
0.01415709 0.017520012 0.011017632 0.023509508 0.018322732 0.0065404354 0.017791385 0.017045608
0.0365287 0.01945364 0.015536545 0.008778164 0.019204238 0.01216934 0.024891559 0.008417473
0.019848233 0.007530581 0.018441502 0.015853155 0.03180143 0.0018135151 0.013030097 0.026985519
0.011061745 0.009271902 0.031916015 0.031906378 0.02819153 0.007652773 0.004439456 0.018552627
0.02977493 0.0060176123 0.025019336 0.016454853 0.017778516 0.023497611 0.0022909888 0.0137597695
0.0146974325 0.012249283 -0.0037602773 0.019142883 0.018928736 0.020442015 0.016733576 0.0027359335
0.0068167434 0.008888535 0.016538488 0.03075822 0.01625064 0.018054942 0.010454713 0.017996162
0.024739688 0.01326731 0.022045916 0.0312439 0.013708125 0.0053656925 0.023871675 -0.0019926026
0.017143922 0.020207275 0.0341161 0.0029442909 0.028710578 0.024164801 0.001248707 0.008642838
0.025535764 0.018609246 0.010305245 0.0061262688 -0.006836614 0.007366911 0.016927468 0.014747959
00000000: 0033 8f3c 4248 c63c db79 183c ca98 a43c
00000010: 52fc 313c 8227 643b c3a3 373d c837 4c3c
00000020: 09a8 903c 4c7a 863c ca83 e93b 2db7 203c
00000030: f3d7 173d f4c3 393b fdc3 2f3c 4f1d 263c
00000040: 0cd3 d03c 5754 aa3b d2ca 563b 772f 793c
00000050: 1582 a03c 6d41 fa3c 8e84 72bb 1b71 bc3a
00000060: 4a54 003c 96cf cf3c 006f 593d 03eb 5e3c
00000070: 9035 723c 2ca8 ac3c 1572 7d3c 65d5 903b
00000080: e264 8a3c 6e59 553c c316 083c b8cd 453c
00000090: 185e 123d 033a 8cba c8e5 703c ee22 d03c
000000a0: 0836 ef3c 9920 2c3d d467 bb3c 6d0f 5f3c
000000b0: b597 283b a6bc 1c3c 247d b43c 5af6 833c
000000c0: 4685 803b 352c 8a3c 895f 4c3c 7063 303c
000000d0: ae22 2ebc 6693 ba3c 7cbe b43c cd97 083d
000000e0: cd0e b03c e6cd ae3b 832c e73c dd8b 3b3c
000000f0: 6fef b63b 54f4 273c 44e8 933c 8ea0 b33b
00000100: 930e 2c3c dc61 e53c 8913 d13c 8bf2 1b3c
00000110: 5c1f 683c 1c07 663c aa17 853c 9839 d83c
00000120: 8ee2 883c 0d12 d53b 2a74 d13c 7778 6f3c
00000130: bc85 483c 2b1d aa3c 64b2 873c 1ac2 453c
00000140: c296 823c da06 673c 66ce ba3c 8e39 0e3d
00000150: 0343 0e3c f5f7 2e3c 008c b43c 2b32 fd3c
00000160: 2b83 f43b 2c17 bcb8 2011 1f3c d54c 893c
00000170: 4904 863b 06c4 413c 529c 873c 804b 9d3c
00000180: 5be5 0f3c ed19 903c f33a a23c e01f f93c
00000190: a2f9 1c3c 14ce 883c 8f47 ef3c 09a1 d53b
000001a0: 9b7c f63c 18c6 883c 1c81 1d3c 7752 ea3a
000001b0: bd4e 893c e730 9d3c c376 4eba 2237 113c
000001c0: e2e5 593c e937 883c 5e18 0e3d 9363 573c
000001d0: a015 2f3c 57a3 a23c aa01 be3c 6e81 0e3c
000001e0: 1a26 1bb9 5d43 d73c 2f1c 423c 6e6a 963a
000001f0: 5271 b23c 5d05 b33c 16da 7b3c 3538 823c
00000200: 70e1 ad3c 0d23 ad3b f5ae 973c 1bbc 1f3c
00000210: 5568 0a3b b431 093c 80cb 003c 9abc a73b
00000220: a1ad 753c c67e 8c3c 86cd c73c 6001 f33c
00000230: 8e04 bd3b e466 523c ad4c 773c a702 bc3c
00000240: c156 ca3b e01b b83c 8f53 033b 71f4 783c
00000250: bf52 553c 9263 353c c823 8a3c 5b8e c93b
00000260: a5e1 563c 2e99 173c 821e 203c 6b26 a63c
00000270: 3003 423c 495e bc3c 6e2d 8c3b 4aa5 9c3c
00000280: 552b 533c 5dd2 343c abe3 003d be51 fe3c
00000290: 5b47 af3c 30b4 863c 3d2c 973c 2445 6a3c
000002a0: 457f a93c d041 cc3c b82c 333c b7b7 323c
000002b0: 64b6 de3b a878 8b3c 835c 943b a656 47bb
000002c0: 24f3 673c 2186 8f3c 4c83 343c 0397 c03c
000002d0: 8e19 963c 2651 d63b 3dbf 913c 3ba3 8b3c
000002e0: 1e9f 153d 3d5d 9f3c fe8c 7e3c 4ad2 0f3c
000002f0: 3552 9d3c e961 473c 62e9 cb3c 71e9 093c
00000300: c398 a23c 18c3 f63b a212 973c 7ade 813c
00000310: 3742 023d 78b3 ed3a 307c 553c bc10 dd3c
00000320: 523c 353c 2de9 173c 5eba 023d 43b0 023d
00000330: ecf1 e63c 1dc4 fa3b db78 913b aefb 973c
00000340: 8eea f33c 642f c53b 5af5 cc3c 54cc 863c
00000350: 40a4 913c 107e c03c 6a24 163b a870 613c
00000360: 80cd 703c 37b1 483c fc6e 76bb 89d1 9c3c
00000370: 7010 9b3c 0376 a73c da14 893c 594d 333b
00000380: fd5e df3b 38a1 113c b97b 873c aaf8 fb3c
00000390: 1020 853c f5e7 933c 3f4a 2b3c b06c 933c
000003a0: e3aa ca3c 225f 593c a399 b43c 35f3 ff3c
000003b0: 0b98 603c b1d2 af3b 888e c33c 5396 02bb
000003c0: 6971 8c3c ba89 a53c 53bd 0b3d 01f5 403b
000003d0: 7232 eb3c 43f5 c53c a7ab a33a b19a 0d3c
000003e0: 6130 d13c 6b72 983c 55d7 283c debe c83b
000003f0: ad05 e0bb 2166 f13b 79ab 8a3c 6ca1 713c

action_model._discrete_distribution.branches.0.weight f4 [4, 256]
-0.013355845 -0.03228833 -0.026142778 -0.03517938 0.0207564 0.034581315 0.06815481 -0.025424175
-0.031118518 0.035342794 0.016463527 0.036344647 0.037102237 -0.037853796 -0.018516509 0.013477578
-0.035947435 -0.008259569 -0.021496098 -0.0054044574 0.019560535 0.0060961405 -0.027059171 0.016303558
-0.04419963 0.021897128 0.07164377 0.008521656 -0.02085408 0.0075745936 0.011783117 -0.030371087
-0.027616873 -0.037894424 -0.02218486 0.0033523561 0.02322236 -0.028656 -0.037015032 -0.030982072
0.061449785 0.06480117 -0.058021095 -0.017644253 -0.02849523 -0.022763243 -0.054065082 0.048456084
-0.001506406 -0.059140973 0.020044586 0.014590063 0.0016953535 -0.02884489 -0.033251815 0.036155414
0.050307672 0.0005983213 0.030810257 -0.0114580905 -0.007679427 -0.027501205 0.06351857 -0.002166764
0.020025382 -0.047323823 0.02265963 -0.01972096 0.0073825093 -0.007770023 -0.020652594 0.04454658
-0.045947783 -0.030947078 0.032404322 -0.04618283 -0.029487345 0.0465286 -0.039046198 -0.040617224
0.0021480373 -0.017187366 -0.033846766 0.016919957 -0.01909921 -0.044283528 -0.06322065 0.05179725
0.025504744 -0.008680764 0.025771985 -0.025075408 0.02818838 0.024766576 -0.033183895 -0.034418706
0.0025668126 -0.0017153698 0.046311945 0.04836179 0.0036265294 0.0018076824 -0.013673219 -0.04106635
0.05199819 -0.04930306 0.016320601 -0.0099984305 0.003549415 0.0101417415 -0.024937723 -0.042364683
0.042156678 -0.035526417 0.070134066 -0.03910061 -0.0014181902 -0.057727825 0.041434374 -0.022139072
0.027952503 -0.04467043 -0.017887888 -0.033765186 -0.035340387 -0.06370204 -0.014725941 -0.062283088
0.032986443 -0.01798916 -0.00425858 -0.028396312 0.037886772 -0.008801727 -0.050932705 -0.043020833
0.034059837 0.015807297 0.007142202 0.031558428 -0.017096762 0.0025108247 -0.0053566927 0.025901394
-0.04770456 0.0057289796 -0.024098823 -0.02418219 -0.012006168 0.032963935 -0.0055269357 0.013907272
-0.033088483 0.0010268661 0.017636063 -0.051104758 -0.013473475 -0.047825795 0.022998193 -0.004041145
-0.020426162 -0.013405547 0.040708393 0.019340055 -0.023937626 -0.043194294 -0.027813876 0.00576522
0.05027637 -0.05064197 -0.045194056 0.020111216 0.005027617 -0.011050536 0.0058172685 -0.023286188
0.037662957 -0.03671148 -0.014931647 0.05319813 0.045921348 -0.011579654 0.038799427 -0.0487951
-0.05391282 -0.050465662 0.002284254 -0.014029192 -0.022813246 0.003960117 -0.04398075 -0.04888831
-0.008491294 -0.037936572 -0.0076278476 -0.01795086 0.052983887 -0.01991466 -0.011387591 0.054612406
-0.016118899 -0.03647983 0.02052222 0.060823932 0.04528835 0.000952269 0.02339392 0.055295736
0.066676766 -0.003496808 0.050512027 0.052158434 -0.044746533 0.048444502 0.002767676 0.012902049
0.007688484 -0.035980936 -0.03461377 -0.043992143 -0.059982583 -0.04782611 0.025151685 0.011706425
0.0021838828 -0.04223702 -0.047789022 0.04765062 -0.05830496 -0.028255168 -0.021310583 -0.043122422
0.022416173 -0.028089484 0.043874707 0.033701807 -0.047792498 -0.038227454 -0.031096537 -0.031566836
0.010294456 -0.046554554 -0.039507825 0.0076161292 0.046509936 -0.062154494 -0.004297576 -0.013504995
0.01311999 -0.053250212 -0.0014936039 0.026444457 -0.0130298035 -0.032812025 0.052077904 -0.00029011816
00000000: 79d2 5abc c540 04bd 6129 d6bc 4118 10bd
00000010: 5309 aa3c 23a5 0d3d c094 8b3d 5c46 d0bc
00000020: 43ec febc 9bc3 103d 85de 863c 20de 143d
00000030: 84f8 173d 950c 1bbd efaf 97bc 0fd1 5c3c
00000040: 9e3d 13bd 2553 07bc 9618 b0bc e017 b1bb
00000050: 6a3d a03c 22c2 c73b 32ab ddbc 0a8f 853c
00000060: ac0a 35bd 9b61 b33c f8b9 923d 6a9e 0b3c
00000070: 2dd6 aabc 4c34 f83b fa0d 413c c9cc f8bc
00000080: c83c e2bc 2f37 1bbd 06bd b5bc 34b3 5b3b
00000090: d23c be3c fdbf eabc 139d 17bd 1dce fdbc
000000a0: c5b2 7b3d 7ab6 843d 87a7 6dbd ae8a 90bc
000000b0: d46e e9bc fb79 babc 5973 5dbd e379 463d
000000c0: 9972 c5ba ce3d 72bd 8b34 a43c 290b 6f3c
000000d0: a036 de3a 1e4c ecbc 0e33 08bd b317 143d
000000e0: 6b0f 4e3d aad8 1c3a cb65 fc3c b7ba 3bbc
000000f0: b4a3 fbbb 354a e1bc 0616 823d 4500 0ebb
00000100: 450c a43c a0d6 41bd b0a0 b93c da8d a1bc
00000110: fae8 f13b ad9b febb a12f a9bc 7a76 363d
00000120: be33 3cbd ba84 fdbc 65ba 043d 352a 3dbd
00000130: 728f f1bc c694 3e3d e8ee 1fbd 3f5e 26bd
00000140: 16c6 0c3b 85cc 8cbc e8a2 0abd b99b 8a3c
00000150: f275 9cbc a562 35bd d479 81bd 5a29 543d
00000160: 53ef d03c c339 0ebc c51f d33c f16a cdbc
00000170: 51eb e63c 46e3 ca3c d6eb 07bd a1fa 0cbd
00000180: f837 283b 42d6 e0ba 98b1 3d3d 0317 463d
00000190: 11ab 6d3b c2ef ec3a a305 60bc 3035 28bd
000001a0: 0efc 543d 01f2 49bd c8b2 853c 75d0 23bc
000001b0: 4d9d 683b 8c29 263c 324a ccbc 9786 2dbd
000001c0: 7bac 2c3d 2684 11bd 73a2 8f3d f627 20bd
000001d0: 91e2 b9ba 0374 6cbd 17b7 293d 005d b5bc
000001e0: a6fc e43c 57f8 36bd 9f89 92bc 5d4d 0abd
000001f0: 15c1 10bd 3776 82bd 1345 71bc 8d1c 7fbd
00000200: cb1c 073d 015e 93bc 8f8b 8bbb 629f e8bc
00000210: 292f 1b3d 1e35 10bc d09e 50bd 9d36 30bd
00000220: 5482 0b3d 4e7e 813c 2209 ea3b 6943 013d
00000230: 820e 8cbc a68c 243b 3287 afbb 292f d43c
00000240: db65 43bd 2aba bb3b e56a c5bc ba19 c6bc
00000250: 85b5 44bc 3105 073d 4c1b b5bb 54db 633c
00000260: ca87 07bd e997 863a 8179 903c 3953 51bd
00000270: dabf 5cbc fbe4 43bd b566 bc3c 956b 84bb
00000280: c454 a7bc f0a2 5bbc d8bd 263d 096f 9e3c
00000290: d718 c4bc 80ec 30bd edd9 e3bc 2cea bc3b
000002a0: 98ee 4d3d f46d 4fbd 671d 39bd 47c0 a43c
000002b0: b5be a43b 4f0d 35bc c99e be3b adc2 bebc
000002c0: 7944 1a3d c75e 16bd dea3 74bc 48e6 593d
000002d0: 0618 3c3d 97b8 3dbc 26ec 1e3d 5fdd 47bd
000002e0: b0d3 5cbd 15b5 4ebd 6cb3 153b b2da 65bc
000002f0: d8e2 babc dfc3 813b 2925 34bd 1c3f 48bd
00000300: 121f 0bbc 6163 1bbd 06f3 f9bb af0d 93bc
00000310: a205 593d 1224 a3bc 0593 3abc 42b1 5f3d
00000320: c80b 84bc e06b 15bd 371e a83c 8422 793d
00000330: 4780 393d b1a1 793a 9ba4 bf3c c87d 623d
00000340: d48d 883d b42a 65bb b3e5 4e3d 15a4 553d
00000350: 2448 37bd be6d 463d e661 353b 1e63 533c
00000360: aeef fb3b bf60 13bd 2bc7 0dbd 1b31 34bd
00000370: 4cb0 75bd 50e5 43bd e80a ce3c 4ecc 3f3c
00000380: 791f 0f3b ba00 2dbd 6cbe 43bd 4c2d 433d
00000390: 2fd1 6ebd 6277 e7bc 8893 aebc 23a1 30bd
000003a0: 1fa2 b73c eb1b e6bc f7b5 333d e80a 0a3d
000003b0: 11c2 43bd 6494 1cbd 2abe febc 3a4c 01bd
000003c0: 14aa 283c fdaf 3ebd f5d2 21bd b990 f93b
000003d0: 3481 3e3d b695 7ebd aed2 8cbb 0e44 5dbc
000003e0: 3af5 563c e51c 5abd 08c5 c3ba 0ca2 d83c
000003f0: f57a 55bc e765 06bd a44f 553d 001b 98b9

action_model._discrete_distribution.branches.0.bias f4 [4]
0.00617165 0.0039261454 0.00036018688 -0.007454075
00000000: 8d3b ca3b e5a6 803b 77d7 bc39 5041 f4bb

onnx::Div_72 f4 [102]
0.4003549 0.31903353 0.47528547 0.40033615 0.46747965 0.39367217 0.47216251 0.40214673
0.46166092 0.39519516 0.48054123 0.4060086 0.4693177 0.397923 0.47595352 0.40281513
0.46204445 0.3932752 0.47985843 0.40681872 0.46678936 0.3984115 0.4640655 0.38343123
0.4405519 0.36832038 0.47362134 0.39055032 0.45056093 0.3755259 0.47595388 0.40369475
0.4512463 0.3867275 0.46994734 0.3974581 0.44309124 0.3791154 0.46599278 0.39401135
0.43820038 0.37679112 0.45891374 0.39161384 0.43255052 0.37487862 0.46508628 0.38939044
0.4376208 0.37339815 0.4586222 0.38213646 0.43586332 0.37049788 0.4493995 0.3839833
0.4324531 0.37196174 0.45590657 0.3857055 0.43560338 0.3736507 0.45809045 0.38871005
0.43856907 0.3750749 0.46381184 0.3949964 0.44500658 0.38215956 0.4530133 0.3778155
0.4389366 0.3692127 0.44111517 0.3698954 0.42561105 0.36061385 0.46265024 0.39446914
0.45240209 0.38753226 0.45514527 0.38704118 0.44628945 0.38189694 0.46022925 0.39064717
0.45230287 0.3863064 0.4506822 0.38568535 0.4436611 0.38273275 0.45480025 0.38418674
0.45023653 0.38139594 0.37964112 0.3016322 0.37964112 0.3016322
00000000: 51fb cc3e 5d58 a33e 9e58 f33e dcf8 cc3e
00000010: 7e59 ef3e 668f c93e 49bf f13e 2de6 cd3e
00000020: d25e ec3e 0557 ca3e 8009 f63e 5ce0 cf3e
00000030: 694a f03e 90bc cb3e 2eb0 f33e c93d ce3e
00000040: 1791 ec3e 5e5b c93e 01b0 f53e 8b4a d03e
00000050: 04ff ee3e 98fc cb3e fe99 ed3e 1951 c43e
00000060: 0590 e13e 7d94 bc3e 7f7e f23e 36f6 c73e
00000070: ecaf e63e ee44 c03e 3ab0 f33e 14b1 ce3e
00000080: c109 e73e 2601 c63e f09c f03e a17f cb3e
00000090: dbdc e23e 6a1b c23e 9b96 ee3e dbbb c93e
000000a0: cd5b e03e c4ea c03e bef6 ea3e 9c81 c83e
000000b0: 4377 dd3e 17f0 bf3e ca1f ee3e 2f5e c73e
000000c0: d50f e03e 0b2e bf3e 87d0 ea3e 64a7 c33e
000000d0: 7a29 df3e e6b1 bd3e b117 e63e 7699 c43e
000000e0: 7e6a dd3e c571 be3e 966c e93e 317b c53e
000000f0: 6807 df3e 254f bf3e d58a ea3e 0105 c73e
00000100: 208c e03e d109 c03e bf78 ed3e f83c ca3e
00000110: e7d7 e33e 6baa c33e 5cf1 e73e 0971 c13e
00000120: 4cbc e03e 7209 bd3e d9d9 e13e ee62 bd3e
00000130: b1e9 d93e 61a2 b83e 7ee0 ec3e dcf7 c93e
00000140: 3fa1 e73e a16a c63e cd08 e93e 432a c63e
00000150: 0d80 e43e ff87 c33e 2ba3 eb3e e802 c83e
00000160: 3e94 e73e f4c9 c53e d1bf e63e 8d78 c53e
00000170: 8c27 e33e 8cf5 c33e 94db e83e 20b4 c43e
00000180: 6785 e63e 5446 c33e 5260 c23e 896f 9a3e
00000190: 5260 c23e 896f 9a3e

onnx::Div_75 f4 [102]
0.009168324 0.009168324 0.009168324 0.009168324 0.009168324 0.009168324 0.009168324 0.009168324
0.009168324 0.009168324 0.009168324 0.009168324 0.009168324 0.009168324 0.009168324 0.009168324
0.009168324 0.009168324 0.009168324 0.009168324 0.009168324 0.009168324 0.009168324 0.009168324
0.009168324 0.009168324 0.009168324 0.009168324 0.009168324 0.009168324 0.009168324 0.009168324
0.009168324 0.009168324 0.009168324 0.009168324 0.009168324 0.009168324 0.009168324 0.009168324
0.009168324 0.009168324 0.009168324 0.009168324 0.009168324 0.009168324 0.009168324 0.009168324
0.009168324 0.009168324 0.009168324 0.009168324 0.009168324 0.009168324 0.009168324 0.009168324
0.009168324 0.009168324 0.009168324 0.009168324 0.009168324 0.009168324 0.009168324 0.009168324
0.009168324 0.009168324 0.009168324 0.009168324 0.009168324 0.009168324 0.009168324 0.009168324
0.009168324 0.009168324 0.009168324 0.009168324 0.009168324 0.009168324 0.009168324 0.009168324
0.009168324 0.009168324 0.009168324 0.009168324 0.009168324 0.009168324 0.009168324 0.009168324
0.009168324 0.009168324 0.009168324 0.009168324 0.009168324 0.009168324 0.009168324 0.009168324
0.009168324 0.009168324 0.009168324 0.009168324 0.009168324 0.009168324
00000000: bd36 163c bd36 163c bd36 163c bd36 163c
00000010: bd36 163c bd36 163c bd36 163c bd36 163c
00000020: bd36 163c bd36 163c bd36 163c bd36 163c
00000030: bd36 163c bd36 163c bd36 163c bd36 163c
00000040: bd36 163c bd36 163c bd36 163c bd36 163c
00000050: bd36 163c bd36 163c bd36 163c bd36 163c
00000060: bd36 163c bd36 163c bd36 163c bd36 163c
00000070: bd36 163c bd36 163c bd36 163c bd36 163c
00000080: bd36 163c bd36 163c bd36 163c bd36 163c
00000090: bd36 163c bd36 163c bd36 163c bd36 163c
000000a0: bd36 163c bd36 163c bd36 163c bd36 163c
000000b0: bd36 163c bd36 163c bd36 163c bd36 163c
000000c0: bd36 163c bd36 163c bd36 163c bd36 163c
000000d0: bd36 163c bd36 163c bd36 163c bd36 163c
000000e0: bd36 163c bd36 163c bd36 163c bd36 163c
000000f0: bd36 163c bd36 163c bd36 163c bd36 163c
00000100: bd36 163c bd36 163c bd36 163c bd36 163c
00000110: bd36 163c bd36 163c bd36 163c bd36 163c
00000120: bd36 163c bd36 163c bd36 163c bd36 163c
00000130: bd36 163c bd36 163c bd36 163c bd36 163c
00000140: bd36 163c bd36 163c bd36 163c bd36 163c
00000150: bd36 163c bd36 163c bd36 163c bd36 163c
00000160: bd36 163c bd36 163c bd36 163c bd36 163c
00000170: bd36 163c bd36 163c bd36 163c bd36 163c
00000180: bd36 163c bd36 163c bd36 163c bd36 163c
00000190: bd36 163c bd36 163c

onnx::Div_78 f4 [10]
0.006483127 0.006483127 0.006483127 0.006483127 0.006483127 0.006483127 0.006483127 0.006483127
0.006483127 0.006483127
00000000: 6970 d43b 6970 d43b 6970 d43b 6970 d43b
00000010: 6970 d43b 6970 d43b 6970 d43b 6970 d43b
00000020: 6970 d43b 6970 d43b
