results/GameUpdated2/PlayerBehaviour.onnx (onnx, 534464 bytes, 12 tensors)

network_body.observation_encoder.processors.0.normalizer.running_mean f4 [122]
0.8245707 0.8682399 0.69107807 0.749831 0.70381576 0.75835717 0.706422 0.7561084
0.7221071 0.76599723 0.6991318 0.75218064 0.71550393 0.7625727 0.6833109 0.74233323
0.70139134 0.7532015 0.6890363 0.7437557 0.70020574 0.7517193 0.6867856 0.740732
0.69074905 0.7429205 0.72595876 0.7827628 0.72534895 0.78013146 0.7250464 0.7829529
0.72561866 0.77993494 0.69345605 0.74641114 0.6879273 0.7392236 0.7030917 0.75524944
0.69234633 0.7442044 0.7069192 0.7580578 0.6873013 0.7430815 0.72376233 0.7692928
0.7024345 0.7529293 0.733165 0.7745046 0.7104926 0.75750476 0.7126616 0.76597655
0.69165784 0.74954295 0.82708 0.87014204 0.82511085 0.86809945 0.6957675 0.7534047
0.70261693 0.7566785 0.71576744 0.76167357 0.7198257 0.7638458 0.70570743 0.7558391
0.7121098 0.7599193 0.68975395 0.7452003 0.6962138 0.74939674 0.6936979 0.74577135
0.6941135 0.7474114 0.6883786 0.74004155 0.6861493 0.739346 0.7257289 0.7819068
0.715756 0.77456886 0.72507524 0.7814843 0.7164797 0.7746825 0.6888652 0.74173003
0.6778094 0.7325125 0.69635946 0.7488803 0.682009 0.7369493 0.695054 0.74933076
0.67471325 0.73508984 0.710628 0.75963044 0.6921724 0.7461216 0.71637434 0.76249933
0.7014172 0.7516295 0.7017946 0.75668055 0.68503594 0.7449541 0.8238278 0.8674669
0.8238278 0.8674669
00000000: 1117 533f f844 5e3f 7eea 303f edf4 3f3f
00000010: 452d 343f b223 423f 12d8 343f 5290 413f
00000020: 03dc 383f 6518 443f 4dfa 323f e98e 403f
00000030: 442b 373f f737 433f 77ed 2e3f 8d09 3e3f
00000040: 628e 333f d0d1 403f af64 303f c666 3e3f
00000050: af40 333f ad70 403f 2ed1 2f3f 9da0 3d3f
00000060: eed4 303f 0a30 3e3f 6fd8 393f 2563 483f
00000070: 78b0 393f b2b6 473f a49c 393f 9a6f 483f
00000080: 25c2 393f d1a9 473f 5686 313f cd14 3f3f
00000090: 011c 303f c23d 3d3f d1fd 333f 0758 413f
000000a0: 9c3d 313f 2e84 3e3f a8f8 343f 1310 423f
000000b0: faf2 2f3f 973a 3e3f 7d48 393f 5ff0 443f
000000c0: bfd2 333f f9bf 403f b4b0 3b3f ef45 463f
000000d0: d8e2 353f d5eb 413f fe70 363f 0a17 443f
000000e0: 7d10 313f 0ce2 3f3f 84bb 533f a1c1 5e3f
000000f0: 773a 533f c43b 5e3f d21d 323f 21df 403f
00000100: b4de 333f afb5 413f 893c 373f 0afd 423f
00000110: 7f46 383f 668b 433f 3ea9 343f ac7e 413f
00000120: d44c 363f 128a 423f b793 303f 72c5 3e3f
00000130: 113b 323f 77d8 3f3f 3096 313f dfea 3e3f
00000140: 6cb1 313f 5a56 3f3f 9439 303f 5d73 3d3f
00000150: 7ba7 2f3f c845 3d3f 5fc9 393f 0b2b 483f
00000160: c93b 373f 254a 463f 889e 393f 5b0f 483f
00000170: 376b 373f 9851 463f 7859 303f 05e2 3d3f
00000180: eb84 2d3f f085 3b3f 9d44 323f 9fb6 3f3f
00000190: 2498 2e3f b6a8 3c3f 0fef 313f 24d4 3f3f
000001a0: 02ba 2c3f d92e 3c3f b7eb 353f 2477 423f
000001b0: 3632 313f d301 3f3f 4f64 373f 2833 433f
000001c0: 1490 333f ca6a 403f d0a8 333f d1b5 413f
000001d0: 845e 2f3f 50b5 3e3f 61e6 523f 5012 5e3f
000001e0: 61e6 523f 5012 5e3f

network_body.observation_encoder.processors.1.normalizer.running_mean f4 [122]
0.94145346 0.9501803 0.8583779 0.8798559 0.86404586 0.8839953 0.8514814 0.87613446
0.85749865 0.8804741 0.8403647 0.8689898 0.8467205 0.87375885 0.8319365 0.863005
0.8380495 0.8676466 0.8295197 0.8611688 0.8333088 0.864487 0.82092106 0.8541819
0.82339704 0.85616624 0.8207755 0.8580963 0.8251507 0.8606303 0.8190904 0.85718
0.8254851 0.86074346 0.81920767 0.8535568 0.8254443 0.85695165 0.82703376 0.86032116
0.83069676 0.86156684 0.83103055 0.8628292 0.8325415 0.8630355 0.8415573 0.87023044
0.84024596 0.868596 0.8543769 0.8785719 0.85109884 0.87561166 0.8626953 0.88313454
0.857752 0.87925136 0.9579622 0.9650683 0.9565617 0.9639736 0.86955786 0.8892752
0.8652874 0.8866432 0.86340976 0.8859048 0.85568315 0.8814572 0.8493782 0.87688124
0.8423082 0.87275827 0.8379199 0.86875665 0.83178747 0.86538607 0.8336202 0.8658917
0.8290675 0.86355424 0.82653743 0.8597793 0.82193303 0.8575338 0.82610124 0.86351
0.8205079 0.8605115 0.82446903 0.8627708 0.8218596 0.861263 0.82498044 0.8593028
0.8228361 0.8579463 0.83335793 0.86648893 0.8322842 0.8653068 0.83738726 0.8691976
0.83666116 0.86825407 0.8464797 0.8757175 0.84588724 0.8746315 0.85747874 0.8825152
0.8571434 0.881571 0.864916 0.8864895 0.8632507 0.8848511 0.94563204 0.95462716
0.94563204 0.95462716
00000000: 1803 713f 043f 733f a7be 5b3f 3c3e 613f
00000010: 1c32 5d3f 844d 623f affa 593f 594a 603f
00000020: 0885 5b3f c066 613f 2422 573f 1e76 5e3f
00000030: adc2 583f a9ae 5f3f caf9 543f e5ed 5c3f
00000040: 698a 563f 161e 5e3f 675b 543f 8f75 5c3f
00000050: ba53 553f 054f 5d3f e227 523f aaab 5a3f
00000060: 26ca 523f b62d 5b3f 581e 523f 33ac 5b3f
00000070: 143d 533f 4452 5c3f e9af 513f 2670 5b3f
00000080: fe52 533f af59 5c3f 98b7 513f b382 5a3f
00000090: 5150 533f 2f61 5b3f 7cb8 533f 023e 5c3f
000000a0: 8ba8 543f a58f 5c3f 6bbe 543f 60e2 5c3f
000000b0: 7121 553f e5ef 5c3f 4d70 573f 6cc7 5e3f
000000c0: 5c1a 573f 4f5c 5e3f 72b8 5a3f 17ea 603f
000000d0: 9de1 593f 1628 603f 99d9 5c3f 1b15 623f
000000e0: a395 5b3f 9e16 613f 033d 753f b70e 773f
000000f0: 3ae1 743f f9c6 763f 589b 5e3f 8aa7 633f
00000100: 7a83 5d3f 0cfb 623f 6c08 5d3f a8ca 623f
00000110: 0d0e 5b3f 2ea7 613f da70 593f 4a7b 603f
00000120: 83a1 573f 166d 5f3f eb81 563f d666 5e3f
00000130: 06f0 543f f189 5d3f 2268 553f 14ab 5d3f
00000140: c53d 543f e411 5d3f f597 533f 7f1a 5c3f
00000150: 346a 523f 5687 5b3f 5f7b 533f fe0e 5d3f
00000160: ce0c 523f 7b4a 5c3f 6710 533f 8cde 5c3f
00000170: 6465 523f bb7b 5c3f eb31 533f 45fb 5b3f
00000180: 63a5 523f 5ea2 5b3f f256 553f 38d2 5d3f
00000190: 9410 553f bf84 5d3f 035f 563f bc83 5e3f
000001a0: 6d2f 563f e645 5e3f e5b2 583f 062f 603f
000001b0: 118c 583f dae7 5f3f ba83 5b3f 84ec 613f
000001c0: c06d 5b3f a3ae 613f 236b 5d3f faf0 623f
000001d0: fffd 5c3f 9a85 623f f114 723f 7262 743f
000001e0: f114 723f 7262 743f

network_body.observation_encoder.processors.2.normalizer.running_mean f4 [10]
34.489956 14.561022 0.11311412 0.006478593 -0.09365837 -0.21802811 0.14481053 -0.058636203
0.18270607 -0.23045251
00000000: b7f5 0942 f2f9 6841 60a8 e73d 614a d43b
00000010: f6cf bfbd c342 5fbe 3649 143e 842c 70bd
00000020: 4d17 3b3e befb 6bbe

network_body._body_endoder.seq_layers.0.weight f4 [256, 254]
0.10816312 0.15589546 0.02857485 -0.031114873 0.0648764 -0.016533481 -0.014789378 0.0036187996
-0.034001257 0.13057557 0.04186639 -0.026887028 -0.00083792815 -0.00059224624 -0.059954684 0.03395688
0.05245079 0.041948676 0.12964524 0.090339534 -0.10526481 0.010361447 -0.0035787332 0.0638007
-0.05225058 -0.10179505 0.017938025 -0.038740367 0.06957303 -0.042363796 -0.10497177 0.041080195
-0.04497014 -0.043948583 -0.0115537 -0.032097585 0.032372076 -0.061235018 -0.04245456 0.015293011
0.06585206 0.110239655 0.05248259 0.084831014 0.10672226 0.06631753 -0.008227658 -0.01023212
0.08296083 0.08710368 -0.06396085 -0.14351313 -0.051838312 0.06700024 -0.026390161 -0.080647305
0.05367581 -0.108196706 -0.094593845 -0.044571824 0.0757601 -0.00022041924 -0.05105333 -0.013282089
-0.043547433 0.0017472741 0.037010327 -0.021520033 -0.021993497 0.17510457 -0.14002383 0.0032257843
-0.022519931 -0.008186185 -0.01644185 -0.0047122133 -0.005295374 0.03278432 0.036354955 -0.08163752
0.01763682 0.045166597 -0.01654469 0.0479513 -0.16136363 0.08963153 -0.012015473 0.07587383
-0.046985846 0.071531914 -0.095082335 -0.09110755 -0.08952792 0.08134575 0.09262215 0.0649122
-0.007065129 0.11299585 -0.06802633 -0.024193201 -0.009137102 -0.056043655 0.0072567197 -0.04309773
-0.05703959 0.027278688 0.057083987 0.107070155 0.08670425 0.18196552 -0.012501995 -0.03746702
0.0008791618 0.057662442 0.052209705 -0.032628503 -0.059944835 0.026371757 -0.0265594 -0.10188398
-0.02009569 -0.09033263 -0.04215915 0.06555785 0.13702461 -0.09266876 -0.06839684 -0.008260922
-0.07969948 0.03337379 -0.03662949 -0.014694078 0.041926652 0.03445436 0.04559744 -0.05830294
-0.0801917 -0.0013036906 0.03824896 -0.05411221 -0.031740762 -0.08507456 0.05945444 0.07866803
0.070728056 0.10003635 0.010247139 -0.023446668 0.014163307 0.056742407 -0.029010367 0.13780217
-0.025980236 0.10572509 -0.10766166 -0.03402188 0.00561826 0.07041113 -0.02209163 0.0433695
-0.04047172 0.027480833 -0.10979428 -0.100077994 -0.0061114416 -0.0753887 -0.16995327 -0.073658735
0.12330367 0.023833808 0.15742563 -0.1111674 0.022941163 0.0030618561 0.023017095 -0.015363878
0.026852187 0.005775453 -0.014459678 -0.023168165 0.019678522 0.05846744 0.0966293 -0.10750544
-0.03269821 0.107358195 -0.119409986 0.05620359 0.0718433 -0.039578672 0.06437793 0.0948838
0.08987102 -0.042334758 -0.014703047 -0.011426331 0.052394453 0.04786853 0.05659623 0.01600459
0.09926385 -0.06315655 0.09192268 0.12225066 -0.0381379 -0.11795266 -0.022944914 0.07310086
-0.052457694 -0.0846089 -0.006399747 -0.041172866 0.024888074 0.080519624 -0.08291997 0.087371536
0.09339623 -0.021232316 -0.0013199577 0.013398474 0.06885244 -0.09750088 -0.029519062 -0.05993396
-0.105409496 -0.01574506 -0.047413964 0.029652454 0.035635702 0.059379444 0.005034588 0.063250564
0.05693598 -0.12267761 -0.051504925 -0.13437767 0.07206744 -0.068975784 -0.01650413 0.0044790423
-0.042744923 -0.07376229 0.0050600455 0.04031384 0.13513735 -0.1152754 0.025936779 0.03331765
-0.14375682 0.14383516 0.0075106025 -0.013229934 -0.108091526 -0.08665607 -0.120123886 -0.11463116
00000000: a084 dd3d 0fa3 1f3e ce15 ea3c 9ee4 febc
00000010: ebdd 843d 3971 87bc 264f 72bc 6229 6d3b
00000020: e744 0bbd 9ab5 053e 177c 2b3d 2f42 dcbc
00000030: 68a8 5bba f940 1bba 0b93 75bd 5f16 0b3d
00000040: a4d6 563d 60d2 2b3d b9c1 043e ef03 b93d
00000050: 1495 d7bd 0fc3 293c 2e89 6abb f1a9 823d
00000060: b404 56bd ec79 d0bd c4f2 923c 38ae 1ebd
00000070: 4e7c 8e3d a985 2dbd 70fb d6bd b543 283d
00000080: 9c32 38bd 6e03 34bd bb4b 3dbc c278 03bd
00000090: 9598 043d 92d1 7abd d5e4 2dbd 8a8f 7a3c
000000a0: 72dd 863d 54c5 e13d fcf7 563d e2bb ad3d
000000b0: 3391 da3d 7cd1 873d 4dcd 06bc 9fa4 27bc
000000c0: 5ee7 a93d 6a63 b23d e8fd 82bd 1bf5 12be
000000d0: 6954 54bd 6c37 893d 2e30 d8bc 6a2a a5bd
000000e0: 2bdb 5b3d 3c96 ddbd 6bba c1bd f290 36bd
000000f0: 1c28 9b3d 5720 67b9 4c1d 51bd 1e9d 59bc
00000100: cb5e 32bd ca04 e53a 2498 173d c84a b0bc
00000110: b52b b4bc 9d4e 333e 6862 0fbe ae67 533b
00000120: b87b b8bc 591f 06bc 0fb1 86bc e968 9abb
00000130: d184 adbb da48 063d efe8 143d 9231 a7bd
00000140: 187b 903c 9c00 393d bb88 87bc 9568 443d
00000150: 823c 25be bc90 b73d 8cdc 44bc bd63 9b3d
00000160: 3b74 40bd 537f 923d 87ba c2bd 9896 babd
00000170: 6a5a b7bd 9a98 a63d afb0 bd3d b0f0 843d
00000180: 9982 e7bb 5e6a e73d 6351 8bbd d230 c6bc
00000190: c9b3 15bc 088e 65bd c7c9 ed3b 3f87 30bd
000001a0: 58a2 69bd 8e77 df3c e6d0 693d 9947 db3d
000001b0: ff91 b13d 2b55 3a3e 2bd5 4cbc 0577 19bd
000001c0: 8d77 663a 742f 6c3d d8d9 553d 77a5 05bd
000001d0: b788 75bd 9509 d83c 1993 d9bc 8ca8 d0bd
000001e0: b79f a4bc 5000 b9bd 13af 2cbd 3243 863d
000001f0: 2e50 0c3e 1ec9 bdbd a413 8cbd d158 07bc
00000200: 7b39 a3bd f5b2 083d ce08 16bd 6ebf 70bc
00000210: 48bb 2b3d 0420 0d3d 62c4 3a3d 10cf 6ebd
00000220: 8c3b a4bd 99e0 aaba f1aa 1c3d c4a4 5dbd
00000230: 9a02 02bd 923b aebd 8086 733d b41c a13d
00000240: dfd9 903d dcdf cc3d 9ee3 273c 3a13 c0bc
00000250: 370d 683c ba6a 683d 26a7 edbc 031c 0d3e
00000260: 81d4 d4bc 6586 d83d b77d dcbd 875a 0bbd
00000270: 6119 b83b b633 903d 82f9 b4bc 38a4 313d
00000280: adc5 25bd 7c1f e13c d3db e0bd b1f5 ccbd
00000290: 7d42 c8bb 6465 9abd 3b08 2ebe 64da 96bd
000002a0: a286 fc3d 1e3f c33c 2f34 213e bcab e3bd
000002b0: 1bef bb3c 6ca9 483b 598e bc3c c6b8 7bbc
000002c0: 1ef9 db3c 0340 bd3b 49e8 6cbc 2acb bdbc
000002d0: da34 a13c 8e7b 6f3d 95e5 c53d d02b dcbd
000002e0: 8fee 05bd 9dde db3d 398d f4bd bc35 663d
000002f0: 9422 933d 3f1d 22bd 93d8 833d 7052 c23d
00000300: 4c0e b83d 3667 2dbd 0de5 70bc 8135 3bbc
00000310: 919b 563d cb11 443d 73d1 673d 0f1c 833c
00000320: d84a cb3d 3958 81bd f541 bc3d 8e5e fa3d
00000330: 7d36 1cbd 2a91 f1bd f9f6 bbbc e7b5 953d
00000340: e1dd 56bd 6e47 adbd f8b4 d1bb e1a4 28bd
00000350: 13e2 cb3c 79e7 a43d f2d1 a9bd d9ef b23d
00000360: 8646 bf3d 65ef adbc 6e02 adba 4685 5b3c
00000370: 8202 8d3d 8bae c7bd f6d1 f1bc 507d 75bd
00000380: efe0 d7bd c9fb 80bc 2535 42bd b4e9 f23c
00000390: bef6 113d dc37 733d 2ff9 a43b 8389 813d
000003a0: b435 693d 663e fbbd d4f6 52bd 4d9a 09be
000003b0: 1898 933d 2d43 8dbd ab33 87bc eec4 923b
000003c0: 4d15 2fbd af10 97bd bdce a53b 2020 253d
000003d0: 7261 0a3e 8215 ecbd 5e79 d43c 1778 083d
000003e0: fd34 13be 8649 133e 801b f63b 5dc2 58bc
000003f0: 175f ddbd bd78 b1bd 8303 f6bd bec3 eabd

network_body._body_endoder.seq_layers.0.bias f4 [256]
-0.0043056086 -0.011477521 -0.027369633 0.0065441504 0.032673955 0.0003423257 0.01782026 0.00022511705
-0.0017270432 0.023580717 -0.009539887 -0.0053209206 0.0003043666 0.0078731105 -0.03208699 0.003504099
-0.0122642685 -0.013794626 0.019715402 0.045590002 0.029841743 0.037015412 -0.03110738 0.008178265
-0.00052024826 0.033104368 -0.00021920301 -0.015216665 0.024516372 0.031105729 -0.031693067 0.0045056324
0.008929365 0.0152801145 -0.020640636 0.031096997 -0.0047152326 -0.00096617744 -0.005070552 0.0045880466
0.0059232838 0.017281143 0.016439682 -0.040321045 -0.002544788 -0.03307976 0.024701055 -0.0104715265
0.036836997 0.021887358 0.006172979 -0.023069723 -0.005190338 -0.021246506 -0.037104137 -0.008669817
-0.011973253 -0.020183558 0.020057976 -0.017455762 0.025499996 -0.01927108 0.016344342 0.017872414
0.0103292605 -0.01586948 0.0008204098 0.010300021 0.036792435 0.01979246 0.0123364525 0.0093221525
0.0036681965 0.013561865 -0.008733586 0.0244503 -0.0027996062 -0.017714215 0.0124041755 0.015010785
0.00063062226 -0.010298204 -0.024820147 0.02205144 0.006905796 0.005397644 -0.032856446 0.01073963
0.039494477 -0.009755074 0.006493379 -0.011324524 0.016541561 -0.002056768 0.020878395 -0.018492691
0.029270148 -0.007490749 -0.024284942 -0.02159415 0.0055997437 0.00779367 0.03133334 0.0057328907
-0.017982788 -0.026434781 -0.022922603 0.029559359 -0.018117135 -0.0031011365 0.004241009 -0.012973169
-0.005504301 0.02213516 0.011318022 -0.0019997414 0.019983226 0.020092161 0.00615742 -0.008201761
0.0003053987 0.042416144 0.05005182 -0.007911832 0.01068147 0.019640664 0.01502105 -0.017686974
0.027647892 -0.01839271 0.029608589 -0.006489613 0.027362887 0.00089250325 0.0332254 0.003828914
0.0044626496 0.019516472 -0.00434922 0.034598935 -0.0007217087 0.026144968 -0.044638317 -0.008978478
-0.0010335859 0.0093440125 0.009562774 0.028400265 -0.005785644 -0.003024662 -0.031466976 0.016485048
0.05543343 -0.0010657489 0.0061455127 0.010664856 -0.020192046 -0.0010414326 0.020270139 -0.016075144
-0.016193762 -0.0024853423 -0.010851971 0.012131191 0.010078624 0.021983642 0.014396559 0.011427335
-0.04191758 0.012903938 -0.015877211 0.01562347 0.027770594 0.038956456 -0.0017052274 -0.012391623
0.048000056 0.0068869363 -0.004253419 -0.013453655 -0.0005707177 0.011672418 0.0042914916 0.009319939
0.022996517 0.005998362 -0.01214554 -0.01931103 -0.0089453515 -0.060437016 -0.022404118 -0.0068575116
-0.01815329 -0.022500075 0.02221301 0.033186875 0.009905688 -0.03150583 -0.017008258 -0.0012790882
0.013137579 -0.01344743 0.031233862 -0.01285017 0.0018570942 0.02189199 0.013577439 -0.01638704
-0.005013407 0.018231548 0.02590553 0.0047459956 -0.024688246 0.009269594 0.0008087625 0.018970558
0.01942142 0.008618345 0.020674404 0.020039748 0.0017523307 -0.02154134 0.030115938 0.0072347634
0.01882391 -0.014209058 0.012225873 0.0360071 -0.0018002765 0.027701652 0.046140153 0.011565422
-0.00080415723 0.0012221609 0.014012639 0.023473635 -0.0042006425 -0.0066652372 -0.01129562 0.032629967
0.008558402 -0.010140612 -0.0050133485 -0.016443022 -0.022007734 0.012831569 0.012167662 0.0014763759
0.011971052 0.013024819 0.0016512973 0.025012393 0.013929572 -0.009161634 0.0025156015 0.0028265938
00000000: 1016 8dbb 360c 3cbc 4836 e0bc 5070 d63b
00000010: 20d5 053d 2d7a b339 cbfb 913c 660d 6c39
00000020: f45d e2ba 592c c13c 304d 1cbc 1e5b aebb
00000030: 6593 9f39 38fe 003c a66d 03bd 07a5 653b
00000040: 12f0 48bc db02 62bc 3282 a13c 95bc 3a3d
00000050: ac76 f43c 799d 173d e7d4 febc 21fe 053c
00000060: 4561 08ba 7298 073d dcd9 65b9 524f 79bc
00000070: 8fd6 c83c 71d1 fe3c 97d0 01bd fca3 933b
00000080: 794c 123c 7259 7a3c 8d16 a9bc 21bf fe3c
00000090: 3d82 9abb 1247 7dba e026 a6bb 5357 963b
000000a0: 1b18 c23b 2f91 8d3c 83ac 863c ae27 25bd
000000b0: 75c6 26bb a47e 07bd de59 ca3c c490 2bbc
000000c0: 64e2 163d 1e4d b33c b346 ca3b b7fc bcbc
000000d0: b613 aabb 270d aebc 82fa 17bd d90b 0ebc
000000e0: 772b 44bc fd57 a5bc a050 a43c 63ff 8ebc
000000f0: 5ee5 d03c 62de 9dbc 92e4 853c 2b69 923c
00000100: 0f3c 293c b600 82bc c510 573a 6bc1 283c
00000110: aab3 163d cc23 a23c d51e 4a3c f1bb 183c
00000120: 2066 703b 9632 5e3c 5117 0fbc ff4b c83c
00000130: 9979 37bb 671d 91bc e23a 4b3c ccef 753c
00000140: 5850 253a ccb9 28bc 9f53 cbbc 39a5 b43c
00000150: 044a e23b b8de b03b 7b94 06bd 46f5 2f3c
00000160: f6c4 213d bfd3 1fbc 69c6 d43b 7f8a 39bc
00000170: 2b82 873c d7ca 06bb 2b09 ab3c fc7d 97bc
00000180: f3c7 ef3c f574 f5bb 37f1 c6bc 37e6 b0bc
00000190: 0e7e b73b 0b62 ff3b 6357 003d f9da bb3b
000001a0: a450 93bc c18d d8bc 2fc8 bbbc 7826 f23c
000001b0: 636a 94bc 703c 4bbb 29f8 8a3b 6a8d 54bc
000001c0: 6c5d b4bb cc54 b53c 3a6f 393c 180e 03bb
000001d0: ddb3 a33c 5198 a43c 2fc4 c93b ae60 06bc
000001e0: eb1d a039 8dbc 2d3d 2303 4d3d a1a0 01bc
000001f0: 5501 2f3c 75e5 a03c da1a 763c 46e4 90bc
00000200: d57d e23c 4fac 96bc b68d f23c d2a6 d4bb
00000210: 2228 e03c e1f6 693a 5b17 083d 84ee 7a3b
00000220: 6b3b 923b 02e1 9f3c e783 8ebb 9db7 0d3d
00000230: 0d31 3dba f92d d63c abd6 36bd 771a 13bc
00000240: 6379 87ba a117 193c 2ead 1c3c aca7 e83c
00000250: 8095 bdbb 6839 46bb 84e3 00bd a70b 873c
00000260: 2a0e 633d 99b0 8bba 4c60 c93b a6bb 2e3c
00000270: ca69 a5bc ae80 88ba 900d a63c 05b0 83bc
00000280: c8a8 84bc 20e1 22bb 77cc 31bc e7c1 463c
00000290: d020 253c 0a17 b43c 8cdf 6b3c b839 3b3c
000002a0: c5b1 2bbd 0a6b 533c ed10 82bc 95f9 7f3c
000002b0: 287f e33c ce90 1f3d f081 dfba 3c06 4bbc
000002c0: b59b 443d cfab e13b 4460 8bbb b86c 5cbc
000002d0: 379c 15ba ab3d 3f3c a49f 8c3b a8b2 183c
000002e0: 3163 bc3c e88d c43b 16fe 46bc 2a32 9ebc
000002f0: 868f 12bc ce8c 77bd d788 b7bc fab4 e0bb
00000300: 35b6 94bc 1452 b8bc 0ff8 b53c f6ee 073d
00000310: 784b 223c 420c 01bd e754 8bbc 14a7 a7ba
00000320: 003f 573c 9c52 5cbc 28de ff3c 8589 52bc
00000330: be69 f33a d556 b33c e873 5e3c 1d3e 86bc
00000340: 8247 a4bb 545a 953c d637 d43c 4c84 9b3b
00000350: 013f cabc 7fdf 173c 2203 543a 2568 9b3c
00000360: ab19 9f3c f533 0d3c 5e5d a93c 662a a43c
00000370: 76ae e53a 7777 b0bc b3b5 f63c 9811 ed3b
00000380: 9a34 9a3c 1ccd 68bc 074f 483c 2e7c 133d
00000390: 41f7 ebba 93ee e23c 75fd 3c3d e57c 3d3c
000003a0: 14ce 52ba ea30 a03a 4595 653c c84b c03c
000003b0: 8ba5 89bb 1068 dabb 4411 39bc 00a7 053d
000003c0: 8a38 0c3c cf24 26bc 0447 a4bb 84b3 86bc
000003d0: 9049 b4bc 803b 523c e05a 473c f482 c13a
000003e0: 3b22 443c 0d66 553c 5870 d83a cae6 cc3c
000003f0: dc38 643c ae1a 16bc cadc 243b 603e 393b

network_body._body_endoder.seq_layers.2.weight f4 [256, 256]
0.041563485 -0.0056759724 0.01834232 0.020287147 -0.009708251 -0.010642612 -0.07201421 -0.09644876
-0.038842212 0.017157879 -0.055031482 -0.03126902 -0.017075045 0.03705071 -0.08803424 0.06604795
-0.06682432 -0.00079061225 -0.05696085 -0.07275933 0.013911877 -0.008272015 0.037946664 0.12594558
-0.075477906 -0.1191843 0.1117445 -0.07715513 -0.07698178 0.17738263 -0.005133111 -0.12974447
-0.048984837 0.014208839 0.01993305 0.009178747 0.003977111 0.06528723 -0.0836944 -0.04846659
-0.08495836 0.06377996 -0.01720378 -0.08128791 -0.032527737 0.075335994 -0.05245218 0.110032976
-0.10980729 0.03058002 0.0529134 0.00903348 -0.017999828 -0.04353114 -0.00455678 -0.03909811
-0.032725345 0.03970499 -0.07898475 0.0392878 -0.0063820276 0.04685757 -0.038729575 0.03886622
0.061402425 -0.010773523 0.02281542 0.09466517 -0.09411211 0.1348735 -0.14109884 0.037985764
0.014460195 0.016613647 -0.05230054 0.038657416 0.11216485 0.012659978 -0.12693515 0.009177886
0.17066762 0.0031435087 0.014564856 -0.07520728 -0.053073224 -0.02561849 -0.0049630064 -0.09294862
0.062408373 0.018652646 0.028687015 0.16886234 0.10355941 -0.008167153 0.05204407 0.11627469
-0.005072477 0.027098369 0.016060855 0.031911246 0.016012069 0.13357101 0.018538462 0.14631857
-0.022645447 0.081860386 0.018982716 0.026025105 0.020746253 -0.067648716 -0.0075678355 0.010896411
0.1270205 0.077237695 -0.036531206 -0.0023819308 0.030371727 0.04944976 0.06844567 0.07925452
0.1442366 -0.0986046 0.09217682 0.0866509 0.092465065 0.012294756 0.058735874 -0.15419897
-0.023523094 -0.046366706 -0.044864643 0.0027422288 -0.034481615 0.009681107 0.07707561 -0.04761793
-0.00017487726 -0.057352662 -0.025557019 0.026917018 0.020013178 0.1106252 0.07466204 -0.061690155
0.034908738 0.08429483 0.06963152 -0.042834032 0.018081648 0.028210685 0.061869286 -0.12293796
-0.038962923 0.08267363 0.010768986 -0.062838584 -0.09240699 -0.043272488 -0.10686132 0.032276295
0.03949443 -0.04070478 -0.10020524 -0.04087213 0.09574314 0.002506069 0.07878485 -0.15035471
-0.057989776 -0.041173927 0.07965595 0.039201703 0.016237441 0.08884095 -0.081554815 0.09152751
-0.023479247 -0.041392162 0.0756522 -0.10608324 -0.017181555 0.025213169 -0.020914605 0.0029957662
0.0041748043 0.020880695 0.027391253 -0.021534711 -0.080411986 -0.053685844 0.011752428 -0.0027137809
-0.09891814 0.047622297 0.13670021 -0.1226208 -0.041691743 -0.12876344 -0.044280954 -0.02193099
0.0186801 -0.08699733 0.0012527821 -0.028072022 0.03977468 -0.022644715 0.00982943 0.018297322
-0.0642211 0.0768482 -0.07705563 -0.058216743 0.05638097 -0.0813837 -0.05118996 0.040225197
-0.022122135 -0.0237264 0.06765008 0.03799113 -0.08431527 0.03470029 -0.044944763 0.045229763
-0.03425326 0.02709778 0.030365443 -0.009453448 0.02458246 0.061731853 0.16632183 0.06750306
0.07102217 0.026322043 0.052553505 0.059189517 0.013953021 0.022854729 -0.007606891 0.007476078
0.053349998 0.032371055 0.067320384 -0.026380839 -0.011755421 0.086340114 0.13472152 0.012068572
-0.051466644 0.032647297 0.07287367 -0.003355755 0.06334577 0.05440753 0.0018406039 -0.05836194
00000000: 793e 2a3d 82fd b9bb a242 963c 3b31 a63c
00000010: 5b0f 1fbc 5a5e 2ebc 307c 93bd ed86 c5bd
00000020: 0319 1fbd ae8e 8c3c b168 61bd f213 00bd
00000030: f7e0 8bbc 7cc2 173d 4c4b b4bd 2644 873d
00000040: 30db 88bd 1741 4fba c84f 69bd d802 95bd
00000050: a4ee 633c 5887 07bc f66d 1b3d e1f7 003e
00000060: 2994 9abd e616 f4bd 4dda e43d 8203 9ebd
00000070: a0a8 9dbd cba3 353e a833 a8bb bcdb 04be
00000080: 53a4 48bd 31cc 683c a34a a33c 7562 163c
00000090: 6d52 823b 50b5 853d f867 abbd e784 46bd
000000a0: a6fe adbd 119f 823d f1ee 8cbc 477a a6bd
000000b0: ce3b 05bd c249 9a3d 19d8 56bd f858 e13d
000000c0: a5e2 e0bd f382 fa3c b9bb 583d 2901 143c
000000d0: 6074 93bc b54d 32bd 0b51 95bb 5725 20bd
000000e0: 030b 06bd b3a1 223d c2c2 a1bd 3fec 203d
000000f0: 5420 d1bb b9ed 3f3d e7a2 1ebd 2f32 1f3d
00000100: 1c81 7b3d 6e83 30bc 67e7 ba3c d0df c13d
00000110: dabd c0bd 471c 0a3e 377c 10be f696 1b3d
00000120: 74ea 6c3c 5819 883c 1739 56bd 3d57 1e3d
00000130: afb6 e53d cc6b 4f3c 4afb 01be d85e 163c
00000140: 7ec3 2e3e 5303 4e3b 6fa1 6e3c 4606 9abd
00000150: 4f63 59bd dedd d1bc b7a0 a2bb d95b bebd
00000160: ec9f 7f3d 6fcd 983c 0801 eb3c 40ea 2c3e
00000170: f516 d43d 86cf 05bc 2a2c 553d 6d21 ee3d
00000180: 0537 a6bb 66fd dd3c 0e92 833c 5eb5 023d
00000190: be2b 833c d7c6 083e f9dd 973c 89d4 153e
000001a0: f282 b9bc 6ba6 a73d a481 9b3c 9a32 d53c
000001b0: 0cf4 a93c 698b 8abd 9bfb f7bb dc86 323c
000001c0: a911 023e cc2e 9e3d bfa1 15bd 2b1a 1cbb
000001d0: 21ce f83c d58b 4a3d 3e2d 8c3d 3250 a23d
000001e0: c2b2 133e 35f1 c9bd 33c7 bc3d 0776 b13d
000001f0: 535e bd3d f26f 493c 0795 703d 56e6 1dbe
00000200: 81b3 c0bc 04eb 3dbd fdc3 37bd f7b6 333b
00000210: 983c 0dbd 819d 1e3c d1d9 9d3d 050b 43bd
00000220: 425f 37b9 a0ea 6abd f45c d1bc 1481 dc3c
00000230: adf2 a33c 778f e23d 69e8 983d d1ae 7cbd
00000240: 77fc 0e3d c5a2 ac3d f89a 8e3d bd72 2fbd
00000250: f71f 943c 181a e73c a66a 7d3d e6c6 fbbd
00000260: 9697 1fbd cb50 a93d 6770 303c 84b1 80bd
00000270: e03f bdbd 7e3e 31bd 1cda dabd 2634 043d
00000280: e9c4 213d 0eba 26bd 6838 cdbd 8969 27bd
00000290: fb14 c43d dc3c 243b f459 a13d 96f6 19be
000002a0: b086 6dbd fea5 28bd a922 a33d f791 203d
000002b0: 6204 853c 3ef2 b53d 3606 a7bd c672 bb3d
000002c0: 8d57 c0bc d48a 29bd 8aef 9a3d 2b42 d9bd
000002d0: 55c0 8cbc d98b ce3c 1b55 abbc 9e54 443b
000002e0: cccc 883b fe0d ab3c 9f63 e03c 9069 b0bc
000002f0: 0aaf a4bd b0e5 5bbd 418d 403c b0d9 31bb
00000300: 9895 cabd 990f 433d 24fb 0b3e 9d20 fbbd
00000310: f6c4 2abd 90da 03be f25f 35bd 9fa8 b3bc
00000320: 0207 993c a82b b2bd 6434 a43a 4cf7 e5bc
00000330: c6ea 223d 6981 b9bc 9e0b 213c 44e4 953c
00000340: 5a86 83bd 9762 9d3d 58cf 9dbd ae74 6ebd
00000350: bbef 663d 7fac a6bd 90ac 51bd 2dc3 243d
00000360: 7b39 b5bc de5d c2bc 208c 8a3d 969c 1b3d
00000370: 7cad acbd e421 0e3d 0018 38bd d842 393d
00000380: 254d 0cbd 2afc dd3c f3c0 f83c a2e2 1abc
00000390: 2861 c93c 8ada 7c3d 4550 2a3e 0b3f 8a3d
000003a0: 1274 913d 53a1 d73c 5842 573d b570 723d
000003b0: 369b 643c d739 bb3c 3a43 f9bb e3f9 f43b
000003c0: 8785 5a3d 8397 043d 45df 893d a11c d8bc
000003d0: cf99 40bc 16d3 b03d 70f4 093e 43bb 453c
000003e0: b0ce 52bd 2cb9 053d ca3e 953d 3aec 5bbb
000003f0: 6dbb 813d 6eda 5e3d 6b40 f13a ee0c 6fbd

network_body._body_endoder.seq_layers.2.bias f4 [256]
0.01565257 -0.01163577 0.009203946 0.004438538 0.014182486 0.006168721 0.0070382953 0.02183466
0.009904508 0.024613038 0.015402845 0.020280626 0.003308449 0.018026497 0.010059841 0.031441
0.016686045 0.032994702 0.0004768667 0.013276993 0.0082923835 0.0068519395 0.0038171955 0.031207208
0.022401707 -0.012425217 0.00882659 0.0062744087 0.02120644 0.03389125 0.012418504 0.0005385581
0.027620777 0.041320276 0.009467313 0.016655067 0.0064688534 0.014882844 -0.006656904 0.0077459803
-0.0008887064 0.013907841 0.019922089 -0.00070750114 0.0032460133 0.0039483598 0.011693573 -0.004161113
0.0053254096 0.017236013 -0.008830198 0.014849859 0.009858469 0.023761496 0.011496805 0.026641503
0.018554835 -0.017693408 0.01535454 -0.0034426847 -0.019202273 0.011910117 0.015110918 0.02109835
-0.010402127 0.017543284 0.0031400824 0.022668561 -0.011065165 0.029691013 -0.0018576096 -0.0027612306
0.000996533 0.0169138 0.0156125 0.0029455393 0.03333122 0.014325385 0.0067599374 -0.0038924506
-0.012166026 0.0035575198 0.038819082 0.0056031924 0.027495425 0.013812993 0.033446055 0.008912722
0.021492785 0.018866561 0.030090684 0.011814082 0.013208177 0.011773682 0.015560725 0.019967485
0.016917292 -0.024373164 0.012091993 0.02179596 0.008165028 0.006187198 0.005795011 0.012724723
0.012220208 0.0023095394 0.008258688 0.002425266 -0.00928352 0.0006812462 0.0023163755 0.010602662
0.016981281 -0.021283492 0.003643052 0.010847622 0.013920839 0.022133889 0.017534668 0.00624483
0.0036964165 0.004079445 -0.00018758586 0.004098354 0.020572318 0.011978185 0.008169462 -0.011245404
0.049119126 0.012347898 0.01631692 0.015894055 0.018915614 0.011383725 0.023618866 0.022132851
0.0125316875 0.011594498 0.029756367 0.014426801 0.0044368333 0.017115237 0.00015247017 -0.0061243963
0.018317565 0.01089961 -0.01454257 0.006281951 0.021594724 0.021792093 0.010622835 0.027799457
0.031651337 0.014625888 0.0076963925 -0.0040548774 0.0019883187 -0.0038734009 0.030292805 0.011423091
0.033851724 0.013973964 0.015494768 0.008266642 0.026000537 -0.009388394 0.019610472 0.022430047
-0.009645014 0.0043805055 -0.005423414 -0.011588235 0.0029407353 0.016462747 0.024860615 0.015382681
0.0081676645 0.010834088 0.0035511681 0.0153040895 -0.009696672 0.003844531 -0.0016012669 0.030059164
0.0004450117 -0.011214506 -0.0011821701 0.014369169 -0.0023060257 0.006515888 0.012114441 0.0212246
0.016424656 0.01498871 -0.0001049103 0.015124979 0.027273646 0.017657306 0.005542698 0.025036812
0.02286543 0.01592082 -0.014576906 0.02825866 0.011136665 0.03402092 -0.003954254 0.007203949
0.017715333 0.021367189 0.026233677 0.026014809 0.008032852 -0.004745451 0.02439733 0.016356135
0.011480097 -0.0048436285 0.01911096 0.0107539585 0.0210413 -0.008693667 0.03072959 0.016813705
0.015192309 0.028873116 0.01071896 0.017715784 0.010799106 -0.003671929 0.014750407 0.01722464
-0.018638736 0.010960266 -0.014484224 0.0059308372 0.010856162 0.016130365 0.0001910091 -0.0041336496
0.02091924 0.022514082 0.007619479 0.0062103537 0.014314079 0.018614825 0.037204884 0.020926412
0.006135216 0.0040868493 -0.00803622 0.027208755 0.018005999 0.023122562 0.014448352 0.0023993733
00000000: d239 803c f5a3 3ebc 26cc 163c 2871 913b
00000010: a85d 683c fb22 ca3b 80a1 e63b 9ade b23c
00000020: 8446 223c 48a1 c93c 375c 7c3c 8e23 a63c
00000030: 90d2 583b 4eac 933c 08d2 243c 47c8 003d
00000040: 2cb1 883c 7425 073d f703 fa39 bf87 593c
00000050: c7dc 073c 3c86 e03b ea29 7a3b 42a6 ff3c
00000060: c983 b73c 2393 4bbc 679d 103c 8e99 cd3b
00000070: 21b9 ad3c 8dd1 0a3d fb76 4b3c 062e 0d3a
00000080: f844 e23c 733f 293d ca1c 1b3c 3570 883c
00000090: adf8 d33b 2cd7 733c 2822 dabb fed1 fd3b
000000a0: 14f8 68ba b7dd 633c a633 a33c 9977 39ba
000000b0: 11bb 543b 3e61 813b 6696 3f3c f259 88bb
000000c0: c680 ae3b 8a32 8d3c 89ac 10bc d34c 733c
000000d0: 6a85 213c 78a7 c23c 185d 3c3c 483f da3c
000000e0: 4f00 983c c4f1 90bc 9c91 7b3c aa9e 61bb
000000f0: 164e 9dbc a722 433c c993 773c 72d6 ac3c
00000100: af6d 2abc efb6 8f3c d7c9 4d3b 6bb3 b93c
00000110: aa4a 35bc 913a f33c 097b f3ba c3f5 34bb
00000120: 199e 823a cf8e 8a3c 92cb 7f3c f309 413b
00000130: 5186 083d 05b5 6a3c 7782 dd3b 7c18 7fbb
00000140: 0354 47bc 4725 693b c200 1f3d fc9a b73b
00000150: 163e e13c e44f 623c bbfe 083d aa06 123c
00000160: a311 b03c 0c8e 9a3c bd80 f63c da8f 413c
00000170: 1c67 583c 67e6 403c 69f2 7e3c da92 a33c
00000180: 2296 8a3c 3baa c7bc 7f1d 463c 718d b23c
00000190: 9cc6 053c fbbd ca3b 13e4 bd3b 5b7b 503c
000001a0: 4437 483c a45b 173b 734f 073c 36f1 1e3b
000001b0: e819 18bc a995 323a 55ce 173b cab6 2d3c
000001c0: 541c 8b3c b85a aebc 45c0 6e3b 39ba 313c
000001d0: 3b14 643c 2152 b53c dda4 8f3c 6ea1 cc3b
000001e0: 943f 723b ddac 853b b2b2 44b9 7c4b 863b
000001f0: 4787 a83c 2640 443c 35d9 053c a53e 38bc
00000200: 2331 493d d74e 4a3c 10ab 853c 4034 823c
00000210: ebf4 9a3c ce82 3a3c 5a7c c13c f44f b53c
00000220: b551 4d3c d9f6 3d3c a0c3 f33c 645e 6c3c
00000230: db62 913b 4135 8c3c 66e0 1f39 29af c8bb
00000240: b80e 963c 4794 323c f643 6ebc d3d8 cd3b
00000250: 6be7 b03c 5585 b23c 660b 2e3c b0bb e33c
00000260: d5a4 013d 6ca1 6f3c 0532 fc3b c7de 84bb
00000270: 744e 023b e2d8 7dbb 9e28 f83c eb27 3b3c
00000280: 1ba8 0a3d 0ef3 643c c4dd 7d3c cf70 073c
00000290: 14ff d43c c7d1 19bc 24a6 a03c 38bf b73c
000002a0: 1f06 1ebc 588a 8f3b e5b6 b1bb 95dc 3dbc
000002b0: 5ab9 403b e2dc 863c 7da8 cb3c a407 7c3c
000002c0: abd1 053c 7581 313c b7ba 683b 01be 7a3c
000002d0: cade 1ebc 87f4 7b3b 9ae1 d1ba a33e f63c
000002e0: 7650 e939 0cbd 37bc 0cf3 9aba aa6c 6b3c
000002f0: b120 17bb 3b83 d53b a67b 463c 36df ad3c
00000300: 008d 863c 3593 753c 4a03 dcb8 c3ce 773c
00000310: fb6c df3c 0ea6 903c 859f b53b 001a cd3c
00000320: 4850 bb3c 616c 823c fad3 6ebc b57e e73c
00000330: 8f76 363c 8559 0b3d b092 81bb 1b0f ec3b
00000340: bf1f 913c 3e0a af3c 02e8 d63c 021d d53c
00000350: 399c 033c ba7f 9bbb e9dc c73c 4dfd 853c
00000360: 0417 3c3c 4db7 9ebb 978e 9c3c 5f31 303c
00000370: ce5e ac3c e26f 0ebc 9fbc fb3c e5bc 893c
00000380: 2ae9 783c 5087 ec3c 949e 2f3c b120 913c
00000390: bcee 303c bfa4 70bb b1ab 713c b01a 8d3c
000003a0: 43b0 98bc b092 333c 3d4f 6dbc 7857 c23b
000003b0: 0bde 313c d423 843c 9d49 4839 9173 87bb
000003c0: d35e ab3c 746f b83c d3ac f93b 3980 cb3b
000003d0: 9985 6a3c 1e7e 983c 2664 183d de6d ab3c
000003e0: ec09 c93b faea 853b 5aaa 03bc e5e4 de3c
000003f0: 5181 933c 876b bd3c c8b8 6c3c ce3e 1d3b

action_model._discrete_distribution.branches.0.weight f4 [4, 256]
-0.021003416 0.0043148696 0.042930637 0.03546836 -0.025098778 -0.023374299 -0.020102 -0.017993268
-0.01338017 -0.03430763 -0.019462524 -0.021168225 0.044733837 0.05689317 0.05601175 -0.03883814
-0.041005056 -0.068046 0.050068386 0.0020379955 -0.019350462 0.028778343 -0.027556002 0.016765665
0.0120715685 0.005053461 0.06642977 0.04277848 -0.015242238 -0.03381087 0.023677375 -0.0029294281
-0.017200286 -0.05023422 -0.018016158 -0.032131582 -0.014426914 -0.009387844 0.021300126 0.070414685
0.008424551 -0.008062314 -0.03323209 -0.011607678 -0.0060691177 -0.020333685 -0.027450472 -0.0034457901
0.039449908 -0.032725144 0.013084379 0.028908314 -0.011774068 -0.03820233 0.040272113 -0.040338904
-0.030987345 -0.0041201147 0.00051991147 0.012742694 0.024375144 0.0064670416 0.05220709 0.07551729
0.026890377 0.057713173 0.013500643 -0.030685643 -0.008469503 -0.05809254 0.00693766 -0.0026469226
-0.00561721 0.020380799 -0.028959006 -0.00062359194 -0.02639188 -0.019142928 -0.030470949 0.008543492
0.01938735 0.052355375 -0.0645908 -0.04072988 -0.013069935 -0.033293985 -0.03532051 -0.020718914
0.0018177672 -0.017104348 -0.064902045 -0.0071296752 -0.015792362 -0.05037893 0.029608699 -0.036620535
0.026742129 -0.0059932675 -0.01108971 -0.008748877 0.036333695 -0.023908455 0.021914098 -0.025816236
-0.024359962 0.04280658 -0.023982143 -0.023713656 0.005474325 0.029240435 0.039529733 -0.012061358
-0.0255336 -0.00399683 -0.006892749 -0.031817656 0.0046118717 -0.057376046 -0.008053543 0.05778221
0.03746676 0.022869192 0.036272515 -0.03586612 0.046400372 0.044215754 -0.018105526 -0.020237923
-0.05768939 0.016038483 0.026572129 0.024218824 -0.028699797 0.060072623 -0.0010550065 0.009485095
0.0121129695 -0.02172404 -0.058983594 -0.010050123 0.0770002 0.06775361 0.013960325 0.0015014195
0.035175957 -0.0014985272 -0.010419549 0.03977375 -0.035799176 -0.02706605 -0.019904073 -0.049954753
-0.034862634 -0.021686194 -0.021068746 0.02479488 -0.010726789 0.01932714 -0.024077933 -0.010255674
-0.060556147 -0.033889517 -0.013021307 -0.01015695 -0.04500847 0.043774888 -0.054664474 -0.027268138
0.051731378 -0.012438836 0.023048462 0.027776796 0.042152934 0.009631368 -0.012484056 -0.027148148
-0.0023840535 -0.010954063 -0.02840045 -0.0447048 0.009726983 -0.021898065 0.041665655 -0.04730672
-0.004355989 0.0026848672 0.025159197 -0.0031681089 0.03147783 0.017766533 0.03378524 -0.013777844
-0.019176606 0.009818215 -0.009664765 -0.03944328 -0.018452607 0.00252049 -0.013759427 0.0064252736
0.0580454 -0.022783687 -0.0016958187 -0.02394279 -0.0279579 -0.025995502 0.0023449184 -0.008284136
-0.039779287 -0.02931897 -0.03934359 -0.024490045 -0.02909612 0.0013602246 -0.021097176 0.015363411
0.007873084 -0.023344582 0.015878715 -0.03404852 0.0130765755 0.0013990507 -0.04159616 -0.051881954
-0.018532274 -0.039450582 -0.013966645 -0.025462389 -0.016889127 0.010337841 -0.0046895123 -0.042507447
0.032945786 0.005019103 0.01853441 -0.0086815115 -0.0055724722 -0.033106823 -0.0016193987 0.00033056867
0.0013007866 -0.010086444 -0.031755738 0.03270501 -0.031526454 -0.006714739 0.01558663 -0.017366197
0.01374189 0.0038773355 -0.00042756676 -0.012584268 -0.006636451 -0.017009143 0.0021980705 0.04243859
00000000: 5b0f acbc c063 8d3b 09d8 2f3d 4547 113d
00000010: f49b cdbc 757b bfbc f3ac a4bc 9e66 93bc
00000020: 8038 5bbc 2886 0cbd df6f 9fbc fc68 adbc
00000030: d43a 373d d008 693d 946c 653d be14 1fbd
00000040: ebf4 27bd b45b 8bbd 8214 4d3d e48f 053b
00000050: dc84 9ebc 8fc0 eb3c 20bd e1bc 2658 893c
00000060: d4c7 453c 8197 a53b 550c 883d 7d38 2f3d
00000070: 94ba 79bc 447d 0abd 0ef7 c13c a6fb 3fbb
00000080: 9de7 8cbc 66c2 4dbd 9f96 93bc 689c 03bd
00000090: dd5e 6cbc 79cf 19bc 9a7d ae3c 9335 903d
000000a0: 2107 0a3c cc17 04bc 5f1e 08bd 212e 3ebc
000000b0: 73df c6bb d492 a6bc d0df e0bc c4d2 61bb
000000c0: 3a96 213d cd0a 06bd dd5f 563c 21d1 ec3c
000000d0: 05e8 40bc 0c7a 1cbd 5ff4 243d 683a 25bd
000000e0: 2cd9 fdbc 0702 87bb ab4a 083a bbc6 503c
000000f0: 62ae c73c 7ae9 d33b 1ad7 553d cfa8 9a3d
00000100: 3549 dc3c a664 6c3d cd31 5d3c 7560 fbbc
00000110: acc3 0abc 71f2 6dbd 4f55 e33b fe77 2dbb
00000120: 9310 b8bb a2f5 a63c 703b edbc 8c78 23ba
00000130: c933 d8bc a1d1 9cbc 369e f9bc 01fa 0b3c
00000140: 38d2 9e3c 9772 563d 2e48 84bd 60d4 26bd
00000150: 4823 56bc 465f 08bd 3dac 10bd b6ba a9bc
00000160: 2542 ee3a 6b1e 8cbc 5deb 84bd 0da0 e9bb
00000170: fc5e 81bc 235a 4ebd f18d f23c 6aff 15bd
00000180: 4f12 db3c 2c63 c4bb 9db1 35bc 7357 0fbc
00000190: a4d2 143d aadb c3bc 3285 b33c 927c d3bc
000001a0: 8b8e c7bc f455 2f3d 3376 c4bc 2443 c2bc
000001b0: f761 b33b a389 ef3c eee9 213d 019d 45bc
000001c0: d72b d1bc d7f7 82bb 92dc e1bb 3b53 02bd
000001d0: 2f1f 973b 2503 6bbd 02f3 03bc 0aad 6c3d
000001e0: bf76 193d 2c58 bb3c 7d92 143d 5ae8 12bd
000001f0: 510e 3e3d 941b 353d 0a52 94bc 00ca a5bc
00000200: b64b 6cbd 2363 833c cbad d93c 8e66 c63c
00000210: d61b ebbc b60e 763d 2548 8aba 5f67 1b3c
00000220: 7a75 463c 9df6 b1bc c898 71bd 45a9 24bc
00000230: 48b2 9d3d 68c2 8a3d d9b9 643c 47cb c43a
00000240: aa14 103d 3b6a c4ba c2b6 2abc cde9 223d
00000250: 28a2 12bd 9fb9 ddbc de0d a3bc 5b9d 4cbd
00000260: 1fcc 0ebd 3fa7 b1bc 5d98 acbc a21e cb3c
00000270: 6abf 2fbc f353 9e3c 163f c5bc 6a07 28bc
00000280: b909 78bd bccf 0abd 5257 55bc 5669 26bc
00000290: cd5a 38bd 4c4d 333d dbe7 5fbd 6e61 dfbc
000002a0: 48e4 533d 42cc 4bbc 21d0 bc3c 2a8c e33c
000002b0: 8ea8 2c3d e3cc 1d3c ed89 4cbc cb65 debc
000002c0: c83d 1cbb ac78 33bc 0fa8 e8bc 611c 37bd
000002d0: ec5d 1f3c 9263 b3bc 9ba9 2a3d b1c4 41bd
000002e0: afbc 8ebb 99f4 2f3b a91a ce3c 0ca0 4fbb
000002f0: e6ee 003d 1f8b 913c 6462 0a3d 77bc 61bc
00000300: 4218 9dbc 94dc 203c f658 1ebc 478f 21bd
00000310: ec29 97bc ce2e 253b 386f 61bc 1a8b d23b
00000320: 03c1 6d3d dba4 babc 3c46 deba ac23 c4bc
00000330: f707 e5bc 85f4 d4bc 34ad 193b 2fba 07bc
00000340: 9bef 22bd 562e f0bc bf26 21bd 599f c8bc
00000350: fc5a eebc 9049 b23a fcd3 acbc d1b6 7b3c
00000360: 1cfe 003c 233d bfbc 1414 823c 7676 0bbd
00000370: 223f 563c 5a60 b73a bc60 2abd 2c82 54bd
00000380: ffd0 97bc ef96 21bd 5bd4 64bc 8096 d0bc
00000390: 115b 8abc 0c60 293c 7baa 99bb 4a1c 2ebd
000003a0: 29f2 063d 4a77 a43b 7ad5 973c e63c 0ebc
000003b0: 4999 b6bb 059b 07bd 0142 d4ba 2d50 ad39
000003c0: 287f aa3a 9d41 25bc 4e12 02bd b0f5 053d
000003d0: e221 01bd 5007 dcbb 115f 7f3c 8e43 8ebc
000003e0: aa25 613c e51a 7e3b 0a2b e0b9 3f2e 4ebc
000003f0: 9676 d9bb c256 8bbc 810d 103b 16d4 2d3d

action_model._discrete_distribution.branches.0.bias f4 [4]
-0.011960526 0.007739646 0.0059674024 -0.00015087021
00000000: 15f6 43bc db9c fd3b 338a c33b ea32 1eb9

onnx::Div_72 f4 [122]
0.3803585 0.29737645 0.4620596 0.3867317 0.45658427 0.38463834 0.45540825 0.38784504
0.44797269 0.3856187 0.45865226 0.3882954 0.45119113 0.38601455 0.46519336 0.39020833
0.45765877 0.38838178 0.46289623 0.39130822 0.45817757 0.38931286 0.46381342 0.39397687
0.46219844 0.39415732 0.44604194 0.3687043 0.44635433 0.3715588 0.44650182 0.36819777
0.4462111 0.37187192 0.46107498 0.3917204 0.46335128 0.39630607 0.45690924 0.3869306
0.46152946 0.3929184 0.4551879 0.38591424 0.4636026 0.39182758 0.44714865 0.38278982
0.4572053 0.38961026 0.44231546 0.3818649 0.4535474 0.38895014 0.45252827 0.3809644
0.46181548 0.387801 0.37819043 0.2963892 0.3798918 0.2982658 0.46008775 0.3859667
0.45712608 0.3857746 0.45106414 0.38719115 0.44910118 0.38676995 0.45573398 0.38817772
0.45278808 0.38711536 0.46260208 0.39088216 0.4598956 0.38966185 0.46096504 0.39194188
0.46079272 0.3906247 0.4631632 0.39562812 0.46406674 0.3953298 0.44615465 0.36998177
0.4510741 0.37328666 0.44648886 0.37000775 0.45071092 0.37349737 0.46296766 0.39426434
0.4673273 0.3980971 0.45983887 0.39016274 0.4657076 0.39497408 0.46039596 0.38918465
0.46849516 0.39361557 0.45348108 0.3866973 0.46160072 0.39151323 0.45076108 0.38645455
0.45764923 0.39058328 0.45747882 0.38538757 0.46450892 0.38930064 0.3809752 0.2985047
0.3809752 0.2985047
00000000: 59be c23e ba41 983e 1393 ec3e b301 c63e
00000010: 6ac5 e93e 51ef c43e 452b e93e a093 c63e
00000020: ad5c e53e d06f c53e 78d4 ea3e a8ce c63e
00000030: 8602 e73e b3a3 c53e d32d ee3e 63c9 c73e
00000040: 4052 ea3e fad9 c63e bc00 ed3e 8d59 c83e
00000050: 4096 ea3e 0454 c73e f478 ed3e 56b7 c93e
00000060: 46a5 ec3e fdce c93e 9c5f e43e cfc6 bc3e
00000070: 8e88 e43e f43c be3e e39b e43e 6b84 bc3e
00000080: c875 e43e ff65 be3e 0512 ec3e 948f c83e
00000090: 613c ed3e a1e8 ca3e 02f0 e93e c51b c63e
000000a0: 974d ec3e 9a2c c93e 630e e93e 8d96 c53e
000000b0: 525d ed3e a09d c83e abf0 e43e 07fd c33e
000000c0: d016 ea3e ff7a c73e 2c77 e23e cc83 c33e
000000d0: 5d37 e83e 7924 c73e c9b1 e73e c40d c33e
000000e0: 1473 ec3e da8d c63e 2da2 c13e 53c0 973e
000000f0: 2e81 c23e 4cb6 983e 9f90 eb3e 6d9d c53e
00000100: 6e0c ea3e 4084 c53e e1f1 e63e eb3d c63e
00000110: 97f0 e53e b606 c63e f755 e93e 3bbf c63e
00000120: d7d3 e73e fc33 c63e 2eda ec3e b521 c83e
00000130: 7077 eb3e c281 c73e 9c03 ec3e 9bac c83e
00000140: 06ed eb3e f6ff c73e ba23 ed3e c58f ca3e
00000150: 289a ed3e ab68 ca3e 626e e43e 406e bd3e
00000160: 2ff3 e63e 6e1f bf3e 309a e43e a871 bd3e
00000170: 95c3 e63e 0c3b bf3e 190a ed3e 04dd c93e
00000180: 8645 ef3e 62d3 cb3e 0070 eb3e 69c3 c73e
00000190: 3a71 ee3e 0b3a ca3e 05b9 eb3e 3643 c73e
000001a0: 99de ef3e fb87 c93e ac2e e83e 30fd c53e
000001b0: ee56 ec3e 6c74 c83e 28ca e63e 5fdd c53e
000001c0: 0051 ea3e 88fa c73e aa3a ea3e 8551 c53e
000001d0: 1dd4 ed3e 6a52 c73e 2e0f c33e 9cd5 983e
000001e0: 2e0f c33e 9cd5 983e

onnx::Div_75 f4 [122]
0.23480046 0.20319526 0.3486689 0.30074456 0.34275532 0.29729757 0.35562763 0.30280736
0.34957048 0.2993134 0.36628127 0.3076403 0.36026135 0.30386102 0.37394157 0.31187212
0.36842585 0.30825368 0.37607032 0.31344628 0.37271303 0.31053263 0.38343108 0.32026893
0.3813442 0.3187516 0.383553 0.31357476 0.37985513 0.31236902 0.3849514 0.31396937
0.37956545 0.31240168 0.3848548 0.32008693 0.37959942 0.31878582 0.37823215 0.3132337
0.37503278 0.31369725 0.37474108 0.3115088 0.3733987 0.3123982 0.3651708 0.30624333
0.3663931 0.30837986 0.35273847 0.30045557 0.35600692 0.3036298 0.3441874 0.29777902
0.34932342 0.30149972 0.20066783 0.16958427 0.20385598 0.17203888 0.33680564 0.2904202
0.34143665 0.292305 0.3434255 0.29259112 0.35142493 0.29530615 0.3576958 0.29911807
0.36446193 0.3015337 0.3685404 0.3052701 0.37406445 0.3068879 0.37243646 0.30741045
0.37646437 0.3083806 0.37865958 0.31390217 0.38257867 0.31476825 0.37903377 0.30731034
0.38377813 0.30880135 0.38043648 0.30751425 0.3826526 0.30845124 0.37999558 0.3137535
0.38181937 0.31470445 0.37266722 0.30622372 0.37363383 0.3076396 0.36902618 0.30411866
0.36968267 0.30541718 0.36050576 0.29922163 0.36107263 0.30092233 0.34959918 0.29456127
0.349941 0.2962448 0.34182853 0.29226005 0.34359908 0.2943111 0.22677281 0.19265182
0.22677281 0.19265182
00000000: 886f 703e 6b12 503e bb84 b23e 31fb 993e
00000010: a07d af3e 6337 983e d314 b63e 9109 9b3e
00000020: e7fa b23e 9b3f 993e 3889 bb3e 0883 9d3e
00000030: 2d74 b83e ac93 9b3e 4575 bf3e b4ad 9f3e
00000040: 50a2 bc3e 6dd3 9d3e 4a8c c03e 087c a03e
00000050: 3ed4 be3e 22fe 9e3e 1451 c43e 4afa a33e
00000060: 8c3f c33e 6933 a33e 0f61 c43e df8c a03e
00000070: 5f7c c23e d5ee 9f3e 5a18 c53e 98c0 a03e
00000080: 6756 c23e 1df3 9f3e b00b c53e 6fe2 a33e
00000090: db5a c23e e537 a33e a5a7 c13e 2b60 a03e
000000a0: 4c04 c03e ed9c a03e 10de bf3e 157e 9f3e
000000b0: 1d2e bf3e a8f2 9f3e abf7 ba3e edcb 9c3e
000000c0: e097 bb3e f7e3 9d3e 239a b43e 50d5 993e
000000d0: 8a46 b63e 5d75 9b3e 5539 b03e 7e76 983e
000000e0: 85da b23e 2c5e 9a3e de7b 4d3e 80a7 2d3e
000000f0: 9fbf 503e f62a 303e ca71 ac3e f5b1 943e
00000100: c9d0 ae3e 00a9 953e 78d5 af3e 81ce 953e
00000110: f8ed b33e 5e32 973e e723 b73e 0126 993e
00000120: c19a ba3e a062 9a3e 54b1 bc3e 5d4c 9c3e
00000130: 6085 bf3e 6920 9d3e feaf be3e e764 9d3e
00000140: f0bf c03e 10e4 9d3e abdf c13e c9b7 a03e
00000150: 5ae1 c33e 4e29 a13e b710 c23e c857 9d3e
00000160: 917e c43e 361b 9e3e 92c8 c23e 8272 9d3e
00000170: 0beb c33e 52ed 9d3e c88e c23e 4ca4 a03e
00000180: d47d c33e f120 a13e 3dce be3e 5bc9 9c3e
00000190: ef4c bf3e f082 9d3e 00f1 bc3e 71b5 9b3e
000001a0: 0c47 bd3e a45f 9c3e 3694 b83e 9433 993e
000001b0: 83de b83e 7e12 9a3e aafe b23e bcd0 963e
000001c0: 772b b33e 66ad 973e 2604 af3e 1ca3 953e
000001d0: 38ec af3e f2af 963e 2237 683e 8546 453e
000001e0: 2237 683e 8546 453e

onnx::Div_78 f4 [10]
22.542044 10.3663 31.998766 14.544667 31.994694 14.505166 31.953442 14.501542
32.019882 14.793575
00000000: 1b56 b441 5ddc 2541 79fd ff41 f5b6 6841
00000010: 22f5 ff41 2915 6841 a6a0 ff41 5106 6841
00000020: 5c14 0042 7cb2 6c41
