results/GameEnemyEscape2/PlayerBehaviour.onnx (onnx, 490727 bytes, 10 tensors)

network_body.observation_encoder.processors.0.normalizer.running_mean f4 [202]
00000000: 73d0 543f 2c14 5f3f 55bd 363f 1b0b 443f
00000010: 78ed 343f 4ec4 423f 55bd 363f d7f2 433f
00000020: 78ed 343f f5ac 423f 3c1d 3a3f 0359 453f
00000030: aad2 383f 5f51 443f f20d 393f d186 443f
00000040: 8894 373f 3463 433f 143c 383f 853e 443f
00000050: 732f 363f abc0 423f 7d7e 333f 8ca7 403f
00000060: 2bf1 303f 40ce 3e3f fff6 353f 9a9b 423f
00000070: e246 343f 3b2f 413f 11b0 343f 80fa 413f
00000080: bd33 333f 32a6 403f 1e02 323f 392a 3f3f
00000090: 3ea7 303f 81c1 3d3f 939d 313f 0530 3f3f
000000a0: dc1d 303f 4dbb 3d3f a32f 383f ae67 463f
000000b0: 10bb 373f 0db6 453f 1857 3d3f ccb1 4a3f
000000c0: 1573 3d3f f04e 4a3f 9532 3d3f ebab 4a3f
000000d0: 2243 3d3f b241 4a3f 190a 383f 4275 463f
000000e0: 2020 383f 1928 463f a2fd 2f3f e27e 3d3f
000000f0: 05b6 313f 88ec 3e3f 9628 303f 3756 3d3f
00000100: 877b 323f 0c1d 3f3f cfc0 323f 972f 403f
00000110: f13d 353f 241d 423f 7811 343f e4d1 403f
00000120: 42ac 363f d1cd 423f 7eef 2f3f e8fc 3d3f
00000130: 5865 333f b247 403f 74b7 343f 7199 413f
00000140: b431 383f 10f1 433f a9ae 353f 27ef 413f
00000150: e5c9 383f 110b 443f 0dae 363f 96ae 423f
00000160: c557 393f 9187 443f 9e47 323f 39cb 403f
00000170: d37f 353f 33dc 423f 9e47 323f 70de 403f
00000180: d37f 353f 24f2 423f 9a2c 513f a95f 5c3f
00000190: dad3 513f 8d89 5c3f 8244 313f 9483 3f3f
000001a0: c450 2f3f b7be 3d3f 8244 313f 766b 3f3f
000001b0: c450 2f3f b6a2 3d3f ce77 353f 2c39 413f
000001c0: 55e5 323f 652e 3f3f 8c93 343f 4c86 403f
000001d0: 8439 323f ac9d 3e3f 4eeb 333f 8e60 403f
000001e0: f535 313f 923c 3e3f 143a 2f3f 08c0 3c3f
000001f0: 53df 2c3f f4e5 3a3f 0d99 323f 852b 3f3f
00000200: fdbf 303f 8b9f 3d3f 0f38 313f 4f83 3e3f
00000210: 559c 2f3f a812 3d3f b23b 2e3f 485e 3b3f
00000220: 8a62 2d3f fb88 3a3f 2a60 2d3f ea23 3b3f
00000230: 4705 2d3f fb8f 3a3f b518 353f 9196 433f
00000240: fbb5 333f cc48 423f 7fdd 393f 079c 473f
00000250: bc2b 393f 8ad0 463f 5c12 3a3f f8a5 473f
00000260: 7ccf 383f efb3 463f f074 343f 6b0b 433f
00000270: 1ba6 333f ca8f 423f 6192 2c3f f49b 3a3f
00000280: 477e 2c3f 9498 3a3f 6af5 2c3f 1b8c 3a3f
00000290: 5b1b 2d3f f9a8 3a3f c47b 2e3f dcb4 3c3f
000002a0: 5568 2f3f 255f 3d3f e2a1 2f3f 4146 3d3f
000002b0: 66bf 303f 4700 3e3f 9ed9 2a3f a91e 3a3f
000002c0: 10ba 2d3f 93a0 3b3f a563 2f3f 2ea2 3d3f
000002d0: ebee 313f 20dd 3e3f 34d3 2f3f f4a5 3d3f
000002e0: 7070 323f 90e1 3e3f 7529 313f 32a2 3e3f
000002f0: 9f47 333f 1091 3f3f 22d0 2d3f 2e3c 3d3f
00000300: fc29 2f3f 46d4 3d3f 22d0 2d3f 5355 3d3f
00000310: fc29 2f3f 59ee 3d3f 9db4 503f 17fc 5b3f
00000320: 9db4 503f 17fc 5b3f
0.8313057 0.87140155 0.7138265 0.76579446 0.7067485 0.7608079 0.7138265 0.7654242
0.7067485 0.7604516 0.7270086 0.77088946 0.7219645 0.7668666 0.72286904 0.76768214
0.71711016 0.76323247 0.7196667 0.766579 0.7116615 0.7607524 0.7011488 0.75255656
0.69117993 0.7453346 0.7108001 0.7601868 0.7042066 0.7546269 0.70581156 0.7577286
0.7000082 0.75253594 0.6953448 0.746738 0.6900519 0.7412339 0.69381064 0.74682647
0.6879556 0.74113923 0.7194769 0.7750195 0.7176981 0.7723091 0.7396102 0.79177547
0.74003726 0.790267 0.7390531 0.79168576 0.7393056 0.79006493 0.7189041 0.7752267
0.7192402 0.77404934 0.6874639 0.7402173 0.69418365 0.7457967 0.6881193 0.7395968
0.6971974 0.74653697 0.6982545 0.75072616 0.7079764 0.75825715 0.70339155 0.7532027
0.71356595 0.760953 0.6872481 0.7421403 0.70076513 0.751094 0.7059243 0.7562476
0.7195084 0.7653971 0.70969635 0.7575554 0.72183067 0.76579386 0.7135933 0.76047647
0.7239955 0.7676936 0.6964053 0.75310093 0.7089817 0.7611725 0.6964053 0.7533941
0.7089817 0.7615073 0.8170868 0.86083466 0.81963885 0.86147386 0.6924516 0.7481015
0.68482614 0.7411913 0.6924516 0.7477335 0.68482614 0.740764 0.7088593 0.7547786
0.6988118 0.7468017 0.7053764 0.7520492 0.6961901 0.7445934 0.7028092 0.7514733
0.69222957 0.7431117 0.68447995 0.73730516 0.67528266 0.7300713 0.69764787 0.7467578
0.6904295 0.7407157 0.69226164 0.7441911 0.6859792 0.7385659 0.6805984 0.73190737
0.67728484 0.72865266 0.6772486 0.73101676 0.6758618 0.72875947 0.70740825 0.7640162
0.70199555 0.7589233 0.726036 0.77972454 0.7233236 0.77661955 0.72684264 0.77987623
0.72191596 0.77618307 0.7049093 0.761893 0.7017533 0.76000655 0.67410856 0.72894216
0.67380184 0.72889066 0.6756197 0.72870034 0.67619866 0.7291408 0.681576 0.7371347
0.68518573 0.73973304 0.6860639 0.73935324 0.6904205 0.74219173 0.6673831 0.72703034
0.67862034 0.7329189 0.6851142 0.7407559 0.69505185 0.7455616 0.68681645 0.7408135
0.69702816 0.7456293 0.69203883 0.7446624 0.7003116 0.7483072 0.6789571 0.7391995
0.6842344 0.7415203 0.6789571 0.7395832 0.6842344 0.74191815 0.81525594 0.85931534
0.81525594 0.85931534

network_body.observation_encoder.processors.1.normalizer.running_mean f4 [10]
00000000: 0000 0000 0000 0000 0000 0000 0000 0000
00000010: 0000 0000 0000 0000 0000 0000 0000 0000
00000020: 0000 0000 0000 0000
0.0 0.0 0.0 0.0 0.0 0.0 0.0 0.0
0.0 0.0

network_body._body_endoder.seq_layers.0.weight f4 [256, 212]
00000000: 610a 6abe 13e2 05be fbcb e0bd af48 e1bd
00000010: 8352 a8bc 5a4f 9fbd 2bbe 45bd 433c 733c
00000020: 93c2 9bbd 5633 cbbd 90bc 803d 6a5b 753d
00000030: c4ae f13c 1d8e 0d3d fcac ab3c cdcb dd3d
00000040: 9962 e1bd e9a7 4dbd 0205 93ba 4fce c03d
00000050: d1ec 65bd 42e6 cc3d f01d b83d 3c74 01bd
00000060: c7ee d3bd d2c1 4ebc b802 683d 4a77 0f3d
00000070: 16bf 73bc 4c40 40be a127 61bd e2fa 18be
00000080: eccd fd3c 6fb7 b53d d58c 793d a7af 513d
00000090: 89fc cabd 7ff2 8ebd 7834 77bd 0332 e0bd
000000a0: 6616 4bbd 9459 51bc d873 b13d 7217 8f3d
000000b0: 49f2 cbbd 86a9 0c3d a151 90bc d251 883d
000000c0: 7823 423b fdbc 8f3d 3fb7 f13c 2088 2f3e
000000d0: 96ba d0bd 0325 c3bb 9894 a7bd 3051 9c3d
000000e0: 886f a13d 7276 67bb 4ffb cb3c 922c 85bd
000000f0: 17d1 7e3d d66a 903d cda5 093e 518c 9c3d
00000100: 6740 073e d2a3 513d e1ad 9f3d 8500 54bd
00000110: 90f2 1fbd 44be febc dbc3 a5bc 69f8 0e3d
00000120: ec2e 35bd 0902 8dbd 5597 ec3d 9035 9e3b
00000130: 7f50 08bd dd71 8e3d 1d27 dcbc bd75 08bd
00000140: ac55 583b 56c4 b4bd 84d0 97bd 4f6f 383d
00000150: 2080 f03c f31b 8cbd 47a3 2ebc ad69 f93c
00000160: 4a1b a73c 6800 a4bd 1669 8b3d 26e6 50bc
00000170: a541 a13c fa8c 63bc 2dd1 06bd 30ca cebd
00000180: ebaf bdbd 1f94 52bd 0a88 1d3e 4a30 da3c
00000190: 0195 e43d b1a9 413e 724d 8dbd 26a9 9bbd
000001a0: 3934 1b3d e739 363e 058e f73d 7a7f abbb
000001b0: 9b57 373c 3571 8c38 18b2 00be 73aa 583d
000001c0: c735 d03d 8b3d 9c3c b915 8a3d 579b fa3d
000001d0: 19fe 203a eab9 dabd b7e4 003d 05cd 2a3e
000001e0: 7618 37bd 4274 a0bd bc4d 8b3a 78a5 dc3d
000001f0: 6602 acbd 3218 87bc e174 873d 38e9 cebd
00000200: b113 a8bd 781a ad3d bdd8 34bc 06fc 58bd
00000210: 2f92 913c abda 203e 9152 70bd 0668 293d
00000220: 7ed0 7d3c 606a 92bb 5d74 0f3e e7ca fabc
00000230: 1543 773c 685b b2bc b1fc 243d 9937 473d
00000240: 1cca 843d fa14 5b3d 4367 a1bc 8e98 3fbd
00000250: 2e37 e1bd 00b8 193e e2e5 b23b 8758 1dbe
00000260: 2685 23be 594f cfbb 654e c23d 0224 ce3d
00000270: 71f0 d83c c8bc 2b3d 145a e8bc b877 9cbb
00000280: ae65 4fba b744 41bd d8c5 6f3c e6a8 64bc
00000290: 3aa8 353d 1b49 b1bd 69fa 86bd 5285 af3c
000002a0: 9b2e 9d3d d90d aebd c475 21bc ec58 d7bd
000002b0: 1ee2 9bbd ed09 da3d 826a a23d 6298 f63c
000002c0: a291 86bd 23e4 0c3d 3195 893d 5311 463b
000002d0: 3cc9 5d3d 198a 70bc 54f1 193c fcfa 493d
000002e0: 8eb7 46bd 1b40 cdbd 6304 0e3d 69d3 ccbc
000002f0: cbe6 1fbd c2c2 4bbc 4848 353d 3570 3abd
00000300: 79c0 d83d 2386 6cbd 658a f4bc 97a9 c9bd
00000310: d8d1 a7bb 3e4a 643d dd20 69bd aa8a dcbb
00000320: 8f8f 74bc b0b4 4a3d 3194 883d e833 51bb
00000330: 0e32 21bc ad37 6bbc 9309 c4bd ab29 a43d
00000340: c849 3bbd fb72 0c3c 90ca b83c 917f a53c
00000350: e35b afbd dfc3 1abe 7b5e e13d 3ff8 a4bd
00000360: 9feb 6cbc 7f7e 443d 71fe c7bb 3cb0 4abd
00000370: 0121 afbd 5005 633d 2a30 1cbe f9ef 01be
00000380: 2cd6 d3bd 6919 233c c0f6 9ebd 19a3 a3bd
00000390: e576 8bbd aba0 21bd 39ec 6b3d cb44 153d
000003a0: 27e1 203c ff1f 013d 79cb a63d 5a34 4cbc
000003b0: 7a1a ffbd c031 0d3d 8306 febc 53a9 9abd
000003c0: a6e7 efbd 3bf2 f7bc b01e 1dbd dcf9 55bd
000003d0: 1fe8 98bd 6d00 353e 73f7 4bbd aeb4 e5bc
000003e0: 0e20 143c a7a5 123e dd06 92bd f6bd 373d
000003f0: 815e 7e3d 19b0 a93c 81b8 14bb a6a7 1fbd
-0.22855522 -0.13074522 -0.10976406 -0.110001914 -0.020547157 -0.07778807 -0.04827706 0.0148459105
-0.076054715 -0.09921901 0.062859654 0.059901632 0.02950228 0.034559358 0.020956509 0.108298875
-0.11005134 -0.05020896 -0.0011216702 0.0941435 -0.05613405 0.10004856 0.08990085 -0.03160499
-0.103482775 -0.012619453 0.056643218 0.035025872 -0.014877101 -0.18774527 -0.054969434 -0.14939454
0.03098198 0.08872878 0.060925324 0.051192906 -0.099114485 -0.06979846 -0.060352772 -0.10947039
-0.049581908 -0.012777705 0.086646736 0.06986894 -0.099583216 0.034341358 -0.017617049 0.06656231
0.0029623192 0.070184685 0.029506324 0.17141771 -0.101918384 -0.00595534 -0.08182639 0.07632673
0.07882601 -0.0035318402 0.024900107 -0.06502642 0.062211122 0.07051627 0.13442154 0.07643951
0.13208161 0.05118162 0.07796837 -0.051758308 -0.039049685 -0.031096585 -0.020234993 0.03490487
-0.0442342 -0.06885154 0.11552302 0.0048281625 -0.033279892 0.069553114 -0.02687412 -0.03331541
0.0033010049 -0.088265106 -0.07412818 0.045028027 0.02935797 -0.068412684 -0.010659046 0.030445898
0.020398755 -0.0800789 0.06807153 -0.012750184 0.019684622 -0.013888592 -0.03291433 -0.10097158
-0.09262069 -0.05141079 0.15383926 0.026634354 0.11161233 0.18912388 -0.06899537 -0.07600622
0.0378916 0.17795525 0.12087635 -0.0052337022 0.01119032 6.696807e-05 -0.12567937 0.052896928
0.10166507 0.019072315 0.067424245 0.1223666 0.0006141379 -0.106799915 0.03146812 0.16679771
-0.044701062 -0.078346744 0.0010628025 0.10773748 -0.08398895 -0.01649103 0.0661409 -0.10103077
-0.08206881 0.08452314 -0.011038003 -0.052974723 0.017769901 0.15708415 -0.05867249 0.04135897
0.015491603 -0.0044682473 0.14009233 -0.03061433 0.015091677 -0.021772102 0.040280048 0.048637006
0.06483862 0.0534868 -0.01970256 -0.046776347 -0.10996853 0.15011597 0.005459533 -0.15365802
-0.15968761 -0.0063265976 0.09487609 0.10065462 0.026481839 0.041928083 -0.028363265 -0.004775014
-0.0007911575 -0.047184672 0.014634572 -0.013956284 0.044349886 -0.08656522 -0.06590731 0.021425877
0.07674905 -0.08498735 -0.009854738 -0.105150074 -0.07611488 0.106464244 0.07930471 0.030101959
-0.06570746 0.034397256 0.06717909 0.0030222728 0.05414699 -0.014681363 0.009395916 0.049311623
-0.048514895 -0.10021993 0.034672152 -0.025003152 -0.03903846 -0.012436571 0.044258386 -0.045517165
0.10583586 -0.05774511 -0.029851148 -0.098468 -0.005121451 0.055734865 -0.056916106 -0.006730397
-0.014926805 0.049488723 0.0666889 -0.0031921808 -0.009838594 -0.014356536 -0.09572139 0.0801576
-0.04572466 0.008572335 0.022557527 0.02020243 -0.08562448 -0.15113781 0.11004349 -0.08055162
-0.014460473 0.0479722 -0.00610333 -0.049484476 -0.08551217 0.05542499 -0.15252748 -0.12689199
-0.103435844 0.009954789 -0.077619076 -0.07990093 -0.06809787 -0.039459866 0.057598326 0.03644256
0.0098193055 0.031524654 0.08144278 -0.012463653 -0.12456222 0.034471273 -0.031008964 -0.07551827
-0.11714105 -0.030266872 -0.038359344 -0.052240238 -0.074661486 0.17675944 -0.049796533 -0.028040256
0.009040846 0.14321004 -0.07130215 0.044858895 0.062101845 0.020713853 -0.002269298 -0.03897824

network_body._body_endoder.seq_layers.0.bias f4 [256]
00000000: f33b d5bb 215e 153b a465 853b bf45 a2bb
00000010: 3ddc 283c 807e d7bc aaff 24bc 8f7c 86bc
00000020: 1f5a 83bb bb2b f83b d558 13bc 50b4 523c
00000030: 3353 213a 683d 863c dac9 353b afd3 2c3d
00000040: b954 733c 1673 e93c 7576 25bc 291c 4d3c
00000050: f77e 25bd f06b f03b 843a 9a3c c774 a6bc
00000060: c35b 1fbc a59c bebc e458 e63b dfc1 beba
00000070: 910b 813c 40f2 233c 6ab0 213c 9c77 2f3d
00000080: 4337 a4bc b342 aabb 44f6 ecbc f8c0 3c39
00000090: cacd fdba 469f 94bb 65fa 25bc 3955 84bc
000000a0: 7ea8 0ebb 2696 d2bc 0813 303c 763b 8bbc
000000b0: cf63 a93c a4e1 edbc ade7 2cbc 0c1c 3e3d
000000c0: 13b2 3a3c 93d8 313c 43ad 0c3c 6d30 84bc
000000d0: 8069 7cbc 2f7f 91bc b797 20bc 7c0b bbbc
000000e0: 8050 613b 6b8c 58bc be41 523c d953 8b3c
000000f0: 9649 9c3c 8f90 143b 8482 c5bc b958 9d3a
00000100: b4bf 88bc 00c8 023c 8f6e 73bc 2114 f8bc
00000110: 7bdc ab3c 2f33 02bd b0ae f6bc 4ddb 03bd
00000120: 07a1 233c 2e49 21ba 5317 00bd 2247 1bb9
00000130: b4c5 e4bc 4506 203b b168 34bc 01fb 38bc
00000140: 6504 16bc a230 963c 6996 efbc e75b 113d
00000150: 3c3e d3bc bcf3 983b 2754 a9bb dfb2 b0bc
00000160: 0938 ba3a 8667 923b d5da 74bc 2b35 a2bc
00000170: c4ed cf3b d880 9bbc 95b8 28bc 7aaa c6bb
00000180: 3cee 83bb f645 a3bb 933b 5b3b f70d a6ba
00000190: 1dff 92bb 4268 c1bb b8aa a4bc f425 dabb
000001a0: 742b b3bc f0cc 91b9 95ed 363c ad5f fa39
000001b0: 6f4f dbbc 2ca6 04bd f419 f9bc 26b5 91bc
000001c0: 3ecb d0bb c5f2 213c 97ad 3cbc 8400 42bb
000001d0: 9c89 75bc 067a 32bd 64e5 94bc 32da c9bb
000001e0: 5022 77bc f4bf 94bb afe8 813b d8b4 feba
000001f0: 6d6d a5bc 7f27 abbc e260 1a3b b853 f2bc
00000200: aa74 75bc 4139 1cbd 961b 28bc 0b13 823c
00000210: 2add 01bb 0ae7 5c3c 2418 c43c 89aa d0bc
00000220: ef6b 86bc 5d25 243b 4cf6 42bb cdbf b7bc
00000230: 736b 1bbd f3de 8f3c be61 67bd 08af a8bb
00000240: f504 47bd 79ab 04bd 32b0 d9bc 8e71 8fbc
00000250: 4c5c 47bb ee31 7d3c 1915 efba dd1f 07bd
00000260: dadd 46bc 2a75 21bc fbef 1dbc e55b 4cbc
00000270: a78d 3a3c 73d8 9f3c 3482 16bd 166f 17bb
00000280: 27c4 0fbc 2454 99bb 91e3 06bc cf0f cabc
00000290: 3f67 14bb 80c1 2fbb 2a59 833c b0e7 f53c
000002a0: e4b0 76bc adf5 94bc 00f2 6fbc 3ec1 a9bc
000002b0: 7ec1 38bc 44e7 3dbc a80e 19bd 4dee 98bc
000002c0: c829 86bc 0e06 66bb e3d5 233c 8ac4 003c
000002d0: 4a51 2cbc ab49 af3b 5e4d 193a 4ed6 c0bb
000002e0: c26a 61bd 2c62 01bd 8214 053c 7499 383a
000002f0: 19ca 1ebc b9a1 a83c b36e d53c 633a b43c
00000300: 9319 35bc 56b9 58bc 8f80 df3b 8c7a ccbc
00000310: 0b69 6dbc e519 07bc 3055 5e3c 8bcf 68ba
00000320: 399a 013c 4953 8fbb 3d75 adba 7a88 31bc
00000330: 807c fdbc c0d4 f0bb 7810 a0bb 1121 64bd
00000340: 6ab8 b6bc 2d14 363c 6201 ab3c 7c1b 8d39
00000350: d7cd 433c 9b71 c23c a5ab 61bb 68b3 313c
00000360: 2a7d 7ebb c8f7 ad3c ccc2 a53b 3816 3ebc
00000370: 0e59 a23c f020 82bc d1ff e7bc 9b7d 883a
00000380: f6b1 9c3c 16e2 8bbc a8e6 16bd e1fb c1bc
00000390: 2f5d adbc 7c78 13bd 863c 853c 06bc fdbc
000003a0: 4a31 52bc 25c3 64bd eee4 4e3c 670f 0bbc
000003b0: 06e5 083c 855f bbbb e18a 5abc 1888 1a3c
000003c0: 06a1 9fbb 88ba 72b9 c776 bebc ca94 943b
000003d0: c663 053b 3e85 fcbc a9b5 80bc 10c0 c93c
000003e0: b76c 31bc 0d3d 843b 0762 18bd 983d ec3b
000003f0: 73e3 aebc 87e0 b5b9 c06a 7f3c 49df ebbc
-0.0065073906 0.00227917 0.0040709544 -0.004952162 0.010306415 -0.026305437 -0.010070721 -0.016416816
-0.004008546 0.0075735725 -0.008993347 0.012860373 0.000615406 0.016386703 0.002773872 0.042194065
0.014851742 0.02849726 -0.010099043 0.012518921 -0.040404286 0.007337086 0.01882673 -0.020319356
-0.009726468 -0.023268053 0.0070296396 -0.0014553628 0.015752586 0.010006487 0.009868721 0.042838678
-0.020045882 -0.0051959394 -0.028926022 0.00018000964 -0.0019363698 -0.0045355884 -0.0101304995 -0.016153919
-0.002176791 -0.025706362 0.010746725 -0.016996127 0.020677475 -0.029038258 -0.010553283 0.046413466
0.011394995 0.010854858 0.008586231 -0.016136372 -0.015406013 -0.017760841 -0.009801797 -0.022832625
0.0034380257 -0.013217072 0.012833057 0.017007755 0.019078057 0.0022669171 -0.024110086 0.0012004591
-0.016692974 0.007982254 -0.014857902 -0.030283036 0.020979157 -0.031787094 -0.030112594 -0.032191563
0.009987122 -0.0006152567 -0.031272244 -0.00014808451 -0.027926303 0.00244178 -0.0110112885 -0.011290313
-0.009156321 0.018333737 -0.029246526 0.035488036 -0.025786512 0.0046677273 -0.0051675024 -0.021569667
0.0014207374 0.0044679074 -0.014944752 -0.019800743 0.0063454825 -0.018982336 -0.010297914 -0.006062803
-0.0040262025 -0.004982705 0.0033452257 -0.0012668957 -0.0044859783 -0.005902321 -0.020100936 -0.0066573564
-0.021871306 -0.00027809246 0.011165042 0.00047755 -0.026771275 -0.032385036 -0.030407883 -0.017786574
-0.0063718846 0.009884541 -0.011515996 -0.0029602358 -0.014986422 -0.043573402 -0.018175788 -0.006160044
-0.015083864 -0.004539484 0.0039645056 -0.0019432558 -0.02019378 -0.020892857 0.0023556282 -0.029580936
-0.014981428 -0.03814054 -0.010260483 0.015878221 -0.0019815662 0.013482818 0.023937292 -0.025471942
-0.016408889 0.0025046684 -0.0029748855 -0.022430325 -0.03794427 0.017562365 -0.0564897 -0.0051478185
-0.04858871 -0.03239009 -0.026573274 -0.017510202 -0.0030420003 0.015453799 -0.001824054 -0.03298937
-0.0121378545 -0.009854594 -0.009639735 -0.012473081 0.011386312 0.01951239 -0.036745265 -0.0023106984
-0.008774794 -0.00467922 -0.008232967 -0.024665741 -0.0022644547 -0.0026818216 0.016033728 0.030017704
-0.015056822 -0.018183554 -0.0146451 -0.020722028 -0.011276601 -0.011590783 -0.037367493 -0.018668318
-0.016377345 -0.0035098824 0.009999725 0.007859359 -0.010517428 0.005349358 0.00058480154 -0.005884922
-0.055033453 -0.031587765 0.008122565 0.0007041909 -0.0096917385 0.020584928 0.026053762 0.022000497
-0.011053461 -0.013227781 0.0068207453 -0.024960779 -0.014490376 -0.00824592 0.013570115 -0.0008881024
0.007910305 -0.004373942 -0.0013233792 -0.010835761 -0.030943155 -0.0073495805 -0.0048847757 -0.055695597
-0.022304732 0.011113209 0.020874683 0.00026914093 0.0119509315 0.023735812 -0.0034434584 0.010845996
-0.0038831928 0.021236315 0.005058622 -0.011601977 0.019817855 -0.015884846 -0.028320225 0.001041341
0.019127827 -0.01707558 -0.036841065 -0.023679676 -0.021162597 -0.036003575 0.016264211 -0.030973446
-0.012829134 -0.055850167 0.012627823 -0.008487559 0.008355385 -0.005718174 -0.013338775 0.009431861
-0.0048714904 -0.00023148407 -0.023249997 0.0045343386 0.002035366 -0.030825254 -0.015711622 0.024627715
-0.010829142 0.004035598 -0.03720286 0.007209491 -0.02134869 -0.00034690296 0.015589416 -0.028792994

network_body._body_endoder.seq_layers.2.weight f4 [256, 256]
00000000: 093f 5ebd 7ac9 ef3d 0c34 1e3d 3e0b 1bbe
00000010: 63ce 4d3c 83bb 60bd 1cad 2f3d 2972 993d
00000020: bb7a 263d 154a 96bd 4715 953d 4502 143e
00000030: 77ee b6bd 9042 9e3b bb13 b4ba 5fc4 e7bd
00000040: 4343 d2bd ffae d93c 1ddb d8bd ec1b a4bd
00000050: 4b49 b8bd 8c65 543d dae5 02bc c537 c93c
00000060: c131 56bc ed32 993d 16f9 0b3c d7cc ed3d
00000070: 98a9 223e ee61 0dbd 64af 123d 0a29 c33c
00000080: 87a3 023d d310 4b3c 9f21 0dbe d981 3dbc
00000090: 4330 443c 476c 4d3d eac7 0f3d 66a4 e3bd
000000a0: b581 1e3e ba9d 383d 236b e73d 9ba9 5d3c
000000b0: 1442 813e 98ca a5bd 3daa 8f3d 9536 9a3d
000000c0: eec7 6aba a70c a03d 1c73 7cbc 77d6 a93d
000000d0: b885 66bd 7bae 8e3d 6ad9 f4bd 44f8 663c
000000e0: 16bb eb3d f15f 3e3c 2f76 bf3d cbcd 6c3d
000000f0: 4238 cd3d f54b dd3c 3dac 593d 2ead 8fbc
00000100: 491a a1bd 0ae7 38bd d5ea 30be 31b1 b5bd
00000110: 69dc b03d a128 e13c a62d 6abd 3236 143e
00000120: 9001 82bd e661 8e3d f5f4 9b3d 133a 0b3d
00000130: d57a 83bd f3fb 9a3d 1b24 c5bd af68 39bd
00000140: 866d ad3c 3f0e d1bd 2d4f 553d 2a89 c0bd
00000150: 60f6 1b3e 7e09 7b3d ea79 273e 7a48 5a3d
00000160: 49c8 0a3e 8516 07bd 02b6 203d 4839 88bd
00000170: 689e cdbd 1619 6c3b a9da eabc b111 533d
00000180: fe36 b7bd 5926 9ebd d620 303d 91fb 24bc
00000190: 43ee 28bd 9bd2 1a3d 533f 323d 4b7d 133d
000001a0: fdcc 2a3c a898 9cbd 5373 9ebd 2786 8abc
000001b0: 398b 883c 626c ddbd afd0 7dbd b691 4c3d
000001c0: 19df 3fbd 0b9e 7e3d fad1 08bc 6748 e83c
000001d0: 9612 cb3c e060 8d3d 0359 1bbd 8ccf 27be
000001e0: 7903 023e a446 0fbe a9fb da3d 9446 d63d
000001f0: aa1f d1bd e555 adbd 543b cfbc 3f7e 083e
00000200: d521 2f3d 09ad e93b dc48 46bd 2396 42bd
00000210: b7cb f43c c7bb 2fbd f981 f43d c21d 4bbc
00000220: 26ae e33c b62f e8bc 63b6 903d 9f03 eb3c
00000230: d832 b33c 1ad0 1dbe fd31 11be eefe d0bc
00000240: 3f32 5f3d 61b4 d33d 3f17 193e 775e f8bc
00000250: 0ff0 2b3d 70de f8bc e059 c93d a660 583d
00000260: 59fd 513e 88ab 2d3e 7ca0 6dbe 79bd 2fbe
00000270: 9a1c a23d 1579 4abd 32d4 5bbc ec0f 363c
00000280: 3796 95bc 2815 a8bc a714 80bc 6923 c63d
00000290: 30ed 23bc e53f 1fbd be96 263d 8abd c03d
000002a0: 803c dbbd f453 18be 1fd3 9a3d 7c8d 3a3d
000002b0: cc25 98bb 96af c83d c4d6 9dbc 991c a83d
000002c0: d973 03be 58f8 de3b 0fab ddbc 8307 d1bc
000002d0: 6d1c 1ebd b8e6 91bd 6e76 113d 4d03 a93d
000002e0: 23f4 51bd bdea 413d e034 d7bd ccd9 893c
000002f0: 7d61 0abd 72fd b7bd f598 34bd f4e5 813c
00000300: 7fa5 5ebb f551 053d 3612 293d 3dce eebc
00000310: 765c a93c 32f1 a03d 6d53 39bd ad5a 253d
00000320: d127 7abd 8a2a e43b 0dfd 733c 2f38 923c
00000330: ce94 9ebc bfa8 b6bc 7125 2f3c 8d75 9e3d
00000340: cd54 70bd 8419 d93d d416 c4bc d191 253d
00000350: b753 6c3d 1457 e13a d5bd 253e 3d21 1b3c
00000360: 78a6 c43d 2ae1 ed3d 6f6b 153e b623 22bd
00000370: 89c4 0c3d 8a96 44be 7263 b2bd f987 3a3d
00000380: 70c9 4a3d ce5c 753d 88f7 38bd 01fc 51bd
00000390: 1230 b5bd 7af9 a73d d4e0 903d 712e 953d
000003a0: b032 e13d e91d 043d b3dd fb3d f4bc e1bb
000003b0: 621d 89bd 4404 8f3d 4ad1 a4bc f40c 8cbd
000003c0: 0ff8 6ebd 9a25 643c 2ccc a7bc 8f58 893d
000003d0: f49b 363e d2ef 59bd 259b 053c fae0 393c
000003e0: 141e 253c 1fd9 a4bd d702 88bc a842 4f3c
000003f0: 8524 cb3d b978 96bd 52ce a83d b00d b13d
-0.054259334 0.117083505 0.038623855 -0.15141007 0.012561413 -0.054866325 0.0428897 0.074924774
0.04064439 -0.07338349 0.07279449 0.14453991 -0.08932202 0.004829712 -0.001373879 -0.11316752
-0.102667354 0.026572702 -0.105886675 -0.08013138 -0.089983545 0.051854655 -0.007989371 0.024562726
-0.013073386 0.074804164 0.008543273 0.11611336 0.15885007 -0.03451722 0.035811797 0.02382328
0.031894233 0.012394148 -0.13782357 -0.011566603 0.011974397 0.05015209 0.035102762 -0.11115341
0.15479167 0.045072295 0.112997316 0.013529207 0.25245726 -0.08095282 0.07014892 0.07529942
-0.00089561834 0.07814913 -0.015408304 0.08292859 -0.056279868 0.06966873 -0.11955531 0.014097277
0.11510293 0.011619554 0.093487136 0.057813447 0.10020496 0.027013758 0.053142775 -0.017538633
-0.078663416 -0.04514221 -0.17277081 -0.08871687 0.0863579 0.027485194 -0.05717244 0.14473799
-0.06347954 0.069522664 0.07615081 0.03399093 -0.06419913 0.07567587 -0.09626027 -0.04526585
0.021170389 -0.10207795 0.05207746 -0.09401162 0.15230703 0.06128835 0.163551 0.053291775
0.13552965 -0.03298046 0.039236076 -0.066515505 -0.10039979 0.0036025695 -0.028668718 0.051530544
-0.08946036 -0.07722158 0.043000065 -0.010069744 -0.04124285 0.037798505 0.043517422 0.03600816
0.01042485 -0.07646304 -0.0773684 -0.016909672 0.016667949 -0.10811688 -0.061966594 0.04994365
-0.046843622 0.06216244 -0.008350844 0.028354837 0.024789136 0.06903243 -0.037926685 -0.16387767
0.12696637 -0.13991791 0.106925316 0.104626805 -0.102111176 -0.08463649 -0.025296845 0.13329409
0.042756874 0.007131223 -0.048409328 -0.047506463 0.029882295 -0.042903688 0.11938853 -0.0123972315
0.027793001 -0.028343063 0.070660375 0.02868825 0.02187483 -0.15411416 -0.14179225 -0.025512185
0.054491278 0.10337139 0.14950274 -0.030318482 0.041976985 -0.030379504 0.098315954 0.052826546
0.205068 0.16959965 -0.23205751 -0.17162122 0.079156116 -0.04943188 -0.0134172905 0.0111121945
-0.018260105 -0.0205179 -0.015634848 0.09674723 -0.01000528 -0.038879294 0.040671103 0.09411152
-0.10704899 -0.14875776 0.075597994 0.045545086 -0.0046431776 0.09799115 -0.019267447 0.082085796
-0.12837161 0.006804507 -0.027059106 -0.025516277 -0.038601328 -0.07124084 0.035513334 0.08252583
-0.051258218 0.047343004 -0.10508132 0.016827486 -0.03378438 -0.08983888 -0.044091184 0.01585672
-0.0033973155 0.032548863 0.041277133 -0.029151076 0.020673972 0.07858504 -0.045245577 0.04036968
-0.061073128 0.006963079 0.014891875 0.017849056 -0.019358065 -0.022297261 0.010690079 0.07737265
-0.058674622 0.1060057 -0.023936667 0.040422264 0.057697024 0.0017192089 0.16185696 0.009468374
0.09602064 0.11615212 0.14591764 -0.039584838 0.034367118 -0.19198051 -0.08710374 0.04553983
0.049508512 0.05990296 -0.04515794 -0.05126572 -0.08847059 0.08201881 0.070741326 0.072842486
0.10995996 0.032255087 0.12298145 -0.00688898 -0.066950575 0.069832355 -0.020119328 -0.06838408
-0.058342036 0.013924981 -0.020483099 0.06706344 0.17832929 -0.053207226 0.008154665 0.0113451425
0.010077972 -0.08049225 -0.016602917 0.012650169 0.09919075 -0.07347245 0.082424775 0.08645189

network_body._body_endoder.seq_layers.2.bias f4 [256]
00000000: 2f96 e33c d46c 86bc 528a b43b 462a 9fbc
00000010: 350d 46bc 1b00 063c 4019 b1bc 7b6e f0b9
00000020: 91b5 813c b1a5 babc 21d8 413c 6364 57b9
00000030: df43 ff3b 0b4f 513c ee1d 2b3c f9fd beba
00000040: 96d0 c93b bc29 96bc 3a20 393b c410 07bb
00000050: b0f7 b9bc aa94 643c 7eb1 763c 238f 0f3c
00000060: e60f c6bc 712a 1cbc c1da 2eba de10 8abb
00000070: 71cd a33c 4e34 5abc 5c67 8a3b 122a a53c
00000080: bf5c d4bc 62bf b7bc 0834 88bb 2df4 ab3b
00000090: 78ea b73c c48a 8a3c 2947 b3ba bbd9 f9ba
000000a0: d9e6 86bc e726 5f3c af2a 313c db48 33bc
000000b0: d5b3 0c3c 7277 07bb 0e7c 883b 7995 69bb
000000c0: 0b89 91bc 08aa 553c 6078 d33c a63b f0bb
000000d0: 87b0 343b 798a 87bc dec7 06bc fa5a b23c
000000e0: 0aa4 883c a5e8 3dbc 2491 8fbc e704 a3bc
000000f0: d7cc 9cbc 49e1 5e3c 257e 8f39 c586 213c
00000100: 5370 033c d06a 7dbc 788f 8ebc 115b 463c
00000110: 5ecd 82bc 754c 623c 7bb7 7539 4f1b 413c
00000120: 9fb5 4c3c 9443 3abc 9a6b ed3c 4bc6 d93b
00000130: 9576 8c3b efce 9a3b 4317 1ebc a122 6aba
00000140: 6966 9cbc a1ca 713c ee82 dfbc e0bb a83c
00000150: 40be 03bc 36ce a2bc 972c fb3b 5e68 4e3c
00000160: 92ee 48bb 07e6 5e3c 738b 813b fb33 fe3a
00000170: 2e81 a33b 44ce bcbb 6daa 5cbc 4003 72bb
00000180: 347b 1a3c 8cb8 ca3b fff4 a1bc f295 feba
00000190: 6102 25bc 402c 233c 2c94 50b9 c22f 833b
000001a0: a5d3 0bbc 4b15 cdbc 43c1 523c c319 223b
000001b0: 84be 673c 3ab1 86bb cae1 7cbc 1f9b 9c3b
000001c0: b623 a73c f2dd 8dbc d462 4f3c a382 3abc
000001d0: 31e1 17bb 63d7 75bc 7dc7 c0bb 9288 05bc
000001e0: 6402 913c 8b2f 273a b6f6 cc3b 07d9 183d
000001f0: 6915 ce3c 4e3f 2cbc 1ae2 93bc 2315 3c3b
00000200: b00e 543c 2628 473c 0804 993a 53ee 8f3b
00000210: 1a48 de3c 6498 953c a20e c03c 014d 98bb
00000220: 689b 813b b3e1 663c 19d7 a03c e8ea bdbb
00000230: 5e84 cdba 9cfc 8f3b 849a a8bc 8f6b e13c
00000240: 1c30 f63a 3729 7c3c 1be9 13bc 03d5 4fba
00000250: 5ce7 283c 2c3a bb3b acdc c4bc 01f7 1abc
00000260: abd7 893c 3abe 06bd 4b1a 87bb ad0a cdbc
00000270: bb2e 6cbc 8144 d53c a98b 7d3c edec 3f3b
00000280: f41e 0d3d a93e 03bd ce77 be3a 0e09 8c3c
00000290: f246 66bb d4d1 013c 3322 b6bb 3e51 80bb
000002a0: 1d0e b43b 1116 183c bcd7 37bc 1559 5f3c
000002b0: a467 cfbb 4bf1 313c 6462 a5ba 0865 03ba
000002c0: 6a54 49bc 1151 963c f85c cd3c 2268 80bb
000002d0: 91ea d23b d7f1 86bc 5a0b 84bb ab1d e03c
000002e0: 68c8 593c 09b3 e3bb bd56 4d3c 8f49 9abb
000002f0: ba8b c73b dbab c33b ea10 a5bc 0b55 98bb
00000300: eb8c ccbc b4ce 543c 96a5 5b3c 144b 1e3c
00000310: 770d 07bb d2c8 1ebc 9bdf 993c 3c5c 58bc
00000320: 1b30 ec3c 54d7 b03c 033f cebb f6bc 29bc
00000330: c3f3 6a3b 2e77 763c 0368 b93b a529 bc3c
00000340: a72b 2d3c 4b45 f3bb e0e7 64bb 7f16 d8bc
00000350: 3127 1b3c ad86 e9bc 0f01 d53b d53c 08bb
00000360: eeec 333c 047c 7a3c bea6 ca3b 8e3c eabb
00000370: db8f 6c3a 49b2 11bc dcef 0dbc 6b77 3fb9
00000380: 4db4 3fba 2fd5 72ba 3b69 9fba 849d 043c
00000390: 1deb 5bbc 39e2 fbbb 2397 4a3c 66d0 b2bb
000003a0: 9a78 913a fe28 04bc 98a9 ce38 cd88 2abc
000003b0: 3f12 19bc ac9d 393c 5d81 d3bc a2f1 f43b
000003c0: 7eed 83bc 6865 573c 4ad7 05bc fdb1 c0bc
000003d0: 0b47 87ba 419d efbb 28aa 893c 9eea 4e3c
000003e0: bf62 14bb d58d 23bc 3836 783c 1623 903b
000003f0: 323f 523b 6cf6 2a3c 8bbf 0ebc 44ba a4bb
0.027781574 -0.016409315 0.005509653 -0.019429337 -0.01208811 0.008178736 -0.021618485 -0.00045858682
0.015833648 -0.022784086 0.011831314 -0.00020541395 0.0077900733 0.012775193 0.0104441475 -0.0014571539
0.0061588986 -0.018330447 0.0028247968 -0.0020609358 -0.022701114 0.01395146 0.015056966 0.008762154
-0.024177503 -0.009531603 -0.000667017 -0.0042134365 0.019995423 -0.0133181345 0.004223747 0.020161662
-0.025923131 -0.022430126 -0.0041565932 0.005247614 0.02245067 0.016911872 -0.0013677824 -0.0019062081
-0.016467499 0.013620115 0.010813399 -0.010942663 0.008587797 -0.002067056 0.004165179 -0.003564207
-0.017765542 0.013041027 0.025814235 -0.0073313294 0.0027571039 -0.016545521 -0.008226363 0.021771897
0.016679782 -0.011591111 -0.017525263 -0.019899799 -0.019140644 0.013603517 0.0002736907 0.009858792
0.008022386 -0.015467361 -0.017402396 0.012106673 -0.015967067 0.013812174 0.00023433373 0.011786296
0.012494474 -0.011368651 0.028981972 0.006645953 0.004286597 0.0047243754 -0.009649101 -0.0008931552
-0.019091802 0.014757783 -0.027284112 0.020597398 -0.008040965 -0.01987372 0.0076652276 0.012598125
-0.0030659777 0.0136046475 0.003953391 0.0019394153 0.0049897647 -0.0057618935 -0.013468367 -0.0036928207
0.009428788 0.0061865505 -0.019770144 -0.0019423349 -0.010071368 0.0099592805 -0.00019891624 0.004003496
-0.008534347 -0.025034567 0.01286346 0.0024734593 0.014144544 -0.0041104825 -0.015434692 0.004779234
0.02040277 -0.017317746 0.01265784 -0.011383685 -0.0023174996 -0.0150049655 -0.005883156 -0.008150237
0.017701335 0.0006377629 0.006254996 0.03731635 0.025156694 -0.01051314 -0.01805215 0.0028699122
0.012942955 0.012155568 0.0011674175 0.004392424 0.02713399 0.018261142 0.023444477 -0.0046478515
0.0039552934 0.014091897 0.019633817 -0.0057958253 -0.0015679707 0.004394127 -0.020581491 0.027517108
0.0018782648 0.015390686 -0.009027745 -0.00079281646 0.010309067 0.0057137217 -0.024031006 -0.009458304
0.016826471 -0.032896258 -0.0041230074 -0.025029505 -0.014415438 0.026033642 0.015475192 0.0029285506
0.034453347 -0.03204218 0.0014531554 0.017094161 -0.0035137502 0.007923562 -0.005558276 -0.003915935
0.0054948465 0.009282605 -0.011220869 0.013632079 -0.0063294936 0.010860751 -0.0012617824 -0.0005012308
-0.012288192 0.018349202 0.025068745 -0.0039186636 0.006436654 -0.01647274 -0.0040296735 0.027357897
0.0132924095 -0.006948833 0.012532887 -0.004708476 0.0060896548 0.0059714145 -0.020149667 -0.00464881
-0.024969539 0.012988735 0.013406178 0.009661455 -0.002060739 -0.009691434 0.018783381 -0.013205584
0.028831532 0.021587051 -0.0062941327 -0.010359993 0.003585086 0.015043063 0.005658151 0.022969076
0.01056949 -0.007424032 -0.0034928247 -0.026377914 0.009469793 -0.028506601 0.0065003703 -0.0020788212
0.010981781 0.015288357 0.006184428 -0.007148332 0.00090241217 -0.008892604 -0.008663144 -0.00018259666
-0.00073129387 -0.0009263334 -0.0012162098 0.008094195 -0.013422755 -0.00768688 0.012365135 -0.005456972
0.0011098564 -0.008066414 9.854435e-05 -0.010408592 -0.009342729 0.011329096 -0.025818521 0.007475094
-0.016104456 0.013146736 -0.008169005 -0.023522371 -0.0010320855 -0.0073124473 0.01680477 0.012629179
-0.0022641865 -0.009982546 0.0151496455 0.004398714 0.0032081124 0.010434728 -0.00871266 -0.0050270874

action_model._discrete_distribution.branches.0.weight f4 [4, 256]
00000000: 294d 163d f77a 123c fae6 363c 2b84 5bbc
00000010: 60ec 2e3c 87dc bcbc cf8c c3bc 7e0c 3a3c
00000020: 96c6 433d 5fdd 9cbc 4f49 623c 7a98 d23c
00000030: 9454 143c bc5c 25bd 6a5b 16ba 0dbd 093c
00000040: c067 e3bc 1558 e6bc efc0 f33c 7188 25bc
00000050: 15d9 903b c377 243d a677 16bc 1839 983c
00000060: ecf0 b2bc d0f4 26bc 8fd4 d43c 29ca f2bb
00000070: 6420 403b 8305 823c 3b75 3bbb e393 563d
00000080: 5d99 babc 6db1 1bbd a8b4 0fbd 9ec7 87bc
00000090: 39d7 0b3d f33a 213d 01c3 823c 68ca c1bc
000000a0: b481 be39 efe6 b5bd 126f 16bc 188a d03c
000000b0: d295 d7bc 789a 2abc 6be0 5cbc f18c 593b
000000c0: a722 af3b c747 443d 3891 bcbb 777a 533c
000000d0: 06fc 273d f1d2 bb3c cfd2 44bb 6971 133d
000000e0: 78a9 593b dd34 bebc e627 34bd 8a74 a7bc
000000f0: d62f 3cbd f87a 29bc a521 80bc d3b9 8a3c
00000100: cd5a b73c 696c f1bc c070 8dbc 1e72 c13c
00000110: 71e9 85bc bee3 a13c 9ee2 f43b 34ec 733b
00000120: 8a9d 123d b07a 82bc 415e 153d dfb3 ba39
00000130: e472 dc3c ab5b 66bc fcdc 38bd aead 393c
00000140: 6d16 18bd 7fe8 6cbd cba7 363c 9655 a9bb
00000150: 3bcf 86bc ed9c b3bc dc47 c33a ecc6 6fbc
00000160: 1f59 043d 8a60 cf3c a8a1 e93c c5f7 efbb
00000170: caf3 723c 3498 46bc 410a 953a 323a 32bd
00000180: d363 7e3c 4c79 3abd 3587 b4bc b23d 7bbc
00000190: ad68 16bd 552d 7dbd ce0a 183c 7718 1a3d
000001a0: a820 4abc 6004 42bc dd5f 7d3b 5134 b43c
000001b0: b701 6b3d c941 993c a335 ddbc 2bc3 8f3c
000001c0: 8f47 123d 5bd2 a8bc 14fc f3bc 5a7e d33c
000001d0: afa6 043d 80b9 583c 84e0 d33c 7492 d6bc
000001e0: c354 4a3d f8e0 4cbc bd89 bcbb 05e4 233d
000001f0: de0e 503d 13a5 a5bc 10c5 dcbb 1713 113c
00000200: b40d 67bd dd5e 413c 27f3 233c ac95 10bd
00000210: 5de8 2c3d 0d78 b6bc ef27 a33c 3279 14bd
00000220: 2f37 30bb e3d5 2cbc e93d f63c c329 90bc
00000230: a7d1 513b d1da d2bc 36d7 5a3b 4964 ae3c
00000240: 31eb 16bd 954e 33bc d8b0 97ba ccec c1bc
00000250: 2900 9dbb df40 e33c d384 1fbc c85b 8ebc
00000260: 1a05 8f3c 316d e6bc 49ed 663c b318 fa3b
00000270: 91c8 c3bc 695a 3a3c 2a1f 1e3d 0e87 84bd
00000280: 48e7 7d3b d4a8 c0bb 7d27 063d 1c81 503c
00000290: a008 9dbb 4945 c23c 7a11 0b3c acb2 15bd
000002a0: 5ebb 0e3c ea44 473c f927 b93a 1254 48bb
000002b0: b6f2 d1bc da25 dab9 c04f 863c 1454 88bc
000002c0: c461 31bd 9b59 753c 8170 29bb ef49 d8bc
000002d0: 1126 ef3c 29b4 033c e9db 32bd c0ce 243c
000002e0: 81aa 793c f284 5d3b 449a a73c 3b7b 4f3c
000002f0: 7d40 6fbb 639d 443c 2bc9 153b c26d 9a3c
00000300: 2c49 afbc 0c93 883d 71b8 f63b b1d7 77bd
00000310: f8aa 03bd 0db7 d43c 9af4 353d 1ec6 293a
00000320: 3a9c 863c 727b 023d ab40 f8bb 6268 853c
00000330: 3fbd 0d3d 2f51 313d 669c cebc 6884 313c
00000340: 9f30 423d 5810 c7bc 66ac 87bc 40bb 0dbd
00000350: 8cb0 523c de47 95bc 56a5 9d3b be4b 0b3d
00000360: af7b 7dbc 0c7d 73bc 9625 6e3c d7a3 15bd
00000370: 3f58 34bd 4c50 963c e95b 0b3c e0fa 0cbd
00000380: 157a 0abc e286 ac3c 2265 a93c dbaf 32bb
00000390: 9de1 ae3b 7122 123c 0d0e 68bb 7635 ca3b
000003a0: aa5f 1d3c 07b5 bd3c 0e76 ba3c a19e cabc
000003b0: 9c2d 8ebc 3e03 c13c 6d56 98bc 3247 943b
000003c0: cbfa 043c 9537 41bb d962 2ebd 28c1 08bd
000003d0: b92a d6bc a384 a93c 7c89 ed3c 0aba 053d
000003e0: b815 773b 66a0 fdbc 59de fc3b a2fa 8fbc
000003f0: f024 9e3c 01d4 073c 26c5 53bd e8cd 4ebd
0.03669468 0.00894045 0.011163468 -0.0133982105 0.010676473 -0.023054374 -0.023870854 0.011355517
0.04779681 -0.019148527 0.013811423 0.025707472 0.009053368 -0.04037164 -0.00057356677 0.00840689
-0.027759433 -0.028118173 0.029755084 -0.010103331 0.0044204094 0.040153276 -0.0091838 0.018581912
-0.021843396 -0.010190204 0.025980262 -0.0074093533 0.0029316181 0.015871769 -0.002860381 0.05238713
-0.022778207 -0.038011003 -0.035084397 -0.016574677 0.0341408 0.03936286 0.015962126 -0.023656085
0.0003633626 -0.08881938 -0.009181755 0.025456473 -0.026316557 -0.010412805 -0.01348124 0.003319558
0.005344707 0.047920015 -0.005754616 0.012907616 0.041011833 0.022927733 -0.0030032878 0.03599683
0.0033212584 -0.023218567 -0.043983363 -0.020441312 -0.045944057 -0.010344259 -0.015641043 0.016934311
0.022382164 -0.02947064 -0.017265677 0.023613986 -0.016346665 0.019761916 0.007473304 0.0037219645
0.035794772 -0.015927643 0.03646684 0.000356107 0.026910253 -0.014059941 -0.045132622 0.011332912
-0.037130762 -0.057838913 0.011148403 -0.0051676733 -0.016456237 -0.021925414 0.0014898735 -0.014634829
0.032311555 0.025314588 0.028519467 -0.0073232376 0.014828632 -0.012121249 0.0011370854 -0.04351253
0.01552673 -0.045525834 -0.022037128 -0.0153345335 -0.03672092 -0.06181081 0.00927992 0.037620988
-0.012336887 -0.011841863 0.0038661875 0.021997603 0.057374682 0.018708127 -0.027003115 0.017549118
0.035712775 -0.020608118 -0.029783286 0.025817085 0.032385524 0.01322782 0.025863893 -0.026192881
0.04939724 -0.012504809 -0.0057537244 0.04001238 0.05079543 -0.020220315 -0.006737359 0.008854649
-0.056409553 0.011802402 0.0100067025 -0.03529899 0.042213786 -0.022274042 0.019916503 -0.036248393
-0.002688836 -0.010549041 0.030058818 -0.017598039 0.0032015832 -0.025739105 0.0033392436 0.021288054
-0.03684539 -0.010944028 -0.0011573089 -0.023672484 -0.004791279 0.027740894 -0.009736258 -0.01737775
0.017458487 -0.028128238 0.014094659 0.007632339 -0.023899348 0.0113740945 0.03860394 -0.06471072
0.003874259 -0.005879501 0.032752503 0.012726095 -0.004792288 0.023714678 0.008488053 -0.036547348
0.008711664 0.0121624265 0.0014126293 -0.0030567688 -0.025628429 -0.00041608402 0.01639545 -0.016641654
-0.043306127 0.014974977 -0.002585441 -0.026402442 0.029192956 0.008038559 -0.043666754 0.010059059
0.015238405 0.0033801165 0.020459302 0.012663658 -0.0036506944 0.012000415 0.00228555 0.018851165
-0.021397196 0.06668672 0.0075293113 -0.060508434 -0.03214547 0.025966192 0.044422723 0.000647636
0.016431917 0.031856008 -0.0075760684 0.016285125 0.034604307 0.043290313 -0.025221061 0.010834791
0.04740965 -0.024299785 -0.016561698 -0.034602404 0.012859475 -0.018222746 0.0048109693 0.03400778
-0.015471383 -0.0148613565 0.014535328 -0.036533203 -0.04402947 0.018348835 0.0085058 -0.03441894
-0.008451958 0.02106041 0.020678107 -0.0027265463 0.005336954 0.008919344 -0.0035408766 0.006170924
0.009605328 0.02315761 0.022761371 -0.024733843 -0.017355733 0.023561116 -0.018595899 0.0045250887
0.008116434 -0.0029482592 -0.042574737 -0.033387333 -0.026143419 0.020693129 0.028996222 0.032648124
0.0037702154 -0.030960273 0.0077169356 -0.017575566 0.019304723 0.008290292 -0.051701687 -0.050489336

action_model._discrete_distribution.branches.0.bias f4 [4]
00000000: 13d3 7e3c d1c3 cebb 290a 3dbb e3a8 96bb
0.015553254 -0.006309964 -0.0028845167 -0.0045977696

onnx::Div_62 f4 [202]
00000000: 7dbd bf3e c598 973e 666a e73e 52ea c23e
00000010: bb18 e93e 2cf0 c33e 666a e73e 4766 c33e
00000020: bb18 e93e a46b c43e d219 e43e e7ac c33e
00000030: e665 e53e 71bb c43e 492b e53e c231 c43e
00000040: 129d e63e 7b44 c53e a7fa e53e cd18 c43e
00000050: 9aef e73e 4451 c53e 5c61 ea3e ebc5 c63e
00000060: bf8d ec3e 6110 c83e 7724 e83e ce42 c53e
00000070: feae e93e 2d9e c63e 5d4f e93e ef56 c53e
00000080: 9ea1 ea3e 35b5 c63e 93a8 eb3e e18d c83e
00000090: f2ca ec3e 4f11 ca3e 77fd eb3e 2f20 c83e
000000a0: dc3b ed3e 40a3 c93e da06 e63e 20dc be3e
000000b0: 5677 e63e 090c c03e e2b1 e03e 12f0 ba3e
000000c0: 8193 e03e 130a bc3e 3eda e03e 02e7 ba3e
000000d0: 9ec7 e03e 7803 bc3e 512b e63e 70d6 be3e
000000e0: 8615 e63e ab93 bf3e 4c55 ed3e f6f1 c93e
000000f0: fee8 eb3e bce7 c83e 2c32 ed3e 7f74 ca3e
00000100: f541 eb3e 444a c93e 7405 eb3e ab52 c73e
00000110: 7bce e83e 2ae6 c53e 15df e93e ba49 c73e
00000120: 267a e73e 33d0 c53e 5760 ed3e 73e3 c83e
00000130: 6276 ea3e 82a9 c73e 0149 e93e 576d c63e
00000140: 6f04 e63e 50f3 c43e 8e67 e83e cc92 c63e
00000150: ab6e e53e 5731 c53e 1779 e73e 382e c63e
00000160: 6fe1 e43e d7d9 c43e d96d eb3e 34d2 c53e
00000170: f592 e83e 4c9f c43e d96d eb3e dc5f c53e
00000180: f592 e83e 682b c43e ddf1 c53e 137c 9c3e
00000190: b2dd c43e 36bc 9c3e 4748 ec3e 2883 c73e
000001a0: a0df ed3e 6f3a c93e 4748 ec3e aa00 c83e
000001b0: a0df ed3e 39bf c93e 209a e83e 2269 c83e
000001c0: e5e5 ea3e 2c28 ca3e 8d69 e93e 4aca c83e
000001d0: 2a7a eb3e 3379 ca3e 7b00 ea3e d393 c83e
000001e0: 3654 ec3e 2355 ca3e 7bf1 ed3e 1f02 cb3e
000001f0: 6fc2 ef3e 836e cc3e 8927 eb3e 82a1 c93e
00000200: e9b5 ec3e d709 cb3e ad52 ec3e 6fa7 c93e
00000210: 7da3 ed3e a106 cb3e 3db9 ee3e 9ae1 cc3e
00000220: a35f ef3e 2ac8 cd3e f661 ef3e f572 cc3e
00000230: 3da6 ef3e 9857 cd3e 45f1 e83e cfaa c23e
00000240: 552f ea3e 434e c43e b05a e43e 7435 bf3e
00000250: 230d e53e f587 c03e c124 e43e 6945 bf3e
00000260: cb68 e53e df79 c03e 1685 e93e 2e12 c33e
00000270: 9f3d ea3e c0be c33e b3fb ef3e e29f cc3e
00000280: 770a f03e 0add cc3e eeb1 ef3e fb18 cd3e
00000290: 2495 ef3e ad4d cd3e 8287 ee3e f051 ca3e
000002a0: fbcc ed3e 094b ca3e a79e ed3e 9752 ca3e
000002b0: f5b5 ec3e b84d ca3e 403c f13e efa9 cb3e
000002c0: 511c ef3e 83d6 cb3e 44d0 ed3e 546e c93e
000002d0: e0b8 eb3e a6c1 c93e 3c77 ed3e fcac c93e
000002e0: e34a eb3e cd0d ca3e 8e5e ec3e a83f c93e
000002f0: 1d90 ea3e 94ad c93e 690c ef3e 72cc c83e
00000300: ebfe ed3e 9030 c93e 690c ef3e 114c c83e
00000310: ebfe ed3e baaf c83e 39b5 c63e 3935 9d3e
00000320: 39b5 c63e 3935 9d3e
0.37449256 0.2960874 0.45198363 0.38069397 0.4552668 0.38269174 0.45198363 0.3816397
0.4552668 0.38363373 0.4455095 0.38217852 0.44804305 0.38424256 0.44759586 0.38319212
0.4504171 0.3852881 0.44917795 0.38300171 0.4529999 0.38538563 0.45777404 0.38822874
0.46201894 0.39074996 0.4534032 0.3852753 0.4564132 0.38792554 0.45568362 0.38542888
0.4582643 0.38810125 0.4602705 0.39170745 0.46248585 0.3946633 0.46091816 0.39087054
0.46334732 0.39382362 0.44927102 0.37277317 0.4501292 0.37509182 0.43885714 0.36511284
0.43862537 0.36726436 0.43916506 0.3650437 0.43902296 0.36721396 0.44954923 0.37272978
0.44938296 0.3741735 0.4635414 0.39442414 0.46076196 0.392393 0.4632734 0.39542004
0.4594876 0.39314473 0.45902598 0.38930258 0.45470032 0.38652164 0.4567801 0.38923436
0.4521038 0.38635406 0.46362564 0.3923603 0.45793444 0.38996512 0.4556351 0.38755295
0.44925258 0.38466883 0.45391506 0.38783872 0.44810995 0.38514206 0.45209572 0.38707137
0.44703242 0.3844745 0.45982245 0.38636935 0.4542462 0.38402784 0.45982245 0.38549697
0.4542462 0.38314366 0.3866109 0.3056341 0.3845039 0.30612344 0.46148893 0.38967252
0.46459675 0.39302394 0.46148893 0.39063007 0.46459675 0.39403704 0.45430088 0.3914271
0.4587852 0.39483774 0.4558834 0.39216834 0.4599164 0.39545593 0.45703492 0.3917528
0.46157998 0.3951808 0.46473297 0.39650056 0.4682803 0.39928064 0.459286 0.39381033
0.46232536 0.39655945 0.46156827 0.39385554 0.46413794 0.39653495 0.466257 0.4001587
0.46752653 0.40191776 0.46754426 0.39931455 0.46806517 0.4010589 0.45496574 0.38020942
0.45739236 0.3834096 0.4460044 0.3734547 0.44736585 0.37603727 0.4455929 0.37357643
0.44806513 0.3759298 0.4560935 0.38099808 0.45750138 0.38231468 0.4687172 0.3996573
0.46882984 0.4001239 0.46815437 0.4005812 0.46793473 0.40098324 0.4658776 0.39515638
0.4644545 0.39510372 0.46410105 0.39516136 0.46232572 0.3951242 0.4711628 0.39778087
0.4670129 0.39812097 0.46447957 0.39341986 0.46039486 0.39405555 0.4638003 0.3938979
0.45955572 0.39463654 0.4616589 0.39306378 0.45813075 0.39390242 0.46689156 0.3921848
0.4648355 0.39294863 0.46689156 0.39120534 0.4648355 0.3919657 0.38810137 0.30704668
0.38810137 0.30704668

onnx::Div_65 f4 [10]
00000000: 30f4 5a3b 30f4 5a3b 30f4 5a3b 30f4 5a3b
00000010: 30f4 5a3b 30f4 5a3b 30f4 5a3b 30f4 5a3b
00000020: 30f4 5a3b 30f4 5a3b
0.0033409707 0.0033409707 0.0033409707 0.0033409707 0.0033409707 0.0033409707 0.0033409707 0.0033409707
0.0033409707 0.0033409707
