results/GameAddedRewards10/PlayerBehaviour.onnx (onnx, 490727 bytes, 10 tensors)

network_body.observation_encoder.processors.0.normalizer.running_mean f4 [202]
0	0x3f606c6d	0.87665445
1	0x3f6a3f1c	0.9150255
2	0x3f5daee0	0.86594963
3	0x3f682b89	0.9069143
4	0x3f5db7c3	0.86608523
5	0x3f67e37a	0.90581477
6	0x3f5daee0	0.86594963
7	0x3f6850ec	0.90748477
8	0x3f5db7c3	0.86608523
9	0x3f68087e	0.9063796
10	0x3f687e5b	0.90817803
11	0x3f6d36ec	0.9266193
12	0x3f6a0a18	0.9142165
13	0x3f6d958c	0.92806315
14	0x3f6951ac	0.91140246
15	0x3f6dbef0	0.9286947
16	0x3f6ae077	0.91748756
17	0x3f6e20f5	0.9301904
18	0x3f6a432b	0.9150874
19	0x3f6eda42	0.93301785
20	0x3f6b92db	0.9202096
21	0x3f6f2a98	0.9342437
22	0x3f672e7f	0.9030532
23	0x3f6dbfa3	0.9287054
24	0x3f68f94e	0.9100541
25	0x3f6e2b02	0.93034375
26	0x3f6a160e	0.914399
27	0x3f6f3611	0.93441874
28	0x3f6ab088	0.91675615
29	0x3f6f2a76	0.93424165
30	0x3f68e2c0	0.90970993
31	0x3f6eb6d4	0.93247724
32	0x3f697bbe	0.9120444
33	0x3f6ec0f8	0.93263197
34	0x3f69fe0a	0.9140326
35	0x3f6f06f8	0.9337001
36	0x3f6adc0b	0.9174201
37	0x3f6f2cfb	0.9342801
38	0x3f699fbb	0.91259354
39	0x3f6f2b5c	0.93425536
40	0x3f6a26a4	0.9146521
41	0x3f6f325e	0.9343623
42	0x3f71a71b	0.9439561
43	0x3f79651f	0.97419924
44	0x3f72236f	0.9458532
45	0x3f7927c5	0.9732631
46	0x3f727169	0.947043
47	0x3f79a9a9	0.97524506
48	0x3f724a70	0.9464483
49	0x3f79264e	0.97324073
50	0x3f730151	0.94923884
51	0x3f79e45b	0.9761407
52	0x3f7290e1	0.9475232
53	0x3f793f65	0.9736236
54	0x3f737ae2	0.9510938
55	0x3f7a35a2	0.9773809
56	0x3f7320cf	0.94971937
57	0x3f797926	0.9745048
58	0x3f6aad84	0.91671014
59	0x3f6eba4f	0.93253034
60	0x3f6a08a1	0.91419417
61	0x3f6e9a37	0.93204063
62	0x3f6acb7e	0.91716754
63	0x3f6e80f4	0.93165517
64	0x3f6a178f	0.914422
65	0x3f6e52ef	0.93095297
66	0x3f69e7bc	0.91369224
67	0x3f6e4cec	0.93086123
68	0x3f68ff61	0.9101468
69	0x3f6dee5d	0.9294184
70	0x3f6a478c	0.9151542
71	0x3f6e614d	0.9311722
72	0x3f6990aa	0.91236365
73	0x3f6e12ee	0.92997634
74	0x3f66d02f	0.9016141
75	0x3f6cc11d	0.9248217
76	0x3f64455f	0.8916835
77	0x3f6b4437	0.9190096
78	0x3f683dfd	0.90719587
79	0x3f6d46cd	0.9268616
80	0x3f664c3f	0.8996009
81	0x3f6bfcf6	0.9218286
82	0x3f66f107	0.9021153
83	0x3f6be91d	0.9215258
84	0x3f64935f	0.8928737
85	0x3f6a48be	0.91517246
86	0x3f66fb93	0.9022762
87	0x3f6bee08	0.9216008
88	0x3f637e0b	0.888642
89	0x3f699c0d	0.9125374
90	0x3f5b46b3	0.85654753
91	0x3f66a624	0.9009726
92	0x3f584136	0.84474504
93	0x3f6471c8	0.89236116
94	0x3f5b46b3	0.85654753
95	0x3f667aa4	0.90030885
96	0x3f584136	0.84474504
97	0x3f64461b	0.8916947
98	0x3f5c729f	0.861124
99	0x3f6760d3	0.9038212
100	0x3f59b368	0.8503938
101	0x3f6559f2	0.8959037
102	0x3f5a5e5a	0.8530022
103	0x3f65a873	0.8971016
104	0x3f5791c6	0.8420681
105	0x3f639545	0.8889964
106	0x3f5a5e5a	0.8530022
107	0x3f65d2ff	0.8977508
108	0x3f5791c6	0.8420681
109	0x3f63bffb	0.88964814
110	0x3f67daf9	0.905685
111	0x3f6bde29	0.92135864
112	0x3f645d5e	0.8920497
113	0x3f6993f9	0.91241413
114	0x3f68244e	0.90680397
115	0x3f6c0ebd	0.9220999
116	0x3f658f42	0.8967172
117	0x3f6a4eb8	0.91526365
118	0x3f69c531	0.91316515
119	0x3f6d9e6f	0.92819875
120	0x3f67eceb	0.90595883
121	0x3f6c4e7f	0.92307276
122	0x3f67737d	0.90410596
123	0x3f6cbabc	0.92472434
124	0x3f6554d3	0.89582556
125	0x3f6b396f	0.9188451
126	0x3f699cab	0.9125468
127	0x3f6dd8b7	0.92908806
128	0x3f696cb6	0.91181505
129	0x3f6d97c3	0.92809695
130	0x3f69443e	0.91119754
131	0x3f6dc5e3	0.92880076
132	0x3f68c7d5	0.9092992
133	0x3f6d69e2	0.9273969
134	0x3f6aaa89	0.91666466
135	0x3f6e651d	0.93123037
136	0x3f697baf	0.9120435
137	0x3f6da05e	0.92822826
138	0x3f6aac09	0.91668755
139	0x3f6ec375	0.93266994
140	0x3f698c33	0.9122955
141	0x3f6e076b	0.9298007
142	0x3f743dbd	0.95406705
143	0x3f7a9857	0.978887
144	0x3f738b42	0.95134366
145	0x3f79021d	0.9726885
146	0x3f748116	0.9550947
147	0x3f7a9c96	0.9789518
148	0x3f739bd3	0.95159644
149	0x3f7915fd	0.97299176
150	0x3f7434c6	0.95393026
151	0x3f7a86d4	0.9786198
152	0x3f736bca	0.9508635
153	0x3f79088d	0.9727867
154	0x3f748a1d	0.95523244
155	0x3f7ad8d6	0.97987115
156	0x3f7395eb	0.9515063
157	0x3f79189d	0.9730318
158	0x3f676183	0.90383166
159	0x3f6bd931	0.9212828
160	0x3f64cae8	0.8937211
161	0x3f69fa66	0.913977
162	0x3f678276	0.9043344
163	0x3f6b8b95	0.9200986
164	0x3f650855	0.8946584
165	0x3f69a110	0.91261387
166	0x3f665088	0.8996663
167	0x3f6b0b1b	0.9181382
168	0x3f637520	0.88850594
169	0x3f691272	0.9104377
170	0x3f66c114	0.90138364
171	0x3f6b1dd6	0.918424
172	0x3f643961	0.89150053
173	0x3f69416b	0.91115445
174	0x3f618363	0.88091105
175	0x3f6876ed	0.90806466
176	0x3f60b2f5	0.87773067
177	0x3f6740c4	0.903332
178	0x3f638e83	0.8888933
179	0x3f6927f0	0.91076565
180	0x3f632423	0.88727015
181	0x3f6836aa	0.9070841
182	0x3f60bf01	0.8779145
183	0x3f66cc21	0.90155226
184	0x3f60aff6	0.87768495
185	0x3f6604cd	0.89851075
186	0x3f5f5eb4	0.8725388
187	0x3f65e5f9	0.89804035
188	0x3f5f55a6	0.87240064
189	0x3f652873	0.89514846
190	0x3f51959e	0.8186892
191	0x3f5f9ed6	0.8735174
192	0x3f4fcf5c	0.8117578
193	0x3f5e28a4	0.8678076
194	0x3f51959d	0.81868917
195	0x3f5f6bb2	0.87273705
196	0x3f4fcf5c	0.8117578
197	0x3f5df713	0.8670513
198	0x3f53ae67	0.8268799
199	0x3f61073f	0.8790168
200	0x3f53ae67	0.8268799
201	0x3f61073f	0.8790168

network_body.observation_encoder.processors.1.normalizer.running_mean f4 [10]
0	0x420a690f	34.602596
1	0x416accb4	14.674976
2	0x00000000	0.0
3	0x00000000	0.0
4	0x00000000	0.0
5	0x00000000	0.0
6	0x00000000	0.0
7	0x00000000	0.0
8	0x00000000	0.0
9	0x00000000	0.0

network_body._body_endoder.seq_layers.0.weight f4 [256, 212]
0	0xbe1969b1	-0.14981724
1	0x3c9a4b11	0.018834623
2	0x3d474864	0.04865302
3	0x3db3fc16	0.08788316
4	0xbdf2d295	-0.118565716
5	0x3dd86f8f	0.10568153
6	0xbdb9c153	-0.09070077
7	0xbb2c7476	-0.0026314533
8	0xbddc973b	-0.107710324
9	0x3dd9b37e	0.106299385
10	0x3d99089b	0.074723445
11	0xbe010628	-0.12600005
12	0x3dc5cb94	0.0965797
13	0x3d57e66d	0.052709986
14	0xbde8c8ab	-0.113663994
15	0xbe10f462	-0.14155725
16	0xbd4debcc	-0.0502737
17	0xbc3d7436	-0.011563351
18	0xbc6d3239	-0.014477306
19	0x3c789634	0.01517253
20	0xbe075c32	-0.13218763
21	0x3dab1626	0.08353834
22	0xbe239011	-0.15972926
23	0xbc88383b	-0.016628375
24	0xbdb63d36	-0.08898394
25	0xbde0781f	-0.10960411
26	0xbcea37e0	-0.028591096
27	0xbd7c08c5	-0.0615318
28	0x3d11688d	0.035500098
29	0x3ccb06ce	0.024783518
30	0xbdf3e352	-0.11908592
31	0xbd14d2cb	-0.03633384
32	0xbd1d43a1	-0.038394574
33	0xbe52a4af	-0.20570634
34	0xbd74f478	-0.059803456
35	0xbd922f91	-0.07137979
36	0x3bb3ed2e	0.0054909205
37	0x3d1de88f	0.038551863
38	0xbdb30382	-0.087409034
39	0xbd6d9112	-0.057999678
40	0x395cf30e	0.0002107138
41	0x3d05d005	0.032669086
42	0xbccd70f9	-0.025078284
43	0x3ccc033a	0.024903882
44	0xbcfb622e	-0.030686464
45	0xbde137c8	-0.109969676
46	0xbcce0a54	-0.02515141
47	0xbcdd26d1	-0.026996048
48	0x3dd9f13c	0.10641715
49	0x3d75093c	0.05982326
50	0xbddd2e95	-0.107999004
51	0xbb0f2cd6	-0.0021846793
52	0x3bec6d93	0.0072152107
53	0xbc7270d8	-0.014797412
54	0x3d84bc51	0.06481231
55	0x3b9adf70	0.004726343
56	0xbdf1dbfc	-0.11809537
57	0x39ed0055	0.0004520441
58	0x3cc04766	0.023471545
59	0xbd5a00f1	-0.053223554
60	0xbe191ac5	-0.14951618
61	0x3e217e4f	0.15770839
62	0x3e123d60	0.14281225
63	0x3dc550b9	0.09634537
64	0xbc763fd9	-0.015029871
65	0xbd8d1ef6	-0.06890671
66	0xbd889512	-0.06669058
67	0xbd922d89	-0.071375914
68	0x3d0e35c5	0.034719247
69	0xbc4e5aa4	-0.012594853
70	0xbda0aaa9	-0.07845051
71	0xbd9e904f	-0.077423684
72	0xbd8820a7	-0.06646853
73	0x3daa02e9	0.08301336
74	0x3e16335b	0.14668028
75	0x3dbb5447	0.09146934
76	0xbd8ea378	-0.06964773
77	0xbdae2a37	-0.085041456
78	0xbd98298f	-0.07429802
79	0x3d59a303	0.053133976
80	0xbc90deb8	-0.017684326
81	0xbe10fb22	-0.141583
82	0xbd97ac72	-0.07405938
83	0x3d6d9071	0.05799908
84	0x3de86198	0.113467395
85	0xbd436e33	-0.047712516
86	0xbe0eb8b2	-0.13937643
87	0x3d05429d	0.03253423
88	0x3d494b3f	0.049144026
89	0x3bc41e1c	0.0059850346
90	0xbc0e446d	-0.008683306
91	0xbe394815	-0.18093903
92	0xbd03fc9c	-0.03222333
93	0xbc80ff58	-0.015746757
94	0xbda85b8d	-0.08220587
95	0x3d95591b	0.07292386
96	0xbe1fa315	-0.15589555
97	0x3c06d1b8	0.008228712
98	0x3d4c4c34	0.04987736
99	0xbb29a9b2	-0.00258885
100	0xbe1725ae	-0.14760467
101	0x3b2cb3cb	0.0026352282
102	0xbcfe1be5	-0.03101916
103	0xbc19bc0a	-0.009383211
104	0xbbe6b106	-0.007040146
105	0xbc176ba3	-0.009241971
106	0xbd91b50e	-0.071146116
107	0x3c9eacce	0.01936951
108	0xbd23d2c1	-0.039995912
109	0x3d346447	0.044040944
110	0xbd0f34b8	-0.034962386
111	0xbd531526	-0.05153384
112	0x3c0fa70b	0.0087678535
113	0x3c606244	0.013695303
114	0x3d950901	0.07277108
115	0xbdf15ee5	-0.11785678
116	0xbd1576a7	-0.03649011
117	0xbdae4174	-0.08508578
118	0x3dfc823e	0.12329529
119	0xbd14b77a	-0.03630779
120	0xbdb49a2e	-0.0881847
121	0xbe21a541	-0.15785696
122	0x3d91532c	0.07095942
123	0xbca625e5	-0.020281741
124	0x3d43b805	0.047782917
125	0x3d413958	0.047173828
126	0x3bb81df4	0.005618805
127	0x3ce8d647	0.028422488
128	0x3c5ec95e	0.013597814
129	0xbdb5cdef	-0.08877169
130	0xbd8a40a8	-0.067506135
131	0x3dd64c4f	0.104637735
132	0x3dcca972	0.09993257
133	0x3d10f24f	0.035387333
134	0xbbdaf0d3	-0.0066815405
135	0x3cf80b51	0.030278834
136	0x3cfc2c1c	0.030782752
137	0xbdb585fb	-0.08863445
138	0xbd30644a	-0.043064393
139	0x3c41acd7	0.011820993
140	0xbd6efddb	-0.058347564
141	0xbdc2bdd5	-0.09508864
142	0xbc6c896c	-0.014437061
143	0x3e062f28	0.13103926
144	0xbd07bd0f	-0.033139285
145	0xbd1cb9a4	-0.03826298
146	0xbe035971	-0.12827088
147	0xbd2f3497	-0.042774763
148	0x3cba63d9	0.02275269
149	0xbde0d9e0	-0.10979056
150	0x3c456ed2	0.012050347
151	0xbd134ed3	-0.035963845
152	0x3d0302f2	0.03198523
153	0x3c03fa7b	0.008055325
154	0x3d8daaa0	0.0691731
155	0xbd9551e3	-0.07291009
156	0x3ba8e111	0.005153783
157	0x3bad42fa	0.0052875252
158	0xbce444cb	-0.027864834
159	0x3d1825d0	0.037145436
160	0xbc5e9434	-0.013585139
161	0x3ceb49a2	0.028721634
162	0xbd44b149	-0.048020635
163	0xbdbf0e38	-0.09328884
164	0x3cf92e87	0.030417694
165	0xbcb8ad4c	-0.022543572
166	0xbddf9c13	-0.10918441
167	0x3dd6656a	0.10468562
168	0x3acb0250	0.001548836
169	0x3d471a48	0.048609048
170	0xbdb3e3da	-0.087836936
171	0x3dd2b5ca	0.1028858
172	0x3d1dfa71	0.038568918
173	0xbcbd7573	-0.023127293
174	0xbc06ab76	-0.00821959
175	0xbd24fc23	-0.04027952
176	0x3d29e8f1	0.041481916
177	0xbd7e49de	-0.062082164
178	0x3d85562c	0.065105766
179	0xbdb89af5	-0.09013931
180	0x3972a6d4	0.00023141067
181	0x3e246222	0.1605306
182	0xbd1aa55a	-0.037755348
183	0x3c6debe2	0.014521571
184	0xbd4bd3b9	-0.04976246
185	0xbb472097	-0.0030384415
186	0x3c676e78	0.014125459
187	0x3d256644	0.04038073
188	0xbe000cd2	-0.1250489
189	0x3dacb8ef	0.08433711
190	0xbc8f98fb	-0.017529001
191	0x3d87eb13	0.06636634
192	0xbd58325a	-0.052782394
193	0xbcdc29ff	-0.026875494
194	0x3b5c96e8	0.0033659283
195	0x3d819988	0.06328112
196	0xbded802d	-0.11596713
197	0x3c946ecb	0.018119236
198	0xbd0df3f0	-0.034656465
199	0x3d7474dd	0.059681762
200	0x3d64404f	0.055725392
201	0x3d9fbb81	0.077994354
202	0xbcb933d6	-0.022607725
203	0xbdb80df3	-0.089870356
204	0xbd1fc710	-0.0390082
205	0xbdca5e3a	-0.098812535
206	0xbd97df15	-0.074155964
207	0x3cfc70c6	0.030815493
208	0xbcf3ae8b	-0.029746315
209	0xbadc0311	-0.0016785582
210	0x3da83253	0.082127236
211	0xbda251f1	-0.07925785
212	0xbcadf567	-0.021235181
213	0x3de7c8af	0.11317574
214	0x3cfccb04	0.030858524
215	0xbd700469	-0.058597956
216	0xbd9bceed	-0.07607827
217	0xbd9dc16f	-0.0770291
218	0x3ce9eff0	0.028556794
219	0x3d090b85	0.03345825
220	0xbdb6861d	-0.08912299
221	0x3cbbe310	0.02293542
222	0xbdec127d	-0.11526964
223	0xbe3aa495	-0.18226846
224	0xbd08ea85	-0.03342678
225	0x3dad2869	0.08454973
226	0xbd1c12bf	-0.038103815
227	0xbd9c5955	-0.07634226
228	0x3df64e3d	0.120266415
229	0x3d380564	0.044927016
230	0xbd760d10	-0.06007105
231	0xbdea89d7	-0.11452072
232	0xbdb88491	-0.0900966
233	0x3d0c08cb	0.034188073
234	0xbe1a2839	-0.15054406
235	0xbe00f398	-0.12592924
236	0x3ccccf06	0.02500106
237	0x3de5e560	0.112253904
238	0xbd3a3738	-0.045462817
239	0x3da98610	0.082775235
240	0x3cc6b552	0.024256382
241	0xbc8cc603	-0.017184263
242	0x3d8aaa07	0.067707114
243	0xbdd960e4	-0.106141835
244	0x3d22ed31	0.039776985
245	0xbe0ef0b5	-0.1395901
246	0xbd84273c	-0.06452796
247	0xbd2769f5	-0.040872533
248	0xbe1c3534	-0.1525467
249	0xbc92a7fc	-0.017902367
250	0xbdb73250	-0.08945143
251	0xbc4644a3	-0.012101325
252	0xbd9a5327	-0.07535391
253	0x3d943870	0.07237327
254	0x3d0c178f	0.034202155
255	0x3c453891	0.012037412

network_body._body_endoder.seq_layers.0.bias f4 [256]
0	0xbba66516	-0.0050779684
1	0x3d047af7	0.03234383
2	0x3c2a3aa0	0.010389954
3	0x3c531616	0.012883684
4	0x3cbe0457	0.023195429
5	0xbc796541	-0.015221895
6	0x3d2b31c3	0.041795503
7	0x3bef362f	0.0073001604
8	0x3d028a28	0.031870037
9	0x3c043d58	0.008071266
10	0x3d2f1f89	0.042754684
11	0x3d04b16e	0.032395773
12	0x3b9b4709	0.0047386927
13	0x3ca9976a	0.020702083
14	0x3ba9ef9c	0.0051860344
15	0x3d1820b9	0.03714058
16	0x3c8dfaf4	0.017331578
17	0x3c7b9960	0.015356392
18	0x3ce330bc	0.0277332
19	0x3cba7710	0.022761852
20	0x3d45faa4	0.048334733
21	0x3c0faf36	0.008769801
22	0x3ce6a669	0.028155522
23	0x3c9b0b70	0.018926352
24	0x3d14a97a	0.036294438
25	0x3c821a69	0.015881734
26	0x3cee31ec	0.029076539
27	0x3cd46883	0.025928741
28	0x3d26e37c	0.04074429
29	0x3c71e256	0.014763435
30	0x3d0e641f	0.03476345
31	0x3d1627f4	0.036659196
32	0x3ceac0ce	0.02865639
33	0x3c4cacb2	0.012492346
34	0x3ca74fba	0.020423759
35	0xbb3700f4	-0.0027924152
36	0x3ac1fe05	0.0014800435
37	0xbc9770ae	-0.018486347
38	0x3b8e0c46	0.004334959
39	0x3c787d3d	0.015166578
40	0x3ca66885	0.02031351
41	0x3cce804a	0.025207657
42	0x3b2ad4eb	0.002606685
43	0x3c3187f5	0.010835637
44	0x3d16d149	0.036820684
45	0x3c2fcdf3	0.010730254
46	0xbb0da2fd	-0.0021612041
47	0x3c52a30b	0.012856255
48	0x3c97db41	0.018537166
49	0x3cdd7958	0.0270354
50	0x3ab79bc4	0.0014008214
51	0x3beb5f44	0.0071829874
52	0x3cc9133a	0.0245453
53	0x3ce0bb6d	0.027433122
54	0x3cc95046	0.02457441
55	0x3d173d14	0.036923483
56	0x3c2b14da	0.010441983
57	0x39b895f3	0.00035206936
58	0x3a233d58	0.00062270975
59	0x3c0cf674	0.008603681
60	0xbc2cc83f	-0.010545789
61	0x3cb7b57c	0.022425406
62	0x3ccf9652	0.025340233
63	0x3ca88612	0.020571742
64	0x3ca550d8	0.02018015
65	0x3c5d00f6	0.013488999
66	0x3c8b27dd	0.016986782
67	0x3c8137eb	0.015773734
68	0x369fb2f8	4.759404e-06
69	0x3a9468e1	0.001132276
70	0xbb972187	-0.004612151
71	0x3c931ec2	0.017959002
72	0x3c5d485a	0.0135060195
73	0x3c65e726	0.014032161
74	0x3c94aff4	0.018150307
75	0x3c3037e3	0.010755512
76	0x3cbf4146	0.023346554
77	0x3bd6ca51	0.0065548797
78	0x3cb4ac78	0.022054896
79	0xbc03b64c	-0.008039068
80	0xbcf1d299	-0.029519366
81	0x3bc31d4a	0.0059544193
82	0x3cec28f0	0.028828114
83	0x3c59e131	0.013298319
84	0x3ca21df1	0.019789668
85	0x3c17304e	0.009227825
86	0x3c657edd	0.014007297
87	0x3d040d8f	0.032239493
88	0x3c52fd98	0.012877844
89	0x3a97c402	0.0011578801
90	0x3ca3806d	0.0199587
91	0x3cc3b69f	0.023890791
92	0x3c4b38bc	0.012403663
93	0x3c31bab0	0.010847732
94	0x3c5eb788	0.013593562
95	0x3c9876c8	0.018611327
96	0x3b9724ca	0.00461254
97	0x3c1f9528	0.009740151
98	0xbc0c840a	-0.008576402
99	0x3ca01611	0.019541772
100	0x3c6e4fcd	0.014545393
101	0x3b1825bc	0.002321585
102	0x3c6c27f3	0.0144138215
103	0x3c0b6780	0.008508563
104	0x3d4203a8	0.047366768
105	0x3cbb529b	0.022866538
106	0x3c82362e	0.015894976
107	0x3cd65c9a	0.026167203
108	0x3ce53d29	0.027983265
109	0x3cc73e65	0.024321744
110	0x3cbba21d	0.02290445
111	0x3a2a60dc	0.00064994185
112	0x3ceddaad	0.029034937
113	0x3cf0dfb3	0.029403543
114	0x3cdc9608	0.02692701
115	0x3ca28870	0.01984045
116	0xbca6483b	-0.020298114
117	0x3d05fae4	0.03270997
118	0x3c8d9e73	0.017287469
119	0x3c36ec82	0.011164786
120	0x3c277672	0.010221111
121	0xbc235b91	-0.009970562
122	0x3c8f72e0	0.017510831
123	0x3cce5512	0.025187049
124	0x3b9e0359	0.0048221764
125	0x3ce73774	0.028224684
126	0xba0313f2	-0.00050002255
127	0x3c4954e5	0.012288307
128	0xbb95fba3	-0.0045771166
129	0x3c513472	0.012768852
130	0x3c5cbe83	0.013473156
131	0x3ca4a2d4	0.020097174
132	0x3cb30ae8	0.021855786
133	0x3c90d02b	0.017677387
134	0x3d04e216	0.032442175
135	0x3c99e024	0.018783636
136	0x3a459666	0.0007537365
137	0x3c301904	0.010748152
138	0x3c193e79	0.009353274
139	0x3c8f399c	0.017483525
140	0x3bf2eba5	0.007413345
141	0xbcafde33	-0.021468258
142	0x3c0fe6bb	0.008783038
143	0x3be67af4	0.0070337
144	0xba66a754	-0.00087987375
145	0x3c0f4b7d	0.008746025
146	0x3c85c342	0.016328458
147	0x3c895340	0.01676333
148	0x3bc8ace2	0.006124125
149	0x3ccc7e11	0.024962457
150	0x3c0d3013	0.008617419
151	0x3cf7ab33	0.030233001
152	0xbbe26f69	-0.006910254
153	0x3c9b13f3	0.018930411
154	0xbc0c02da	-0.008545602
155	0x3cb52f09	0.022117155
156	0x3d0c0b88	0.034190685
157	0x3c448713	0.011995095
158	0x3c48805a	0.012237633
159	0x3d3c39bb	0.045953494
160	0x3b47f878	0.003051309
161	0x3c003870	0.007825956
162	0x3ce303df	0.027711807
163	0xbc45631c	-0.012047555
164	0x3bb3a1e2	0.0054819444
165	0x3cea848a	0.028627653
166	0x3ca51d90	0.020155698
167	0x3c3b543d	0.011433658
168	0x3cade68c	0.021228097
169	0x3b1d568a	0.002400788
170	0x3c7efd4e	0.015563322
171	0x3c4d79bc	0.012541231
172	0xbc6cffdf	-0.014465301
173	0x3cc4e9f5	0.02403734
174	0x3c9d7da7	0.019224955
175	0x3c914d97	0.017737193
176	0x3c7bcc2f	0.015368505
177	0x3c8e3076	0.017357092
178	0x3ca65869	0.02030583
179	0x3cb2a633	0.021807766
180	0xbc177a74	-0.009245504
181	0x3c818ec5	0.015815148
182	0xbc72ba32	-0.0148149
183	0x3c6bbea7	0.014388717
184	0x3cbaa40d	0.022783304
185	0x3aa38684	0.0012476002
186	0x3cae1065	0.021248052
187	0x3ce22a34	0.027608015
188	0x3c85900d	0.01630404
189	0x3c15fd28	0.009154595
190	0x3d0ba41f	0.034092065
191	0x3c4dbf01	0.012557746
192	0x3cf5a4c5	0.029985795
193	0x3d0a073e	0.033698313
194	0x3c1f89a4	0.009737406
195	0x3c7be994	0.015375514
196	0x3b8abcdc	0.0042339396
197	0x3c03566c	0.00801621
198	0x3c72a6b4	0.014810253
199	0x3c8f07b4	0.017459728
200	0x3cd5931b	0.026071122
201	0x3c192e03	0.009349349
202	0x3c1f8e53	0.009738523
203	0x3b30428f	0.002689514
204	0x3ce1dc04	0.027570732
205	0x3cbb3867	0.022854043
206	0x3d06fa52	0.032953568
207	0x3c2a5b05	0.010397677
208	0x3a09dec2	0.0005259329
209	0x3b02a144	0.0019932548
210	0x3c41e040	0.0118332505
211	0x3cbf9abd	0.023389215
212	0x3d27c854	0.040962532
213	0x3c835b41	0.016034724
214	0x3ca2261d	0.019793564
215	0x3c30a307	0.010781056
216	0x3cb60d8e	0.02222326
217	0x3b82362c	0.003973743
218	0x3c551b2e	0.013006968
219	0x3d122770	0.03568214
220	0x3ced2a5b	0.02895086
221	0xbd2b074f	-0.041755017
222	0x3d0d2c5c	0.034466133
223	0x3be9dddc	0.0071370434
224	0x3cb1492d	0.021641338
225	0x3c9b173b	0.018931976
226	0x3b789305	0.0037929427
227	0x3ced20d2	0.028946314
228	0x3cbb22a3	0.022843665
229	0x3cf358a2	0.02970535
230	0xbb5142ef	-0.0031930765
231	0x3d10da1c	0.035364255
232	0x3d1237d4	0.035697773
233	0x3c79f8e6	0.015257096
234	0x3c338360	0.010956615
235	0x3cbb035c	0.02282875
236	0x3ca2ef88	0.019889608
237	0x3bfd5a0b	0.007731681
238	0x3cd48881	0.025943996
239	0x3cc5a2a3	0.024125403
240	0xbcacc2cb	-0.021088978
241	0x3cabb01c	0.020957999
242	0xbb299485	-0.0025875878
243	0x3c8232f3	0.015893435
244	0x3c4ea5e1	0.012612791
245	0xbc8c48d7	-0.017124576
246	0x3c9de5bf	0.01927459
247	0x3cc4b147	0.024010314
248	0x3ce899b2	0.0283936
249	0x3c93458f	0.017977504
250	0x3b5cfe3c	0.0033720871
251	0x3d1608d3	0.03662951
252	0x3c7b66b9	0.015344315
253	0x3c341410	0.010991111
254	0xbbecbe74	-0.007224852
255	0x3bb79b78	0.00560325

network_body._body_endoder.seq_layers.2.weight f4 [256, 256]
0	0xbcf0c93c	-0.029392831
1	0x3dc09380	0.094031334
2	0x3d9b2301	0.07575036
3	0x3c49e1e9	0.012321928
4	0x3cc1e4bc	0.02366864
5	0xbd96958c	-0.073527426
6	0x3da67e5b	0.08129569
7	0x3d6b42a7	0.05743661
8	0xbc824fd5	-0.015907208
9	0x3c672045	0.014106815
10	0x3da14aa3	0.07875564
11	0xbceda592	-0.029009614
12	0xbdda91d3	-0.10672345
13	0xbe018713	-0.12649183
14	0x3de4eed7	0.111783676
15	0xbd66edee	-0.05637925
16	0x3d4385da	0.047735073
17	0x3c9f08f5	0.01941345
18	0x3d0be43c	0.034153208
19	0x3e0fe849	0.14053454
20	0x3d517e52	0.05114586
21	0x3d401c9e	0.04690229
22	0xbd8c699e	-0.068560824
23	0xbc4c5d8d	-0.012473476
24	0x3dfc1a65	0.12309722
25	0x3cb5b831	0.022182556
26	0xbb88a855	-0.0041704574
27	0x3d9f5e54	0.077816635
28	0xbd47e405	-0.04880144
29	0xbd9cd124	-0.07657078
30	0x3dae2669	0.0850342
31	0x3ddd4d65	0.108057775
32	0xbb8250d0	-0.0039769188
33	0x3b8f03e3	0.004364477
34	0x3d36a8c1	0.04459453
35	0xbd4858db	-0.048912864
36	0xbd85c452	-0.06531586
37	0xbce00ff2	-0.027351353
38	0xbcfeaa14	-0.031086959
39	0x3d083fcf	0.033263978
40	0xbb3dd988	-0.002896877
41	0xbcc67c6e	-0.024229255
42	0xbe17f078	-0.14837825
43	0xbdcb0044	-0.0991216
44	0xbd220a6e	-0.039560728
45	0x3afb19e2	0.0019157494
46	0xbd6e9c5b	-0.05825458
47	0x3a08f559	0.0005224548
48	0x3c3b2a03	0.011423591
49	0x3e234fb7	0.15948378
50	0x3d2a803a	0.041626193
51	0x3d12b16a	0.035813726
52	0x3bc12f5f	0.0058955397
53	0x3c9d02f7	0.019166453
54	0x3cef74f8	0.02923058
55	0x3cfea60a	0.031085033
56	0x3d473a09	0.04863933
57	0xbd841e06	-0.06451039
58	0xbe14ade5	-0.1451946
59	0x3d2ecb3c	0.04267429
60	0x3d9e26f8	0.077222764
61	0xbcb9ccc9	-0.022680657
62	0x3cc94cee	0.024572816
63	0x3c8830e0	0.016624868
64	0xbdcb6f78	-0.0993337
65	0xbc9941b1	-0.018708082
66	0x3e1e1ce5	0.1544071
67	0xbbdb9a55	-0.0067017474
68	0x3cab9c96	0.02094869
69	0xbe00ee05	-0.12590797
70	0xbb15fb91	-0.002288554
71	0xbcf95706	-0.030437004
72	0x3e227a8f	0.15867065
73	0xbdf78d0e	-0.12087451
74	0x3d3077da	0.04308305
75	0x3dc7594c	0.09733829
76	0x3d4f6bed	0.050640035
77	0xbd036ddd	-0.032087196
78	0xbd501b82	-0.050807483
79	0xbd844bd4	-0.064597756
80	0x3c9416b6	0.018077236
81	0xbd6b1955	-0.057397205
82	0xbcbbd54a	-0.022928853
83	0x3de73195	0.11288754
84	0x3cdab1df	0.026696144
85	0xbc9264ae	-0.017870273
86	0xbc9d805b	-0.019226244
87	0xbcf44794	-0.029819287
88	0xbc850c8a	-0.01624133
89	0x3e23cc0e	0.1599581
90	0x3a87fb9b	0.0010374667
91	0xbe086d82	-0.13323024
92	0xbd9000b9	-0.07031388
93	0xbcf16cd5	-0.02947084
94	0x3ce7d188	0.028298154
95	0x3ce0f1c5	0.027459035
96	0xbd411b7f	-0.047145363
97	0xbdb9b21b	-0.09067174
98	0xbcf2864e	-0.029605057
99	0x3d77e333	0.06051941
100	0xbd9108e9	-0.070817776
101	0xbc1a4911	-0.009416834
102	0x3c6bcdaa	0.014392296
103	0xbde4c5aa	-0.11170514
104	0x3df8951b	0.121378146
105	0xbe540d37	-0.20708166
106	0xbd9528c2	-0.072831646
107	0x3c46ac6d	0.01212607
108	0x3d0c296f	0.0342192
109	0xbd975ab4	-0.07390347
110	0x3d6b4811	0.057441775
111	0xbcea19db	-0.028576782
112	0x3e263956	0.1623281
113	0xbd1db103	-0.03849889
114	0x3d94144a	0.07230432
115	0x3dfec9ef	0.124408595
116	0xbcd42de4	-0.025900789
117	0x3cd6fa8d	0.026242519
118	0x3dcfc351	0.101446755
119	0x3ca3faab	0.020016989
120	0x3ba49bf2	0.005023473
121	0xbe009612	-0.12557247
122	0xbc3b10ee	-0.011417611
123	0xbd93e468	-0.072212994
124	0x3ca222c5	0.01979197
125	0x3d81e6c8	0.06342846
126	0x3b49a253	0.0030766919
127	0x3d0f14c2	0.034931906
128	0x3d8d4c51	0.06899322
129	0x3bc91abf	0.0061372216
130	0xbe2574cd	-0.16157837
131	0x3e00eeac	0.12591046
132	0x3dab3111	0.08358968
133	0xbdd04aed	-0.10170541
134	0x3c73ea0e	0.014887346
135	0x3c6b5517	0.014363549
136	0x3cbea497	0.023271842
137	0x3d23e8c6	0.040016912
138	0xbcc41776	-0.023936968
139	0xbd9a202e	-0.07525669
140	0x3b5fb279	0.0034133478
141	0x3d815d3e	0.06316613
142	0xbd94dc91	-0.07268632
143	0x3ce3fb8b	0.027829906
144	0xbdcec28b	-0.100957
145	0xbd959968	-0.073046505
146	0xbdbe0721	-0.092787035
147	0xbc417039	-0.011806541
148	0x3be3b491	0.0069490154
149	0x3e06b083	0.13153271
150	0x3d2648e8	0.040596873
151	0x3daf96a7	0.085736565
152	0x3c2e16c0	0.010625541
153	0x3dc6b7ef	0.09703051
154	0xbca3eb8b	-0.020009777
155	0x3d88d846	0.06681876
156	0x3d955d26	0.07293157
157	0x3d47a819	0.048744295
158	0x3c657e90	0.014007226
159	0x3d723b2e	0.05913847
160	0x3c66b09b	0.014080192
161	0xbb997e49	-0.004684244
162	0x3d8fc083	0.070191406
163	0xbde9b144	-0.11410764
164	0x3d03339f	0.03203165
165	0x3d61c9bf	0.05512404
166	0x3b35e35a	0.002775392
167	0xbbc8c065	-0.006126451
168	0x3dbcbb21	0.092153795
169	0x3daed26d	0.08536229
170	0xbd92d2f6	-0.07169144
171	0xbcc35995	-0.023846427
172	0xbc8a6c12	-0.016897235
173	0x3d52ff91	0.05151326
174	0x3da94c8a	0.08266552
175	0x3deaeea5	0.11471299
176	0x3d1f5c55	0.038906414
177	0x3a022d12	0.00049658224
178	0x3ddb490e	0.107072935
179	0x3df34cf0	0.11879909
180	0x3d2ed58b	0.04268412
181	0x3d362c5d	0.044475902
182	0xbd4fb794	-0.050712183
183	0xbd6d5b61	-0.057948474
184	0x3de1a24f	0.11017286
185	0x3c90d5a7	0.017680002
186	0xbd1aab4a	-0.03776101
187	0x3d08613a	0.033295847
188	0xbbcd829f	-0.0062716748
189	0xbd49571c	-0.04915534
190	0x3ccb400a	0.02481081
191	0xbe0b7ca8	-0.13621771
192	0x3c111a51	0.008856372
193	0xbcd31662	-0.025767509
194	0xbb0700a6	-0.0020599752
195	0x3a5e8727	0.0008488767
196	0xbda751ae	-0.08169876
197	0xbce011e2	-0.027352277
198	0xbc8563da	-0.016282964
199	0xbd67eb4b	-0.056620877
200	0x3d6ff682	0.058584698
201	0xbc375433	-0.011189508
202	0xbcb9ba01	-0.022671701
203	0xbd991473	-0.074746035
204	0x3cfb94a5	0.030710528
205	0xbe0d3b23	-0.1379209
206	0x3c96ba6c	0.01839944
207	0x3b3b6b00	0.0028597713
208	0xbce7f4c2	-0.028314952
209	0xbb9cd165	-0.004785704
210	0x3dc15002	0.094390884
211	0x3d2ce74f	0.04221278
212	0x3e24d013	0.16094999
213	0xbdcd2950	-0.10017645
214	0xbd14f5a4	-0.036367074
215	0xbe079846	-0.13241681
216	0xbaa50e52	-0.0012592769
217	0x3d8a41a8	0.06750804
218	0xbdc2824d	-0.09497509
219	0x3e30549c	0.17219776
220	0x3dfa9dda	0.12237139
221	0x3db2ebcc	0.08736381
222	0xbd19cd58	-0.037549347
223	0x3cbd375d	0.023097688
224	0xbd8d2a4b	-0.06892832
225	0xbe09b717	-0.1344875
226	0xbe2c690a	-0.16836944
227	0x3e11fd5b	0.14256804
228	0x3db5f257	0.08884113
229	0x3d89821e	0.06714271
230	0xbd18a358	-0.03726515
231	0xbde1b8f0	-0.11021602
232	0xbd211b28	-0.03933254
233	0x3d4fbcce	0.050717168
234	0xbd11ea53	-0.03562386
235	0xbbacd2f2	-0.00527417
236	0x3d8e0450	0.06934416
237	0xbe02fc4e	-0.12791559
238	0x3c029394	0.007969756
239	0xbd092cd4	-0.033490017
240	0x3d354bae	0.044261627
241	0x3d37d671	0.04488224
242	0xbcba9cbc	-0.022779815
243	0xbca7cf26	-0.020484518
244	0xbd0e1fb2	-0.034698196
245	0x3c826016	0.015914958
246	0xbd107eb0	-0.03527707
247	0xbdd0a70c	-0.10188112
248	0x3d595a29	0.0530645
249	0x3c430f4a	0.011905501
250	0x3d039abe	0.032129996
251	0x3c426f16	0.011867305
252	0xbd6ff907	-0.0585871
253	0xbda0feec	-0.078611225
254	0x3c6bbc6f	0.014388188
255	0x3d3bfb8e	0.045894198

network_body._body_endoder.seq_layers.2.bias f4 [256]
0	0x3caae2cd	0.0208601
1	0x3c2720c4	0.010200683
2	0x3cd59be2	0.026075307
3	0x3b9de6ca	0.004818772
4	0x3c23228f	0.00995697
5	0xbc230cac	-0.009951752
6	0x3c1e42d7	0.009659491
7	0x3c4cbdd6	0.012496432
8	0xbb90d66e	-0.0044200933
9	0xbbccf14b	-0.0062543503
10	0x3b4c29c6	0.0031152829
11	0x3c91f8e3	0.017818874
12	0x3c3b390c	0.011427175
13	0x3c43e128	0.011955537
14	0x3c00225f	0.007820695
15	0x3c733b41	0.01484567
16	0x3c549d71	0.01297699
17	0x3a856fa4	0.0010180366
18	0x3c85d09a	0.01633482
19	0x3c3e04d6	0.011597833
20	0x3cbaa5fb	0.022784224
21	0x3b437175	0.0029822264
22	0x3cc91e40	0.024550557
23	0x3c4072f5	0.011746158
24	0x3c6855c0	0.014180601
25	0x3cc28f65	0.023750016
26	0x3c9693d7	0.018381042
27	0x3cc830d1	0.02443734
28	0x3ce56bc8	0.028005496
29	0x3c21071d	0.009828356
30	0x3c565940	0.013082802
31	0x3cf71de9	0.03016563
32	0x3ca6b3dd	0.020349437
33	0x3c00cac6	0.007860845
34	0x3b172e83	0.0023068495
35	0x3ca958d3	0.020672238
36	0x3c712f2d	0.01472072
37	0x3c1834ea	0.009289959
38	0x3ce93033	0.028465366
39	0x3ca0e207	0.019639028
40	0x3c9cf567	0.019159986
41	0x3ce27401	0.027643206
42	0x3b9c4704	0.004769208
43	0x3c77f893	0.015134948
44	0xbbcbe024	-0.006221788
45	0x3ae9f93a	0.0017850765
46	0x3cf33b5d	0.029691393
47	0xbbcf8e0e	-0.006334073
48	0x3c0ac007	0.008468634
49	0x3cacf108	0.021111026
50	0x3c0143f9	0.007889741
51	0x3c885ebd	0.016646737
52	0x3c47d8d4	0.012197692
53	0x3c841433	0.016122913
54	0x3c858cd0	0.016302496
55	0x3c815acd	0.015790367
56	0x3ad70641	0.0016405062
57	0x3c88ab0d	0.016683126
58	0x3bb8c3b1	0.0056385626
59	0x3ca69ad3	0.020337498
60	0x3c8c071a	0.01709323
61	0x3c6dec49	0.014521667
62	0x3c82cb08	0.015965953
63	0x3c280158	0.010254227
64	0x3cab1535	0.020884136
65	0x3bf12748	0.007359419
66	0x3c947810	0.018123657
67	0x3c841941	0.016125323
68	0x3b9f5dc5	0.004863473
69	0x3cdef46f	0.027216164
70	0x3c8b79c9	0.017025845
71	0x3cf74bb3	0.030187463
72	0x3cbb972e	0.022899237
73	0x3cd9df26	0.026595663
74	0x3c9bd0a8	0.019020393
75	0x3ceefbcc	0.0291728
76	0xba0051cc	-0.0004895001
77	0x3c16a644	0.009194914
78	0x3ba88267	0.0051424983
79	0x3be3795a	0.0069419565
80	0x3cfd9126	0.030953001
81	0x3cb5cee4	0.02219338
82	0x3bfbf0e9	0.007688631
83	0x3cb42767	0.021991445
84	0x3c2abd44	0.010421101
85	0x3cb8b22b	0.022545895
86	0x3ccc10ad	0.024910295
87	0x3cc3b2d7	0.023888988
88	0x3c934938	0.01797925
89	0x3c97bd48	0.018522874
90	0x3c2de8f4	0.010614622
91	0x3b163754	0.0022921162
92	0x3cbe1b23	0.0232063
93	0xbbe8842f	-0.0070958356
94	0x3c8e059c	0.01733666
95	0x3c851cbd	0.016249055
96	0x3bbbd653	0.0057323365
97	0xba6d6d46	-0.00090571155
98	0x3ce3f0d5	0.027824799
99	0x3c596067	0.013267613
100	0x3b75165e	0.0037397365
101	0x3cbfdc79	0.02342056
102	0x3c375eab	0.011192004
103	0x3c92a9f6	0.01790331
104	0x3ce62f3b	0.028098693
105	0xbb0dddd1	-0.0021647105
106	0x3c8d0d12	0.017218146
107	0x3c17cbf1	0.009264932
108	0x3bd1d1a0	0.006403163
109	0x3c9a09db	0.018803528
110	0x3a97d7bb	0.0011584678
111	0x3ce18802	0.027530674
112	0x3c33cae8	0.01097367
113	0x3b5ea37e	0.003397196
114	0x3a51a4ca	0.0007997273
115	0x3c9f4598	0.019442365
116	0x3ca3fae7	0.0200171
117	0x3b9cd900	0.0047866106
118	0x3ca4914b	0.020088812
119	0x3c163ca8	0.009169735
120	0x3ced0e3f	0.028937457
121	0x3d1665c6	0.036718152
122	0x3bfd5a21	0.0077316915
123	0x3c74bf67	0.014938212
124	0x3bbd6251	0.0057795425
125	0x3cb9f4ec	0.022699796
126	0x3c96f5e1	0.018427791
127	0x3b04fb0c	0.0020291237
128	0x3bc3ba79	0.005973157
129	0x3c8e0c36	0.017339807
130	0x3c4460fa	0.011986012
131	0x3c9b00a1	0.018921198
132	0x3bcad950	0.0061904564
133	0xba32a5c0	-0.000681486
134	0x3cb7f45c	0.022455387
135	0x3c6ada17	0.014334223
136	0x3bb6060a	0.005554919
137	0x3b493bac	0.0030705733
138	0x3ceb4884	0.028721102
139	0x3c77cee2	0.015125008
140	0x3c175eef	0.0092389425
141	0x3b7382d1	0.003715683
142	0x3c5b208b	0.013374458
143	0x3bfacf51	0.0076541086
144	0x3c8cd588	0.017191663
145	0x3ba6f256	0.0050948067
146	0x3c420761	0.01184258
147	0x3c847a08	0.01617147
148	0x3bdd635a	0.0067562284
149	0x3c2ce802	0.010553362
150	0x3bd995de	0.00664018
151	0x3cb9fdf3	0.0227041
152	0x3c5bf0a1	0.01342407
153	0x3b9aa94a	0.004719888
154	0xbb85363c	-0.004065303
155	0x3be60ff7	0.007020946
156	0x3c300d3e	0.010745345
157	0x3d07bf36	0.033141337
158	0x3b880349	0.0041507822
159	0x3c7dd928	0.015493669
160	0x3c66f5b6	0.014096668
161	0x3ca55b41	0.020185115
162	0x3b9f52a9	0.004862149
163	0x3c2830f3	0.010265577
164	0x3b31a6c4	0.0027107457
165	0x3bc82bf3	0.006108755
166	0x3c901f58	0.01759307
167	0x3cd08239	0.02545272
168	0x3ca9ab7f	0.020711659
169	0x3bc278cc	0.0059348103
170	0x3c56a684	0.013101224
171	0x3cce6e6a	0.025199134
172	0x3c88a193	0.016678607
173	0x3a6a8bee	0.0008947243
174	0x3c3add93	0.0114053665
175	0x3ca9a115	0.020706693
176	0x3bdd32f4	0.006750459
177	0x3c33a13b	0.010963733
178	0x3c30ee91	0.010799066
179	0x3d01d5e5	0.031698126
180	0x3c5f6441	0.013634742
181	0x3ca45448	0.02005972
182	0xbbcb838e	-0.006210751
183	0x3c0da2e0	0.008644789
184	0x3c8607e3	0.016361183
185	0xbbd4fb65	-0.006499695
186	0x3c47dd63	0.012198779
187	0x3c777586	0.015103703
188	0x3c81d26e	0.015847411
189	0x3c3c3958	0.011488281
190	0x3c40cd9b	0.01176777
191	0x3c8dfdbe	0.017332908
192	0x3c9c2ba4	0.019063778
193	0x3c81cab9	0.015843736
194	0x3d1d30f9	0.038376782
195	0x3ca33c80	0.01992631
196	0x3d02d8ef	0.031945165
197	0x3c28c03a	0.010299737
198	0x3b145e40	0.0022639185
199	0x3c68d8b4	0.014211822
200	0x3c75513c	0.014972981
201	0x3be14c79	0.0068755713
202	0x3ca1e0ca	0.019760508
203	0x3bdd51b0	0.0067541227
204	0x3bc41725	0.0059842044
205	0x3c345bce	0.011008216
206	0xbaad4a04	-0.0013220911
207	0x3c251a5d	0.010077086
208	0x3c55d4fa	0.013051266
209	0x3c71796e	0.014738424
210	0x3c555d64	0.013022754
211	0x3c5a9f67	0.013343669
212	0x3c9124fa	0.017717827
213	0x3c220357	0.009888492
214	0x3c5a9c34	0.013342906
215	0x3c3e238b	0.011605154
216	0x3cbac69d	0.022799784
217	0x3c77dafc	0.015127894
218	0xbb864dbc	-0.004098622
219	0x3baac4cd	0.0052114488
220	0x3cd02326	0.025407385
221	0x3ca8110f	0.020515947
222	0x3c3549ab	0.011064927
223	0x3cd0ef42	0.025504712
224	0x3bf5051d	0.007477416
225	0x3cb7a30d	0.022416616
226	0xbb9f2ccb	-0.0048576347
227	0x3ceedbaa	0.029157478
228	0x3c8fc064	0.017547794
229	0x3ce9af33	0.028525924
230	0x3c36021f	0.011108904
231	0x3c83bbcb	0.016080758
232	0x3c906eaf	0.017630903
233	0x3c8ede10	0.017439872
234	0x3aadd382	0.0013261887
235	0x3bd8bd4f	0.006614364
236	0x3cce31d9	0.025170254
237	0x3cbc92fc	0.023019306
238	0x3ca0c22f	0.019623844
239	0x3d072bca	0.033000745
240	0x3ce9905b	0.028511217
241	0x3c8c05d1	0.017092617
242	0x3b9561b3	0.004558766
243	0x3c88ed83	0.016714817
244	0x3b89e0b8	0.0042076968
245	0x3b2c94b3	0.0026333749
246	0x3c960bc9	0.018316166
247	0xb93386d9	-0.00017121005
248	0x3bdfa6b4	0.0068252925
249	0x3c7e748b	0.015530716
250	0x3c8972f9	0.016778456
251	0x3ca802f2	0.020509217
252	0x3c6530e6	0.013988709
253	0x3c78eeb5	0.015193631
254	0x3c9041b8	0.017609462
255	0x3bd51a98	0.0065034144

action_model._discrete_distribution.branches.0.weight f4 [4, 256]
0	0xbd0b4465	-0.034000773
1	0xbadbadda	-0.0016760186
2	0xbc45cd26	-0.012072837
3	0xbc0a4e89	-0.008441576
4	0xbc8746b4	-0.016513206
5	0x3b0c3c1b	0.002139813
6	0x3cadf2c5	0.021233926
7	0xbb47c869	-0.0030484444
8	0x3c032663	0.008004758
9	0x3b812006	0.003940585
10	0x3c80f2d8	0.015740797
11	0xbb3adc7e	-0.0028512771
12	0xbcf9d605	-0.03049756
13	0xbcd97da7	-0.026549174
14	0xbca8dcbd	-0.020613069
15	0xbc7b256d	-0.015328747
16	0x3a99db12	0.0011738262
17	0xbaebd6fc	-0.0017993147
18	0xba99a696	-0.001172262
19	0xbc7f6bc6	-0.01558966
20	0xbc5b0800	-0.013368607
21	0x3cb2b0eb	0.021812877
22	0xbc08de07	-0.008353717
23	0xbc6b65c7	-0.014367527
24	0x3cbbf9d5	0.022946278
25	0x3d01a11a	0.03164778
26	0xbbc4dd88	-0.006007854
27	0x3b6a1837	0.003572
28	0x3c0f06d7	0.008729658
29	0xbca6312e	-0.020287123
30	0xbc0d9a84	-0.008642796
31	0x3c265392	0.010151761
32	0xbbf8ba12	-0.0075905407
33	0x3c5b512f	0.013386055
34	0x3c2e35d9	0.0106329555
35	0xbccaa183	-0.024735218
36	0x3c6897ec	0.014196377
37	0x3b818335	0.0039524087
38	0xbb601d5e	-0.0034197192
39	0xbc5386a8	-0.0129105225
40	0x3c7ca2e9	0.0154197
41	0xbbe85e4a	-0.0070913183
42	0x3ce84fe9	0.028358417
43	0xbcc03eaa	-0.02346738
44	0x3b676da6	0.0035313158
45	0x3cac2ff7	0.021018965
46	0x3b503af7	0.0031773427
47	0xbc680888	-0.01416219
48	0x3cf561a9	0.029953795
49	0xbb4f06e6	-0.0031589805
50	0x3cf6c7d3	0.03012458
51	0xbc36cf3d	-0.011157808
52	0x3cb7301d	0.02236181
53	0xbc239806	-0.009984976
54	0x3bbc4cbc	0.005746452
55	0x3a39b7f6	0.0007084602
56	0xbc3d4a51	-0.011553363
57	0xbcd89b04	-0.026441105
58	0x3c3f036c	0.011658531
59	0xbcbc418e	-0.022980478
60	0x3c9bfbea	0.01904102
61	0x3bb02a8c	0.0053761657
62	0x3c87201d	0.016494805
63	0x3c1542cf	0.009110167
64	0xbd0bcfe9	-0.034133825
65	0x3af6f7ad	0.0018842124
66	0x3c8e83b8	0.017396793
67	0xbcba21ba	-0.02272116
68	0x3a4d4288	0.00078300433
69	0x3ce2d95e	0.02769154
70	0xbca55b1b	-0.020185044
71	0xb9ab26fe	-0.00032644713
72	0x3bd8a221	0.006611124
73	0xbc74616c	-0.014915805
74	0x3c81e0ef	0.015854327
75	0xbcacc23f	-0.021088718
76	0xbc9da5f6	-0.019244175
77	0x3caac126	0.020844053
78	0x3d0597f7	0.032615628
79	0x3c06ba1e	0.008223085
80	0x3ca60eaa	0.020270664
81	0xbcc8056e	-0.024416652
82	0x3c925de5	0.017867038
83	0x3ac46eb0	0.0014986601
84	0x3c995e6b	0.01872178
85	0x3c21791e	0.009855537
86	0xbc521629	-0.012822666
87	0xba9b3d0e	-0.0011843757
88	0x3d0ff16d	0.03514235
89	0x3ce48b0d	0.027898336
90	0xbcbe481a	-0.02322774
91	0xbc501172	-0.012699472
92	0xbb6dd28e	-0.003628883
93	0x3c22b639	0.009931141
94	0xbc51fd0a	-0.012816677
95	0xbba440f3	-0.0050126254
96	0x3c5737a6	0.013135826
97	0x3ba80271	0.005127244
98	0x3ba62618	0.005070459
99	0xbbeb2db2	-0.007177078
100	0xbc43849a	-0.01193347
101	0x399a2732	0.00029402372
102	0xbb5e7058	-0.0033941474
103	0x3cc0fa98	0.023556992
104	0xbce5e6c7	-0.028064145
105	0x3baa9ead	0.005206904
106	0x3c325267	0.010883904
107	0x3c879b7d	0.016553635
108	0x3cb22b3a	0.021749128
109	0x3a429ba8	0.0007423707
110	0x3b78bc24	0.0037953937
111	0x3acac7f0	0.0015470963
112	0xbcc3df07	-0.023910059
113	0xbc908531	-0.017641636
114	0xba9e21d1	-0.0012064521
115	0x3b7dfc88	0.0038755257
116	0x3ccaf812	0.024776492
117	0xbcedcf82	-0.029029611
118	0xbcd6df6e	-0.026229586
119	0x3c90d4d5	0.017679611
120	0x3bb21b4f	0.0054353843
121	0x3b908914	0.0044108722
122	0x3c9877ea	0.018611867
123	0x3c19fe88	0.009399064
124	0x3c06b93f	0.008222877
125	0xba7097cd	-0.00091778935
126	0x3b9be359	0.0047573266
127	0x3c9b4224	0.018952437
128	0x3cc5fbb5	0.024167875
129	0x3cf8f2f3	0.030389285
130	0x3a8f3c06	0.0010927923
131	0x3c765166	0.015034055
132	0x3abae7aa	0.0014259715
133	0xbcd50ed7	-0.026008053
134	0xbca4ae94	-0.020102777
135	0xbbae1bf6	-0.005313392
136	0x3cc2c013	0.023773229
137	0xba89b530	-0.0010506269
138	0xbc13e27d	-0.009026167
139	0xba5a33fc	-0.00083237863
140	0xbbbce38e	-0.0057644313
141	0x3ce0b6e7	0.027430965
142	0x3ccfb6c9	0.025355713
143	0x3cd3fe0c	0.025877975
144	0x3aee658e	0.0018188225
145	0x3c1f34af	0.009717151
146	0x3c86df57	0.016463919
147	0xbc228342	-0.00991899
148	0x3c9ecb2c	0.01938399
149	0xbd1e5c51	-0.03866226
150	0xbc123dc0	-0.008925855
151	0xbaeaad43	-0.0017904419
152	0xbca63859	-0.02029054
153	0xbbd9d640	-0.006647855
154	0xbb9b6dde	-0.004743322
155	0x3cb5784d	0.02215209
156	0xbb9ca2ea	-0.004780163
157	0x3c090ac4	0.008364383
158	0x3ca1cf73	0.01975224
159	0x3d099246	0.033586763
160	0xbcc28a89	-0.0237477
161	0x3b9b51b7	0.004739966
162	0xbc8acf3b	-0.016944518
163	0x3bd74971	0.006570034
164	0x3b888c08	0.0041670837
165	0xbc202b67	-0.009775973
166	0xbd18ddb0	-0.037320793
167	0xbb458c26	-0.003014335
168	0xbc6617bb	-0.014043744
169	0xbd0b35dd	-0.033986915
170	0x3cb611e0	0.02222532
171	0xbc960257	-0.018311663
172	0xba4b97cf	-0.00077664567
173	0x3cd58b41	0.026067378
174	0xbcc63f99	-0.024200248
175	0xbc23eab0	-0.010004684
176	0x3c6f949a	0.014622832
177	0x3c069d33	0.00821619
178	0xbc2b83c0	-0.010468423
179	0xbcdbe4e2	-0.026842538
180	0x3c9537d4	0.018215097
181	0x3cdc7f6b	0.026916226
182	0x3baf3154	0.0053464565
183	0xbb1c7e63	-0.0023879043
184	0x3c83d4b5	0.016092638
185	0x3bc17cba	0.005904761
186	0xbc2a40c7	-0.010391421
187	0x3c8e0272	0.01733515
188	0x3c2d05a4	0.010560427
189	0x3ae2af9e	0.001729477
190	0xbc01107b	-0.007877464
191	0x3b80a2c9	0.0039256555
192	0x3d09a2d9	0.03360257
193	0x3ccf254a	0.025286335
194	0x3a9d583e	0.0012004448
195	0x3cd0432c	0.025422655
196	0x3c42e267	0.011894799
197	0x3b89e295	0.004207919
198	0x3c7cb222	0.01542333
199	0xbc649514	-0.013951559
200	0x3a3dd4a9	0.00072414667
201	0x3cbf2c51	0.023336561
202	0x3c4d84fd	0.012543914
203	0x3b81cac0	0.0039609373
204	0xbcb0cb16	-0.021581214
205	0x3c321230	0.010868594
206	0x3c0dfcec	0.008666258
207	0xbc4d0572	-0.012513505
208	0x3c526bb2	0.012843059
209	0xbbdb9cd5	-0.0067020454
210	0xba145e5c	-0.00056598126
211	0x3b72ac4e	0.003702897
212	0xbb821d24	-0.003970759
213	0x3c816c4f	0.015798716
214	0xbc28128a	-0.010258326
215	0xbaddf065	-0.0016932605
216	0xbc156f60	-0.009120792
217	0xbc8194da	-0.015818048
218	0xbbc44b0c	-0.0059903916
219	0x3bc72f92	0.006078669
220	0xbb74cdbc	-0.0037354073
221	0x3c666c02	0.014063837
222	0xbc89372e	-0.016749945
223	0xbb26e7a7	-0.0025467665
224	0xbc3f0503	-0.01165891
225	0xbd092aaf	-0.033487972
226	0xbb018f0f	-0.0019769107
227	0x3c04740e	0.00808431
228	0x3ced70a5	0.028984377
229	0x3cbc010c	0.022949718
230	0x3cdc1e65	0.026869962
231	0xba4888ed	-0.0007649798
232	0xbc295c6a	-0.010336975
233	0xbcc05912	-0.023479972
234	0xbc3f9c5a	-0.011694992
235	0x3c810a9e	0.015752133
236	0xba4bc3ea	-0.0007773029
237	0x3b312d1a	0.002703494
238	0xbcdca24b	-0.026932856
239	0x3ba5ba80	0.005057633
240	0xbc198aeb	-0.0093714995
241	0xbac95adc	-0.0015362161
242	0xbcafb257	-0.021447344
243	0x3c5e3831	0.013563202
244	0x3ae970c0	0.0017810091
245	0xbc7eaf40	-0.015544713
246	0x3c8c5e77	0.017134888
247	0x3cb959a4	0.022625752
248	0x3b758b47	0.003746705
249	0xbcf020b1	-0.029312463
250	0x3bc3fda6	0.005981165
251	0xbd0cb6bd	-0.03435396
252	0x3c4b9b1d	0.012427119
253	0xbcdad86e	-0.02671453
254	0xbbf023b9	-0.007328477
255	0xbc757625	-0.014981781

action_model._discrete_distribution.branches.0.bias f4 [4]
0	0x3ae45284	0.0017419611
1	0xbb887c9e	-0.004165246
2	0xbb222801	-0.0024743082
3	0x3b850b43	0.0040601804

onnx::Div_62 f4 [202]
0	0x3ea8613f	0.32886693
1	0x3e74366f	0.2384889
2	0x3eae757c	0.34074008
3	0x3e7f56f6	0.24935517
4	0x3eae6212	0.34059197
5	0x3e813c26	0.25241202
6	0x3eae757c	0.34074008
7	0x3e7e7b37	0.2485169
8	0x3eae6212	0.34059197
9	0x3e80d1f6	0.25160187
10	0x3e93df65	0.28881374
11	0x3e72b168	0.23700488
12	0x3e8f671c	0.28008354
13	0x3e748a72	0.23880938
14	0x3e9182cf	0.28420112
15	0x3e7045c7	0.23464118
16	0x3e8ce4d9	0.27518347
17	0x3e720d63	0.23637919
18	0x3e8ebe1e	0.27879423
19	0x3e6943c0	0.22779751
20	0x3e8ac1aa	0.2710088
21	0x3e6aff39	0.22948922
22	0x3e978340	0.29592323
23	0x3e6bd9d0	0.23032308
24	0x3e928196	0.2861449
25	0x3e6da44b	0.23207204
26	0x3e8f43b0	0.2798133
27	0x3e654f87	0.22393619
28	0x3e8d761f	0.27629182
29	0x3e684232	0.22681502
30	0x3e92c1e2	0.28663546
31	0x3e665797	0.2249435
32	0x3e9108f0	0.2832713
33	0x3e68dabe	0.22739694
34	0x3e8f8aa0	0.2803545
35	0x3e65d5e0	0.22444868
36	0x3e8cf290	0.2752881
37	0x3e680a87	0.22660266
38	0x3e90a007	0.2824709
39	0x3e631ea1	0.22179653
40	0x3e8f12d3	0.2794405
41	0x3e65abf6	0.22428879
42	0x3e6b9466	0.23005828
43	0x3e03a985	0.12857635
44	0x3e67c9e7	0.22635613
45	0x3e0a67db	0.1351618
46	0x3e655faf	0.22399782
47	0x3dff64bf	0.12470388
48	0x3e6695ad	0.22518034
49	0x3e08f8c8	0.13376153
50	0x3e60d464	0.2195602
51	0x3dfcb343	0.12338879
52	0x3e6463e7	0.22303735
53	0x3e08a33e	0.13343522
54	0x3e5ce7d2	0.21572807
55	0x3dfce5ce	0.12348519
56	0x3e5fd1f2	0.21857432
57	0x3e09a59b	0.1344208
58	0x3e8d7f2b	0.27636084
59	0x3e6aaa62	0.22916558
60	0x3e8f6b9c	0.28011787
61	0x3e6ad4d8	0.22932756
62	0x3e8d248f	0.27566954
63	0x3e6db52e	0.23213646
64	0x3e8f3f1c	0.27977836
65	0x3e6e0392	0.2324355
66	0x3e8fccf6	0.2808606
67	0x3e6db738	0.23214424
68	0x3e927035	0.28601232
69	0x3e6f0e5d	0.23345323
70	0x3e8eb09e	0.27869123
71	0x3e6e0966	0.23245773
72	0x3e90cbd0	0.28280497
73	0x3e6f3418	0.23359716
74	0x3e98832a	0.2978757
75	0x3e73cd89	0.23808874
76	0x3e9f2306	0.31081408
77	0x3e7a5bdd	0.24449106
78	0x3e9494f4	0.29019892
79	0x3e728c5a	0.23686352
80	0x3e99e468	0.30057073
81	0x3e78c81a	0.24295083
82	0x3e982a23	0.29719648
83	0x3e7a5c28	0.24449217
84	0x3e9e5de3	0.30931005
85	0x3e80f2cb	0.25185236
86	0x3e980dbf	0.29697987
87	0x3e7a8c18	0.24467504
88	0x3ea114bc	0.31461132
89	0x3e8246bd	0.25444594
90	0x3eb37d5e	0.35056585
91	0x3e832463	0.25613698
92	0x3eb96f9b	0.3621796
93	0x3e87aca0	0.2649889
94	0x3eb37d5e	0.35056585
95	0x3e83a30b	0.2571033
96	0x3eb96f9b	0.3621796
97	0x3e882619	0.26591566
98	0x3eb11389	0.34585217
99	0x3e8157b3	0.25262222
100	0x3eb6a369	0.35671547
101	0x3e85abfe	0.26107782
102	0x3eb5516e	0.35413688
103	0x3e85eaf7	0.26155826
104	0x3ebabaff	0.36470792
105	0x3e8a262b	0.26982245
106	0x3eb5516e	0.35413688
107	0x3e857580	0.26066208
108	0x3ebabaff	0.36470792
109	0x3e89b441	0.26895335
110	0x3e95a93d	0.2923068
111	0x3e7e0839	0.24807824
112	0x3e9ee688	0.31035256
113	0x3e83defa	0.25756055
114	0x3e94dc52	0.2907434
115	0x3e7d0e36	0.24712452
116	0x3e9bd5d5	0.30436578
117	0x3e827f66	0.25487822
118	0x3e90323e	0.28163332
119	0x3e747199	0.23871459
120	0x3e957736	0.29192513
121	0x3e7b248e	0.24525663
122	0x3e96c6a2	0.2944842
123	0x3e76b71a	0.24093285
124	0x3e9c6dbe	0.30552477
125	0x3e7e233c	0.24818128
126	0x3e90a8e8	0.28253865
127	0x3e71e16d	0.2362115
128	0x3e91348d	0.28360406
129	0x3e73ec15	0.23820527
130	0x3e91a9eb	0.2844995
131	0x3e717c81	0.2358265
132	0x3e930ef4	0.28722346
133	0x3e73d5b1	0.23811986
134	0x3e8d882d	0.27642956
135	0x3e6f4803	0.23367314
136	0x3e9108e4	0.28327096
137	0x3e73649f	0.23768853
138	0x3e8d83aa	0.27639514
139	0x3e6b94b9	0.23005952
140	0x3e90d8f4	0.28290522
141	0x3e6fc495	0.23414834
142	0x3e566bf4	0.20939618
143	0x3dfb657a	0.122752145
144	0x3e5c5daa	0.21520105
145	0x3e12f4a7	0.1435114
146	0x3e541f00	0.2071495
147	0x3df6a140	0.12042475
148	0x3e5bd2f3	0.2146719
149	0x3e109ede	0.14123103
150	0x3e56b9dc	0.20969337
151	0x3df75b61	0.12077976
152	0x3e5d6504	0.21620566
153	0x3e10bfc0	0.14135647
154	0x3e53cfde	0.20684764
155	0x3df5e38b	0.12006291
156	0x3e5c057b	0.21486466
157	0x3e1218b1	0.14267232
158	0x3e96f802	0.2948609
159	0x3e7dc61e	0.24782607
160	0x3e9dd09d	0.30823222
161	0x3e83bcde	0.25730032
162	0x3e969d68	0.29416966
163	0x3e80abdd	0.2513112
164	0x3e9d3314	0.30703032
165	0x3e859afb	0.26094803
166	0x3e99d866	0.3004791
167	0x3e81843a	0.25296193
168	0x3ea12adb	0.3147801
169	0x3e8631ef	0.2620997
170	0x3e98ab8e	0.29818386
171	0x3e81c9d4	0.25349295
172	0x3e9f414c	0.31104505
173	0x3e865f2f	0.26244494
174	0x3ea5da1a	0.3239296
175	0x3e862563	0.262004
176	0x3ea7bf48	0.32763124
177	0x3e8a0d7b	0.2696341
178	0x3ea0ec00	0.31430054
179	0x3e859687	0.26091406
180	0x3ea1f211	0.31629995
181	0x3e890757	0.26763412
182	0x3ea7a3ac	0.3274206
183	0x3e8ac940	0.27106667
184	0x3ea7c635	0.32768407
185	0x3e8de307	0.2771227
186	0x3eaac390	0.33352327
187	0x3e8c631c	0.27419364
188	0x3eaad7bd	0.3336772
189	0x3e8f5367	0.27993318
190	0x3ec546ae	0.38530487
191	0x3e919e34	0.28441012
192	0x3ec82881	0.39093402
193	0x3e94b238	0.2904222
194	0x3ec546ae	0.38530487
195	0x3e921b30	0.28536367
196	0x3ec82881	0.39093402
197	0x3e9521a0	0.29127216
198	0x3ec1bb5f	0.37838265
199	0x3e8ea4e0	0.27860165
200	0x3ec1bb5f	0.37838265
201	0x3e8ea4e0	0.27860165

onnx::Div_65 f4 [10]
0	0x41b44e95	22.53837
1	0x4126a3e7	10.415015
2	0x3b9cb945	0.004782828
3	0x3b9cb945	0.004782828
4	0x3b9cb945	0.004782828
5	0x3b9cb945	0.004782828
6	0x3b9cb945	0.004782828
7	0x3b9cb945	0.004782828
8	0x3b9cb945	0.004782828
9	0x3b9cb945	0.004782828
