results/GameAddedRewards4/PlayerBehaviour.onnx (onnx, 490727 bytes, 10 tensors)

network_body.observation_encoder.processors.0.normalizer.running_mean f4 [202]
0	0x00000000	0.0
1	0x3eaaae3f	0.33336064
2	0x00000000	0.0
3	0x3d3a48f7	0.04547974
4	0x00000000	0.0
5	0x3e0b5054	0.13604861
6	0x00000000	0.0
7	0x3d3077be	0.043082945
8	0x00000000	0.0
9	0x3e0942f5	0.13404448
10	0x00000000	0.0
11	0x3d2b2531	0.041783515
12	0x00000000	0.0
13	0x3e070e65	0.13189085
14	0x00000000	0.0
15	0x3d266851	0.040626828
16	0x00000000	0.0
17	0x3e02412c	0.12720174
18	0x00000000	0.0
19	0x3d20e514	0.039280966
20	0x00000000	0.0
21	0x3df54ce1	0.11977554
22	0x00000000	0.0
23	0x3d1adaf7	0.037806477
24	0x00000000	0.0
25	0x3de75d67	0.11297112
26	0x00000000	0.0
27	0x3d1b6786	0.037940525
28	0x00000000	0.0
29	0x3de4c09c	0.1116955
30	0x00000000	0.0
31	0x3d1941ab	0.03741614
32	0x00000000	0.0
33	0x3de00552	0.10938515
34	0x00000000	0.0
35	0x3d100f7e	0.035171025
36	0x00000000	0.0
37	0x3dcd8778	0.10035604
38	0x00000000	0.0
39	0x3d0eae81	0.03483439
40	0x00000000	0.0
41	0x3dcabff4	0.098998934
42	0x00000000	0.0
43	0x3d0fb51f	0.03508484
44	0x00000000	0.0
45	0x3dc80edd	0.0976846
46	0x00000000	0.0
47	0x3d14dfd9	0.03634629
48	0x00000000	0.0
49	0x3dcfa8b7	0.10139602
50	0x00000000	0.0
51	0x3d13ec4b	0.03611402
52	0x00000000	0.0
53	0x3dcf8364	0.10132483
54	0x00000000	0.0
55	0x3d0d41ad	0.03448646
56	0x00000000	0.0
57	0x3dc60d87	0.09670549
58	0x00000000	0.0
59	0x3d0ab3d2	0.033862896
60	0x00000000	0.0
61	0x3dc9c2d9	0.09851617
62	0x00000000	0.0
63	0x3d0b2705	0.03397276
64	0x00000000	0.0
65	0x3dc9f62f	0.09861409
66	0x00000000	0.0
67	0x3d12d791	0.03585011
68	0x00000000	0.0
69	0x3dd9089c	0.10597345
70	0x00000000	0.0
71	0x3d132140	0.03592038
72	0x00000000	0.0
73	0x3ddbf48a	0.107400015
74	0x00000000	0.0
75	0x3d119818	0.03554544
76	0x00000000	0.0
77	0x3dd977eb	0.10618576
78	0x00000000	0.0
79	0x3d15fb37	0.03661653
80	0x00000000	0.0
81	0x3de4af7f	0.11166286
82	0x00000000	0.0
83	0x3d188356	0.037234627
84	0x00000000	0.0
85	0x3ded18ea	0.115770176
86	0x00000000	0.0
87	0x3d1c6d6d	0.038190294
88	0x00000000	0.0
89	0x3df63308	0.12021452
90	0x00000000	0.0
91	0x3d1efa23	0.038812768
92	0x00000000	0.0
93	0x3dfdf74a	0.12400682
94	0x00000000	0.0
95	0x3d2492ca	0.04017905
96	0x00000000	0.0
97	0x3e0187fa	0.12649527
98	0x00000000	0.0
99	0x3e232059	0.15930308
100	0x00000000	0.0
101	0x3eba2e2d	0.36363354
102	0x00000000	0.0
103	0x3d2c1d5b	0.042020183
104	0x00000000	0.0
105	0x3d5fccc8	0.054638654
106	0x00000000	0.0
107	0x3d26896e	0.040658407
108	0x00000000	0.0
109	0x3d54cecf	0.05195504
110	0x00000000	0.0
111	0x3d244607	0.040105846
112	0x00000000	0.0
113	0x3d4f4a82	0.050608166
114	0x00000000	0.0
115	0x3d1f6590	0.038915217
116	0x00000000	0.0
117	0x3d4a1b58	0.049342483
118	0x00000000	0.0
119	0x3d1d4ffb	0.038406353
120	0x00000000	0.0
121	0x3d45932d	0.04823606
122	0x00000000	0.0
123	0x3d17c6ae	0.03705471
124	0x00000000	0.0
125	0x3d3c87ce	0.04602795
126	0x00000000	0.0
127	0x3d187416	0.037220083
128	0x00000000	0.0
129	0x3d3e3adb	0.046442848
130	0x00000000	0.0
131	0x3d187883	0.037224304
132	0x00000000	0.0
133	0x3d3d069d	0.046148885
134	0x00000000	0.0
135	0x3d0f39ea	0.03496734
136	0x00000000	0.0
137	0x3d34b550	0.044118226
138	0x00000000	0.0
139	0x3d0e751b	0.03477965
140	0x00000000	0.0
141	0x3d331371	0.043719713
142	0x00000000	0.0
143	0x3d122b81	0.03568602
144	0x00000000	0.0
145	0x3d35a10f	0.04434305
146	0x00000000	0.0
147	0x3d19452f	0.037419494
148	0x00000000	0.0
149	0x3d3f44e0	0.046696544
150	0x00000000	0.0
151	0x3d1a3270	0.037645757
152	0x00000000	0.0
153	0x3d3fb06b	0.046799105
154	0x00000000	0.0
155	0x3d14b732	0.03630752
156	0x00000000	0.0
157	0x3d367d4e	0.044553094
158	0x00000000	0.0
159	0x3d128e53	0.035780262
160	0x00000000	0.0
161	0x3d343578	0.043996304
162	0x00000000	0.0
163	0x3d158284	0.036501423
164	0x00000000	0.0
165	0x3d35e3f1	0.044406835
166	0x00000000	0.0
167	0x3d1e7ca9	0.038693104
168	0x00000000	0.0
169	0x3d4117fa	0.047142006
170	0x00000000	0.0
171	0x3d21245a	0.03934131
172	0x00000000	0.0
173	0x3d4270b6	0.04747077
174	0x00000000	0.0
175	0x3d214cf9	0.039380047
176	0x00000000	0.0
177	0x3d421779	0.047385667
178	0x00000000	0.0
179	0x3d28b7f3	0.041191053
180	0x00000000	0.0
181	0x3d4d0c56	0.050060593
182	0x00000000	0.0
183	0x3d30d57e	0.043172352
184	0x00000000	0.0
185	0x3d5250d3	0.05134661
186	0x00000000	0.0
187	0x3d355885	0.044273872
188	0x00000000	0.0
189	0x3d5756de	0.052573077
190	0x00000000	0.0
191	0x3d380bf0	0.04493326
192	0x00000000	0.0
193	0x3d59668a	0.053076304
194	0x00000000	0.0
195	0x3d3e4199	0.046449278
196	0x00000000	0.0
197	0x3d5f6419	0.05453882
198	0x00000000	0.0
199	0x3e3d5602	0.1848984
200	0x00000000	0.0
201	0x3e3d5602	0.1848984

network_body.observation_encoder.processors.1.normalizer.running_mean f4 [10]
0	0x420f62cd	35.846485
1	0x41599de7	13.60105
2	0x00000000	0.0
3	0x00000000	0.0
4	0x00000000	0.0
5	0x00000000	0.0
6	0x00000000	0.0
7	0x00000000	0.0
8	0x00000000	0.0
9	0x00000000	0.0

network_body._body_endoder.seq_layers.0.weight f4 [256, 212]
0	0xbe450527	-0.19240247
1	0x3d8654f8	0.06559175
2	0xbd4ec9f5	-0.05048557
3	0xbd90321b	-0.07040807
4	0xbe093af4	-0.13401395
5	0xbe074fd3	-0.13214044
6	0x3d7ddec1	0.061980013
7	0x3db75364	0.089514524
8	0x3dc1a953	0.09456124
9	0x3d92c56c	0.071665615
10	0x3d0aab4d	0.03385477
11	0xbd9016af	-0.070355766
12	0x3d812ad9	0.06307001
13	0xbdce257b	-0.100657426
14	0x3c8c5dfe	0.017134663
15	0x3d931dd8	0.071834266
16	0xbd3f4242	-0.046694048
17	0xbc9d4890	-0.01919964
18	0x3db9ddf8	0.0907554
19	0x3d8f3d94	0.06994167
20	0x3cfd5de5	0.030928561
21	0xbda39fb8	-0.07989448
22	0x3d0abba6	0.03387036
23	0x3c20ab5b	0.009806479
24	0x3df3e427	0.11908751
25	0x3ce85f0d	0.028365636
26	0xbcb99ce7	-0.022657825
27	0x3d187f96	0.03723105
28	0xbdf15347	-0.11783462
29	0xbb62263c	-0.0034507653
30	0x3ded4ba0	0.1158669
31	0xbe12d5fa	-0.14339438
32	0x3baa5ad3	0.0051988154
33	0x3c93d9dd	0.018048221
34	0xbdfcb179	-0.12338538
35	0xbd1eafc6	-0.03874185
36	0x3e1cd5a4	0.15315872
37	0x3d77c77f	0.06049299
38	0x3d31abb9	0.043376658
39	0xbdc1a8f1	-0.09456051
40	0xbc5994bf	-0.013280093
41	0x3da306a0	0.07960248
42	0x3bd1a73a	0.006398109
43	0xbc550e5f	-0.013003915
44	0xbd9ac00f	-0.075561635
45	0x3dc73ad5	0.09728018
46	0x3d16be57	0.036802616
47	0xbde307e8	-0.11085492
48	0x3e4159d0	0.18881917
49	0x3cf16c37	0.029470546
50	0x3dc47609	0.09592826
51	0x3dbdaeed	0.0926188
52	0x3dab38f3	0.083604716
53	0x3b60e345	0.003431515
54	0xb9825594	-0.00024859293
55	0x3cc4d0ed	0.024025405
56	0xbb005729	-0.0019583202
57	0x3d57d9d0	0.052697957
58	0xbc81bf66	-0.015838336
59	0x3d42e6a5	0.04758324
60	0xbca13d9a	-0.019682694
61	0xbd86d654	-0.065838486
62	0x3dbc1aa4	0.09184769
63	0xbd466d91	-0.048444334
64	0x3dcd8f65	0.10037116
65	0x3d2222ef	0.039584097
66	0x3d0d5a20	0.034509778
67	0xbda5aef5	-0.08090011
68	0xbcf78c1e	-0.03021818
69	0xbc2d66ed	-0.010583621
70	0xbda7c829	-0.081924744
71	0x3d374d0a	0.044751205
72	0xbda8367d	-0.08213518
73	0xbbbedfd7	-0.0058250236
74	0x3d23a5b1	0.039952938
75	0xbcaf02f1	-0.021363707
76	0xbd483d2d	-0.048886467
77	0xbab6d42e	-0.0013948733
78	0x3c9593ee	0.018259015
79	0xbcb931b5	-0.02260671
80	0xbdc53a1e	-0.096302256
81	0xbcf2962a	-0.02961262
82	0xbc42c76a	-0.011888364
83	0x3caf2d15	0.021383801
84	0xbd590505	-0.052983303
85	0xbba2ab70	-0.0049642846
86	0x3d90a73f	0.0706315
87	0x3dae0e9a	0.08498879
88	0x3c890711	0.016727002
89	0x3b905de1	0.0044057225
90	0x3dddaa89	0.108235426
91	0x3d64c695	0.055853445
92	0xbd6ab1b8	-0.057298392
93	0xbdadde9e	-0.084897265
94	0x3d107d21	0.035275582
95	0x3e03fd1b	0.12889521
96	0x3db4c3ee	0.08826433
97	0x3cfaf80e	0.03063586
98	0x3d65837c	0.056033596
99	0x3d27291b	0.040810686
100	0x3cbc3e34	0.02297888
101	0xbd406f32	-0.046981044
102	0x3d83ac84	0.06429389
103	0x3b9d495c	0.004800005
104	0x3def0431	0.11670721
105	0x3a414396	0.0007372437
106	0x3d0b6d42	0.034039743
107	0x3b261eb6	0.0025347895
108	0xbdac33c0	-0.08408308
109	0xbd97ca79	-0.074116655
110	0xbd1cc782	-0.038276203
111	0x3d7e9c1c	0.062160596
112	0xbc4f03a7	-0.012635148
113	0xbd3a7018	-0.045517057
114	0x3da06fa8	0.07833797
115	0xbd130f27	-0.035903122
116	0xbd755eda	-0.05990491
117	0xbd644a24	-0.05573477
118	0x3e1b93ba	0.15193072
119	0xbca6f40a	-0.020380039
120	0xbd8834c4	-0.06650689
121	0xbdde7123	-0.10861423
122	0xbd95b97c	-0.07310769
123	0xbbcb6ce3	-0.0062080487
124	0xbc400d36	-0.0117219
125	0xbd8ed6aa	-0.06974538
126	0xbc11fb6b	-0.00891004
127	0x3d195be2	0.037441142
128	0x3d9fa053	0.07794251
129	0x3ce3a336	0.027787786
130	0xbdcb4971	-0.09926117
131	0xbc6cd5a0	-0.014455229
132	0x3d218fe4	0.039443865
133	0xbdb1d28e	-0.08682738
134	0xbd04d1db	-0.032426696
135	0x3c5bdf4f	0.01341994
136	0x3cdf4d82	0.027258638
137	0xbd72d8cb	-0.05928878
138	0xbe01a22d	-0.12659521
139	0xbdaeca50	-0.08534682
140	0xbd28bd15	-0.041195948
141	0xbc97bc92	-0.018522535
142	0x3c94fe37	0.018187625
143	0x3d49f215	0.049303133
144	0xbde6afbd	-0.11263988
145	0x3ca99f44	0.020705827
146	0xbd745e34	-0.05966015
147	0xbdf6eff9	-0.1205749
148	0x3d212a93	0.039347243
149	0x3d3ad8d4	0.04561694
150	0xbab53c76	-0.0013827223
151	0xbacf64ce	-0.0015822889
152	0xbdb57696	-0.08860509
153	0x3e0f7ec9	0.14013208
154	0x3da3c00d	0.07995615
155	0x3aa899c7	0.0012863212
156	0xbd972670	-0.07380378
157	0xbcbc67ed	-0.022998774
158	0xbc9eaa55	-0.01936833
159	0xbe47f441	-0.19526769
160	0xbd2bc358	-0.04193434
161	0xbdb3681a	-0.0876009
162	0x3d95687c	0.072953194
163	0xbd4eb83b	-0.050468665
164	0xbd9a4f16	-0.07534616
165	0xbd2c14e9	-0.04201213
166	0x3d860945	0.06544737
167	0x3d7203b9	0.05908558
168	0xbddee213	-0.10882964
169	0xbda16f80	-0.07882595
170	0xbe104204	-0.14087683
171	0xbd062534	-0.032750323
172	0xbd07f6ce	-0.033194356
173	0xbd9a1436	-0.07523386
174	0xbd84eb08	-0.06490141
175	0x3d153315	0.03642567
176	0xbcee08cd	-0.02905693
177	0x3d58a1df	0.052888747
178	0xbd0a7e47	-0.033811834
179	0x3ce43dc2	0.02786148
180	0x3bc19b3b	0.0059083975
181	0x3d399fd3	0.045318436
182	0xbcd5e94a	-0.026112217
183	0x3d0592b9	0.03261063
184	0xbccd7f41	-0.025085093
185	0xbb24a3b0	-0.002512198
186	0xbe2087cd	-0.15676804
187	0xbdd5d535	-0.10441057
188	0xbd7b36e7	-0.061331656
189	0xbdc398c3	-0.09550621
190	0xbd08e05b	-0.033417087
191	0x3dc548a3	0.09632995
192	0xbdab8c0c	-0.08376321
193	0x3dada1c5	0.08478121
194	0xbcf29438	-0.029611692
195	0xbc13b059	-0.0090142125
196	0xbc9ace64	-0.018897243
197	0xbdd3afbd	-0.10336254
198	0x3dcd6259	0.10028524
199	0x3d5b1a01	0.053491596
200	0x3d13011e	0.035889737
201	0xbcd106a2	-0.025515858
202	0xbd7b1557	-0.061299648
203	0xbe6bf0c1	-0.23041059
204	0x3ccd1125	0.02503259
205	0xbca50c6d	-0.020147527
206	0xbc97ffe9	-0.018554645
207	0xbccade07	-0.024764074
208	0xbc9ad10d	-0.018898511
209	0x3db33dad	0.08751998
210	0x3e37eb91	0.17960955
211	0xbd64c7cb	-0.0558546
212	0x3ca99e32	0.020705316
213	0xbd0c0dcd	-0.03419285
214	0x3d6934af	0.05693501
215	0xbda9c1b8	-0.08288902
216	0x3d97c0b6	0.074098036
217	0xbd964f4d	-0.07339344
218	0x3d81ddae	0.0634111
219	0xbc5ecd90	-0.013598815
220	0xbe084368	-0.13306963
221	0x3dbe71e8	0.0929907
222	0xbcc0d581	-0.023539307
223	0xbe272f84	-0.1632672
224	0xbce45146	-0.027870785
225	0xbc80d6b4	-0.015727378
226	0xbdbdb39c	-0.092627734
227	0x3c23cf82	0.009998204
228	0x3cd75cce	0.02628937
229	0x3e081160	0.13287878
230	0x3d5ef4fe	0.05443286
231	0xbd2c49bd	-0.04206251
232	0xbcae1328	-0.021249369
233	0x3ce036ae	0.027369823
234	0x3d0c70b2	0.034287162
235	0x3d6efcc8	0.05834654
236	0xbd1c541a	-0.038166143
237	0x3d9d28fd	0.076738335
238	0xbe1fed15	-0.15617783
239	0xbe08a530	-0.13344264
240	0xbd44a9fa	-0.048013665
241	0x3c6b3966	0.014356947
242	0xbdbd4d39	-0.09243245
243	0x3e00be65	0.1257263
244	0x3e01b165	0.12665327
245	0xbb6555df	-0.003499381
246	0x3d99fca2	0.07518889
247	0xbd282d93	-0.041059088
248	0xbd4fff61	-0.050780658
249	0x3c6597e8	0.014013268
250	0xbc164f92	-0.0091742445
251	0x3d63a90e	0.055581145
252	0x3daf1960	0.08549762
253	0x3d47a3e2	0.048740275
254	0xbdd59dc1	-0.1043048
255	0xbd686a73	-0.056742143

network_body._body_endoder.seq_layers.0.bias f4 [256]
0	0x3b90cb2e	0.004418752
1	0x3c9a5a41	0.018841865
2	0xbb0fb9b8	-0.0021930765
3	0xbc1b7052	-0.0094872285
4	0x3c9e5eb4	0.019332267
5	0x3bf906d3	0.0075996905
6	0x3b682008	0.0035419483
7	0x3d05c991	0.03266293
8	0x3bece6db	0.0072296686
9	0x3c8b7c32	0.017026994
10	0x3cc508b5	0.024052003
11	0x3ca4cd94	0.020117559
12	0x3cd1c0c1	0.025604608
13	0x3c415738	0.01180058
14	0x3caff8c4	0.021480925
15	0x3d0669ce	0.032815747
16	0x3c2bb31a	0.010479713
17	0x3cd6a0a6	0.02619965
18	0x3ba2201a	0.0049476745
19	0xbd06fab8	-0.032953948
20	0x3c6ddcd8	0.014517985
21	0x3d2775a9	0.040883694
22	0x3bdbd15c	0.006708307
23	0x3cbf68cd	0.023365403
24	0x3986e418	0.00025728415
25	0x3c5503d5	0.013001402
26	0xbc9fb0c9	-0.019493477
27	0xbba42e13	-0.0050103753
28	0x3c8decdb	0.017324856
29	0xbcc3f9cb	-0.023922822
30	0x3d126b48	0.035746843
31	0x3b26d5b2	0.0025456962
32	0xbc77c9f3	-0.015123832
33	0x3c900a48	0.017583027
34	0x3c0aaa70	0.008463487
35	0xbc8f7e11	-0.017516168
36	0x3b3b6b68	0.0028597955
37	0x3d0a5faa	0.03378264
38	0xbcc88c09	-0.024480836
39	0x3d12939f	0.035785314
40	0x3ce0ace2	0.027426187
41	0x3c7b1380	0.015324473
42	0x3d0a199c	0.03371583
43	0x3baddeb8	0.005306091
44	0x3c36f6ec	0.011167269
45	0xbac4d599	-0.001501727
46	0x3c7c9edd	0.015418735
47	0x3c65450d	0.013993514
48	0x3c843f6d	0.016143525
49	0x3c1d56f8	0.0096032545
50	0x3b58b853	0.003306885
51	0x3d24a5cb	0.040197175
52	0x3c6bf78c	0.0144022815
53	0x3c42e84e	0.011896206
54	0x3c0ce6d3	0.008599955
55	0x3d081dcd	0.033231545
56	0x3cabcb97	0.020971103
57	0x3bf869a6	0.0075809537
58	0x3c9eef14	0.01940111
59	0x3c64c05a	0.013961876
60	0x3b7ffbd2	0.0039060009
61	0xbcd0c6f7	-0.025485499
62	0x3cac231e	0.021012839
63	0xbc7b5c34	-0.015341807
64	0x3c3ca778	0.011514537
65	0x3ba329a6	0.00497933
66	0x3c3db2b6	0.011578253
67	0x3a9ce3fc	0.00119698
68	0x3cbe60e9	0.02323957
69	0x3c413008	0.011791237
70	0xbcbae4ad	-0.02281412
71	0x3be8ea55	0.0071080127
72	0x3cea7c0c	0.028623603
73	0x3c82f991	0.015988143
74	0x3b6d97bc	0.003625377
75	0x3c996b00	0.01872778
76	0x3ca0fd46	0.01965202
77	0x3d1d51f4	0.038408235
78	0x3c04a80d	0.008096707
79	0x3c781b1f	0.015143185
80	0x3d1daf2c	0.038497135
81	0xbcce4d0b	-0.025183221
82	0x3cd3edd5	0.025870243
83	0x3c9ff346	0.019525182
84	0x3d09bcdd	0.03362738
85	0x3ce6e875	0.028187016
86	0xbc46c819	-0.012132668
87	0x3cc9c92c	0.024632059
88	0xbac64f46	-0.0015129826
89	0x3a313801	0.00067603594
90	0x3c7cc08c	0.015426766
91	0x3cb59005	0.0221634
92	0x3cc99893	0.024608886
93	0x3a657c8e	0.0008754217
94	0x3c18874f	0.009309604
95	0x3c91865d	0.017764265
96	0x3c8555c8	0.016276255
97	0xbcbd992e	-0.02314433
98	0x3c86c066	0.016449165
99	0x3ac4e84f	0.0015022847
100	0x3d1bf2e1	0.038073424
101	0x3c4d3fea	0.012527445
102	0x3ca619bd	0.020275945
103	0xbcca20e7	-0.024673892
104	0x3c97aec3	0.01851595
105	0x3cc3193f	0.02381575
106	0xbbf3b35b	-0.0074371523
107	0x3c9850d7	0.018593235
108	0x3d102f75	0.03520151
109	0x3c1c5704	0.0095422305
110	0x3c93168f	0.017955093
111	0x3cbb2c0d	0.022848153
112	0x3c9fc4f7	0.0195031
113	0x3c9005a1	0.01758081
114	0x3d01e752	0.031714745
115	0x3c976d1d	0.018484646
116	0x3caa58fa	0.02079438
117	0x3b8460a3	0.0040398403
118	0xbbd1aec0	-0.0063990057
119	0x3d0aef96	0.033919893
120	0x3c89f9fd	0.016842837
121	0xb9c4132a	-0.00037398312
122	0x3ca8390b	0.020535013
123	0x3d23e3fc	0.040012345
124	0x3be4d5bf	0.0069834883
125	0x3b516103	0.0031948693
126	0x3cdf4c49	0.027258055
127	0xba2a0104	-0.00064851367
128	0x3c85af40	0.016318917
129	0x3cc68369	0.024232583
130	0x3bbf48b9	0.0058375266
131	0xbc434630	-0.0119185895
132	0x3bcf67a8	0.0063294955
133	0x3cba5252	0.022744332
134	0x3ba8d53e	0.0051523736
135	0x3c116e32	0.00887637
136	0x3c83caa5	0.01608784
137	0x3cf54c43	0.029943591
138	0x3cd34827	0.02579124
139	0xbb27b2d1	-0.002558876
140	0x3d00732f	0.031359848
141	0x3c91cf83	0.017799145
142	0xbcd33444	-0.025781758
143	0x3b091d28	0.002092192
144	0xba102c3c	-0.00054997555
145	0xbc24a2f0	-0.010048613
146	0xbaf8d920	-0.0018985607
147	0x3c172eb6	0.009227445
148	0xbcd3b805	-0.025844583
149	0xbbab15db	-0.0052211112
150	0x3b308d37	0.002693964
151	0xbbdd3d2e	-0.006751678
152	0x3cb10129	0.021606999
153	0x3ce67e3b	0.028136363
154	0x3cd28331	0.025697323
155	0xbc0059d4	-0.007833917
156	0x3cc5313d	0.02407133
157	0xbb0d25bd	-0.0021537386
158	0x3b69357f	0.0035584865
159	0x3c267f93	0.010162252
160	0x3ce5a1c8	0.028031245
161	0x3cdccfff	0.026954649
162	0xbb9a9efa	-0.0047186585
163	0x3c66bfdf	0.014083832
164	0x3c72a15f	0.014808982
165	0x3b191e5f	0.002336405
166	0xbbd355f8	-0.0064494573
167	0x3c5ebc64	0.0135947205
168	0x3c922e63	0.017844385
169	0x3c9a4d54	0.018835701
170	0x3c9970d5	0.01873056
171	0x3c07276e	0.008249147
172	0x3cb31ba9	0.021863775
173	0x3c699829	0.014257469
174	0xbc74fc2f	-0.014952703
175	0x3cd50b20	0.026006281
176	0x3a5d9f09	0.0008454179
177	0x3a99533f	0.0011697783
178	0x3b2f4de9	0.002674932
179	0x3cdb2e23	0.026755398
180	0xbb6d35fe	-0.0036195512
181	0x3cbf8a35	0.023381332
182	0x3caac399	0.020845221
183	0xbc0f0402	-0.008728983
184	0xbc066507	-0.008202798
185	0x3bc20640	0.005921155
186	0xbb97788b	-0.004622524
187	0x3c0b06f2	0.008485543
188	0xbc2d65bc	-0.010583337
189	0x3cba9e1f	0.022780476
190	0x3d020e40	0.03175187
191	0x3a340948	0.0006867838
192	0x3c96961e	0.018382128
193	0x3c71dd09	0.014762172
194	0x3cc84c52	0.024450455
195	0x3ad1a9f0	0.001599608
196	0xbcb9574e	-0.022624638
197	0x3c02b254	0.007977087
198	0x3c92ef6f	0.017936436
199	0x3c5cea8e	0.013483657
200	0x3d3322cd	0.04373436
201	0x3ae18221	0.0017204919
202	0x3c86ba89	0.016446369
203	0x3c9795cf	0.018504051
204	0x3c99eef7	0.018790705
205	0x3b87361c	0.0041263234
206	0x3c95cc92	0.018286023
207	0x3c8ba36c	0.017045699
208	0x3c6c80ff	0.014435052
209	0x3c79ecbb	0.015254195
210	0x3c88f136	0.01671658
211	0x3bce30b9	0.0062924293
212	0x3ccfd10c	0.025368236
213	0x3c4ea254	0.012611944
214	0xbc71f99c	-0.014768984
215	0xb9a2bfce	-0.00031041953
216	0xbbf360a3	-0.0074272915
217	0x3d065088	0.032791644
218	0x3cf2c2cc	0.029633902
219	0x3cd9655b	0.026537588
220	0xbc2e7b54	-0.010649521
221	0x3bba44bc	0.0056844633
222	0x3bac57fd	0.0052595125
223	0x3ca00edf	0.019538341
224	0x3cb581db	0.022156646
225	0x3a70603d	0.0009169614
226	0x3c50bad3	0.012739855
227	0x3c276ce6	0.0102188345
228	0x3c9433b3	0.018091058
229	0x3bd15ec2	0.00638947
230	0x3ade13b3	0.0016943127
231	0x3cca8529	0.024721699
232	0x3cb4970a	0.022044677
233	0xbc88750d	-0.016657377
234	0x3c61ff9d	0.013793853
235	0x3cb39129	0.021919804
236	0xbcd4454d	-0.025911951
237	0x3c50b34a	0.012738058
238	0x3c505605	0.012715821
239	0x3c18abbe	0.00931829
240	0x3c4abb4a	0.012373755
241	0x3c98f881	0.018673183
242	0x3cd228c6	0.025654208
243	0xbb167b8a	-0.0022961819
244	0x3c1748ec	0.0092336945
245	0x3b9ef514	0.004850993
246	0x3ca462b3	0.020066595
247	0xbba1c4bf	-0.004936784
248	0x3c8f9bb8	0.017530307
249	0x3ba3991d	0.0049926178
250	0x3c968da8	0.018378094
251	0x3c8e512c	0.01737269
252	0x3aa507b4	0.0012590797
253	0x3c3f40f7	0.011673204
254	0x3d05b0fe	0.032639496
255	0xbb0c7e42	-0.002143756

network_body._body_endoder.seq_layers.2.weight f4 [256, 256]
0	0xbd902305	-0.070379294
1	0xbc9650b7	-0.018349035
2	0xbda3985c	-0.079880446
3	0xbcee078b	-0.029056331
4	0x3c62879b	0.013826276
5	0x3dc829f7	0.09773629
6	0x3cfc7063	0.030815309
7	0x3c29a331	0.010353849
8	0x3d43190b	0.047631305
9	0x3da11b11	0.07866491
10	0x3daf40ec	0.08557305
11	0x3d57b193	0.052659582
12	0x3dff1790	0.12455666
13	0xbb14416b	-0.0022622
14	0x3db9980f	0.09062206
15	0xbd2884f7	-0.04114243
16	0x3d94ca68	0.072651684
17	0x3d8480c0	0.064698696
18	0x3dff8084	0.12475684
19	0x3dadce2f	0.08486592
20	0x3a51c75b	0.00080024236
21	0x3d800ecf	0.062528245
22	0xbd4963a9	-0.04916731
23	0x3cdbc580	0.026827574
24	0x3cb448f3	0.022007441
25	0x3c56685a	0.013086403
26	0x3be66cc1	0.0070320074
27	0xbd8ee24c	-0.069767565
28	0xbd44adc5	-0.048017282
29	0x3d7c0205	0.061525363
30	0x3dec23f9	0.11530299
31	0x3d1b5f80	0.037932873
32	0xbc1313f7	-0.008976928
33	0x3db48353	0.088141106
34	0xbcf8769f	-0.03033
35	0x3ca28a74	0.01984141
36	0x3dfea71d	0.12434218
37	0xbc93cad9	-0.018041061
38	0xbca0f952	-0.019650135
39	0x3d285407	0.04109576
40	0x3d0b2ff4	0.03398128
41	0x3d782716	0.06058415
42	0x3bd6ec85	0.006558957
43	0x3da17ec9	0.078855105
44	0x3a732ca3	0.0009276366
45	0x3d730d98	0.059339136
46	0xbd7cbd77	-0.061704125
47	0x3adbd2e8	0.0016771229
48	0x3d14bc89	0.036312614
49	0xbd0882e1	-0.03332794
50	0xbb6cf6a1	-0.0036157744
51	0x3d82644a	0.06366785
52	0x3dc34d9e	0.09536289
53	0x3d0dea63	0.034647357
54	0x3d2776e2	0.04088486
55	0x3daa4107	0.08313184
56	0x3d514e6c	0.05110018
57	0xbd1b26f8	-0.03787896
58	0x3ced6919	0.028980779
59	0x3cf85bf8	0.030317292
60	0x3cdf0e4d	0.027228499
61	0xbc41b3b1	-0.011822627
62	0x3ddb504d	0.107086755
63	0x3dea66b7	0.114453726
64	0xbce7dbc4	-0.028303035
65	0x3ce9ee9a	0.028556157
66	0x3a00dc27	0.0004915618
67	0x3d848991	0.06471551
68	0x3e0f85d9	0.14015903
69	0x3dbce4c8	0.09223324
70	0x3d389590	0.04506451
71	0x38c90c86	9.5867596e-05
72	0x3d2a410f	0.04156595
73	0xbd2c07d8	-0.041999668
74	0x3e37a8cc	0.17935485
75	0xba9994d6	-0.001171733
76	0x3cad9636	0.02118979
77	0x3dd66bb1	0.10469759
78	0xba19e910	-0.0005871216
79	0x3b956809	0.004559521
80	0x3cd213c3	0.025644189
81	0xbd800722	-0.062513605
82	0x3dde19a0	0.10844731
83	0xbd7cbf82	-0.061706074
84	0xbc8c7765	-0.017146775
85	0x3d18b9a2	0.03728641
86	0xbd1d268c	-0.03836684
87	0xbd88a8e6	-0.0667284
88	0xbc830583	-0.01599384
89	0x3d1182cb	0.035525125
90	0x3b220f41	0.002472833
91	0x3d539a0e	0.05166059
92	0xbd0db522	-0.03459657
93	0x3b7f1893	0.003892456
94	0x3caf678c	0.02141168
95	0xbd24abaf	-0.040202793
96	0x3cd3234e	0.02577367
97	0xbc61dd57	-0.013785682
98	0xbd3633e0	-0.044483066
99	0x3daf8435	0.08570138
100	0xbd8308cc	-0.06398162
101	0xbcc0fe3e	-0.023558732
102	0x3d08d64d	0.0334075
103	0x3dec8614	0.11549011
104	0x3db333a1	0.08750082
105	0x3d3de597	0.046361532
106	0xbd1d68be	-0.038429968
107	0xbd956a42	-0.07295658
108	0xbce545ba	-0.02798735
109	0xbdb0061b	-0.085949145
110	0x3d65ba25	0.056085724
111	0xbc34c3a3	-0.011032972
112	0xbd56b804	-0.052421585
113	0xbe21255d	-0.15736909
114	0xbde5f432	-0.11228217
115	0x3d0ba904	0.034096733
116	0x3da1981c	0.07890341
117	0x3d271903	0.040795337
118	0xbc65d684	-0.014028195
119	0x3d993395	0.074805416
120	0xbe16d18f	-0.14728378
121	0x3debc177	0.1151151
122	0x3d374c42	0.04475046
123	0x3d982559	0.074289985
124	0x3d43b0e3	0.047776114
125	0xbcaaee26	-0.020865511
126	0x3ceb8029	0.028747635
127	0x3d98b99b	0.074572764
128	0xbd53ae5d	-0.051679958
129	0x3dedf848	0.116196215
130	0x3d51003c	0.051025614
131	0xbce635fd	-0.028101915
132	0x3e0b66cf	0.13613437
133	0xbd749bfd	-0.059719075
134	0xbd62d4ba	-0.055378653
135	0x3c957ba4	0.018247433
136	0x3d14f9d5	0.03637107
137	0xbc877c09	-0.016538637
138	0xbcfd0a9c	-0.030888848
139	0xbd637f10	-0.055541098
140	0x3da7a490	0.08185685
141	0x3d94a829	0.072586365
142	0xbc8f8f52	-0.017524395
143	0x3b348a48	0.0027548242
144	0x3db96e40	0.09054232
145	0xbc3aa736	-0.011392405
146	0xbe025219	-0.1272663
147	0xbde3c937	-0.11122363
148	0x3dea140d	0.11429606
149	0xbde7e9fb	-0.11323925
150	0xbd9af37d	-0.07565973
151	0xbbc50fb5	-0.0060138353
152	0x3d074df1	0.033033315
153	0x3ce5f347	0.028070105
154	0xbe0fe0ad	-0.14050551
155	0x3cbe65b1	0.02324185
156	0xbd9d7184	-0.07687667
157	0x3d795dc0	0.060880423
158	0xbdc88a38	-0.09791988
159	0xbc90729d	-0.017632777
160	0xbcff50d9	-0.03116648
161	0x3ce25d76	0.027632456
162	0x3c21dc6d	0.009879214
163	0xbd81cc6e	-0.0633782
164	0x3de4fb83	0.111807846
165	0x3cfc2406	0.030778896
166	0xbda225db	-0.079173766
167	0x3de781cc	0.11304054
168	0x3d07ad91	0.03312451
169	0xbbcac36d	-0.0061878473
170	0x3d9ecfec	0.07754502
171	0x3d175f8e	0.036956362
172	0x3db597b4	0.08866826
173	0xbdb4537b	-0.08804985
174	0x3de07b19	0.10960979
175	0x3b9c6a70	0.0047734305
176	0x3d730d8c	0.05933909
177	0x3df6c959	0.12050123
178	0x3d7f693f	0.06235623
179	0xbd439c2c	-0.04775636
180	0xbd5509c7	-0.052011278
181	0x3d6b2786	0.05741074
182	0x3dd41d75	0.10357181
183	0x3cf654d7	0.030069752
184	0x3d0ed3b1	0.034869853
185	0x3dafe6f5	0.085889734
186	0x3d313a01	0.043268207
187	0xbd01cb29	-0.03168789
188	0xbbdd0990	-0.0067455247
189	0xbcf0d960	-0.029400527
190	0xbd898344	-0.0671449
191	0xbda5005e	-0.08056711
192	0x3d0cf671	0.034414712
193	0xbca9712c	-0.020683847
194	0xb7206444	-9.560088e-06
195	0xbd26ee5c	-0.04075466
196	0x3c728961	0.0148032615
197	0x3d7b50e7	0.06135645
198	0xbd6d114c	-0.057877824
199	0xbc258f04	-0.010104898
200	0x3cfdb6ea	0.03097101
201	0xbab7f408	-0.0014034519
202	0xbd947155	-0.07248179
203	0x3da05ab5	0.07829801
204	0x3b9a02be	0.004700034
205	0xbdbc95d0	-0.09208262
206	0x3db47f40	0.088133335
207	0xbc532715	-0.012887736
208	0xba2df3a2	-0.00066357304
209	0xbd206c1c	-0.0391656
210	0x3b3084d2	0.0026934636
211	0xbe0450bb	-0.12921421
212	0x3da16d66	0.07882194
213	0x3c8b575c	0.01700943
214	0xbcccb522	-0.024988715
215	0xbbcd9243	-0.0062735393
216	0x393d383f	0.00018045398
217	0x3d315c9d	0.043301214
218	0xbb7d2670	-0.0038627647
219	0x3cddf55e	0.02709454
220	0xbcfb714d	-0.030693674
221	0xbdba20e4	-0.09088305
222	0xbc8c37c3	-0.017116433
223	0xbc3f7e85	-0.011687879
224	0xbc9ace25	-0.018897125
225	0xbb6a9a5b	-0.003579757
226	0xbbadeb71	-0.005307608
227	0xbd55e396	-0.052218996
228	0x3cbb21ff	0.022843359
229	0x3d567a4f	0.052362736
230	0xbd00122f	-0.03126734
231	0x3d537d5f	0.051633235
232	0xbe183244	-0.14862925
233	0xbca2c0c6	-0.019867312
234	0xbdcf0650	-0.10108626
235	0x3da8eb59	0.08248014
236	0xbdf320e7	-0.1187151
237	0xbd6c210d	-0.057648707
238	0xbc74981d	-0.014928845
239	0x3c0dc7f0	0.008653626
240	0x3dbd94b3	0.09256878
241	0xbda20562	-0.07911183
242	0x3e1399bf	0.14414118
243	0x3dab973d	0.08378456
244	0xbda74a4c	-0.08168468
245	0xbd2f1fa1	-0.042754773
246	0xbda086b9	-0.07838196
247	0xbcde2c69	-0.027120786
248	0x3d433db4	0.047666267
249	0x3da6fceb	0.08153709
250	0x3e1eeccf	0.15520023
251	0x3cd87f36	0.026427846
252	0xbda597f1	-0.08085621
253	0xbd8f7e99	-0.070065685
254	0xbd9ee3eb	-0.07758316
255	0x3db84b37	0.08998721

network_body._body_endoder.seq_layers.2.bias f4 [256]
0	0x3c42c251	0.011887149
1	0x3c337d08	0.010955103
2	0xbb254179	-0.0025216027
3	0xbc8a7bd4	-0.016904749
4	0x3ca2fa33	0.019894695
5	0x3a634b3f	0.00086705753
6	0x3c013fbf	0.007888733
7	0x3cac32cb	0.021020314
8	0xbc9df920	-0.019283831
9	0x3b0cd549	0.0021489433
10	0xb9aa8178	-0.00032521388
11	0x3c8c7d2c	0.01714953
12	0xbceadc53	-0.028669512
13	0xbca2cfb5	-0.019874433
14	0x3b847466	0.004042196
15	0x3ca4fed8	0.02014105
16	0x3c8f4748	0.017490044
17	0x3cfc6f2e	0.030814733
18	0x3cf88f38	0.03034173
19	0x3c2e4f1c	0.010638978
20	0x3b9ebb63	0.0048441156
21	0x3c6afbdd	0.014342275
22	0x3c85c79d	0.016330535
23	0x3ca5834f	0.020204214
24	0x3c8e6501	0.017382147
25	0x3d02edb0	0.031964958
26	0x3add0c67	0.0016864658
27	0x3c82ef89	0.01598336
28	0x3cd94c6e	0.026525702
29	0x3c64d87d	0.01396763
30	0x3b98659d	0.004650785
31	0x3be59a75	0.007006938
32	0x3c8efe2a	0.01745518
33	0x3c4b5de4	0.012412522
34	0xbba85032	-0.005136513
35	0x3cead14d	0.028664256
36	0x3bf0dfaf	0.007350884
37	0x3cbca355	0.023027102
38	0x3cfb4630	0.030673116
39	0x3cc5aff6	0.024131756
40	0x3cdebc09	0.027189272
41	0x3cab0e2b	0.02088078
42	0x3ce9012e	0.028442945
43	0xbc4935d9	-0.012280905
44	0x3cb2e719	0.021838712
45	0x3bada30a	0.005298977
46	0x3c6d5d2b	0.014487545
47	0x3d0c6a72	0.0342812
48	0x3caaba9e	0.02084094
49	0x3c7a4427	0.015275038
50	0xbbbb2a5a	-0.005711836
51	0x3bd7119e	0.0065633794
52	0xbbedf9fb	-0.007262466
53	0xbb7956cb	-0.0038046117
54	0xbcaf1afa	-0.021375168
55	0xbb0eb882	-0.0021777456
56	0x3ca4dead	0.020125711
57	0x3ba8260c	0.0051314887
58	0xbca66baf	-0.02031502
59	0x3cde3d23	0.027128762
60	0xbcc7bd03	-0.02438212
61	0x3b0b95dd	0.0021299042
62	0x3cad6a76	0.021168929
63	0x3c4f567c	0.012654897
64	0x3b5d3076	0.0033750809
65	0x3c9be5a8	0.019030407
66	0x3ccdd296	0.02512483
67	0x3c28e190	0.010307685
68	0x3cac741d	0.02105146
69	0x3c59f7f2	0.013303744
70	0x3c8130d4	0.015770353
71	0xbc4fe5bb	-0.012689049
72	0xbc67ca6c	-0.014147382
73	0x3d16a53e	0.03677868
74	0x3c3f4bd7	0.0116757965
75	0x3a834dab	0.0010017654
76	0x3c3f22c3	0.011666003
77	0x3d0b9299	0.034075353
78	0x3cac9edb	0.021071842
79	0x3c6fdc15	0.014639874
80	0xbc49eeb7	-0.01232498
81	0xba9f5a61	-0.0012157672
82	0x3cc78da4	0.024359532
83	0xbc37d034	-0.011219073
84	0x3c888211	0.016663583
85	0x3cc95ecf	0.024581341
86	0xbbac31a7	-0.0052549425
87	0xbc034fca	-0.008014629
88	0x3babf08f	0.0052471827
89	0xbc88d7e6	-0.01670451
90	0x3c4ffde7	0.012694812
91	0xbc2edc27	-0.010672606
92	0xbc5f15a3	-0.013615998
93	0xbbd59bb3	-0.006518805
94	0x3bf322d7	0.0074199247
95	0xbcb04e33	-0.021521663
96	0x3c570bbc	0.013125356
97	0x3be462c4	0.0069697816
98	0xbbf2e0c6	-0.007412049
99	0x3ac9ffc4	0.0015411307
100	0x3c0b726f	0.00851117
101	0x3c92bba4	0.01791174
102	0x3cc771a0	0.024346173
103	0x3c8ee018	0.01744084
104	0x3ce67573	0.028132176
105	0xba96078a	-0.0011446339
106	0x3b53f868	0.0032344107
107	0xbc7aea38	-0.015314631
108	0x3cff52b0	0.031167358
109	0x3ca49337	0.020089729
110	0x3c40da90	0.011770859
111	0x3ce3d18b	0.027809879
112	0x3b9b4e56	0.004739563
113	0x3c9e7904	0.019344814
114	0x3d03be95	0.032164175
115	0xbcaf02cd	-0.02136364
116	0x3cab1bc0	0.020887256
117	0x3cc34680	0.023837328
118	0xbc148063	-0.009063813
119	0x3d15cffc	0.036575302
120	0xbc6e60c9	-0.014549443
121	0x3c5e5c68	0.013571836
122	0xbc636176	-0.013878217
123	0x3c88f935	0.016720394
124	0x3cfc6c56	0.030813377
125	0x3bc7142e	0.0060754037
126	0x3c1dd39c	0.009632971
127	0xbc9da457	-0.019243402
128	0x3ca932f7	0.020654185
129	0x3c9131a5	0.017723868
130	0x3d04fe40	0.032469034
131	0x3c0726df	0.008249014
132	0x3c1ee415	0.009697934
133	0xbb7842e3	-0.0037881664
134	0x3ba80c56	0.0051284237
135	0x3ca52653	0.020159876
136	0x3c586752	0.013208227
137	0xbbf67f64	-0.0075225104
138	0x3c7e17da	0.015508616
139	0xbc59226f	-0.0132528385
140	0xbcdaf08f	-0.026726035
141	0x3ac6c1d7	0.001516397
142	0xbcc4f4a0	-0.024042428
143	0x3bc82878	0.00610834
144	0x3c8f950a	0.017527122
145	0x3cbf36cd	0.02334156
146	0x3d1986d2	0.03748209
147	0x3c2361c9	0.009972044
148	0xbb01c86b	-0.0019803296
149	0xbc776c42	-0.015101494
150	0x3c97cc81	0.018530132
151	0x3c5941fd	0.013260362
152	0x3c987690	0.018611223
153	0x3cca89ee	0.024723973
154	0xbcdc4aa1	-0.026891055
155	0x3b94789f	0.0045309807
156	0xbc998233	-0.018738842
157	0xbb9542b2	-0.00455507
158	0x3bddca82	0.0067685256
159	0x3ca1122b	0.019661983
160	0xbc4f4912	-0.012651699
161	0xbc2848fc	-0.010271307
162	0x3c705102	0.014667751
163	0x3c41d2cc	0.011830043
164	0x3c741989	0.014898666
165	0xbc01ea67	-0.007929421
166	0x3c011665	0.007878874
167	0xbcf157c2	-0.029460791
168	0x3d39afc7	0.04533365
169	0x3c1385b8	0.009004049
170	0xbc38d4e8	-0.01128123
171	0x3c09defa	0.008414978
172	0xbc98ad67	-0.018637372
173	0x3ba1bb51	0.00493566
174	0x3ca12dec	0.019675218
175	0x3be91f4c	0.0071143266
176	0x3ca70374	0.020387389
177	0x3bb4003d	0.0054931925
178	0x3c1df1b9	0.009640151
179	0x3cac198c	0.021008275
180	0x3cc05c25	0.023481438
181	0x3baba328	0.0052379556
182	0x3c9bdd0c	0.019026302
183	0x3ca94c63	0.020666307
184	0x3cd415e3	0.025889343
185	0xbce7d27b	-0.028298607
186	0x3caec9a4	0.021336384
187	0x3be3f105	0.006956222
188	0x3c9ff3f3	0.019525504
189	0x3aacf5fb	0.0013195866
190	0x3c0e7296	0.008694312
191	0x3c953664	0.018214412
192	0x3c88d10b	0.016701242
193	0xbc1de195	-0.0096363025
194	0xbc292575	-0.010323872
195	0x3c927158	0.017876312
196	0xbcb7d4d3	-0.02244035
197	0x3b9139de	0.004431947
198	0xbcc7dd02	-0.024397377
199	0x3d00c5cb	0.03143863
200	0x3c8a7afd	0.016904349
201	0x3cd2bf55	0.025726
202	0x3bec493b	0.007210878
203	0x3ca8c6b9	0.02060257
204	0x3c717944	0.014738385
205	0xbc9cc446	-0.01913656
206	0x3cbad2be	0.022805568
207	0xbb856091	-0.0040703495
208	0x3caf285b	0.021381548
209	0xbc99cf20	-0.018775523
210	0xbbee471a	-0.0072716596
211	0xbbd275d7	-0.006422739
212	0x3cf743d8	0.030183718
213	0x3cc302b8	0.023805007
214	0x3cac382f	0.021022884
215	0x3b27cbad	0.0025603578
216	0x3c910db1	0.017706724
217	0x3b2daf5f	0.0026502234
218	0x3caae368	0.020860389
219	0x3d0b0173	0.03393693
220	0xbc962448	-0.018327847
221	0x3c155901	0.0091154585
222	0xbbe49038	-0.0069752
223	0xbb634465	-0.0034678217
224	0x3bcb46c0	0.0062035024
225	0x3cfff99c	0.031246953
226	0x3ba71590	0.005099006
227	0x3c4ddb06	0.012564426
228	0xbb74d069	-0.0037355667
229	0x3c58d05e	0.013233272
230	0x3c1165b2	0.008874344
231	0x3c732f21	0.014842779
232	0x3c1d0fac	0.009586256
233	0x3d0db6c4	0.034598127
234	0x3c513668	0.012769319
235	0x3ca345fc	0.019930832
236	0x3c93d155	0.018044153
237	0x3ca5eb5f	0.020253835
238	0x3ce1b472	0.027551863
239	0x3d326241	0.043550733
240	0x3b16d9cb	0.0023017998
241	0x3c56a52f	0.013100906
242	0x3bcb58da	0.0062056603
243	0x3b9910e4	0.004671203
244	0xbad3043c	-0.0016099284
245	0x3c86f1fc	0.016472809
246	0x3ccb6e1f	0.024832783
247	0x3cb7047f	0.022341011
248	0x3c00ddfe	0.007865427
249	0x3bca66a6	0.0061767874
250	0xbb33a2ce	-0.0027410272
251	0x3a80ded2	0.0009832031
252	0xbc68eeab	-0.014217059
253	0x3cb92e6d	0.022605145
254	0xbd019124	-0.031632558
255	0xbb7b0645	-0.0038303297

action_model._discrete_distribution.branches.0.weight f4 [4, 256]
0	0xbc342f90	-0.010997668
1	0xbc1ef603	-0.009702208
2	0xbbbc4a91	-0.0057461937
3	0xb8779984	-5.903236e-05
4	0xbc099ebf	-0.008399664
5	0xb9f6eebb	-0.00047098644
6	0x3ba799fb	0.0051147914
7	0xbc9b49f0	-0.018956155
8	0x3d14f3d5	0.03636535
9	0x3bab0d3e	0.0052200845
10	0x3b8c0aa0	0.0042737275
11	0xbc8af33e	-0.01696169
12	0x3b7eca54	0.0038877921
13	0x3c2ee07c	0.010673638
14	0x3bf2f144	0.007414015
15	0xbc38b696	-0.011274001
16	0xbc6cdce2	-0.014456959
17	0xbca1b590	-0.019739896
18	0xbd68383a	-0.056694247
19	0xbccdfee7	-0.025145961
20	0x3b26a1d8	0.0025426056
21	0xbcb0df05	-0.021590719
22	0x3b625121	0.003453322
23	0xbc092f2c	-0.008373063
24	0xbd1f8618	-0.03894624
25	0xbc913816	-0.01772694
26	0xbb91caf3	-0.0044492423
27	0xbbbca707	-0.005757216
28	0xbc91c156	-0.017792385
29	0xbd02565f	-0.03182065
30	0xbc37763d	-0.011197624
31	0xbc9d29da	-0.019184995
32	0xbc4c14d8	-0.012456141
33	0xbb4cad99	-0.0031231402
34	0x3ccb11d5	0.024788776
35	0xbc920ad7	-0.017827434
36	0xbbe5d064	-0.0070133675
37	0xbc42e5cb	-0.011895607
38	0xbcf62bd0	-0.030050188
39	0xbc5dbcc5	-0.013533776
40	0xbcfb95a8	-0.03071101
41	0xbce6a948	-0.028156891
42	0xbd019af4	-0.031641915
43	0x3c010623	0.007874998
44	0xbc2b53c6	-0.010456985
45	0xbab87d5e	-0.0014075448
46	0xbb2782f8	-0.0025560241
47	0xbd00ff8b	-0.031493705
48	0xbc6adf4d	-0.014335466
49	0xbcdc112b	-0.026863655
50	0xbbb8f6b9	-0.005644646
51	0x3bd35dac	0.0064503755
52	0xbbdbcffe	-0.006708144
53	0xbc464c9c	-0.012103226
54	0x3c8254b2	0.015909526
55	0x3ab2ef83	0.0013651702
56	0xbc5d329e	-0.013500838
57	0x3b94e4a2	0.0045438567
58	0x3cd05f42	0.025436047
59	0xbcb1bcff	-0.021696566
60	0xb9b78486	-0.00035003218
61	0xbbe196a3	-0.0068844124
62	0xbc1611d2	-0.009159522
63	0x3bc74c3b	0.0060820854
64	0xbc7cb2e7	-0.015423513
65	0xbcdceb18	-0.02696757
66	0xbc4582ae	-0.012055082
67	0xbc92fcb7	-0.01794277
68	0xbc52b81b	-0.012861277
69	0xbbf5cbe0	-0.0075011104
70	0xbcc72176	-0.024307948
71	0x3c81bc8f	0.015836982
72	0x3c5482ef	0.01297067
73	0xbc998074	-0.018738009
74	0xbc2f1ed9	-0.010688507
75	0x3bbd0cd5	0.005769352
76	0xbc995b35	-0.018720249
77	0xbccff48e	-0.025385167
78	0xbcd02331	-0.025407406
79	0xbb7ae923	-0.0038285933
80	0x3ca64045	0.020294318
81	0xbbed8354	-0.0072483215
82	0xbd156e60	-0.036482215
83	0x3b35302a	0.0027647116
84	0x3af99f3f	0.0019044651
85	0xbb81527a	-0.0039465996
86	0x3cdfd56e	0.02732345
87	0x3b865d3f	0.0041004713
88	0xbcc9b9d9	-0.024624752
89	0x3d103e51	0.03521568
90	0xbd02da5a	-0.031946518
91	0x3c6df8e8	0.014524676
92	0x3cb1c2b6	0.02169929
93	0x3b20bc55	0.0024526317
94	0xbc381602	-0.011235716
95	0x3c63b448	0.013897963
96	0xbbbd43ab	-0.005775889
97	0x3bda623d	0.006664543
98	0x3b193a81	0.0023380818
99	0xbbeac820	-0.00716497
100	0xbb9eacb5	-0.0048423656
101	0xbbfa229d	-0.0076335208
102	0xbc93a2e3	-0.018022006
103	0xbc4db081	-0.012554289
104	0xbcec0897	-0.02881269
105	0xbb6c0627	-0.003601441
106	0x3b9b3c3d	0.0047374056
107	0x3bbd0ffb	0.0057697273
108	0xbc813848	-0.015773907
109	0xbd1b5a7f	-0.0379281
110	0xbcc56da6	-0.024100136
111	0xbc8d4c23	-0.017248219
112	0xbbbf7792	-0.0058431113
113	0xbc9e5530	-0.01932773
114	0xbcf0c940	-0.029392838
115	0x3ca8ec32	0.02062044
116	0xbce2a321	-0.027665677
117	0xbc88b53c	-0.016687982
118	0x3ccddbae	0.025129166
119	0xbcbd48e1	-0.02310604
120	0x3cf1dcf5	0.029524306
121	0xbb88c202	-0.004173518
122	0x3a16fe22	0.00057599146
123	0xbce804e4	-0.028322645
124	0xbd4d20cd	-0.05008011
125	0xbca671dc	-0.020317964
126	0x3acade6a	0.0015477662
127	0x3c41d007	0.011829383
128	0xbbcc78f8	-0.0062400065
129	0x3b0fddbe	0.0021952237
130	0xbc92188a	-0.017833967
131	0xbc7af6cb	-0.015317629
132	0x3cb37a7c	0.021908991
133	0x3c650038	0.013977103
134	0xbc0182a3	-0.007904681
135	0xbd09bb14	-0.033625677
136	0xbbf56970	-0.007489376
137	0xbbc3b894	-0.005972931
138	0xbd0efff2	-0.034912057
139	0x3d0a1fba	0.033721663
140	0x3bf7e429	0.0075650406
141	0x3c1294b2	0.008946585
142	0x3c866bdc	0.016408853
143	0xbbb5dda6	-0.005550104
144	0xbc604eb4	-0.013690639
145	0xbc663650	-0.014051035
146	0xbcd207a9	-0.025638418
147	0xbc4fdef6	-0.012687435
148	0xbb1c08b7	-0.0023808905
149	0x3d11a2fd	0.03555583
150	0xbd1c2f31	-0.038130943
151	0xbbc45d65	-0.005992579
152	0xbc946698	-0.018115327
153	0xbd07f2fa	-0.033190705
154	0x3c549ff4	0.012977589
155	0x3c0aa742	0.008462729
156	0x3bc4a215	0.006000767
157	0xbc88cc02	-0.016698841
158	0xbb061c9d	-0.0020463832
159	0xbcee5102	-0.029091362
160	0x3ce35e81	0.027755024
161	0x3bb43f98	0.005500745
162	0x3b71a5cb	0.0036872502
163	0xbcad6034	-0.021164037
164	0xbbcffc62	-0.006347225
165	0x3a88d898	0.0010440527
166	0x3c4722e7	0.012154317
167	0x3d053d88	0.032529384
168	0xbcc0d5f2	-0.023539517
169	0xbb663434	-0.003512633
170	0x3c49d9cb	0.012319992
171	0xbbf31e9a	-0.0074194195
172	0x3c55ad3b	0.01304179
173	0xbcb9e2e4	-0.022691198
174	0xbc339a35	-0.010962059
175	0x39a8d8f7	0.00032205108
176	0xbcef2e60	-0.029196918
177	0xbc59745f	-0.013272374
178	0xbc5a9e19	-0.0133433575
179	0xbc54828a	-0.012970576
180	0xbc5aa388	-0.013344653
181	0xbc53c6ca	-0.012925813
182	0xbcc17970	-0.023617476
183	0xbc9a632f	-0.018846123
184	0xbce7712c	-0.028252207
185	0x3c8b53e0	0.017007768
186	0xbc14827a	-0.009064311
187	0x3b6f227b	0.0036489058
188	0xbc474c89	-0.0121642435
189	0xbbc92369	-0.0061382544
190	0xbccec58e	-0.025240686
191	0xbc91b534	-0.0177866
192	0xbca72193	-0.020401752
193	0x3cc97be8	0.024595216
194	0xbbd8d63d	-0.006617336
195	0xbbbabc26	-0.0056986986
196	0x3c183e5d	0.009292212
197	0x3c1d9717	0.009618542
198	0x3cdf72ba	0.027276386
199	0xbcad66f0	-0.021167248
200	0xbc270ae8	-0.010195471
201	0xbcbcf784	-0.023067243
202	0xbcb5b903	-0.022182947
203	0xbc98528b	-0.018594047
204	0xba20a10b	-0.0006127513
205	0x3aa4c23b	0.0012570092
206	0xbc9d77b8	-0.019222125
207	0xbc37b444	-0.011212412
208	0xbd087dad	-0.03332298
209	0x3c0691ba	0.008213455
210	0x3b85cbed	0.0040831477
211	0x3cb1ccdd	0.021704132
212	0xbcd5c5c3	-0.026095277
213	0xbca1ea41	-0.019765021
214	0xbd15cdd5	-0.03657325
215	0xbc121941	-0.008917154
216	0xbd1353d0	-0.0359686
217	0xbcb594ba	-0.022165645
218	0xbc22e13f	-0.009941398
219	0xbced4f79	-0.02896856
220	0x3c907ac5	0.017636666
221	0x3bf1675b	0.0073670573
222	0x3bc72f31	0.0060786237
223	0x3b86ca99	0.004113507
224	0xbc67c260	-0.014145464
225	0xbd2ae1ea	-0.041719355
226	0xbbfcb507	-0.00771201
227	0x3b0eedc3	0.0021809197
228	0xbc344a82	-0.011004092
229	0xbcba528f	-0.022744445
230	0x3bb943b8	0.0056538247
231	0xbcd1d381	-0.025613548
232	0xbb67525c	-0.0035296893
233	0xbcec7493	-0.02886418
234	0xbc8f86fa	-0.017520417
235	0xbcf08bc6	-0.029363524
236	0xbc17081a	-0.00921824
237	0xbc732f73	-0.014842856
238	0xbca988f5	-0.020695189
239	0xbd260e42	-0.04054094
240	0xbc9b2288	-0.018937364
241	0xbc190b26	-0.009341037
242	0xbcc999ba	-0.024609435
243	0xbc302b55	-0.010752519
244	0x3b1d42e0	0.002399616
245	0xbc5c2909	-0.013437518
246	0xbd138887	-0.036018874
247	0xbc861614	-0.01636795
248	0xbbddccc2	-0.006768794
249	0xbca0f4de	-0.019648012
250	0x3c2f6e37	0.01070743
251	0x3c10c3b1	0.008835719
252	0x3caed25e	0.021340545
253	0xbc60590e	-0.013693107
254	0x3bbf3c50	0.005836047
255	0xbc8d6692	-0.017260823

action_model._discrete_distribution.branches.0.bias f4 [4]
0	0xbc8ef990	-0.017452985
1	0x3c3ae953	0.011408168
2	0x3c73476f	0.014848574
3	0xbc2622ff	-0.01014018

onnx::Div_62 f4 [202]
0	0x3c22ac46	0.0099287685
1	0x3e855fcd	0.26049653
2	0x3c22ac46	0.0099287685
3	0x3dd89159	0.10574598
4	0x3c22ac46	0.0099287685
5	0x3e3c5481	0.1839161
6	0x3c22ac46	0.0099287685
7	0x3dd9efe9	0.10641462
8	0x3c22ac46	0.0099287685
9	0x3e3dbbda	0.18528691
10	0x3c22ac46	0.0099287685
11	0x3dd57c87	0.10424142
12	0x3c22ac46	0.0099287685
13	0x3e3ad982	0.18247035
14	0x3c22ac46	0.0099287685
15	0x3dcfc0c6	0.101441905
16	0x3c22ac46	0.0099287685
17	0x3e32bbca	0.17454448
18	0x3c22ac46	0.0099287685
19	0x3dc694ee	0.09696375
20	0x3c22ac46	0.0099287685
21	0x3e25b539	0.16182412
22	0x3c22ac46	0.0099287685
23	0x3dbd3091	0.09237779
24	0x3c22ac46	0.0099287685
25	0x3e1c773e	0.15279862
26	0x3c22ac46	0.0099287685
27	0x3dbda4a1	0.09259916
28	0x3c22ac46	0.0099287685
29	0x3e1afcab	0.15135448
30	0x3c22ac46	0.0099287685
31	0x3dba1974	0.09086886
32	0x3c22ac46	0.0099287685
33	0x3e165323	0.14680152
34	0x3c22ac46	0.0099287685
35	0x3dafabb9	0.08577675
36	0x3c22ac46	0.0099287685
37	0x3e0a2287	0.13489734
38	0x3c22ac46	0.0099287685
39	0x3daf5108	0.08560377
40	0x3c22ac46	0.0099287685
41	0x3e08c766	0.13357314
42	0x3c22ac46	0.0099287685
43	0x3da8a403	0.08234408
44	0x3c22ac46	0.0099287685
45	0x3e0201b1	0.12695958
46	0x3c22ac46	0.0099287685
47	0x3db46606	0.08808522
48	0x3c22ac46	0.0099287685
49	0x3e0ab0c3	0.13543992
50	0x3c22ac46	0.0099287685
51	0x3db30fa9	0.08743221
52	0x3c22ac46	0.0099287685
53	0x3e09e8f3	0.1346777
54	0x3c22ac46	0.0099287685
55	0x3da60fb0	0.08108461
56	0x3c22ac46	0.0099287685
57	0x3dff73c3	0.12473252
58	0x3c22ac46	0.0099287685
59	0x3da6b57a	0.08140083
60	0x3c22ac46	0.0099287685
61	0x3e08ee76	0.13372216
62	0x3c22ac46	0.0099287685
63	0x3da73052	0.08163513
64	0x3c22ac46	0.0099287685
65	0x3e05dd07	0.13072596
66	0x3c22ac46	0.0099287685
67	0x3db2c6ee	0.08729349
68	0x3c22ac46	0.0099287685
69	0x3e11f4f5	0.142536
70	0x3c22ac46	0.0099287685
71	0x3db4249c	0.08796045
72	0x3c22ac46	0.0099287685
73	0x3e15a0de	0.14612147
74	0x3c22ac46	0.0099287685
75	0x3db19454	0.086708695
76	0x3c22ac46	0.0099287685
77	0x3e1292f2	0.14313868
78	0x3c22ac46	0.0099287685
79	0x3db8ddcc	0.090266794
80	0x3c22ac46	0.0099287685
81	0x3e1c7695	0.1527961
82	0x3c22ac46	0.0099287685
83	0x3dbd9c27	0.09258299
84	0x3c22ac46	0.0099287685
85	0x3e23eaf3	0.16007595
86	0x3c22ac46	0.0099287685
87	0x3dc49a56	0.0959975
88	0x3c22ac46	0.0099287685
89	0x3e2c10e4	0.16803318
90	0x3c22ac46	0.0099287685
91	0x3dc6318c	0.09677419
92	0x3c22ac46	0.0099287685
93	0x3e32e616	0.17470583
94	0x3c22ac46	0.0099287685
95	0x3dc61e42	0.0967374
96	0x3c22ac46	0.0099287685
97	0x3e316c90	0.1732657
98	0x3c22ac46	0.0099287685
99	0x3e6688a9	0.22513069
100	0x3c22ac46	0.0099287685
101	0x3e81d0d8	0.25354648
102	0x3c22ac46	0.0099287685
103	0x3dce7b27	0.10082083
104	0x3c22ac46	0.0099287685
105	0x3de4e621	0.11176706
106	0x3c22ac46	0.0099287685
107	0x3dce7c3d	0.1008229
108	0x3c22ac46	0.0099287685
109	0x3de6229f	0.11237072
110	0x3c22ac46	0.0099287685
111	0x3dcd8a74	0.100361735
112	0x3c22ac46	0.0099287685
113	0x3de2fa5d	0.11082909
114	0x3c22ac46	0.0099287685
115	0x3dc3ab9e	0.09554218
116	0x3c22ac46	0.0099287685
117	0x3ddd06cc	0.10792312
118	0x3c22ac46	0.0099287685
119	0x3dbff14e	0.09372197
120	0x3c22ac46	0.0099287685
121	0x3dd6acfa	0.104822114
122	0x3c22ac46	0.0099287685
123	0x3db61396	0.088904545
124	0x3c22ac46	0.0099287685
125	0x3dc8b204	0.09799579
126	0x3c22ac46	0.0099287685
127	0x3db61379	0.08890433
128	0x3c22ac46	0.0099287685
129	0x3dcae2db	0.099065505
130	0x3c22ac46	0.0099287685
131	0x3db5e9d9	0.088824935
132	0x3c22ac46	0.0099287685
133	0x3dc8ed3e	0.09810875
134	0x3c22ac46	0.0099287685
135	0x3da87424	0.08225277
136	0x3c22ac46	0.0099287685
137	0x3dc05e49	0.093929835
138	0x3c22ac46	0.0099287685
139	0x3da6c798	0.08143538
140	0x3c22ac46	0.0099287685
141	0x3dbd28e1	0.09236313
142	0x3c22ac46	0.0099287685
143	0x3da832a6	0.082127854
144	0x3c22ac46	0.0099287685
145	0x3dbd1059	0.09231634
146	0x3c22ac46	0.0099287685
147	0x3db4d745	0.08830122
148	0x3c22ac46	0.0099287685
149	0x3dcd43e7	0.10022717
150	0x3c22ac46	0.0099287685
151	0x3db5fe4f	0.08886396
152	0x3c22ac46	0.0099287685
153	0x3dcd3a2f	0.10020863
154	0x3c22ac46	0.0099287685
155	0x3dabc3d3	0.0838696
156	0x3c22ac46	0.0099287685
157	0x3dbca217	0.09210604
158	0x3c22ac46	0.0099287685
159	0x3dad0f45	0.08450178
160	0x3c22ac46	0.0099287685
161	0x3dc06569	0.093943425
162	0x3c22ac46	0.0099287685
163	0x3db30dbc	0.08742854
164	0x3c22ac46	0.0099287685
165	0x3dc2151d	0.09476683
166	0x3c22ac46	0.0099287685
167	0x3dbe3fdd	0.09289525
168	0x3c22ac46	0.0099287685
169	0x3dcdde75	0.10052196
170	0x3c22ac46	0.0099287685
171	0x3dc2da10	0.09514248
172	0x3c22ac46	0.0099287685
173	0x3dcfe3ca	0.10150869
174	0x3c22ac46	0.0099287685
175	0x3dc46a20	0.09590554
176	0x3c22ac46	0.0099287685
177	0x3dcf2010	0.10113537
178	0x3c22ac46	0.0099287685
179	0x3dd06fc9	0.10177571
180	0x3c22ac46	0.0099287685
181	0x3dde922b	0.10867723
182	0x3c22ac46	0.0099287685
183	0x3dde6136	0.10858385
184	0x3c22ac46	0.0099287685
185	0x3de557fd	0.11198423
186	0x3c22ac46	0.0099287685
187	0x3de4d826	0.111740395
188	0x3c22ac46	0.0099287685
189	0x3dec59e1	0.115405805
190	0x3c22ac46	0.0099287685
191	0x3de5d88b	0.11222943
192	0x3c22ac46	0.0099287685
193	0x3debea53	0.11519303
194	0x3c22ac46	0.0099287685
195	0x3de546ca	0.111951426
196	0x3c22ac46	0.0099287685
197	0x3deb695d	0.11494706
198	0x3c22ac46	0.0099287685
199	0x3e70cb70	0.23515105
200	0x3c22ac46	0.0099287685
201	0x3e70cb70	0.23515105

onnx::Div_65 f4 [10]
0	0x41b427d1	22.519442
1	0x41263e2f	10.390182
2	0x3c22ac46	0.0099287685
3	0x3c22ac46	0.0099287685
4	0x3c22ac46	0.0099287685
5	0x3c22ac46	0.0099287685
6	0x3c22ac46	0.0099287685
7	0x3c22ac46	0.0099287685
8	0x3c22ac46	0.0099287685
9	0x3c22ac46	0.0099287685
