results/GameLevelReached10/PlayerBehaviour/PlayerBehaviour-17587.onnx (onnx, 490727 bytes, 10 tensors)

network_body.observation_encoder.processors.0.normalizer.running_mean f4 [202]
0.8441561 0.88098663 0.70485497 0.7572251 0.68865234 0.7400715 0.70485497 0.7567293
0.68865234 0.73949546 0.7041733 0.75587845 0.70332074 0.745633 0.6988287 0.7516699
0.70195574 0.744357 0.6904705 0.7467848 0.69581604 0.74131346 0.66079146 0.72599906
0.6761428 0.72645366 0.68467116 0.74010223 0.68467146 0.7334672 0.6770522 0.73665386
0.6802934 0.7314485 0.66732985 0.7253923 0.6659083 0.71635234 0.66824037 0.7267771
0.6612463 0.71498567 0.68626183 0.74903435 0.6787012 0.73717254 0.71395296 0.77051204
0.69814616 0.7524831 0.71361095 0.7704262 0.69769186 0.75243074 0.69410974 0.75549555
0.67693937 0.73433286 0.6829099 0.7366115 0.66568214 0.7153473 0.68950486 0.7396572
0.6673297 0.7153985 0.70280874 0.75362176 0.67625695 0.72644186 0.70832336 0.7565008
0.6823976 0.72897965 0.70269406 0.7522461 0.6609054 0.7153722 0.72941875 0.772186
0.68160105 0.7308692 0.73544365 0.7752585 0.6854102 0.73308116 0.74198276 0.7800097
0.6888221 0.7356303 0.73339796 0.77670634 0.6675011 0.7261608 0.73339796 0.7771891
0.6675011 0.7266792 0.8614396 0.8926909 0.8241416 0.86642444 0.7269157 0.7732486
0.6938251 0.747765 0.7269157 0.77276987 0.6938251 0.74732035 0.7369797 0.77679914
0.7080975 0.7533078 0.7275404 0.77029335 0.7025244 0.7489771 0.7198667 0.7653544
0.6900156 0.7406516 0.69990873 0.7496566 0.6656812 0.7219007 0.71105325 0.75636435
0.6764827 0.72977966 0.7073008 0.75452745 0.6692634 0.72620845 0.6976922 0.7435077
0.6514652 0.70962274 0.6982032 0.74458003 0.647998 0.70844114 0.7174205 0.7674278
0.6631797 0.7291204 0.74158454 0.78641915 0.68569547 0.7483028 0.74141455 0.7863832
0.6864346 0.7486796 0.7206045 0.77054 0.66278183 0.73012966 0.71088207 0.7553921
0.6595392 0.71837974 0.7128148 0.75581664 0.66289544 0.719338 0.72259575 0.76780653
0.6722761 0.73100156 0.72629094 0.76984197 0.6797817 0.7341181 0.71622676 0.763256
0.672617 0.72934556 0.7402769 0.7812287 0.69393814 0.7461117 0.7471009 0.7851145
0.70315135 0.7521907 0.7488626 0.7868942 0.7073572 0.75589037 0.7431204 0.78477305
0.7051969 0.75558335 0.7431204 0.78524154 0.7051969 0.7562203 0.87252647 0.9025065
0.87252647 0.9025065
00000000: 9d1a 583f 5788 613f 6071 343f 81d9 413f
00000010: 854b 303f 5375 3d3f 6071 343f 03b9 413f
00000020: 854b 303f 934f 3d3f b444 343f 4081 413f
00000030: d40c 343f cee1 3e3f 70e6 323f 706d 403f
00000040: 5fb3 333f 2e8e 3e3f adc2 303f 4a2d 3f3f
00000050: 0021 323f b8c6 3d3f a129 293f 13db 393f
00000060: b217 2d3f def8 393f 9c46 2f3f 5777 3d3f
00000070: a146 2f3f 82c4 3b3f 4b53 2d3f 5995 3c3f
00000080: b527 2e3f 3540 3b3f 21d6 2a3f 4fb3 393f
00000090: f778 2a3f de62 373f cd11 2b3f 100e 3a3f
000000a0: 7047 293f 4d09 373f dbae 2f3f b7c0 3f3f
000000b0: 5dbf 2d3f 57b7 3c3f 9fc5 363f 4740 453f
000000c0: b5b9 323f bca2 403f 35af 363f a73a 453f
000000d0: ef9b 323f 4d9f 403f 2db1 313f 2868 413f
000000e0: e64b 2d3f 3dfd 3b3f 2fd3 2e3f 9292 3c3f
000000f0: 256a 2a3f 0021 373f 6483 303f 2d5a 3d3f
00000100: 1fd6 2a3f 5b24 373f 46eb 333f 5bed 403f
00000110: 2d1f 2d3f 18f8 393f ae54 353f 09aa 413f
00000120: 9cb1 2e3f 699e 3a3f c2e3 333f 3393 403f
00000130: 1931 293f a222 373f 30bb 3a3f fbad 453f
00000140: 687d 2e3f 3e1a 3b3f 0946 3c3f 5777 463f
00000150: 0b77 2f3f 35ab 3b3f 95f2 3d3f b7ae 473f
00000160: a556 303f 4452 3c3f f8bf 3b3f 3ad6 463f
00000170: 5ae1 2a3f ade5 393f f8bf 3b3f ddf5 463f
00000180: 5ae1 2a3f a607 3a3f 4e87 5c3f 6487 643f
00000190: f2fa 523f fecd 5d3f 2617 3a3f 9ff3 453f
000001a0: 869e 313f 876d 3f3f 2617 3a3f 3fd4 453f
000001b0: 869e 313f 6350 3f3f b4aa 3c3f 4fdc 463f
000001c0: e145 353f c8d8 403f 1640 3a3f f231 453f
000001d0: a4d8 333f f7bc 3f3f 2f49 383f 44ee 433f
000001e0: dda4 303f 589b 3d3f 382d 333f 7fe9 3f3f
000001f0: 156a 2a3f 7cce 383f 9607 363f 18a1 413f
00000200: f82d 2d3f d7d2 3a3f aa11 353f b628 413f
00000210: d954 2b3f cce8 393f f59b 323f 8556 3e3f
00000220: 6cc6 263f d6a9 353f 72bd 323f cc9c 3e3f
00000230: 32e3 253f 665c 353f dfa8 373f 2676 443f
00000240: 25c6 293f a2a7 3a3f 7cd8 3d3f c452 493f
00000250: bd89 2f3f c690 3f3f 58cd 3d3f 6950 493f
00000260: 2eba 2f3f 77a9 3f3f 8979 383f 1c42 453f
00000270: 12ac 293f c7e9 3a3f 5efc 353f 6061 413f
00000280: 90d7 283f bce7 373f 087b 363f 337d 413f
00000290: 84b3 293f 8926 383f 09fc 383f f88e 443f
000002a0: 491a 2c3f eb22 3b3f 34ee 393f 5d14 453f
000002b0: 2c06 2e3f 2aef 3b3f a35a 373f bf64 433f
000002c0: a130 2c3f 64b6 3a3f c982 3d3f 9bfe 473f
000002d0: eea5 313f 2d01 3f3f 0142 3f3f 44fd 483f
000002e0: ba01 343f 928f 403f 76b5 3f3f e671 493f
000002f0: 5d15 353f 0882 413f 233d 3e3f e3e6 483f
00000300: c987 343f e96d 413f 233d 3e3f 9705 493f
00000310: c987 343f a797 413f e55d 5f3f aa0a 673f
00000320: e55d 5f3f aa0a 673f

network_body.observation_encoder.processors.1.normalizer.running_mean f4 [10]
0.0 0.0 0.0 0.0 0.0 0.0 0.0 0.0
0.0 0.0
00000000: 0000 0000 0000 0000 0000 0000 0000 0000
00000010: 0000 0000 0000 0000 0000 0000 0000 0000
00000020: 0000 0000 0000 0000

network_body._body_endoder.seq_layers.0.weight f4 [256, 212]
-0.09252019 -0.09029339 0.065377 -0.0084721465 0.096111014 -0.056875397 -0.15085182 -0.021168347
0.0048473272 -0.056952704 -0.03485356 -0.09785797 -0.033102933 -0.080878235 -0.026586628 -0.062711686
-0.053882502 -0.037821233 -0.018597934 -0.08997241 0.07527033 -0.02690597 -0.080201745 0.07251155
-0.044595785 0.014853744 -0.095896654 -0.09411908 -0.09532409 -0.047234524 -0.07657864 0.03077527
0.06075987 -0.12153001 0.025990611 -0.12338188 -0.05901626 0.067640275 0.04105134 -0.095097214
0.024811944 -0.07858362 0.031615604 0.022735275 -0.14998083 -0.063824564 0.034943487 -0.120059274
-0.04166417 0.031864524 -0.039047137 0.107837655 -0.04882783 -0.032507177 0.06987502 -0.08199241
0.00074980455 -0.07182196 -0.13083126 -0.018300885 -0.04443747 -0.08071007 0.07734942 0.011732338
0.07185137 0.03205895 0.031714324 -0.022317888 0.1414085 0.11859291 -0.042786658 0.0036978237
0.07414604 -0.041623082 0.015085535 0.06433619 -0.05172408 -0.11897575 0.020408254 0.00033646895
-0.022093035 -0.05308905 0.11866045 0.04866883 -0.009604106 -0.060903084 -0.067065075 -0.023962786
0.09943091 0.13691263 0.08374785 0.096653886 -0.0019140786 -0.044941414 -0.020630041 0.022513479
-0.015721861 0.02060544 0.104737096 0.1153739 -0.054842994 -0.11657264 0.011791602 0.011844606
-0.0011759716 0.014230742 -0.0090129115 -0.063382305 -0.046883747 0.023807196 -0.05920912 -0.06902331
0.039177563 0.038206875 0.052215148 -0.071054205 -0.04725268 -0.09485484 -0.07124413 -0.067682736
0.060337994 0.022961412 0.021438908 0.028227169 -0.021132054 -0.029399846 -0.06427849 -0.034388293
-0.03814497 0.09856809 0.011386773 -0.103071235 0.07528041 0.027765444 0.06730262 -0.05719257
-0.13547191 -0.03330786 -0.00049539784 -0.0022207978 0.008292785 0.072745 -0.046151508 0.06750258
-0.03710665 0.060325254 0.0070166313 -0.11587269 0.08307147 0.04742072 -0.121524446 -0.0125075355
-0.018822648 -0.15508428 -0.07428453 -0.082640074 -0.027314108 0.081554174 -0.008304096 0.009392106
-0.082208514 -0.0067173047 -0.04375686 0.041458506 -0.02913437 -0.04829999 0.040617533 -0.070620716
-0.0022238116 0.06794114 -0.10057888 0.046287797 0.04628692 -0.018809224 -0.091672935 0.030829264
-0.09396566 -0.03032158 -0.04522982 -0.088874005 -0.012419067 -0.022350565 0.028831035 -0.050376642
0.06263479 0.0809397 -0.031144746 0.031673692 -0.0714581 -0.042666566 -0.072519705 -0.0022802243
0.01361975 0.10854744 0.0027608145 -0.07593238 -0.00792126 0.010414956 -0.007857824 0.103348374
0.044184703 -0.031431865 0.021423077 -0.107804276 0.056439415 0.007142108 0.03803705 0.025324548
0.0052866912 -0.04410155 -0.1561876 0.0958674 -0.0025384587 0.08487368 -0.16509728 -0.114472084
0.016631652 -0.028630665 -0.06771562 -0.1545772 -0.09759537 -0.09932509 -0.05633817 0.048381504
0.08696992 0.02642475 -0.14765316 -0.014574984 -0.13523869 -0.046135277 0.06412191 -0.028154282
0.025235465 0.10015022 -0.0066180937 0.002439773 0.048725788 -0.086081214 0.08108542 0.068706326
0.02395836 -0.0043472107 -0.12761942 0.026299534 -0.03313961 0.06698671 -0.013095601 -0.05285582
-0.114982836 -0.008107862 0.069956094 0.016834145 -0.07257954 -0.0065103555 0.1609813 0.1900548
00000000: 3a7b bdbd beeb b8bd 60e4 853d c2ce 0abc
00000010: dad5 c43d 2df6 68bd e678 1abe 3e69 adbc
00000020: 54d6 9e3b 3d47 69bd 9bc2 0ebd c269 c8bd
00000030: f196 07bd 7da3 a5bd 33cc d9bc fc6e 80bd
00000040: e6b3 5cbd 70ea 1abd b25a 98bc 7443 b8bd
00000050: 5527 9a3d e969 dcbc d040 a4bd ef80 943d
00000060: 12aa 36bd 1e5d 733c 7765 c4bd 81c1 c0bd
00000070: 4739 c3bd fd78 41bd 43d5 9cbd 6b1c fc3c
00000080: 57df 783d bae4 f8bd 43ea d43c a4af fcbd
00000090: 09bb 71bd fc86 8a3d 7325 283d 54c2 c2bd
000000a0: 6b42 cb3c 73f0 a0bd 5d7f 013d 543f ba3c
000000b0: 9394 19be 74b6 82bd e720 0f3d a3e1 f5bd
000000c0: 0ca8 2abd 6084 023d e4ef 1fbd fdd9 dc3d
000000d0: b1ff 47bd 3f26 05bd a21a 8f3d a3eb a7bd
000000e0: 888e 443a 6417 93bd a1f8 05be bdeb 95bc
000000f0: 1104 36bd 524b a5bd 5f69 9e3d fe38 403c
00000100: d026 933d 3f50 033d e1e6 013d 01d4 b6bc
00000110: 64cd 103e d7e0 f23d 1041 2fbd 3057 723b
00000120: e1d9 973d f77c 2abd 5229 773c b1c2 833d
00000130: a1dc 53bd 8fa9 f3bd 362f a73c 1968 b039
00000140: 74fc b4bc e773 59bd 4004 f33d f858 473d
00000150: 8a5a 1dbc 8375 79bd 6a59 89bd 9b4d c4bc
00000160: 6fa2 cb3d d332 0c3e fe83 ab3d 79f2 c53d
00000170: d2e1 faba 7d14 38bd 5500 a9bc 306e b83c
00000180: 22cb 80bc bdcc a83c 6780 d63d 2749 ec3d
00000190: 0ca3 60bd a3bd eebd 9031 413c e10f 423c
000001a0: 0f23 9aba 0f28 693c e4aa 13bc 95ce 81bd
000001b0: 2c09 40bd 4f07 c33c 4385 72bd 185c 8dbd
000001c0: a778 203d d07e 1c3d 8ddf 553d de84 91bd
000001d0: 078c 41bd 4143 c2bd 71e8 91bd 3f9d 8abd
000001e0: f924 773d 9219 bc3c a6a0 af3c aa3c e73c
000001f0: 211d adbc f2d7 f0bc 71a4 83bd bdda 0cbd
00000200: e63d 1cbd 11de c93d 968f 3a3c 0317 d3bd
00000210: 9e2c 9a3d 5b74 e33c f5d5 893d c242 6abd
00000220: 26b9 0abe d36d 08bd 96dd 01ba ce8a 11bb
00000230: 76de 073c 55fb 943d 5d09 3dbd cb3e 8a3d
00000240: 25fd 17bd 9d17 773d c5eb e53b a94e edbd
00000250: 6021 aa3d 3b3c 423d cfe1 f8bd 68ec 4cbc
00000260: f431 9abc 6ace 1ebe 7d22 98bd 333f a9bd
00000270: d6c1 dfbc e005 a73d e70d 08bc 59e1 193c
00000280: f05c a8bd d61c dcbb 653a 33bd 65d0 293d
00000290: 34ab eebc 36d6 45bd 925e 263d 98a1 90bd
000002a0: 5ebd 11bb b924 8b3d 4dfc cdbd 4698 3d3d
000002b0: 5a97 3d3d cd15 9abc 05bf bbbd a78d fc3c
000002c0: 1171 c0bd f664 f8bc e742 39bd 9303 b6bd
000002d0: 5879 4bbc 8818 b7bc 102f ec3c bd57 4ebd
000002e0: ab46 803d b7c3 a53d 4423 ffbc 46bc 013d
000002f0: a058 92bd 23c3 2ebd 3685 94bd d16f 15bb
00000300: 5f25 5f3c 1f4e de3d c8ee 343b 7082 9bbd
00000310: 2cc8 01bc 7ea3 2a3c 1abe 00bc 50a8 d33d
00000320: 05fb 343d b3be 00bd 737f af3c 7dc8 dcbd
00000330: 042d 673d 5808 ea3b bdcc 1b3d 6d75 cf3c
00000340: fb3b ad3b d4a3 34bd a4ef 1fbe 2156 c43d
00000350: 455c 26bb 40d2 ad3d 430f 29be 5770 eabd
00000360: 1a3f 883c db8a eabc 7dae 8abd 7c49 1ebe
00000370: 15e0 c7bd f46a cbbd dac2 66bd af2b 463d
00000380: 491d b23d b878 d83c 6432 17be eacb 6ebc
00000390: 037c 0abe 58f8 3cbd 5952 833d cfa3 e6bc
000003a0: 9bba ce3c 8f1b cd3d 98dc d8bb 99e4 1f3b
000003b0: b194 473d 594b b0bd 1d10 a63d e7b5 8c3d
000003c0: 5344 c43c 0c73 8ebb aaae 02be 1f72 d73c
000003d0: 66bd 07bd 5430 893d ef8e 56bc 587f 58bd
000003e0: 1f7c ebbd d7d6 04bc 2445 8f3d c3e7 893c
000003f0: 95a4 94bd d254 d5bb 48d8 243e ba9d 423e

network_body._body_endoder.seq_layers.0.bias f4 [256]
-0.010848847 -0.012494661 -0.033771068 0.02638833 0.012953274 -0.022545217 0.01207639 -0.016446916
0.025971545 -0.008345326 -0.009992672 -0.04006786 0.013727113 0.008604594 0.019637449 -0.026528828
-0.04159669 -0.0105016 0.0067274887 -0.032710988 0.021714333 -0.012313661 0.0042837453 -0.019852152
-0.010402232 -0.0017945239 0.0038514703 -0.04059911 0.0026032566 0.03851292 0.004527059 0.009988952
0.010402917 0.012835875 -0.028598655 -0.0058205053 -0.0074137086 0.029048238 0.013733981 -0.00090154685
-0.044981778 0.0008566792 -0.037638344 0.0037567653 -0.02349223 0.0164092 -0.014025468 -0.018641746
0.02852687 -0.0066647236 -0.0012240103 -0.0050843847 -0.017213194 0.01664899 -0.008271987 -0.0017861872
0.011532288 -0.03712997 0.022623392 -0.0021474317 0.0024044125 -0.03654212 -0.041377544 -0.021776289
-0.03219507 -0.024352713 -0.03183064 -0.0074824 -0.0020077918 -0.005954494 0.011261494 -0.009865934
0.009327082 -0.0030159033 0.005350022 -0.029824516 -0.013600188 0.011124224 -0.03943288 -0.030879252
0.031846516 0.007238385 0.02701552 -0.020763196 0.012499077 0.015787229 0.005577865 -0.024832647
-0.017365858 -0.027276685 -0.03511281 0.00090273604 -0.007905014 0.00581136 -0.015055641 -0.0061235838
-0.0357918 -0.032680225 0.015804172 0.011972627 -0.014941403 -0.005533074 -0.008625272 -0.009534176
-0.004534527 -0.013974291 -0.030184519 0.008158727 -0.030669522 -0.0028281559 -0.0010393391 0.015163831
-0.013834455 -0.027415905 -0.01090493 -0.002633272 -0.023154456 0.006738662 -0.018806307 0.015607778
0.025849516 -0.014390306 -0.00807544 -0.004548794 0.013575069 0.014978199 0.029254323 -0.0097038625
0.021006757 -0.019053133 -0.024447247 0.0024710838 -0.008365477 -0.004466678 -0.014352203 -0.005016262
-0.031962458 0.009574667 -0.014304249 0.0053616962 0.0047669704 0.002858764 -0.025596268 -0.0036019615
-0.011666027 -0.027318401 -0.015211064 0.03194638 0.013292689 0.003443927 0.0076573254 -0.026672337
-0.04283598 0.019630205 -0.021291541 0.011335652 -0.0032391322 -0.009177168 -0.011405545 -0.05253546
-0.020196468 -6.117337e-05 -0.031910937 -0.030124318 -0.042468894 0.01780623 -0.0392502 0.018977664
-0.010755758 -0.018027775 0.030735262 -0.013357849 -0.002805759 -0.0016275597 -0.0319873 0.015318261
0.013959465 -0.0041021183 0.003242573 -0.014808551 -0.009648312 -0.0056419587 0.0007393594 0.0012351193
0.0055246744 -0.04242571 -0.04483413 -0.009645808 -0.013251435 -0.016645933 -0.013755903 -0.02366541
-0.035353474 -0.016283937 -0.0025021436 0.035132855 -0.020532697 0.0025935797 -0.003930046 0.0024242685
-0.008467726 -0.005366033 -0.01875044 0.055873495 -0.015081302 -0.012181775 0.0012934927 -0.006694464
-0.027985755 -0.019200156 -0.00011827312 -0.021652682 -0.0018256254 -0.0069895987 0.004301089 -0.0040880623
-0.004995389 0.031635374 0.008617452 -0.0010092186 -0.000183861 -0.0235793 -0.012317053 0.0048833936
-0.04154395 -0.014287441 -0.03297507 -0.002033693 -0.02858764 -0.033621807 -0.0076752305 0.008707104
-0.0033309923 -0.017321164 -0.025135439 -0.039689943 -0.009121053 -0.02656189 0.018624792 0.007845419
-0.023574634 0.015566608 -0.0049138227 -0.014861195 0.018128308 0.019705262 0.0037305725 -0.03031317
-0.009830939 -0.026953386 -0.015029778 0.019321587 -0.009643808 -0.026052387 -0.031015864 -0.04246823
00000000: 5dbf 31bc 68b6 4cbc 8853 0abd 572c d83c
00000010: f839 543c bfb0 b8bc 0ddc 453c afbb 86bc
00000020: 47c2 d43c d6ba 08bc 4eb8 23bc 321e 24bd
00000030: afe7 603c 48fa 0c3c b7de a03c fc52 d9bc
00000040: 4a61 2abd e70e 2cbc 4472 dc3b f5fb 05bd
00000050: 42e2 b13c 3dbf 49bc a95e 8c3b fba0 a2bc
00000060: 206e 2abc 3b36 ebba f368 7c3b 414b 26bd
00000070: 669b 2a3b b9bf 1d3d b957 943b b4a8 233c
00000080: ff70 2a3c 904d 523c ba47 eabc f0b9 bebb
00000090: b2ee f2bb 92f6 ed3c 7e04 613c c955 6cba
000000a0: d03e 38bd c592 603a aa2a 1abd 1034 763b
000000b0: c772 c0bc 966c 863c 14cb 65bc 93b6 98bc
000000c0: 2fb1 e93c c163 dabb f86e a0ba e99a a6bb
000000d0: af02 8dbc 7663 883c 3a87 07bc 7f1e eaba
000000e0: ecf1 3c3c 9815 18bd b154 b93c edbb 0cbb
000000f0: 5993 1d3b 31ad 15bd 807b 29bd 3064 b2bc
00000100: fade 03bd 577f c7bc d860 02bd ec2e f5bb
00000110: 2895 03bb ea1d c3bb 2182 383c baa4 21bc
00000120: 9ed0 183c 76a6 45bb 3d4f af3b 8b52 f4bc
00000130: 53d3 5ebc 6142 363c 5f84 21bd 7cf6 fcbc
00000140: 7e71 023d f92f ed3b a74f dd3c 9417 aabc
00000150: eec8 4c3c 3854 813c 86c6 b63b d66d cbbc
00000160: d842 8ebc 5b73 dfbc 73d2 0fbd 97a5 6c3a
00000170: 0884 01bc 396d be3b efab 76bc 58a8 c8bb
00000180: 6c9a 12bd b3db 05bd c077 813c d628 443c
00000190: c9cc 74bc ca4e b5bb 0351 0dbc 3c35 1cbc
000001a0: 5f96 94bb 6df4 64bc 8645 f7bc 2eac 053c
000001b0: a63e fbbc 9558 39bb 6f3a 88ba b871 783c
000001c0: e9a9 62bc 5297 e0bc 97aa 32bc f992 2cbb
000001d0: 6aae bdbc fecf dc3b af0f 9abc c4b7 7f3c
000001e0: 5dc2 d33c 51c5 6bbc da4e 04bc 0d0e 95bb
000001f0: f769 5e3c 1f67 753c c3a6 ef3c f3fc 1ebc
00000200: 5d16 ac3c 5115 9cbc 9845 c8bc e8f1 213b
00000210: 5b0f 09bc 365d 92bb 8125 6bbc 755f a4bb
00000220: 11eb 02bd 10df 1c3c 5e5c 6abc 2bb1 af3b
00000230: 3f34 9c3b 1a5a 3b3b 44af d1bc e30e 6cbb
00000240: dd22 3fbc d7ca dfbc d437 79bc 35da 023d
00000250: 94c9 593c 82b3 613b 4dea fa3b f27f dabc
00000260: c874 2fbd 86cf a03c 996b aebc 2cb9 393c
00000270: 9f47 54bb d55b 16bc 53de 3abc 6c2f 57bd
00000280: 1073 a5bc 344a 80b8 0bb5 02bd 46c7 f6bc
00000290: ddf3 2dbd 5fde 913c d1c4 20bd 0c77 9b3c
000002a0: eb38 30bc fcae 93bc 84c8 fb3c e1da 5abc
000002b0: d3e0 37bb d753 d5ba 1d05 03bd 72f9 7a3c
000002c0: 3db6 643c 106b 86bb 5981 543b 919f 72bc
000002d0: f413 1ebc 2ee0 b8bb 92d1 413a bae3 a13a
000002e0: 5408 b53b 95c6 2dbd fea3 37bd 7309 1ebc
000002f0: 8c1c 59bc 0d5d 88bc 7060 61bc f6dd c1bc
00000300: cece 10bd e465 85bc 01fb 23bb 78e7 0f3d
00000310: 3034 a8bc 0cf9 293b 9ec7 80bb 7ae0 1e3b
00000320: 38bc 0abc 8cd5 afbb 869a 99bc 9bdb 643d
00000330: 9117 77bc 1196 47bc 6a8a a93a 3c5d dbbb
00000340: 6242 e5bc a549 9dbc 6609 f8b8 f760 b1bc
00000350: d349 efba 0109 e5bb 26f0 8c3b 27f5 85bb
00000360: 5cb0 a3bb 1894 013d 3730 0d3c c247 84ba
00000370: d0ca 40b9 6029 c1bc 77cd 49bc e004 a03b
00000380: fd29 2abd df15 6abc de10 07bd b547 05bb
00000390: a030 eabc 05b7 09bd 8080 fbbb 3ea8 0e3c
000003a0: c74c 5abb 1de5 8dbc d6e8 cdbc ec91 22bd
000003b0: 7870 15bc 5298 d9bc 0593 983c 138a 003c
000003c0: 971f c1bc 160b 7f3c 2204 a1bb 5f7c 73bc
000003d0: d181 943c ee6c a13c 9f7c 743b 5353 f8bc
000003e0: f211 21bc 59cd dcbc 753f 76bc 4e48 9e3c
000003f0: 1001 1ebc d16b d5bc fb14 febc 2bf3 2dbd

network_body._body_endoder.seq_layers.2.weight f4 [256, 256]
-0.06565961 0.072438516 0.09500482 0.03342266 -0.016269982 0.087828584 -0.1254553 -0.026754832
0.0693414 0.021522151 0.104921475 0.05086832 -0.1290505 0.054119166 -0.03609036 -0.036371775
0.09630406 -0.00020102682 0.021790562 -0.04139796 0.06569209 0.03354555 0.07634087 -0.023667311
-0.08533199 0.10498426 -0.11132988 0.11500765 -0.059906956 -0.051603038 -0.03132414 0.028190432
-0.16173491 -0.058187857 0.10923572 0.0037479966 -0.08492287 -0.012287912 -0.021334372 -0.08919932
-0.093798734 0.075481795 0.03384253 0.07094174 0.094320215 0.057679713 0.0418421 0.039562825
0.16661404 0.10779362 0.04666961 -0.06891724 -0.004263748 0.07684203 -0.15428364 0.10615993
-0.043081775 0.013665083 0.26122925 0.015644917 0.017759025 -0.0069142613 0.02265943 0.13023819
0.033850804 -0.034121983 0.015764326 0.0062052477 -0.10646166 0.009300168 0.19654305 0.083483286
-0.09355433 0.08674374 0.10016103 -0.13254425 -0.15412918 -0.042037982 -0.08485576 0.012166223
-0.08544113 -0.07243938 -0.15399149 -0.08779354 0.021985305 0.1167544 0.114837684 0.04250612
-0.0083334455 0.09523959 -0.03766095 0.027587662 0.05667179 0.014333067 0.03060993 0.0787307
0.094777115 -0.081837445 0.046835124 -0.03596514 0.10647761 0.12666327 0.063577555 0.13894886
0.037512474 -0.0587989 0.13263455 0.080569476 0.038376547 0.00044442603 -0.09745295 0.047401443
-0.02482169 -0.15542774 0.1418629 0.07490849 -0.037712123 0.14322843 -0.11190489 0.020972326
0.06618472 0.008440237 -0.056734245 -0.002306601 -0.037544183 -0.0059656193 0.056232467 -0.066349365
0.07713902 0.042638164 0.028775126 -0.09234843 0.0663249 -0.056493934 0.039977618 0.034036774
-0.11897844 0.05104877 -0.048597395 -0.09910094 0.009908068 -0.14435835 0.02045593 -0.0044289143
-0.004692149 -0.003175164 -0.0017442899 -0.17017244 0.028889406 0.03232247 0.10403344 -0.10578641
0.04144039 -0.12464002 -0.008499182 0.05159394 0.09756201 0.041844238 0.05845366 -0.043252856
0.067552574 0.04326132 -0.058215287 -0.015706927 0.089249045 -0.09689837 -0.086879045 0.046431087
0.08279991 -0.030338984 0.069554314 -0.03259056 -0.06552507 -0.0019730586 -0.034848515 -0.034877986
0.02882865 0.06519373 0.0055172034 0.097343415 -0.074208856 -0.021417443 -0.076645344 0.06951143
-0.044015914 0.08279354 0.04180128 0.06497538 0.041209977 0.14783219 0.013993054 -0.15605707
-0.0064686965 0.027578203 0.03352989 -0.20634785 0.017869802 -0.08451008 -0.0596878 -0.049520213
-0.012538358 -0.025650095 0.050429657 -0.14044839 0.04197258 -0.1250596 0.040248554 -0.075441755
0.026605058 -0.023197252 0.08307635 0.014036131 -0.0036253312 0.036786772 -0.104940474 0.14353305
-0.06630179 -0.100676686 0.034595292 -0.117642 0.006863838 -0.0077080927 0.013058973 0.027964992
0.011077318 -0.020268487 -0.05910249 0.04426311 0.05343732 -0.04492114 -0.00648068 -0.026339266
-0.06753124 0.0033687162 -0.031142564 0.009229513 0.005218606 -0.01682087 -0.0030340543 -0.06937166
0.16556 0.033488717 -0.011865512 -0.041028023 -0.035847247 0.04549985 0.017990777 0.029349871
0.039294515 0.056585904 -0.073784515 -0.07737341 -0.028231585 0.15657201 -0.059023432 -0.014150798
00000000: 8c78 86bd a55a 943d e391 c23d 33e6 083d
00000010: a048 85bc 79df b33d 5b77 00be f32c dbbc
00000020: dd02 8e3d 394f b03c 12e1 d63d 4d5b 503d
00000030: d025 04be 0fac 5d3d 7cd3 13bd 92fa 14bd
00000040: 103b c53d baca 52b9 1f82 b23c e890 29bd
00000050: 9389 863d 0f67 093d 9a58 9c3d f3e1 c1bc
00000060: 8ac2 aebd fd01 d73d ec00 e4bd 2189 eb3d
00000070: ff60 75bd b55d 53bd be4d 00bd 9fef e63c
00000080: d69d 25be 6456 6ebd fab6 df3d f3a0 753b
00000090: 0bec adbd 3d53 49bc 6cc5 aebc 22ae b6bd
000000a0: 8d19 c0bd 3396 9a3d 779e 0a3d e749 913d
000000b0: f52a c13d 9041 6c3d 9f62 2b3d a10c 223d
000000c0: df9c 2a3e e7c2 dc3d a228 3f3d 7b24 8dbd
000000d0: e9b6 8bbb 5b5f 9d3d 88fc 1dbe 616a d93d
000000e0: 8476 30bd 83e3 5f3c d7bf 853e c529 803c
000000f0: 607b 913c 0791 e2bb 45a0 b93c 295d 053e
00000100: 24a7 0a3d 7ec3 0bbd 3024 813c 6455 cb3b
00000110: 9208 dabd bb5f 183c 9542 493e 49f9 aa3d
00000120: 6a99 bfbd b4a6 b13d 3a21 cd3d aeb9 07be
00000130: 0ad4 1dbe 0530 2cbd dbc8 adbd d654 473c
00000140: c2fb aebd 195b 94bd f2af 1dbe 19cd b3bd
00000150: 871a b43c ee1c ef3d 0530 eb3d e61a 2e3d
00000160: 0189 08bc f90c c33d 5e42 1abd 85ff e13c
00000170: ae20 683d 3ed5 6a3c adc1 fa3c 903d a13d
00000180: 811a c23d 649a a7bd 30d6 3f3d 2f50 13bd
00000190: ef10 da3d 04b4 013e f334 823d 9c48 0e3e
000001a0: aea6 193d 1ed7 70bd 5ad1 073e 9c01 a53d
000001b0: ba30 1d3d da01 e939 6a95 c7bd 0428 423d
000001c0: db56 cbbc 7328 1fbe 8244 113e 9f69 993d
000001d0: 0778 1abd 79aa 123e 642e e5bd 28ce ab3c
000001e0: db8b 873d eb48 0a3c 2b62 68bd 582a 17bb
000001f0: eec7 19bd 3e7b c3bb 0454 663d 2de2 87bd
00000200: 10fb 9d3d 5ba5 2e3d d0b9 eb3c 2c21 bdbd
00000210: 59d5 873d 2f66 67bd 92bf 233d 256a 0b3d
00000220: f8aa f3bd 8418 513d 100e 47bd 6ff5 cabd
00000230: 7355 223c add2 13be 3293 a73c 6d20 91bb
00000240: 99c0 99bb 6a16 50bb a8a0 e4ba af41 2ebe
00000250: 7aa9 ec3c 9164 043d 7c0f d53d 8ca6 d8bd
00000260: 66bd 293d 4443 ffbd 2740 0bbc 2b54 533d
00000270: 97ce c73d dd64 2b3d 1b6d 6f3d e829 31bd
00000280: 0159 8a3d c832 313d 2773 6ebd d0ab 80bc
00000290: 34c8 b63d a772 c6bd a4ed b1bd 862e 3e3d
000002a0: 0093 a93d 7689 f8bc 7e72 8e3d ae7d 05bd
000002b0: 0232 86bd 6e4e 01bb 51bd 0ebd 38dc 0ebd
000002c0: 102a ec3c 4a84 853d a8c9 b43b fc5b c73d
000002d0: d0fa 97bd a273 afbc 3cf8 9cbd 025c 8e3d
000002e0: 084a 34bd a98f a93d d237 2b3d d011 853d
000002f0: cbcb 283d 5261 173e 1f43 653c 6dcd 1fbe
00000300: 5cf7 d3bb afeb e13c a356 093d da4c 53be
00000310: b163 923c 9f13 adbd 327b 74bd b5d5 4abd
00000320: af6d 4dbc 2620 d2bc 548f 4e3d b4d1 0fbe
00000330: 71eb 2b3d a00f 00be abdb 243d 3581 9abd
00000340: daf2 d93c 2a08 bebc ef23 aa3d cdf7 653c
00000350: f796 6dbb baad 163d 08eb d6bd 54fa 123e
00000360: 3cc9 87bd 942f cebd cbb3 0d3d 4aee f0bd
00000370: 0cea e03b 2b94 fcbb 4df5 553c d716 e53c
00000380: a47d 353c 190a a6bc 7415 72bd 3c4d 353d
00000390: 17e1 5a3d 3bff 37bd e25b d4bb 72c5 d7bc
000003a0: d24d 8abd aec5 5c3b b11e ffbc 6237 173c
000003b0: d700 ab3b eccb 89bc fcd6 46bb bb12 8ebd
000003c0: 9088 293e 772b 093d 9067 42bc 000d 28bd
000003d0: 90d4 12bd 0d5e 3a3d 6561 933c 246f f03c
000003e0: 49f3 203d 9fc6 673d 561c 97bd f375 9ebd
000003f0: ed45 e7bc 6a54 203e 8ec2 71bd c0d8 67bc

network_body._body_endoder.seq_layers.2.bias f4 [256]
0.016708773 -0.024153868 -0.0037974142 0.00029410154 0.011441392 -0.021166595 -0.0062139374 0.010695684
-0.0027522575 -0.007827039 0.0014331867 -0.0092892265 0.021057254 -0.021293733 0.01294111 0.00391903
-0.0033074536 -0.017734565 0.014987737 0.011597757 -0.00079864945 -0.025879012 -0.025508381 -0.0067054774
-0.0033070038 0.012513924 0.009566448 -0.0022816323 -0.0009830978 0.0057620085 -0.0008385576 -0.006577987
-0.0046526603 -0.01954644 -0.016348824 -0.011656856 0.007518728 -0.0031273977 0.0048364196 -0.00024091889
-0.022713203 -0.02770504 0.012205095 -0.017079532 0.01025755 -0.007630298 -0.018214513 -0.0056750537
0.01202162 -0.0037990592 -0.0045439764 0.011458621 0.008253217 0.009610628 -0.014707765 0.018154753
0.016512092 -0.010001898 0.019672893 -0.008350321 0.00080796226 0.00331625 -0.017823426 0.021621909
0.004150041 -0.0029648254 0.0075746924 0.0037079428 -0.012583245 -0.0116289025 0.014371434 0.000572219
-0.01934216 -0.011821701 0.017448787 0.047719955 -0.00083027635 0.0067331083 0.016721327 -0.020639928
-0.010789162 0.013608804 0.008487992 0.010476648 -0.0024958868 -0.0026339265 0.0015223206 -0.032924417
0.00036242962 -0.009356015 -0.02032538 0.0077133724 0.010247403 -0.029658925 -0.0051914747 -0.013911232
-0.014508041 0.009239597 -0.011420289 -0.008146418 0.028387275 -0.030020589 0.008018783 -0.037396673
0.011103925 -0.01815006 -0.024076914 0.0028005596 -0.0051724953 -0.013745907 -0.004145406 0.008777878
-0.016991885 0.0030441189 -0.022474756 -0.0038681803 -0.00087067735 -0.022013012 -0.01620399 0.009693301
0.006670969 -0.016433284 -0.0035396025 -0.0017171713 -0.001444563 0.002303596 -0.01583951 -0.017011221
0.009881641 -0.0034225674 -0.007580584 -0.015097793 0.018726608 -0.026668042 -0.01491417 -0.009255725
0.004046795 0.015358882 -0.003848652 0.0021574164 0.01231505 0.0042164447 0.012803108 -0.0018821049
-0.00811883 0.004834721 0.004149699 -0.014049807 -0.0063073398 0.006275856 -0.0047945473 0.003317243
0.003023596 -0.017983034 -0.014722581 -0.00024355197 -0.010445177 0.00016449581 -0.011978615 -0.0032203237
-0.029146317 0.0041599837 0.01210615 -0.028962055 -0.005570423 -0.014065344 -0.0052826223 0.008077158
-0.008723338 -0.0059816884 0.004130917 -0.017700458 -0.02211694 -0.0040407856 -0.009333697 -0.017874679
-0.026946852 0.0010279024 0.01073897 -0.0008911111 -0.005265225 0.030201772 0.0010315569 -0.03349897
-0.015543649 0.006010495 0.00066549244 -0.016527403 0.0062983925 0.007182757 -0.0027275858 -0.0037843576
0.01748075 -0.006270453 -0.013689306 0.00996439 -0.012892241 -0.018955223 0.005453124 -0.008177087
-0.010748596 0.00912889 0.00049529487 0.0061242077 -0.010615704 0.013408464 -0.010217175 0.007280396
-0.0031562068 -0.0037890808 -0.026072504 -0.025367446 -0.020302942 -0.0054356596 0.009606686 -0.0007342987
-0.005713836 0.0073113255 0.0024208135 -0.008329243 -0.014037612 0.015039985 -0.013518285 -0.003351957
0.0030017488 -0.0185845 0.0069653927 -0.0108336145 -0.0021570928 0.012911103 -0.02054416 -0.010353233
0.009079148 -0.0060036667 0.006710181 0.007908213 0.007202276 -0.0058331164 -0.01557965 0.019829907
-0.017826276 -0.009638476 -0.028404022 -0.018097185 -0.0037993663 0.015575858 0.03317746 0.004487921
0.029189352 0.0068751485 -0.0008511149 0.0060364073 -0.010269252 -0.016277567 0.008362697 0.018643612
00000000: d6e0 883c 55de c5bc 0ade 78bb a431 9a39
00000010: ad74 3b3c 9165 adbc 499e cbbb f33c 2f3c
00000020: 385f 34bb fb3c 00bc c4d9 bb3a d731 18bc
00000030: 4380 ac3c 3270 aebc f306 543c 356b 803b
00000040: ddc1 58bb 1448 91bc 208f 753c 8504 3e3c
00000050: 755c 51ba 3900 d4bc f4f6 d0bc 9fb9 dbbb
00000060: 51ba 58bb 3407 4d3c 97bc 1c3c 7087 15bb
00000070: 4adb 80ba 3bcf bc3b a6d2 5bba 288c d7bb
00000080: 5875 98bb db1f a0bc f8ed 85bc 66fc 3ebc
00000090: a95f f63b 07f5 4cbb d47a 9e3b 2c9f 7cb9
000000a0: 0a11 babc aef5 e2bc e1f7 473c 60ea 8bbc
000000b0: 480f 283c 9407 fabb 9a36 95bc cdf5 b9bb
000000c0: 54f6 443c a3f9 78bb a3e5 94bb f1bc 3b3c
000000d0: 8038 073c e575 1d3c d6f8 70bc 47b9 943c
000000e0: 5e44 873c 00df 23bc 0c29 a13c c9cf 08bc
000000f0: 6ecd 533a 7155 593b 6f02 92bc 6e20 b13c
00000100: 11fd 873b 844d 42bb 2035 f83b f500 733b
00000110: f429 4ebc 2787 3ebc 2a76 6b3c f800 163a
00000120: 7373 9ebc cfaf 41bc c2f0 8e3c 0076 433d
00000130: e7a6 59ba 68a1 dc3b 2afb 883c 1115 a9bc
00000140: 06c5 30bc 76f7 5e3c 3811 0b3c 3fa6 2b3c
00000150: 0892 23bb f49d 2cbb 9a88 c73a c1db 06bd
00000160: 7b04 be39 f949 19bc 6981 a6bc 75c0 fc3b
00000170: b9e4 273c 46f7 f2bc 3f1d aabb f0eb 63bc
00000180: 22b3 6dbc ae61 173c 2a1c 3bbc 8e78 05bc
00000190: 6e8c e83c bded f5bc 3761 033c 412d 19bd
000001a0: 3ded 353c 6faf 94bc f33c c5bc 9889 373b
000001b0: 097e a9bb 8336 61bc 30d6 87bb 17d1 0f3c
000001c0: 9132 8bbc d77f 473b fb1c b8bc 4c81 7dbb
000001d0: 2b3e 64ba a254 b4bc 3bbe 84bc a7d0 1e3c
000001e0: 2598 da3b 189f 86bc adf8 67bb b512 e1ba
000001f0: 7e57 bdba edf7 163b dcc1 81bc 1e5b 8bbc
00000200: 9be6 213c 274d 60bb 8c66 f8bb bc5c 77bc
00000210: 8b68 993c f076 dabc 905a 74bc 53a5 17bc
00000220: fa9a 843b d2a3 7b3c aa39 7cbb 7163 0d3b
00000230: 10c5 493c 1a2a 8a3b 21c4 513c f6b0 f6ba
00000240: d704 05bc 946c 9e3b 33fa 873b 2931 66bc
00000250: cdad cebb b2a5 cd3b 941b 9dbb 1a66 593b
00000260: 8627 463b 2851 93bc fb36 71bc fc61 7fb9
00000270: 3f22 2bbc 827c 2c39 f441 44bc 110c 53bb
00000280: 42c4 eebc 7950 883b e058 463c d541 edbc
00000290: 1888 b6bb 5472 66bc d919 adbb 0e56 043c
000002a0: 55ec 0ebc 0a02 c4bb a55c 873b 8d00 91bc
000002b0: 962e b5bc 9168 84bb 5dec 18bc eb6d 92bc
000002c0: a5bf dcbc aeba 863a 81f2 2f3c 7499 69ba
000002d0: e987 acbb b569 f73c 4e35 873a 3736 09bd
000002e0: caaa 7ebc b0f3 c43b 7174 2e3a 7a64 87bc
000002f0: bf62 ce3b 555d eb3b 4cc1 32bb fc02 78bb
00000300: ca33 8f3c 5f78 cdbb 1c49 60bc ae41 233c
00000310: fa39 53bc fc47 9bbc 1fb0 b23b 30f9 05bc
00000320: e11a 30bc 5791 153c add6 013a 94ad c83b
00000330: 7ded 2dbc 2daf 5b3c f065 27bc 6390 ee3b
00000340: 5dd8 4ebb 3a52 78bb 0196 d5bc 64cf cfbc
00000350: 5b52 a6bc 9e1d b2bb 5d65 1d3c f47d 40ba
00000360: 213b bbbb d893 ef3b 83a6 1e3b 6177 08bc
00000370: 03fe 65bc 456a 763c cc7b 5dbc 82ac 5bbb
00000380: fdb8 443b 853e 98bc f33d e43b 797f 31bc
00000390: 035e 0dbb 1789 533c 3a4c a8bc 9ba0 29bc
000003a0: b5c0 143c 68ba c4bb 14e1 db3b 7391 013c
000003b0: 1201 ec3b ba23 bfbb ca41 7fbc 5472 a23c
000003c0: 6908 92bc b3ea 1dbc 8daf e8bc 8c40 94bc
000003d0: cafe 78bb e231 7f3c 17e5 073d 690f 933b
000003e0: 821e ef3c ed48 e13b 5b1d 5fba 0ecd c53b
000003f0: 5d40 28bc 8858 85bc b203 093c 7dba 983c

action_model._discrete_distribution.branches.0.weight f4 [4, 256]
-0.04518125 0.0032265738 -0.02740961 -0.028034458 0.03934012 -0.018645175 -0.035843726 -0.0065228343
0.01219595 -0.036532756 -0.046529118 -0.0066162627 0.010635487 0.0029269068 0.03827085 0.015218368
-0.047216732 -0.010618557 0.007883399 -0.07445985 -0.0355627 -0.0023511075 -0.006906009 0.0010952855
0.0063146017 -0.011818796 0.014967275 0.016330065 0.020278096 -0.04340855 -0.07679394 0.0072303656
-0.019950697 -0.009257989 -0.0007254539 -0.025927767 -0.03814959 -0.029898718 0.010955275 -0.016911086
-0.001688122 -0.00010082539 0.012137028 -0.014563486 0.03879219 -0.03125929 -0.015172513 0.028491266
0.01725482 -0.013165533 -0.052609663 0.02842713 -0.08720732 0.007918307 -0.01607658 0.049970612
0.007770073 -0.027903957 -0.0027529828 0.023293324 -0.01677795 -0.003321307 -0.047890842 -0.03361281
-0.009180964 -0.016664902 0.03632268 0.02728821 0.0026613467 0.0062887426 0.01793334 0.010483413
-0.028987871 -0.0022303993 0.015289034 0.02928226 0.011795843 0.005714796 0.025003854 0.008728921
0.041865245 -0.033648007 -0.03416061 -0.021068402 0.019221433 -0.0033161056 0.03173593 -0.019397043
0.007455079 -0.0110748205 -0.03191632 0.026889335 0.014772919 -0.012264374 0.03548307 -0.019847289
-0.029520143 -0.04425572 0.024472004 0.01580167 0.024150286 0.0019856677 0.04060497 -0.006682425
0.025047736 -0.016157655 -0.014180025 0.039401285 0.004165196 0.0043965285 -0.026441539 0.008060891
-0.0060423766 0.009460834 -0.02904419 0.015410654 0.03142666 0.00091818447 0.013373043 -0.03771667
0.028759256 0.0040080273 -0.0120553365 -0.0267277 -0.017151823 0.01928088 0.02077288 -0.051107775
0.0063194386 -0.010951378 -0.025016684 -0.01081409 0.032913186 -0.019619964 -0.04857841 -0.0132105565
0.02696489 -0.070820615 0.017947128 -0.038712207 -0.016176516 0.019872187 0.024654832 0.0018122211
-0.011454667 -0.04570397 0.006098903 -0.017000197 0.009450997 -0.004102947 0.0014602632 -0.03089782
0.004057924 -0.014184937 -0.0029707383 -0.037319336 0.018741094 0.026409995 0.017746663 0.035865076
0.0049790754 0.019545129 0.012236621 -0.00085709227 -0.021750923 -0.01000893 0.0073152054 -0.056047276
0.01184152 0.014556934 -0.041549653 -0.03445869 -0.0275675 0.02114787 -0.041201163 0.008610315
-0.006584255 0.030915609 0.037676863 0.001447073 0.012467094 0.042061273 0.014868743 -0.0108161755
0.0098737925 -0.0121420305 0.007913469 0.012703598 -0.043215323 -0.00289678 -0.013764676 0.001893148
0.014589511 -0.037227664 -0.0312812 0.028423348 -0.030952264 0.023577817 0.019962244 -0.0011789455
0.0031541558 -0.0038409247 0.036640264 0.03731811 0.027452253 -0.055185158 0.0068348143 0.02106149
0.019916233 0.0083409855 -0.015541766 -0.019716134 -0.0106397215 0.028342726 0.031523593 -0.0013957355
0.036755644 0.00040944613 0.015800338 -0.01698503 -0.010886686 0.013549037 -0.004722762 -0.0025700906
-0.056877133 -0.0024935736 -0.03835922 -0.005620777 0.011742604 0.02902437 0.01338316 0.012698825
0.0070741195 0.011364499 0.03993153 -0.022819946 -0.0075226463 0.006716816 -0.006712381 0.0002514087
-0.023724938 0.009458845 -0.0053209285 0.010096633 -0.01579287 -0.020496204 0.03160488 0.022855176
-0.038191047 -0.022256013 0.010375079 -0.014443492 0.010367782 -0.016989423 -0.009269921 0.019394107
00000000: f90f 39bd ed74 533b 1e8a e0bc 85a8 e5bc
00000010: 1b23 213d c4bd 98bc dfd0 12bd 80bd d5bb
00000020: 86d1 473c 5fa3 15bd 5195 3ebd 3ccd d8bb
00000030: 7740 2e3c 59d1 3f3b e5c1 1c3d 7656 793c
00000040: 5566 41bd 75f9 2dbc 5f29 013c 687e 98bd
00000050: 32aa 11bd 0a15 1abb cd4b e2bb af8f 8f3a
00000060: b8ea ce3b a0a3 41bc 4d39 753c a1c6 853c
00000070: 401e a63c 2acd 31bd 2446 9dbd b4ec ec3b
00000080: a56f a3bc d2ae 17bc 632c 3eba 7866 d4bc
00000090: bf42 1cbd 28ee f4bc c17d 333c 1e89 8abc
000000a0: fa43 ddba 3872 d3b8 63da 463c b09b 6ebc
000000b0: 8fe4 1e3d be09 00bd 2296 78bc 8466 e93c
000000c0: fb59 8d3c 3fb4 57bc 3b7d 57bd 03e0 e83c
000000d0: c099 b2bd c9bb 013c 08b3 83bc fcad 4c3d
000000e0: 199c fe3b d796 e4bc 636b 34bb a4d1 be3c
000000f0: e971 89bc 49aa 59bb 3029 44bd 96ad 09bd
00000100: c16b 16bc d584 88bc 17c7 143d 868b df3c
00000110: fd69 2e3b cc11 ce3b f1e8 923c 9fc2 2b3c
00000120: f977 edbc e42b 12bb db7e 7a3c 5ae1 ef3c
00000130: 5a43 413c 2f43 bb3b e2d4 cc3c c003 0f3c
00000140: e47a 2b3d 7ed2 09bd ffeb 0bbd a497 acbc
00000150: 4476 9d3c 0553 59bb 89fd 013d 8ce6 9ebc
00000160: bc49 f43b 2a73 35bc b0ba 02bd 0647 dc3c
00000170: 1d0a 723c 83f0 48bc b256 113d c896 a2bc
00000180: 3ad4 f1bc 7c45 35bd 8379 c83c 8172 813c
00000190: d2d6 c53c fa21 023b 6651 263d 3ef8 dabb
000001a0: e930 cd3c 0f5d 84bc 5653 68bc 3e63 213d
000001b0: 327c 883b c110 903b ed9b d8bc d411 043c
000001c0: 21ff c5bb 9d01 1b3c 15ee edbc f87c 7c3c
000001d0: 3eb9 003d 51b2 703a 9c1a 5b3c cc7c 1abd
000001e0: 8898 eb3c c555 833b bf83 45bc 0df4 dabc
000001f0: fb81 8cbc f0f2 9d3c e32b aa3c 6356 51bd
00000200: 4b13 cf3b 696d 33bc caef ccbc 952d 31bc
00000210: facf 063d 0cba a0bc 28fa 46bd 1771 58bc
00000220: 79e5 dc3c 660a 91bd db05 933c b190 1ebd
00000230: 9d84 84bc ffca a23c eef8 c93c 0d88 ed3a
00000240: 5bac 3bbc 1634 3bbd 4ed9 c73b ff43 8bbc
00000250: 5bd8 1a3c 0472 86bb 4d66 bf3a 6d1d fdbc
00000260: 55f8 843b f067 68bc b8b0 42bb 29dc 18bd
00000270: ec86 993c c659 d83c 7361 913c 42e7 123d
00000280: 8327 a33b 1b1d a03c 1c7c 483c 7dae 60ba
00000290: fe2e b2bc 7ffc 23bc 64b4 ef3b d491 65bd
000002a0: ef02 423c 3580 6e3c f82f 2abd 8e24 0dbd
000002b0: 3dd5 e1bc 4c3e ad3c 8dc2 28bd 4712 0d3c
000002c0: bcc0 d7bb bb42 fd3c 0e53 1a3d b6ab bd3a
000002d0: c842 4c3c 7148 2c3d 079c 733c 5436 31bc
000002e0: b0c5 213c 5eef 46bc 7fa7 013c c022 503c
000002f0: 8d02 31bd e7d7 3dbb 3c85 61bc 8123 f83a
00000300: d808 6f3c 097c 18bd b720 00bd 15d8 e83c
00000310: 9a8f fdbc 4426 c13c dc87 a33c d986 9aba
00000320: f4b5 4e3b 06b8 7bbb 1a14 163d e0da 183d
00000330: 8ce3 e03c d509 62bd 94f6 df3b 2589 ac3c
00000340: 5e27 a33c a1a8 083c e4a2 7ebc bb83 a1bc
00000350: 3a52 2ebc 012f e83c e21e 013d 1df1 b6ba
00000360: 168d 163d eeaa d639 b66f 813c 3124 8bbc
00000370: 125e 32bc c8fc 5d3c 66c1 9abb f76e 28bb
00000380: fff7 68bd 396b 23bb 8f1e 1dbd 7f2e b8bb
00000390: 0d64 403c 84c4 ed3c 0b45 5b3c bc0e 503c
000003a0: 04ce e73b 2a32 3a3c 3e8f 233d e5f0 babc
000003b0: 8880 f6bb bd18 dc3b 88f3 dbbb 81cf 8339
000003c0: cd5a c2bc 45f9 1a3c 2f5b aebb 596c 253c
000003d0: 0d60 81bc a8e7 a7bc 1e74 013d c73a bb3c
000003e0: 376e 1cbd 3e52 b6bc 3cfc 293c 65a4 6cbc
000003f0: a1dd 293c 672d 8bbc dee0 17bc 64e0 9e3c

action_model._discrete_distribution.branches.0.bias f4 [4]
0.0054730736 -0.003993199 -0.00089188037 -0.0013729
00000000: 7857 b33b 62d9 82bb 14cd 69ba e1f2 b3ba

onnx::Div_62 f4 [202]
0.36278674 0.2872171 0.45616975 0.38590196 0.4631064 0.39718753 0.45616975 0.38701487
0.4631064 0.39839596 0.45647568 0.38752744 0.45685616 0.3994349 0.45882884 0.38875526
0.45746103 0.39987367 0.46236086 0.3896428 0.46012294 0.39999405 0.47350076 0.39520353
0.46800697 0.4042907 0.46470776 0.39320722 0.46470782 0.40180704 0.4676634 0.39323413
0.4664238 0.4019419 0.47123012 0.39935184 0.471732 0.40933236 0.47090548 0.39873022
0.47334656 0.40876916 0.46407214 0.3856135 0.46703592 0.39653432 0.45197463 0.37807924
0.4591242 0.3916775 0.45213622 0.377986 0.45931992 0.3917432 0.4608451 0.38360965
0.4677066 0.3979179 0.46540412 0.3965112 0.47181213 0.41036403 0.46275783 0.39676952
0.47123006 0.41098425 0.4570836 0.38915226 0.46796408 0.40496436 0.4545969 0.38861746
0.46560556 0.40517372 0.4571338 0.39009103 0.47346193 0.40716282 0.44432405 0.3828293
0.46591634 0.40309733 0.44116023 0.3823245 0.46441343 0.40276647 0.43760827 0.38078764
0.46303675 0.4022162 0.4422471 0.38022977 0.47116935 0.40086928 0.4422471 0.37913194
0.47116935 0.39970297 0.34556922 0.27757642 0.38077435 0.30109644 0.44560736 0.380241
0.4609648 0.3913527 0.44560736 0.3813459 0.4609648 0.3924166 0.440338 0.38190204
0.45470077 0.393266 0.44528848 0.38374957 0.45720977 0.39449337 0.44912794 0.38521558
0.46254823 0.39651617 0.45835933 0.3914776 0.4718121 0.4020845 0.45333546 0.39018795
0.46787822 0.4001861 0.45506406 0.39046353 0.4705391 0.40034863 0.45932016 0.39708236
0.47656494 0.4067635 0.45909947 0.39647692 0.4776539 0.40618852 0.4503164 0.38212618
0.47268334 0.3938605 0.43782812 0.3742251 0.46429974 0.38761756 0.43792245 0.37415916
0.46400362 0.38752696 0.44876528 0.3802458 0.47282028 0.39349043 0.45341498 0.39182195
0.47392374 0.4028853 0.45251143 0.39214996 0.47278154 0.4034142 0.4477817 0.38439974
0.46944407 0.39688984 0.44592488 0.38388434 0.4666213 0.39699423 0.45089096 0.38566014
0.46931875 0.39800593 0.43854704 0.37850046 0.46091694 0.39245582 0.43473893 0.3774116
0.45693213 0.39090922 0.43373266 0.37648135 0.45503846 0.38959906 0.4369777 0.37600586
0.45601684 0.38890934 0.4369777 0.37489974 0.45601684 0.38761333 0.3335877 0.2644112
0.3335877 0.2644112
00000000: 2fbf b93e 1f0e 933e 158f e93e f194 c53e
00000010: 481c ed3e 2a5c cb3e 158f e93e d026 c63e
00000020: 481c ed3e 8efa cb3e 2eb7 e93e ff69 c63e
00000030: 0de9 e93e bb82 cc3e 9deb ea3e ee0a c73e
00000040: 5538 ea3e 3ebc cc3e 90ba ec3e 437f c73e
00000050: 3c95 eb3e 05cc cc3e b16e f23e 1e58 ca3e
00000060: 9c9e ef3e 31ff ce3e 2dee ed3e 7552 c93e
00000070: 2fee ed3e a7b9 cd3e 9471 ef3e fc55 c93e
00000080: 1acf ee3e 54cb cd3e 1345 f13e d877 cc3e
00000090: db86 f13e 0394 d13e 861a f13e 5e26 cc3e
000000a0: 7b5a f23e 314a d13e dd9a ed3e 226f c53e
000000b0: 551f ef3e 8c06 cb3e 3869 e73e 9a93 c13e
000000c0: 5412 eb3e f489 c83e 667e e73e 6287 c13e
000000d0: fb2b eb3e 9192 c83e e4f3 eb3e 7c68 c43e
000000e0: 3d77 ef3e e5bb cb3e 7349 ee3e 8403 cb3e
000000f0: 5c91 f13e 3c1b d23e 98ee ec3e 6025 cb3e
00000100: 1145 f13e 876c d23e dd06 ea3e f73e c73e
00000110: fd98 ef3e 7d57 cf3e edc0 e83e def8 c63e
00000120: da63 ee3e ee72 cf3e 710d ea3e 03ba c73e
00000130: 9a69 f23e a577 d03e 717e e33e 3402 c43e
00000140: 968c ee3e c662 ce3e c1df e13e 09c0 c33e
00000150: 99c7 ed3e 6837 ce3e 310e e03e 99f6 c23e
00000160: 2713 ed3e 48ef cd3e 366e e23e 7aad c23e
00000170: 1c3d f13e bd3e cd3e 366e e23e 951d c23e
00000180: 1c3d f13e dea5 cc3e 73ee b03e 7f1e 8e3e
00000190: dbf4 c23e 5029 9a3e a626 e43e f3ae c23e
000001a0: 9403 ec3e 625f c83e a626 e43e c53f c33e
000001b0: 9403 ec3e d4ea c83e fb73 e13e aa88 c33e
000001c0: 8ace e83e 295a c93e dafc e33e d37a c43e
000001d0: 6617 ea3e 09fb c93e 19f4 e53e fa3a c53e
000001e0: 1fd3 ec3e 2b04 cb3e 13ae ea3e c16f c83e
000001f0: 5b91 f13e 05de cd3e 961b e83e b7c6 c73e
00000200: bc8d ef3e 31e5 cc3e 28fe e83e d6ea c73e
00000210: 80ea f03e 7ffa cc3e 032c eb3e 614e cb3e
00000220: 5200 f43e 4e43 d03e 160f eb3e 06ff ca3e
00000230: 0d8f f43e f1f7 cf3e df8f e63e 0ba6 c33e
00000240: 8d03 f23e 15a8 c93e 022b e03e 6f9a bf3e
00000250: b2b8 ed3e cf75 c63e 5f37 e03e ca91 bf3e
00000260: e291 ed3e ef69 c63e 90c4 e53e 94af c23e
00000270: 8015 f23e 9477 c93e 0226 e83e e39c c83e
00000280: 22a6 f23e fb46 ce3e 94af e73e e1c7 c83e
00000290: 6c10 f23e 4e8c ce3e a543 e53e 0bd0 c43e
000002a0: f95a f03e 2535 cb3e 4450 e43e 7d8c c43e
000002b0: fde8 ee3e d442 cb3e 2edb e63e 3f75 c53e
000002c0: 8c4a f03e 6fc7 cb3e 3d89 e03e d0ca c13e
000002d0: 4efd eb3e f8ef c83e 1a96 de3e 183c c13e
000002e0: 02f3 e93e 4125 c83e 3512 de3e 2ac2 c03e
000002f0: cdfa e83e 8779 c73e 8bbb df3e d783 c03e
00000300: 0a7b e93e 201f c73e 8bbb df3e dcf2 bf3e
00000310: 0a7b e93e 4175 c63e 02cc aa3e e860 873e
00000320: 02cc aa3e e860 873e

onnx::Div_65 f4 [10]
0.0075403545 0.0075403545 0.0075403545 0.0075403545 0.0075403545 0.0075403545 0.0075403545 0.0075403545
0.0075403545 0.0075403545
00000000: 1415 f73b 1415 f73b 1415 f73b 1415 f73b
00000010: 1415 f73b 1415 f73b 1415 f73b 1415 f73b
00000020: 1415 f73b 1415 f73b
