results/GameLevelReached2/PlayerBehaviour/PlayerBehaviour-30007.onnx (onnx, 490727 bytes, 10 tensors)

network_body.observation_encoder.processors.0.normalizer.running_mean f4 [202]
00000000: 48ea 5a3f 7076 633f 8c9f 3b3f f3a4 473f
00000010: cc97 393f 5b6a 453f 8c9f 3b3f f489 473f
00000020: cc97 393f bc4b 453f 113e 3e3f 33a2 483f
00000030: 4d76 3b3f 8f03 463f 4fd5 3d3f 3c3e 483f
00000040: 4437 3a3f 5209 453f 2822 3d3f aee9 473f
00000050: 7e58 393f d0ae 443f f5f8 373f f113 443f
00000060: 1898 343f 1418 413f c594 3b3f 8c7e 463f
00000070: 86fb 363f 02ca 423f 2f95 3a3f 9202 463f
00000080: edc9 353f a53a 423f ad49 383f b998 433f
00000090: 432b 333f b16f 3f3f ae54 383f c4ce 433f
000000a0: a93a 333f 79b0 3f3f 3a5d 3d3f ab78 493f
000000b0: 9136 373f 7227 453f c6ad 423f a2b3 4d3f
000000c0: e05f 3c3f 047c 493f a64d 423f b790 4d3f
000000d0: 44d6 3b3f a64e 493f e5d0 3d3f 23dd 493f
000000e0: 5f29 373f 8278 453f c60f 363f 8225 423f
000000f0: fb80 323f 6ebd 3f3f b11c 363f 34f9 413f
00000100: 9134 323f d642 3f3f f369 393f 3454 453f
00000110: be5f 333f f72b 413f 2870 3a3f b4e2 453f
00000120: 4010 353f f5e2 413f 98e9 373f 0b19 443f
00000130: 1b84 303f e8da 3e3f acf8 3c3f 8cf0 473f
00000140: 00bf 353f b4bf 423f 2a03 3e3f 287e 483f
00000150: 61f2 373f bdb8 433f ba02 3f3f 4b3a 493f
00000160: 59b0 383f 5c74 443f 4e0d 3b3f 7789 473f
00000170: 7783 363f 8580 433f 4e0d 3b3f b69b 473f
00000180: 7783 363f ad99 433f b073 573f 8cd3 603f
00000190: fc78 553f 947f 5f3f 73ec 313f 9b1d 3f3f
000001a0: 1113 2f3f 2eaa 3d3f 73ec 313f cbfa 3e3f
000001b0: 1113 2f3f 3f87 3d3f 8ea9 343f b209 403f
000001c0: 7168 333f 6679 3f3f 191c 333f c6de 3e3f
000001d0: a729 323f f287 3e3f a318 313f 83ab 3d3f
000001e0: f9b1 303f 14c7 3d3f f7f0 2c3f a85f 3a3f
000001f0: cfe1 2c3f 9ab4 3a3f 58f2 2e3f 9c0c 3c3f
00000200: 6310 303f 1525 3d3f 7a78 2d3f 7457 3b3f
00000210: 26aa 2e3f 1783 3c3f 20ee 293f 0da0 373f
00000220: bc23 2c3f 93ac 393f 5e62 293f 8e7f 373f
00000230: 0c9f 2a3f a71d 393f 8e85 2d3f 3483 3d3f
00000240: 5465 2c3f 8a80 3d3f 3fcb 323f 2adc 413f
00000250: 6fbc 313f 4efa 413f 729d 323f d7c3 413f
00000260: 0bb8 313f 7401 423f 5284 2b3f 4fde 3b3f
00000270: ee44 2b3f a027 3d3f ce17 253f 0de7 333f
00000280: a591 263f e0ab 353f 6e2b 253f 12ae 333f
00000290: c144 273f 2fb7 353f 2161 273f 1a49 363f
000002a0: 869f 293f cb4c 383f 6f81 283f 52df 363f
000002b0: 2d47 2b3f cc09 393f 7e4a 243f 9bc6 333f
000002c0: af86 263f 43e3 353f 5674 283f f512 373f
000002d0: fc5c 2b3f 148d 393f 8d29 293f e83c 373f
000002e0: 798a 2c3f 5cf0 393f fa56 2a3f fa27 383f
000002f0: 66c9 2d3f d7e1 3a3f 26fc 273f de37 373f
00000300: 9d05 2b3f dec1 393f 26fc 273f 515c 373f
00000310: 9d05 2b3f 75de 393f 8f47 4f3f a75d 5a3f
00000320: 8f47 4f3f a75d 5a3f
0.85513735 0.88852596 0.73290324 0.7798607 0.7249725 0.7711541 0.73290324 0.77944875
0.7249725 0.77068686 0.74313456 0.78372496 0.7322739 0.7734918 0.7415361 0.7821996
0.7274058 0.76967347 0.73880243 0.7809094 0.72400653 0.7682924 0.71864253 0.7659293
0.70544577 0.75427365 0.7327388 0.77536845 0.71477544 0.7608949 0.72883886 0.7734767
0.7101124 0.75870734 0.7198742 0.7640491 0.6998789 0.747798 0.7200421 0.76487374
0.70011383 0.7487865 0.7397038 0.7869975 0.71567637 0.77013314 0.7604641 0.8035222
0.73583794 0.7870486 0.7589973 0.8029894 0.7337382 0.78635633 0.7414687 0.7885305
0.715475 0.77137005 0.7111782 0.7583848 0.6972806 0.7489842 0.7113753 0.7577088
0.6961146 0.7471136 0.7242729 0.7708161 0.70067966 0.7545771 0.72827387 0.77299047
0.7072792 0.75736934 0.7184081 0.7660071 0.68951577 0.74552774 0.73816943 0.7810142
0.7099457 0.76073766 0.7422358 0.783175 0.71854216 0.76453763 0.74613535 0.78604573
0.72144085 0.7674005 0.73067176 0.7794413 0.7129435 0.7636798 0.73067176 0.7797197
0.7129435 0.76406366 0.841609 0.87822795 0.8338773 0.87304044 0.6950142 0.7465455
0.6838847 0.740878 0.6950142 0.7460143 0.6838847 0.74034494 0.7057122 0.75014794
0.7008124 0.74794614 0.6996475 0.74558675 0.69594806 0.74426186 0.6917822 0.7408983
0.69021565 0.74131894 0.67555183 0.7280221 0.67532057 0.72931826 0.6833854 0.7345674
0.68775004 0.7388471 0.6776196 0.7318032 0.68228376 0.7363753 0.66378975 0.71728593
0.67242026 0.7252895 0.6616572 0.7167901 0.66648936 0.7231087 0.67781913 0.74028325
0.67342114 0.7402426 0.6984138 0.7572657 0.6942815 0.7577256 0.6977149 0.7568945
0.6942145 0.7578347 0.6699878 0.7338609 0.66902053 0.7388859 0.6448945 0.7027443
0.65065986 0.70965385 0.64519393 0.70187485 0.65339285 0.7098264 0.6538258 0.71205294
0.6625904 0.71992177 0.658225 0.7143451 0.6690548 0.72280574 0.64176166 0.7022492
0.6504926 0.710499 0.65802515 0.715133 0.6693876 0.72480893 0.66079026 0.7157731
0.6739879 0.72632384 0.66538966 0.71936 0.67885435 0.73000854 0.65619123 0.7156962
0.6680544 0.7256144 0.65619123 0.7162524 0.6680544 0.7260507 0.80968565 0.8529915
0.80968565 0.8529915

network_body.observation_encoder.processors.1.normalizer.running_mean f4 [10]
00000000: 953f 0a42 c4ef 6d41 0000 0000 0000 0000
00000010: 0000 0000 0000 0000 0000 0000 0000 0000
00000020: 0000 0000 0000 0000
34.56209 14.871037 0.0 0.0 0.0 0.0 0.0 0.0
0.0 0.0

network_body._body_endoder.seq_layers.0.weight f4 [256, 212]
00000000: 1ced 66bd ca6e 4fbe a6c5 f2bc 9496 9dbd
00000010: a082 04be d880 14bd 4297 c7bd 4b51 08be
00000020: 4f60 803d 44ed 71bd 614e 53bd 49c6 c5bd
00000030: 81c8 54bd 35ce 88bd 7da4 7abd db79 b1bc
00000040: 1278 1f3d 8cde d43d 892f 553d 2a52 54bc
00000050: be82 77ba 311e 123d 01d5 89bc 1f60 8c3d
00000060: 5863 c23d 3794 333d 92da 263d 9d61 d03c
00000070: 4c2e ed3c faaa b03a 37bb c53c 6850 723c
00000080: 5619 fdbc f1e6 d73c 9227 1d3d e850 393c
00000090: 5df0 85bc c1c2 adbd 654f 79bd c734 47bd
000000a0: b903 41be b3bc fdbc 8ddf 023d 8421 0a3d
000000b0: 110d 2e3b d693 2b3e 5ed5 c13c 359a b6bd
000000c0: 11ba 4e3d 52f9 b53d 4537 86bd dca2 20be
000000d0: c1fa 2cbb 437a fcbc 41bf 723d a7a5 bcbc
000000e0: b622 41bd 2d7c 38bc a550 aabc afb1 d6bc
000000f0: d4e8 debd c2eb a23c c41c 16be c80a cdbd
00000100: 210d 17bd cacb 5bbc 5c68 1bbe 234a bbbc
00000110: b437 0ebe 2ab1 febc 1055 c43c fde3 8bbd
00000120: 0583 973c 0aa9 a3bd 8fff cabd 5771 a5bc
00000130: 16b6 71bd 98ea 98bc bda6 bbbc 3b69 a0bd
00000140: e0a3 db3d 1085 433d 5dd4 59be 5bc1 f2bd
00000150: 9a5b f43c 8db5 b1bd 349e 943d 6a5c 0cbe
00000160: e23c 9f3d 51a5 41bd 9bf8 2ebe bab8 37be
00000170: 9d2f 8a3b 6878 253c a63e 843d 3bd4 f93d
00000180: 0905 cebd 3bba 8abc 69b1 a03d 1ff2 203d
00000190: 15eb 093e 2a7a 573d a094 313e 3dda be3b
000001a0: c17e 10be 5d4e 573c 3bc8 cf3d 7339 473c
000001b0: 41d6 0a3d 301c 7a3d 45ec a83d db13 963c
000001c0: d4d1 2dbd 6f2c 48bd f892 f73d 5a9f b33d
000001d0: 7a37 063d ee47 093e 8ee5 0fbd 18f6 013d
000001e0: 5e18 023b 7407 0ebd 8979 cdbd d2b5 ccbd
000001f0: bdce 80bc 0a05 ddbd 9e5a 023e 1234 28be
00000200: a31b 1d3d d86f 49bd bd04 d1bc c7be 863c
00000210: 7fc4 6dbd aa37 d23d 5eee 9b3d c79c 2bbd
00000220: 1e3c 06bd caa9 e63c 4f72 923d 9d9a d13d
00000230: 19ab 633c c900 66bd fe16 bdbd 43f5 18bd
00000240: ff81 33bd f4f4 993d 5734 5d3d cd72 04be
00000250: 7a8d 583d 8d34 a0bc 3951 babd d75e c43c
00000260: 001e f03d 9d77 ddbc b406 3c3d 1eca 4bbd
00000270: f030 9b3d a404 49bd 02b9 74bc fc54 2d3e
00000280: ccab 163c fe62 903d d1d9 aa3c effb 423c
00000290: b5c5 853d 6751 c73d f0ac 083c 1521 603d
000002a0: 3963 253d ff0c 963d 4b48 893a c78e 38bd
000002b0: e2df cabc 396a a8bc ce1e 993d 273f f13d
000002c0: cbdf f73d 08d8 973d 7e65 863d d64f f0bd
000002d0: 5dce aebd 5813 e8bc 5f01 703c 9f39 933d
000002e0: 22a6 bc3d e865 c73d beb3 abba 2bbe 073e
000002f0: 1188 d73d e412 e0bd 1740 bfbd 8265 ae3d
00000300: de30 693b 2ec1 bc3d d5fa 3c3e 81c0 b23d
00000310: 4992 ffbc 190f a5bd 7547 c83d ed30 953d
00000320: 0186 1e3e 46bc 403d 06ea 483e 24e6 953d
00000330: 2378 80bd 994b 313d ea1e d33d 9bff 0cbd
00000340: d3d6 96bc 7fac 1a3d 2d32 08bd 48a6 64bc
00000350: 3265 abbd a94c ee3b f099 9a3c 7430 773d
00000360: 96b4 5c3d 6368 9a3d 771b bb3d 2148 ed3d
00000370: 643b d93d a685 6d3d e15f 973d 74dd 563c
00000380: 0d30 5d3c 581e c13d 66dc d03d 6281 be3d
00000390: b0b9 ba3d 3b7f be3d 08ed 483d 59ff 543a
000003a0: e0b7 563d 0308 4c3c 9b77 ef3c 1885 d5bd
000003b0: 4ead d43d 0e7a 643c c685 02bd af15 efbc
000003c0: dd90 3d3c 8dfa 343d 1aa5 9ebb 45cb b3bd
000003d0: 8a1c e23d 7270 003d 65b8 4fbd eac4 acbd
000003e0: b889 dd3d 0cb2 a03d 8c99 273e bbed 13bc
000003f0: bc11 113e 6fa7 3d3d 096a aabd 73db 3c3d
-0.05637847 -0.20257106 -0.029635262 -0.07694736 -0.12940454 -0.036255687 -0.09745647 -0.13312261
0.062683694 -0.059064165 -0.05158842 -0.096569605 -0.051949028 -0.06679956 -0.061192024 -0.02166455
0.038932867 0.1039401 0.052047286 -0.012959043 -0.00094417844 0.035673324 -0.016825201 0.06854271
0.094916046 0.04384252 0.04073579 0.02543717 0.02895274 0.0013478689 0.024137123 0.014789678
-0.03089587 0.026355239 0.038367815 0.011310793 -0.016349966 -0.08484412 -0.060866732 -0.048634317
-0.18849076 -0.030973768 0.031951476 0.03372337 0.002655808 0.16755614 0.023661312 -0.089161314
0.050470416 0.08885445 -0.065535106 -0.15687126 -0.0026394578 -0.030820018 0.059264425 -0.023028208
-0.047152244 -0.011260075 -0.020790407 -0.026207773 -0.10884252 0.019887809 -0.1465941 -0.10011822
-0.036877755 -0.013415286 -0.15176529 -0.0228625 -0.13888437 -0.031090338 0.023966342 -0.06830595
0.018495092 -0.07991226 -0.09912025 -0.020195646 -0.05901154 -0.01866655 -0.022906655 -0.07832571
0.10724616 0.04773432 -0.21272416 -0.11853286 0.029828835 -0.08677206 0.07256737 -0.13707128
0.07775284 -0.0472768 -0.17087023 -0.17941561 0.0042171017 0.010099508 0.06457262 0.12198683
-0.10059554 -0.016934505 0.07846338 0.039293405 0.13468583 0.05260674 0.17341852 0.005824356
-0.14110853 0.013141242 0.10145613 0.012159693 0.033895735 0.061062038 0.0824819 0.018320015
-0.042436436 -0.0488705 0.12088579 0.08770628 0.03276775 0.13406345 -0.03513103 0.031728834
0.001985095 -0.034675077 -0.100329466 -0.09995617 -0.01572358 -0.10791977 0.1272988 -0.16426113
0.038356435 -0.049178928 -0.025514955 0.016448392 -0.05804872 0.10264523 0.07613824 -0.04189756
-0.032772176 0.028157134 0.07150709 0.10234568 0.013895773 -0.056153093 -0.09232901 -0.037343275
-0.043825146 0.07517424 0.054004993 -0.12934418 0.052869298 -0.019556308 -0.09097523 0.023971004
0.11724472 -0.027034575 0.04590483 -0.0497533 0.075776935 -0.04907669 -0.014936687 0.1692695
0.009196233 0.07050131 0.020855816 0.011900886 0.0653185 0.09732323 0.008342013 0.05471905
0.04037783 0.073266976 0.0010473815 -0.045058038 -0.024764959 -0.020558463 0.07476579 0.117796235
0.12103232 0.074142516 0.06562327 -0.117339775 -0.085354544 -0.028329536 0.014648764 0.07188725
0.09211375 0.09736234 -0.0013099832 0.13256137 0.105239995 -0.10941103 -0.09338396 0.08515455
0.0035582106 0.092165336 0.1845506 0.087281235 -0.031197684 -0.0805952 0.09779254 0.072847225
0.15480806 0.04705455 0.19620523 0.073192865 -0.06272914 0.043284986 0.10308631 -0.034423452
-0.018412983 0.03776216 -0.033250976 -0.01395566 -0.08368911 0.007272322 0.018872231 0.060348943
0.053883158 0.075394414 0.09136098 0.11586023 0.10607031 0.057988785 0.07391334 0.013114322
0.013500226 0.09429616 0.10198288 0.093020216 0.09117448 0.09301611 0.049054176 0.0008125208
0.05242145 0.012453082 0.029231837 -0.10425776 0.10384618 0.013945116 -0.031865858 -0.029185144
0.011570183 0.044184256 -0.004841459 -0.08779005 0.110406 0.031357236 -0.05071296 -0.08435996
0.108172834 0.0784646 0.16367167 -0.009028847 0.14166921 0.046302255 -0.08321006 0.04610772

network_body._body_endoder.seq_layers.0.bias f4 [256]
00000000: 78f2 1a3c 19ee e9bc b032 59bc 7e3c d2ba
00000010: 170b c0bc c57d 59bd d472 37bd c21c 053d
00000020: b470 aabc de77 9ebc be3e fdbc 2907 203b
00000030: 77a7 42bd 1a06 bbbc 2778 70bd 3647 24bb
00000040: 4496 27bd 681d 9cbc c938 0fbd 20fe 5fbd
00000050: 83af 8ebc b527 9ebc 7831 72bd f1c7 fbba
00000060: f03a 32bc b3ba 91bd 7762 1c3d c351 8fbb
00000070: 58e3 a0bc a6ed 47bd 000e 80bc 3ebf 99bd
00000080: 4763 69bd e3ae 66bd d3b7 063c 5d30 da3a
00000090: f0f8 60bd ca1f 88bc 6c2e 1e3c 6786 75bd
000000a0: 68c8 e8ba 0cec a0bc 3042 4abd d4bb d0bc
000000b0: 37e1 a6bb d638 f4bc 28d9 06bd 984b 4bbd
000000c0: 595d db3b 4cc6 35bc 819b a93b 447d f83b
000000d0: fffd 48bb cd49 abbc ed41 e6bc 6834 debc
000000e0: f084 c1bb c22f 29bd c5a3 60bc df47 adbb
000000f0: c44f 07bd 030f 39bc 9e2c 0fbd 36d2 34bd
00000100: 08c2 b1bc 18c1 d2bc a7e8 e1bb cc48 18bd
00000110: a1ff 83bd 31d1 40bc d69f 00bd 636f fcbc
00000120: 419f 563c 7308 663b 8c24 2a3d dd28 c63c
00000130: bc68 00bd 4190 1bbd 3ef9 323c f93e 31bc
00000140: 4300 6f3c 9bb8 303c 8d0e cd3b a83b 8f3c
00000150: 934d 1b3c 6161 0fbd 4116 503d fa60 1e38
00000160: ed48 dc3b bd14 9b3a bdb4 15bd 8b5e c9bc
00000170: 5f5f 4b3c fdc9 173d da4c 173d e5fb 66ba
00000180: 1553 28bd 9a8d 44bc 7d3a d83b 982c 42bc
00000190: e5ff 05bd 74b8 21bd e1fd 34bd e438 903c
000001a0: c424 b8bc f644 3b3d edb8 1ebd 1fd6 0ebd
000001b0: 48c6 323d 5d11 d9bc 06ab 9b3b af92 06bd
000001c0: 0e4f 88bc 7bca 55bb ba13 f1bc cea0 3aba
000001d0: d3a5 05bd 00d2 57bd e2e2 c7bd 69a8 f0bc
000001e0: 2507 39bd 0e6b e1bc 4c0b d93b d374 bf3b
000001f0: b50e 8cbd 8366 ce3c 3943 2e3d 391c 77bd
00000200: 1947 f8bb c5f3 f13c dd72 e33c 8bff 033d
00000210: eead 54bd 8c08 64bd ab83 cfba 179c 863b
00000220: 874c 293d 361f 5fbd c7ff 96bc 87a8 f9bb
00000230: 3404 18bd 1ced b5bc d053 333d ee1e 883c
00000240: e067 bb3b 1999 0abd 88e0 383c c2c3 04bd
00000250: e988 0cbc ae70 46bd 5589 7fba 8aed 1c3c
00000260: b480 2a3c 8009 27bd a016 e3bc a679 32bb
00000270: d022 acbd 81c5 c8bb 2eac 34bd 1d7f 9c3c
00000280: 156a fbbb 41f5 10bc e5b5 a4bb 527c 3bbc
00000290: 467c bcbc 194b c0ba eed3 86bc 9349 e23c
000002a0: 15af 2c3d 4df6 cdbc 48e9 4f3b 8000 3a3c
000002b0: 55ef 01bd 047d f4bc 435e 843d 300d fbbc
000002c0: 5b16 9dbb 215b 45bc 3664 85bd 11f6 453b
000002d0: 154d f8bb 97ba 9ebc 72ca cebb 2810 cebc
000002e0: a1b9 babc d38b 1bbd b2d3 e2bc 11ba af3c
000002f0: e441 84bd c164 02bd 845d 40bd fc13 833c
00000300: 532f 203c 9944 e53c cdcc f6bc 9fd9 9a3d
00000310: 46d5 2d3c eb7d e83c 000e 1f3c c36d a93c
00000320: c740 913d c400 c8bc a5cd 65bd a3a0 e6bc
00000330: e544 3fbd f4d0 03bd aa91 3c3d 52c4 97bd
00000340: 4e68 dfbc ef91 f7bb 0751 02bd dc76 bcbc
00000350: c199 973c 4f92 ddbc ee9e 883a f515 a0ba
00000360: 46c4 903c 1e62 663d 91fb babb 24cd 83bd
00000370: fddc a5bb 4df4 66bd 0734 fc3c d3f3 2cbc
00000380: 40fb 14bd c70f 15bd dc46 293d 8fbd 233c
00000390: cdb3 c939 1ec8 593d 80d9 24bb 0d60 e8bc
000003a0: 8bd9 87bc 353e 333d 13d5 fd3c 1b56 4bbc
000003b0: 9e7c 883c d27c 8fbc f7bd 75bc e5e7 82bc
000003c0: 6c76 ecbc 01ab 66bd c0d2 98bc ef38 49bc
000003d0: cc5c 0ebd 45ca 133d ea75 28bd 8fb5 c5bc
000003e0: acac 1e3d 702e 933a 263a 9cbc effd 48bd
000003f0: 7d84 d6ba 2333 0f3d aa2b 6d3c 18da d5bc
0.009457223 -0.028555917 -0.013256714 -0.0016039757 -0.023442788 -0.05309846 -0.044787243 0.03249813
-0.020805694 -0.019344267 -0.030913707 0.002441833 -0.04752299 -0.022830058 -0.058708336 -0.002506686
-0.04091479 -0.01905699 -0.034966264 -0.05468571 -0.017417675 -0.019306043 -0.05912921 -0.0019209367
-0.01087831 -0.07115688 0.03817984 -0.0043737604 -0.019639656 -0.048810624 -0.015631676 -0.0750718
-0.056979444 -0.05631913 0.008222538 0.0016646493 -0.054924905 -0.01661672 0.0096546225 -0.05994263
-0.0017759921 -0.019643806 -0.049379528 -0.025480188 -0.0050927657 -0.029812258 -0.03292194 -0.04963264
0.0066944775 -0.011094641 0.005176008 0.007583292 -0.0030668972 -0.020909214 -0.028107608 -0.027124599
-0.00590574 -0.04130531 -0.013710921 -0.0052881087 -0.033035055 -0.011295083 -0.03495466 -0.044145785
-0.021698967 -0.02572684 -0.0068941894 -0.0371788 -0.06445242 -0.011768625 -0.03140243 -0.030814832
0.0130994925 0.003510025 0.04153876 0.024189407 -0.031349882 -0.037979368 0.010923682 -0.0108182365
0.014587465 0.010786201 0.006257838 0.017484501 0.009478944 -0.035004977 0.050802473 3.7760452e-05
0.0067225606 0.0011831742 -0.03654932 -0.024581214 0.012412875 0.037057865 0.036938526 -0.0008811339
-0.04109486 -0.011996651 0.006598769 -0.011851452 -0.032714743 -0.03948255 -0.04418743 0.017605253
-0.022478469 0.045720063 -0.038750578 -0.03487217 0.043646127 -0.026497537 0.004750612 -0.032854732
-0.016639259 -0.0032621908 -0.029428352 -0.00071192987 -0.032628845 -0.052690506 -0.09760071 -0.02937718
-0.04517283 -0.027516868 0.006623661 0.005842784 -0.06838743 0.025195366 0.042544577 -0.06032965
-0.007576835 0.029535184 0.027764732 0.032226127 -0.051923685 -0.055672213 -0.0015832087 0.004107963
0.041332748 -0.054473124 -0.018432511 -0.007618967 -0.037113383 -0.02220779 0.0437811 0.01661631
0.00571917 -0.03383741 0.011284001 -0.03241325 -0.008577564 -0.048447303 -0.0009747942 0.009578118
0.010406662 -0.040780544 -0.02772075 -0.0027233153 -0.084050775 -0.00612706 -0.044109516 0.019103581
-0.007672558 -0.008847536 -0.0050265663 -0.0114432145 -0.023008477 -0.0014670818 -0.016458478 0.027622974
0.04215916 -0.02514186 0.003172474 0.011352658 -0.031722385 -0.029844768 0.064632915 -0.030645937
-0.0047939247 -0.012045653 -0.06513254 0.0030206481 -0.0075775483 -0.019376082 -0.0063107545 -0.025154188
-0.022793593 -0.037975144 -0.027688835 0.021451028 -0.0645788 -0.031834368 -0.046964183 0.01600074
0.009776908 0.027986811 -0.030126953 0.07561039 0.01060993 0.028380355 0.009707928 0.020682221
0.070924334 -0.024414428 -0.05610432 -0.02815277 -0.046696562 -0.032181695 0.046037354 -0.07410492
-0.027271416 -0.0075552384 -0.031815555 -0.023005895 0.018505933 -0.027047304 0.0010423341 -0.0012213575
0.017671715 0.056245916 -0.0057062586 -0.06435612 -0.0050617442 -0.056385327 0.030786527 -0.010556179
-0.036372423 -0.036392 0.041327342 0.009993925 0.0003847167 0.053169362 -0.0025154054 -0.028366113
-0.016583225 0.043760497 0.03098539 -0.012410666 0.016660985 -0.017515574 -0.014998904 -0.015979717
-0.028865062 -0.056315426 -0.01865518 -0.01228164 -0.034756467 0.03608157 -0.041128077 -0.024134425
0.03873889 0.0011229049 -0.019070696 -0.049070295 -0.0016366389 0.034960877 0.014475742 -0.026104972

network_body._body_endoder.seq_layers.2.weight f4 [256, 256]
00000000: aa7b 7fbd 43e0 013c 345f 033e dfa0 09be
00000010: db8f 56bd 87bf 2ebd 8de8 b73c d8d9 88bd
00000020: 6808 bebc ab07 233e b35d 553d b352 76bc
00000030: 99f1 8abc 8fcd 08bd ea8d 773d 2c8d 143c
00000040: 7fa0 c93c 5486 953c 6851 08bd 1bc9 a33d
00000050: dad5 61bd 61dd 29bc 9465 cb3c 33fa 343d
00000060: 4fe0 dbbc d4c3 9f3d 3507 633d 240b 2c3b
00000070: eba4 f13b a259 083d ccec 13be 68de 2c3d
00000080: a6e4 4ebc 5568 3fbd 77a2 8c38 2730 473c
00000090: b3c7 333d 0e70 16be 1732 6cbd 4488 d0bc
000000a0: 997c b2bc e375 9fbc 3a73 f03c d4ad c6bc
000000b0: 975e fdbd da05 35bd d1fd 443d d46e 163e
000000c0: 3f92 aebd d101 03be 31e0 8f3c ae9c 8f3d
000000d0: 290f 99bd da91 95bd 8ca9 943d 0e63 dfbd
000000e0: 9307 873d 7971 b13b 2eef 8e3d 5127 bbbc
000000f0: ec8b 383c fa0e 34be 1de1 013d 781c ca3c
00000100: a16c a93d 39bb 4fbc 1931 65bd ee76 ac3d
00000110: 0d0c 29bc fa42 91bd 61a1 c0bb 0443 c93d
00000120: ff18 273d 467e 2dbd 8f78 873d acef 38be
00000130: cc00 9b3d 6f42 163c 1601 70bd 6915 82bb
00000140: 7519 763d fa81 893d 1d0d a83d 80da 083e
00000150: 265f 943d 1000 77be 5859 b83c d1ec 1dbd
00000160: 122b dabd e873 d2bd 608b aebd f8ae cbbb
00000170: 4842 ddbd 9e23 bcbd 0bae 513d d39c 2b3d
00000180: 68e7 2dbd 08b7 923d 0ec0 8cbd 8bd5 5b3d
00000190: c32a 093e a44b 82bd 7ffc acbd b50f 48bc
000001a0: 0727 b73d 588b b4bd d370 a0bd bb3b d9bc
000001b0: bf5d 4dbc 080f 0abd e980 93bc 3658 61bd
000001c0: 3a2d 58bd f2d5 8cbd d39f 24be 3a88 35bc
000001d0: c391 8a3d 1e8a 51bc dbe8 263c 7b27 9dbc
000001e0: 64a0 2fbc 1ba0 91ba 81c0 06be b4d6 94bb
000001f0: 3d99 a33a fe80 ecbc d1ba 01bb c567 533c
00000200: bdb8 07bc 6a89 c13d 95cd 34bd 6d50 583d
00000210: fe5e b73c afff 60bd 8574 28bd 7093 833d
00000220: 237a ad3d 8f1e 903d ff76 20bd 2457 8fbd
00000230: 915c 773b 5808 2f3d 9012 a63d f928 0abd
00000240: 1584 723d 80a9 143c 5c5c 153e b859 69bd
00000250: 9de8 4fbd 1708 56bc 7ea4 50bd 854e 36be
00000260: 0b1a 0a3d e10a c4bc a675 d23c 6c30 243d
00000270: bd46 28bd 901b 10bd 8a49 bfbd 9815 ddbc
00000280: c627 bdbd 2bc5 933e c6b4 60bc be10 183d
00000290: f202 84bd 8aef 933d c1bb 9bbd c34d 4ebd
000002a0: 5d4b bebd aa73 26bd c3c0 5f3d 335d fb3d
000002b0: 93df 15bd 5979 eb3c 80da 3fbd f4ec 4abe
000002c0: 7da4 a33c b19c 0f3d 93ea 653c 37fc 663d
000002d0: f377 a2bc 810a 9b3c 898d 1fbe 3d62 0abd
000002e0: 9ee6 b7b9 e190 51bd 362d 9fbd 6b2d 9fbd
000002f0: b252 b63d 6aec a33d 784e 0b3e 9889 31be
00000300: 9375 90bd b932 2abc d793 1abc d737 edbc
00000310: ea7f 48bc 492a 85bb 949d 9bbc 415b 14bc
00000320: dcbc 00be f0fe e53c 61fe cd3d 3647 133e
00000330: fe07 e6bd bf19 443d fb1e 25be e4a3 2fbe
00000340: d117 d73d 2959 8b3d d4c8 b7bd 2f8e d53d
00000350: 8463 a33d 0692 3cbd 88cc 87bd 9c85 2dbe
00000360: 69d7 033d 9fd4 2fbd 7654 363d 07cf efbc
00000370: d82b e73d 7971 c03c 9788 d6bd ea25 df3d
00000380: 2aad 1c3e 037d 31bd 279d 5bbd e3fe f23c
00000390: 39fd 8c3b ca50 c93d 09ce 44bc 8325 68bd
000003a0: ab22 85bd c4f8 43bd 9c80 903d 3afb c73d
000003b0: d8cc c9bd f781 023c 6d97 b03c 2ac8 9bbd
000003c0: 57c0 663d 2959 073d 15eb 81bd 7952 de3c
000003d0: bc1a f9bd 3aa1 edbd 523f 883d 57ae 823d
000003e0: 9387 db3d 8dc9 8a3d 57ca bb3d 4921 cc3d
000003f0: 7775 c33b 5dc4 15be 18cb c13b 38e6 3d3d
-0.062373795 0.007927003 0.12829286 -0.13440274 -0.052383285 -0.042663123 0.022449756 -0.066821754
-0.023197368 0.15920894 0.05209131 -0.0150343655 -0.016960906 -0.03339916 0.060438074 0.009066861
0.024612663 0.01825253 -0.03328076 0.07997342 -0.055135585 -0.010367722 0.02482871 0.04418392
-0.026840357 0.07801023 0.055426795 0.0026251758 0.007374396 0.033288606 -0.144458 0.04220429
-0.012627756 -0.04673036 6.705982e-05 0.0121574765 0.04389162 -0.14691183 -0.057664957 -0.025455602
-0.021787928 -0.019465392 0.02935182 -0.02425281 -0.12371557 -0.044195034 0.04809362 0.14690715
-0.08523988 -0.12793662 0.017562957 0.07012306 -0.07473595 -0.073032096 0.07258901 -0.10907565
0.065932415 0.0054151383 0.06979214 -0.022845896 0.011263829 -0.17583838 0.031708825 0.024671778
0.082726724 -0.012678915 -0.055955026 0.084211215 -0.010317815 -0.07092853 -0.005878613 0.09827235
0.040795323 -0.04235675 0.066147916 -0.18060178 0.07568511 0.009171112 -0.058594786 -0.0039698374
0.06008287 0.06714244 0.08205626 0.13364601 0.072447106 -0.24121118 0.02250354 -0.038555924
-0.10652746 -0.102760136 -0.085226774 -0.0062159263 -0.10803658 -0.09186481 0.05119137 0.041897606
-0.042457014 0.07163817 -0.06872569 0.053670447 0.13395219 -0.063620836 -0.08446597 -0.012210776
0.08942991 -0.0881564 -0.078340195 -0.02651774 -0.012534558 -0.03370574 -0.018005805 -0.055015765
-0.052777506 -0.06876744 -0.16076593 -0.011079842 0.06766083 -0.012789277 0.010187353 -0.019183865
-0.010719392 -0.0011110337 -0.13159372 -0.004542196 0.0012481582 -0.028870102 -0.001979519 0.012903159
-0.008283791 0.09450038 -0.04414137 0.052811075 0.022384163 -0.05493134 -0.041126747 0.06424606
0.08470561 0.070370786 -0.039175984 -0.06999043 0.0037744383 0.042732567 0.08109009 -0.03373048
0.059207994 0.009073615 0.14586014 -0.056970328 -0.050758947 -0.013063452 -0.050938122 -0.1780339
0.033716243 -0.023930969 0.025690865 0.04008524 -0.041083086 -0.035182536 -0.09340198 -0.026987836
-0.09236102 0.28861365 -0.013714975 0.03712534 -0.06445874 0.07223423 -0.076041706 -0.050367128
-0.09291718 -0.04063765 0.05462719 0.12273636 -0.03659017 0.028744387 -0.046839237 -0.19816953
0.019975895 0.035061542 0.014032978 0.056392875 -0.019832587 0.018925907 -0.15581335 -0.033785094
-0.00035076303 -0.051163558 -0.07772295 -0.07772335 0.08902492 0.08004077 0.13604152 -0.17337644
-0.070536755 -0.01038807 -0.009434662 -0.02895729 -0.012237528 -0.0040638787 -0.018996038 -0.00905496
-0.12572044 0.028075665 0.100582846 0.14382634 -0.11231993 0.047876116 -0.161251 -0.17152363
0.105025895 0.06804115 -0.08973852 0.1042751 0.079779655 -0.046037696 -0.06630808 -0.16945499
0.032187853 -0.04292738 0.044514142 -0.029273523 0.112876594 0.023491608 -0.10475271 0.108959034
0.15300432 -0.04333211 -0.05361667 0.029662555 0.0043026474 0.098298624 -0.012012013 -0.0566764
-0.06500753 -0.047844663 0.0705578 0.097647145 -0.09853524 0.007965556 0.02155658 -0.07606538
0.056335773 0.033044014 -0.063436665 0.027138935 -0.12163302 -0.11603017 0.066527024 0.06380909
0.10719218 0.06776724 0.09169453 0.09967286 0.0059649306 -0.14625688 0.0059141032 0.04636213

network_body._body_endoder.seq_layers.2.bias f4 [256]
00000000: ecfd 5d3b 9a01 5dbd 20b6 a7bc 8b09 13ba
00000010: 3713 41bc 8013 60bc c404 883d cef3 7fbd
00000020: 559e 93bc 9b38 d83c 743a 50bd 6dec febc
00000030: ecd4 0abd 3e11 44bc c747 0fbd e703 47bd
00000040: 6e76 41bc 316d 2fbd e71e 2f3b 050e 54bc
00000050: f066 19bc cb05 a83c 925d bdbc 1836 713c
00000060: 0f94 1dbd 2a45 35bc e272 883a f3ab 39bd
00000070: 00d4 933c 196b 05bd 54a6 543d 2cec 793c
00000080: c628 2abc fc95 93bc e687 393a e74d 4ebc
00000090: a9c8 443a b198 d83c 47bd 6fbd d63e 08bd
000000a0: 95a2 34bd 1049 e3bb 3c68 24bd 854f 64bd
000000b0: 3d98 53bc 69fa cabc a4ee 23bc 27d0 05bd
000000c0: e436 87bc d31a 333c b911 51bd 911d 06bd
000000d0: 616f 22bd b9b1 32bd d6f2 143a 1c33 cbbc
000000e0: 1d5a 1abd f940 cabb b11c 853d 80a5 4dbc
000000f0: 2beb c3bc 116d 27bc c33e 18bc 2f27 f03b
00000100: 9268 3cbd abc6 843c 7d45 efbb d082 debc
00000110: 643c 493b 6823 10bd 65c5 d9bc 6b39 cc3b
00000120: dfe3 80ba 017f eabc f586 34bd ab96 a2ba
00000130: a445 4e3b a428 9eba ab14 303d 6cef a0ba
00000140: 6e42 c3bc d81c f83c 7770 31bb 039f 1c3d
00000150: b942 813a 7969 4abd 61a2 3d3c ca39 9cbd
00000160: b087 2e3c 5d79 3dbd b94d a9bc b775 e23c
00000170: 4ff2 b33c 5f70 3d3c bfa7 17bc 42bc f33c
00000180: 1b3d bebb 42e5 6abd 7960 9bbc 0172 4cbd
00000190: f42f d9bc c170 02bc 3587 bebb ef72 573c
000001a0: fce3 89bc 0fd2 8b3b 7950 3dbd c4b5 d1b9
000001b0: e60a 13bd a707 2bbb 1a1f 0abd 7ad1 5ebb
000001c0: 3d37 5bbc 8cf2 99bb a998 4abc 7387 4f3c
000001d0: da9d 903c 1ff2 8b3c d42f 4bbc 9c2a 35bd
000001e0: 10f1 4dbd a708 7fbb d3fe ea3c 6075 6bbc
000001f0: 57f3 74bb 154b 8f3a 6a7b 25bc 435e 0ebc
00000200: ef9b bfbc eeec 1c3d b918 ca3c 22a7 9ebc
00000210: 2746 72bc 2c62 703b df2c 15bc 3fba 1dbd
00000220: ccb4 8d3c 4c3e 0d3d 47db f6bc 65d8 c6ba
00000230: e692 a5bb 2f7a 57bd 8410 d23c 861e f43b
00000240: 2e48 7a3c 4c54 bdbc 15b8 23bc fa53 443c
00000250: 2274 f53b 092c 1dbc da73 873b 50e3 0bbd
00000260: 787c 8ebb 7cac 77ba ddbb 27bd 0c53 d8bc
00000270: 2796 6e3c 66ee e1bb b8da a2bb 1753 0abb
00000280: c7bc 4dbd 792a 383d 3ddd f0ba d5de e2bc
00000290: 07c0 31bc adb7 0d3c ac67 51bd 502e 833c
000002a0: 5df3 1c3b c829 5b3c 8d81 bfbb a4b0 1bbd
000002b0: dab9 4abb c237 a4bc 8d4a c7bc d2d7 053d
000002c0: d3fd a1bc 9f77 2cbd 7f46 193d d987 1abc
000002d0: 7fa8 15bd acfd 963c 1238 8f3b 1e29 a5ba
000002e0: 0b86 bbbc 1401 06bd f5e7 ad3c 7efb 80bc
000002f0: 445e f6bc 6e47 58bc 5c97 83bc 6f83 c9ba
00000300: 388f a2bc 522c 3b3d f2b9 bdbc 739f e9bc
00000310: 1f6f 34bd d534 6cbc b029 473c fda3 08bc
00000320: f5de a33a 31b6 163a c50f bd3a 06ed babc
00000330: 7fa9 9ebc 9486 953c a2e8 19bc fcf5 babb
00000340: 41e1 44bd d705 f13c 93e9 d2bb b390 f0bc
00000350: 87b7 05bd 72fb d8bc e68e 44bd 3463 16bd
00000360: 6f08 0bbd 8924 b0bc bac5 64bb 8b17 fb3c
00000370: 2af8 3c3c 9d98 fdbb 5064 46bc 760b a43c
00000380: 8ef0 2bbd b7ad 3cbd 3bac 083d 60a8 9c3c
00000390: 17f6 eebc b461 80bc 5056 1f3d 9dfe cabc
000003a0: 960e 97ba e8ee f6bc c48c 1bbc f14d e73b
000003b0: 8902 b5bb 674c 20bd c220 193d 5f39 81bd
000003c0: 4407 32bd f6ea f33c 5c53 a4bc ccb8 733b
000003d0: 27c0 70bd da31 a8bc c513 923b fbc3 45bd
000003e0: 0abf cb3c 4901 393d aae9 b1bb 3e41 e1bc
000003f0: 819c 1ebd 0e9b eabc ef40 81bc 1d39 b83a
0.0033873273 -0.053956605 -0.020472586 -0.0005609027 -0.011784366 -0.013676524 0.06641534 -0.06248837
-0.018019835 0.02639418 -0.050836995 -0.031118596 -0.033894464 -0.0119670015 -0.03498056 -0.048587706
-0.011808021 -0.042828742 0.00267213 -0.012942796 -0.009362921 0.020510575 -0.023115907 0.01472237
-0.038471278 -0.011063853 0.0010410214 -0.04533 0.018045425 -0.03257284 0.051916435 0.015254062
-0.010385698 -0.018015854 0.00070774404 -0.012591816 0.00075067073 0.026439996 -0.05853012 -0.03326305
-0.044100363 -0.0069362 -0.04013847 -0.0557399 -0.012914714 -0.024777608 -0.010005627 -0.032669213
-0.016505666 0.010931688 -0.051042292 -0.03274304 -0.039657 -0.04362652 0.00056819373 -0.024804644
-0.037683595 -0.006172296 0.06499613 -0.012551665 -0.023915848 -0.010218875 -0.009292307 0.00732889
-0.045998164 0.016208014 -0.007301985 -0.027161986 0.0030706162 -0.035190016 -0.026583383 0.0062324307
-0.0009833536 -0.028625013 -0.044074018 -0.0012404522 0.0031474615 -0.0012066555 0.04298846 -0.0012278385
-0.023835387 0.030287191 -0.002707509 0.038237583 0.0009861804 -0.049416993 0.011574359 -0.0762821
0.010652468 -0.04625832 -0.020666944 0.027644021 0.021966128 0.011562436 -0.009256302 0.029752854
-0.005805624 -0.057347544 -0.0189669 -0.04991341 -0.026512124 -0.007961453 -0.005814458 0.013149961
-0.016832344 0.0042669843 -0.046219323 -0.00039999012 -0.035899065 -0.002609709 -0.033721067 -0.003399937
-0.013379869 -0.0046981033 -0.012365499 0.012666571 0.017653394 0.017083226 -0.01240154 -0.04423009
-0.050278723 -0.003891507 0.028685963 -0.014371246 -0.0037376487 0.001093241 -0.010100225 -0.008689466
-0.023389785 0.03831189 0.024669992 -0.019366805 -0.014787233 0.0036679609 -0.009104936 -0.038507696
0.017298125 0.03448324 -0.030133856 -0.0015170692 -0.005052912 -0.052606758 0.02564264 0.0074499277
0.015275998 -0.023111485 -0.009992619 0.011982912 0.0074906508 -0.009593018 0.0041336836 -0.03415233
-0.004348334 -0.00094480044 -0.040950645 -0.026406787 0.014562166 -0.0068948744 -0.004969921 -0.0021106654
-0.05022886 0.04496238 -0.0018376481 -0.027694145 -0.010849006 0.008649749 -0.05112426 0.016013294
0.0023948767 0.013376661 -0.005844301 -0.038010255 -0.003093353 -0.020046119 -0.02432754 0.032676525
-0.019774353 -0.042106267 0.037420746 -0.009431803 -0.036537644 0.018431507 0.004370698 -0.0012600755
-0.022891065 -0.032715872 0.02122877 -0.01574492 -0.030074246 -0.013200624 -0.016063385 -0.0015374253
-0.019843683 0.045696564 -0.023159955 -0.028518414 -0.044051286 -0.014416893 0.012155935 -0.008339879
0.001250236 0.00057491945 0.0014424255 -0.0228181 -0.019367931 0.018252648 -0.009393843 -0.005705593
-0.04806638 0.02942173 -0.0064365356 -0.029365873 -0.03264573 -0.026487086 -0.04798784 -0.0367157
-0.03394359 -0.021501796 -0.0034907893 0.030650875 0.011533776 -0.00773914 -0.012108877 0.020024996
-0.041977458 -0.046064105 0.033367377 0.019123256 -0.02917008 -0.015671588 0.038900673 -0.024779612
-0.0011524733 -0.030143216 -0.00949401 0.007058852 -0.005523984 -0.039135363 0.037384756 -0.06309771
-0.04346396 0.029775124 -0.02005928 0.0037189005 -0.058777 -0.020531584 0.004457923 -0.048282605
0.024871368 0.04516724 -0.0054294663 -0.02749693 -0.038723473 -0.028638389 -0.015778033 0.0014055107

action_model._discrete_distribution.branches.0.weight f4 [4, 256]
00000000: a80b 093d 9066 edbb dfd5 023d 89ae cfbc
00000010: 6068 553c 9233 46bc f8d5 d3bd baa1 90bc
00000020: f7c9 ab3c a196 61bd b59c 31bc aad2 14bc
00000030: 78e0 cc3b 1295 ca3c 4d66 38bd 6c5b 48bc
00000040: 5602 d1bc 64d4 2cbd 1e1f f33b cfe9 c63b
00000050: 02cc 19bd 7396 50bd e6f2 913c ccd4 233d
00000060: e338 713c 8742 9f3c 61e5 d0bc 37dd 263c
00000070: da27 38bd 6e5d 3e3c 1c56 f3bd d64e 64bd
00000080: 32aa eb3c a4b4 0c3d 63c8 963d ce62 96bc
00000090: a096 e83c 8297 91bd bc92 9cbb 0fc7 d23b
000000a0: d97f f9bb 2062 1a3d 4f8c 953a 83ae 9bbc
000000b0: 67bd 42bc 83e6 47bd 0e83 90bd 45c0 4e3b
000000c0: 64a9 b13c 8bd0 9abc 254a a23c 0832 8fbc
000000d0: a1e2 373c 1890 473a 6fd4 ec3c f1eb 29bc
000000e0: 7a88 793c 6eed 353d c746 b0bd 6206 8b3b
000000f0: a0c9 a4bb 126a 0ebc 0a7d 8d3c f63f 6ebc
00000100: cba2 6e3c 7e38 033b 0945 56bb 4416 993b
00000110: 7c22 d3bb ece2 643c 2031 0ebd ab09 2f3b
00000120: dec3 923c 0cd5 693c 94b8 ebbc efb2 35bd
00000130: 874b 253d db4c 19bd 2cde 33bd c32b e83c
00000140: 5140 bebc 8c06 96bd d181 323d c270 8fbd
00000150: 8bda af3c 4ff7 fbbc 8a4d 48bd 6405 06bc
00000160: 90bb 463d 7604 39bd 3635 48bc 24b4 773b
00000170: aed3 9abd 269d 5dbd 9cfb bdbb 4f01 733b
00000180: b8ed 41bc 9b0a 31bb 8b62 0a3d ac35 abbb
00000190: f96f c9bc 11f3 e43c 58c0 20bc 6ade 2ebd
000001a0: 0278 ad3c c923 9cbc 0c63 9fbb da3b e7bc
000001b0: 4a02 0cbc 369d 6f3d 68b9 64bc 5437 053b
000001c0: bfe7 503c f346 babc 2bb3 303d 8ed0 7cbc
000001d0: e819 6c3c 628f 11bd 1f6d 4cbd aaac fcbb
000001e0: 86f0 5bbb 6d35 c4bc 08ed 40bd 0440 403a
000001f0: c8eb 93bc 83ef 7dbd 06d9 153d 6a63 c63c
00000200: 1527 5a3b f7d5 26bd 7b8f 633d b9fd 50bc
00000210: 6fdf 343b 5a82 a63c e01a 483c b4e2 a0bc
00000220: 24e3 84bd 6ea9 77bd 7ad7 eabc e745 a33c
00000230: 9ba7 973c f1ce 9cbc b2af 883d 5875 2a3c
00000240: a113 d03c b924 f8bc ac53 2bbd f210 65bd
00000250: 3224 b13c 4b83 ff3c 5ce3 26bd a2aa bc3b
00000260: 20c1 bd3c cfb4 46bc 9555 a83c da8e 33bb
00000270: e6bf 7a3a c163 ea3c 016c d7bc 7b8a cc3c
00000280: e64a c43a f9f4 963c 5e54 093d cea7 53ba
00000290: 9c57 183d a547 50bd 66da 0bbd 79e6 69bd
000002a0: f40a 68bc fc50 2d3c 982d 333d 1a79 20bd
000002b0: e4e7 0fb8 f69c adbc 592f 2ebb 150a 12bd
000002c0: c1c2 14bc b8d5 6b3c e401 1bbd 1c28 83bc
000002d0: f6a4 7cbb 84fb 4cbc 8bb5 71bd 2ae9 1b3d
000002e0: 4f39 85bc 8659 51bc 99ec e13c d3a5 2bbd
000002f0: e576 70bc 9a56 a43a 2687 c23c e8d4 d53c
00000300: 484f 2d3c b263 9cbd 0b0a 283c 1ff4 ae3c
00000310: d5de 0f3a 0b4c 393a ca11 da3c 1671 19bc
00000320: 5b19 6abd 10be b1bc 9cb8 903c 0e15 ba3b
00000330: 0371 963c 7984 49bd 3bf2 bbbc dc07 18bc
00000340: 8b21 4d3c c133 14bd ee38 213d f0b9 fcbc
00000350: 8ee6 cb3a ad68 ffbc 8d8b e7bb 69ef bd3b
00000360: 4c86 b839 2020 57bd fee1 fc3b 6dfb 29bb
00000370: 31ad 153d 5017 2b3c e72c eabb 4e13 513d
00000380: 5022 bfbc c618 70bc 8191 17bc a394 8cbc
00000390: 1cda 743c 578f 4fbd 65af 73bd 952b 243c
000003a0: 9d4b 513d 3caf 993a 3256 12bd 79db fe3c
000003b0: 3e0d af3c 3be7 413c fd75 c6bd f14f b8bc
000003c0: fcd5 07bc f3ce 5ebd 7656 873c 0da7 1b3d
000003d0: f7f3 1ebd 85e7 ff3c cc73 d8bb 15f6 16bc
000003e0: adc0 abbd f8a5 acbd de4e b1bc 3976 f33a
000003f0: e765 a13c aec4 9fbb 0b52 ec3c 1009 723c
0.033458382 -0.0072448924 0.031942245 -0.02535178 0.013025373 -0.012097256 -0.10343546 -0.017655242
0.020970328 -0.05507529 -0.0108405845 -0.009083429 0.0062523447 0.024729285 -0.045019437 -0.012228828
-0.02551381 -0.04219474 0.007419481 0.0060703526 -0.037548073 -0.05092473 0.017816018 0.03999786
0.0147230355 0.019440902 -0.025500001 0.010184578 -0.04495988 0.011618955 -0.118816584 -0.055739246
0.028767679 0.03435196 0.073624395 -0.01835766 0.028392136 -0.07108976 -0.0047782343 0.006432421
-0.0076141176 0.037691236 0.0011409613 -0.019004112 -0.011885977 -0.048803817 -0.07056247 0.0031547707
0.021687217 -0.01889827 0.019810745 -0.017479911 0.011223466 0.0007612719 0.02890989 -0.010371194
0.015230292 0.044415884 -0.0860725 0.0042427042 -0.0050289184 -0.008692281 0.017271537 -0.014541617
0.01456518 0.0020022686 -0.0032694957 0.0046718437 -0.00644332 0.013970118 -0.034714818 0.0026708643
0.017915662 0.014271986 -0.028774537 -0.044360097 0.04035523 -0.03742681 -0.04391305 0.02834118
-0.023224028 -0.073254675 0.043580834 -0.07003929 0.021466514 -0.030757574 -0.048902072 -0.008179996
0.048518717 -0.04517027 -0.012219718 0.003779658 -0.07559906 -0.054104947 -0.0057978164 0.0037079637
-0.011836462 -0.0027014378 0.033785384 -0.005224904 -0.024589526 0.027947934 -0.009811483 -0.04269258
0.021175388 -0.019060032 -0.004864102 -0.028226782 -0.008545468 0.058499537 -0.01396022 0.0020327168
0.012750565 -0.02273891 0.043139618 -0.015430583 0.014410473 -0.03553713 -0.049908753 -0.007711013
-0.0033560111 -0.023951257 -0.04710105 0.0007333758 -0.018056765 -0.061995994 0.036583923 0.024217326
0.0033287455 -0.040731397 0.055556756 -0.012755805 0.0027598997 0.020325828 0.012213439 -0.01963935
-0.06488636 -0.060464315 -0.0286672 0.019930793 0.018512538 -0.019141646 0.06674136 0.0104039535
0.025399985 -0.030290948 -0.041827843 -0.055924363 0.021623705 0.031190535 -0.04074417 0.0057576457
0.023163378 -0.012128069 0.020548621 -0.0027398379 0.0009565338 0.02861202 -0.026296617 0.024968376
0.0014975935 0.018427359 0.033527724 -0.0008074016 0.037192926 -0.050849576 -0.034143828 -0.05710456
-0.014162768 0.01057839 0.043744653 -0.03917799 -3.430982e-05 -0.021193009 -0.0026578514 -0.035654146
-0.009079636 0.014394216 -0.0378436 -0.016010337 -0.0038550473 -0.012511138 -0.059011023 0.03806416
-0.016262678 -0.012777692 0.027578639 -0.04190619 -0.014676784 0.0012538016 0.023746084 0.026102498
0.010577984 -0.07636203 0.010256301 0.02135664 0.00054882217 0.0007068521 0.02661981 -0.009365341
-0.057153087 -0.021697074 0.017666154 0.0056787794 0.018364435 -0.0491986 -0.022942653 -0.009279218
0.012520204 -0.03618217 0.039360933 -0.03085038 0.0015556382 -0.031177843 -0.0070661963 0.005796362
0.00035195274 -0.05252087 0.00771737 -0.0025937215 0.03654212 0.01044257 -0.007146466 0.0510438
-0.023331791 -0.014654344 -0.009250999 -0.01716072 0.014944579 -0.05067381 -0.05949344 0.010020156
0.0510975 0.0011725198 -0.035726734 0.031110512 0.021368619 0.011834915 -0.09690473 -0.022499057
-0.008290764 -0.05439658 0.01652072 0.03800111 -0.03880688 0.031238327 -0.006605601 -0.009213944
-0.08386359 -0.084300935 -0.021644052 0.0018574662 0.019701911 -0.004875741 0.028847715 0.0147726685

action_model._discrete_distribution.branches.0.bias f4 [4]
00000000: db20 f93b 5e39 f63b 3604 c1bc 746e 663c
0.0076027936 0.007514163 -0.023561578 0.01406442

onnx::Div_62 f4 [202]
00000000: 623a b43e a39a 8f3e cf8c e23e dfea bf3e
00000010: 27a4 e43e 125e c33e cf8c e23e 546f c03e
00000020: 27a4 e43e 61e9 c33e ecb6 df3e 2798 c03e
00000030: 58b8 e23e 2a2d c43e 0b2b e03e 4ff4 c03e
00000040: 7102 e43e 40d9 c43e 38ef e03e 270c c13e
00000050: cbe3 e43e d7da c43e 0b3f e63e 7a2a c43e
00000060: e868 e93e 268a c73e 5198 e23e a797 c23e
00000070: a932 e73e d96a c63e 35a2 e33e 4bbb c23e
00000080: 9d51 e83e 8582 c63e 24f0 e53e 08b0 c53e
00000090: 54ac ea3e 9cb2 c93e 6ee5 e53e ee4f c53e
000000a0: f79e ea3e 5458 c93e f6ae e03e e735 bd3e
000000b0: 5bfa e63e 44ca c13e b38a da3e ef3a b93e
000000c0: dbc0 e13e f6f3 bd3e 84ff da3e 273b b93e
000000d0: 2153 e23e f8f7 bd3e cd2f e03e 9ad2 bc3e
000000e0: da06 e73e aa6d c13e ac10 e83e a89a c63e
000000f0: d53f eb3e a9ba c83e 8104 e83e e5f1 c63e
00000100: 3381 eb3e 3334 c93e 44d2 e43e 7509 c33e
00000110: 867e ea3e 5774 c63e 48c8 e33e 06ce c23e
00000120: 2ffc e83e 7273 c63e c74d e63e d510 c43e
00000130: a9ea ec3e 0d12 c83e 3c1c e13e 66d4 c03e
00000140: a95b e83e 7b64 c53e 5cf8 df3e 7397 c03e
00000150: 4b45 e63e a15f c53e 58da de3e 8d17 c03e
00000160: 298b e53e f4bf c43e da25 e33e 2af9 bf3e
00000170: 58a4 e73e 5d98 c43e da25 e33e 838a bf3e
00000180: 58a4 e73e ea1a c43e 5af5 ba3e 6034 953e
00000190: a595 be3e 5a56 973e 7abe eb3e 6982 c93e
000001a0: c913 ee3e 5b41 c93e 7abe eb3e ef17 ca3e
000001b0: c913 ee3e afd5 c93e 1f59 e93e 0793 ca3e
000001c0: da76 ea3e c23c ca3e a5b9 ea3e 812c cb3e
000001d0: 868a eb3e 34b6 ca3e 1670 ec3e 4e99 cb3e
000001e0: f8c4 ec3e f9d7 ca3e 5bb8 ef3e fecb cd3e
000001f0: c5c3 ef3e e6f4 cc3e a02d ee3e e1ad cc3e
00000200: f548 ed3e 2389 cb3e 2f52 ef3e a6ae cc3e
00000210: 3766 ee3e d583 cb3e 8ae4 f13e 7f2a d03e
00000220: aa50 f03e f483 ce3e c244 f23e 72e4 cf3e
00000230: e768 f13e 1c2f ce3e 3748 ef3e cdb8 c83e
00000240: 6f20 f03e 8c22 c83e e1ff ea3e 3ab0 c53e
00000250: 0ae7 eb3e 33b9 c43e 5827 eb3e 7bb4 c53e
00000260: c3ea eb3e 63bc c43e eec4 f03e 37b9 c93e
00000270: 8cf2 f03e f3ff c73e 6d08 f53e 4c2f d23e
00000280: b61e f43e eab0 d03e a1fc f43e 01a7 d23e
00000290: 66ac f33e ac3e d13e 1e9a f33e 3126 d03e
000002a0: e11a f23e dbc4 ce3e abdc f23e 2e36 d03e
000002b0: 04f1 f03e 05ec ce3e 5783 f53e d982 d13e
000002c0: a525 f43e 780a d03e 7ee5 f23e 3cd5 cf3e
000002d0: 50e1 f03e 3035 ce3e 826b f23e 2a14 d03e
000002e0: f204 f03e 4b75 ce3e 859b f13e afc1 cf3e
000002f0: 8b14 ef3e 5418 ce3e e934 f33e 883b cf3e
00000300: f51f f13e 9699 cd3e e934 f33e c1a6 ce3e
00000310: f51f f13e 2a15 cd3e f601 c93e 71e5 a03e
00000320: f601 c93e 71e5 a03e
0.35200793 0.28047666 0.44248053 0.3748388 0.44656488 0.38157707 0.44248053 0.37584937
0.44656488 0.3826399 0.43694246 0.37616083 0.44281268 0.38315707 0.4378284 0.37686393
0.44533113 0.38447 0.4393251 0.37704584 0.44705042 0.38448212 0.44969973 0.38313657
0.4558785 0.38972586 0.44256833 0.38006327 0.45155838 0.38753393 0.44459692 0.38033518
0.45374766 0.38771453 0.44909775 0.38610864 0.458346 0.3939408 0.44901603 0.38537544
0.45824406 0.39325202 0.43883485 0.36955187 0.4511288 0.3784963 0.42683944 0.36177775
0.4409245 0.3710019 0.42773068 0.36177942 0.44204047 0.37103248 0.4378647 0.36879426
0.45122415 0.3777898 0.4532522 0.38789868 0.45947137 0.3920491 0.45315936 0.38856426
0.4599701 0.39297637 0.4469167 0.38093153 0.45799655 0.38760635 0.4448874 0.38047808
0.455049 0.38759953 0.44981214 0.38294092 0.46272781 0.39076272 0.43966854 0.37662047
0.4538243 0.38553223 0.4374417 0.37615547 0.4497474 0.38549522 0.43525958 0.37517968
0.44832733 0.384277 0.44364816 0.37494785 0.45242572 0.38397494 0.44364816 0.37410364
0.45242572 0.38301784 0.36515313 0.2914152 0.37223545 0.2955807 0.4604376 0.39357308
0.4649947 0.39307675 0.4604376 0.39471385 0.4649947 0.3942084 0.45575806 0.39565298
0.45793802 0.3949948 0.4584476 0.3968239 0.46004122 0.39592135 0.46179265 0.397654
0.46244025 0.396179 0.4682034 0.40194696 0.46829048 0.40030593 0.46519184 0.3997641
0.46344724 0.39753065 0.4674239 0.39976996 0.4656236 0.39749017 0.47244674 0.40657422
0.46936542 0.40335047 0.47318083 0.40603977 0.47150347 0.40270317 0.46734783 0.39203492
0.46899745 0.39088857 0.45898345 0.38611013 0.46074706 0.38422546 0.45928454 0.38614258
0.46077546 0.38424978 0.47025245 0.3939912 0.4706005 0.3906246 0.4785799 0.4105171
0.4767968 0.40759975 0.4784899 0.4114304 0.47592467 0.40868127 0.4757852 0.40654138
0.47286132 0.40384564 0.4743398 0.40666336 0.4705888 0.40414444 0.47951767 0.4092014
0.4768497 0.40632987 0.47440714 0.40592372 0.470469 0.40274954 0.47347647 0.40640384
0.46878773 0.40323862 0.47188964 0.40577456 0.4669536 0.40252936 0.47501305 0.40475106
0.47094694 0.4015624 0.47501305 0.40361598 0.47094694 0.4005521 0.3925931 0.3142505
0.3925931 0.3142505

onnx::Div_65 f4 [10]
00000000: cf2a b441 1788 2441 3229 bd3b 3229 bd3b
00000010: 3229 bd3b 3229 bd3b 3229 bd3b 3229 bd3b
00000020: 3229 bd3b 3229 bd3b
22.520903 10.283225 0.005772733 0.005772733 0.005772733 0.005772733 0.005772733 0.005772733
0.005772733 0.005772733
