results/GameLevelReached3/PlayerBehaviour.onnx (onnx, 490727 bytes, 10 tensors)

network_body.observation_encoder.processors.0.normalizer.running_mean f4 [202]
0	0x3f60d035	0.878177
1	0x3f6a4fb2	0.91527855
2	0x3f4a0559	0.7891441
3	0x3f560cd1	0.83613306
4	0x3f375fed	0.71630746
5	0x3f457c77	0.77143043
6	0x3f4a0559	0.7891441
7	0x3f5609a9	0.8360849
8	0x3f375fed	0.71630746
9	0x3f4553c3	0.77080935
10	0x3f4e5218	0.80594015
11	0x3f57ef41	0.8434945
12	0x3f383c87	0.7196736
13	0x3f456712	0.771104
14	0x3f4d6309	0.8022924
15	0x3f57465b	0.8409173
16	0x3f3542bb	0.7080495
17	0x3f4323bc	0.762264
18	0x3f4d40de	0.80177104
19	0x3f576a9c	0.8414705
20	0x3f2d31cf	0.67654127
21	0x3f3ecf44	0.7453501
22	0x3f490bcd	0.7853363
23	0x3f549eea	0.83054984
24	0x3f284cb2	0.6574203
25	0x3f3a90fa	0.72877467
26	0x3f4f97e0	0.8109112
27	0x3f57eabd	0.8434256
28	0x3f26dce3	0.65180796
29	0x3f3a13aa	0.72686255
30	0x3f4e1861	0.8050595
31	0x3f575f09	0.8412939
32	0x3f228d91	0.63497263
33	0x3f383249	0.7195173
34	0x3f4da9f4	0.8033745
35	0x3f566b28	0.8375726
36	0x3f1e5b04	0.6185763
37	0x3f330889	0.699349
38	0x3f4ccd6e	0.8000096
39	0x3f5646d1	0.8370181
40	0x3f1b0a7a	0.6056286
41	0x3f3178c8	0.6932492
42	0x3f4edd50	0.80806446
43	0x3f594bba	0.84881175
44	0x3f162007	0.5864262
45	0x3f31f6d8	0.6951728
46	0x3f52a187	0.8227772
47	0x3f5c4ef5	0.8605798
48	0x3f1afab6	0.60538805
49	0x3f36ac08	0.7135625
50	0x3f531a61	0.82462126
51	0x3f5c6577	0.86092323
52	0x3f1b95b8	0.6077533
53	0x3f36c224	0.71389985
54	0x3f4f11ee	0.80886734
55	0x3f5967f0	0.8492422
56	0x3f16cd6b	0.5890719
57	0x3f31cdcb	0.6945464
58	0x3f4c6c27	0.7985253
59	0x3f55404a	0.8330122
60	0x3f1e72af	0.61893743
61	0x3f32f4fa	0.69905055
62	0x3f4d1c21	0.80121046
63	0x3f5578ef	0.83387655
64	0x3f21c338	0.63188505
65	0x3f3469d0	0.7047396
66	0x3f4f36a4	0.8094275
67	0x3f57ab33	0.84245604
68	0x3f23db2f	0.6400632
69	0x3f36b669	0.71372086
70	0x3f505cfc	0.8139188
71	0x3f583c41	0.8446694
72	0x3f25a444	0.64703774
73	0x3f37b2a2	0.7175695
74	0x3f4e203b	0.8051793
75	0x3f56ca66	0.83902586
76	0x3f248b44	0.64275
77	0x3f360fa0	0.7111759
78	0x3f51177e	0.8167647
79	0x3f592cba	0.8483387
80	0x3f2a2d79	0.66475636
81	0x3f3a69fe	0.7281798
82	0x3f5139b2	0.8172866
83	0x3f59121f	0.84793276
84	0x3f2f0ffb	0.6838376
85	0x3f3d5b43	0.7396738
86	0x3f5178a6	0.8182472
87	0x3f594a22	0.8487874
88	0x3f2d761e	0.6775836
89	0x3f3cb5e7	0.7371506
90	0x3f42c6b3	0.7608444
91	0x3f52d24b	0.8235213
92	0x3f255040	0.64575577
93	0x3f394335	0.72368175
94	0x3f42c6b3	0.7608444
95	0x3f52bc70	0.8231878
96	0x3f255040	0.64575577
97	0x3f396827	0.7242455
98	0x3f567feb	0.8378894
99	0x3f641eb3	0.89109343
100	0x3f4e7ed0	0.8066225
101	0x3f6067e1	0.87658507
102	0x3f35d87e	0.71033466
103	0x3f448b04	0.7677462
104	0x3f37e347	0.7183117
105	0x3f4b5b73	0.79436415
106	0x3f35d87e	0.71033466
107	0x3f447348	0.76738405
108	0x3f37e347	0.7183117
109	0x3f4b7570	0.7947607
110	0x3f3be130	0.73390484
111	0x3f46e01f	0.7768573
112	0x3f4ba1e1	0.7954388
113	0x3f545fff	0.8295898
114	0x3f3b7575	0.732261
115	0x3f4656fd	0.77476484
116	0x3f50a90c	0.81507945
117	0x3f57699c	0.8414552
118	0x3f391e90	0.7231226
119	0x3f44e205	0.7690738
120	0x3f508467	0.8145203
121	0x3f576115	0.8413251
122	0x3f3497fe	0.7054442
123	0x3f410ab0	0.7540693
124	0x3f4ddbf6	0.8041376
125	0x3f556cbd	0.83369046
126	0x3f3579e8	0.7088914
127	0x3f41d27c	0.757118
128	0x3f525a9d	0.82169515
129	0x3f58cbed	0.84686166
130	0x3f345e22	0.70456135
131	0x3f413bd2	0.75481904
132	0x3f51a53c	0.8189275
133	0x3f587b1e	0.8456286
134	0x3f2e8223	0.6816732
135	0x3f3b87c6	0.7325405
136	0x3f4fc4a0	0.811594
137	0x3f569ed7	0.8383612
138	0x3f2d78b7	0.6776232
139	0x3f3b0559	0.73055035
140	0x3f4fc9c4	0.81167245
141	0x3f56b74e	0.8387345
142	0x3f2d29eb	0.67642087
143	0x3f3cfd9b	0.7382447
144	0x3f5168e2	0.81800663
145	0x3f58ab5a	0.8463646
146	0x3f2ff9b8	0.68740416
147	0x3f3f9a30	0.74844646
148	0x3f53e9ec	0.8277881
149	0x3f5ae6f5	0.8550866
150	0x3f2fdf81	0.68700415
151	0x3f3f6f7d	0.7477949
152	0x3f535c05	0.82562286
153	0x3f5ac1a8	0.85451746
154	0x3f293921	0.66102797
155	0x3f39e3b1	0.72613055
156	0x3f4ea0fb	0.80714387
157	0x3f573fdd	0.8408182
158	0x3f283ced	0.65717965
159	0x3f3725d4	0.71542096
160	0x3f4a3c80	0.78998566
161	0x3f52f5bb	0.82406205
162	0x3f28d009	0.65942436
163	0x3f37384c	0.7157028
164	0x3f4a1a54	0.78946424
165	0x3f52c3e1	0.8233014
166	0x3f2948cf	0.6612672
167	0x3f388548	0.7207837
168	0x3f4b8259	0.7949577
169	0x3f54d3f2	0.831359
170	0x3f2a8eb0	0.66623974
171	0x3f3922f2	0.7231895
172	0x3f4cd7d7	0.80016845
173	0x3f55514c	0.83327174
174	0x3f260ffa	0.6486813
175	0x3f3682ec	0.7129352
176	0x3f4cbaf6	0.7997278
177	0x3f54d523	0.8313772
178	0x3f28da84	0.6595843
179	0x3f392b7f	0.72331995
180	0x3f4f11de	0.8088664
181	0x3f568c12	0.8380748
182	0x3f2bc75b	0.6710107
183	0x3f3b0801	0.7305909
184	0x3f4fc1e6	0.8115524
185	0x3f56e3d8	0.8394141
186	0x3f2dd75d	0.67906743
187	0x3f3c970b	0.73667973
188	0x3f506245	0.8139995
189	0x3f57631c	0.84135604
190	0x3f2ea98c	0.6822746
191	0x3f3d2e08	0.73898363
192	0x3f49332e	0.7859372
193	0x3f543f06	0.82908666
194	0x3f2ea98c	0.6822746
195	0x3f3d6ac2	0.73991024
196	0x3f49332e	0.7859372
197	0x3f5444c6	0.8291744
198	0x3f6061db	0.87649316
199	0x3f6864a4	0.90778565
200	0x3f6061db	0.87649316
201	0x3f6864a4	0.90778565

network_body.observation_encoder.processors.1.normalizer.running_mean f4 [10]
0	0x420b3ae4	34.80751
1	0x4160581d	14.021512
2	0x00000000	0.0
3	0x00000000	0.0
4	0x00000000	0.0
5	0x00000000	0.0
6	0x00000000	0.0
7	0x00000000	0.0
8	0x00000000	0.0
9	0x00000000	0.0

network_body._body_endoder.seq_layers.0.weight f4 [256, 212]
0	0x3e3d9d08	0.18516934
1	0x3db726ad	0.08942924
2	0x3d1a079d	0.037604917
3	0x3d809a7f	0.06279468
4	0x3ae1c469	0.0017224672
5	0x3d24abc3	0.040202867
6	0x3ca9e464	0.020738788
7	0x3ced6447	0.02897848
8	0x3b5cec4b	0.0033710178
9	0x3d87169b	0.065961085
10	0x3d2d4623	0.042303216
11	0xbb2e5bcb	-0.0026605006
12	0xbc145c8c	-0.009055268
13	0x3d9a7e9d	0.07543681
14	0xbccc8981	-0.02496791
15	0xbd0978ee	-0.033562593
16	0x3db701eb	0.08935913
17	0x3d4922bb	0.049105387
18	0xbd48857f	-0.048955437
19	0x3d0f188c	0.03493552
20	0xbce84f46	-0.028358113
21	0xbc9a4de0	-0.018835962
22	0x3cb0c065	0.021576116
23	0x3d7e8f8d	0.06214862
24	0xbcbff2d9	-0.023431228
25	0x3a74ec32	0.0009343057
26	0x3d4f5ac9	0.05062369
27	0xbdaf4552	-0.08558144
28	0x3d0b2d76	0.0339789
29	0xbb79da30	-0.0038124435
30	0x3da777cc	0.08177146
31	0xbdd96e3e	-0.1061673
32	0x3b593e14	0.0033148574
33	0x3df76203	0.12079241
34	0xbd1c56aa	-0.038168587
35	0xbc8aac75	-0.016927937
36	0x3d7b21f4	0.061311677
37	0xbd1d9d2d	-0.038479973
38	0x3d46078f	0.048347052
39	0x3c057476	0.008145442
40	0xbda2842f	-0.07935368
41	0x3ce386f7	0.027774317
42	0x3d188771	0.037238542
43	0xbc288e3c	-0.010287818
44	0xbd4e6251	-0.05038673
45	0xbd2b1a86	-0.04177334
46	0xbc56b846	-0.013105458
47	0xbde4e5c5	-0.111766376
48	0xbd55a5f5	-0.052160222
49	0xbd4d3db0	-0.050107658
50	0x3d0f2312	0.034945555
51	0xbd52fc68	-0.051510245
52	0x3e081149	0.13287844
53	0xbcce4d9e	-0.025183495
54	0xbd84bfc8	-0.06481892
55	0xbd2ce8b9	-0.04221413
56	0xbdf34e9d	-0.11880229
57	0x3d1580a4	0.036499634
58	0x3db7b645	0.08970312
59	0xbe17dc2e	-0.14830086
60	0x3da533e3	0.08066537
61	0x3e213dc0	0.15746212
62	0xbc810bbe	-0.01575267
63	0xbdb86389	-0.0900336
64	0x3d87fdce	0.06640206
65	0xbb7deb79	-0.003874509
66	0xbd6018ec	-0.054711267
67	0x3d9c9251	0.07645095
68	0xbb66a1c5	-0.0035191637
69	0xbc97975c	-0.018504791
70	0x3de98c19	0.11403675
71	0xbd9a96b3	-0.07548275
72	0x3d9b60fa	0.07586856
73	0xbd3cb92f	-0.046075042
74	0x3cb9d0da	0.022682596
75	0x3e2b44df	0.16725491
76	0x3c0ee1e3	0.008720848
77	0x3bf5acd9	0.0074974117
78	0x3d11e05e	0.035614364
79	0x3d0f8a8e	0.035044245
80	0x3dafa0ae	0.08575569
81	0xbd77c90d	-0.06049447
82	0x3c594730	0.013261601
83	0xbda61afc	-0.081106156
84	0xbce7b651	-0.028285177
85	0xbdbca707	-0.092115454
86	0xbd45b37b	-0.04826687
87	0x3c40253a	0.0117276255
88	0xbdbac7e0	-0.091201544
89	0xbbb2fab8	-0.005462017
90	0x3d101b91	0.03518254
91	0xbd704f54	-0.058669403
92	0xbdb5d5b5	-0.08878652
93	0x3afe56d0	0.0019404534
94	0x3d7ce686	0.06174328
95	0xbd398cfb	-0.045300465
96	0x3d66681f	0.05625164
97	0xbd6736fa	-0.056448914
98	0xbcf36cd1	-0.029714974
99	0x3e33e9ec	0.17569703
100	0x3d06949a	0.03285656
101	0x3de96125	0.11395482
102	0xbca3b93f	-0.019985793
103	0xbe0a762d	-0.13521643
104	0xbc8efdcb	-0.017455002
105	0xbd5e6ecc	-0.054304883
106	0xbdac3cf1	-0.08410061
107	0x3c4bb0cf	0.012432291
108	0x3cb9acff	0.022665499
109	0xbd75c100	-0.059998512
110	0x3cd9ecb0	0.02660212
111	0x3c3a35d6	0.011365375
112	0xbd3774e7	-0.04478922
113	0xbdff22c6	-0.124578044
114	0xbc4074f0	-0.01174663
115	0x3be51fb6	0.0069923056
116	0xbd936998	-0.07197875
117	0xbdd1f262	-0.10251309
118	0xbd89e27c	-0.067326516
119	0xbd4718b4	-0.048607543
120	0xbaeda80f	-0.001813175
121	0xbce3b653	-0.0277969
122	0x3da7c72c	0.08192286
123	0xbe1d5d62	-0.15367654
124	0x3cba7f7e	0.022765871
125	0xbc266ff5	-0.010158529
126	0x3dc227ad	0.09480224
127	0xbd4927b3	-0.049110126
128	0x3c4b85c2	0.012422027
129	0xbc66724d	-0.014065337
130	0xbe044861	-0.12918235
131	0xbaa23a1a	-0.0012376935
132	0xbe273874	-0.16330129
133	0x3e157e5e	0.14598987
134	0xbdabd658	-0.08390492
135	0xbda8b873	-0.08238306
136	0x3cf2cf6a	0.029639918
137	0x3c1599cf	0.009130909
138	0xbd5edc62	-0.054409392
139	0xbd3dc22b	-0.04632775
140	0x3d3384a6	0.043827675
141	0xbd0a66f8	-0.033789605
142	0xbe42d8bc	-0.1902799
143	0xbd29dbca	-0.041469373
144	0xbe048188	-0.12940037
145	0xbd647f1f	-0.055785295
146	0x3c8fa04b	0.017532488
147	0xbc5bb01e	-0.013408689
148	0xbdb17465	-0.086647786
149	0x3d039a37	0.032129493
150	0xbdc81206	-0.09769063
151	0xbdf8ecb2	-0.12154521
152	0xbd54131b	-0.051776033
153	0x3dc7d999	0.097583
154	0x3d45e993	0.048318457
155	0xbdefc53e	-0.11707543
156	0xbd419b49	-0.047267232
157	0xbd357ae6	-0.04430666
158	0x3c880ca8	0.016607597
159	0x3d93f514	0.07224479
160	0xbdeb22be	-0.11481236
161	0xbd024626	-0.03180518
162	0xbd861e38	-0.065487325
163	0xbdf120fa	-0.11773868
164	0xbe0e4bf2	-0.13896158
165	0xbdf0b7e7	-0.117538266
166	0xbd40d2ea	-0.047076143
167	0xbd4f4282	-0.050600536
168	0xbdb5ff7f	-0.08886623
169	0xbd6e802a	-0.058227696
170	0xbd4a52b6	-0.049395286
171	0xbd5b93f9	-0.053607915
172	0xbdfb455c	-0.122690886
173	0xbe2a547a	-0.16633788
174	0x3db95616	0.09049623
175	0xbd62e536	-0.055394374
176	0xbca09319	-0.019601392
177	0xbd7af481	-0.061268333
178	0xbbbaa5d6	-0.0056960387
179	0xbc01a95a	-0.007913912
180	0x3c37e5ab	0.011224191
181	0xbdceffaf	-0.101073615
182	0xbc6328ce	-0.013864709
183	0xbd6161f3	-0.055025052
184	0xbd972b9f	-0.07381367
185	0xbdbc9f00	-0.09210014
186	0xbcb229b2	-0.021748397
187	0x3e06390e	0.13107702
188	0xbdbdd9c1	-0.09270049
189	0xbde2600c	-0.11053476
190	0xbca6c082	-0.020355467
191	0xbda6c111	-0.08142293
192	0xbc210b07	-0.009829289
193	0xbdc5683b	-0.09639021
194	0xbd0bdcf6	-0.03414627
195	0x3d4c684b	0.04990415
196	0x3d937c1f	0.072014086
197	0xbdb80e96	-0.08987157
198	0x3d39b18f	0.04533535
199	0xbd9b4aaf	-0.07582604
200	0x3c9a2d27	0.018820358
201	0x38d8d5c2	0.00010339498
202	0xbd1c5919	-0.038170908
203	0xbbf4c149	-0.0074693304
204	0xbd794cce	-0.060864262
205	0xbdbe329b	-0.09286996
206	0xbdb4a134	-0.088198096
207	0x3dd42f95	0.10360638
208	0x3bc70a3d	0.0060742185
209	0xbbfaf321	-0.0076583778
210	0x3de27fe3	0.11059549
211	0xbdd3b4e4	-0.103372365
212	0x3e0265e5	0.12734182
213	0xbc6f3a12	-0.014601247
214	0x3c990d36	0.018683057
215	0x3ce1fa9f	0.027585326
216	0xbe021a71	-0.12705399
217	0x3de8bd7f	0.113642685
218	0xbd8713de	-0.06595586
219	0x3e023d78	0.12718761
220	0xbc2f223c	-0.010689314
221	0x3b8c22a8	0.0042765923
222	0x3d97394e	0.07383977
223	0x3d8549ca	0.06508215
224	0xbdae2627	-0.08503371
225	0x3da60f5d	0.08108399
226	0x3c741cd7	0.014899454
227	0x3e2860ca	0.16443172
228	0xbcf06c86	-0.029348623
229	0x3cfdc0fa	0.030975807
230	0x3ccef138	0.025261506
231	0x3c0e7254	0.00869425
232	0xbe210c68	-0.15727389
233	0xbd0b55e1	-0.034017447
234	0xbc2e3e51	-0.010634975
235	0x3dab10a6	0.08352785
236	0xbd98ff89	-0.074706145
237	0xbe053326	-0.13007793
238	0xbd86a1c9	-0.06573827
239	0x3d622cae	0.05521839
240	0x3ce9f827	0.028560711
241	0xbce5f396	-0.028070252
242	0x3daeaa4e	0.08528577
243	0x3dcf45e8	0.101207554
244	0xbc089870	-0.008337125
245	0x3cc06802	0.023487095
246	0x3c0c1353	0.008549529
247	0x3df0bf70	0.11755264
248	0xbd8bb939	-0.06822438
249	0xbdb28da8	-0.08718425
250	0x3e2c1844	0.16806132
251	0x3e19dd4e	0.15025827
252	0xbc7f6285	-0.015587454
253	0xbd175967	-0.036950495
254	0x3d7e074f	0.06201869
255	0x3e1a7b60	0.15086126

network_body._body_endoder.seq_layers.0.bias f4 [256]
0	0xbc380816	-0.011232397
1	0xbc019e93	-0.007911342
2	0xbca75f42	-0.020431165
3	0xbc858d15	-0.016302625
4	0xbb49e41d	-0.0030806132
5	0xbc2e1036	-0.010623982
6	0x3d0992b1	0.03358716
7	0xbcd9cc0a	-0.026586551
8	0x3c3b5353	0.01143344
9	0xbcec3323	-0.028832978
10	0xbc62290f	-0.013803734
11	0x3c8ae661	0.016955556
12	0xbcfc9e0b	-0.03083708
13	0xba8044f7	-0.0009786178
14	0x3befe423	0.007320897
15	0x3bc31ee0	0.0059546083
16	0xbd09941e	-0.03358852
17	0x3ba14fc4	0.004922839
18	0xbb994ba8	-0.0046782084
19	0x3bf48da4	0.007463174
20	0xbc0b045e	-0.008484928
21	0x3cde8591	0.027163299
22	0xbc876e4d	-0.016532088
23	0x3ce93a8c	0.0284703
24	0xbd1c7ce4	-0.038205042
25	0x3d146fc9	0.03623942
26	0x3b18544d	0.0023243607
27	0x3c37e55a	0.011224115
28	0x3c4e0914	0.012575407
29	0x3cd1ff36	0.02563439
30	0x3c0c0516	0.008546134
31	0x3c332f9a	0.010936642
32	0xbc9a3fdc	-0.018829279
33	0x3d19c332	0.03753967
34	0x3cd9ea1e	0.026600894
35	0xbb729af9	-0.003701864
36	0x3c8ef1f8	0.017449364
37	0xbc995e40	-0.0187217
38	0xbc876c89	-0.016531246
39	0xbcc72289	-0.02430846
40	0x3bf732ee	0.007543913
41	0xbc8b6cb2	-0.017019603
42	0xbd26f308	-0.040759116
43	0xbd0e8821	-0.03479779
44	0xbc756873	-0.014978516
45	0xbd12ec7f	-0.03587007
46	0x3cf616a4	0.030040093
47	0x3cd526c0	0.026019454
48	0xbc6a8279	-0.014313334
49	0xbcc769ca	-0.024342436
50	0xbd22c1f3	-0.039735746
51	0xbccfa8ea	-0.0253491
52	0x3cfd892f	0.030949203
53	0xbcb70810	-0.022342712
54	0xbcecabce	-0.028890517
55	0x3c017faf	0.007903977
56	0x3c371522	0.011174472
57	0x3c01dc3a	0.007926041
58	0x3cad5116	0.021156829
59	0xbc402abd	-0.01172894
60	0x3b8ed745	0.004359158
61	0x3cbd48e4	0.023106046
62	0x3d1667ae	0.03671997
63	0xbd292059	-0.041290615
64	0xba6194c7	-0.00086052384
65	0x3d06beaf	0.032896694
66	0xbc646c60	-0.013941854
67	0xbd1e1e87	-0.038603332
68	0xbbb598d6	-0.005541901
69	0x3b88e3c2	0.0041775415
70	0xbb070f77	-0.0020608583
71	0x3d3180fd	0.043335903
72	0x3ac98147	0.0015373611
73	0x3cffc8cd	0.031223679
74	0xbbf9bea5	-0.0076216036
75	0xbb021322	-0.001984783
76	0x3d24923b	0.04017852
77	0xbd020997	-0.031747427
78	0xbcc36641	-0.02385247
79	0xbc55ed03	-0.013056996
80	0xbc666268	-0.014061548
81	0xbcb8fce3	-0.022581523
82	0xbc50d022	-0.012744935
83	0x3bf0eb34	0.007352257
84	0xbd1cbd97	-0.038266744
85	0x3ac22741	0.0014812724
86	0xbd1f2913	-0.03885753
87	0x3c850ed5	0.016242424
88	0x3c2072b6	0.009792974
89	0x3c339d3b	0.01096278
90	0x3cb5ca31	0.022191139
91	0xbc9b3244	-0.018944867
92	0xbc960fc3	-0.018318063
93	0xbc407c2b	-0.011748354
94	0xbd2c534d	-0.04207163
95	0xbb9bfb06	-0.004760149
96	0xbca3fcaa	-0.02001794
97	0xbc25cf13	-0.010120171
98	0x3cc8c79a	0.02450924
99	0xbd06baa2	-0.03289283
100	0x3ae9bd93	0.0017832987
101	0x3c94d9a6	0.01817019
102	0xbb2e5798	-0.0026602503
103	0x3af516b0	0.0018698778
104	0xbcfd2360	-0.030900657
105	0xbd0a06b5	-0.033697803
106	0xbd05253a	-0.032506205
107	0x3d257580	0.04039526
108	0xbd1eed6e	-0.03880065
109	0x3c82f605	0.015986452
110	0x3c51f35f	0.012814372
111	0xbbe29a03	-0.0069153323
112	0xbcbf52cd	-0.023354912
113	0xbca4edc9	-0.020132916
114	0xbc840e27	-0.01612003
115	0xbc51e20a	-0.01281024
116	0xbd18ae3e	-0.037275545
117	0xbc1d0a4e	-0.009584976
118	0xbc8bac94	-0.017050065
119	0x3ca37d00	0.019957066
120	0xbcf002db	-0.029298237
121	0x3d141aa1	0.036158208
122	0x3c78401b	0.015152003
123	0xba77125e	-0.0009425039
124	0x3c698e11	0.014255063
125	0xbc7674a3	-0.015042457
126	0xbc65ab48	-0.014017887
127	0x3d326c7e	0.043560497
128	0xbbdc88c8	-0.006730173
129	0x3c4e13fc	0.012578007
130	0xbc44aee2	-0.012004586
131	0xbd2603b8	-0.04053089
132	0x3d34a0bd	0.044098604
133	0x3c3a38df	0.011366098
134	0x3b854450	0.0040669814
135	0xbc95425c	-0.01822012
136	0xbd3198a7	-0.04335847
137	0x3c669fcc	0.0140761845
138	0xbc600333	-0.013672638
139	0xbc7215a1	-0.014775665
140	0xbc623618	-0.013806842
141	0xbc864de6	-0.016394567
142	0xbd1dfa98	-0.038569063
143	0x3bdcd934	0.00673976
144	0xbc8db43b	-0.017297855
145	0xbd31dfdd	-0.043426383
146	0xbd6bbec4	-0.057554975
147	0x3c72837f	0.014801859
148	0x3c68ad0e	0.014201416
149	0xbbf793d4	-0.0075554643
150	0xbc12540d	-0.008931172
151	0x3c673efc	0.014114138
152	0xbc346d0b	-0.011012326
153	0xbcb13bcb	-0.021634957
154	0xba8cec20	-0.0010751523
155	0xbc83f5b2	-0.016108368
156	0xbba7dcbd	-0.0051227496
157	0x3cc8e8da	0.024525095
158	0x3d30b120	0.04313767
159	0xb6e065c0	-6.6875655e-06
160	0x3c603110	0.013683572
161	0xbc766bb8	-0.015040331
162	0xbc91c907	-0.017796053
163	0xbc5d80da	-0.01351949
164	0x3cd044cc	0.02542343
165	0xbd4f5723	-0.05062021
166	0x3ca88d45	0.020575175
167	0xbc99a140	-0.018753648
168	0x3c58fbc9	0.013243624
169	0x3cdad1a4	0.026711293
170	0x3ce5d84b	0.028057238
171	0x3cd14d3a	0.02554952
172	0xbbb6f138	-0.0055829547
173	0xbc5a7ca9	-0.013335385
174	0x3c24e176	0.01006352
175	0xbd418c1f	-0.04725277
176	0xbbf63ada	-0.00751434
177	0xbb10e2e8	-0.0022107903
178	0x3c802f02	0.015647415
179	0x3d057874	0.032585576
180	0xbc1f0b96	-0.009707352
181	0x3c9e1743	0.019298201
182	0xbbe61f6e	-0.0070227897
183	0xb957b728	-0.00020572229
184	0xbcc2243a	-0.023698915
185	0x3d22373d	0.03960346
186	0x3c4d9494	0.012547631
187	0xbcd81be3	-0.026380485
188	0x3d2299f9	0.03969762
189	0xbc51e1fc	-0.0128102265
190	0x38a3158c	7.776459e-05
191	0x3c0166fe	0.00789809
192	0x3bbae762	0.0057038525
193	0xbc83f8c2	-0.016109828
194	0xbc972f8e	-0.018455293
195	0x3d0e8ee3	0.034804236
196	0xbc71568e	-0.014730109
197	0xbd26ff50	-0.04077083
198	0x3b28667f	0.0025695858
199	0x3c9844cb	0.01858749
200	0x3bde49e7	0.006783712
201	0x3c2e9a43	0.010656896
202	0xbd70f777	-0.05882975
203	0x3c8a15b8	0.01685606
204	0xbd07e1f3	-0.033174466
205	0x3b9c21a2	0.0047647515
206	0x3bd3b311	0.0064605554
207	0x3b06a8ad	0.0020547316
208	0xbc3370d7	-0.010952196
209	0x3c535841	0.012899459
210	0x3b70ad48	0.0036724377
211	0xbba9fdaf	-0.005187712
212	0x3c960695	0.018313685
213	0x3beb808b	0.0071869544
214	0xbc414d40	-0.011798203
215	0xbc27c503	-0.010239842
216	0xbd006768	-0.031348616
217	0xbb6476f9	-0.0034860952
218	0x3cb17a0b	0.02166464
219	0x3c9cfbcd	0.019163037
220	0xbd0f655c	-0.035008773
221	0xb7243d80	-9.789481e-06
222	0x3bd539a9	0.0065071178
223	0x3c78bf9c	0.015182402
224	0x3c0b20dd	0.008491722
225	0x3ab9f525	0.0014187439
226	0xbb754418	-0.003742462
227	0xbc45f8d8	-0.012083255
228	0xbcc6e241	-0.024277808
229	0x3c077862	0.008268448
230	0xbc8e0387	-0.017335666
231	0xbd6324ae	-0.055454902
232	0xbcdea912	-0.027180228
233	0xba53c41f	-0.00080782356
234	0x3d1056c0	0.03523898
235	0xbd18d19e	-0.03730928
236	0xbc15f897	-0.009153507
237	0x3c8affdd	0.016967708
238	0xbcada0f5	-0.021194914
239	0x3ca4dc62	0.020124618
240	0xbb2da529	-0.0026496148
241	0x3b214d71	0.002461281
242	0x3cba7bcf	0.022764115
243	0xbcd56918	-0.02605109
244	0xbcf62a65	-0.030049512
245	0x3b6b7300	0.00359267
246	0xbce0dbfc	-0.027448647
247	0x3c18777e	0.009305833
248	0xbd2be6b6	-0.04196807
249	0x3bc7a307	0.0060924324
250	0x3c1ffdac	0.00976507
251	0xbd577317	-0.052599993
252	0xbc08af72	-0.008342611
253	0xba761a7f	-0.00093881035
254	0x3c63f7b8	0.013914041
255	0xbbeb4d1c	-0.007180823

network_body._body_endoder.seq_layers.2.weight f4 [256, 256]
0	0x3cf32545	0.029680857
1	0x3c0144b8	0.007889919
2	0xbdb827d6	-0.08991973
3	0x3d1cdf95	0.038299162
4	0x3cbd048a	0.023073453
5	0xbd3daf41	-0.046309713
6	0x3d600f45	0.054702062
7	0xbde088e9	-0.109636135
8	0xbe070d22	-0.13188604
9	0xbd2ceaeb	-0.042216223
10	0x3d9a0efb	0.075223885
11	0xbcd08d5e	-0.025458034
12	0xbda76ee0	-0.081754446
13	0xbbebd02b	-0.0071964464
14	0x3cbf6d6b	0.023367604
15	0x3c3c53c9	0.011494585
16	0xbcf82a32	-0.030293558
17	0x3d7235e1	0.059133414
18	0xbc84a045	-0.016189704
19	0x3db034ca	0.08603819
20	0xbbce3ce0	-0.006293878
21	0x3d9e6c2a	0.077354744
22	0xbc614261	-0.013748736
23	0x3d927b6f	0.07152449
24	0xbcf77b86	-0.030210268
25	0xbcd6868c	-0.026187204
26	0xbe244bbf	-0.1604452
27	0xbd1f16d5	-0.038840134
28	0xbde22b1e	-0.1104338
29	0x3e01c1ae	0.12671539
30	0x3caeb901	0.021328451
31	0xbd268570	-0.0406546
32	0x3cdd78f2	0.02703521
33	0x3d3947bf	0.045234438
34	0x3c9fa140	0.01948607
35	0xbdb784ca	-0.089608744
36	0x3d1aad69	0.037763033
37	0x3dcff1d3	0.10153546
38	0xbe4cb54a	-0.19991031
39	0x3c1cbb7b	0.009566183
40	0x3cb21f3e	0.021743413
41	0x3c958492	0.018251691
42	0xbbf9890e	-0.007615215
43	0xbd73872c	-0.05945508
44	0xbd1feb8a	-0.039042987
45	0xbd056c30	-0.03257388
46	0xbda0fff4	-0.07861319
47	0x3c29e744	0.010370079
48	0xbc0fdc93	-0.008780616
49	0xbd9492d7	-0.0725457
50	0xbdfa302a	-0.12216218
51	0x3e0bcb40	0.13651752
52	0xbd1670cd	-0.03672867
53	0xbcc7eb97	-0.02440433
54	0x3c8e3b42	0.01736224
55	0xbd6d8eba	-0.057997443
56	0x3aec84a6	0.0018044903
57	0xbdb8c08e	-0.09021102
58	0xbd21c0d9	-0.039490554
59	0x3dc11ef7	0.09429734
60	0xbd99eb2f	-0.07515561
61	0xbd95bf42	-0.0731187
62	0x3e21e8d1	0.15811469
63	0x3d400b45	0.046885747
64	0x3d10d0b9	0.035355303
65	0x3d0ecf68	0.034865767
66	0xbb8ef810	-0.0043630674
67	0xbc31c194	-0.010849375
68	0x3ceca562	0.028887454
69	0xbc953cbd	-0.018217439
70	0xbd98be48	-0.07458168
71	0x3c694ecf	0.014239981
72	0xbd3fabf6	-0.046794854
73	0xbd0ac0ee	-0.0338754
74	0xbc23dbc6	-0.010001129
75	0x3db0b083	0.08627417
76	0xbca973d3	-0.020685112
77	0x3c8c5281	0.017129185
78	0xbc3e9212	-0.011631506
79	0x3dbb4ac4	0.0914512
80	0x3e0736a2	0.13204435
81	0xbcb3084c	-0.021854542
82	0x3d98e2cd	0.07465134
83	0xbcc78eb5	-0.02436004
84	0xbd841629	-0.06449539
85	0x3d17bfaa	0.03704802
86	0xbc856638	-0.016284093
87	0xbc64eea8	-0.013972916
88	0xbd99ca28	-0.07509261
89	0xbdbd2209	-0.09235007
90	0xbd0afd93	-0.033933233
91	0xbc011f22	-0.007880958
92	0x3e00b447	0.1256877
93	0x3c95cb5c	0.018285446
94	0xbdb8a33c	-0.090155095
95	0x3c0ef9c7	0.008726544
96	0x3daf4b2b	0.08559259
97	0x3dfb58d1	0.122728
98	0x3da10ede	0.07864164
99	0x3debf895	0.11522023
100	0xbd035d55	-0.03207143
101	0xbd40ce89	-0.047071967
102	0x3dcc3380	0.0997076
103	0xbdf6c84b	-0.120499216
104	0x3d88e9d9	0.06685228
105	0xbe405c8d	-0.18785305
106	0x3d99a3c1	0.07501937
107	0xbe00b9c6	-0.12570867
108	0x3da5a5aa	0.080882385
109	0xbc8581c0	-0.016297221
110	0xbd485be5	-0.048915762
111	0xbd9af6d0	-0.07566607
112	0xbdbe5dfd	-0.092952706
113	0xbd85065c	-0.064953536
114	0x3cc50f5e	0.02405518
115	0xbd03f031	-0.032211486
116	0xbdc556f7	-0.09635728
117	0x3c088405	0.008332257
118	0x3c8140f5	0.015778044
119	0x3d8e47a4	0.06947258
120	0x3dd5d06c	0.10440144
121	0x3dae61aa	0.08514722
122	0x3cfa8ce9	0.03058477
123	0x3d230bd6	0.03980621
124	0xbd273aba	-0.04082749
125	0xbd131b84	-0.035914913
126	0x3d3fac16	0.046794973
127	0x3c61e9f1	0.013788686
128	0x3dc63b7b	0.09679314
129	0x3cdb436c	0.026765548
130	0xbbb22325	-0.0054363185
131	0x3ad9ff78	0.0016631922
132	0xbd8d5c95	-0.06902424
133	0xbe0171a1	-0.12641002
134	0xbd350f78	-0.044204205
135	0x3cd1e4d0	0.025621802
136	0xbd2e5917	-0.04256543
137	0xb932a47f	-0.00017036682
138	0xbdab051c	-0.08350584
139	0x3cbece4a	0.023291726
140	0x3c85f77a	0.016353358
141	0x3cbf5670	0.023356646
142	0x3cec703e	0.028862115
143	0xbcbc3a20	-0.022976935
144	0x3d2ce048	0.04220608
145	0x3e0d42fe	0.13795087
146	0x3de75879	0.11296172
147	0xbd24bcbf	-0.040219065
148	0xbd32f4d1	-0.043690506
149	0x3bdc2709	0.0067185205
150	0xbb57ab95	-0.0032908667
151	0x3c2e6fea	0.0106468
152	0x3cb19c74	0.021681048
153	0x3bc3b542	0.0059725353
154	0xbdc13780	-0.09434414
155	0x3c13165f	0.008977502
156	0x3d1886da	0.03723798
157	0xbc596f5f	-0.013271182
158	0xbce66ecf	-0.02812901
159	0xbde47fde	-0.11157201
160	0x3d276b64	0.0408739
161	0xbcb3d7db	-0.021953514
162	0x3d6197e5	0.0550765
163	0x3dad260c	0.084545225
164	0x3ce19f5d	0.02754181
165	0x3c96a74b	0.018390318
166	0x3d2791c2	0.04091049
167	0xbd4deade	-0.050272815
168	0xbdb3ffb8	-0.08789009
169	0x3bbd7961	0.0057822918
170	0xbd066d4b	-0.032819074
171	0xbd8eda70	-0.069752574
172	0xbc521ad0	-0.012823775
173	0x3dab7717	0.08372324
174	0x3d34ce43	0.04414202
175	0x3d8d4eff	0.06899833
176	0x3d0e82ed	0.03479283
177	0x3d7854b5	0.060627658
178	0xbd349313	-0.044085573
179	0x3d051415	0.032489855
180	0x3d01e41c	0.031711683
181	0xbdb92113	-0.090395115
182	0x3ced029b	0.028931906
183	0xbd802d26	-0.062586114
184	0xbd4aef39	-0.049544547
185	0xbd4fc36e	-0.050723486
186	0xbd1ecaaa	-0.038767494
187	0xbcdf4c7b	-0.027258148
188	0x3cd403e7	0.025880767
189	0x3c500a40	0.012697756
190	0xbd8d363c	-0.0689511
191	0xbe08ff79	-0.13378705
192	0xbd766b56	-0.060160957
193	0xbcd1791e	-0.025570448
194	0x3cbebe57	0.02328412
195	0xbd257d54	-0.040402725
196	0x3d1b59b5	0.03792735
197	0xbc2911b6	-0.010319164
198	0x3dbe79ee	0.093006
199	0xbdf8f048	-0.12155205
200	0x3cd5ff66	0.02612276
201	0xbd861346	-0.06546645
202	0xbb37a839	-0.0028023853
203	0xbe097a7a	-0.13425627
204	0xbc37e3c4	-0.011223737
205	0xbbcce21a	-0.0062525393
206	0x3d93e568	0.0722149
207	0x3d77bfff	0.060485836
208	0x3debf532	0.11521377
209	0xbdce34d1	-0.10068668
210	0xbd90f537	-0.07078021
211	0xbc80564a	-0.015666146
212	0x3ad53fb1	0.0016269592
213	0xbda88f42	-0.08230449
214	0xbddee1e9	-0.10882933
215	0xbcc55723	-0.024089402
216	0x3d15df89	0.036590133
217	0x3da02dc7	0.07821231
218	0x3c25babc	0.010115322
219	0xbd586d24	-0.05283846
220	0xbd001c2a	-0.03127686
221	0xbd46687e	-0.048439495
222	0xbca18aba	-0.01971947
223	0xbd41b418	-0.04729089
224	0x3c9d16ae	0.019175854
225	0xbc7ec963	-0.015550944
226	0xbc2c8de4	-0.010531876
227	0xbbced166	-0.0063115833
228	0xbd3cef28	-0.046126515
229	0xbd9c0e29	-0.07619888
230	0xbd92fc07	-0.07176977
231	0x3cc90810	0.024539977
232	0x3c0391f3	0.0080304025
233	0x3d212dda	0.039350368
234	0xbda1c0fa	-0.078981355
235	0xbd7d4ea9	-0.061842594
236	0xbd12e189	-0.03585962
237	0xbc1a55fd	-0.009419915
238	0x3da73278	0.08163923
239	0xbcb0abb9	-0.021566259
240	0x3ca2ef98	0.019889638
241	0x3d31a270	0.043367803
242	0xbd3cdc1f	-0.04610836
243	0xbd8e8dab	-0.06960615
244	0xbd8e1f6d	-0.06939588
245	0x3cdd6d16	0.027029555
246	0xbcfd1127	-0.030891968
247	0xbd0c4622	-0.03424657
248	0x3c721a89	0.014776834
249	0x3d788802	0.060676582
250	0x3d62062e	0.055181675
251	0x3e01079a	0.12600556
252	0xbc4234d5	-0.011853416
253	0x3db0dcc3	0.08635857
254	0xbcbdc30d	-0.023164297
255	0x3c2ff0dd	0.010738579

network_body._body_endoder.seq_layers.2.bias f4 [256]
0	0xbc904198	-0.017609403
1	0xbbd3468a	-0.006447618
2	0x3c3e7bc4	0.011626188
3	0x3ae23020	0.0017256774
4	0x3c167637	0.009183458
5	0xbcd7b3c0	-0.026330829
6	0xbb81f8a1	-0.0039664065
7	0x3ca591ca	0.02021112
8	0xbc9800f0	-0.018555135
9	0x3c202d25	0.009776388
10	0xbc978416	-0.0184956
11	0xbc059194	-0.008152384
12	0x3ca739a4	0.020413227
13	0xbcfa6f8d	-0.03057077
14	0x3ce8e643	0.02843011
15	0x3c0c3b8b	0.008559118
16	0x3c8808b0	0.016605705
17	0x3cc79547	0.024363173
18	0xbc4f5e29	-0.012656727
19	0x3b11eb9d	0.002226568
20	0x3d174212	0.036928244
21	0x3ba92d86	0.0051628975
22	0xbba9425a	-0.0051653804
23	0x3d4ad04e	0.04951506
24	0xbd1d0ae9	-0.038340483
25	0x3c258c05	0.010104184
26	0x3c2f40f2	0.0106966365
27	0x3c84f761	0.01623124
28	0x3b53b34f	0.0032302921
29	0xbc8c1c23	-0.01710326
30	0x3cc75771	0.024333687
31	0x3c31564e	0.010823799
32	0xbc597e00	-0.01327467
33	0xbbc41065	-0.0059833997
34	0x3c10ad91	0.008830444
35	0xbc974618	-0.01846604
36	0xbc85d838	-0.016338453
37	0x3b835140	0.0040074885
38	0x3b9e37d2	0.0048284316
39	0x3ba6476e	0.005074433
40	0xbb998c78	-0.0046859346
41	0x3c78f6e5	0.015195583
42	0xbcce08ff	-0.025150774
43	0x3b7851db	0.0037890587
44	0x3abe8558	0.0014535589
45	0x392f6a8a	0.0001672899
46	0x3c9824ab	0.018572172
47	0x3c8b4d8b	0.017004749
48	0xbc269f2d	-0.010169786
49	0x3b05616f	0.0020352264
50	0xbb07aa5a	-0.0020700903
51	0xbc1ccd79	-0.009570473
52	0x3bf2ce6f	0.0074098627
53	0xbc10b967	-0.008833266
54	0x3cb80d1f	0.022467194
55	0x3c0da6d3	0.008645731
56	0x3bf69e32	0.0075261826
57	0xbc6b32f9	-0.014355415
58	0x3c57ecb4	0.013178993
59	0x3c6a9401	0.014317513
60	0x3a56b4c4	0.00081903883
61	0xb96382cd	-0.00021697134
62	0x397fe1ce	0.00024402814
63	0xbbdcd95a	-0.0067397775
64	0x3cc713de	0.024301466
65	0x3c70a76e	0.014688356
66	0x3bd9e0a7	0.006649095
67	0xba29397c	-0.0006455404
68	0xbd132151	-0.035920445
69	0x3a9ef512	0.001212748
70	0xbc2a541b	-0.010396029
71	0x3ca041d4	0.01956264
72	0x3c8d4b7f	0.017247913
73	0x3b9b767a	0.004744348
74	0x3c155ab4	0.009115864
75	0x3963a773	0.00021710787
76	0xbd0fdd08	-0.0351229
77	0xbcb8c73a	-0.022555936
78	0x3c5596b5	0.01303642
79	0x3c36ab7d	0.011149284
80	0x3c7ac216	0.015305063
81	0x3c1d39aa	0.009596268
82	0x3ca04ac2	0.019566897
83	0xbc8f7a2e	-0.017514315
84	0xbc6b144c	-0.014348101
85	0x3b580971	0.0032964612
86	0xbb34f9b8	-0.0027614664
87	0x3ccd64e3	0.02507252
88	0x3a0bc465	0.0005331694
89	0xbc3682df	-0.011139601
90	0xbb23382e	-0.0024905312
91	0x3cb9ee86	0.022696745
92	0x3caa6145	0.020798335
93	0x3c1d15ed	0.009587747
94	0x3cd91812	0.026500735
95	0xbc6ecd9b	-0.014575387
96	0x3cd4beb4	0.02596984
97	0xbccfd821	-0.025371613
98	0xbbd8dbba	-0.0066179903
99	0x39a12b44	0.00030740548
100	0x3cd1d096	0.025612157
101	0x3c81d2c0	0.015847564
102	0xbc9bb7f7	-0.01900862
103	0x3c027f7d	0.007964966
104	0xba8bdcfd	-0.0010670718
105	0x3c32ae02	0.0109057445
106	0xbc5d7ce2	-0.013518544
107	0x3bce0990	0.006287761
108	0x3cc36955	0.023853937
109	0xbb318c58	-0.0027091708
110	0xbc5b1d5d	-0.0133737
111	0x3d058285	0.032595176
112	0x3c2773ca	0.010220477
113	0x3d056f8f	0.032577094
114	0x3cc674ae	0.02422556
115	0xbb92ce23	-0.00448014
116	0xbba5cfcf	-0.005060173
117	0x3b686402	0.003546
118	0x3c69d352	0.014271574
119	0x3cafb16a	0.021446902
120	0x3c2bb084	0.010479096
121	0x3c09755c	0.008389797
122	0x3c84b2cd	0.01619854
123	0xbc3308cd	-0.010927391
124	0xbc146643	-0.009057584
125	0xbcd7c3f3	-0.026338553
126	0x3ca0579e	0.01957303
127	0xbd06b66b	-0.03288881
128	0xba5361c2	-0.0008063578
129	0x3bf50995	0.007477949
130	0x3c68d1fb	0.0142102195
131	0xbbbce1dd	-0.0057642297
132	0xbc6fa45f	-0.0146265915
133	0x3c8cb893	0.017177856
134	0xbc19f76e	-0.009397371
135	0xba9aac10	-0.0011800546
136	0xbc42107f	-0.011844753
137	0xbccdab92	-0.025106225
138	0xbc80f425	-0.015741417
139	0x3c5e5356	0.0135696735
140	0xbbc16af6	-0.0059026433
141	0xbd0837c4	-0.033256307
142	0x3ccaea8a	0.02477004
143	0xb9adc602	-0.0003314466
144	0x3c933029	0.0179673
145	0xbb8ddce2	-0.00432931
146	0x3b785ea1	0.00378982
147	0x3b675a3e	0.0035301591
148	0xbc13913a	-0.009006793
149	0x3b846514	0.0040403698
150	0x3c89eec0	0.016837478
151	0xb9f191a2	-0.00046075607
152	0x3b8f182f	0.0043668966
153	0xbce2314a	-0.027611393
154	0x3a6c2004	0.0009007456
155	0x3c5a1417	0.013310454
156	0xbc57a540	-0.013161957
157	0x3d015178	0.031571835
158	0x3c820a92	0.015874181
159	0x3ce67616	0.02813248
160	0xbbfd136c	-0.0077232625
161	0xbbbe9181	-0.0058156853
162	0xbbe06907	-0.0068484577
163	0x3ce01118	0.027351901
164	0xbb9017ab	-0.0043973527
165	0xbc4c87e3	-0.01248357
166	0x3d0746d8	0.033026546
167	0xbba6ae8d	-0.005086726
168	0x3bdb96df	0.006701335
169	0x3c050a32	0.0081201065
170	0xbcc07599	-0.023493575
171	0x3ba143e4	0.0049214233
172	0x3c8147b8	0.015781268
173	0x3c548bd4	0.012972791
174	0xbc477d24	-0.012175832
175	0xba21d1d9	-0.00061729323
176	0x3a8b8103	0.0010643307
177	0x3c9395b8	0.018015727
178	0xbcb90d5b	-0.022589376
179	0xb802a054	-3.1143732e-05
180	0xbc64a431	-0.013955162
181	0xbb984c24	-0.0046477485
182	0x3bd5cc03	0.006524564
183	0x3cdf9441	0.027292373
184	0xbcd2f8f2	-0.025753472
185	0xbca5b173	-0.020226216
186	0xbbc62c63	-0.006047772
187	0x3c971dfb	0.018446913
188	0x3b14247a	0.002260475
189	0xbb99c1c4	-0.004692288
190	0x3b44be60	0.00300207
191	0xbc6aea5c	-0.014338102
192	0x3b5bd273	0.0033542186
193	0xbca8bdd3	-0.020598328
194	0xbc81baa7	-0.015836073
195	0x3c938aba	0.018010486
196	0x3be81636	0.007082726
197	0xb98d3526	-0.00026933214
198	0x3c9454fe	0.018106934
199	0x399a20f1	0.00029397712
200	0x3a81107e	0.0009846834
201	0xbc5704d5	-0.013123711
202	0xba7e0edb	-0.00096915447
203	0x3c816d51	0.015799196
204	0xbd06514c	-0.032792374
205	0x3b2586a5	0.0025257256
206	0x3c1e303a	0.009655053
207	0xbb684c36	-0.0035445816
208	0x3b93426a	0.004494001
209	0x3c9605c3	0.018313294
210	0xbc59b852	-0.013288574
211	0x3ca1a77b	0.019733181
212	0xbc5f9309	-0.013645896
213	0xbc3fc9a7	-0.0117057925
214	0x3c2fa6c5	0.010720913
215	0xbc839e05	-0.01606656
216	0x3c798717	0.015229962
217	0x3c180731	0.009279058
218	0x3c14d191	0.009083168
219	0x3bd41188	0.0064718165
220	0x3c117065	0.008876895
221	0x3cb9d5d0	0.022684962
222	0xbaaf03d4	-0.0013352581
223	0xb9392f34	-0.0001766056
224	0x3ca380fd	0.019958967
225	0x3bbb4fd3	0.005716303
226	0x3ce75352	0.028237972
227	0x3a629c17	0.0008644475
228	0xbc9ea7d1	-0.01936713
229	0x3c4bc8d9	0.0124380225
230	0xbbcd70ed	-0.0062695653
231	0x3c331977	0.010931364
232	0x3c5ba804	0.013406757
233	0x3d22f1b3	0.039781284
234	0x3c87cbf6	0.016576748
235	0x3ba0b2ff	0.0049041505
236	0xbc14858a	-0.009065041
237	0xbc2c22ff	-0.010506391
238	0xbc98dade	-0.018659052
239	0x3cb7b727	0.022426201
240	0xbc349ecf	-0.011024191
241	0x3b03c9d9	0.0020109324
242	0x3c2471e3	0.010036918
243	0x3c63842a	0.013886491
244	0xbcacdc50	-0.021101147
245	0x3be3b290	0.0069487765
246	0xbced3cd5	-0.028959671
247	0x3b9b258c	0.0047347005
248	0x3c26986a	0.010168174
249	0x3cd0a730	0.025470346
250	0xbc8cc254	-0.017182507
251	0x3be47f9b	0.0069732196
252	0x3bb93532	0.0056520933
253	0x3a95c8f3	0.0011427685
254	0xbc786349	-0.01516039
255	0x3b48f49e	0.0030663381

action_model._discrete_distribution.branches.0.weight f4 [4, 256]
0	0x3c72a2da	0.014809335
1	0x3d438474	0.04773374
2	0xbc92e6d9	-0.017932342
3	0x3cce8dc6	0.025214087
4	0xbc9982ab	-0.018739065
5	0x3bdbc8c7	0.006707284
6	0xbd115f80	-0.035491467
7	0x3bdd3c34	0.0067515615
8	0x3d0564e8	0.032566935
9	0x3c2d156f	0.010564192
10	0x3b309c69	0.0026948696
11	0xbac7f0a0	-0.0015254207
12	0xbc9ad190	-0.018898755
13	0x3b2a1323	0.0025951348
14	0x3ba8b1e8	0.005148161
15	0xbb63de84	-0.003477008
16	0xbcb07fc7	-0.021545304
17	0x3c3ae0a6	0.011406099
18	0xbc409402	-0.011754038
19	0xbc97f3b1	-0.018548818
20	0xbc206030	-0.009788558
21	0x3c8c8ed6	0.017157953
22	0x3abcbe31	0.0014399943
23	0x3d196021	0.03744519
24	0x3b10f668	0.0022119526
25	0x3d3f0af4	0.046641305
26	0x3bb4ad0b	0.0055137924
27	0x3c74a92a	0.01493291
28	0x3d2cfe5c	0.042234764
29	0x3c63cb4a	0.013903448
30	0xbd3896e4	-0.045065776
31	0x3d84a5af	0.06476914
32	0x3c1e4e8f	0.0096622845
33	0x3badee17	0.0053079235
34	0xbc245109	-0.010029086
35	0xbaab18b6	-0.0013053629
36	0x3c4e0293	0.012573856
37	0x3d5cabce	0.053874783
38	0x3c138610	0.009004131
39	0xbccd20be	-0.025040027
40	0xbc310c0f	-0.010806098
41	0xbcf06fb8	-0.029350147
42	0xbaaf8a88	-0.0013392726
43	0xb7cabf16	-2.4169258e-05
44	0x3d257acc	0.04040031
45	0x3bceb549	0.006308232
46	0x3b9779d0	0.0046226755
47	0xbcf2b748	-0.029628411
48	0x3ceb3a72	0.028714392
49	0xbc76ddc7	-0.015067524
50	0x3d1c7e13	0.03820617
51	0xbc093648	-0.008374758
52	0x3cd545e3	0.026034301
53	0xbd00e66e	-0.031469755
54	0xbbe0399a	-0.006842804
55	0x3c7e5663	0.015523526
56	0x3b877768	0.0041341074
57	0x3bdc80e6	0.006729233
58	0x3b9d4f64	0.004800724
59	0x3cb28926	0.021793913
60	0x3cd0170e	0.025401618
61	0x3d0cf63d	0.03441452
62	0xbc94b588	-0.018152967
63	0x3d437ca4	0.04772629
64	0xbcb4a04d	-0.022049094
65	0x3d1a6d5a	0.037701942
66	0x3cd32624	0.025775023
67	0xbc507b10	-0.012724653
68	0x3bd7e5ff	0.006588697
69	0x3cf2cf3f	0.029639838
70	0x3b502459	0.0031759946
71	0x3c5f45ec	0.0136275105
72	0x3cddcc61	0.027074995
73	0xbc79449e	-0.0152141135
74	0xbcf96947	-0.030445708
75	0x3c8279b7	0.015927179
76	0x3b43606c	0.002981211
77	0x3c809dd9	0.015700268
78	0xbcc98a11	-0.024601968
79	0x3b3f1e6f	0.0029162427
80	0x3c1c8b03	0.009554627
81	0x3d3bf60a	0.045888938
82	0xbba418ac	-0.005007824
83	0x3ce7887c	0.028263323
84	0xbbff9739	-0.0078000096
85	0x3d639a6c	0.05556719
86	0x3c503a23	0.012709173
87	0xbcd1c829	-0.02560814
88	0xbc263033	-0.0101433275
89	0x3c8a1db7	0.016859872
90	0x3cd1db24	0.02561719
91	0xbcd59694	-0.026072778
92	0xbc107ba2	-0.008818539
93	0xbccf1946	-0.025280606
94	0x3d3dc364	0.046328917
95	0x3c6a6f28	0.014308728
96	0xbd83b52a	-0.06431039
97	0x3b1877ea	0.0023264834
98	0xbc55ea50	-0.013056353
99	0x3c0d56f5	0.008626689
100	0xbd0ee5de	-0.034887187
101	0xbc68182f	-0.014165922
102	0xbae11c0c	-0.0017174496
103	0x3b2fa7e2	0.0026802947
104	0xbc092990	-0.008371726
105	0x3b4105ba	0.0029452876
106	0xbbeffc1c	-0.007323755
107	0xbbe66aba	-0.0070317658
108	0xbbe192df	-0.0068839635
109	0xbc7a633f	-0.015282451
110	0xbbcb7cf3	-0.0062099635
111	0xbd02c0bf	-0.0319221
112	0x3ccd0f53	0.025031721
113	0xbca1bd88	-0.019743696
114	0x3c2afc16	0.0104360785
115	0xbc9a7bef	-0.018857924
116	0xbbcc048e	-0.006226129
117	0xbca02e59	-0.01955335
118	0xbd88a802	-0.0667267
119	0x3b7c9f5a	0.003854713
120	0xbd2a345e	-0.041553847
121	0x3c8812fa	0.016610611
122	0x3ce2c7b1	0.02768311
123	0xbab83b45	-0.001405575
124	0xbcb17bc4	-0.021665461
125	0xbc658fcf	-0.014011337
126	0x3c3c8cd4	0.011508185
127	0xb94fc2b7	-0.00019813595
128	0x3ab9f5f5	0.0014187681
129	0x3c56d558	0.013112389
130	0x3a847ad0	0.0010107402
131	0xbd3804f6	-0.044926606
132	0xbc4787dc	-0.0121783875
133	0x3c8aff07	0.01696731
134	0x3c3b32b9	0.011425667
135	0xbb5ec26d	-0.0033990399
136	0xbb4da461	-0.0031378495
137	0xbc6d156c	-0.014470439
138	0x3c8d00b3	0.017212247
139	0xbc87cdbe	-0.016577598
140	0x3c1d877f	0.009614824
141	0x3c849254	0.016183056
142	0x3cd9974b	0.0265614
143	0x3ce4214b	0.027847907
144	0x3b6ed1de	0.0036441009
145	0x3cc7a98e	0.024372842
146	0xbcfa39f9	-0.030545222
147	0x3ca6d417	0.020364804
148	0xbc990f85	-0.018684158
149	0x3d1975d7	0.037465896
150	0xbcb347eb	-0.02188488
151	0x3a847606	0.0010105975
152	0xbc98a6ca	-0.018634219
153	0xbc286f33	-0.010280418
154	0xbb68aaef	-0.0035502275
155	0xbd610362	-0.054934867
156	0x3ccb367a	0.02480625
157	0xbd556dfa	-0.052106835
158	0xbd81447e	-0.06311892
159	0xbc2143ca	-0.009842822
160	0xbcca20a6	-0.024673771
161	0xbb8fd375	-0.0043892213
162	0x3cdcf3d8	0.026971743
163	0xbca649d5	-0.020298878
164	0x3d1a79c5	0.037713785
165	0xbd382a79	-0.04496238
166	0xbbe94a10	-0.0071194246
167	0xbc400fbc	-0.011722501
168	0xbc992a7c	-0.018697016
169	0xbce18529	-0.027529316
170	0xbc2172e8	-0.009854056
171	0x3d1645ca	0.03668765
172	0xbd2471ee	-0.040147714
173	0x3d3e0edf	0.0464009
174	0x3c105dd8	0.008811437
175	0x3c3ad68f	0.011403694
176	0x3c74dc80	0.014945149
177	0x3bb18765	0.0054177516
178	0xbba85646	-0.0051372377
179	0xbc7e238c	-0.015511405
180	0xbc2ef6d7	-0.010678968
181	0x3d28e1ba	0.041230895
182	0xbd6ab2ef	-0.05729955
183	0xbbd1a833	-0.0063982247
184	0xbca498fd	-0.020092482
185	0x3d1f19af	0.038842853
186	0xbd0d6542	-0.034520395
187	0xbba03744	-0.0048894007
188	0x3cb3e240	0.02195847
189	0x3a853a6c	0.0010164506
190	0xbd34df14	-0.044158056
191	0x3af630af	0.0018782819
192	0x3cffe1a7	0.03123553
193	0x3c0d0d73	0.008609164
194	0xbc821217	-0.015877767
195	0x3a744f67	0.0009319693
196	0x3d013293	0.031542372
197	0x3b656317	0.003500169
198	0xbd2b9026	-0.041885518
199	0xbc7d7413	-0.015469569
200	0xbcc8a81c	-0.024494223
201	0xbc8bbe01	-0.017058374
202	0x3bd88dd1	0.0066087027
203	0x3d8ac639	0.06776089
204	0x3be69f9f	0.0070380713
205	0x3d0b86fd	0.03406428
206	0xbc5573ee	-0.013028128
207	0x3a651cec	0.00087399664
208	0x3d3ac8c0	0.045601606
209	0xbccec5a2	-0.025240723
210	0xb909e697	-0.0001315124
211	0xbd47512e	-0.048661403
212	0x3bbdf40a	0.005796914
213	0xbc5233ae	-0.012829704
214	0x3c8f1409	0.017465608
215	0xbbc9f7a1	-0.006163553
216	0xbad82deb	-0.0016493177
217	0xbc902ab2	-0.017598484
218	0x3c64d184	0.013965968
219	0xbcaf0abe	-0.021367427
220	0x3d288089	0.041138206
221	0xbcdf6f49	-0.027274745
222	0xbc001e92	-0.0078197885
223	0xbc3c3f62	-0.011489721
224	0xbca4bbbe	-0.020109054
225	0xbd0ffb28	-0.03515163
226	0xba9ec176	-0.0012112099
227	0xbbbfc3c1	-0.005852193
228	0xbbba9019	-0.0056934473
229	0xbd71f0c1	-0.05906749
230	0x3c89c869	0.016819196
231	0xbc8b82bf	-0.017030118
232	0xbcec2d79	-0.028830277
233	0xbd4db663	-0.050222766
234	0x3d010868	0.031502157
235	0xbd5956eb	-0.053061407
236	0x3cec36f0	0.02883479
237	0xbb82528f	-0.003977127
238	0xbc927049	-0.017875807
239	0xbc0448b9	-0.008073979
240	0x3c4e4d43	0.012591663
241	0xbd40737b	-0.04698513
242	0xbc50decb	-0.0127484305
243	0x3d6435e8	0.05571547
244	0xbc3a512e	-0.011371894
245	0xbc435d0b	-0.011924039
246	0x3c91441c	0.017732672
247	0x3d0732d7	0.03300747
248	0x3cfea6e9	0.031085448
249	0xbccb99e3	-0.024853652
250	0xbc89d545	-0.016825328
251	0xbd166bbb	-0.036723834
252	0xbce354d0	-0.027750403
253	0xbd68b3ea	-0.056812204
254	0xbc01344c	-0.007886004
255	0xbc1c5f75	-0.009544243

action_model._discrete_distribution.branches.0.bias f4 [4]
0	0x3bba78a2	0.00569065
1	0x3bc0ceb2	0.005884015
2	0x3c752e87	0.014964706
3	0xbc46651e	-0.012109069

onnx::Div_62 f4 [202]
0	0x3ea77f3b	0.32714257
1	0x3e750b3d	0.23930068
2	0x3ed0e0d8	0.40796542
3	0x3ea90362	0.33010393
4	0x3ee6d3a6	0.4508335
5	0x3ec0097e	0.37507242
6	0x3ed0e0d8	0.40796542
7	0x3ea95aeb	0.33077177
8	0x3ee6d3a6	0.4508335
9	0x3ec0be60	0.37645245
10	0x3eca8246	0.39552516
11	0x3ea8be11	0.3295751
12	0x3ee5fde8	0.44920278
13	0x3ec14ff9	0.37756327
14	0x3ecbf0ae	0.39832062
15	0x3ea9782b	0.33099493
16	0x3ee8cee7	0.45470354
17	0x3ec2cdca	0.3804763
18	0x3ecc2476	0.39871567
19	0x3ea913a0	0.33022785
20	0x3eef888d	0.46783867
21	0x3ec3f24c	0.38270795
22	0x3ed23f0c	0.41063726
23	0x3eac4c62	0.33652025
24	0x3ef300ac	0.4746145
25	0x3ec7203c	0.3889178
26	0x3ec883b9	0.39162996
27	0x3eaa10cb	0.33215937
28	0x3ef3efd7	0.4764392
29	0x3ec6e3af	0.38845584
30	0x3ecadb81	0.39620593
31	0x3eaa3ce8	0.33249593
32	0x3ef68483	0.48147973
33	0x3ec6a34d	0.38796464
34	0x3ecb84b0	0.3974967
35	0x3eac75e8	0.33683705
36	0x3ef8b7cc	0.48577726
37	0x3ecbede1	0.39829925
38	0x3eccd290	0.40004396
39	0x3eac1382	0.33608633
40	0x3efa3e4a	0.48875648
41	0x3ecbb8d7	0.3978946
42	0x3ec9a9bd	0.39387313
43	0x3ea5c711	0.32378438
44	0x3efc2ad5	0.49251428
45	0x3ec8cd2b	0.3921903
46	0x3ec389a1	0.3819094
47	0x3ea15cf5	0.31516233
48	0x3efa451e	0.48880857
49	0x3ec5d908	0.38642144
50	0x3ec2bc62	0.3803435
51	0x3ea169fa	0.31526166
52	0x3efa0179	0.4882925
53	0x3ec6275b	0.387019
54	0x3ec95757	0.39324448
55	0x3ea5bef9	0.32372263
56	0x3efbecfa	0.49204236
57	0x3ec9a268	0.3938172
58	0x3ecd63c9	0.40115193
59	0x3eae2b7f	0.3401756
60	0x3ef8ac3a	0.48568898
61	0x3ecc2888	0.39874673
62	0x3ecc5c07	0.3991396
63	0x3eae408c	0.3403362
64	0x3ef6f48b	0.48233446
65	0x3eccaa93	0.39973888
66	0x3ec91d7a	0.392803
67	0x3eaa3c53	0.3324915
68	0x3ef5c59c	0.48002326
69	0x3eca3cf2	0.39499623
70	0x3ec74861	0.38922408
71	0x3ea9d227	0.33168146
72	0x3ef4b39c	0.4779328
73	0x3eca1460	0.3946867
74	0x3ecacf5d	0.3961133
75	0x3eab72ef	0.33486125
76	0x3ef55de1	0.47923186
77	0x3ecbe0c7	0.3981993
78	0x3ec6193c	0.38691127
79	0x3ea7fa6c	0.32808244
80	0x3ef1b96d	0.4721178
81	0x3ec9947a	0.3937109
82	0x3ec5e13d	0.38648406
83	0x3ea8521d	0.32875147
84	0x3eee172a	0.46502048
85	0x3ec8ad82	0.39194876
86	0x3ec5797a	0.38569242
87	0x3ea80ca1	0.32822135
88	0x3eef54d9	0.4674442
89	0x3ec85f16	0.39135045
90	0x3eda6d55	0.4266154
91	0x3eaa3519	0.33243635
92	0x3ef4e725	0.478326
93	0x3ec72a32	0.3889938
94	0x3eda6d55	0.4266154
95	0x3eaa16b4	0.33220446
96	0x3ef4e725	0.478326
97	0x3ec66e52	0.38756043
98	0x3ebcb9f2	0.36860615
99	0x3e867fbc	0.2626933
100	0x3eca3d11	0.39499715
101	0x3e87fd5c	0.26560485
102	0x3ee844f6	0.45365113
103	0x3ec182e3	0.3779517
104	0x3ee65506	0.44986743
105	0x3eb18513	0.3467184
106	0x3ee844f6	0.45365113
107	0x3ec216bb	0.37907967
108	0x3ee65506	0.44986743
109	0x3eb1b0af	0.3470511
110	0x3ee24881	0.4419594
111	0x3ec2a47c	0.38016117
112	0x3ece8e75	0.4034306
113	0x3eafb6e5	0.34319225
114	0x3ee2ba06	0.4428255
115	0x3ec3436d	0.3813738
116	0x3ec6cd26	0.3882839
117	0x3ead3a48	0.33833528
118	0x3ee51ec8	0.44750047
119	0x3ec41702	0.38298804
120	0x3ec708be	0.38873857
121	0x3ead32b7	0.33827755
122	0x3ee96a08	0.45588708
123	0x3ec78283	0.3896676
124	0x3ecb385b	0.39691433
125	0x3eaf9fa8	0.34301496
126	0x3ee89c59	0.45431784
127	0x3ec70020	0.38867283
128	0x3ec40131	0.3828216
129	0x3eab341d	0.33438197
130	0x3ee99df0	0.4562831
131	0x3ec7330f	0.38906142
132	0x3ec52fa6	0.38512915
133	0x3eab6aac	0.33479822
134	0x3eee8695	0.46587053
135	0x3ecce3ca	0.4001754
136	0x3ec83caf	0.39108798
137	0x3eaeb642	0.34123427
138	0x3eef52e0	0.46742916
139	0x3ecd02d4	0.4004122
140	0x3ec83451	0.39102414
141	0x3eae84a8	0.34085584
142	0x3eef8e86	0.46788424
143	0x3ec986e3	0.39360723
144	0x3ec59376	0.38589066
145	0x3eaa58c1	0.3327084
146	0x3eed5c32	0.46359402
147	0x3ec783c9	0.38967732
148	0x3ec15725	0.37761799
149	0x3ea707ea	0.32623225
150	0x3eed717c	0.46375644
151	0x3ec7a662	0.38994128
152	0x3ec24bfa	0.3794859
153	0x3ea6f8d4	0.32611716
154	0x3ef261d8	0.47340274
155	0x3ecb94f3	0.39762077
156	0x3eca07f3	0.3945919
157	0x3eab5625	0.3346416
158	0x3ef30b1d	0.47469416
159	0x3ecf2913	0.40461025
160	0x3ed0926f	0.4073672
161	0x3eb2fc7d	0.34958258
162	0x3ef2a8e3	0.47394475
163	0x3ecf7e90	0.40526247
164	0x3ed0c2f7	0.40773746
165	0x3eb34efa	0.35021192
166	0x3ef25716	0.47332066
167	0x3ecd44d1	0.40091565
168	0x3ecebc98	0.4037826
169	0x3eaf44e8	0.3423226
170	0x3ef1754d	0.47159806
171	0x3ecd5123	0.40100965
172	0x3eccc2d2	0.39992386
173	0x3eaf29ab	0.34211478
174	0x3ef47103	0.4774247
175	0x3ecd8242	0.4013844
176	0x3eccee1e	0.4002542
177	0x3eb04e21	0.34434608
178	0x3ef2a1df	0.47389123
179	0x3ecb6af2	0.3973003
180	0x3ec9574b	0.39324412
181	0x3eae1d57	0.3400676
182	0x3ef0955d	0.46988955
183	0x3ecab7cb	0.39593348
184	0x3ec840de	0.3911199
185	0x3eadd1d1	0.3394914
186	0x3eef0aae	0.46687835
187	0x3ec9fff5	0.39453092
188	0x3ec73fef	0.38915965
189	0x3ead3a55	0.33833566
190	0x3eee67cb	0.46563563
191	0x3ec9a73f	0.3938541
192	0x3ed20843	0.41021928
193	0x3eae27a2	0.34014612
194	0x3eee67cb	0.46563563
195	0x3ec8d446	0.39224452
196	0x3ed20843	0.41021928
197	0x3eadd411	0.33950856
198	0x3ea87d09	0.32907894
199	0x3e83b529	0.25724152
200	0x3ea87d09	0.32907894
201	0x3e83b529	0.25724152

onnx::Div_65 f4 [10]
0	0x41b41e8a	22.514912
1	0x4128935d	10.535977
2	0x3bcf779b	0.0063313968
3	0x3bcf779b	0.0063313968
4	0x3bcf779b	0.0063313968
5	0x3bcf779b	0.0063313968
6	0x3bcf779b	0.0063313968
7	0x3bcf779b	0.0063313968
8	0x3bcf779b	0.0063313968
9	0x3bcf779b	0.0063313968
