results/DemoTest6/PlayerBehaviour.onnx (onnx, 490727 bytes, 10 tensors)

network_body.observation_encoder.processors.0.normalizer.running_mean f4 [202]
000000 98 fd 41 3f 49 53 59 3f 33 ba 3e 3f 60 b2 4c 3f
       0.7577758 0.8489271 0.7450287 0.7995968
000010 86 ab 3e 3f 84 c5 4a 3f 33 ba 3e 3f a1 b7 4c 3f
       0.74480474 0.79207635 0.7450287 0.79967695
000020 86 ab 3e 3f 8b cd 4a 3f 60 c8 46 3f 81 27 50 3f
       0.74480474 0.79219884 0.776495 0.8131028
000030 63 fd 47 3f 84 f8 4e 3f 2b d1 47 3f 9f 9a 50 3f
       0.7812101 0.80847955 0.7805354 0.81485933
000040 84 23 49 3f a2 98 4f 3f a6 b9 48 3f 43 7d 51 3f
       0.7856982 0.81092274 0.7840828 0.8183176
000050 3f 61 4a 3f 97 ca 50 3f a6 bf 45 3f 4d f1 4f 3f
       0.79054636 0.8155913 0.7724556 0.8122757
000060 e9 11 48 3f 61 dd 4f 3f f2 d6 49 3f e3 06 52 3f
       0.7815233 0.8119717 0.78843606 0.8204176
000070 9b b3 4b 3f d2 d0 51 3f d7 dc 48 3f ff a4 51 3f
       0.7957093 0.8195926 0.78461975 0.8189239
000080 37 cb 4a 3f 9c 88 51 3f d8 75 4a 3f 78 22 52 3f
       0.7921633 0.81849074 0.79086065 0.82083845
000090 03 38 4c 3f 93 f1 51 3f 76 ee 4a 3f f7 bd 52 3f
       0.7977297 0.8200924 0.7927011 0.82321113
0000a0 15 03 4c 3f e0 24 52 3f c8 c7 51 3f b6 2a 5c 3f
       0.796922 0.82087517 0.81945467 0.8600267
0000b0 4a aa 54 3f 22 ea 5b 3f e1 5d 52 3f e7 a5 5c 3f
       0.8307234 0.85904133 0.821745 0.86190647
0000c0 1d ad 54 3f 9e 00 5c 3f 85 08 52 3f d8 9a 5c 3f
       0.8307665 0.8593844 0.8204425 0.8617377
0000d0 d9 bb 54 3f c6 07 5c 3f 48 46 52 3f 56 87 5c 3f
       0.8309913 0.8594936 0.8213849 0.86144006
0000e0 36 df 54 3f 66 f5 5b 3f 13 38 4a 3f d2 bc 51 3f
       0.8315309 0.85921323 0.7899181 0.8192874
0000f0 2d 90 4d 3f f8 2a 53 3f 41 96 4a 3f a1 a3 51 3f
       0.8029812 0.8248744 0.7913552 0.818903
000100 90 df 4d 3f 6a 10 53 3f 38 c8 49 3f 5d b9 51 3f
       0.80419254 0.8244692 0.78821135 0.81923467
000110 68 4f 4d 3f 1e 32 53 3f 68 bf 4a 3f 94 fb 51 3f
       0.8019929 0.8249835 0.7919831 0.820245
000120 37 23 4e 3f 73 6d 53 3f 91 8d 47 3f 56 96 50 3f
       0.80522484 0.8258888 0.7795039 0.81479394
000130 35 2f 4b 3f ec d0 51 3f 97 84 49 3f d2 88 51 3f
       0.7936891 0.81959414 0.7871794 0.81849396
000140 44 20 4d 3f 3d a9 52 3f 8b 20 48 3f 4e 4a 50 3f
       0.8012736 0.8228949 0.78174657 0.8136338
000150 91 20 4b 3f 76 f8 50 3f f6 40 48 3f ed 6f 50 3f
       0.7934657 0.8162912 0.7822412 0.81420785
000160 2f 32 4a 3f 95 6b 50 3f c9 76 3b 3f 91 c4 4a 3f
       0.78982824 0.8141416 0.73228127 0.79206187
000170 2e 1e 40 3f e0 da 4b 3f c9 76 3b 3f 3d af 4a 3f
       0.7504605 0.7963085 0.73228127 0.7917364
000180 2e 1e 40 3f 60 c8 4b 3f a4 dd 3c 3f 8f 2f 53 3f
       0.7504605 0.79602623 0.73775697 0.82494444
000190 fd 84 41 3f 1e 42 51 3f 34 f2 3b 3f c9 e1 47 3f
       0.7559355 0.8174151 0.7341645 0.78078896
0001a0 be 99 3f 3f 6c ed 49 3f 34 f2 3b 3f e6 f7 47 3f
       0.74843967 0.788779 0.7341645 0.7811264
0001b0 be 99 3f 3f 00 01 4a 3f 59 2c 48 3f 50 78 4d 3f
       0.74843967 0.78907776 0.7819267 0.8026171
0001c0 fd dc 46 3f e3 4b 4d 3f 7d 5b 48 3f 66 94 4d 3f
       0.7768095 0.8019392 0.782646 0.80304563
0001d0 d4 b0 47 3f 2f bc 4d 3f df dc 49 3f 43 07 4f 3f
       0.78004193 0.8036527 0.7885265 0.80870456
0001e0 89 87 49 3f d2 5a 4f 3f be 4f 48 3f 87 85 4e 3f
       0.78722435 0.80997956 0.78246677 0.80672497
0001f0 66 f7 47 3f 4c ad 4e 3f d6 3d 4c 3f 5d 5e 50 3f
       0.78111875 0.8073318 0.79781854 0.81393987
000200 1e 93 4c 3f 6a 05 51 3f d5 75 4b 3f 4f 2e 50 3f
       0.79911983 0.81648886 0.7947667 0.8132066
000210 cf 0b 4c 3f 0a de 50 3f b4 11 4c 3f 44 4c 50 3f
       0.7970552 0.81588805 0.7971451 0.8136637
000220 c7 3d 4d 3f fb 61 51 3f 16 ce 4b 3f 00 73 50 3f
       0.8017239 0.8179013 0.7961134 0.81425476
000230 66 b6 4d 3f 38 e9 51 3f b3 92 54 3f f5 a0 5b 3f
       0.8035644 0.8199649 0.83036345 0.85792476
000240 c5 c1 54 3f da 9c 5a 3f 67 d6 53 3f 6e 39 5b 3f
       0.8310817 0.85395586 0.82749027 0.85634506
000250 0a b3 54 3f e1 ac 5a 3f 1a e2 53 3f a1 31 5b 3f
       0.8308569 0.8542004 0.8276688 0.856226
000260 3a 78 54 3f 6d a3 5a 3f 84 cd 53 3f 17 43 5b 3f
       0.8299595 0.8540562 0.82735467 0.85649246
000270 2c dc 54 3f 3d d4 5a 3f 07 96 4d 3f fd 49 52 3f
       0.83148456 0.854801 0.8030705 0.8214415
000280 f7 66 4d 3f 95 f1 51 3f 2c c2 4d 3f e9 10 52 3f
       0.80235237 0.8200925 0.8037441 0.8205705
000290 15 2f 4e 3f 81 fb 51 3f ad 46 4c 3f f9 98 51 3f
       0.8054059 0.8202439 0.7979534 0.8187404
0002a0 85 eb 4c 3f 17 9c 51 3f ee 66 4d 3f a4 fa 51 3f
       0.80046874 0.818788 0.80235183 0.8202307
0002b0 33 bf 4d 3f 9e d4 51 3f 73 8d 4a 3f be 9d 50 3f
       0.8036987 0.81965053 0.79122084 0.81490695
0002c0 0c 32 4c 3f 08 0b 51 3f 2e 5e 4c 3f e0 48 51 3f
       0.79763865 0.8165746 0.79831207 0.81751823
0002d0 9a 78 4e 3f 67 f4 51 3f 0e 00 4c 3f e5 97 50 3f
       0.80652773 0.82013553 0.79687583 0.8148177
0002e0 f7 31 4e 3f 4d 58 51 3f 88 20 4b 3f 47 15 50 3f
       0.8054499 0.8177536 0.79346514 0.81282467
0002f0 fb 31 4d 3f 43 b8 50 3f 35 7c 41 3f 2d be 4b 3f
       0.8015439 0.8153116 0.7558015 0.7958706
000300 ac cb 41 3f b3 96 4b 3f 35 7c 41 3f 67 a1 4b 3f
       0.75701404 0.79526824 0.7558015 0.79543155
000310 ac cb 41 3f eb 7a 4b 3f 9a 2f 44 3f 41 94 4f 3f
       0.75701404 0.7948443 0.76635134 0.8108559
000320 9a 2f 44 3f 41 94 4f 3f
       0.76635134 0.8108559

network_body.observation_encoder.processors.1.normalizer.running_mean f4 [10]
000000 00 00 00 00 00 00 00 00 00 00 00 00 00 00 00 00
       0.0 0.0 0.0 0.0
000010 00 00 00 00 00 00 00 00 00 00 00 00 00 00 00 00
       0.0 0.0 0.0 0.0
000020 00 00 00 00 00 00 00 00
       0.0 0.0

network_body._body_endoder.seq_layers.0.weight f4 [256, 212]
000000 0d 1f 34 bd f7 d4 b8 3c 04 49 0e bd 2f 71 64 3d
       -0.043974925 0.022562487 -0.034737602 0.055772003
000010 64 bf ef bc 71 7b 25 3d 40 2e c7 3d 75 fc 3e 3d
       -0.029266067 0.040400926 0.09725618 0.04662748
000020 3f 3e e8 bd 42 c2 f7 ba 3d a9 94 bd 6d 3f 4c 3d
       -0.113399975 -0.0018902498 -0.07258842 0.049865175
000030 fe dd 9c bd 35 23 03 bd cf c2 b3 bd 9c ae e1 bc
       -0.07659529 -0.032015998 -0.08777391 -0.02754908
000040 1a 9d 2b bc e2 71 38 bd 63 69 1a 3d a3 96 99 3d
       -0.010474468 -0.045030482 0.03769816 0.07499435
000050 e6 c5 24 bd 56 49 2c bd 1a 7f 3d 3e 50 01 b5 bd
       -0.040227793 -0.042062126 0.18505517 -0.08838141
000060 ff b6 a2 bd 3f 73 a1 3c 01 a5 4b bd 19 ef b5 3c
       -0.0794506 0.019708274 -0.049717907 0.022208737
000070 a7 71 88 bd 0a af 0f bd 71 54 25 bd 05 2f 30 3d
       -0.066623025 -0.03507904 -0.040363733 0.04301359
000080 7b 13 14 be 94 ad 52 bd 1e 17 81 3d 9f 77 06 bd
       -0.14460556 -0.05143507 0.063032374 -0.032828923
000090 e5 67 8b 3d 2b 42 d5 3d 0f 1a 57 3d bc c6 81 bd
       0.06806926 0.10413011 0.052515086 -0.06336734
0000a0 5d 84 71 be 74 2b a4 bd 5f b0 0b 3d a9 be a6 bd
       -0.23585649 -0.080161005 0.034103747 -0.08141834
0000b0 8a 8d dd bd ac de d5 3b 22 5c a4 bd 54 e4 91 3c
       -0.10818012 0.0065267887 -0.080253854 0.01780907
0000c0 5b f2 89 bd 10 15 df bc 9b ef a5 3c 12 61 3b bc
       -0.06735679 -0.027231723 0.020255854 -0.011436718
0000d0 4e ae 7e be 87 4b 84 3d 2e d7 26 3d c6 0c 8f 3d
       -0.2487118 0.06459718 0.040732555 0.06984858
0000e0 a3 8b ee 3c 25 c5 bf bd 96 56 92 3b 0a 87 3e bd
       0.029119318 -0.09363774 0.0044658883 -0.046515502
0000f0 57 ab dd bd 3e 13 f4 bd 61 43 26 bd 6f 54 89 3d
       -0.10823696 -0.11917733 -0.0405916 0.067055576
000100 c8 85 b6 3d ee 93 50 3e 80 0b 32 3d 6b 70 9f 3d
       0.089122355 0.2036893 0.043468 0.07785114
000110 f7 85 16 3d 66 b3 16 be cd aa 07 bd da 0e 77 bd
       0.036748853 -0.14716873 -0.033121873 -0.060316898
000120 0a 86 9d bd bf 40 57 bd 26 8e af bd f7 43 90 3b
       -0.076915815 -0.05255198 -0.085720345 0.0044026333
000130 9c b5 eb bc e0 a0 41 bd b4 0a 77 3d d2 2c 3f be
       -0.028773122 -0.047272563 0.06031294 -0.18669441
000140 6a 43 8f 3d 82 60 e7 3b 53 77 93 bd 14 8f c8 bb
       0.0699528 0.007061065 -0.07200494 -0.006120572
000150 33 eb 51 3d 39 ea 1e bc ff 48 5c 3d e9 12 53 3d
       0.051249694 -0.009699398 0.053780552 0.051531706
000160 49 2a 9c 3d a0 93 60 3c 5b 1c e7 bc a1 db 4c bd
       0.07625253 0.013707072 -0.028211763 -0.050014142
000170 7f 75 29 3d bc 65 55 3d e7 0f 6f bc cb 05 88 3d
       0.04137182 0.052098975 -0.014591194 0.0664173
000180 73 b1 19 be a3 4d 5d 3d 22 0d cc 3d 52 35 2e bd
       -0.15009098 0.05402912 0.099634424 -0.04253132
000190 41 28 dc bd 99 db ea bc 5c 82 d2 bc 66 b3 09 3e
       -0.10749865 -0.028669165 -0.025696926 0.13447341
0001a0 10 5f 4e 3c 6e 2c 91 3d 81 0f df 3c 20 d0 8c 3d
       0.012595907 0.070885524 0.027229073 0.06875634
0001b0 38 16 ec bc 25 25 34 3c 26 02 49 bd 05 71 50 3d
       -0.028819188 0.010995184 -0.049074315 0.050889034
0001c0 d2 c2 27 bc 95 57 f1 ba 83 15 b6 3d d8 61 12 3d
       -0.01023932 -0.0018412942 0.08890822 0.035737842
0001d0 44 1a c0 bd 89 3a f3 3d ba e6 82 bb e1 79 05 3e
       -0.0938001 0.11876399 -0.00399479 0.13034774
0001e0 52 ba 69 bb 76 73 6c ba 72 f3 45 3c e5 b5 25 bb
       -0.0035664034 -0.00090198906 0.012081968 -0.002528542
0001f0 91 e4 20 3e b8 62 ac 3c eb 05 4d 3d 04 da 04 3d
       0.15712191 0.021043167 0.050054472 0.03243448
000200 f2 a9 61 3b 77 2b 26 3d 0e 8f 85 bc d0 e3 29 3d
       0.003443357 0.040568795 -0.016303565 0.041477025
000210 fa 76 f0 3d 64 2f 10 bc 83 c7 97 3d 57 e4 7d 3d
       0.11741443 -0.008800361 0.07411101 0.06198534
000220 c1 15 a7 3d 69 58 f3 bd d6 94 ce 3d 52 21 c8 3c
       0.08158446 -0.11882097 0.10086982 0.02442995
000230 31 9a 4b 3d f1 c7 77 bd c2 04 7c 3d be ff 14 bd
       0.049707595 -0.060493413 0.061527975 -0.036376707
000240 0e dd 8e 3d ac 09 02 bd 8a 18 a1 3d 0c 63 8a bd
       0.069757566 -0.031747505 0.078660086 -0.06757173
000250 23 c4 a9 bd f3 f5 ad 3d a7 42 3b bc 45 8d 0f 3d
       -0.08289363 0.08494177 -0.011429465 0.035046834
000260 72 c9 83 3d 23 0a 99 bb 9e 46 91 3c 0f 40 1a 3d
       0.06434907 -0.004670398 0.017733868 0.037658747
000270 ea 17 a9 bd b3 2e c1 3d 8c b9 9b 3d c2 98 e4 bc
       -0.08256514 0.09432735 0.0760375 -0.027904872
000280 6d 2f fe bc 6e 19 0c bc 0e a1 a7 3c c1 b4 b4 3d
       -0.031028474 -0.008550985 0.020462539 0.088235386
000290 70 f9 05 bd 33 ff 70 3d 28 02 76 bd f4 3c 4f 3b
       -0.032708585 0.058837127 -0.06006065 0.0031622024
0002a0 92 5c c1 bd 39 56 9c 3d 7e df 3b 3d 1f f9 9f 3d
       -0.094414845 0.07633633 0.045867436 0.07811188
0002b0 60 91 16 bc 82 c1 6e 3c 45 b2 53 3d 4b 85 67 bb
       -0.009189934 0.014572503 0.051683683 -0.0035327252
0002c0 28 9b f2 3c b2 4b fe 3c a7 62 45 bd ab 9d 7b 3d
       0.029615 0.031041954 -0.048189785 0.06142966
0002d0 72 ac 8b 3d db 02 65 bc 6a c1 3b 3d ee 78 83 3d
       0.06820001 -0.013977732 0.04583875 0.0641955
0002e0 4f 75 c1 3b 73 8d b8 3d 28 d3 31 bb 1b 59 b5 3c
       0.005903877 0.09011354 -0.0027133916 0.022137215
0002f0 d0 3c b2 3d 6a bf c7 3d 25 9e a8 bd b6 0a 4c 3d
       0.08703005 0.09753306 -0.08233289 0.049814902
000300 0a d4 77 3d 96 99 be 3a 5d d9 d8 3d 7a c8 82 bd
       0.06050495 0.0014541622 0.10588334 -0.06385894
000310 c7 a2 b4 3d 8d 4f 02 3d cd cf 29 3e f6 59 57 3d
       0.0882011 0.031814147 0.16583176 0.052576028
000320 1e 2d fc bc f2 ab 85 3d 05 ad 6f 3d 3f c3 a0 bd
       -0.030783232 0.065269366 0.058514614 -0.0784974
000330 e3 9b 55 3d 79 02 be 3c 44 29 c7 3d bf c2 19 bc
       0.05215062 0.023194538 0.09724668 -0.00938481
000340 2c 97 3a bd a3 ed 93 bd c0 2d 4a 3e 27 51 9e bd
       -0.045554325 -0.0722306 0.19744015 -0.07730322
000350 21 2e 30 bb 39 65 d5 3c 95 98 68 3d 73 04 94 bc
       -0.0026882964 0.026049243 0.05678614 -0.018068528
000360 4b fb 38 bd 89 1d ad 3d 7d cc 16 3d f1 7c d5 3d
       -0.045161527 0.08452899 0.03681611 0.10424221
000370 99 35 9d bd e6 5d 59 bd 82 ca 7f bd e8 2f 98 bd
       -0.076762386 -0.053068064 -0.062448986 -0.074310124
000380 87 98 3e 3d d9 a9 f6 3d da de 8c 3a fc 50 38 3a
       0.04653218 0.120441146 0.0010747567 0.00070311106
000390 03 be 04 3e 8e 89 53 3c 9f 78 fb bc 7f 0d dc 3d
       0.12963109 0.012911214 -0.030697165 0.10744762
0003a0 80 29 91 3c 3f 01 8f 3d a4 24 69 3c 21 70 a5 bd
       0.017719984 0.069826595 0.014229927 -0.080780275
0003b0 c2 0d 87 bb 0f a3 7a bc 29 af c7 bd 33 c2 77 3b
       -0.004121513 -0.015297665 -0.09750206 0.003780496
0003c0 a3 46 09 3e c9 98 af 3d ce 75 47 3d 15 f6 7e 3d
       0.13405852 0.08574063 0.04869633 0.0622464
0003d0 13 a5 45 3d 85 71 1e bd 18 82 00 3b 2c db bf 3d
       0.04825313 -0.03868248 0.0019608792 0.093679756
0003e0 ba 1f a7 3d 01 37 e8 3c 54 8b 1d 3d 08 20 ff bc
       0.08160348 0.02834654 0.03846295 -0.031143203
0003f0 6b d0 ec 3c 00 77 34 3d 74 1c 3e bd e3 37 f6 bd
       0.028907975 0.0440588 -0.046413854 -0.12022378

network_body._body_endoder.seq_layers.0.bias f4 [256]
000000 17 0a 5f 3b ce d3 4a 3c 16 f8 8b 3c 57 69 51 3c
       0.0034033114 0.0123796 0.01708607 0.012781463
000010 ca ca b8 3c 8c ee b5 ba e5 96 da 3b 19 87 bb 3b
       0.022557635 -0.0013880297 0.00667082 0.005722892
000020 2f a1 37 3c 0f f3 77 3c 50 f5 d0 3b 1b 1e 9f 3b
       0.011207863 0.015133633 0.0063769 0.004855884
000030 a5 79 58 3c 07 b0 8d 3c 50 ef 57 3b ad 32 9a 3c
       0.013212596 0.01729585 0.0032949038 0.018822992
000040 9d 63 2c 3c 7f da 35 3c d2 25 a4 3c 85 8a 8a 3c
       0.0105217965 0.011099457 0.020037565 0.016911754
000050 30 3e 94 3c 3b 94 37 3b b8 51 0d 3a 5f 37 46 3c
       0.01809606 0.0028011936 0.00053909 0.012098162
000060 2d ad 63 3c bd ba 80 3c fc bf da 3a 7e 2f 69 3c
       0.013896269 0.015714044 0.0016689296 0.014232514
000070 6f 7c 90 3b 35 26 ad 3c b3 2a 62 3c 2e e3 7b 3c
       0.004409365 0.021136383 0.013804126 0.015373988
000080 bd 26 b6 3c 7e 41 4e 3c fd 33 ca 3c 0b 27 92 3c
       0.022235269 0.012588857 0.024682993 0.017840883
000090 14 98 20 3c c7 5b 30 3c 6f f1 73 3c fd fa 2c 3c
       0.009801883 0.010764069 0.014889105 0.010557887
0000a0 00 9f c2 3b 77 7b dd 3b 0e 50 1a 3c 8d 74 22 3c
       0.0059393644 0.006759103 0.009418501 0.009915483
0000b0 f1 5b f3 3a d2 29 7f 3c 64 b4 46 3b f8 d0 3f 3c
       0.0018566829 0.015573936 0.0030319924 0.011707537
0000c0 a4 7e 80 3c d4 a4 d8 3b 04 96 9e 3b c4 a0 23 3c
       0.015685387 0.006611446 0.0048396606 0.00998706
0000d0 89 bf 84 3c 32 6b 56 bc f2 49 50 3c 31 cc c8 3b
       0.016204612 -0.013087081 0.012712942 0.006127857
0000e0 d7 9c ae 3b cb 1f 6b 3c 86 9e 3f bc 44 a2 4a 3c
       0.0053287554 0.014350842 -0.01169551 0.012367789
0000f0 86 77 8a 3c fc 30 ca 3c 03 cc a9 3c a0 38 5a 3c
       0.016902696 0.02468156 0.020727163 0.0133191645
000100 16 ba 5d 3c af 30 8e 3c 70 2a 93 36 f4 88 3f bc
       0.013533136 0.017357199 4.3858818e-06 -0.011690367
000110 e6 c7 10 bb 65 a6 24 3c d6 34 00 bd 68 e8 63 3b
       -0.0022091805 0.010049437 -0.03130039 0.0034775976
000120 cf cc 9a 3b 89 8a 22 bb 25 bc 0c 3b 2e 42 0f 3c
       0.004724122 -0.0024801812 0.0021474448 0.008743806
000130 6e c0 9b 3b d7 1b 33 3c d2 2a 3d 3c d3 40 a3 3c
       0.004753164 0.0109319305 0.011545854 0.019928372
000140 ed 3c ce bb 31 e3 ce bc 03 9c ea 3c 93 45 10 3d
       -0.006293884 -0.025254818 0.028638845 0.0352226
000150 74 51 80 3c 33 25 c6 3c b6 b0 23 3c 8a 59 ad 3c
       0.01566384 0.02418766 0.009990862 0.02116086
000160 15 69 05 bd 46 6c 25 3c 1e cd d1 3b 1f 9a 3e 3c
       -0.032570917 0.010096615 0.0064026257 0.011633425
000170 74 a5 00 39 b6 ee 05 3c b8 fd 2b 3c 67 5f 09 bc
       0.00012268667 0.008174589 0.010497503 -0.008384562
000180 d5 41 83 3c e2 e8 a0 3c e8 d7 13 3c 38 b3 fd 3b
       0.016022602 0.019642297 0.009023644 0.007742312
000190 2e f8 36 bc 8e 78 65 3b a3 6d 93 bb 06 f5 e1 3a
       -0.011167569 0.0035014483 -0.0044991537 0.001723916
0001a0 29 e5 5f 3c 5f 9d 8a 3c 8b 2b e1 3c 66 3f 15 3c
       0.013665476 0.016920744 0.027486583 0.009109354
0001b0 0d 19 c7 3c 0f 78 b9 3c cb 3a f4 ba 45 a7 93 bc
       0.024303937 0.022640256 -0.0018633244 -0.018024096
0001c0 55 81 cd 3c a3 2e ca 3c a6 25 0d 3c 23 a3 95 3c
       0.025086084 0.024680441 0.008614933 0.018266266
0001d0 50 93 0d 3b 62 b0 a8 3c 29 39 1e 3a e4 58 5d 3c
       0.0021602698 0.020591918 0.0006035739 0.013509963
0001e0 81 0e 6c 3c c4 94 b2 3c d0 00 0c 3c d8 e1 aa 3c
       0.014407755 0.021799453 0.008545116 0.020859644
0001f0 17 cc 6a 3c b4 0b 23 3c f1 a6 f7 3b 7a 2d 74 3c
       0.014330885 0.009951521 0.0075577428 0.014903421
000200 9d fd 35 3c 82 3d 2d 3c 05 92 8d ba f4 e1 fb 3b
       0.011107829 0.010573747 -0.0010800964 0.007686848
000210 2e 62 aa 3b 76 58 96 3c 11 a6 84 3c d7 3f 72 3c
       0.005199692 0.018352728 0.016192468 0.014785728
000220 74 5b f7 3b f0 a9 f7 3c 75 a6 80 3c 52 93 11 bb
       0.007548744 0.0302324 0.015704373 -0.0022213054
000230 1e bf 0b 3c 15 d8 9d 3c be d3 1d 3c 47 bc ca bc
       0.008529453 0.019268075 0.009633003 -0.02474798
000240 9b ae 2c 3b fe 7e 14 3c 77 2f 05 3c e2 1a 4f 3c
       0.002634919 0.00906348 0.008128992 0.012640687
000250 c6 45 b9 3c 0f 55 6e 3c f5 cc a9 3c b9 fe f8 bc
       0.022616278 0.014546647 0.020727614 -0.030394899
000260 a0 21 f6 ba 24 12 9c 3c b7 bb 32 3c dc eb 5d 3c
       -0.0018778332 0.019051619 0.0109090125 0.013545003
000270 4b 5a aa 3b 89 60 5e 3c 7c 84 0d 3c 3f 2e 75 3b
       0.005198752 0.01357282 0.008637544 0.0037411598
000280 07 65 dc 3c 75 1c ab 3c 6c d7 89 3c 50 c7 73 3c
       0.026903642 0.020887593 0.016826354 0.014879063
000290 02 8c 66 3c 66 61 28 ba 8e b4 2b 3c e8 8d 1d 3c
       0.014071466 -0.0006423205 0.010480059 0.009616353
0002a0 b6 13 1a 3c 00 95 45 3c bc 7b 39 3c da af 10 3c
       0.0094041135 0.01205945 0.0113210045 0.008830989
0002b0 bf 38 02 3c 4c fe e0 3c a2 82 c1 3b f7 21 b8 3c
       0.0079481 0.027465008 0.005905465 0.022477133
0002c0 cc 6d 86 3c 4e 27 62 3c 3a c5 a7 3c b7 61 1a 3c
       0.016409777 0.013803316 0.020479787 0.009422711
0002d0 d5 fe 88 3b 94 b4 23 3c 8e 6d d5 3a ef 90 06 3c
       0.004180769 0.009991784 0.001628326 0.008213266
0002e0 65 6a 35 bc 99 c0 e8 3b e7 c3 0d 3c 18 34 39 3c
       -0.01107273 0.0071030376 0.008652664 0.011303924
0002f0 35 89 56 3c 67 46 37 3c 4a eb 81 3b 88 51 c1 3b
       0.013094236 0.011186219 0.003964816 0.005899612
000300 e4 8d 89 3b 65 49 b2 3b eb 88 8c 3c a7 7a 17 b9
       0.004197823 0.005440878 0.017155131 -0.00014446174
000310 12 e7 7b 3c 8c 90 5c 3c b1 59 b1 3c 9b 4d b0 3a
       0.015374916 0.013462197 0.021649214 0.0013450863
000320 74 05 ef 3b 45 7e d2 3b 5e b2 83 3c cc fc 89 3c
       0.0072943512 0.006423744 0.016076263 0.016844176
000330 16 2b 85 3c 81 b6 3f bc 6f e8 03 bd 67 5f bb bb
       0.016255897 -0.011701227 -0.032204088 -0.00571816
000340 0e 73 af 3c 6f 43 27 3c f5 21 6d 3c 3a de 30 3c
       0.021417167 0.0102089485 0.014473428 0.01079517
000350 f8 19 b1 3c 57 70 14 3c 60 1f 36 3c 36 ec 81 3c
       0.021618828 0.009059987 0.011115879 0.015859704
000360 c5 28 96 3c 9e fc d5 3c 75 01 f1 3c 47 ba c9 3a
       0.018329987 0.026121434 0.02941964 0.0015390598
000370 30 94 b0 3b 3c 7e 7d 3c 07 bc 41 3c a8 9c 94 3c
       0.005388759 0.015471991 0.011824614 0.018141106
000380 ba 1a e9 3c 9f 13 89 bb 4c eb 04 3c f2 ba a6 38
       0.028455127 -0.004183247 0.00811274 7.950318e-05
000390 72 72 10 bc df 55 2e bc 8e 82 92 3b 39 5a 66 3c
       -0.008816348 -0.01064059 0.0044711297 0.014059597
0003a0 84 1f dd 39 77 56 6b bc 8d 49 94 3c 16 4d 3a bc
       0.00042175886 -0.014363877 0.018101478 -0.011370918
0003b0 68 ca ae 3b 63 87 b3 3c 7f 92 8b 3c 3d ac 9c bc
       0.0053341873 0.021915143 0.017037628 -0.019125098
0003c0 4f 90 64 3c fd 2c 96 3c e5 49 70 3c 85 66 47 bc
       0.0139504215 0.018331999 0.014666055 -0.012170439
0003d0 19 52 ef bb df 72 47 3c eb 6d 37 3c be 19 87 3c
       -0.007303488 0.0121733835 0.01119564 0.016491767
0003e0 a7 51 0c 3c a4 65 e3 3b fc ca de 3b 41 e1 df 3c
       0.008564389 0.0069396067 0.0067991 0.02732909
0003f0 b0 1d 15 3c 16 d0 4b 3c f1 97 2b 3b 21 eb 72 3c
       0.009101316 0.012439748 0.0026183093 0.014826567

network_body._body_endoder.seq_layers.2.weight f4 [256, 256]
000000 0a 9d b5 bc 44 81 d3 3c 38 24 08 3d bc d9 b7 bd
       -0.022169609 0.025818475 0.033237666 -0.089770764
000010 72 92 01 bc 22 86 eb bd 2d ad 10 3e b3 4c ca 3d
       -0.00790845 -0.11500193 0.14128561 0.098779105
000020 40 79 8d 3c 78 1b 84 3c 6e 96 4c bd de 85 2e bd
       0.01726973 0.01612638 -0.04994815 -0.042608134
000030 e7 f4 85 bd 8b ae 5c bb c7 aa a9 3b b1 d1 a9 bd
       -0.06540852 -0.0033673372 0.005177829 -0.082919486
000040 48 a2 3f 3c 96 13 e6 bc 93 c1 8f 3d 59 3d 5f bd
       0.011696406 -0.028085511 0.07019343 -0.054501865
000050 05 b5 8c 3d 50 c2 50 3d e2 65 d5 3d e6 b8 a8 bd
       0.06870464 0.05096656 0.10419823 -0.082383916
000060 6d cb b7 bc b3 4f 08 3c 8b 3c 1c be cd 3e fa 3d
       -0.022435868 0.008319783 -0.1525747 0.122190095
000070 0d f6 c2 bd 20 54 f1 3c e5 b1 2f be 8d 8d ea 3c
       -0.09519587 0.02945906 -0.17157705 0.02863195
000080 39 f1 93 3d 40 44 97 3c a1 73 01 3e e1 71 b9 3c
       0.07223744 0.018465161 0.12641765 0.02263731
000090 c5 62 c5 bc a8 ac 44 3d d3 f3 e1 3d 64 ef 8e bd
       -0.024094949 0.04801622 0.11032834 -0.06979254
0000a0 11 e0 37 3d 30 b3 bd 3c 3c 9d dc 3d 8f 80 23 3d
       0.04489142 0.023156732 0.107721776 0.039917525
0000b0 d2 3d 80 3d 14 4a 51 3d 15 5a da bc 59 d2 52 3b
       0.06261791 0.051096037 -0.026654283 0.0032168834
0000c0 ff b5 48 bd 0a a6 e0 bc 73 92 64 3d 17 25 37 3d
       -0.04900169 -0.027422924 0.055803727 0.044713106
0000d0 c8 84 e7 3d d4 35 e8 bd 2e 34 f6 3c 6d 54 8a bc
       0.11304623 -0.11338392 0.030054178 -0.01688596
0000e0 93 01 71 bd dc fb b4 3d 46 3d 3a bd 7f 45 c7 bd
       -0.058839392 0.08837101 -0.04546859 -0.09730052
0000f0 f8 d4 d4 3d c1 0f 93 3d c7 d0 52 bd 9e 32 25 bd
       0.10392183 0.07180739 -0.051468637 -0.040331475
000100 6d cd b6 3d 78 ca 90 3d 5b c4 a3 bc 96 4f 88 bd
       0.089259006 0.07069868 -0.01999109 -0.06655805
000110 f1 dd 43 3d 96 42 a0 3c 7c 1f 8c 3d 0e 80 56 bd
       0.04781908 0.019563 0.06841943 -0.052368216
000120 2c c1 25 3d 09 9d 3e bd d2 18 de bc 95 6f 95 3d
       0.040467426 -0.04653648 -0.027111445 0.07296673
000130 fa bb 98 3d 30 2a ae 3d 41 a4 a7 3d 4d 47 c5 bd
       0.07457729 0.085041404 0.08185626 -0.0963274
000140 54 00 ce 3d 9e 55 01 3e de 51 78 3d c4 cb 90 3b
       0.10058656 0.12630317 0.06062495 0.004418822
000150 a8 e9 da bc c1 ea 81 3d db e6 85 bd 0e 1e c6 bc
       -0.026722744 0.06343604 -0.06538173 -0.024184253
000160 fd 6f 00 3a 75 9d ce 3c 63 f0 52 bd 21 52 6d bd
       0.00048995 0.025221566 -0.051498782 -0.057939652
000170 cd 45 79 3d 9c d3 44 bd 24 8f 0d bd 95 b1 8b bd
       0.060857583 -0.04805337 -0.034560338 -0.068209805
000180 fe c3 2f 3e f9 a6 61 3d 4c e3 0f 3d 26 5d 88 3c
       0.17164609 0.05509088 0.035128877 0.01664598
000190 bc 99 48 3d 91 fc 39 bd fa 21 ab ba ee 47 8a 3d
       0.048974738 -0.04540688 -0.001305639 0.06752001
0001a0 eb df b9 3d 4b 11 8a 3d d2 d8 2d bc 54 e6 04 bd
       0.09075912 0.067415796 -0.010610776 -0.03244622
0001b0 79 f6 1c 3e df fb f4 bb 13 4e 90 3d 70 4e 5c bd
       0.15328397 -0.0074763144 0.070461415 -0.05378574
0001c0 5b 18 df 3c 4f 19 6c bd 7b 09 bf b9 06 93 d6 bc
       0.027233293 -0.057641324 -0.00036437422 -0.026193153
0001d0 50 fc 61 bd 5f 1e dc 3c 78 e0 16 bd 0e 2a 82 bc
       -0.055172265 0.02686995 -0.036835164 -0.015889194
0001e0 da 67 77 bd ae c4 a5 3b 5d 94 c2 3d 12 48 c1 3a
       -0.060401775 0.0050588464 0.09500954 0.001474621
0001f0 d6 87 0f 3c e6 2d d4 bc dc 43 17 be f0 c1 70 bd
       0.008760413 -0.025900792 -0.1477198 -0.058778703
000200 76 54 90 3d 14 96 c1 bc 90 17 2f 3c ac cb a7 3d
       0.0704736 -0.023631133 0.01068677 0.08193144
000210 6b 14 61 3d 5d 3b 85 3d 28 84 43 bc 18 c2 e5 bd
       0.054951113 0.06505463 -0.011933364 -0.11218661
000220 b2 28 6f bd 26 fd d4 bd fa 13 6e bd 2f 19 0e bd
       -0.05838842 -0.10399847 -0.05812452 -0.034691986
000230 49 6a 51 3d 20 b1 33 bd b5 9b 9b bd 44 72 1b bd
       0.051126752 -0.04387009 -0.07598058 -0.03795077
000240 ad 33 94 bd f2 15 9a bd f8 bb db bd 57 fd 38 bd
       -0.07236419 -0.07523717 -0.107292116 -0.04516348
000250 f1 97 0b 3c eb d5 19 bd b5 cd fc 3b 97 3f b9 bd
       0.008520112 -0.037557524 0.007714952 -0.09045332
000260 49 ac 90 ba 18 a7 84 3c 54 dc 00 bd 70 c7 6e 3d
       -0.0011037673 0.016192958 -0.03146012 0.058295667
000270 2e 2f f2 3d 47 c1 22 bd 62 10 ab 3c 9d 26 37 3d
       0.11825405 -0.039735105 0.020881835 0.04471456
000280 8f 9f 75 3d c6 bd c0 bc 01 5f 1b bd 66 86 4b bb
       0.05996662 -0.023527991 -0.0379324 -0.003105545
000290 42 8b 8e 3c 26 13 93 bd 3a d2 b7 3d 65 d9 fe 3c
       0.017400388 -0.07181387 0.089756444 0.031109521
0002a0 2e cd 52 bd c8 3b 2f bd 97 81 6a bc 01 4c 70 3c
       -0.051465206 -0.04278162 -0.014313123 0.014666558
0002b0 76 eb b4 3b 12 58 bc 3d 7f 02 e1 bc a5 b1 ef 3c
       0.005521233 0.091964856 -0.02746701 0.029259512
0002c0 33 41 5e bc 78 01 07 bd f2 c2 93 3c a2 f2 9a bd
       -0.013565349 -0.032960385 0.018037293 -0.0756581
0002d0 b7 c7 02 be 65 f2 b8 3d 28 b8 76 3c c5 a4 ff 3c
       -0.12771498 0.09030608 0.015058555 0.031206498
0002e0 2c 1a 89 bd 11 44 a7 bb 32 c1 97 3d 8e a6 71 bd
       -0.06694445 -0.0051045497 0.07409896 -0.05899673
0002f0 9a 54 88 3d c7 9c 93 3d 1d 0d 00 3d 12 c0 f5 bd
       0.066567615 0.07207637 0.031262506 -0.11999525
000300 22 13 b2 bc da eb 45 bd 0f 9b 94 3d 27 41 50 3d
       -0.021737639 -0.04832063 0.072561376 0.050843384
000310 bc 21 d5 3d bf 1a 38 3d d6 0d 61 ba b8 5f 50 3c
       0.10406825 0.044947382 -0.00085851306 0.012718134
000320 f3 09 a9 bb a7 91 ee 3d 9a 23 96 bd be 53 07 be
       -0.0051586567 0.11648875 -0.07331009 -0.13215539
000330 7d 8f fd 3c 6c 4a 4e 3b e5 5e 04 3d 6c 6d dc 3d
       0.03095221 0.0031477464 0.03231706 0.10763058
000340 66 62 91 bc fb 38 08 3c d4 f7 44 bc 26 dc 45 3d
       -0.017747115 0.008314366 -0.012021977 0.048305653
000350 16 a7 95 3d a5 3c 29 3e c8 0e b0 3d 91 39 f2 3c
       0.0730726 0.1652704 0.08596569 0.029568465
000360 aa d7 a4 3d d1 1e 6a 3d 17 74 51 bd 75 86 05 3b
       0.08048947 0.057158295 -0.051136103 0.0020374332
000370 b1 4f d4 bb e3 18 44 3d 53 50 a8 bc d6 2a 1a 3d
       -0.0064792265 0.047875296 -0.020546114 0.037638508
000380 f4 f1 f7 3d fe 19 93 bd 8e f5 65 bc 1d 39 7c bb
       0.12106696 -0.07182692 -0.014035596 -0.003848619
000390 1f 46 96 3d 8d 9a 5d 3c b2 11 b0 3d 3f e6 d7 bc
       0.07337593 0.013525617 0.08597125 -0.026354907
0003a0 51 4d 0e 3e 89 b0 45 bb b0 04 32 bd 62 41 91 bd
       0.13896681 -0.0030165038 -0.0434615 -0.07092549
0003b0 97 77 e6 bb 34 dd 1e 3e 9a 29 47 bd 09 19 b6 3c
       -0.007033299 0.1551407 -0.04862366 0.022228735
0003c0 4c 78 f0 3c 7a 26 ce 3d 33 29 14 3e 5d 09 2d bd
       0.029354237 0.100659326 0.14468841 -0.042245258
0003d0 18 19 a7 bd c3 0b 42 3d e8 4f a9 3b 10 0a 1f 3d
       -0.08159083 0.047374498 0.0051669963 0.038827956
0003e0 14 fe 44 bc 21 74 8b bd f5 70 3c 3c 35 a2 9e 3d
       -0.012023468 -0.06809259 0.01150154 0.07745782
0003f0 51 99 17 be 78 0c 0a 3d 24 7c b0 bc f0 51 3a bc
       -0.1480458 0.033703297 -0.02154357 -0.0113720745

network_body._body_endoder.seq_layers.2.bias f4 [256]
000000 4b 40 9f 3c c0 c2 3e 3c 5f e6 00 3b b9 a7 6e 3c
       0.019439837 0.011643112 0.0019668562 0.014566355
000010 33 40 3b 3c 55 4a 3a 3c 32 49 91 3b a2 10 e9 3b
       0.0114288805 0.011370261 0.0044337744 0.0071125785
000020 28 bb 0c 3b ac 3a 72 3c 58 ad 62 3c 91 d5 10 3c
       0.0021473859 0.014784496 0.013835274 0.008839981
000030 8b 95 c1 3c 30 78 bc 3b fc 67 c2 3b 3a 0e 15 3c
       0.023630878 0.005751632 0.005932806 0.00909763
000040 51 5a f5 3b 80 54 47 3c 17 4e 83 3c 37 14 42 3c
       0.007487573 0.012166142 0.016028447 0.01184564
000050 c5 e4 75 3c 37 cf f0 bb dc aa a2 3b 36 57 2d 3c
       0.015008156 -0.0073489207 0.0049642157 0.010579875
000060 ae 9b bf 3c 4d 50 89 3c 9f 67 6e 3b 4f 93 98 3c
       0.023389664 0.016761923 0.003637768 0.01862493
000070 5c 64 ab 3c 53 ac 91 3c 2a c2 6b 3c d9 ea e9 ba
       0.020921879 0.017782366 0.014389554 -0.0017846479
000080 26 0e 1a 3c 0a 66 ce 3b 38 d7 87 3b 7a 75 90 3c
       0.009402787 0.006298785 0.004145529 0.017634142
000090 15 c1 5e 3c 01 e9 62 3c 57 1c a6 3c de 4d 51 3c
       0.013595839 0.013849498 0.020277185 0.012774913
0000a0 20 e1 2b 3c 34 33 33 3c a8 49 8a b9 47 98 17 3c
       0.010490686 0.010937501 -0.0002637629 0.009252614
0000b0 74 d1 e8 3b b5 22 c6 3c 4e 7d 0c 3c a8 77 91 3c
       0.007105047 0.024186471 0.008574797 0.017757252
0000c0 0e 91 6c 3c e0 54 ec 3b 59 6c f1 3b 26 0b dc 3b
       0.014438881 0.0072122663 0.0073676524 0.006715196
0000d0 f7 a7 09 3c 89 04 de 3b c9 5d 28 3c 50 99 19 3c
       0.008401862 0.006775443 0.010276266 0.009374931
0000e0 09 36 94 3c db c9 e7 39 7f 6b f5 3c 79 13 ba 3c
       0.018092172 0.00044210147 0.029958485 0.022714363
0000f0 ce 21 bc 3b 44 1b 5a 3b 87 fe 89 3c 9d 81 b5 3b
       0.0057413345 0.0033280412 0.016845 0.0055391327
000100 7e c5 84 3c 26 a6 4e 3c 7e 85 2b 3c 65 56 8d 3c
       0.016207453 0.012612855 0.010468839 0.01725311
000110 00 a4 24 3c 89 42 66 3c 53 5f 64 bb ca eb 87 3c
       0.010048866 0.014053949 -0.0034846857 0.016591925
000120 f0 b0 1b 3c 7b 1c 64 3b 21 56 c5 3b d9 ae a7 3b
       0.009502634 0.0034807015 0.0060222303 0.005117279
000130 af bd a7 3c ca f7 b1 3b a6 7b e6 ba b3 cd 25 3c
       0.02047619 0.00543115 -0.0017584458 0.010119843
000140 c0 26 27 3c 42 c9 25 3b bc 3a c9 3b b4 96 c3 3b
       0.01020211 0.002529696 0.006141035 0.005968893
000150 f2 ae 14 3c f9 e6 4b 3c 9c 9c e8 3b f7 8b 44 3c
       0.009074913 0.012445205 0.0070987474 0.011996261
000160 b9 67 85 3c 43 7a 24 3c e0 96 df 3c 55 bc 9a 3c
       0.01628481 0.010038915 0.027293622 0.018888632
000170 00 2e c6 3c bb cb b8 3c a0 ce 10 3c 96 2c 41 3c
       0.024191856 0.022558084 0.008838326 0.011790415
000180 a9 a5 59 3c da 93 6b 3c 76 fb 9c 3b b6 7d 11 3c
       0.013284125 0.014378512 0.0047907187 0.0088800695
000190 b5 85 10 3c 39 47 ef 39 a1 92 7f 3c 6e a2 45 3c
       0.008820941 0.00045638697 0.015598924 0.012062652
0001a0 b0 3b 51 3b 8b 7a 9f 3b 96 7f cb 3c ae 3a 91 3c
       0.0031926446 0.004866903 0.024841111 0.017728176
0001b0 30 2d e6 3b c3 7d 7f 3c a0 9e 34 3c 5e 8c 15 3c
       0.0070244297 0.015593949 0.011024147 0.009127704
0001c0 80 24 75 3c dc e0 d0 3b e2 26 4b 3c 1e 94 88 3b
       0.014962316 0.0063744616 0.012399407 0.0041680476
0001d0 3f 1c 3e 3b ef 43 a5 3c f6 5b ed 3b 34 47 9a 3c
       0.0029008535 0.020173995 0.0072436286 0.01883278
0001e0 b4 52 a4 3c 4b 48 dc 3b 8e 7b 2c 3c 79 c4 6d 3c
       0.020058967 0.006722485 0.010527505 0.014512175
0001f0 fa 8a 7d 3c 56 37 7a 3c 59 e1 a3 3b 0b a9 f9 3b
       0.015475029 0.015271982 0.005001229 0.0076190284
000200 31 95 84 3c 9a 09 cd 3c aa a8 d3 3c 68 3a c1 3c
       0.016184421 0.025028992 0.025837261 0.02358742
000210 f4 b9 cf 3b 74 d0 a3 ba ef db 92 3c 97 76 0a 3c
       0.006339306 -0.0012498037 0.017927138 0.008451126
000220 a6 19 29 3c 7b d1 64 3c 78 d2 e6 3b 83 de 89 3c
       0.0103210565 0.01396596 0.007044133 0.016829735
000230 33 a7 dd 3c 4b 15 74 3c b4 5f 16 3c 21 db f5 3b
       0.027057266 0.014897655 0.009178091 0.007502929
000240 51 92 1c bc d5 98 2f 3c 68 a1 9e 3c 3d 79 b6 3c
       -0.009556369 0.01071759 0.019364074 0.022274608
000250 3a da 58 3c 88 6c 6e 3c 4b 28 ba 3b 10 91 9b 3c
       0.013235623 0.014552243 0.005681073 0.01899007
000260 bf 5e 3f bb b4 92 b8 3b e7 e6 61 3b 9f 46 a8 3b
       -0.002920076 0.0056327228 0.0034469904 0.005135372
000270 f2 22 68 3c b0 6a 84 3c 56 1e 0d 3c 41 0e 83 3c
       0.014168488 0.016164154 0.00861319 0.015998008
000280 56 d7 37 3c e5 f3 57 3b 83 04 d8 3c 6c c1 11 3c
       0.011220774 0.003295177 0.026369339 0.008896213
000290 7b 3e 38 3b 5e 52 44 3b 7f 1f 8c 3b b3 a4 60 3b
       0.0028113413 0.0029956321 0.0042762156 0.0034277856
0002a0 f6 07 00 3b ea 05 5e 3c 31 d7 e6 bb 07 c3 96 3c
       0.0019535995 0.013551215 -0.007044696 0.018403543
0002b0 06 6a 9b 3b fc e2 24 3c fd 06 82 3c 7b 3e 1d 3c
       0.0047428636 0.010063883 0.015872473 0.009597416
0002c0 d7 5b 8b 3c 4d 7c 49 3c e2 77 74 3c c0 d9 18 3c
       0.017011566 0.012297702 0.01492116 0.009329259
0002d0 f1 4e be 3c bc 6b 3f 3c 9b c3 75 3c 3a 8c 14 3d
       0.023231002 0.011683401 0.015000249 0.036266543
0002e0 62 e6 d2 bb 87 4a 59 3c 46 07 4c 3c 60 13 a9 3a
       -0.006436155 0.013262398 0.012452906 0.0012899451
0002f0 02 97 dd 3b 04 7f bb 3b c3 62 55 3c 93 40 e4 3a
       0.0067623863 0.0057219286 0.013024035 0.0017414264
000300 df 5e 84 3b c9 fe 16 3c 0f 00 b8 3b 44 43 3e 3c
       0.00403963 0.009216019 0.0056152414 0.011612717
000310 5d 72 44 3c e8 4c 92 3c ef 76 2f 3c b1 43 be 3c
       0.011990157 0.017858937 0.010709508 0.023225637
000320 ea 85 c1 3c 9e 3f 01 3c 59 66 8e 3a c4 25 0a 3c
       0.023623426 0.007888703 0.0010864242 0.008431856
000330 75 c8 93 3c 42 e9 93 bb 30 60 4b ba 8f 0e 0e 3c
       0.018039921 -0.0045138905 -0.00077581685 0.008670463
000340 49 b4 b1 3c 8f 3e eb 3b a0 3e 21 3c a8 c9 9e bb
       0.021692412 0.0071790884 0.009841591 -0.0048458166
000350 f9 24 05 3b ad db 9e 3c cd 70 06 3c e0 66 15 bc
       0.0020316227 0.019391859 0.008205605 -0.009118766
000360 79 5b 8c 3b 0f ca 8b 3c 3d fe 05 3c 99 ac 66 3b
       0.0042833653 0.017064122 0.008178291 0.003519809
000370 c3 0f 2a 3c 00 d6 cb 3c 7c 82 1b 3c e8 e9 a6 3c
       0.010379734 0.024882317 0.009491559 0.020375207
000380 2d 03 99 3c c9 e9 05 3c aa 22 7d 3c 33 e5 44 3b
       0.018678272 0.0081734145 0.015450159 0.003004384
000390 1a d9 4b 3c 02 ae b5 3c 4f 61 60 3c 35 93 6e bb
       0.012441898 0.0221777 0.013695075 -0.003640366
0003a0 a6 18 2f 3c 1b 32 90 3c e7 e6 2c 3a 08 80 b2 3b
       0.010687029 0.017602017 0.00065956864 0.0054473914
0003b0 17 b2 af 3c 27 91 ca 3c ea 6a fb 3b ea 35 b6 3b
       0.021447225 0.024727417 0.0076726573 0.0055606263
0003c0 1d 30 3a 3c 9a b1 06 3c bb 11 a5 3b 6e 88 21 3c
       0.01136401 0.008221054 0.005037514 0.0098591875
0003d0 64 30 f8 3b eb 17 9a 3c b0 50 cd 3b 35 77 54 3c
       0.007574128 0.018810233 0.006265722 0.012967874
0003e0 5a 05 3e 3c 72 d6 1b 3c 02 ad 62 3c bb c9 a7 3b
       0.011597956 0.009511577 0.013835194 0.0051204837
0003f0 65 dd 3f 3c 26 a6 59 3c b3 f1 cd 3b 6b 42 af 3c
       0.011710499 0.013284242 0.0062849163 0.021393975

action_model._discrete_distribution.branches.0.weight f4 [4, 256]
000000 38 5a cc b9 98 38 f0 bc b4 3d 33 3c a5 2c a0 bc
       -0.0003897713 -0.029323861 0.010940004 -0.019552538
000010 96 b9 ce bb f7 64 cc 3c 01 91 c2 bc 74 e0 05 bd
       -0.0063087447 0.024950488 -0.023750784 -0.03268476
000020 b3 47 bd 3b 71 d4 72 3a cf b7 42 bc b4 bb fe 3c
       0.0057763695 0.00092632236 -0.011884644 0.031095363
000030 9b a6 8f 3c eb e8 a5 bc 80 d7 d8 bc 6e ed 08 bb
       0.017535498 -0.020252666 -0.026469946 -0.0020893472
000040 0b 4f ad 3c 10 aa 1a bd 96 49 d7 3c 28 aa 57 bc
       0.021155855 -0.03775984 0.026280206 -0.013163127
000050 69 c8 3b bc 66 64 db bb 75 61 cf 3b 09 94 16 3d
       -0.011461356 -0.006695318 0.0063287565 0.03676227
000060 c4 07 42 bc ce 31 ab 3a 35 a9 a1 bb 38 4b ed ba
       -0.011842672 0.0013061108 -0.004933501 -0.0018104082
000070 88 94 0d bc 01 d5 80 bc 2d ed bc 3c 51 46 91 ba
       -0.00864137 -0.015726568 0.023062313 -0.0011083578
000080 ff 8b 01 bb b7 51 cc bc c7 6f 18 3b fb c6 c3 3c
       -0.0019767282 -0.024941308 0.0023259984 0.023898592
000090 3c c4 d0 3c c6 35 48 bd 84 3a 13 bc e1 3b 99 3c
       0.025484197 -0.048879407 -0.008986119 0.01870531
0000a0 a0 a6 0d 3d a2 57 a0 3b 4d bc bd 3c c5 b7 63 bc
       0.034582734 0.004893259 0.023161078 -0.013898795
0000b0 8b 1d 70 bc 40 e7 ed bb 82 6e be ba fc 18 73 bb
       -0.014655481 -0.007260233 -0.0014528784 -0.003709375
0000c0 8a a1 f8 3c 8d 69 80 3b b8 41 d1 3c 53 f9 8c bb
       0.030350465 0.0039188326 0.025544032 -0.0043021827
0000d0 65 0a 54 bc 14 3e 06 3d 51 83 1b 3d 80 97 1f bc
       -0.012941931 0.032774046 0.03796703 -0.00974071
0000e0 1f cc 75 bc 39 08 61 3b df 8a 86 3c be cf f0 3c
       -0.01500228 0.0034337176 0.01642364 0.029395934
0000f0 59 07 01 b9 84 fd 94 bc 83 91 a9 3b d8 fc e1 3c
       -0.00012305136 -0.018187292 0.005174817 0.027586386
000100 44 0f 68 3c 5c c1 17 3d 56 de 1c bd b9 28 2c bc
       0.014163796 0.037049636 -0.038297974 -0.010507756
000110 5a 64 be bc 1e b5 e5 3c 8a c0 30 bb 85 a5 76 3c
       -0.02324121 0.028040465 -0.002697023 0.015054111
000120 c8 7d 48 3c 6a 91 96 3c eb d2 8a 3c c2 37 d2 b9
       0.01223702 0.018379886 0.016946277 -0.00040095864
000130 b6 19 69 bc 1f 06 f1 bc 32 a3 47 3c 05 5d 92 bc
       -0.014227321 -0.029421864 0.012184905 -0.01786662
000140 41 16 0f bc 92 c3 71 bc 81 5a 9a ba ec 1d 86 bc
       -0.008733333 -0.0147561 -0.001177624 -0.01637169
000150 83 26 8a bc e6 f1 d8 3c e6 1a e0 bc ab a5 0a bd
       -0.016864067 0.026482534 -0.027356576 -0.0338494
000160 f9 eb ab bc 27 16 fb 3b cf ef 22 bb a9 41 d3 3b
       -0.020986544 0.007662553 -0.0024862175 0.0064470363
000170 5a b3 7c 3c 59 f0 c7 3c e1 2e d6 ba c7 30 86 bc
       0.01542362 0.024406599 -0.0016340875 -0.01638068
000180 de d8 43 bc 33 f2 a9 bb e0 f5 21 3d ac 63 85 3b
       -0.011953561 -0.005186343 0.039541125 0.0040707197
000190 59 41 67 3b 7b 6a 52 3b 85 70 82 3b 86 83 f4 3c
       0.0035286753 0.0032106924 0.0039806985 0.029847872
0001a0 87 dc 67 bb c0 e9 40 3c 75 8d 06 bd ee ea bc ba
       -0.0035379247 0.01177448 -0.032849748 -0.0014413276
0001b0 0c b7 90 3c 16 75 09 bc 42 47 05 bb 34 fe 65 3c
       0.017665409 -0.008389732 -0.0020336662 0.0140376575
0001c0 b0 c5 03 3d cd da 10 bd 00 3a 48 ba e7 98 6e bc
       0.03217095 -0.035364915 -0.0007638037 -0.014562822
0001d0 cc 56 2a bc d5 56 9e bc 14 e6 12 3c 9d 8d a2 3c
       -0.010396671 -0.019328514 0.008965988 0.019842917
0001e0 62 a4 a5 3c 73 36 77 bb 3b 1b a9 3b 91 d8 18 bc
       0.020219985 -0.0037721663 0.005160717 -0.009328977
0001f0 04 6b 10 3c 43 66 50 bc 2d e6 38 bc e9 ac 1a 3d
       0.008814577 -0.012719694 -0.011285347 0.037762556
000200 20 43 9f 3b 1d fe 24 bc 77 49 85 3c 14 67 90 3a
       0.004860297 -0.010070351 0.016270382 0.0011017048
000210 af 42 af 3c bf 3e 33 3c 4c 24 04 bd 9b b3 99 3c
       0.021394102 0.010940253 -0.032261178 0.0187624
000220 20 29 03 3d d3 e1 95 3c 1f 98 48 bc a8 f8 af bc
       0.03202164 0.018296158 -0.0122433 -0.021480873
000230 66 82 a0 bc 69 ff 1a bd 59 d7 5a bc e1 9c 04 b9
       -0.019593429 -0.037841234 -0.013357007 -0.00012646943
000240 2a 49 b5 3b ec 81 54 3c 9b 68 ab 3c 59 0e ce bc
       0.0055324035 0.012970429 0.020923903 -0.025153326
000250 c0 69 4c bc 44 84 1f bd 86 2b ac 3c 1f 71 0c 3d
       -0.012476385 -0.038944498 0.021016847 0.03428757
000260 37 73 ea bb d5 ed 0a 3d 36 79 b2 3b 74 4e e9 3c
       -0.007154848 0.03391822 0.0054465784 0.028479792
000270 62 76 f6 ba fd 35 e8 bc 78 16 5f 3c f2 5b fd 3c
       -0.0018803591 -0.028346056 0.013616197 0.030927632
000280 72 7a 59 bb ba 07 45 3b 57 95 47 bc f2 81 9c bc
       -0.0033184555 0.003006442 -0.0121816015 -0.019104932
000290 9a 50 e4 bc c9 cc 89 bc b0 9a f5 3c 50 81 f2 3b
       -0.027870465 -0.016821282 0.029980987 0.007400669
0002a0 b8 70 80 bb 92 38 0d 3c 3f b4 2d bc 6d 6b 8d bc
       -0.003919687 0.008619444 -0.010602056 -0.017263139
0002b0 99 5c 88 3c 4a 57 d7 bb 97 d3 1c 3d 1c 34 8d 3c
       0.016645717 -0.006571685 0.038287725 0.017236762
0002c0 31 85 da 3c e8 69 10 bd 5e c9 2e 3d 04 de b2 bb
       0.026674839 -0.03525725 0.042672507 -0.005458595
0002d0 8b c0 61 3c 03 5b 2f ba eb 4d ce bc 5c 97 a2 3c
       0.013778816 -0.0006689282 -0.025183639 0.019847564
0002e0 c6 26 e9 bb 8b 34 22 bd f2 c4 e4 bc f7 b1 97 3b
       -0.007115218 -0.03960089 -0.027925942 0.0046293694
0002f0 a2 76 da 3c 23 8b 86 bc 87 ea b1 3c 23 c3 c3 3c
       0.026667897 -0.016423767 0.021718277 0.02389676
000300 e9 29 f7 bc 92 fb e2 3c 7f ad 88 bc 5a 86 e3 3c
       -0.030171352 0.027707849 -0.016684292 0.027774025
000310 df 42 08 bd 28 c2 f7 bc 00 de c3 3c 01 de 83 3c
       -0.0332669 -0.030243948 0.023909569 0.01609707
000320 61 08 0d 3a 57 10 b8 bc 5f 24 26 3c bc 5c 61 bc
       0.00053799717 -0.022468729 0.0101405075 -0.01375502
000330 ab 6b d8 bc f9 75 c7 bb 50 0c 5f b9 11 3c 03 3d
       -0.026418528 -0.0060870615 -0.00021271524 0.032039706
000340 2a 81 55 3c 0e 63 f5 3c d7 22 cd 3c 1e 35 02 bc
       0.013031283 0.02995446 0.025041027 -0.007947234
000350 0a ce a1 bc 67 e6 91 3c 86 c7 3f 3c 3a 2a 58 3b
       -0.019751567 0.01781006 0.011705285 0.0032984153
000360 d3 97 bf bb 87 47 d2 3c 8f ed cb 3c a4 ad bd bc
       -0.0058469563 0.025668873 0.02489355 -0.023154087
000370 db da d5 3c 17 58 5d 3c 72 9d f3 3c 7e ef ae 3c
       0.026105335 0.013509772 0.029738162 0.021354433
000380 5d 5e af 3c 1c e8 d4 bc 85 7b 73 3c 7a 49 20 bc
       0.0214073 -0.025989585 0.014860992 -0.009783143
000390 62 80 ce bc f3 7c 74 bc 33 9a e3 3c ad 0e 90 bb
       -0.025207702 -0.014922368 0.027783489 -0.0043962807
0003a0 de 78 01 bd a6 c8 2f bd a7 4c 00 bc 4f ca 50 3c
       -0.03160941 -0.042915963 -0.007830775 0.012743547
0003b0 92 c2 0a bd 08 3c 02 3d 5c e2 fc 3b 9c 2a 16 3c
       -0.033876963 0.03179553 0.007717414 0.009165432
0003c0 1e 9f 96 bc 22 e0 16 3d c5 4d cd 3b 6b 7b f9 bc
       -0.01838642 0.036834843 0.0062653744 -0.030454358
0003d0 55 c8 a8 3c 98 c2 a2 3b 77 92 b6 bc b1 af 3f bd
       0.020603338 0.004967045 -0.022286637 -0.04679841
0003e0 f6 d9 fc 3c e7 fa 05 bd ba ed 1e bd e4 fe 0a bd
       0.03086565 -0.032709982 -0.038800932 -0.03393449
0003f0 3b bc 3f bb 46 98 b1 bc e7 27 bc bc 4e c7 b1 3b
       -0.0029256481 -0.021679055 -0.022968246 0.0054253703

action_model._discrete_distribution.branches.0.bias f4 [4]
000000 04 76 63 b9 00 8b 52 bb 1e 07 ba 3b 07 54 3d bb
       -0.00021692371 -0.0032126307 0.005677118 -0.0028889196

onnx::Div_62 f4 [202]
000000 d9 61 db 3e dc 6c 95 3e df 2d df 3e 09 89 b7 3e
       0.4284809 0.29184616 0.43589684 0.35846737
000010 61 3e df 3e 3d b0 bd 3e df 2d df 3e 2e ca b7 3e
       0.4360228 0.37048522 0.43589684 0.35896438
000020 61 3e df 3e ef ea bd 3e c9 52 d5 3e 38 78 b7 3e
       0.4360228 0.37093303 0.41664723 0.35833907
000030 ac b3 d3 3e b8 6b bd 3e a8 ef d3 3e 69 64 b7 3e
       0.41348016 0.36996245 0.4139378 0.35818794
000040 d9 1e d2 3e 2e 15 bd 3e ab b1 d2 3e fc 56 b6 3e
       0.4103916 0.3693022 0.41151175 0.3561324
000050 ed 5e d0 3e 21 ad bb 3e 7f ae d6 3e c3 89 b7 3e
       0.40697423 0.36655524 0.41930005 0.3584729
000060 a8 97 d3 3e b8 05 bc 3e 33 23 d1 3e dc 26 b6 3e
       0.41326642 0.36723113 0.40847167 0.35576522
000070 18 75 ce 3e c9 8b ba 3e 04 81 d2 3e 6d 36 b6 3e
       0.4032371 0.36434773 0.41114056 0.355884
000080 12 c7 cf 3e fe 74 ba 3e 8c 41 d0 3e b8 6f b6 3e
       0.40581566 0.36417383 0.40675008 0.3563211
000090 05 b2 cd 3e fe bc ba 3e 15 94 cf 3e 2c 7d b5 3e
       0.4017488 0.36472315 0.40542665 0.3544706
0000a0 50 00 ce 3e 3a 07 ba 3e 42 f7 c4 3e 7f 91 a4 3e
       0.40234613 0.36333638 0.38469893 0.32142255
0000b0 7f 07 c0 3e 4c a8 a9 3e 96 fc c3 3e d3 1c a3 3e
       0.3750572 0.33136213 0.38278645 0.3185793
0000c0 3b 02 c0 3e 66 0a a9 3e 88 8b c4 3e 58 0b a3 3e
       0.37501702 0.33015746 0.38387704 0.31844592
0000d0 44 e8 bf 3e 77 07 a9 3e 22 24 c4 3e 05 1f a4 3e
       0.37481892 0.33013508 0.38308817 0.32054916
0000e0 e8 a9 bf 3e d1 b7 a9 3e bd 99 d0 3e e0 5e b7 3e
       0.37434316 0.33148053 0.40742293 0.3581457
0000f0 ca ac cb 3e 0d d6 b8 3e 12 13 d0 3e 8c 13 b8 3e
       0.39780265 0.36100808 0.4063955 0.35952413
000100 48 33 cb 3e ef 6d b9 3e 08 38 d1 3e e6 28 b7 3e
       0.39687562 0.36216685 0.4086306 0.3577339
000110 43 0f cc 3e 4a af b8 3e fa d7 cf 3e 2d 46 b7 3e
       0.39855394 0.36071235 0.40594465 0.35795727
000120 9e cb ca 3e c8 cb b8 3e 2b 4b d4 3e 75 f5 b7 3e
       0.39608473 0.36092973 0.414636 0.35929456
000130 6b 36 cf 3e 7c 1c ba 3e 4a 97 d1 3e d9 3b b7 3e
       0.40471205 0.36349857 0.40935737 0.35787848
000140 75 56 cc 3e 7a a6 b9 3e b7 83 d3 3e 79 a8 b8 3e
       0.3990971 0.36259824 0.41311428 0.36066034
000150 b3 4b cf 3e be 8f bb 3e 7b 57 d3 3e 0c 83 b8 3e
       0.4048744 0.36633104 0.4127768 0.3603748
000160 e3 a1 d0 3e da f4 bb 3e 78 b9 e2 3e 56 47 b9 3e
       0.4074851 0.36710244 0.44282126 0.36187238
000170 ca 97 dd 3e 33 c6 bc 3e 78 b9 e2 3e 0d 2f b9 3e
       0.43279868 0.36869964 0.44282126 0.3616871
000180 ca 97 dd 3e ee bd bc 3e 4f 3b e1 3e 1c 37 a3 3e
       0.43279868 0.36863655 0.4399056 0.31877983
000190 3f f2 db 3e c4 f4 ae 3e 39 37 e2 3e a9 43 c3 3e
       0.42958257 0.34171116 0.44182757 0.38137558
0001a0 26 30 de 3e 66 31 c2 3e 39 37 e2 3e f2 60 c3 3e
       0.4339611 0.37928313 0.44182757 0.381599
0001b0 26 30 de 3e b9 3b c2 3e a1 73 d3 3e 76 e8 c2 3e
       0.4339611 0.3793619 0.41299155 0.3806798
0001c0 5b 37 d5 3e 36 d5 c1 3e 25 33 d3 3e 1e ce c2 3e
       0.41643795 0.3785798 0.41249958 0.3804788
0001d0 7c 1b d4 3e 43 9e c1 3e f4 1a d1 3e 8e 2e c1 3e
       0.4142722 0.37816057 0.40840876 0.3773083
0001e0 f7 92 d1 3e 6f ea bf 3e 7a 43 d3 3e c0 2e c1 3e
       0.40932438 0.37483546 0.41262418 0.3773098
0001f0 b6 bb d3 3e ea 31 c0 3e 69 a9 cd 3e fb 48 c0 3e
       0.4135415 0.3753808 0.40168312 0.3755568
000200 97 2a cd 3e 17 e4 be 3e 9a cf ce 3e 9a 19 c0 3e
       0.40071556 0.37283394 0.40392762 0.37519532
000210 9d f3 cd 3e ea cb be 3e d4 ea cd 3e 0b 31 c0 3e
       0.40224925 0.3726495 0.40218222 0.37537417
000220 e8 29 cc 3e ea 99 be 3e 7d 4e ce 3e 50 76 bf 3e
       0.39875722 0.37226802 0.40294257 0.37394953
000230 6d 72 cb 3e bf c5 bd 3e ea 30 c0 3e 3b 23 ad 3e
       0.39735737 0.3706493 0.37537318 0.3381594
000240 da dd bf 3e 04 7e af 3e d5 79 c1 3e 54 e6 ac 3e
       0.37473947 0.3427583 0.37788263 0.33769476
000250 e6 f7 bf 3e 16 fe ae 3e 6a 65 c1 3e 6c f3 ac 3e
       0.3749382 0.34178227 0.37772685 0.33779466
000260 82 5f c0 3e 7d ef ae 3e 19 89 c1 3e 66 50 ad 3e
       0.37572867 0.3416709 0.3779991 0.33850402
000270 1a af bf 3e a3 2a af 3e fd a3 cb 3e 42 99 bc 3e
       0.3743828 0.34212217 0.3977355 0.36835676
000280 ad eb cb 3e 07 ba bd 3e 8f 60 cb 3e 3f 4e bd 3e
       0.39828244 0.3705599 0.39722106 0.3697376
000290 3a b9 ca 3e a8 54 be 3e 66 9c cd 3e 63 46 bd 3e
       0.39594442 0.37173963 0.40158385 0.36967763
0002a0 60 a6 cc 3e fc 3e be 3e 85 eb cb 3e 60 60 bd 3e
       0.39970684 0.37157428 0.39828125 0.3698759
0002b0 f2 64 cb 3e 16 5f be 3e bd 1f d0 3e 58 2a be 3e
       0.39725453 0.3718192 0.40649214 0.3714168
0002c0 e5 ba cd 3e 10 0a bf 3e 7b 79 cd 3e d9 0a be 3e
       0.40181652 0.37312365 0.40131745 0.3711765
0002d0 d0 47 ca 3e 78 b2 be 3e bc 04 ce 3e a4 1f bf 3e
       0.39507914 0.37245536 0.40237987 0.37328827
0002e0 a6 b4 ca 3e 55 b8 bf 3e e3 4b cf 3e 22 78 bf 3e
       0.3959095 0.37445322 0.40487584 0.37396342
0002f0 e9 3b cc 3e c6 31 c0 3e cd fc db 3e 69 2f c0 3e
       0.39889458 0.37537974 0.4296631 0.3753617
000300 e5 9d db 3e 89 0e c1 3e cd fc db 3e 39 47 c0 3e
       0.428939 0.37706402 0.4296631 0.3755434
000310 e5 9d db 3e 3a 23 c1 3e 47 ae d8 3e 4f 4f b8 3e
       0.428939 0.37722188 0.42320463 0.35998008
000320 47 ae d8 3e 4f 4f b8 3e
       0.42320463 0.35998008

onnx::Div_65 f4 [10]
000000 44 8b db 3b 44 8b db 3b 44 8b db 3b 44 8b db 3b
       0.0066999514 0.0066999514 0.0066999514 0.0066999514
000010 44 8b db 3b 44 8b db 3b 44 8b db 3b 44 8b db 3b
       0.0066999514 0.0066999514 0.0066999514 0.0066999514
000020 44 8b db 3b 44 8b db 3b
       0.0066999514 0.0066999514
