results/GameLevelReached10/PlayerBehaviour.onnx (onnx, 490727 bytes, 10 tensors)

network_body.observation_encoder.processors.0.normalizer.running_mean f4 [202]
0	0x3f5a2ddc	0.85226226
1	0x3f6277a6	0.8846382
2	0x3f3b190b	0.7308509
3	0x3f4725f1	0.7779227
4	0x3f40062e	0.7500943
5	0x3f4ab38e	0.7918023
6	0x3f3b190b	0.7308509
7	0x3f470ccf	0.7775392
8	0x3f40062e	0.7500943
9	0x3f4a9b5e	0.7914332
10	0x3f3ec5be	0.7452048
11	0x3f489f3f	0.7836799
12	0x3f424d79	0.75899464
13	0x3f4b8b6c	0.79509616
14	0x3f3d6064	0.73975205
15	0x3f47a196	0.77980936
16	0x3f40f476	0.7537302
17	0x3f4a8511	0.79109293
18	0x3f3af830	0.73034954
19	0x3f4657b6	0.77477586
20	0x3f3fa38b	0.7485892
21	0x3f49c1ba	0.7881123
22	0x3f3778bb	0.71668595
23	0x3f436c54	0.7633717
24	0x3f3b048e	0.73053825
25	0x3f461eca	0.7739073
26	0x3f394097	0.7236418
27	0x3f44c628	0.7686486
28	0x3f3d78f4	0.74012685
29	0x3f47f421	0.78106886
30	0x3f38045a	0.7188164
31	0x3f442c2f	0.7662992
32	0x3f3c9716	0.7366804
33	0x3f477df8	0.7792659
34	0x3f367a0b	0.7127997
35	0x3f424642	0.75888455
36	0x3f38de12	0.7221385
37	0x3f43a7f4	0.7642815
38	0x3f356adf	0.708662
39	0x3f41f3fc	0.75762916
40	0x3f37c6b8	0.71787596
41	0x3f4355d2	0.76302826
42	0x3f38a48e	0.7212609
43	0x3f471b45	0.77775985
44	0x3f3bd1f0	0.73367214
45	0x3f486491	0.7827845
46	0x3f3c65d0	0.73592854
47	0x3f4a3e72	0.79001534
48	0x3f402700	0.7505951
49	0x3f4bb883	0.7957842
50	0x3f3bea98	0.73404837
51	0x3f4a2018	0.7895522
52	0x3f4022ed	0.7505329
53	0x3f4bac12	0.79559433
54	0x3f37059c	0.71492934
55	0x3f45d81c	0.7728288
56	0x3f3b56b4	0.73179173
57	0x3f4783b5	0.77935344
58	0x3f32d585	0.69857055
59	0x3f3fe23d	0.7495459
60	0x3f3692af	0.7131757
61	0x3f422ae6	0.7584671
62	0x3f339ab8	0.7015796
63	0x3f40191e	0.75038326
64	0x3f36615e	0.7124232
65	0x3f41d540	0.7571602
66	0x3f3562b0	0.7085371
67	0x3f424cf3	0.75898665
68	0x3f3810ab	0.71900433
69	0x3f43bd78	0.7646098
70	0x3f36b384	0.7136767
71	0x3f42dbb3	0.76116484
72	0x3f391fcd	0.7231415
73	0x3f443d08	0.76655626
74	0x3f3432a8	0.70389795
75	0x3f414549	0.75496346
76	0x3f34cecc	0.70628047
77	0x3f4171f7	0.7556452
78	0x3f374fad	0.7160595
79	0x3f43e9cd	0.76528627
80	0x3f3835a8	0.7195687
81	0x3f4442f4	0.7666466
82	0x3f38d5d5	0.7220128
83	0x3f44cef2	0.76878273
84	0x3f393c82	0.7235795
85	0x3f44daa6	0.7689613
86	0x3f3a0e05	0.7267764
87	0x3f45b9f3	0.7723686
88	0x3f39e0d3	0.7260868
89	0x3f457126	0.77125776
90	0x3f3436e5	0.7039626
91	0x3f433bae	0.7626294
92	0x3f37ae19	0.71750027
93	0x3f4490a5	0.7678321
94	0x3f3436e5	0.7039626
95	0x3f434e5f	0.7629146
96	0x3f37ae19	0.71750027
97	0x3f44b80e	0.76843345
98	0x3f552408	0.83258104
99	0x3f6119f2	0.87930214
100	0x3f5d0d26	0.8634819
101	0x3f66988f	0.90076536
102	0x3f2a9a3c	0.6664159
103	0x3f3b53d6	0.731748
104	0x3f3f17de	0.74645793
105	0x3f4bc0b7	0.79590935
106	0x3f2a9a3c	0.6664159
107	0x3f3b31b9	0.73122746
108	0x3f3f17de	0.74645793
109	0x3f4bad28	0.7956109
110	0x3f2dbb43	0.67863864
111	0x3f3c5fd0	0.735837
112	0x3f440d38	0.7658267
113	0x3f4dd797	0.8040709
114	0x3f2bc624	0.67099214
115	0x3f3ae027	0.7299828
116	0x3f4429ee	0.7662648
117	0x3f4dc329	0.80375916
118	0x3f29182b	0.660525
119	0x3f3955ab	0.72396344
120	0x3f42f5eb	0.7615649
121	0x3f4d28d6	0.80140436
122	0x3f2499e2	0.64297307
123	0x3f35d96c	0.71034884
124	0x3f3ea0c9	0.7446409
125	0x3f49df11	0.78856
126	0x3f284697	0.6573271
127	0x3f37df01	0.7182465
128	0x3f410d0b	0.75410527
129	0x3f4b9ab0	0.7953291
130	0x3f264d5f	0.6496181
131	0x3f36e785	0.7144702
132	0x3f3fc887	0.74915355
133	0x3f4b09de	0.7931193
134	0x3f23d4bf	0.639965
135	0x3f3466e6	0.7046951
136	0x3f3f0b95	0.7462705
137	0x3f4992eb	0.78739804
138	0x3f22de34	0.63620305
139	0x3f3431b1	0.70388323
140	0x3f3d26e7	0.73887485
141	0x3f48c1ad	0.78420526
142	0x3f22e25a	0.63626635
143	0x3f3978f9	0.72450215
144	0x3f402f3f	0.7507209
145	0x3f4d3495	0.8015836
146	0x3f27f46d	0.6560734
147	0x3f3e3fc9	0.7431608
148	0x3f43ec5e	0.7653254
149	0x3f5055e9	0.8138109
150	0x3f2789ab	0.6544444
151	0x3f3e2c32	0.74286187
152	0x3f43aaae	0.7643231
153	0x3f503d58	0.81343603
154	0x3f232832	0.6373321
155	0x3f39a4f6	0.72517335
156	0x3f3f17ef	0.74645895
157	0x3f4c699a	0.79848635
158	0x3f259cb1	0.6469222
159	0x3f366e7b	0.7126233
160	0x3f39c415	0.7256482
161	0x3f46061d	0.7735308
162	0x3f27c322	0.65532124
163	0x3f373116	0.71559274
164	0x3f3a5c1a	0.72796786
165	0x3f462d5b	0.77412957
166	0x3f29496b	0.6612765
167	0x3f398573	0.7246925
168	0x3f3c1ff4	0.73486257
169	0x3f48a59e	0.7837771
170	0x3f2b3231	0.6687346
171	0x3f3a6353	0.72807807
172	0x3f3d7903	0.74012774
173	0x3f494434	0.78619695
174	0x3f27c332	0.6553222
175	0x3f37e868	0.71839
176	0x3f3aaa36	0.7291597
177	0x3f474561	0.7784024
178	0x3f2b5f5b	0.66942376
179	0x3f3afa79	0.7303844
180	0x3f3f0b98	0.74627066
181	0x3f4a9d19	0.7914596
182	0x3f2c391b	0.67274636
183	0x3f3b6996	0.73207986
184	0x3f3f5dba	0.7475239
185	0x3f4a8ae9	0.7911821
186	0x3f2e0962	0.6798307
187	0x3f3cd4fa	0.73762476
188	0x3f40127f	0.7502822
189	0x3f4b211c	0.79347396
190	0x3f2c9bb9	0.67425114
191	0x3f3c6d6f	0.7360448
192	0x3f398eb4	0.7248337
193	0x3f484845	0.78235275
194	0x3f2c9bb9	0.67425114
195	0x3f3c92de	0.736616
196	0x3f398eb4	0.7248337
197	0x3f4850b9	0.78248173
198	0x3f555978	0.83339643
199	0x3f608b48	0.87712526
200	0x3f555978	0.83339643
201	0x3f608b48	0.87712526

network_body.observation_encoder.processors.1.normalizer.running_mean f4 [10]
0	0x00000000	0.0
1	0x00000000	0.0
2	0x00000000	0.0
3	0x00000000	0.0
4	0x00000000	0.0
5	0x00000000	0.0
6	0x00000000	0.0
7	0x00000000	0.0
8	0x00000000	0.0
9	0x00000000	0.0

network_body._body_endoder.seq_layers.0.weight f4 [256, 212]
0	0x3d89f4fb	0.067361794
1	0xb99d895e	-0.0003004772
2	0x3d0026b5	0.031286914
3	0xbd53a130	-0.051667392
4	0x3d0932cc	0.03349571
5	0xbc8fae3e	-0.01753914
6	0x3cd16539	0.025560962
7	0x3e2b607d	0.16736026
8	0x3d6d742d	0.057972122
9	0x3d624efd	0.05525111
10	0xbbc9654b	-0.0061461083
11	0x3c89e0aa	0.016830761
12	0xbd319c2f	-0.04336184
13	0xbce2331e	-0.027612265
14	0xbd7489f5	-0.05970188
15	0xbcaea18f	-0.021317272
16	0xbae8b747	-0.0017754816
17	0x3d499bbd	0.04922079
18	0xbbedd0c0	-0.007257551
19	0x3d8ee547	0.06977325
20	0xbe03b4d0	-0.12861943
21	0xbd422ca2	-0.047405846
22	0x3d3d315f	0.046189662
23	0xbd6fc8fa	-0.058541276
24	0xb9c4a3e3	-0.00037506138
25	0x3cb52de0	0.022116601
26	0xbd6711a8	-0.056413323
27	0xbd8305a6	-0.06397562
28	0xbcb8cf8c	-0.022559904
29	0x3d472c51	0.048626248
30	0xbd8b817a	-0.06811805
31	0xbbc78990	-0.006089397
32	0xbd669ab7	-0.05629989
33	0xbbda3fbe	-0.0066604307
34	0x3cd779f2	0.026303265
35	0xbcae2e10	-0.021262199
36	0x3d74206c	0.059601232
37	0x3e000721	0.1250272
38	0x3ce0bba9	0.027433233
39	0xbc55cab0	-0.013048813
40	0x3da98023	0.08276393
41	0x3d11b470	0.03557247
42	0xbd3a6465	-0.0455059
43	0x3d883276	0.0665025
44	0xbdd1d0b6	-0.102448866
45	0x3cbaaf2f	0.022788612
46	0xbb24536c	-0.0025074137
47	0xbdbf535b	-0.09342071
48	0xbd201f56	-0.039092384
49	0xbd1470c1	-0.036240343
50	0xbdc60767	-0.09669381
51	0x3d1574e2	0.03648842
52	0xbdb684e2	-0.08912064
53	0xbcded2aa	-0.027200062
54	0xbc23ed45	-0.0100053
55	0x3dba4c23	0.09096553
56	0x3c9c0773	0.01904652
57	0x3d222f34	0.039595798
58	0xbd40701a	-0.04698191
59	0x3da50462	0.080574766
60	0x3d0e7937	0.03478357
61	0x3c75e0c5	0.0150072025
62	0x3dbbbf04	0.09167293
63	0x3d7073c2	0.058704145
64	0xbc49483a	-0.012285287
65	0xbdbd759f	-0.0925095
66	0x3d0632f3	0.032763433
67	0xbc82e9e4	-0.015980668
68	0x3d90573e	0.0704789
69	0x3e02869e	0.12746665
70	0xbc81253a	-0.015764821
71	0xbd6caeef	-0.057784017
72	0xbd81f8fe	-0.063463196
73	0x3c510fe6	0.012760138
74	0xbd208e8c	-0.039198443
75	0xbc703079	-0.014659994
76	0x3d5d938f	0.0540958
77	0x3d05fb56	0.032710396
78	0xbd8ebe14	-0.06969848
79	0x3d9b992c	0.075975746
80	0x3d95bb0c	0.07311067
81	0xbde62c8c	-0.112389654
82	0x3d4ca09d	0.04995786
83	0xbcea85fc	-0.028628342
84	0xba5d1582	-0.0008433686
85	0x3d90dbf0	0.070732
86	0xbd68bf18	-0.056822866
87	0x3e19ff89	0.15038885
88	0x3d6621e8	0.05618468
89	0xbd44bc2d	-0.04803102
90	0xbdb48e89	-0.08816249
91	0xbdb4cd22	-0.088281885
92	0xbd8ff1e4	-0.07028559
93	0xb856c710	-5.1206967e-05
94	0x3d416c88	0.047222644
95	0x3d6e964f	0.058248814
96	0xbdbb7200	-0.09152603
97	0xbdddab7e	-0.10823725
98	0xbd1a7823	-0.037712228
99	0xbc7625cc	-0.01502366
100	0xbe163ee4	-0.14672428
101	0xbb9db74d	-0.004813111
102	0x3ced5e6d	0.02897569
103	0xbb66158e	-0.0035108062
104	0xbdd2da1a	-0.10295506
105	0xbdfc2ef3	-0.12313642
106	0x3d4e1f41	0.050322775
107	0x3b2e947f	0.0026638804
108	0xbd4a34a4	-0.04936661
109	0x3d89375d	0.06700013
110	0x3c8f258f	0.017473964
111	0x3d1a6c13	0.037700724
112	0x3c1c6166	0.009544706
113	0xbd4000c2	-0.046875723
114	0xbd32c825	-0.043647904
115	0x3d8bdc12	0.068290845
116	0x3d8e9a3a	0.0696301
117	0xbc0a4688	-0.0084396675
118	0x3da9815e	0.08276628
119	0x3d1e1fb3	0.03860445
120	0xbd38c9d9	-0.045114372
121	0x3d483cfc	0.048886284
122	0x3e66757e	0.22505757
123	0xbd1afba9	-0.037837658
124	0xbcf7acf5	-0.03023384
125	0xbdd52eee	-0.10409342
126	0xbccb15a6	-0.024790596
127	0x3c1275c5	0.008939211
128	0x3d85b706	0.065290496
129	0x3cf73ccc	0.030180357
130	0x3db8a03a	0.09014936
131	0x3d3b96a0	0.045797944
132	0xbe4df7cb	-0.20114057
133	0xba693094	-0.00088954833
134	0xbd622ecb	-0.055220407
135	0x3c137c91	0.009001867
136	0xbd2d9c52	-0.042385407
137	0xbd80791c	-0.062731
138	0x3cc7144f	0.024301676
139	0x3d0e2b7f	0.03470945
140	0xbbbdef45	-0.0057963454
141	0xbdc6111b	-0.09671231
142	0xbd07334b	-0.0330079
143	0xbdde9b24	-0.108694345
144	0x3d0a6599	0.033788297
145	0xbe0ae2a0	-0.13563013
146	0xbd398a88	-0.04529813
147	0x3d72d443	0.05928446
148	0x3d25fe3c	0.04052566
149	0x3e0c0a24	0.13675743
150	0x3dabd479	0.08390135
151	0xbcba3942	-0.02273238
152	0x3dc2793c	0.0949578
153	0xbd920881	-0.07130528
154	0xbcfe6577	-0.031054242
155	0x3cd2e402	0.025743488
156	0xbd0662fe	-0.03280925
157	0x3d8d5a12	0.06901945
158	0x3d11a0b9	0.035553668
159	0x3d2bcb77	0.041942086
160	0x3dcdcc4c	0.10048732
161	0x3e637f8b	0.22216623
162	0x3d1a9638	0.037740916
163	0xbd955657	-0.07291859
164	0xbc45b1f8	-0.012066357
165	0x3e33ee7a	0.1757144
166	0x3d328bb9	0.04359028
167	0xbde0fc70	-0.10985649
168	0x3cc84928	0.024448946
169	0x3daba582	0.083811775
170	0x3d686933	0.05674095
171	0xbd2988b1	-0.041390125
172	0x3d1224c3	0.03567959
173	0x3d5a4685	0.05328991
174	0x3dc9ba95	0.09850041
175	0xbdde8776	-0.10865681
176	0xbd0fb7ab	-0.03508727
177	0x3da22704	0.07917598
178	0xbc8d6deb	-0.017264327
179	0xbd13d1f2	-0.03608889
180	0x3d5a2d8e	0.0532661
181	0x3d18809b	0.037232023
182	0xbd066252	-0.03280861
183	0xbd7b7764	-0.061393157
184	0xbcd45d2f	-0.02592334
185	0xbca12b12	-0.019673858
186	0x3c598669	0.013276675
187	0x3e04c999	0.12967528
188	0xbe1928ae	-0.14956924
189	0xbdabcc21	-0.08388544
190	0x3de0cb5a	0.10976286
191	0xbc80b005	-0.015708933
192	0x3b9b7b95	0.0047449567
193	0xbd66b906	-0.056328796
194	0xbc921852	-0.017833862
195	0x3e156ea1	0.14592983
196	0x3cccf0a4	0.02501709
197	0xbd0b88ab	-0.034065884
198	0xbd1b248c	-0.03787665
199	0x3d55ae54	0.052168205
200	0x3d0468c0	0.03232646
201	0x3d55c71c	0.05219184
202	0xbd2b2d14	-0.041791037
203	0xbcb1bab6	-0.021695476
204	0xbd1913b6	-0.037372313
205	0xbe1aa685	-0.15102585
206	0xbcaf41dc	-0.021393709
207	0xbaa2274e	-0.0012371333
208	0xbc73778a	-0.014860043
209	0x3cc37c2d	0.023862923
210	0x3c69d65b	0.014272298
211	0x3c44a9aa	0.012003342
212	0xbe0e14a5	-0.13875063
213	0xbd8bb231	-0.06821097
214	0x3cbdb53d	0.02315771
215	0xbdba8772	-0.091078654
216	0xbc2dc4a0	-0.010605961
217	0x3d68a8e5	0.056801695
218	0xbc3f6b43	-0.011683288
219	0xbc2ec5a6	-0.01066724
220	0xbd438f55	-0.047744114
221	0xbd9d5ec3	-0.0768409
222	0xba12ac0f	-0.0005595097
223	0x3e257265	0.1615692
224	0xbd64f206	-0.055894874
225	0xbd894635	-0.06702844
226	0x3d26920f	0.040666636
227	0xbce81947	-0.028332366
228	0x3de3fe86	0.11132531
229	0x3bbd4382	0.00577587
230	0x3dcaa3db	0.09894534
231	0xbdbe87ba	-0.093032315
232	0xbd9a535b	-0.0753543
233	0xbd90b1de	-0.070651755
234	0x3ce96350	0.028489739
235	0xbddbbe60	-0.107296705
236	0xbd92f896	-0.0717632
237	0x3d380beb	0.04493324
238	0xbd197fa0	-0.03747523
239	0xbd6a2d61	-0.057172183
240	0xbdb5cba9	-0.08876736
241	0xbd8d3681	-0.068951614
242	0x3d3e68ca	0.046486653
243	0xbd431354	-0.047625855
244	0xbe412750	-0.18862653
245	0xbd90bc8d	-0.07067213
246	0x3c47e601	0.012200833
247	0xbd9a79a5	-0.07542733
248	0xbcaaa3f7	-0.020830138
249	0x3b2e5776	0.0026602424
250	0xbddafb1f	-0.10692429
251	0x3da54a40	0.08070803
252	0x3e0449ca	0.12918773
253	0x3de8c43a	0.11365552
254	0x3c131699	0.008977556
255	0xbb3fe654	-0.0029281573

network_body._body_endoder.seq_layers.0.bias f4 [256]
0	0xbc94969f	-0.018138228
1	0xbb4c0253	-0.0031129315
2	0x3b0be51e	0.0021346281
3	0xbc84fbe6	-0.016233396
4	0xbca5e82d	-0.020252312
5	0xbc706a50	-0.014673784
6	0xbca052a2	-0.019570652
7	0xbc3d63ba	-0.011559421
8	0x3ce1d97d	0.027569527
9	0x3c678145	0.014129941
10	0xbd087f4c	-0.033324525
11	0x3c7d89a6	0.0154747125
12	0x3cbe0f2a	0.02320059
13	0xbb67b27b	-0.0035354185
14	0x39ab8458	0.00032714265
15	0xbcecad97	-0.028891368
16	0xbc7c5c5e	-0.015402881
17	0xbbb88796	-0.0056313975
18	0x3b96ba50	0.004599847
19	0xbca299a6	-0.019848656
20	0x3cd28d15	0.025702039
21	0xbc973f01	-0.01846266
22	0xbc4bec12	-0.01244642
23	0xbcb2b250	-0.021813542
24	0x3b896b37	0.004193689
25	0xbbf4f773	-0.0074757873
26	0x3c918bd2	0.017766867
27	0x3c742fd7	0.014903984
28	0x3c17b5db	0.009259666
29	0x3ce1a9d4	0.0275468
30	0x3c113661	0.008863063
31	0xbd0dd18c	-0.034623668
32	0xbd07ca83	-0.033152115
33	0x3bd2a2bd	0.0064280913
34	0xbceaf0b9	-0.028679239
35	0xbd025b3e	-0.031825297
36	0xbcf8726f	-0.030328004
37	0xbcd64910	-0.026157886
38	0xbc86a206	-0.01643468
39	0xbd49a1b0	-0.049226463
40	0xbcc0267d	-0.023455853
41	0x3d272e73	0.04081578
42	0xbb50e74b	-0.0031876143
43	0xbcc1f4be	-0.023676272
44	0xbd0284c1	-0.031864885
45	0xbd006bc9	-0.031352792
46	0xbcaeba71	-0.021329137
47	0xbc9bf049	-0.019035475
48	0xbc7457ed	-0.014913541
49	0x3abdbcea	0.0014475856
50	0xbd5457a7	-0.051841404
51	0xbd179b08	-0.037013084
52	0x3d188b39	0.037242148
53	0xbb4271ff	-0.0029669998
54	0xbd19b729	-0.03752819
55	0xbd62b80b	-0.0553513
56	0x3b8e0af1	0.0043348004
57	0xbcf183d0	-0.029481798
58	0xbc9a2bd4	-0.018819727
59	0xbc88f17c	-0.016716711
60	0xbcf4fb98	-0.029905125
61	0xbc7284a8	-0.0148021355
62	0xbcf77255	-0.030205885
63	0xbcdd512a	-0.027016241
64	0x3c934d43	0.017981177
65	0xbc76c9c8	-0.015062757
66	0x3be8d60f	0.007105596
67	0x3aa4694f	0.0012543591
68	0xbc638885	-0.013887529
69	0x3c48c571	0.012254105
70	0xbd589005	-0.052871723
71	0xbca3974a	-0.019969601
72	0xbd3745dc	-0.044744357
73	0xbb7d6152	-0.0038662744
74	0x3d3ba483	0.045811187
75	0xbc7be491	-0.015374319
76	0x3c942d58	0.018088028
77	0xbd0890a8	-0.03334108
78	0x3d2168ac	0.039406464
79	0x3c7c3b40	0.015394986
80	0xbd18d780	-0.03731489
81	0xbceca2d2	-0.028886233
82	0x3c0c0137	0.0085452115
83	0x3cfa5380	0.030557394
84	0xbd5fb942	-0.054620035
85	0xbbadd684	-0.0053051133
86	0xbcbdb9d6	-0.023159903
87	0xbcb7f652	-0.022456322
88	0xbc2e1c8c	-0.010626923
89	0xbbb36c1f	-0.0054755355
90	0x3ca3b0e7	0.019981815
91	0x3ccf0484	0.025270708
92	0x3c0d9330	0.008641049
93	0x3c5f98d6	0.013647279
94	0xbc784eb6	-0.015155485
95	0xbad7884c	-0.0016443818
96	0x3c29b838	0.010358863
97	0xbd7328b0	-0.059364974
98	0xbcd97863	-0.026546663
99	0xbc486478	-0.012230985
100	0xbcd332be	-0.025781032
101	0x3afea22a	0.0019426991
102	0xbcd7be78	-0.02633594
103	0x3cb0f28f	0.021600036
104	0x3c7d3e2f	0.01545672
105	0x3c8f4727	0.017489983
106	0xbc452828	-0.0120335
107	0x3c5680ac	0.013092201
108	0xbd6c974a	-0.057761468
109	0xbba315ab	-0.0049769483
110	0xbd125dd8	-0.035734028
111	0xbd2edfe2	-0.04269398
112	0x3caf68f7	0.021412356
113	0xbcf45713	-0.029826676
114	0x3bfc52c5	0.0077002966
115	0xbcbdcf0c	-0.023170017
116	0xbd1f3aa3	-0.03887428
117	0xbc7fe6e7	-0.015619016
118	0xbd452889	-0.04813436
119	0x3d5546b2	0.052069373
120	0x3c93a670	0.0180237
121	0x3d11c0da	0.03558431
122	0xbc9fc010	-0.019500762
123	0xbd0c0c87	-0.034191635
124	0xbc08c25f	-0.008347123
125	0x3cae51f8	0.02127932
126	0xbcc3fe39	-0.023924934
127	0xba43a95e	-0.00074638973
128	0xbd02444e	-0.03180342
129	0xbbd50055	-0.0065002837
130	0x3b6cb6df	0.0036119742
131	0xba6321b8	-0.0008664387
132	0xbd3d7f0e	-0.046263747
133	0xbc8a63a4	-0.016893215
134	0xbc87fc81	-0.016599895
135	0xbbaf9967	-0.005358863
136	0xba40bcc5	-0.00073523476
137	0x3c164913	0.009172696
138	0x3b916f70	0.004438333
139	0xbbd038c8	-0.006354425
140	0xbd5b307a	-0.053513028
141	0xbd0d9ff2	-0.034576364
142	0xbced50d4	-0.028969206
143	0xbd66fac9	-0.05639151
144	0xbc7e734b	-0.015530418
145	0x3c1fc6ce	0.009751989
146	0xbc0aa92e	-0.008463187
147	0x3ad861dc	0.0016508657
148	0x3cc1393e	0.023586866
149	0xbd250d87	-0.040296104
150	0xbd5a3c8a	-0.05328039
151	0xbc7f6fdc	-0.015590634
152	0x3cd67f2e	0.02618369
153	0x3c82940e	0.015939739
154	0x3ca4a02a	0.020095903
155	0xbc9d52d9	-0.019204544
156	0xbc5b3922	-0.013380321
157	0x3aa28577	0.0012399395
158	0xbc909f81	-0.017654182
159	0xbc24e15c	-0.0100634955
160	0x39f89d88	0.00047419616
161	0x3c4febbc	0.012690481
162	0xbbe740aa	-0.007057269
163	0xbd20f441	-0.03929544
164	0xbd2ac862	-0.041695006
165	0xbcad8b54	-0.0211846
166	0xbce284cb	-0.027651211
167	0x3d124ee3	0.035719763
168	0x3d391210	0.04518324
169	0xbcf4f8cd	-0.029903794
170	0xbcc9a4f2	-0.024614785
171	0xbcd94498	-0.026521966
172	0xbd023db2	-0.03179712
173	0x3b8390b4	0.0040150527
174	0xbcb42fea	-0.021995503
175	0xbc9284c1	-0.017885568
176	0xbd0fe018	-0.03512582
177	0xba4c26a9	-0.0007787743
178	0x3c0c41d8	0.00856062
179	0xbc8c812e	-0.017151441
180	0xbc4051ea	-0.01173828
181	0x3c02deff	0.007987737
182	0x3c9f99cd	0.019482518
183	0xbcf2881a	-0.029605914
184	0x39c83cee	0.0003819237
185	0x3bb3d51d	0.0054880516
186	0xbd4208b5	-0.047371585
187	0xbca5bf48	-0.020232812
188	0xbd3a9336	-0.045550548
189	0x3b8943e4	0.0041890014
190	0xbc97887b	-0.018497696
191	0xbcff22a8	-0.031144455
192	0xbcaae62a	-0.020861704
193	0x3c9ef419	0.019403504
194	0xbd0e7099	-0.03477535
195	0xbc56b976	-0.013105741
196	0x3cb5a436	0.022173028
197	0xbc5e4193	-0.013565439
198	0x3b578bb7	0.0032889673
199	0x3ced1bcb	0.028943917
200	0xbd273960	-0.0408262
201	0xbb672e1f	-0.0035275293
202	0x3cba371a	0.022731353
203	0xba8fd07b	-0.0010972166
204	0xbbc8f995	-0.006133268
205	0x3ac13ce4	0.0014742878
206	0xbb810f1c	-0.0039385688
207	0x3bcd08a6	0.0062571345
208	0xbb847c2c	-0.0040431228
209	0x3d0d31db	0.034471374
210	0xbb50c051	-0.003185291
211	0xbb77e17e	-0.0037823613
212	0x3c87d7bc	0.016582362
213	0x3c833b43	0.01601947
214	0x37e072b8	2.6756301e-05
215	0x38f4720f	0.00011656072
216	0x3cddc57a	0.027071703
217	0x3aada108	0.0013246844
218	0xbcb8d2ac	-0.022561394
219	0xbcd10872	-0.025516722
220	0xbd09664c	-0.033544824
221	0x3d14c17b	0.03631733
222	0x3c0ad042	0.008472504
223	0x3b94d08e	0.004541463
224	0xbc882ac9	-0.016621964
225	0xbd1032fd	-0.035204876
226	0xbd3cdcde	-0.046109073
227	0x3cb2d797	0.021831317
228	0x3cce9220	0.025216162
229	0xbba8279a	-0.005131674
230	0xbb8b345f	-0.0042481865
231	0xbd1c00d9	-0.038086746
232	0x3c150977	0.009096495
233	0xbb89c755	-0.0042046704
234	0xbcc30676	-0.023806792
235	0x3a6f2dfe	0.000912398
236	0xbd03f8b2	-0.032219596
237	0x3c88176b	0.016612729
238	0x3d88f4f5	0.06687347
239	0xbc5f6bab	-0.01363651
240	0xbd365c38	-0.04452154
241	0x3d1f6467	0.03891411
242	0x3b1f027d	0.0024262958
243	0xbc8c551f	-0.017130433
244	0xbd15794b	-0.036492627
245	0x3ca10e8b	0.019660255
246	0xbb5e42ec	-0.00339144
247	0xbc22c158	-0.009933792
248	0x3ce9bd84	0.02853275
249	0xbd4486e7	-0.047980215
250	0x3c01fed2	0.007934289
251	0xbd4958d8	-0.049156994
252	0x3c1bdbd4	0.00951286
253	0xbcf04626	-0.029330324
254	0xbd1d80b8	-0.038452834
255	0xbd03c21e	-0.032167546

network_body._body_endoder.seq_layers.2.weight f4 [256, 256]
0	0x3dd49b88	0.10381228
1	0x3b950262	0.004547403
2	0xbbd5c76c	-0.006524017
3	0xbdb48811	-0.08815015
4	0x3b38c5d8	0.0028194096
5	0xbc150cbc	-0.009097274
6	0xbdf08327	-0.11743765
7	0x3ddbabca	0.107261255
8	0x3b142bf5	0.0022609208
9	0x3b48cf3d	0.0030641102
10	0xbc5a5573	-0.013326037
11	0xbd392fb0	-0.045211494
12	0x3dc28ff8	0.09500116
13	0xbce4b41a	-0.02791791
14	0xbdb7b20b	-0.08969506
15	0xbcd6ee07	-0.026236547
16	0x3cbbfe4f	0.022948412
17	0xbd99facb	-0.07518538
18	0x3c370495	0.011170526
19	0x3d11e9da	0.03562341
20	0xbe009339	-0.12556161
21	0x3d9b03e8	0.075691044
22	0x3dba2922	0.09089877
23	0xbb512b43	-0.0031916655
24	0xbcdec6f2	-0.027194474
25	0x3d43b483	0.04777957
26	0xbce1df7d	-0.027572388
27	0xbdaa9c40	-0.083305836
28	0x3c984672	0.018588278
29	0x3db0b0f9	0.08627505
30	0x3dcc6458	0.099800766
31	0xbe23374f	-0.15939067
32	0x3c1eba3e	0.009687958
33	0xbcc1188b	-0.023571273
34	0xbc454414	-0.012040157
35	0x3e10c221	0.14136554
36	0x3cfa7f4b	0.030578276
37	0xbd0ab22a	-0.033861317
38	0xbb8ff6ef	-0.0043934505
39	0xbd1c869e	-0.03821432
40	0x3d4b16d8	0.049582332
41	0x3aefcc58	0.0018295152
42	0x3c76d03c	0.015064295
43	0x3d7418f0	0.059594095
44	0x3c6f4710	0.014604345
45	0x3b6c4a82	0.0036055152
46	0xbd40abc6	-0.047038816
47	0x3cc93407	0.024560941
48	0x3e585475	0.21125968
49	0x3e08e9c8	0.1337043
50	0x3d9036e1	0.07041717
51	0xbd86ff4a	-0.06591661
52	0x3cf564ec	0.02995535
53	0xbd0a6243	-0.033785116
54	0xbc3fcb88	-0.0117062405
55	0xbe07303e	-0.13201997
56	0x3d63bf18	0.055602163
57	0x3c50c2c1	0.012741745
58	0x3e0d9c3c	0.1382913
59	0xbd1e73a6	-0.03868451
60	0xbe375e0e	-0.17906973
61	0xbdb48685	-0.0881472
62	0xbe1cc86e	-0.15310833
63	0xbd1afc4a	-0.037838258
64	0xbd1e16a4	-0.03859581
65	0xbc120af6	-0.008913746
66	0xbe480860	-0.19534445
67	0xbe2c46fb	-0.16823952
68	0xbc430b8a	-0.011904607
69	0x3d6b5994	0.057458475
70	0xbc70309f	-0.01466003
71	0xbd94f977	-0.07274144
72	0x3d73ae8d	0.059492636
73	0x3ca2df79	0.01988195
74	0x3de1fdbd	0.11034725
75	0xbd332357	-0.043734875
76	0x3d7b86b7	0.06140777
77	0x3d4080e0	0.046997905
78	0x3d93da34	0.07219353
79	0x3d5f86a2	0.054571755
80	0x3d8723c9	0.06598622
81	0xbc97963d	-0.018504256
82	0xbe068731	-0.13137509
83	0x3d5cbfbf	0.0538938
84	0x3cb6c77e	0.022311922
85	0x3d29f9a7	0.041497853
86	0x3d865ccc	0.06560668
87	0xbdbb403a	-0.091431096
88	0x3ce45522	0.027872626
89	0xbc88f70d	-0.016719365
90	0x3d20d2e5	0.039263625
91	0x3e840a9d	0.25789347
92	0xbd3f8b58	-0.046763748
93	0xbceff6e0	-0.029292524
94	0xbe04236b	-0.12904136
95	0xba6b542d	-0.0008977082
96	0xbd790bd6	-0.060802303
97	0xbcc05bdb	-0.0234813
98	0x3d75506f	0.05989116
99	0x3d8a360e	0.06748591
100	0xbdcdc716	-0.10047738
101	0x3d87c16b	0.066286884
102	0xbc9a486c	-0.018833362
103	0x3cd06584	0.025439031
104	0xbc800271	-0.015626164
105	0x3bc19e0a	0.0059087323
106	0x3dee02ed	0.11621652
107	0xb9aa2ac7	-0.00032456798
108	0xbd5621c0	-0.05227828
109	0xbdaa9770	-0.08329666
110	0x3d8da6e6	0.06916599
111	0xbe14b607	-0.14522563
112	0x3d482a85	0.048868675
113	0x3cd9be53	0.026580011
114	0xbde3d505	-0.111246146
115	0x3d8dcdf2	0.069240466
116	0xbd39e129	-0.045380745
117	0xbc99934a	-0.01874699
118	0xbcce1976	-0.025158625
119	0xbdc80ea0	-0.097684145
120	0x3e0572c4	0.13032061
121	0x3d081c75	0.033230264
122	0x3cd6a738	0.026202783
123	0xbc91232f	-0.017716972
124	0x3caed76b	0.021342954
125	0xbd8aba15	-0.067737736
126	0xbcf09b35	-0.029370883
127	0x3d1cb259	0.038256023
128	0x3d3a7777	0.045524087
129	0xbd50b2d8	-0.05095181
130	0x3d67ff59	0.056640003
131	0x3de288a2	0.11061217
132	0xbcd368ae	-0.025806751
133	0x3c58126a	0.013187984
134	0x3a1d1388	0.0005991985
135	0x3cc20f73	0.023689007
136	0xbc4855d2	-0.012227492
137	0xbd27d4a6	-0.04097428
138	0x3d735ff8	0.059417695
139	0xbbc3b57d	-0.005972563
140	0x3ce1c561	0.027559938
141	0xbdcf8024	-0.10131863
142	0xbd1d7bb0	-0.038448036
143	0x3c672d85	0.014109974
144	0x3d27818a	0.040895022
145	0xbcbf03b9	-0.023317205
146	0x3d590b2c	0.05298917
147	0xbcab133e	-0.020883199
148	0x3a854912	0.0010168871
149	0xbdafe31e	-0.08588241
150	0x3cef193f	0.029186843
151	0xbd5bf7e0	-0.05370319
152	0xbdb306a1	-0.08741499
153	0x3afd884e	0.001934299
154	0xbd63f6e9	-0.055655394
155	0xbc8f837c	-0.017518751
156	0xbde7e3b3	-0.11322727
157	0xbcf821c0	-0.03028953
158	0x3cb21cc4	0.021742232
159	0xbdaac218	-0.08337802
160	0xbd6cc750	-0.057807267
161	0x3df096e9	0.11747534
162	0x3ab16e86	0.0013536967
163	0x3d37cd4f	0.044873532
164	0xbd51be8a	-0.051207103
165	0xbdcab209	-0.09897239
166	0x3c521d72	0.012824403
167	0xbd82ba77	-0.063832216
168	0x3d994597	0.07483976
169	0xbe3ad7d6	-0.18246397
170	0xbd359c29	-0.04433838
171	0xbc518b4a	-0.012789557
172	0xbd8ea951	-0.06965888
173	0x3d73282d	0.059364486
174	0xbd9501ec	-0.07275757
175	0x3db22d2e	0.087000236
176	0xbd3b5e4d	-0.04574423
177	0x3d935c58	0.071953475
178	0xbbc6c415	-0.0060658553
179	0xbc029c3f	-0.007971822
180	0x3dcd9198	0.100375354
181	0x3d5518f8	0.052025765
182	0x3ccd05da	0.025027204
183	0x3cb1103d	0.021614188
184	0xbc13f6ed	-0.00903104
185	0x3d0e89a0	0.03479922
186	0x3d850f5f	0.064970724
187	0x3deda343	0.11603405
188	0xbd8c874c	-0.06861743
189	0x3d50d87d	0.05098771
190	0xbd8e9c74	-0.06963435
191	0x3c98e3b2	0.018663261
192	0xbd2949f0	-0.041330278
193	0x3d19363e	0.037405245
194	0xbd863134	-0.065523535
195	0xbe07cc1f	-0.1326146
196	0x3c292bd5	0.010325392
197	0xbdeb1fa5	-0.11480645
198	0x3dc03c61	0.09386516
199	0x3d62cc15	0.05537041
200	0xbd289c7c	-0.04116486
201	0xbdabd3cf	-0.08390009
202	0x3dbb3bc3	0.09142258
203	0xbd99ab65	-0.07503394
204	0x3c086536	0.008324912
205	0xbde58916	-0.11207788
206	0xbd13b9b1	-0.03606576
207	0xbd33864e	-0.043829255
208	0x3d718d03	0.05897237
209	0xbd166b7e	-0.036723606
210	0x3c9fdddf	0.019514976
211	0xbc6a5404	-0.014302257
212	0xbc0ac569	-0.008469918
213	0xbdb11f58	-0.086485565
214	0xbd43ae84	-0.047773853
215	0x3d9bc86c	0.07606587
216	0xbda963c0	-0.08270979
217	0xbd809988	-0.06279284
218	0xbaa80009	-0.0012817393
219	0xbc7ec473	-0.015549767
220	0xbda37025	-0.07980374
221	0x3dc2391a	0.094835475
222	0x3d3f67da	0.0467299
223	0x3d3605e8	0.044439226
224	0xbd093d5b	-0.03350578
225	0xbd14689c	-0.036232576
226	0x3cbab416	0.02279095
227	0x3d06e2de	0.0329312
228	0x3e00a2ed	0.12562151
229	0xbd3e8ad7	-0.046519127
230	0x3e125dd2	0.14293602
231	0x3c88ca4b	0.016698023
232	0x3cc0bf2e	0.023528662
233	0x3cf716eb	0.030162295
234	0x3bd68a84	0.006547274
235	0xbb50a14f	-0.0031834429
236	0x3d11f675	0.03563543
237	0xbc02daec	-0.007986765
238	0xbc7d99ab	-0.015478532
239	0xbcab6ae8	-0.020925
240	0xbd8a6f2d	-0.06759486
241	0x3dd4f92d	0.10399089
242	0x3dd5857d	0.104258515
243	0xbc22d839	-0.009939247
244	0x3dfde842	0.12397815
245	0x3ce5a444	0.02803243
246	0x3c0b4924	0.008501325
247	0xbd507bfb	-0.050899487
248	0x3db45d3c	0.088068455
249	0xbc8587b1	-0.016300054
250	0xbb828fbf	-0.003984421
251	0x3de93b98	0.1138832
252	0xbd3a1a27	-0.045435097
253	0x3d59fffb	0.053222638
254	0xbd2f598b	-0.042810004
255	0x3c5646f3	0.013078439

network_body._body_endoder.seq_layers.2.bias f4 [256]
0	0x3c8f5582	0.017496828
1	0x3c1d123b	0.009586866
2	0xbc9de819	-0.019275712
3	0xbb1f76fb	-0.0024332392
4	0xbce32bd8	-0.027730867
5	0xbca738bb	-0.020412793
6	0xbb2dd1ee	-0.0026522833
7	0xbc5c40c1	-0.013443173
8	0x3c76832b	0.015045921
9	0x3c00fbaf	0.007872506
10	0x380724cb	3.2220774e-05
11	0x3c2b516f	0.010456427
12	0x3c83dde4	0.016097017
13	0xbc092322	-0.008370193
14	0xbc1ad962	-0.009451242
15	0x3ae9f4b5	0.0017849418
16	0xbcb040fb	-0.02151536
17	0xbcde12fd	-0.027108664
18	0xbd0395b6	-0.032125197
19	0xbb9c5472	-0.004770809
20	0x3b921281	0.0044577722
21	0x3bdb7b5c	0.006698055
22	0xbba5c6cb	-0.0050590984
23	0x3c8bee3d	0.017081374
24	0x3d0b0739	0.033942435
25	0x3ac5bd5c	0.0015086341
26	0xbc9e6ce5	-0.019339034
27	0x3bf2cdc3	0.0074097826
28	0x3bc8c44a	0.006126915
29	0xbc6c5fff	-0.014427184
30	0xbc3a3b5a	-0.01136669
31	0xbcd61f1d	-0.026137883
32	0xbcbd63fe	-0.023118969
33	0x3a449c12	0.0007500063
34	0xbcc73d5e	-0.024321254
35	0xbc5b19fd	-0.013372895
36	0xbc8ef84f	-0.017452387
37	0xbc2418c7	-0.010015673
38	0xbc9b0d3c	-0.01892721
39	0x3c337cf8	0.010955088
40	0xbc6b63de	-0.014367072
41	0x3c4e0fe1	0.012577028
42	0xbbf7cdd5	-0.007562379
43	0x3c8171ad	0.015801275
44	0xbc48832c	-0.012238305
45	0xbceb9432	-0.028757188
46	0xbc238d1e	-0.009982375
47	0xbca2a38c	-0.019853376
48	0xbd0fe263	-0.03512801
49	0xbc05d4c6	-0.008168405
50	0xbc7bd77d	-0.015371201
51	0xbcd86c3f	-0.026418803
52	0x3b61ae29	0.0034436083
53	0xbc90a28a	-0.01765563
54	0x3b73cdc4	0.0037201503
55	0xbc9031c5	-0.017601857
56	0x3b0fe33e	0.0021955515
57	0x3bd87016	0.0066051586
58	0xbb365db9	-0.002782686
59	0xbc03258a	-0.0080045555
60	0xba5e905a	-0.0008490138
61	0xbceb6aa3	-0.028737372
62	0xbc5ab395	-0.01334848
63	0xbced36f1	-0.028956862
64	0xbcdac1e4	-0.026703782
65	0xbc36570f	-0.011129155
66	0xbc917ba4	-0.017759152
67	0xbca7226b	-0.020402154
68	0x3ce16e1a	0.02751832
69	0xbbb52b60	-0.0055288523
70	0xbba088ed	-0.0048991353
71	0xbcd773b2	-0.026300285
72	0xbc1a7f55	-0.009429772
73	0xbce6ece1	-0.028189125
74	0xbc02940e	-0.007969869
75	0x3cb3f0de	0.02196544
76	0x3ad12fd3	0.0015959687
77	0xbc29a0d8	-0.01035329
78	0xbc99a8ea	-0.018757302
79	0xbca69987	-0.02033688
80	0xbc9a84fc	-0.01886224
81	0xbb4314ca	-0.002976703
82	0xbbf71a3c	-0.007540969
83	0x3c76905c	0.015049066
84	0xbab157bb	-0.0013530174
85	0xbcf12d9d	-0.029440695
86	0xbc07f68a	-0.008298526
87	0xbc519a7a	-0.012793178
88	0x3c689f19	0.014198088
89	0x3c9e8ac2	0.019353274
90	0x3c83e189	0.016098754
91	0x3c623fe0	0.013809174
92	0xbd00685c	-0.031349525
93	0x3cc182f5	0.023622015
94	0xbc0afd53	-0.008483249
95	0x3c77aacb	0.015116404
96	0x3c1ee35f	0.009697764
97	0xbcff1e71	-0.031142445
98	0xbab7ff43	-0.0014037866
99	0xbbb2aa4a	-0.005452429
100	0x3a1af644	0.000591133
101	0x3c9feb8c	0.019521497
102	0xbc29b621	-0.010358364
103	0xbbfa9a91	-0.0076478203
104	0xbc74bb41	-0.014937223
105	0xbd022745	-0.03177573
106	0xbc5bc1eb	-0.013412933
107	0xbcd46fe0	-0.025932252
108	0x3c853ebc	0.016265266
109	0xbbeb7747	-0.00718585
110	0xbc1c09a3	-0.009523782
111	0xbba6393e	-0.005072742
112	0x3be864fd	0.007092117
113	0x3ba4dab5	0.0050309547
114	0x3ccac3af	0.024751512
115	0x3be6e423	0.007046239
116	0x3bc380b3	0.00596627
117	0xbd062121	-0.032746438
118	0xbc53cc89	-0.012927183
119	0xbc374d58	-0.011187874
120	0x3be4b1c0	0.0069791973
121	0xbbd52972	-0.006505185
122	0xbc521b7d	-0.0128239365
123	0xbc882874	-0.016620852
124	0xbb9c075e	-0.0047616204
125	0xbccf0097	-0.025268836
126	0xbbb5e7b3	-0.0055513023
127	0xbc506033	-0.012718248
128	0xbc292fd8	-0.010326348
129	0xb7bca084	-2.2486092e-05
130	0xbc5af8d6	-0.013364991
131	0x3c8dbb8c	0.017301343
132	0xbcf67c6c	-0.030088626
133	0xbc120a1b	-0.008913542
134	0xbd06fe44	-0.03295733
135	0xbcee58b0	-0.029095024
136	0xbc367a70	-0.01113759
137	0x3a01e301	0.00049547857
138	0xbb8f937c	-0.004381595
139	0x3bcc058e	0.006226248
140	0xbc9fae8a	-0.019492406
141	0x3b42f754	0.002974947
142	0xbc176939	-0.009241396
143	0xbb4a6ae1	-0.0030886459
144	0xbb73e920	-0.003721781
145	0x3c812044	0.015762456
146	0xbcb21493	-0.021738326
147	0xbc6d99aa	-0.014501968
148	0x3c5202f4	0.012818087
149	0x3d14a124	0.03628649
150	0x3b993d74	0.0046765152
151	0x3c3412ab	0.010990779
152	0xbd087cd7	-0.03332218
153	0xbc7c0598	-0.015382193
154	0x3c3cffc7	0.011535591
155	0x3bbd84db	0.00578366
156	0x3cbb0a0f	0.022831945
157	0xbb511190	-0.0031901337
158	0xbcfe41bc	-0.031037204
159	0xbab045a5	-0.001344849
160	0x3c1eab0b	0.0096843345
161	0xbba2f0b3	-0.0049725412
162	0x39a2a097	0.00031018697
163	0x3cac3c3f	0.021024821
164	0x3cee410d	0.029083753
165	0xbc746df0	-0.014918789
166	0xbd057e1d	-0.032590974
167	0x3cc7312c	0.02431544
168	0xbb41f64d	-0.002959627
169	0xbbcc4296	-0.0062335236
170	0xbceabd88	-0.028654829
171	0x3a8558e0	0.0010173582
172	0xbc06f25c	-0.008236494
173	0xbccb91c9	-0.02484979
174	0x3c2a0cf4	0.010379065
175	0xbc310f9e	-0.010806946
176	0x39daafe7	0.00041711258
177	0x3b22c9d2	0.0024839533
178	0xbcc74402	-0.02432442
179	0xbc918112	-0.01776174
180	0xbc65a302	-0.014015915
181	0xbc8bc983	-0.017063862
182	0x3cbfd151	0.02341524
183	0xbd0394be	-0.032124273
184	0xbc26b712	-0.010175483
185	0xbc7f9981	-0.015600563
186	0xbcd35b2c	-0.02580031
187	0xbb8649a1	-0.0040981327
188	0x3d323fc7	0.043517854
189	0xbd16bf08	-0.036803275
190	0xbd027637	-0.03185102
191	0x3bbfa45f	0.005848452
192	0x3ca935ce	0.020655539
193	0xbcd495bc	-0.025950305
194	0xbc04f6ff	-0.008115529
195	0xbcdf9be0	-0.027296007
196	0x3cec172d	0.028819645
197	0xbc334efc	-0.010944124
198	0xbcd1a96a	-0.025593478
199	0xbcb16cb8	-0.021658286
200	0xbc57ec60	-0.013178915
201	0xb911aa34	-0.00013891683
202	0xbc49b56c	-0.012311321
203	0xbcf4e69e	-0.029895123
204	0xbc0071cc	-0.007839631
205	0xbc70e880	-0.01470387
206	0xb94dec59	-0.0001963837
207	0xbd32d5c1	-0.043660883
208	0x3d085ed1	0.03329355
209	0xba74b7cf	-0.0009335251
210	0x3aeb0f85	0.0017933702
211	0x3b5d1bf3	0.0033738583
212	0xbc41d639	-0.01183086
213	0xbc873721	-0.01650578
214	0xbd2ea557	-0.04263815
215	0xbc77ebe1	-0.0151319215
216	0xbc2b4c70	-0.010455236
217	0xbd2d5c7a	-0.04232452
218	0xbc2585bd	-0.0101026865
219	0xbcc5106b	-0.02405568
220	0xbd08901d	-0.033340562
221	0x3ced94f8	0.029001698
222	0xbc92465d	-0.017855817
223	0xbc24f81e	-0.010068921
224	0xbc3d0c71	-0.011538611
225	0x3acce5d5	0.001563246
226	0xbb251842	-0.002519146
227	0xbc9574d6	-0.018244188
228	0x3c6f49aa	0.014604965
229	0xbc864bae	-0.016393509
230	0xbd1cd92b	-0.038293045
231	0xbcc543ef	-0.024080245
232	0xbc0d7b1b	-0.008635308
233	0x39a34a22	0.00031145016
234	0xbc619d06	-0.013770347
235	0xbcac7c32	-0.021055315
236	0x3bc5c30e	0.006035215
237	0xbcdd0039	-0.026977645
238	0x3d436ff2	0.04771418
239	0xbafb7858	-0.0019185646
240	0xbbfff087	-0.0078106555
241	0xbcbc5715	-0.022990743
242	0xbd16f63a	-0.036855914
243	0xbcd88f3c	-0.026435487
244	0x3bb89359	0.0056327996
245	0x3d1bb94a	0.038018502
246	0xbc7736ba	-0.015088731
247	0x3b16f113	0.0023031875
248	0xbbfe90d0	-0.007768728
249	0x3d3762c6	0.044771932
250	0x3a31ff0b	0.00067900185
251	0xbc4ef4ee	-0.012631638
252	0xbbb7ecce	-0.005612946
253	0xbcb8b63b	-0.022547832
254	0xbc4e88f3	-0.012605893
255	0xbc6eb35b	-0.014569129

action_model._discrete_distribution.branches.0.weight f4 [4, 256]
0	0x3cc4adf9	0.024008738
1	0x3d011495	0.03151377
2	0x3b9c1945	0.0047637546
3	0xbcec2785	-0.028827438
4	0xbce7eff9	-0.02831267
5	0xbb8317be	-0.004000633
6	0x3c9d15f4	0.019175507
7	0xbca6402c	-0.020294271
8	0x3d634f2b	0.055495422
9	0x3d9164b0	0.07099283
10	0x3be1b45b	0.006887955
11	0x3ce75aea	0.028241593
12	0x3d105b76	0.035243474
13	0x3d01d2cb	0.03169517
14	0xbb073605	-0.0020631563
15	0xbc5d9130	-0.013523385
16	0xbca82055	-0.02052323
17	0xbb664fee	-0.0035142857
18	0xbbc0fd71	-0.0058895876
19	0xbbfb4955	-0.007668654
20	0xbbfcc4d1	-0.007713892
21	0xbd264ef8	-0.040602654
22	0xbca01873	-0.019542908
23	0xbc094fd4	-0.008380849
24	0x3cc24851	0.023716124
25	0xbc0b27e3	-0.008493396
26	0x3a5e4183	0.000847839
27	0x3c670897	0.014101169
28	0x3c0abb8c	0.008467566
29	0x3c01e661	0.007928462
30	0x3aea1e50	0.0017861817
31	0xbb4afd5d	-0.003097377
32	0x3c0e8c94	0.008700509
33	0x3d16270a	0.036658324
34	0x3b55d593	0.003262852
35	0xbc9ae292	-0.018906865
36	0xbce6c67b	-0.028170815
37	0xbd0e78b3	-0.034783076
38	0xbd34aa01	-0.04410744
39	0xbd1c3925	-0.038140435
40	0x3c1acc61	0.009448142
41	0x3d5b1450	0.05348617
42	0x3bfc8067	0.0077057364
43	0x3cddce12	0.027075801
44	0xba0c6145	-0.00053550705
45	0x3ca1ba60	0.01974219
46	0xbc9bbe3c	-0.01901161
47	0xbcc8d50a	-0.024515647
48	0xbd00f7d2	-0.03148634
49	0xbbe49fe3	-0.006977068
50	0xbcdb18c2	-0.026745204
51	0xbcbd2473	-0.02308867
52	0x3d8434d9	0.064553924
53	0xbc3837fe	-0.011243818
54	0x3ceade3e	0.028670426
55	0x3bacbcbd	0.005271523
56	0x3ac5a7e2	0.001507994
57	0x3c2a87b0	0.010408327
58	0xbccee9f9	-0.025258051
59	0x3bfc1329	0.0076927138
60	0x3c8af0e9	0.016960578
61	0x3b96fd74	0.0046078507
62	0xbcb9c65d	-0.022677595
63	0xbadc0066	-0.0016784787
64	0xbc11703f	-0.008876859
65	0x3cce1f91	0.025161536
66	0xbd379127	-0.044816162
67	0xbcdcc611	-0.026949914
68	0x3da4efb4	0.08053532
69	0xbcb83bcb	-0.022489449
70	0xbcefe035	-0.029281715
71	0xbd4b0757	-0.049567547
72	0xbd1e7e6b	-0.03869478
73	0xbc29c6f3	-0.010362375
74	0xbcb1e381	-0.021714928
75	0x3d1edecb	0.03878669
76	0xbcd6c3d8	-0.026216432
77	0x3ca5d946	0.020245206
78	0x3be99342	0.00712815
79	0xbbf3684e	-0.0074282056
80	0xbce2697f	-0.027638195
81	0xbb65cf16	-0.003506606
82	0x3c9ce10e	0.019150283
83	0x3a62e7e0	0.0008655768
84	0x3b8f60c9	0.0043755514
85	0xbaa41dc5	-0.0012521079
86	0x3a421832	0.0007404118
87	0xbc8b2f8d	-0.016990447
88	0x3cd72662	0.02626342
89	0x3c7d3d14	0.015456457
90	0x3c71d1a2	0.014759453
91	0xbcf92f93	-0.030418193
92	0xbcace164	-0.021103568
93	0x3d04e887	0.032448318
94	0xbc8b1970	-0.016979903
95	0x3cdd0d6d	0.026983941
96	0x3cdb7d25	0.026793072
97	0x3b909910	0.0044127777
98	0x3bdb7897	0.006697725
99	0xbd07cfdf	-0.033157226
100	0xbcc62b57	-0.024190588
101	0x3d03ad5e	0.032147758
102	0xbcfe017d	-0.031006569
103	0xbb4d66b3	-0.003134173
104	0x3cfda5b7	0.030962808
105	0xbcbfb3ae	-0.023401108
106	0x3c32576b	0.0108851
107	0xb94dd219	-0.00019628591
108	0x3cefe168	0.029282287
109	0xbc062498	-0.008187436
110	0xbb1b2dcd	-0.0023678422
111	0xbbd25c32	-0.006419682
112	0xba4e67a6	-0.0007873721
113	0xbd0a7a94	-0.033808306
114	0xbc7053be	-0.014668403
115	0x3d01aa6b	0.031656664
116	0x3c2a89ae	0.010408802
117	0xbae265b2	-0.0017272739
118	0x3ba4a55a	0.0050245943
119	0x3d5be2b8	0.053683013
120	0x3bf68aeb	0.0075238845
121	0xbd0ac178	-0.033875912
122	0xbc81f86d	-0.015865529
123	0xbc851c08	-0.016248718
124	0xbd1f8f01	-0.03895474
125	0xbbe61bf9	-0.0070223776
126	0xbca3dddc	-0.020003252
127	0xbba6d243	-0.005090983
128	0xb99c5747	-0.00029819665
129	0xbce303a0	-0.02771169
130	0xbb0259b5	-0.0019889895
131	0x3d2a9634	0.04164715
132	0xbceaf521	-0.02868134
133	0x3add2fc6	0.00168752
134	0xbc6ba7d3	-0.014383274
135	0xbc65e90e	-0.014032615
136	0xbb3e268e	-0.002901468
137	0xbb834835	-0.0040064105
138	0x3c746da0	0.014918715
139	0xbc5ce9e7	-0.013483501
140	0x3c9bd608	0.019022956
141	0x3c67d444	0.014149729
142	0xbc3e0ea5	-0.011600171
143	0xbd175b5f	-0.036952373
144	0xbc968218	-0.01837258
145	0x3d18e6e9	0.037329588
146	0xbbff2952	-0.007786908
147	0xba069b9b	-0.00051348814
148	0x3bae8321	0.0053256904
149	0x3cc227f8	0.0237007
150	0x3cd1c736	0.025607686
151	0x3c68226f	0.014168366
152	0xbceec7bc	-0.029147975
153	0xbcf65772	-0.030070994
154	0x3d484ff5	0.048904378
155	0x3c85e450	0.01634422
156	0x3d490b0c	0.0490828
157	0xbcda4630	-0.026644796
158	0xbbc9e7cd	-0.006161666
159	0xbc60f365	-0.013729905
160	0xbd19c189	-0.037538085
161	0xbd276de0	-0.04087627
162	0xbd2be54a	-0.041966714
163	0x3ce29e93	0.027663505
164	0x3d2e5e3d	0.04257034
165	0x3c1a2099	0.009407186
166	0x39f368b7	0.0004642659
167	0x3cc8d406	0.024515163
168	0xbd142370	-0.03616661
169	0xbd323b34	-0.04351349
170	0xbc088eb4	-0.008334804
171	0xbd078350	-0.033084214
172	0xbcdbdc09	-0.02683832
173	0xbc095285	-0.008381491
174	0x3c5586df	0.013032644
175	0xbc1bcff0	-0.009510025
176	0xbb5b0c9d	-0.0033424266
177	0xbcdbc08a	-0.026825208
178	0xbc1dd107	-0.0096323555
179	0xbc130f5c	-0.00897583
180	0xbd299b68	-0.041407973
181	0xbcb95e33	-0.022627926
182	0x3d5ea7d0	0.054359257
183	0xbbd5fb60	-0.0065302104
184	0x3c292188	0.010322936
185	0xbcb7f8d1	-0.022457512
186	0xbca007ac	-0.019534908
187	0xbc9a5235	-0.018838027
188	0x3d276d71	0.040875856
189	0xbc7893d3	-0.015171963
190	0xbb052fe5	-0.0020322737
191	0x3cb44363	0.022004789
192	0x3d072ab7	0.03299972
193	0x3ba069e5	0.004895436
194	0xbc925f64	-0.017867751
195	0xbb5a5d69	-0.0033319837
196	0x3d2fb600	0.042898178
197	0x3bddd73b	0.0067700422
198	0xbce5a59b	-0.028033068
199	0xbb470dfd	-0.0030373328
200	0xbca84714	-0.020541705
201	0x3c1a2a85	0.0094095515
202	0xba8de3fc	-0.0010825391
203	0x3be32fd2	0.006933191
204	0x3b41145f	0.0029461605
205	0xbcacb178	-0.021080717
206	0xbc787787	-0.015165216
207	0xbb2e80b6	-0.002662701
208	0x3d038377	0.032107797
209	0xbca8426e	-0.020539489
210	0xbd071f86	-0.032989047
211	0xbcbeaaf1	-0.02327487
212	0xbd1bbd5f	-0.038022395
213	0xbc7ad677	-0.0153099215
214	0x3bd79c8e	0.006579942
215	0xbc36aaa7	-0.011149085
216	0xbbfb31b3	-0.0076658367
217	0xbcf4cfc2	-0.029884223
218	0xbc9482a7	-0.018128706
219	0xbc8ddba6	-0.01731665
220	0xbc5c0cc7	-0.013430781
221	0x3c48209c	0.012214806
222	0xbd032fe9	-0.032028113
223	0xbc8c5b46	-0.017133366
224	0xbc802597	-0.015642924
225	0xbb0a69d9	-0.002112022
226	0x3cf3a04f	0.029739527
227	0xbc503495	-0.012707849
228	0x3cf0a9bb	0.029377809
229	0x3c8c1285	0.017098675
230	0x3a1f399f	0.0006073955
231	0xbc892ab9	-0.016744005
232	0xbc8bb767	-0.017055226
233	0xbc8dc8f4	-0.017307736
234	0xbce8c750	-0.028415352
235	0xbcd192eb	-0.025582751
236	0x3c2a31c9	0.010387846
237	0xbd09d50f	-0.033650454
238	0x3d1b25d0	0.037877858
239	0x3c9f5581	0.019449951
240	0x3c026bbe	0.007960258
241	0xbbb608dd	-0.005555256
242	0xb9a77a40	-0.00031943806
243	0x3c519e10	0.012794033
244	0x3cac3d00	0.02102518
245	0x3d1a23d9	0.037631843
246	0xba4b6cac	-0.0007760029
247	0xbad6af2c	-0.001637911
248	0xbc791e45	-0.015204971
249	0x3d0b73eb	0.034046095
250	0x3b8818b3	0.004153335
251	0x3c039575	0.008031239
252	0xbc3d2238	-0.011543803
253	0xbd23352d	-0.039845634
254	0xbc921afb	-0.01783513
255	0xbc273ac9	-0.010206887

action_model._discrete_distribution.branches.0.bias f4 [4]
0	0x3c076059	0.008262717
1	0xbc830a8b	-0.015996238
2	0xb93c1eb8	-0.00017940521
3	0x3c0a7523	0.008450779

onnx::Div_62 f4 [202]
0	0x3eb5b914	0.35492766
1	0x3e9345ef	0.28764293
2	0x3ee31dfd	0.44358817
3	0x3ec0fc56	0.37692517
4	0x3eddb62c	0.4330305
5	0x3ebda803	0.37042245
6	0x3ee31dfd	0.44358817
7	0x3ec17b88	0.3778956
8	0x3eddb62c	0.4330305
9	0x3ebe20d8	0.37134433
10	0x3edf2386	0.4358179
11	0x3ec1a020	0.37817478
12	0x3edb043e	0.42776674
13	0x3ebe3ccc	0.3715576
14	0x3ee0afd8	0.43884158
15	0x3ec24396	0.3794219
16	0x3edca040	0.4309101
17	0x3ebf0d77	0.3731496
18	0x3ee34027	0.44384882
19	0x3ec2c7e2	0.38043123
20	0x3ede27a1	0.4338961
21	0x3ebf85c1	0.37406734
22	0x3ee6bf32	0.45067745
23	0x3ec563a1	0.38552573
24	0x3ee33353	0.44375095
25	0x3ec2d600	0.38053894
26	0x3ee4fff7	0.44726536
27	0x3ec45f42	0.38353926
28	0x3ee094dd	0.43863574
29	0x3ec172c3	0.3778287
30	0x3ee6380e	0.4496464
31	0x3ec47555	0.38370767
32	0x3ee189ee	0.44050545
33	0x3ec1aa8f	0.37825438
34	0x3ee7b16a	0.45252544
35	0x3ec72356	0.38894147
36	0x3ee5622c	0.44801462
37	0x3ec66848	0.38751435
38	0x3ee8ad50	0.45444727
39	0x3ec6c7a2	0.38824183
40	0x3ee673e1	0.45010284
41	0x3ec62636	0.38701028
42	0x3ee59b10	0.44844866
43	0x3ebf4fa2	0.37365443
44	0x3ee25c1c	0.442109
45	0x3ebf085e	0.3731107
46	0x3ee1bec7	0.44090864
47	0x3ebc26c9	0.3674834
48	0x3edd902c	0.43274057
49	0x3ebc18f0	0.36737776
50	0x3ee241f3	0.4419094
51	0x3ebc1861	0.3673735
52	0x3edd94f4	0.43277705
53	0x3ebc3b48	0.36763978
54	0x3ee72d47	0.4515173
55	0x3ec0320c	0.37538183
56	0x3ee2ddaf	0.44309756
57	0x3ec04e7f	0.37559888
58	0x3eeafb17	0.4589469
59	0x3ec86181	0.3913689
60	0x3ee79a3a	0.45234853
61	0x3ec76835	0.3894669
62	0x3eea4ef2	0.45763355
63	0x3ec8bf20	0.39208317
64	0x3ee7c88c	0.45270193
65	0x3ec7d46e	0.39029258
66	0x3ee8b4ef	0.4545054
67	0x3ec5e122	0.38648325
68	0x3ee62c1e	0.44955534
69	0x3ec5582f	0.3854384
70	0x3ee77b23	0.45211133
71	0x3ec5dc11	0.3864446
72	0x3ee520d4	0.44751608
73	0x3ec5474a	0.38530952
74	0x3ee9c815	0.45660463
75	0x3ec6a0a6	0.3879444
76	0x3ee93bab	0.45553336
77	0x3ec6b21c	0.38807762
78	0x3ee6e6a3	0.45097837
79	0x3ec44280	0.38331985
80	0x3ee607fe	0.44927973
81	0x3ec43975	0.38325086
82	0x3ee56a59	0.448077
83	0x3ec3cfe3	0.38244542
84	0x3ee5041a	0.44729692
85	0x3ec3edfe	0.3826751
86	0x3ee430c8	0.44568467
87	0x3ec33b1b	0.3813103
88	0x3ee45eba	0.4460352
89	0x3ec36c4c	0.3816856
90	0x3ee9c472	0.45657688
91	0x3ec2dea5	0.3806049
92	0x3ee68bc3	0.45028505
93	0x3ec320bd	0.38110915
94	0x3ee9c472	0.45657688
95	0x3ec2602b	0.37963995
96	0x3ee68bc3	0.45028505
97	0x3ec2778a	0.37981826
98	0x3ebf329e	0.37343305
99	0x3e90b967	0.2826645
100	0x3eafd5e0	0.3434286
101	0x3e856886	0.26056308
102	0x3ef17044	0.47155964
103	0x3ec9540c	0.39321935
104	0x3edec6c7	0.4351103
105	0x3eb94a8c	0.36189687
106	0x3ef17044	0.47155964
107	0x3ec9f6bb	0.39446053
108	0x3edec6c7	0.4351103
109	0x3eb9c885	0.36285797
110	0x3eef235b	0.46706662
111	0x3ecaa2ed	0.39577428
112	0x3ed8dc29	0.4235547
113	0x3eb9a838	0.36261153
114	0x3ef09949	0.46991947
115	0x3ecb50b6	0.39710015
116	0x3ed8b809	0.42327908
117	0x3eb9e808	0.36309838
118	0x3ef27b59	0.47359732
119	0x3ecbaf79	0.39782313
120	0x3eda36e8	0.42620015
121	0x3eba3625	0.36369434
122	0x3ef55823	0.47918805
123	0x3ecdad1b	0.40171131
124	0x3edf4d06	0.43613452
125	0x3ebd6e82	0.36998373
126	0x3ef307d7	0.4746692
127	0x3ecd906b	0.40149245
128	0x3edc8340	0.43068886
129	0x3ebbecee	0.367042
130	0x3ef44db3	0.4771553
131	0x3ecd7a11	0.40132192
132	0x3eddfd36	0.43357247
133	0x3ebc16ad	0.3673605
134	0x3ef5cc84	0.48007596
135	0x3ecfcbd0	0.40585184
136	0x3eded4bf	0.43521687
137	0x3ebec511	0.37259725
138	0x3ef65a29	0.48115662
139	0x3ecf59d9	0.40498236
140	0x3ee0ee80	0.4393196
141	0x3ebeb368	0.3724625
142	0x3ef657c9	0.4811385
143	0x3ec885ca	0.39164573
144	0x3edd86a5	0.43266788
145	0x3eb74080	0.35791397
146	0x3ef33e05	0.47508255
147	0x3ec4a467	0.3840668
148	0x3ed90561	0.42386916
149	0x3eb3b94a	0.35102302
150	0x3ef383d3	0.4756151
151	0x3ec47d8e	0.3837704
152	0x3ed95778	0.42449546
153	0x3eb3b21e	0.3509683
154	0x3ef63008	0.4808352
155	0x3ec851ce	0.39124912
156	0x3edec6ca	0.4351104
157	0x3eb7eb4b	0.35921702
158	0x3ef4bb68	0.4779923
159	0x3ece158f	0.40250823
160	0x3ee47bca	0.44625694
161	0x3ec13758	0.37737536
162	0x3ef35e53	0.475329
163	0x3ece8c80	0.40341568
164	0x3ee3e11d	0.44507685
165	0x3ec1744b	0.37784037
166	0x3ef259da	0.47334176
167	0x3ecbabe0	0.39779568
168	0x3ee2094d	0.4414772
169	0x3ebd9c99	0.37033537
170	0x3ef10428	0.47073483
171	0x3ecbc3d1	0.39797834
172	0x3ee094e1	0.43863586
173	0x3ebd7319	0.37001875
174	0x3ef35e59	0.4753292
175	0x3eccbe45	0.39988914
176	0x3ee390dc	0.44446456
177	0x3ebf10d3	0.37317523
178	0x3ef0e3aa	0.47048694
179	0x3eca9088	0.39563394
180	0x3eded4b6	0.4352166
181	0x3ebbfe19	0.367173
182	0x3ef04527	0.4692776
183	0x3eca6bc0	0.39535332
184	0x3ede7770	0.434505
185	0x3ebc559b	0.36784062
186	0x3eeee760	0.466609
187	0x3ec9bbed	0.39401188
188	0x3edda7f9	0.43292215
189	0x3ebbd9c2	0.36689574
190	0x3eeffc29	0.4687207
191	0x3ec93c38	0.39303756
192	0x3ee4b1b2	0.4466682
193	0x3ebbe539	0.3669832
194	0x3eeffc29	0.4687207
195	0x3ec89c3e	0.39181703
196	0x3ee4b1b2	0.4466682
197	0x3ebb859e	0.3662538
198	0x3ebed347	0.37270567
199	0x3e93015b	0.28711972
200	0x3ebed347	0.37270567
201	0x3e93015b	0.28711972

onnx::Div_65 f4 [10]
0	0x3c01b6a7	0.007917083
1	0x3c01b6a7	0.007917083
2	0x3c01b6a7	0.007917083
3	0x3c01b6a7	0.007917083
4	0x3c01b6a7	0.007917083
5	0x3c01b6a7	0.007917083
6	0x3c01b6a7	0.007917083
7	0x3c01b6a7	0.007917083
8	0x3c01b6a7	0.007917083
9	0x3c01b6a7	0.007917083
