results/DemoTest2/PlayerBehaviour/PlayerBehaviour-24494.onnx (onnx, 281861 bytes, 8 tensors)

network_body.observation_encoder.processors.0.normalizer.running_mean f4 [10]
0.0 0.0 0.0 0.0 0.0 0.0 0.0 0.0
0.0 0.0
00000000: 0000 0000 0000 0000 0000 0000 0000 0000
00000010: 0000 0000 0000 0000 0000 0000 0000 0000
00000020: 0000 0000 0000 0000

network_body._body_endoder.seq_layers.0.weight f4 [256, 10]
-0.41940105 -0.15852667 0.5215614 0.198597 0.29062366 0.19500381 0.20784919 0.11833883
0.17230876 -0.13982318 -0.3510558 0.5690108 0.091569625 0.2919683 0.5176656 -0.21754439
-0.7090492 0.06271884 0.31338653 0.028847741 0.04332399 -0.20442781 0.010876713 -0.10753929
0.28395137 -0.17715307 -0.31849232 -0.47605473 0.058731493 0.33708578 0.010148913 -0.12190856
0.06314165 -0.05139431 0.9627216 -0.25669327 0.1492702 -0.36709282 -0.14122042 0.1701444
0.32327566 -0.29966357 -0.010542139 0.3782316 -0.12969242 -0.29122004 0.10899582 0.6467699
-0.3691712 0.23876663 0.08067513 -0.097042955 0.29996687 -0.42931235 -0.328857 -0.062641226
-0.45736346 0.2841417 -0.24211732 -0.36023313 -0.4224813 0.27383554 0.24046712 0.00668494
-0.12229873 0.48971254 0.11901948 0.1399929 -0.19495678 0.2094051 -0.040556185 0.054263346
-0.45586783 -0.033724032 0.31127593 0.3380709 0.57462275 -0.47426447 -0.17247711 -0.1778937
-0.21537265 0.16239369 -0.14659442 -0.28834912 -0.0979446 -0.5749375 0.33146328 0.0978405
0.29934022 0.4319714 -0.813728 0.33116293 -0.036066692 0.24623702 -0.019345546 0.42651182
-0.055788904 -0.092018194 0.5954294 -0.031118825 0.2508608 -0.12407549 -0.21373092 -0.23583882
-0.038250208 -0.52015835 -0.17708857 -0.1826664 0.5187868 -0.59664285 0.027303346 -0.82973695
0.071043424 -0.08182414 0.40284204 0.3004409 0.097834006 0.069448285 0.13434845 -0.36337504
-0.21722607 -0.034711935 -0.0032152007 0.08371098 0.21587165 -0.14632474 0.29484314 -0.5864705
-0.18240458 -0.1269488 -0.38461822 0.37986422 0.23441204 -0.08386165 0.24638444 0.30774176
-0.54814047 0.02235602 -0.3535665 -0.08732374 -0.0014440162 -0.0034283171 -0.028513372 0.5628988
-0.30941257 -0.16280995 0.17542075 -0.66942596 -0.34538877 0.23927277 0.2783027 -0.36324006
-0.6487012 0.35108176 -0.08007778 -0.29404604 0.30983803 0.18641359 -0.51633406 -0.14887272
-0.35182127 0.14705938 0.33685377 -0.6002546 -0.1702579 0.16020012 0.4249427 -0.10551662
-0.60242325 0.39523268 0.101568535 0.26904157 0.20484741 0.53933084 -0.063396014 -0.21755344
-0.20013466 0.12103801 -0.1264203 0.34749818 0.08318533 -0.042825766 0.008602772 -0.20558065
0.2450248 0.21109357 -0.60258305 0.19119602 0.2812845 -0.15142846 -0.26179162 -0.057315435
0.19877924 -0.23062497 0.5871395 0.22974035 0.21258552 -0.041114453 -0.6107074 -0.87117517
0.30650604 0.03782425 0.122133516 -0.13269185 -0.03771879 -0.11415481 -0.037292823 -0.30482173
-0.07716146 0.25436723 -0.19320612 0.11721941 0.25215897 0.37163168 -0.22151713 0.14075999
-0.22517738 0.24874364 0.4291158 -0.39713207 0.22675478 0.28873158 -0.40598488 -0.03858073
0.3773485 -0.20880757 -0.1696418 0.2505316 0.28894505 0.44027114 -0.005172515 0.042704906
0.035971344 -0.044837993 0.030776586 0.20982026 0.19683567 -0.065162055 0.13474236 0.0012191636
0.036031466 -0.36111096 -0.29001474 -0.5040262 -0.28978214 0.25215906 -0.21227916 -0.12643345
-0.40982708 0.07325467 0.33600384 -0.4388419 0.14225887 -0.44514868 0.07975576 0.032900363
00000000: bcbb d6be d154 22be 0c85 053f 035d 4b3e
00000010: a0cc 943e 14af 473e 6bd6 543e a15b f23d
00000020: b571 303e cf2d 0fbe 96bd b3be b1aa 113f
00000030: db88 bb3d de7c 953e bc85 043f f5c3 5ebe
00000040: 4084 35bf bc72 803d 3374 a03e 1952 ec3c
00000050: 7f74 313d 8655 51be 3e34 323c 8f3d dcbd
00000060: 1362 913e 9d67 35be 6d11 a3be 72bd f3be
00000070: 6f90 703d 8296 ac3e a047 263c 32ab f9bd
00000080: 6950 813d d782 52bd ec74 763f 4d6d 83be
00000090: 4ada 183e 97f3 bbbe 169c 10be 553a 2e3e
000000a0: 6384 a53e 816d 99be f0b8 2cbc 93a7 c13e
000000b0: 17ce 04be cb1a 95be 3339 df3d b692 253f
000000c0: 0204 bdbe 3d7f 743e 0139 a53d 75be c6bd
000000d0: 4295 993e d4ce dbbe f25f a8be 0b4a 80bd
000000e0: 8b2b eabe 057b 913e 9aed 77be 7a70 b8be
000000f0: 784f d8be 2c34 8c3e 033d 763e 570d db3b
00000100: c277 fabd 9abb fa3e 7cc0 f33d 4c5a 0f3e
00000110: c0a2 47be 4a6e 563e 3e1e 26bd 3e43 5e3d
00000120: 8267 e9be 3622 0abd 8f5f 9f3e a117 ad3e
00000130: 7a1a 133f cbd2 f2be d79d 30be c429 36be
00000140: a68a 5cbe 884a 263e d91c 16be 7fa2 93be
00000150: 2e97 c8bd 1b2f 13bf 8eb5 a93e 9a60 c83d
00000160: 1f43 993e 5b2b dd3e 7a50 50bf 308e a93e
00000170: abba 13bd 8f25 7c3e 8d7a 9ebc c25f da3e
00000180: e882 64bd 0974 bcbd 106e 183f e8ec febc
00000190: d470 803e 4a1b febd 47dc 5abe bb7f 71be
000001a0: 40ac 1cbd 1929 05bf b556 35be e70c 3bbe
000001b0: 36cf 043f 96bd 18bf 44ab df3c a469 54bf
000001c0: 377f 913d 6a93 a7bd 5041 ce3e 64d3 993e
000001d0: 325d c83d e73a 8e3d a492 093e 4b0c babe
000001e0: 8370 5ebe 1a2e 0ebd 1eb6 52bb aa70 ab3d
000001f0: 750d 5d3e 27d6 15be aef5 963e ee22 16bf
00000200: 44c8 3abe defe 01be aeec c4be 907d c23e
00000210: b609 703e a8bf abbd 344c 7c3e 5490 9d3e
00000220: ef52 0cbf f923 b73c ab06 b5be cad6 b2bd
00000230: 2545 bdba 9ead 60bb e094 e9bc 231a 103f
00000240: 536b 9ebe a7b7 26be 7fa1 333e 805f 2bbf
00000250: ccd6 b0be ec03 753e b17d 8e3e 9afa b9be
00000260: 4811 26bf fdc0 b33e d2ff a3bd 348d 96be
00000270: 17a3 9e3e 34e3 3e3e 782e 04bf 1772 18be
00000280: eb21 b4be bc96 163e 1978 ac3e 49aa 19bf
00000290: 1658 2ebe 800b 243e 1792 d93e 1919 d8bd
000002a0: 6938 1abf f05b ca3e 2a03 d03d d1bf 893e
000002b0: 85c3 513e 9611 0a3f c5d5 81bd 54c6 5ebe
000002c0: 1af0 4cbe c7e2 f73d 5374 01be 48eb b13e
000002d0: 125d aa3d 126a 2fbd a4f2 0c3c bc83 52be
000002e0: c8e7 7a3e ea28 583e e242 1abf e4c8 433e
000002f0: 8604 903e 1010 1bbe 8d09 86be 97c3 6abd
00000300: c98c 4b3e f428 6cbe c64e 163f 0e41 6b3e
00000310: 05b0 593e a167 28bd 5257 1cbf 5605 5fbf
00000320: 5cee 9c3e 9aed 1a3d 2321 fa3d 5fe0 07be
00000330: 057f 1abd ffc9 e9bd 5cc0 18bd 9811 9cbe
00000340: d406 9ebd 6c3c 823e d3d7 45be bb10 f03d
00000350: fb1a 813e 8246 be3e 63d5 62be 6323 103e
00000360: e694 66be a7b6 7e3e 11b5 db3e e554 cbbe
00000370: 6832 683e a0d4 933e 40dd cfbe d406 1ebd
00000380: d333 c13e a7d1 55be 94b6 2dbe ae45 803e
00000390: 9bf0 933e 386b e13e 337e a9bb 57eb 2e3d
000003a0: b056 133d 0ba8 37bd 2e1f fc3c 1fdb 563e
000003b0: 4a8f 493e af73 85bd e7f9 093e 58cc 9f3a
000003c0: bb95 133d 89e3 b8be d07c 94be dc07 01bf
000003d0: 535e 94be fe1a 813e b55f 59be c577 01be
000003e0: dbd4 d1be 8b06 963d b208 ac3e e3af e0be
000003f0: 4fac 113e 87ea e3be fd56 a33d 88c2 063d

network_body._body_endoder.seq_layers.0.bias f4 [256]
0.0 0.0 0.0 0.0 0.0 0.0 0.0 0.0
0.0 0.0 0.0 0.0 0.0 0.0 0.0 0.0
0.0 0.0 0.0 0.0 0.0 0.0 0.0 0.0
0.0 0.0 0.0 0.0 0.0 0.0 0.0 0.0
0.0 0.0 0.0 0.0 0.0 0.0 0.0 0.0
0.0 0.0 0.0 0.0 0.0 0.0 0.0 0.0
0.0 0.0 0.0 0.0 0.0 0.0 0.0 0.0
0.0 0.0 0.0 0.0 0.0 0.0 0.0 0.0
0.0 0.0 0.0 0.0 0.0 0.0 0.0 0.0
0.0 0.0 0.0 0.0 0.0 0.0 0.0 0.0
0.0 0.0 0.0 0.0 0.0 0.0 0.0 0.0
0.0 0.0 0.0 0.0 0.0 0.0 0.0 0.0
0.0 0.0 0.0 0.0 0.0 0.0 0.0 0.0
0.0 0.0 0.0 0.0 0.0 0.0 0.0 0.0
0.0 0.0 0.0 0.0 0.0 0.0 0.0 0.0
0.0 0.0 0.0 0.0 0.0 0.0 0.0 0.0
0.0 0.0 0.0 0.0 0.0 0.0 0.0 0.0
0.0 0.0 0.0 0.0 0.0 0.0 0.0 0.0
0.0 0.0 0.0 0.0 0.0 0.0 0.0 0.0
0.0 0.0 0.0 0.0 0.0 0.0 0.0 0.0
0.0 0.0 0.0 0.0 0.0 0.0 0.0 0.0
0.0 0.0 0.0 0.0 0.0 0.0 0.0 0.0
0.0 0.0 0.0 0.0 0.0 0.0 0.0 0.0
0.0 0.0 0.0 0.0 0.0 0.0 0.0 0.0
0.0 0.0 0.0 0.0 0.0 0.0 0.0 0.0
0.0 0.0 0.0 0.0 0.0 0.0 0.0 0.0
0.0 0.0 0.0 0.0 0.0 0.0 0.0 0.0
0.0 0.0 0.0 0.0 0.0 0.0 0.0 0.0
0.0 0.0 0.0 0.0 0.0 0.0 0.0 0.0
0.0 0.0 0.0 0.0 0.0 0.0 0.0 0.0
0.0 0.0 0.0 0.0 0.0 0.0 0.0 0.0
0.0 0.0 0.0 0.0 0.0 0.0 0.0 0.0
00000000: 0000 0000 0000 0000 0000 0000 0000 0000
00000010: 0000 0000 0000 0000 0000 0000 0000 0000
00000020: 0000 0000 0000 0000 0000 0000 0000 0000
00000030: 0000 0000 0000 0000 0000 0000 0000 0000
00000040: 0000 0000 0000 0000 0000 0000 0000 0000
00000050: 0000 0000 0000 0000 0000 0000 0000 0000
00000060: 0000 0000 0000 0000 0000 0000 0000 0000
00000070: 0000 0000 0000 0000 0000 0000 0000 0000
00000080: 0000 0000 0000 0000 0000 0000 0000 0000
00000090: 0000 0000 0000 0000 0000 0000 0000 0000
000000a0: 0000 0000 0000 0000 0000 0000 0000 0000
000000b0: 0000 0000 0000 0000 0000 0000 0000 0000
000000c0: 0000 0000 0000 0000 0000 0000 0000 0000
000000d0: 0000 0000 0000 0000 0000 0000 0000 0000
000000e0: 0000 0000 0000 0000 0000 0000 0000 0000
000000f0: 0000 0000 0000 0000 0000 0000 0000 0000
00000100: 0000 0000 0000 0000 0000 0000 0000 0000
00000110: 0000 0000 0000 0000 0000 0000 0000 0000
00000120: 0000 0000 0000 0000 0000 0000 0000 0000
00000130: 0000 0000 0000 0000 0000 0000 0000 0000
00000140: 0000 0000 0000 0000 0000 0000 0000 0000
00000150: 0000 0000 0000 0000 0000 0000 0000 0000
00000160: 0000 0000 0000 0000 0000 0000 0000 0000
00000170: 0000 0000 0000 0000 0000 0000 0000 0000
00000180: 0000 0000 0000 0000 0000 0000 0000 0000
00000190: 0000 0000 0000 0000 0000 0000 0000 0000
000001a0: 0000 0000 0000 0000 0000 0000 0000 0000
000001b0: 0000 0000 0000 0000 0000 0000 0000 0000
000001c0: 0000 0000 0000 0000 0000 0000 0000 0000
000001d0: 0000 0000 0000 0000 0000 0000 0000 0000
000001e0: 0000 0000 0000 0000 0000 0000 0000 0000
000001f0: 0000 0000 0000 0000 0000 0000 0000 0000
00000200: 0000 0000 0000 0000 0000 0000 0000 0000
00000210: 0000 0000 0000 0000 0000 0000 0000 0000
00000220: 0000 0000 0000 0000 0000 0000 0000 0000
00000230: 0000 0000 0000 0000 0000 0000 0000 0000
00000240: 0000 0000 0000 0000 0000 0000 0000 0000
00000250: 0000 0000 0000 0000 0000 0000 0000 0000
00000260: 0000 0000 0000 0000 0000 0000 0000 0000
00000270: 0000 0000 0000 0000 0000 0000 0000 0000
00000280: 0000 0000 0000 0000 0000 0000 0000 0000
00000290: 0000 0000 0000 0000 0000 0000 0000 0000
000002a0: 0000 0000 0000 0000 0000 0000 0000 0000
000002b0: 0000 0000 0000 0000 0000 0000 0000 0000
000002c0: 0000 0000 0000 0000 0000 0000 0000 0000
000002d0: 0000 0000 0000 0000 0000 0000 0000 0000
000002e0: 0000 0000 0000 0000 0000 0000 0000 0000
000002f0: 0000 0000 0000 0000 0000 0000 0000 0000
00000300: 0000 0000 0000 0000 0000 0000 0000 0000
00000310: 0000 0000 0000 0000 0000 0000 0000 0000
00000320: 0000 0000 0000 0000 0000 0000 0000 0000
00000330: 0000 0000 0000 0000 0000 0000 0000 0000
00000340: 0000 0000 0000 0000 0000 0000 0000 0000
00000350: 0000 0000 0000 0000 0000 0000 0000 0000
00000360: 0000 0000 0000 0000 0000 0000 0000 0000
00000370: 0000 0000 0000 0000 0000 0000 0000 0000
00000380: 0000 0000 0000 0000 0000 0000 0000 0000
00000390: 0000 0000 0000 0000 0000 0000 0000 0000
000003a0: 0000 0000 0000 0000 0000 0000 0000 0000
000003b0: 0000 0000 0000 0000 0000 0000 0000 0000
000003c0: 0000 0000 0000 0000 0000 0000 0000 0000
000003d0: 0000 0000 0000 0000 0000 0000 0000 0000
000003e0: 0000 0000 0000 0000 0000 0000 0000 0000
000003f0: 0000 0000 0000 0000 0000 0000 0000 0000

network_body._body_endoder.seq_layers.2.weight f4 [256, 256]
0.07657125 0.016919412 0.03193169 -0.0725871 -0.038576856 -0.06809471 0.1008658 -0.0048098587
0.098099805 -0.074751526 -0.04307113 -0.026887046 -0.0033219513 -0.004593631 0.026944831 0.06384708
-0.025603153 -0.010738566 0.11770629 0.062324584 -0.009274761 0.08636924 0.020291606 0.025253156
0.03173885 0.09161284 0.010350833 0.07704583 -0.06976912 -0.061069254 0.05099641 0.043937262
-0.057927836 0.015488955 -0.0063202307 0.050603017 -0.05364268 0.019926975 -0.13591272 0.06906522
-0.082889706 0.049250398 -0.023835666 -0.07865548 0.017886022 -0.13131413 -0.02074219 -0.09420663
0.08244925 -0.068064004 -0.018767854 -0.065018885 0.06524804 -0.10299963 0.040285796 -0.048295032
-0.12583402 0.08633226 -0.15261455 0.089327216 -0.0879833 0.1323641 -0.01857925 -0.12833641
0.015012009 0.021688432 0.040647198 0.063476175 0.030822009 0.070849925 -0.011857942 -0.027260885
-0.026741544 0.0009569111 0.03344439 -4.2817843e-05 -0.030441953 -0.03516387 0.07007765 0.092911266
-0.027530428 -0.011157604 -0.025452835 -0.04799108 -0.11171411 -0.07448707 0.026123269 0.017555388
0.07644507 -0.13595103 -0.028611006 0.011836736 0.07313676 -0.040812097 0.043958392 0.046091206
0.02882875 -0.052915018 0.06899634 0.049986497 -0.10014773 0.022213222 0.010332088 -0.026222574
0.045796804 -0.09009529 -0.0069498904 -0.008890459 0.037149254 0.027818957 -0.03541829 -0.012721874
-0.004640183 0.045771692 -0.08177046 0.028918197 -0.015051346 -0.14907005 -0.016070748 0.054413065
0.04234005 -0.043633487 0.009602659 -0.11727538 0.09763711 -0.040767 -0.0750167 0.06907819
0.060554132 0.0017267651 -0.07850178 0.049534127 -0.03509764 0.06223252 0.09767683 0.06872889
-0.030770957 -0.14033106 -0.0025937355 -0.019867755 0.04005586 0.043802384 -0.03753071 0.014409909
-0.0636858 -0.0328752 0.03835314 -0.022622522 -0.005879802 0.0071571455 -0.097986646 -0.0380299
0.05897602 -0.13434662 0.043640595 0.008295918 -0.019393371 0.03324106 0.11656463 -0.054226227
0.006534065 0.027493093 -0.0062419837 0.0155750215 0.027497651 -0.031996116 -0.04318719 -0.01754533
-0.13609664 0.10978982 0.06406478 0.046844903 0.013455613 -0.017481087 -0.10261461 0.092785224
0.054129716 0.0015687636 -0.052747414 -0.0030561644 -0.0855421 0.08120697 -0.10823767 -0.020962682
0.024362061 0.00381456 0.13754284 0.018088883 -0.00902853 0.022354353 0.14558335 0.0024449793
-0.026199212 0.034264095 0.008884598 0.030238839 0.040587556 0.031424332 -0.029112289 0.021445561
0.0032423935 -0.05979236 -0.100245394 0.008109347 -0.03212908 -0.03714616 -0.09306479 -0.08801851
-0.07905627 0.022388685 0.10206733 -0.041675974 -0.038506042 0.03121862 -0.0009889976 0.13153802
-0.077562355 -0.02556718 0.033782948 -0.07599891 0.18054506 0.036099903 0.01612198 -0.0044150823
0.023582466 -0.038284384 -0.00020589997 0.0025235896 0.0041775177 -0.011320751 0.047393363 -0.009742
0.05782364 -0.0069526513 -0.050860126 0.027696086 0.033624835 0.032808315 -0.10697189 0.029695427
-0.032928623 -0.06878636 0.055157285 -0.089743234 -0.14361444 -0.011230918 0.08532218 -0.07016674
-0.0774752 -0.07029671 0.052832197 -0.030241655 0.0072746733 -0.055624835 -0.06025333 0.039213367
00000000: 63d1 9c3d 949a 8a3c ceca 023d 8ca8 94bd
00000010: c402 1ebd 3d75 8bbd bb92 ce3d 059c 9dbb
00000020: 8de8 c83d 5417 99bd 5a6b 30bd 3942 dcbc
00000030: 18b5 59bb 2b86 96bb 68bb dc3c 42c2 823d
00000040: b4bd d1bc cff0 2fbc ff0f f13d 1048 7f3d
00000050: 2bf5 17bc 5be2 b03d 953a a63c b5df ce3c
00000060: 9900 023d 839f bb3d 8a96 293c 34ca 9d3d
00000070: 1de3 8ebd c123 7abd 9de1 503d 8ff7 333d
00000080: bd45 6dbd 63c5 7d3c f019 cfbb 1c45 4f3d
00000090: 6db8 5bbd e53d a33c b42c 0bbe 1172 8d3d
000000a0: 14c2 a9bd c9ba 493d 0443 c3bc 2016 a1bd
000000b0: b585 923c 3677 06be 86eb a9bc 68ef c0bd
000000c0: 27db a83d 2465 8bbd 0bbf 99bc 9f28 85bd
000000d0: c4a0 853d 78f1 d2bd b802 253d 03d1 45bd
000000e0: a2da 00be f8ce b03d fd46 1cbe 30f1 b63d
000000f0: 9730 b4bd 748a 073e 8333 98bc 9f6a 03be
00000100: eef4 753c f0ab b13c ad7d 263d ccff 813d
00000110: 707e fc3c c419 913d d047 42bc 3852 dfbc
00000120: 1511 dbbc 38d9 7a3a fcfc 083d 4f97 33b8
00000130: 6761 f9bc fd07 10bd df84 8f3d 4348 be3d
00000140: 7e87 e1bc 62ce 36bc 7782 d0bc 4b92 44bd
00000150: 5eca e4bd ad8c 98bd 7700 d63c 51d0 8f3c
00000160: 3c8f 9c3d bf36 0bbe a161 eabc dfee 413c
00000170: bac8 953d 962a 27bd b70d 343d 22ca 3c3d
00000180: 452a ec3c 6bbd 58bd f44d 8d3d a4be 4c3d
00000190: 411a cdbd 81f8 b53c eb47 293c b9d0 d6bc
000001a0: 6e95 3b3d e183 b8bd e8bb e3bb 4aa9 11bc
000001b0: d129 183d 95e4 e33c c512 11bd 686f 50bc
000001c0: ad0c 98bb 197b 3b3d 4577 a7bd dbe5 ec3c
000001d0: ec99 76bc d2a5 18be cda6 83bc 3ce0 5e3d
000001e0: c36c 2d3d 07b9 32bd 7954 1d3c 132e f0bd
000001f0: f7f5 c73d 4cfb 26bd 5ba2 99bd de78 8d3d
00000200: 9c07 783d 9f54 e23a 8bc5 a0bd 4ce4 4a3d
00000210: 8bc2 0fbd 87e7 7e3d ca0a c83d bbc1 8c3d
00000220: 6013 fcbc f2b2 0fbe a9fb 29bb b4c1 a2bc
00000230: 9d11 243d 216a 333d cdb9 19bd 8a17 6c3c
00000240: b36d 82bd 25a8 06bd 2f18 1d3d de52 b9bc
00000250: 5bab c0bb 7d86 ea3b 39ad c8bd 3ec5 1bbd
00000260: d790 713d 2992 09be 7bc0 323d 9aeb 073c
00000270: d9de 9ebc c727 083d 70b9 ee3d 521c 5ebd
00000280: b61b d63b 3239 e13c 8e89 ccbb 602e 7f3c
00000290: c142 e13c 5c0e 03bd 0de5 30bd 39bb 8fbc
000002a0: eb5c 0bbe 7cd9 e03d 6534 833d 71e0 3f3d
000002b0: ee74 5c3c 7f34 8fbc 9c27 d2bd 2e06 be3d
000002c0: 1fb7 5d3d f99e cd3a ac0d 58bd ee49 48bb
000002d0: b230 afbd d74f a63d b6ab ddbd eeb9 abbc
000002e0: f292 c73c b2fd 793b 08d8 0c3e 232f 943c
000002f0: 66ec 13bc 7a20 b73c cd13 153e f23b 203b
00000300: bb9f d6bc 8258 0c3d b490 113c 71b7 f73c
00000310: 233f 263d cdb6 003d e57c eebc 9aae af3c
00000320: 567e 543b d5e8 74bd 754d cdbd 11dd 043c
00000330: c899 03bd 9226 18bd c198 bebd 0c43 b4bd
00000340: 41e8 a1bd 7a68 b73c ad08 d13d 6db4 2abd
00000350: 83b8 1dbd 31be ff3c 41a1 81ba e7b1 063e
00000360: 03d9 9ebd 4372 d1bc fd5f 0a3d 51a5 9bbd
00000370: cee0 383e 7edd 133d 3e12 843c 65ac 90bb
00000380: 0430 c13c 16d0 1cbd dae6 57b9 cf62 253b
00000390: 8fe3 883b ac7a 39bc 8b1f 423d e99c 1fbc
000003a0: 7bd8 6c3d 11d3 e3bb b552 50bd e7e2 e23c
000003b0: 32ba 093d 0362 063d 1414 dbbd d343 f33c
000003c0: 2ae0 06bd dddf 8cbd 9bec 613d 4dcb b7bd
000003d0: aa0f 13be e201 38bc 65bd ae3d 94b3 8fbd
000003e0: 51ab 9ebd b9f7 8fbd 9366 583d 59bd f7bc
000003f0: 6260 ee3b ded6 63bd 32cc 76bd 329e 203d

network_body._body_endoder.seq_layers.2.bias f4 [256]
0.0 0.0 0.0 0.0 0.0 0.0 0.0 0.0
0.0 0.0 0.0 0.0 0.0 0.0 0.0 0.0
0.0 0.0 0.0 0.0 0.0 0.0 0.0 0.0
0.0 0.0 0.0 0.0 0.0 0.0 0.0 0.0
0.0 0.0 0.0 0.0 0.0 0.0 0.0 0.0
0.0 0.0 0.0 0.0 0.0 0.0 0.0 0.0
0.0 0.0 0.0 0.0 0.0 0.0 0.0 0.0
0.0 0.0 0.0 0.0 0.0 0.0 0.0 0.0
0.0 0.0 0.0 0.0 0.0 0.0 0.0 0.0
0.0 0.0 0.0 0.0 0.0 0.0 0.0 0.0
0.0 0.0 0.0 0.0 0.0 0.0 0.0 0.0
0.0 0.0 0.0 0.0 0.0 0.0 0.0 0.0
0.0 0.0 0.0 0.0 0.0 0.0 0.0 0.0
0.0 0.0 0.0 0.0 0.0 0.0 0.0 0.0
0.0 0.0 0.0 0.0 0.0 0.0 0.0 0.0
0.0 0.0 0.0 0.0 0.0 0.0 0.0 0.0
0.0 0.0 0.0 0.0 0.0 0.0 0.0 0.0
0.0 0.0 0.0 0.0 0.0 0.0 0.0 0.0
0.0 0.0 0.0 0.0 0.0 0.0 0.0 0.0
0.0 0.0 0.0 0.0 0.0 0.0 0.0 0.0
0.0 0.0 0.0 0.0 0.0 0.0 0.0 0.0
0.0 0.0 0.0 0.0 0.0 0.0 0.0 0.0
0.0 0.0 0.0 0.0 0.0 0.0 0.0 0.0
0.0 0.0 0.0 0.0 0.0 0.0 0.0 0.0
0.0 0.0 0.0 0.0 0.0 0.0 0.0 0.0
0.0 0.0 0.0 0.0 0.0 0.0 0.0 0.0
0.0 0.0 0.0 0.0 0.0 0.0 0.0 0.0
0.0 0.0 0.0 0.0 0.0 0.0 0.0 0.0
0.0 0.0 0.0 0.0 0.0 0.0 0.0 0.0
0.0 0.0 0.0 0.0 0.0 0.0 0.0 0.0
0.0 0.0 0.0 0.0 0.0 0.0 0.0 0.0
0.0 0.0 0.0 0.0 0.0 0.0 0.0 0.0
00000000: 0000 0000 0000 0000 0000 0000 0000 0000
00000010: 0000 0000 0000 0000 0000 0000 0000 0000
00000020: 0000 0000 0000 0000 0000 0000 0000 0000
00000030: 0000 0000 0000 0000 0000 0000 0000 0000
00000040: 0000 0000 0000 0000 0000 0000 0000 0000
00000050: 0000 0000 0000 0000 0000 0000 0000 0000
00000060: 0000 0000 0000 0000 0000 0000 0000 0000
00000070: 0000 0000 0000 0000 0000 0000 0000 0000
00000080: 0000 0000 0000 0000 0000 0000 0000 0000
00000090: 0000 0000 0000 0000 0000 0000 0000 0000
000000a0: 0000 0000 0000 0000 0000 0000 0000 0000
000000b0: 0000 0000 0000 0000 0000 0000 0000 0000
000000c0: 0000 0000 0000 0000 0000 0000 0000 0000
000000d0: 0000 0000 0000 0000 0000 0000 0000 0000
000000e0: 0000 0000 0000 0000 0000 0000 0000 0000
000000f0: 0000 0000 0000 0000 0000 0000 0000 0000
00000100: 0000 0000 0000 0000 0000 0000 0000 0000
00000110: 0000 0000 0000 0000 0000 0000 0000 0000
00000120: 0000 0000 0000 0000 0000 0000 0000 0000
00000130: 0000 0000 0000 0000 0000 0000 0000 0000
00000140: 0000 0000 0000 0000 0000 0000 0000 0000
00000150: 0000 0000 0000 0000 0000 0000 0000 0000
00000160: 0000 0000 0000 0000 0000 0000 0000 0000
00000170: 0000 0000 0000 0000 0000 0000 0000 0000
00000180: 0000 0000 0000 0000 0000 0000 0000 0000
00000190: 0000 0000 0000 0000 0000 0000 0000 0000
000001a0: 0000 0000 0000 0000 0000 0000 0000 0000
000001b0: 0000 0000 0000 0000 0000 0000 0000 0000
000001c0: 0000 0000 0000 0000 0000 0000 0000 0000
000001d0: 0000 0000 0000 0000 0000 0000 0000 0000
000001e0: 0000 0000 0000 0000 0000 0000 0000 0000
000001f0: 0000 0000 0000 0000 0000 0000 0000 0000
00000200: 0000 0000 0000 0000 0000 0000 0000 0000
00000210: 0000 0000 0000 0000 0000 0000 0000 0000
00000220: 0000 0000 0000 0000 0000 0000 0000 0000
00000230: 0000 0000 0000 0000 0000 0000 0000 0000
00000240: 0000 0000 0000 0000 0000 0000 0000 0000
00000250: 0000 0000 0000 0000 0000 0000 0000 0000
00000260: 0000 0000 0000 0000 0000 0000 0000 0000
00000270: 0000 0000 0000 0000 0000 0000 0000 0000
00000280: 0000 0000 0000 0000 0000 0000 0000 0000
00000290: 0000 0000 0000 0000 0000 0000 0000 0000
000002a0: 0000 0000 0000 0000 0000 0000 0000 0000
000002b0: 0000 0000 0000 0000 0000 0000 0000 0000
000002c0: 0000 0000 0000 0000 0000 0000 0000 0000
000002d0: 0000 0000 0000 0000 0000 0000 0000 0000
000002e0: 0000 0000 0000 0000 0000 0000 0000 0000
000002f0: 0000 0000 0000 0000 0000 0000 0000 0000
00000300: 0000 0000 0000 0000 0000 0000 0000 0000
00000310: 0000 0000 0000 0000 0000 0000 0000 0000
00000320: 0000 0000 0000 0000 0000 0000 0000 0000
00000330: 0000 0000 0000 0000 0000 0000 0000 0000
00000340: 0000 0000 0000 0000 0000 0000 0000 0000
00000350: 0000 0000 0000 0000 0000 0000 0000 0000
00000360: 0000 0000 0000 0000 0000 0000 0000 0000
00000370: 0000 0000 0000 0000 0000 0000 0000 0000
00000380: 0000 0000 0000 0000 0000 0000 0000 0000
00000390: 0000 0000 0000 0000 0000 0000 0000 0000
000003a0: 0000 0000 0000 0000 0000 0000 0000 0000
000003b0: 0000 0000 0000 0000 0000 0000 0000 0000
000003c0: 0000 0000 0000 0000 0000 0000 0000 0000
000003d0: 0000 0000 0000 0000 0000 0000 0000 0000
000003e0: 0000 0000 0000 0000 0000 0000 0000 0000
000003f0: 0000 0000 0000 0000 0000 0000 0000 0000

action_model._discrete_distribution.branches.0.weight f4 [4, 256]
-0.0038966076 0.009535574 0.002453237 0.0010709467 0.009670965 -0.0043551293 -0.0077365874 -0.00418047
-0.011116489 -0.0013507804 -0.009023587 -0.008959099 0.0005137667 0.0035446414 0.0030559783 -0.0033576493
0.0041009323 0.002583264 0.0013946375 0.008292452 0.0035129264 0.0018838013 0.002110748 0.0029422815
0.0030761387 -0.0015203505 0.0035597363 -0.011205058 -1.02895165e-05 -0.0020230014 -0.009378221 0.008722286
-0.013638123 0.011337473 0.0038874762 -0.0039641983 0.012441349 0.003532741 -0.0041538063 -0.0011148008
0.0007674751 0.010702665 0.0054431814 -0.004136448 0.003950288 -0.00059897476 0.0012147673 0.0052515757
0.0020100842 0.0043104975 0.0030688539 -0.005182323 -0.0029088163 0.01574469 -0.0019794626 -0.004125559
0.00828444 -0.0027065852 0.0006031971 -0.009346089 0.004060746 -0.0011763609 0.0027666676 0.004576623
0.0004643832 -0.0043336726 -0.008519963 -0.0012831081 -0.008740252 0.004103669 -0.008370883 0.0077084177
-0.0022103584 0.0028776254 0.0046420875 0.0009293559 -0.0061650076 -0.00080836396 0.003930823 -0.0016779561
-0.0032265552 0.009216267 0.0032640547 -0.011637307 0.005522258 -0.014215936 0.0034987868 0.006962359
0.0022420192 0.0010373818 -0.0082565 0.008819353 -0.0052969796 -0.0009822699 -0.0046001556 -0.0011271359
-0.0058979895 -0.0067001763 0.005534587 -0.010236622 0.012106535 0.0021783414 -0.005886738 -0.007285014
-0.010396491 -0.0058128387 0.0035138545 0.002186732 0.0015331641 -0.0025744818 -0.005920239 -0.0041452735
-0.0028290506 0.0047678445 0.0001633577 0.007655963 0.007941276 -0.003910518 -0.0049114428 -0.0049014995
0.002245922 0.0063613914 0.02032063 0.007692896 0.0035127618 -0.0055053355 -0.0044653686 -0.0016580693
-0.013247107 -0.0013136539 0.0027513646 -0.0015738022 -0.0029352652 -0.0006653446 -0.00507549 -0.0030006038
0.003045026 0.006940946 0.0010045344 -0.005817815 0.0071328315 -0.004193623 0.0017770099 -0.0047093243
-0.0023721352 -0.004027248 0.007729724 0.0074052587 -0.011785808 -0.00010387696 -0.0075633996 -0.0067001283
-0.00042401618 -0.0056895255 0.0001645239 0.0061743106 0.0009754819 0.00710063 0.0076446305 -0.0013896505
0.0069268653 0.007607562 -0.0060146507 0.015481117 -0.007990471 0.0050306427 -0.00017029373 -0.0062444205
0.00511633 0.007085211 -0.005836684 -0.0022625697 -0.0056032026 -0.0016565366 -0.009500462 -0.003370445
-0.0043436526 -0.00042403612 -0.005309173 -0.011559899 -0.011546767 -0.0004236248 -0.007442796 0.00027800293
-0.0046290546 -0.0006506709 0.0075468244 -0.006420179 -0.0064636157 0.007991177 -0.0072423527 -0.00014395492
0.00810172 0.010265373 -0.00635313 -0.0056301467 0.012281849 -0.0082377 -0.0014141862 -0.008788957
-0.0025082598 -0.0018701813 -0.0060052085 -0.008794733 0.0010934913 0.0021602043 -0.0057047987 0.0049406234
-0.014885793 0.003190791 -0.008699587 -0.0010726291 -0.004539722 0.015010341 0.0077486197 -0.002372158
-0.0038343526 0.0043957047 -0.0076918863 -0.006189072 0.0018190173 -0.002218005 0.004317901 0.0069682407
0.009665452 0.0014086969 0.0028546534 -0.0017370619 0.0027346795 -0.006713086 -0.003906959 -0.0024591854
0.00038137866 -0.0051030717 0.0013266689 0.011004648 0.009286384 0.0040029036 -0.002016367 -0.016841438
-0.0017183634 0.0012547256 0.00049302395 0.004968656 -0.0026969202 -0.00036987112 -0.01117487 -0.000156587
-0.0056709656 0.000773182 -0.008693791 0.0037485117 -0.003986156 0.011264524 -0.0029956454 -0.0022633187
00000000: 3a5e 7fbb 193b 1c3c 7dc6 203b 025f 8c3a
00000010: f872 1e3c 79b5 8ebb 3383 fdbb 53fc 88bb
00000020: ef21 36bc ab0c b1ba abd7 13bc 2fc9 12bc
00000030: 4dae 063a 374d 683b cf46 483b 020c 5cbb
00000040: 1d61 863b fa4b 293b 45cc b63a 11dd 073c
00000050: 2039 663b e2e9 f63a 7a54 0a3b 4bd3 403b
00000060: 0b99 493b 7f46 c7ba 774a 693b 6b95 37bc
00000070: 23a1 2cb7 5594 04bb 1ca7 19bc ebe7 0e3c
00000080: 6f72 5fbc cfc0 393c 07c5 7e3b 1be6 81bb
00000090: cdd6 4b3c 8f85 673b a71c 88bb 821e 92ba
000000a0: 6230 493a 3b5a 2f3c b75c b23b 0a8b 87bb
000000b0: 6b71 813b 8404 1dba d438 9f3a 6915 ac3b
000000c0: 9ebb 033b 133f 8d3b d31e 493b 7ad0 a9bb
000000d0: d7a1 3ebb 02fb 803c dfb9 01bb b22f 87bb
000000e0: 76bb 073c f760 31bb df1f 1e3a 5720 19bc
000000f0: 0210 853b 1f30 9aba fb50 353b 7ff7 953b
00000100: 7578 f339 7b01 8ebb 5197 0bbc f72d a8ba
00000110: 4633 0fbc 1278 863b 0726 09bc e596 fc3b
00000120: a9db 10bb 8b96 3c3b a71c 983b 05a0 733a
00000130: d503 cabb 63e8 53ba 22ce 803b ddee dbba
00000140: 9d74 53bb d3ff 163c c0e9 553b 67aa 3ebc
00000150: 0ff4 b43b f5e9 68bc e74b 653b 8024 e43b
00000160: d7ee 123b c2f8 873a 4546 07bc 0c7f 103c
00000170: 4992 adbb 82bf 80ba e7bc 96bb 68bc 93ba
00000180: ec43 c1bb 278d dbbb 7b5b b53b 81b7 27bc
00000190: 7d5a 463c 81c2 0e3b 8ae5 c0bb 20b7 eebb
000001a0: 0b56 2abc a079 bebb b248 663b 464f 0f3b
000001b0: 73f4 c83a a3b8 28bb 90fe c1bb 13d5 87bb
000001c0: 9867 39bb 943b 9c3b 004b 2b39 dfde fa3b
000001d0: 201c 023c cd23 80bb 2bf0 a0bb c29c a0bb
000001e0: 5230 133b 3873 d03b 7377 a63c b014 fc3b
000001f0: 5d36 663b 1a66 b4bb 3a52 92bb 9353 d9ba
00000200: 650a 59bc e92e acba 3d50 343b 0a48 ceba
00000210: 945d 40bb 856a 2eba 4c50 a6bb c7a5 44bb
00000220: 0f8f 473b e070 e33b 95aa 833a 5fa3 bebb
00000230: 87ba e93b a96a 89bb 8fea e83a ad50 9abb
00000240: d375 1bbb 01f7 83bb a049 fd3b d0a7 f23b
00000250: 4319 41bc 85d8 d9b8 65d6 f7bb c08c dbbb
00000260: 7d4e deb9 336f babb 0c84 2c39 df51 ca3b
00000270: 7bb7 7f3a 67ac e83b cf7f fa3b ef24 b6ba
00000280: c2fa e23b db48 f93b 8c16 c5bb 83a4 7d3c
00000290: 77ea 02bc 17d8 a43b e090 32b9 ff9d ccbb
000002a0: e3a6 a73b 0f2b e83b a741 bfbb 9f47 14bb
000002b0: 129b b7bb 2520 d9ba d3a7 1bbc afe2 5cbb
000002c0: 3355 8ebb 2a51 deb9 92f8 adbb bb65 3dbc
000002d0: a72e 3dbc f519 deb9 b3e2 f3bb ecc0 9139
000002e0: 53af 97bb c991 2aba 5a4b f73b 5d60 d2bb
000002f0: bdcc d3bb 6ded 023c 4251 edbb 9bf2 16b9
00000300: 14bd 043c 1830 283c eb2d d0bb 187d b8bb
00000310: cf39 493c 6bf7 06bc 375c b9ba 8fff 0fbc
00000320: 9e61 24bb df20 f5ba 57c7 c4bb c917 10bc
00000330: 7b53 8f3a 3792 0d3b 52ef babb f4e4 a13b
00000340: 8be3 73bc 971c 513b b688 0ebc 7697 8cba
00000350: f3c1 94bb efed 753c 22e8 fd3b 3576 1bbb
00000360: c349 7bbb d809 903b 380c fcbb b3cd cabb
00000370: 186c ee3a f35b 11bb 2e7d 8d3b d755 e43b
00000380: d85b 1e3c 06a4 b83a 2315 3b3b 20ae e3ba
00000390: 4f38 333b 72f9 dbbb f305 80bb 492a 21bb
000003a0: c7f3 c739 ab37 a7bb 9fe3 ad3a d74c 343c
000003b0: eb25 183c ca2a 833b 0625 04bb 0ef7 89bc
000003c0: b53a e1ba 9b75 a43a 473e 013a 1cd0 a23b
000003d0: d0be 30bb 43eb c1b9 cd16 37bc 8131 24b9
000003e0: 82d3 b9bb 5eaf 4a3a 6770 0ebc 97a9 753b
000003f0: 4d9e 82bb d78e 383c 9752 44bb 3054 14bb

action_model._discrete_distribution.branches.0.bias f4 [4]
0.0 0.0 0.0 0.0
00000000: 0000 0000 0000 0000 0000 0000 0000 0000

onnx::Div_52 f4 [10]
0.0063894177 0.0063894177 0.0063894177 0.0063894177 0.0063894177 0.0063894177 0.0063894177 0.0063894177
0.0063894177 0.0063894177
00000000: 525e d13b 525e d13b 525e d13b 525e d13b
00000010: 525e d13b 525e d13b 525e d13b 525e d13b
00000020: 525e d13b 525e d13b
