results/GameAddedRewards7/PlayerBehaviour/PlayerBehaviour-26973.onnx (onnx, 490727 bytes, 10 tensors)

network_body.observation_encoder.processors.0.normalizer.running_mean f4 [202]
0	0x3f6071b2	0.87673485
1	0x3f6a02e7	0.9141068
2	0x3f5d39f1	0.86416537
3	0x3f676dbb	0.9040181
4	0x3f5d98b9	0.8656116
5	0x3f67a7b1	0.9049025
6	0x3f5d39f1	0.86416537
7	0x3f679181	0.90456396
8	0x3f5d98b9	0.8656116
9	0x3f67cb77	0.9054484
10	0x3f674e26	0.9035362
11	0x3f6c1890	0.9222498
12	0x3f683028	0.9069848
13	0x3f6c9a8b	0.92423314
14	0x3f679be8	0.9047227
15	0x3f6c3f78	0.92284346
16	0x3f68ce04	0.90939355
17	0x3f6d0375	0.925834
18	0x3f688035	0.9082063
19	0x3f6d2f07	0.92649883
20	0x3f6970d2	0.91187775
21	0x3f6e1671	0.9300299
22	0x3f652dfd	0.895233
23	0x3f6b9b12	0.92033494
24	0x3f66b043	0.90112704
25	0x3f6cf954	0.92567945
26	0x3f68631a	0.90776217
27	0x3f6d50a3	0.92701167
28	0x3f69cf90	0.9133234
29	0x3f6e9d45	0.93208724
30	0x3f671b2c	0.90275836
31	0x3f6cd1e8	0.9250779
32	0x3f6871c5	0.907986
33	0x3f6e2334	0.93022466
34	0x3f682405	0.9067996
35	0x3f6d08a9	0.9259134
36	0x3f69c5e2	0.9131757
37	0x3f6e6e24	0.9313681
38	0x3f681a42	0.90665066
39	0x3f6d67a1	0.9273625
40	0x3f68a4c7	0.9087643
41	0x3f6e3319	0.9304672
42	0x3f6d7e4b	0.9277083
43	0x3f7683ff	0.9629516
44	0x3f6f29df	0.93423265
45	0x3f77a65e	0.9673823
46	0x3f6e0b22	0.9298574
47	0x3f76a209	0.96340996
48	0x3f6f5f4d	0.9350479
49	0x3f77a3db	0.967344
50	0x3f6e36f4	0.930526
51	0x3f76bcdb	0.9638192
52	0x3f6fdb46	0.9369396
53	0x3f77c5df	0.967863
54	0x3f6d356f	0.9265966
55	0x3f761d33	0.96138304
56	0x3f6f7a12	0.9354564
57	0x3f778aac	0.9669597
58	0x3f64cf2a	0.8937861
59	0x3f6a6091	0.915536
60	0x3f699a28	0.9125085
61	0x3f6e8cfe	0.93183887
62	0x3f6407f8	0.8907466
63	0x3f69968f	0.9124536
64	0x3f69ef43	0.9138071
65	0x3f6e6941	0.93129355
66	0x3f62e6dc	0.88633513
67	0x3f692ecc	0.9108703
68	0x3f68feb0	0.9101362
69	0x3f6e2fc1	0.93041617
70	0x3f63b079	0.8894115
71	0x3f69622b	0.9116542
72	0x3f69c867	0.91321415
73	0x3f6e78f8	0.93153334
74	0x3f5ecfa8	0.8703561
75	0x3f670b52	0.9025165
76	0x3f651339	0.89482456
77	0x3f6bec5d	0.92157537
78	0x3f61f3d8	0.882627
79	0x3f68a7bc	0.9088094
80	0x3f675302	0.90361035
81	0x3f6ceba4	0.9254706
82	0x3f6089d3	0.87710303
83	0x3f674160	0.9033413
84	0x3f665189	0.8996816
85	0x3f6bc62a	0.9209925
86	0x3f60bf5a	0.8779198
87	0x3f677aa3	0.90421504
88	0x3f659190	0.89675236
89	0x3f6b59e4	0.9193404
90	0x3f574b7e	0.84099567
91	0x3f633b53	0.88762397
92	0x3f5cc070	0.86231136
93	0x3f67510a	0.9035803
94	0x3f574b7e	0.84099567
95	0x3f63116c	0.8869846
96	0x3f5cc070	0.86231136
97	0x3f672c7e	0.90302265
98	0x3f598b39	0.8497806
99	0x3f64eb4d	0.8942154
100	0x3f5ebc45	0.87006027
101	0x3f68d1f5	0.9094537
102	0x3f57fa6c	0.8436649
103	0x3f63ad79	0.88936573
104	0x3f5cd65d	0.8626459
105	0x3f675a4f	0.90372175
106	0x3f57fa6c	0.8436649
107	0x3f63d88d	0.89002305
108	0x3f5cd65d	0.8626459
109	0x3f677f3f	0.9042854
110	0x3f63652b	0.88826245
111	0x3f690ceb	0.91035336
112	0x3f65f2b4	0.8982346
113	0x3f6baec1	0.9206353
114	0x3f647074	0.8923409
115	0x3f69b99a	0.9129883
116	0x3f673375	0.9031289
117	0x3f6c7244	0.92361856
118	0x3f670f18	0.90257406
119	0x3f6beb61	0.92156035
120	0x3f685700	0.9075775
121	0x3f6db8ae	0.92859924
122	0x3f64ddb9	0.8940082
123	0x3f6b13ae	0.91826904
124	0x3f663e0d	0.8993843
125	0x3f6cbd62	0.92476475
126	0x3f6964bf	0.9116935
127	0x3f6d5760	0.9271145
128	0x3f6b78bc	0.919811
129	0x3f6f8f53	0.9357807
130	0x3f68a728	0.9088006
131	0x3f6d21b0	0.9262953
132	0x3f6a4b7d	0.91521436
133	0x3f6f3c63	0.9345152
134	0x3f692323	0.9106924
135	0x3f6d4851	0.9268847
136	0x3f6b4d09	0.9191442
137	0x3f6f80dc	0.93556
138	0x3f68e8c7	0.9098019
139	0x3f6d7e5a	0.9277092
140	0x3f6b215c	0.9184778
141	0x3f6fbe5e	0.9364985
142	0x3f740377	0.95317787
143	0x3f79df7f	0.9760665
144	0x3f7246bb	0.94639176
145	0x3f79035f	0.9727077
146	0x3f73d074	0.9523995
147	0x3f79c6d2	0.97569
148	0x3f72383c	0.94617057
149	0x3f7904fe	0.9727324
150	0x3f73def7	0.9526209
151	0x3f79c65e	0.9756831
152	0x3f7285e6	0.9473556
153	0x3f7919d1	0.9730502
154	0x3f742088	0.9536214
155	0x3f79e816	0.9761976
156	0x3f7257cc	0.9466522
157	0x3f78ff25	0.9726432
158	0x3f6a5052	0.9152881
159	0x3f6ec291	0.93265635
160	0x3f699a17	0.9125075
161	0x3f6e56c4	0.93101144
162	0x3f6aacb0	0.9166975
163	0x3f6e8f3e	0.9318732
164	0x3f6a4b7b	0.91521424
165	0x3f6e3eef	0.9306478
166	0x3f696e6d	0.9118412
167	0x3f6e1d98	0.93013906
168	0x3f68ba9e	0.90909755
169	0x3f6db791	0.92858225
170	0x3f6a3f63	0.9150297
171	0x3f6e645c	0.93121886
172	0x3f6986b0	0.9122114
173	0x3f6deddb	0.92941064
174	0x3f68092d	0.90639
175	0x3f6d1f2a	0.9262568
176	0x3f6757db	0.9036843
177	0x3f6ca832	0.92444146
178	0x3f6a5058	0.91528845
179	0x3f6df947	0.9295849
180	0x3f69cf9d	0.9133242
181	0x3f6dbae9	0.9286333
182	0x3f69196c	0.91054416
183	0x3f6cbb8f	0.9247369
184	0x3f68e65b	0.90976495
185	0x3f6c8f59	0.9240623
186	0x3f684ae9	0.90739304
187	0x3f6c3779	0.92272145
188	0x3f684398	0.9072814
189	0x3f6c2603	0.922455
190	0x3f5bdc06	0.85882604
191	0x3f669a53	0.9007923
192	0x3f5ba69d	0.85801107
193	0x3f6673c2	0.9002038
194	0x3f5bdc06	0.85882604
195	0x3f6674a9	0.9002176
196	0x3f5ba69d	0.85801107
197	0x3f664e90	0.89963627
198	0x3f5ed224	0.870394
199	0x3f68ed4d	0.9098709
200	0x3f5ed224	0.870394
201	0x3f68ed4d	0.9098709

network_body.observation_encoder.processors.1.normalizer.running_mean f4 [10]
0	0x42099718	34.397552
1	0x41661277	14.379508
2	0x00000000	0.0
3	0x00000000	0.0
4	0x00000000	0.0
5	0x00000000	0.0
6	0x00000000	0.0
7	0x00000000	0.0
8	0x00000000	0.0
9	0x00000000	0.0

network_body._body_endoder.seq_layers.0.weight f4 [256, 212]
0	0xbca88a72	-0.020573828
1	0x3ce61e08	0.028090492
2	0x3d790436	0.06079503
3	0xbd701a1b	-0.058618646
4	0xbc88d9a9	-0.016705351
5	0xbe42c65f	-0.19020985
6	0xbc05383c	-0.008131083
7	0xbdcb4049	-0.09924371
8	0x3da619ad	0.08110366
9	0xbca0e27f	-0.019639252
10	0xba8c2f53	-0.0010695256
11	0x3cb286fd	0.021792883
12	0x3dd8bb8c	0.10582647
13	0x3c86ea93	0.016469276
14	0x3dd76bd1	0.10518611
15	0xbd09688e	-0.033546977
16	0xbd37f41b	-0.04491053
17	0xbcfb7025	-0.030693123
18	0x3d3f88db	0.046761375
19	0xbd9d6ba7	-0.07686549
20	0x3c4471d1	0.011990027
21	0x3c401f2c	0.011726182
22	0xbd9e0df0	-0.07717502
23	0xbda46e22	-0.08028819
24	0x3c9aaf2b	0.018882355
25	0x3dc1b9ee	0.094592914
26	0x3c8908c2	0.016727809
27	0x3cffb2ba	0.031213153
28	0x3c75736f	0.014981135
29	0x3d41882a	0.047248997
30	0xbc2e5b6e	-0.010641916
31	0xbcf237a8	-0.029567555
32	0x3c981a0b	0.018567106
33	0x3c511380	0.012760997
34	0x3d884e1a	0.06655522
35	0xbd1fe2a4	-0.0390345
36	0x3cd095e3	0.025462097
37	0x3c81af8b	0.015830776
38	0x3c9b95c6	0.018992316
39	0xbac1dc9b	-0.0014790477
40	0xbca0bb5d	-0.019620592
41	0x3cebf642	0.028803948
42	0xbc729431	-0.014805839
43	0x3dfe03e2	0.12403084
44	0x3ab725ff	0.0013973116
45	0xbe164cd9	-0.14677753
46	0x3dfdb70c	0.12388429
47	0xbd028377	-0.031863656
48	0x3d463dab	0.048398655
49	0xbd865a6f	-0.065602176
50	0x3da6169a	0.0810978
51	0xbd179f3d	-0.037017096
52	0x3df3d8d4	0.11906591
53	0x3d10d590	0.03535992
54	0x3e0a3f46	0.135007
55	0x3c99728c	0.018731378
56	0x3cd53a5b	0.026028803
57	0xbd1a4226	-0.03766074
58	0xbd2909bc	-0.04126905
59	0x3d2d200c	0.04226689
60	0x3daf6bf6	0.08565514
61	0xbdfbbeba	-0.122922376
62	0xbcabff7c	-0.020995848
63	0xbe185d69	-0.14879383
64	0xbc9c8379	-0.01910566
65	0x3de4dbc4	0.111747295
66	0x3b4e07a0	0.003143765
67	0x3e127260	0.14301443
68	0x3c4472b5	0.011990239
69	0x3c82df2d	0.01597556
70	0xbd21cc7b	-0.03950165
71	0x3bd759ce	0.006571985
72	0x3d7fac1a	0.06241999
73	0xbc3ddfd3	-0.011589008
74	0xbcc9950c	-0.024607204
75	0xbdc72f58	-0.09725827
76	0x3a8e35d8	0.0010849787
77	0xbc4b430c	-0.012406122
78	0x3d6d042c	0.057865307
79	0x3d0534b3	0.03252096
80	0x3c8fe060	0.017563045
81	0xbd86a852	-0.06575073
82	0x3cdc6356	0.026902836
83	0x3d64a26a	0.055818953
84	0xbcee3b73	-0.029081082
85	0x3dbe5ff9	0.09295649
86	0x3c9ccc6c	0.019140445
87	0x3b874c20	0.004128948
88	0x3dc658e9	0.09684927
89	0xbc324ce6	-0.010882592
90	0xbd21d815	-0.039512713
91	0x3df31101	0.118684776
92	0x3b191a74	0.0023361715
93	0xbcd87131	-0.026421161
94	0xbcc1e5f6	-0.023669224
95	0x3e2e2a32	0.17008284
96	0xb9ed74ad	-0.00045291093
97	0x3ddc0615	0.107433476
98	0x3d6f1a0a	0.058374442
99	0xba959a52	-0.0011413789
100	0x3d1fe66f	0.039038118
101	0x3d9df19c	0.07712099
102	0x3bf03fe3	0.0073318346
103	0xbd121672	-0.035665937
104	0xbc84d112	-0.016212974
105	0x3c58abf7	0.013224593
106	0x3d426557	0.047459926
107	0x3cf52e91	0.029929431
108	0xbdc75733	-0.09733429
109	0x3d5c3260	0.05375898
110	0x3c8aa5e8	0.016924813
111	0x3c601821	0.013677628
112	0xbd3a0c85	-0.045422096
113	0xbdfed56e	-0.12443052
114	0xbd86c6e8	-0.06580907
115	0x3c89936b	0.016793927
116	0xbd05bde5	-0.0326518
117	0x3d67a4a3	0.056553494
118	0x3e032892	0.12808445
119	0xbc86dbdd	-0.01646226
120	0x3d735c6b	0.05941431
121	0x3dd947f1	0.10609425
122	0x3d3b51ba	0.045732237
123	0xbc20da82	-0.009817721
124	0xbd693752	-0.056937523
125	0xbe16da1e	-0.14731643
126	0xbd85891d	-0.06520293
127	0xbd808ac7	-0.0627647
128	0x3dc87693	0.09788241
129	0xbd859c06	-0.065239
130	0x3c6c21ef	0.014412387
131	0x3cd561e6	0.026047658
132	0xbd8dd4d3	-0.069253586
133	0xbca9082a	-0.020633776
134	0xbc9cc668	-0.019137576
135	0x3bcef8cb	0.0063162795
136	0x3b4e04e6	0.0031436025
137	0xbcdf2da6	-0.027243447
138	0x3cee8eb4	0.02912078
139	0xbd53d9c7	-0.05172136
140	0x3d528418	0.051395506
141	0xbcb359e4	-0.02189345
142	0x3df2cd46	0.11855559
143	0xbd1ba434	-0.037998393
144	0xbdaea385	-0.085272826
145	0xbe0516c9	-0.12996973
146	0xbda21c79	-0.07915587
147	0x3d55061f	0.05200779
148	0x3b8f5046	0.004373583
149	0xbd14683c	-0.03623222
150	0x3d7c0736	0.061530314
151	0x3d96410d	0.07336626
152	0x3cf962a2	0.03044254
153	0xbd1af4ed	-0.037831236
154	0xbc472778	-0.012155406
155	0xbdd42ed9	-0.10360498
156	0xbd84e881	-0.06489659
157	0xbd87853a	-0.06617208
158	0x3d2fa99c	0.04288636
159	0xbde9e0ad	-0.11419807
160	0xbdb7e8ff	-0.08979987
161	0x3d613913	0.05498607
162	0x3d8ea118	0.0696432
163	0x3dfd6221	0.12372232
164	0xbb8dd9c4	-0.004328938
165	0x3d3dd93b	0.046349745
166	0xbd650b90	-0.05591923
167	0xbcd633b8	-0.026147708
168	0x3b7b9c67	0.0038392784
169	0x3c4b5546	0.0124104675
170	0x3df4d99a	0.11955567
171	0xbe2410fb	-0.16022103
172	0xbd71d2f4	-0.05903907
173	0xbbdd5a21	-0.006755129
174	0xbdd5f00e	-0.104461774
175	0xbd20efa0	-0.039291024
176	0xbdb0bba9	-0.08629543
177	0xbca8c811	-0.020603212
178	0x3d038acd	0.032114793
179	0x3df64e31	0.120266326
180	0xbcb725f7	-0.02235697
181	0xbad69114	-0.0016370141
182	0x3c971708	0.0184436
183	0xbde6e144	-0.11273435
184	0xbd0c4a3a	-0.034250475
185	0xbca4b704	-0.0201068
186	0x3d1db49a	0.038502313
187	0x3d92f38b	0.071753584
188	0x3c21b24c	0.009869169
189	0x3d00c2da	0.031435825
190	0xbdafa25b	-0.08575889
191	0x3d257a61	0.040399913
192	0x3dcf41fc	0.101200074
193	0x3da8776e	0.082259044
194	0xbc74a83a	-0.014932686
195	0x3d8d0110	0.06884968
196	0x3dc63ab9	0.09679169
197	0x3cd3e8c9	0.025867837
198	0x3dc47e38	0.09594387
199	0xbd797d4e	-0.060910515
200	0xbc5e01ba	-0.013550216
201	0xbdd4a28a	-0.10382564
202	0x3dd12ad7	0.10213249
203	0xbd748693	-0.059698652
204	0xbdb4dca7	-0.088311486
205	0xbe35091e	-0.17679259
206	0x3d635fed	0.055511404
207	0x3d741937	0.05959436
208	0x3dbdabe0	0.09261298
209	0x3d9a145b	0.07523414
210	0x3d264649	0.040594373
211	0xbe01b52d	-0.1266677
212	0x3da54ce0	0.08071303
213	0xbb1fd808	-0.002439024
214	0x3cc86601	0.024462702
215	0x3d6b0a1c	0.057382688
216	0x3d0be6f8	0.034155816
217	0x3df6e96c	0.120562404
218	0x3db449fa	0.088031724
219	0x3cc85df7	0.024458868
220	0x3d9eb2bf	0.07748937
221	0x3e26c4ae	0.16285965
222	0x3c67a43d	0.014138279
223	0x3de04a48	0.10951668
224	0xbadb5697	-0.001673418
225	0xbd0910df	-0.033463355
226	0x3b97de39	0.0046346453
227	0x3dd3e213	0.103458546
228	0x3da9ca7f	0.08290576
229	0xbc0f981b	-0.008764292
230	0xbd219e84	-0.039457813
231	0x3dd45fdf	0.103698485
232	0x3e03d8b3	0.12875633
233	0xbc268594	-0.010163683
234	0xbcbf7309	-0.023370283
235	0x3ce0bf97	0.027435107
236	0x3cf1f3df	0.029535232
237	0xbd063ed2	-0.032774754
238	0x3dc0dd03	0.09417155
239	0xbd7103b6	-0.05884143
240	0xbdd98b8d	-0.1062232
241	0xbb440269	-0.0029908663
242	0xbdc9d5d1	-0.09855235
243	0xbcb60a58	-0.02222173
244	0x3dbd78d4	0.09251562
245	0xbc26ec93	-0.01018824
246	0xbd5d22cd	-0.053988267
247	0xbd153e9a	-0.036436655
248	0xbde9b9c4	-0.11412385
249	0x3d8d81c6	0.06909518
250	0xbc43c2f2	-0.011948334
251	0x3d559ae3	0.052149665
252	0x3cc690a3	0.02423889
253	0x3c4f9beb	0.012671451
254	0xbd3f992d	-0.04677694
255	0xbd720c41	-0.059093717

network_body._body_endoder.seq_layers.0.bias f4 [256]
0	0xbd2aa4e8	-0.041661173
1	0x3c6150e9	0.013752201
2	0x3c54d015	0.012989064
3	0x3b2f8530	0.0026782267
4	0x3b9e02c6	0.004822108
5	0x3c5a8a59	0.013338649
6	0x3cb2af56	0.021812122
7	0x3c45d559	0.012074792
8	0xbbcafd82	-0.0061947713
9	0x3c8dc810	0.017307311
10	0x3cd2d623	0.025736874
11	0x3cbbe96d	0.022938455
12	0x3b8eba3f	0.0043556984
13	0xbd22f2a5	-0.039782185
14	0x3d00717b	0.031358223
15	0x3bbdf8c2	0.0057974765
16	0x3c4a0535	0.012330343
17	0x3c785b77	0.015158526
18	0x3cb4b159	0.022057222
19	0x3cafaab3	0.0214437
20	0x3ca9a7b8	0.020709857
21	0x3c29ab4c	0.010355782
22	0x3cabc249	0.020966666
23	0x3cad7d32	0.021177862
24	0x3ce0c893	0.027439391
25	0x3ca42603	0.020037657
26	0x3c9d22b8	0.019181594
27	0x3cfa6805	0.030567179
28	0x3be2d100	0.0069218874
29	0x3bbea9d4	0.005818585
30	0x3b80650c	0.0039182957
31	0x3d130b00	0.035899162
32	0x3ce870e3	0.028374141
33	0x3ccef4e9	0.025263267
34	0x3b34c332	0.0027582166
35	0x3ca5af16	0.020225089
36	0x3ca5a056	0.020218056
37	0xbae3bed7	-0.00173756
38	0x3b8230ef	0.0039731185
39	0x3cf071bc	0.029351108
40	0x3c25e54d	0.01012547
41	0x3c8ed64e	0.017436173
42	0x3d058391	0.032596175
43	0x3b18c3eb	0.0023310136
44	0x3cc6ffd4	0.02429191
45	0x3ca447c5	0.020053754
46	0xb9d1ab80	-0.00039991364
47	0x3cc5aab3	0.024129247
48	0xbc2b17c9	-0.010442683
49	0x3cdd7973	0.02703545
50	0x3c1beb30	0.009516522
51	0x3bb68d87	0.0055710706
52	0x3cb46900	0.022022724
53	0x3c149835	0.009069492
54	0x3d03d9ba	0.032190062
55	0x3cf7430e	0.030183341
56	0x3c8aacff	0.016928194
57	0x3c87d421	0.016580643
58	0x3c07488d	0.008257044
59	0x3d0a521c	0.03376971
60	0xb9e4893c	-0.00043589796
61	0x3b471536	0.0030377633
62	0x3c4efe6e	0.012633903
63	0x3c70eb8d	0.014704597
64	0x3d177d24	0.036984578
65	0x3cb37785	0.021907577
66	0x3d01bf55	0.03167661
67	0x3c9475a5	0.018122504
68	0x3ce37fd3	0.027770912
69	0x3c9c1845	0.019054541
70	0x3c04dd43	0.0081093935
71	0x3c963f3f	0.018340705
72	0x3ca03f76	0.01956151
73	0x3bd21960	0.0064117163
74	0x3d2b024b	0.041750234
75	0x3b568580	0.003273338
76	0x3c9b4279	0.018952595
77	0x3bb79b82	0.005603255
78	0xbcded62c	-0.027201734
79	0x3cc4b3f8	0.024011597
80	0x3bd0149d	0.0063501135
81	0x3bbbbdd0	0.0057294145
82	0x3ca1f654	0.019770779
83	0x3bb2ddfd	0.005458592
84	0x3ceab11d	0.028648907
85	0x3a473e1c	0.00076005026
86	0xbc55f58e	-0.013059033
87	0x3acf6b55	0.0015824834
88	0xbb065236	-0.002049578
89	0x3c0f0e2a	0.008731404
90	0x3c2df4fb	0.01061749
91	0x3b7b8235	0.003837717
92	0x3c40ea27	0.011774576
93	0xbae7e64a	-0.0017692533
94	0x3c4557aa	0.0120448265
95	0x3c77e266	0.015129661
96	0x3cbeb8ee	0.02328154
97	0x3c4d3f0c	0.012527239
98	0x3d226959	0.03965125
99	0x3d0c207a	0.03421066
100	0xb847d35c	-4.764214e-05
101	0x3c334def	0.010943874
102	0x3c53b1f5	0.012920846
103	0x3c0f552e	0.008748336
104	0x3c33028c	0.0109259
105	0x3c8020ba	0.015640605
106	0x3c4c9cc1	0.012488545
107	0x3b9f0245	0.0048525655
108	0x3cd27350	0.02568975
109	0x3c264bf9	0.010149949
110	0xbc0f812e	-0.008758826
111	0x3ca3a0de	0.019974168
112	0xbcfc23c9	-0.030778782
113	0x3c359e84	0.011085156
114	0x3c84d901	0.016216757
115	0x3ad1a19d	0.0015993599
116	0x3b2c76de	0.0026315968
117	0x3bd30ec5	0.0064409696
118	0x3c411b4f	0.011786296
119	0x3cdc7ebb	0.026915899
120	0x3cbf6f05	0.023368368
121	0xbc49ce85	-0.0123173045
122	0x3cd4c657	0.025973482
123	0x3c2c5c42	0.010520043
124	0x3ca77b13	0.020444429
125	0x3ca1f4e8	0.0197701
126	0xbbe86648	-0.007092271
127	0xbcbbda20	-0.022931159
128	0xbba1e09a	-0.0049401047
129	0x3c99a5e7	0.018755866
130	0x3c7b85f8	0.015351765
131	0x3ce04b0a	0.027379531
132	0x3c6add25	0.0143349515
133	0x3c8c002d	0.017089928
134	0x3a59b36a	0.0008304628
135	0x3c4bf785	0.01244915
136	0x3cde9302	0.027169708
137	0x3cffa58c	0.031206869
138	0x3ce5e4be	0.028063174
139	0x3c7ba788	0.015359767
140	0x3c1e5911	0.00966479
141	0x3c54b44d	0.01298244
142	0x3d2c329b	0.04204045
143	0xbbe180a7	-0.0068817916
144	0x3ce27936	0.027645689
145	0x3cfa0165	0.030518243
146	0x3c857839	0.016292678
147	0x3c460674	0.0120864995
148	0x3c82d68b	0.015971443
149	0xbbca9733	-0.006182575
150	0x3c5b3f57	0.013381801
151	0x3ccbcaf4	0.024877049
152	0x3c1f847f	0.009736179
153	0xbc4295ee	-0.011876566
154	0x3d075a75	0.03304525
155	0x3d109e3a	0.035307147
156	0x3c68fb55	0.0142200785
157	0x3cb218ac	0.02174028
158	0x3c68250d	0.01416899
159	0x3bc59190	0.0060293153
160	0x3cafc637	0.02145682
161	0x3b389ffe	0.0028171535
162	0x3cc26e37	0.023734195
163	0x3c82cc57	0.015966577
164	0x3cd1b9cf	0.025601296
165	0x3c7ecf90	0.015552416
166	0x3c984cab	0.018591246
167	0x3cc559fe	0.024090763
168	0x3c972511	0.018450292
169	0x3cc2e8ec	0.023792706
170	0x3ca82eee	0.02053019
171	0x3cbff79b	0.023433497
172	0xbcb7bec2	-0.022429828
173	0x3c79343f	0.01521021
174	0x3d021b99	0.0317646
175	0x3c1bebf1	0.009516702
176	0x3c494e83	0.012286785
177	0x3b3d7fb7	0.0028915235
178	0x3c97f9ce	0.018551733
179	0x3d3a269d	0.04544698
180	0x3c668f2b	0.01407222
181	0x3c7c87f5	0.015413274
182	0x3d1e4dfb	0.038648587
183	0x3cbb1df2	0.022841427
184	0x3c945ad1	0.01810971
185	0x3c65c2f2	0.014023529
186	0x3ca45759	0.020061182
187	0x3c9c2ca1	0.01906425
188	0x3c305d7b	0.010764475
189	0x3ccd70c3	0.025078183
190	0x3d09e414	0.033664778
191	0x3c4e6001	0.012596131
192	0xbbe16fa6	-0.0068797646
193	0x3c7773b2	0.0151032675
194	0xbbdd616a	-0.0067559974
195	0x3cc66a98	0.02422075
196	0x3beb5e62	0.007182882
197	0xbbf4a85c	-0.007466359
198	0x3c029ea8	0.007972397
199	0x3caa6c9c	0.020803742
200	0xbb081b02	-0.002076805
201	0x3d04f9bf	0.03246474
202	0x3c9c0ce5	0.019049117
203	0x3bba5b90	0.0056871846
204	0xbb0f468d	-0.002186212
205	0x3c7e28d3	0.015512663
206	0x3b7b1468	0.0038311724
207	0x3c885088	0.016639963
208	0xbc19ab9a	-0.009379292
209	0x3cc2e319	0.02378993
210	0x3cc6f47d	0.024286503
211	0x3b8b12d9	0.00424419
212	0x3b380627	0.002807984
213	0xbb5e3b3f	-0.0033909825
214	0x3b155a7a	0.0022789524
215	0x3d08c581	0.03339148
216	0x3c89f31e	0.01683956
217	0x3c86d6df	0.01645988
218	0x3cecbe80	0.028899431
219	0x3c5ab4a3	0.013348731
220	0x3cd4a680	0.0259583
221	0xbc2d6329	-0.010582724
222	0xbbf45c4a	-0.007457291
223	0x3be5d1f7	0.007013555
224	0x3c01285e	0.007883159
225	0x3c92ff54	0.017944016
226	0x3c1af620	0.009458095
227	0x3ad84f9b	0.0016503216
228	0xbc448d5e	-0.011996595
229	0x3cc3be02	0.023894314
230	0x3cdc41bc	0.026886813
231	0x3c89daa8	0.016827896
232	0xba515a36	-0.000798616
233	0x3d0edec5	0.03488042
234	0x3c398624	0.0113234855
235	0x3c68a877	0.014200321
236	0x3d0adb86	0.03390076
237	0x3bc3b076	0.0059719635
238	0x3c42e7e2	0.0118961055
239	0x3ca7a809	0.020465868
240	0x3aafa782	0.0013401362
241	0x3b4ca09f	0.0031223667
242	0x3d453b0c	0.048152015
243	0x3cb5b222	0.022179667
244	0x3cb7a096	0.02241544
245	0xbb739080	-0.0037164986
246	0xbb04e9dc	-0.0020280993
247	0x3ca7896b	0.020451268
248	0xbcb9b2ff	-0.02266836
249	0xbbc5ee8a	-0.006040399
250	0x3cfc49c4	0.030796893
251	0x3b7fd72a	0.003903816
252	0x3c717fb6	0.014739921
253	0x3c0ca486	0.008584147
254	0x3c69d668	0.01427231
255	0xbae96148	-0.0017805481

network_body._body_endoder.seq_layers.2.weight f4 [256, 256]
0	0xbd601420	-0.054706693
1	0xbca6272b	-0.020282349
2	0xbdd59b92	-0.10430063
3	0x3dc75e40	0.09734774
4	0xbd64f0d2	-0.055893727
5	0xbe17a074	-0.14807302
6	0x3d86fec4	0.065915614
7	0xbc014e0e	-0.007892145
8	0x3dad316e	0.084566936
9	0xbd9a3c39	-0.07531018
10	0x3d1603c9	0.036624704
11	0x3d23b112	0.03996379
12	0xbdb0a713	-0.08625617
13	0xbd4d2348	-0.050082475
14	0x3e50fdf6	0.20409378
15	0x3d0f822f	0.035036262
16	0x3ddc0b83	0.10744383
17	0x3d661b8a	0.056178607
18	0x3c9d785d	0.019222433
19	0xbd2ba3af	-0.041904148
20	0xbe276f7c	-0.16351122
21	0xbdb4b43a	-0.08823438
22	0x3d6e0d87	0.05811837
23	0x3d2f88b9	0.042855
24	0x3cd798c2	0.026317958
25	0xbdce82ed	-0.10083566
26	0x3dd2c474	0.10291377
27	0x3c9413f0	0.018075913
28	0xbe09f182	-0.13471034
29	0x3ca06326	0.019578528
30	0x3d52ad71	0.051434938
31	0xbdb5becf	-0.088742845
32	0x3d1fd29a	0.039019205
33	0x3d8898f4	0.066697985
34	0xbe2bcf00	-0.16778183
35	0xbcd15f69	-0.02555819
36	0xbc876a27	-0.01653011
37	0xbcad8a68	-0.021184161
38	0xb9c283b8	-0.00037100702
39	0x3d3ef732	0.046622463
40	0x3c56c848	0.013109274
41	0x3ccc027f	0.024903534
42	0xbcb50801	-0.022098543
43	0xbd00f00e	-0.031478934
44	0x3d38526f	0.04500049
45	0x3dff47c4	0.1246486
46	0xbd560f9e	-0.052260987
47	0xbd837273	-0.06418314
48	0xbe09058d	-0.13381024
49	0x3d3b9847	0.04579952
50	0xbc399957	-0.011328063
51	0xbd11fb6e	-0.035640173
52	0x3d175460	0.0369457
53	0xbd098c99	-0.03358135
54	0xbd7a9149	-0.06117371
55	0x3d3f06bc	0.04663728
56	0x3d1f8874	0.03894849
57	0xbdd6570d	-0.10465822
58	0x3d3d711b	0.046250444
59	0x3d8035f1	0.062602885
60	0xbcf454aa	-0.029825527
61	0xbcc0cd25	-0.02353532
62	0xbda7c0c1	-0.08191062
63	0x3d9a5dae	0.07537399
64	0x3c495573	0.012288439
65	0xbd0e0154	-0.034669235
66	0x3d2c85b6	0.042119704
67	0x3daa4271	0.08313454
68	0x3d832484	0.06403449
69	0xbcf28d51	-0.0296084
70	0xbd517090	-0.05113274
71	0x3cb15397	0.021646304
72	0xbe087e4d	-0.1332943
73	0x3d7074b5	0.05870505
74	0xbca6d775	-0.02036641
75	0xbd7ea648	-0.062170297
76	0xbcd1f008	-0.025627151
77	0x3dbafb2a	0.09129937
78	0xbd15b570	-0.036549985
79	0xbbf4c2cf	-0.007469512
80	0xbd8b10be	-0.06790303
81	0x3cdfdb74	0.027326323
82	0xbdc3412c	-0.09533915
83	0xbdda6722	-0.10664202
84	0x3cd760ac	0.026291214
85	0x3d1bf558	0.038075775
86	0x3d579f5b	0.052642208
87	0x3d078596	0.03308638
88	0xbd5d4186	-0.054017566
89	0x3e1f39a3	0.1554933
90	0xbd68ba07	-0.056818034
91	0x3d70f3e4	0.058826342
92	0x3d9f11b2	0.07767047
93	0xbbaeb85e	-0.005332037
94	0xbcaa71cf	-0.020806221
95	0x3cca44da	0.024691034
96	0x3bb5564f	0.0055339704
97	0x3bb8eb9f	0.0056433226
98	0xbd287d7d	-0.0411353
99	0x3c9fb4e8	0.019495443
100	0x3d838523	0.06421878
101	0xbc44ee09	-0.012019643
102	0xbc30505f	-0.010761349
103	0x3bf6a8ff	0.00752747
104	0xbd62156c	-0.05519621
105	0xbc0ffa27	-0.008787668
106	0x3d2b0970	0.041757047
107	0x3d345241	0.044023756
108	0xbd1eb944	-0.0387509
109	0xbd150f4e	-0.03639155
110	0xbcac3d64	-0.021025367
111	0x3daad755	0.083418526
112	0x3d18830b	0.037234347
113	0x3d47eba7	0.04880872
114	0x3cf15f01	0.029464247
115	0x3d4dcd0b	0.050244372
116	0xbda55f48	-0.08074814
117	0x3d874df2	0.06606664
118	0xbc08c6fb	-0.008348222
119	0x3d4de5a4	0.05026783
120	0x3d986830	0.07441747
121	0x3da65b3c	0.0812287
122	0xbe19e3dc	-0.15028328
123	0x3cc0cc0f	0.023534803
124	0xbd2072f7	-0.03917214
125	0x3c6da1f6	0.0145039465
126	0xbcf903ab	-0.030397257
127	0xbd94d874	-0.07267848
128	0x3ddc1dd2	0.10747875
129	0x3d331553	0.04372151
130	0x3d5b4de7	0.05354109
131	0xbdda2916	-0.10652368
132	0xbc4fafed	-0.012676221
133	0xbdd22ccb	-0.1026245
134	0xbcdf6f42	-0.027274732
135	0x3d3a484e	0.04547911
136	0x3c8f7269	0.01751061
137	0x3de22f17	0.11044138
138	0xbb03663b	-0.0020049948
139	0xbdaf40ba	-0.085572675
140	0x3e22fc9b	0.15916674
141	0xbddbc2dd	-0.107305266
142	0x3d4614fb	0.048359852
143	0xbd5cd262	-0.053911574
144	0xbd4ffdb0	-0.050779045
145	0x3c9a2abc	0.018819205
146	0xbcbbb39f	-0.022912798
147	0x3b90c4c8	0.0044179894
148	0xbd0eb6f1	-0.034842435
149	0xbd15e097	-0.03659114
150	0xbd9b00f2	-0.0756854
151	0x3da1c4f0	0.07898891
152	0xbda0db78	-0.0785436
153	0xbd83208c	-0.06402692
154	0x3d9ab189	0.075533934
155	0xbc76c97a	-0.015062684
156	0xbbbe4d0c	-0.0058075245
157	0xbbecb317	-0.0072234976
158	0xbd92b8c9	-0.07164151
159	0x3e45e382	0.19325069
160	0x3c808663	0.01568908
161	0x3d0ebb2b	0.034846466
162	0xbd0e5dd2	-0.034757443
163	0xbccdb16c	-0.025109015
164	0xbd0f7f3c	-0.03503345
165	0xbdbd647a	-0.0924768
166	0x3e01a519	0.12660636
167	0xbddfbe7c	-0.10925004
168	0x3d032537	0.032017913
169	0x3deb839e	0.11499713
170	0x395cbe3a	0.000210517
171	0xbd934b22	-0.07192065
172	0x3d333332	0.043749996
173	0x3db286de	0.0871713
174	0xbd8e3d2b	-0.069452606
175	0x3cba91dc	0.02277463
176	0x3d992b23	0.07478931
177	0x3cc2e23c	0.023789518
178	0xbce64d49	-0.028113024
179	0xbd56301d	-0.05229198
180	0x3db853eb	0.09000381
181	0xbd0269c0	-0.031839132
182	0x3cb81dbe	0.02247512
183	0x3d9aaed3	0.07552876
184	0xbcfe76e3	-0.031062549
185	0x3a4c1412	0.0007784973
186	0xbdabadaa	-0.08382733
187	0x3d41c235	0.04730435
188	0xbd2c242d	-0.042026687
189	0xbcc40959	-0.023930239
190	0xbd4e7af8	-0.05041024
191	0x3c5a335c	0.013317909
192	0xbd298b15	-0.041392405
193	0xbd2f30e3	-0.04277123
194	0xbd441bcb	-0.047878068
195	0xbde13426	-0.10996275
196	0x3d373c2c	0.04473512
197	0x3d8f34bf	0.069924824
198	0x3c9bf6da	0.019038606
199	0xbd1586f4	-0.036505654
200	0xbc95af48	-0.018272057
201	0xbcd7b159	-0.026329683
202	0x3d0e5528	0.03474918
203	0x3bff6f7f	0.007795274
204	0x3dd58722	0.10426165
205	0xbc289bd2	-0.010291057
206	0x3c961c69	0.018324094
207	0x3e3473db	0.1762232
208	0xbc905ead	-0.01762327
209	0xba640732	-0.0008698582
210	0x3d2c7228	0.042101055
211	0xbd21e3ff	-0.039524075
212	0x3b995edc	0.0046804976
213	0xbd19acc0	-0.037518263
214	0xbd9b6f71	-0.07589615
215	0xbbf19d0b	-0.0073734573
216	0xbc959421	-0.01825911
217	0x3d2d1946	0.04226043
218	0xbcf25fbc	-0.029586665
219	0xbd1b4515	-0.03790768
220	0xbdb9ac11	-0.09066022
221	0x3d376893	0.044777464
222	0xbd514844	-0.05109431
223	0xbd1986af	-0.03748196
224	0x3ce7a772	0.028278086
225	0x3de1c368	0.11023599
226	0x3bc31743	0.0059537007
227	0x3d14a437	0.03628942
228	0xbd2c2d9b	-0.04203568
229	0xb971f3f8	-0.00023074436
230	0xbdf628ca	-0.12019499
231	0x3d9972ff	0.07492637
232	0x3cad81a9	0.02117999
233	0xbd66825b	-0.05627666
234	0xbd4e9ff9	-0.05044553
235	0x3be7702c	0.0070629325
236	0x3c9e8ba4	0.019353695
237	0x3d3a33a1	0.045459393
238	0x3e231e20	0.1592946
239	0xbd442a3c	-0.04789184
240	0x3d75a65d	0.05997311
241	0xbc3a05b6	-0.011353901
242	0xbd811e38	-0.06304592
243	0x3d12aa61	0.035807017
244	0xbd2a92ef	-0.041644033
245	0x3da65d28	0.08123237
246	0xbbf5435f	-0.007484838
247	0x3de77104	0.11300853
248	0x3dd96700	0.10615349
249	0x3c5e3f0b	0.013564835
250	0x3d1dd447	0.03853252
251	0xbbd7141a	-0.0065636756
252	0x3bca727f	0.0061782
253	0xbc6569a1	-0.014002235
254	0x3bd34eab	0.006448587
255	0x3e105c75	0.1409777

network_body._body_endoder.seq_layers.2.bias f4 [256]
0	0x3c8c1552	0.01710001
1	0x3b99980b	0.0046873144
2	0x3c49a8f9	0.012308353
3	0x3be9b3a4	0.0071320105
4	0x3bddec9f	0.006772592
5	0x3c857c93	0.016294753
6	0x3b543cfb	0.003238498
7	0x3bdcd1a8	0.00673886
8	0x3bfd13ac	0.0077232923
9	0x3c688184	0.014191035
10	0x3bc1511e	0.0058995625
11	0xbb2a7fdd	-0.0026016154
12	0x3cc036f6	0.023463707
13	0x3c1bf9a5	0.009519969
14	0x3c7ef94d	0.015562368
15	0x3c21d448	0.009877272
16	0x3bbc49c2	0.0057460973
17	0x3c20d6b4	0.009816814
18	0x3cc1fe7e	0.023680922
19	0x3c6c9375	0.014439453
20	0x3c181e07	0.009284503
21	0x3c8107d9	0.015750812
22	0x3c79aca4	0.015238915
23	0x3c42ace4	0.011882041
24	0x3cc3f0ac	0.023918472
25	0x3b703800	0.0036654472
26	0x3cab2e53	0.020896113
27	0x3b2df79d	0.0026545294
28	0x3cc0a7da	0.023517538
29	0xbb7ffcd6	-0.0039060614
30	0x3c3f79e0	0.011686772
31	0x3b7d6109	0.0038662574
32	0x3bddd70a	0.0067700194
33	0x3b37d4e1	0.002805047
34	0x3b7bffcc	0.0038452027
35	0x3c0533a3	0.008129987
36	0x3c973129	0.018456059
37	0x3c8ca91c	0.017170481
38	0x3c2aaaec	0.0104167275
39	0x3b6e2269	0.0036336428
40	0x3c09398e	0.0083755385
41	0x3c00b54b	0.007855724
42	0x3cd88969	0.02643271
43	0x3cec8226	0.028870653
44	0x3b5fcd77	0.0034149566
45	0x3cd39cf3	0.025831675
46	0x3c67c3d7	0.014145813
47	0x3bb62be4	0.0055594314
48	0x3cc6c375	0.024263123
49	0x3c9b09a3	0.018925494
50	0x3c1c4c66	0.009539699
51	0x3c80b00e	0.01570895
52	0x3c9ffd69	0.019530015
53	0x3bb31a11	0.005465754
54	0x3ca81121	0.02051598
55	0x3ca47d29	0.020079212
56	0x3c781bb6	0.015143326
57	0x3c8079a8	0.01568301
58	0xbb57bb9d	-0.0032918223
59	0x3c01a349	0.007912465
60	0x3b9259d1	0.0044662734
61	0x3c39e1ac	0.011345308
62	0x3ce51104	0.027962215
63	0x3b434cbe	0.002980038
64	0x3b005827	0.0019583793
65	0x3cd09476	0.025461417
66	0x3b9b8d14	0.0047470424
67	0x3c9e6915	0.019337216
68	0x3b5dbd3e	0.003383472
69	0x3c9619a1	0.018322768
70	0x3cbaa2ed	0.022782767
71	0x3c7434ba	0.014905149
72	0x3be94ca6	0.007119733
73	0x3c49378d	0.012281311
74	0x39e18858	0.00043016928
75	0x3ce786b0	0.028262466
76	0x3c716ac5	0.0147349285
77	0x3c8f6361	0.017503442
78	0x3cdb4b3c	0.026769273
79	0x3ca326fa	0.019916046
80	0x3a8346f2	0.001001565
81	0x3c3c000b	0.01147462
82	0xbb080019	-0.0020752011
83	0x3ccb1904	0.024792202
84	0x3ca2fabc	0.01989495
85	0x3c5a9910	0.013342157
86	0x3cbaccc7	0.022802724
87	0x39af004f	0.0003337883
88	0x3c9cd4dd	0.01914447
89	0x3cb77895	0.022396365
90	0x3c3e505d	0.01161584
91	0x3cb1b0fe	0.021690842
92	0x3ca682f1	0.02032611
93	0x3cd2a29a	0.0257123
94	0x3c7c3c93	0.015395301
95	0xbaf1ccc8	-0.001844787
96	0x3c718fbb	0.014743741
97	0x3ccd0b76	0.025029879
98	0x3c8e4dbc	0.017371051
99	0x3ca6dbd5	0.020368496
100	0x3c543239	0.012951427
101	0x3c147bdd	0.009062734
102	0x3ab713e6	0.0013967722
103	0x3ccf7bf0	0.025327653
104	0x3b5d0488	0.0033724625
105	0x3bba8d06	0.005693081
106	0x3954736b	0.00020260892
107	0x3c84a2b6	0.016190868
108	0x3c3e20e4	0.011604521
109	0x3cadd07f	0.021217583
110	0xbb8de22f	-0.0043299417
111	0x3c8bb6d9	0.017054962
112	0x3c595ec8	0.0132672265
113	0x3cb76f33	0.022391891
114	0x3b8fe040	0.0043907464
115	0x3cb4a07e	0.022049185
116	0x3c877ca5	0.016538927
117	0x3c9e82fa	0.019349564
118	0x3c235a94	0.009970326
119	0x3c80d7c4	0.015727885
120	0x3c5f4e25	0.013629471
121	0x3cd844a8	0.026399925
122	0xbb09ad3a	-0.0021007792
123	0x3c3906f3	0.011293161
124	0x3c25cede	0.010120122
125	0x3c620c89	0.013796934
126	0x3ce6c2e8	0.02816911
127	0x3c8c87c2	0.017154578
128	0x3c60862d	0.013703865
129	0x3c1fc107	0.009750611
130	0x390687fc	0.00012829894
131	0x3c522fe2	0.012828799
132	0x3bac5fc7	0.005260441
133	0x3bc70e81	0.006074727
134	0x3c231689	0.009954103
135	0x3cd03e1c	0.025420241
136	0xba498328	-0.00076870853
137	0x3b1ca9b6	0.0023904867
138	0x3c67ae6f	0.014140709
139	0x3c959d5e	0.018263515
140	0x3c827b34	0.015927888
141	0x3be892af	0.007097564
142	0x3c3c8dfc	0.011508461
143	0x3889d318	6.571988e-05
144	0x3cdc2acb	0.026875874
145	0x3ca0e9e8	0.019642785
146	0x3ceceac0	0.028920531
147	0x3cbb5121	0.022865834
148	0x3ccc6ea8	0.024955109
149	0x3bf413e0	0.0074486583
150	0x3cafca79	0.021458851
151	0x3a7998b0	0.00095213484
152	0x3cc081cb	0.02349939
153	0x3cadc3fe	0.02121162
154	0x3c497472	0.012295829
155	0x3a165a55	0.00057355064
156	0x3c6dae8b	0.014506946
157	0x3c53c03b	0.012924249
158	0x3c554f23	0.013019356
159	0x3cdf765d	0.02727812
160	0x3c4bcaef	0.01243852
161	0x3cb6d72d	0.0223194
162	0xbbee08d7	-0.0072642374
163	0x3c5cb512	0.013470905
164	0x3caeee15	0.02135376
165	0x3c98fb17	0.018674416
166	0x3c540038	0.012939505
167	0x3c0b4840	0.008501112
168	0x3c65eb83	0.014033201
169	0x3c5ca33a	0.013466651
170	0x3c1cc1e2	0.00956771
171	0x3ca1c474	0.019746996
172	0x3b3a5d43	0.0028436936
173	0x3c63479c	0.0138720535
174	0x3cb2f4b1	0.021845194
175	0x3cc2011e	0.023682173
176	0x3c6d24c9	0.014474102
177	0x3ca07dec	0.019591294
178	0x3cc8e371	0.024522515
179	0x3ce7142a	0.028207857
180	0x3c73540f	0.014851584
181	0x3c943b1a	0.018094588
182	0x3c2c0bf2	0.010500895
183	0x3cbe0361	0.02319497
184	0x3ca2cf64	0.019874282
185	0x3c787a32	0.015165852
186	0x3a43de5c	0.0007471794
187	0x3cd69f9b	0.026199153
188	0x3b7f80e4	0.0038986737
189	0x3c2e059b	0.010621454
190	0x3bad5bd1	0.0052904864
191	0xbc4126de	-0.011789052
192	0x3c42011a	0.011841083
193	0x3c546b26	0.012964999
194	0x3c8b5518	0.01700835
195	0x3c1a1da5	0.009406482
196	0x3c99fe11	0.018797906
197	0x3c5fa6e0	0.013650626
198	0x3bdd611c	0.006755961
199	0x3cbf321d	0.023339326
200	0x3cfe8447	0.031068934
201	0x3ca500cb	0.02014198
202	0x3d13eb8e	0.036113314
203	0x3c4d1a50	0.01251848
204	0x3c208d27	0.009799278
205	0x3bc69a8e	0.006060905
206	0x3bfb3c91	0.007667132
207	0x3c88f132	0.016716573
208	0x3c3eb9aa	0.011640945
209	0x3caa0e78	0.020758852
210	0x3c36017e	0.011108754
211	0x3c82e448	0.015977994
212	0x3c8861fb	0.016648283
213	0x3c4f0807	0.012636191
214	0x3ca41cbe	0.020033237
215	0x3c965dfb	0.01835536
216	0x3b57e903	0.0032945282
217	0x3c5594ea	0.013035992
218	0xbbab2454	-0.0052228365
219	0x3cb131c4	0.021630175
220	0x3cccbdb2	0.024992798
221	0x3c97ae5b	0.018515756
222	0x3c37ad45	0.011210744
223	0x3c218364	0.009857986
224	0x3c6d7622	0.014493497
225	0x3c61156f	0.01373802
226	0x3b851f45	0.0040625655
227	0x3ca769c6	0.020436179
228	0x3cdf385b	0.027248552
229	0x3c6b49be	0.014360843
230	0x3c945665	0.018107602
231	0x3c8d8c11	0.017278703
232	0x3ba3be1d	0.0049970285
233	0xbbb13d8d	-0.0054089488
234	0x3bfc9908	0.0077086724
235	0x3d10a54c	0.03531389
236	0x3c01304f	0.007885053
237	0xba1424ad	-0.0005651217
238	0x3c7934a2	0.015210303
239	0x3c3a0aac	0.011355083
240	0x3ca2a394	0.01985339
241	0x3b378d81	0.0028007927
242	0x3c10c105	0.008835082
243	0x3c90c9b4	0.017674305
244	0x3c10e22b	0.008842985
245	0x3c1de217	0.009636424
246	0x3bbfd3e6	0.0058541177
247	0x3c01a2b4	0.007912327
248	0x399cba44	0.00029893417
249	0x3be27d33	0.0069118976
250	0x3c65340d	0.013989461
251	0x3c3dfa51	0.011595325
252	0x3c7e647b	0.015526886
253	0x3ca33ea3	0.019927328
254	0x3c043d5e	0.008071272
255	0x3c7b1fd9	0.015327417

action_model._discrete_distribution.branches.0.weight f4 [4, 256]
0	0x3b28e7a1	0.0025772827
1	0x3c2a5945	0.01039726
2	0xbcc30f25	-0.023810932
3	0x3ce74950	0.0282332
4	0xba3b18a1	-0.0007137154
5	0xbc8ee53c	-0.017443292
6	0xbcea1f28	-0.02857931
7	0xbd002725	-0.03128733
8	0xbc17fed7	-0.009277067
9	0xbce601ac	-0.02807697
10	0xbb882bac	-0.0041555967
11	0xbb9dbd3b	-0.004813818
12	0x39456ab0	0.00018827128
13	0xbcc9e88c	-0.02464702
14	0xbca84de2	-0.02054495
15	0x3c3b8fbe	0.011447845
16	0x3c6f1e9c	0.0145947
17	0xbcab304b	-0.020897051
18	0x3bbfb5fd	0.005850552
19	0xbc25501a	-0.0100898985
20	0xbcf0e230	-0.02940473
21	0x3c8397dc	0.016063623
22	0xbbfd12e9	-0.0077232015
23	0xbd12bcf0	-0.035824716
24	0x3cdfc910	0.027317554
25	0xbc61b873	-0.013776886
26	0xbce66215	-0.028122941
27	0xbc9f6840	-0.01945889
28	0xbcf579f9	-0.029965388
29	0x3c74d083	0.014942291
30	0xbc87db4a	-0.016584057
31	0x3cb299b1	0.021801801
32	0xbcf0c938	-0.029392824
33	0x3c8e928c	0.017403863
34	0x3cefb6aa	0.029261906
35	0xbcff3912	-0.031155143
36	0x3a9041ad	0.0011005901
37	0x3d012713	0.031531405
38	0xbccd3dd5	-0.025053898
39	0xbca58539	-0.020205127
40	0xbd0b02ff	-0.033938404
41	0x3aa4fcd4	0.0012587556
42	0x3ab33fed	0.0013675668
43	0x3d03daf6	0.03219124
44	0x3c687309	0.014187583
45	0xbd0a3266	-0.03373947
46	0x3c6daf48	0.014507122
47	0x3d0aa6fb	0.03385065
48	0x3c5f922d	0.013645691
49	0xbd0512f3	-0.032488775
50	0xbb9a4050	-0.0047073737
51	0xbcb90810	-0.022586852
52	0x3ac10c3d	0.0014728379
53	0x3cc34e0a	0.023840923
54	0x3cc5989b	0.02412062
55	0xbc8a3a55	-0.016873518
56	0xbc8fdf10	-0.01756242
57	0xbd091876	-0.033470593
58	0x3c784a84	0.015154485
59	0x3ca98835	0.020694831
60	0x3d015229	0.031572495
61	0xbbce3105	-0.0062924647
62	0xbcd35b5a	-0.025800396
63	0xbb34af13	-0.0027570173
64	0x3c5a0489	0.013306745
65	0xbbb75560	-0.0055948943
66	0xbc9b85c0	-0.018984675
67	0x3abd963a	0.0014464327
68	0xbc829fbf	-0.015945313
69	0x3cea88f0	0.02862975
70	0x3c74e9fc	0.014948364
71	0x3c6b96d1	0.014379219
72	0xbcb2c27e	-0.021821257
73	0xbc13d4c7	-0.009022898
74	0x39d87027	0.0004128229
75	0xbcb02f38	-0.02150689
76	0xbbd4a7aa	-0.0064897137
77	0xbce511a5	-0.027962515
78	0xbcc116c8	-0.023570433
79	0xbbc9da14	-0.00616003
80	0x3c34ed53	0.011042911
81	0xbcef5b5c	-0.029218368
82	0x3cc00c7a	0.02344345
83	0x3cd3dd22	0.02586228
84	0x3d1676f6	0.036734544
85	0xbcc2333a	-0.023706067
86	0xbc1f24dd	-0.009713379
87	0x3c953b30	0.0182167
88	0xbc8471b6	-0.016167503
89	0xbc62f7a7	-0.01385299
90	0xbd021970	-0.03176254
91	0xbb7b5b66	-0.0038354038
92	0xbbee92b2	-0.007280671
93	0xbd2f7b26	-0.042842053
94	0xbcb79064	-0.022407718
95	0xbc1d9ab6	-0.0096194055
96	0xba4f4e6a	-0.0007908108
97	0xbb21a0c7	-0.002466248
98	0xbd2f4482	-0.042789944
99	0xbc8dcc11	-0.01730922
100	0xbceb6a91	-0.028737338
101	0xbcec5d2d	-0.028853023
102	0x3d088b85	0.03333618
103	0x3c00e131	0.00786619
104	0xba864198	-0.0010242937
105	0x3ca7b2d2	0.02047101
106	0x3ccb580c	0.024822257
107	0xbd13e323	-0.036105286
108	0xbcda768e	-0.02666786
109	0xbca9ac30	-0.020711988
110	0xbbc3045b	-0.005951447
111	0x3c68af7f	0.014201998
112	0xbb23266b	-0.0024894725
113	0x3d0df28b	0.034655135
114	0x3bb684c1	0.0055700247
115	0xbba61763	-0.005068706
116	0xbcd8b198	-0.02645187
117	0xbc5b9fdc	-0.013404813
118	0x3ca11aa0	0.019666016
119	0x3c5b897d	0.013399479
120	0xbc0d55fc	-0.008626457
121	0x3c529078	0.012851827
122	0x3c0b1141	0.008488
123	0xbc5378f5	-0.012907256
124	0xbbfcd4bd	-0.00771579
125	0x3d093a97	0.03350314
126	0xbc91812c	-0.01776179
127	0xbc8b63c5	-0.017015347
128	0xbbeb5539	-0.00718179
129	0xbcadbe93	-0.021209037
130	0x3c254d2b	0.010089199
131	0xbc5c9902	-0.013464214
132	0x3c43a659	0.011941516
133	0x3c95add7	0.01827137
134	0xbcd4f965	-0.025997827
135	0xbccbc6a4	-0.024874993
136	0xbc033426	-0.008008039
137	0x3c9966e2	0.018725816
138	0xbc1a4d30	-0.009417817
139	0x3cefa3ce	0.029252913
140	0x3c94b3e0	0.018152177
141	0xbc2b2e8d	-0.01044811
142	0xbb2443b7	-0.0025064775
143	0x3cf6c172	0.030121539
144	0xbc9b0248	-0.018921986
145	0xbb9cee91	-0.0047891815
146	0xbce02080	-0.027359247
147	0x3d0e9dfd	0.034818638
148	0xbd10026f	-0.03515857
149	0xbbe0e77a	-0.0068635317
150	0xb7d55be4	-2.5434369e-05
151	0x3cb315fe	0.021861073
152	0x3c1933cf	0.009350731
153	0x3c478079	0.012176626
154	0xbc1bb6dd	-0.009504047
155	0x3cbd906a	0.023140151
156	0xbc845acd	-0.016156578
157	0x3c252919	0.010080599
158	0xba3b64a7	-0.0007148482
159	0xbcc55336	-0.02408753
160	0xbbdb0445	-0.0066838586
161	0x3cb4c18e	0.02206495
162	0x398ada5f	0.0002648411
163	0x3d04b930	0.03240317
164	0xbbdef61f	-0.0068042423
165	0x3c248a3c	0.010042723
166	0x3ccd6a67	0.02507515
167	0x3cacecc9	0.021109002
168	0x3c835938	0.016033754
169	0xbd1eb0c5	-0.0387428
170	0x3c9ddf29	0.01927145
171	0xbb64f445	-0.0034935635
172	0xbbe12ad8	-0.0068715625
173	0xbcb22403	-0.021745687
174	0xbbf9fefd	-0.007629274
175	0x3ccb9f45	0.024856219
176	0x3cbe2fbd	0.023216123
177	0xbb8cdc32	-0.0042987103
178	0xbd3f56ce	-0.046713643
179	0xbcaf8361	-0.021424951
180	0x3d02171e	0.031760328
181	0x3c90d862	0.017681304
182	0x3d04e686	0.032446407
183	0xbcc40dd8	-0.023932382
184	0x3d0682bc	0.03283952
185	0x3d22ab65	0.039714236
186	0xbb79aaa4	-0.0038096095
187	0x3d02f34d	0.03197031
188	0xbc0ddfe7	-0.0086593395
189	0xbb3a72a9	-0.002844969
190	0xbc7ad9bf	-0.015310704
191	0xbafa7a00	-0.0019109845
192	0xbd1482a7	-0.036257412
193	0xbd2b6e2b	-0.04185311
194	0xbd4f52a3	-0.050615918
195	0x3cbbc200	0.022919655
196	0xbd16f807	-0.03685763
197	0x3bbac758	0.005700033
198	0xbc4ce587	-0.012505895
199	0xbd1e8c26	-0.038707875
200	0xbd49c3b6	-0.04925891
201	0xbbd339cb	-0.0064460984
202	0xbc9fae8c	-0.01949241
203	0x3b7912da	0.0038005621
204	0xbc00b7d9	-0.007856333
205	0xba580c9a	-0.0008241624
206	0x396307b2	0.00021651274
207	0xbd27c77e	-0.040961735
208	0x3d14fbdc	0.036373004
209	0x3ba63951	0.0050727506
210	0xbc490628	-0.012269534
211	0x3ced2458	0.028947994
212	0x3b57f6c7	0.0032953487
213	0xbc99545c	-0.018716983
214	0x3af41d4a	0.0018624451
215	0xbbc014fb	-0.005861876
216	0xba9eb1d1	-0.0012107437
217	0xbd165bdd	-0.0367087
218	0x3b87cb17	0.0041440832
219	0xbc9d8a66	-0.019231033
220	0x3c9b3ec4	0.018950827
221	0xbd01bd44	-0.03167464
222	0x3cc9960b	0.024607679
223	0xbc810bfc	-0.015752785
224	0x3ce72f87	0.028220905
225	0x3bcdd658	0.0062816553
226	0xbccfe71a	-0.025378752
227	0xbcbda2da	-0.023148943
228	0x3c8715d5	0.016489903
229	0xbbbd787e	-0.005782186
230	0x3d00b270	0.03142017
231	0x3c832624	0.016009398
232	0x3ccf215f	0.025284467
233	0x3ca17457	0.019708795
234	0xbcf3ed3f	-0.029776214
235	0xbc81a595	-0.015826026
236	0xbce80324	-0.02832181
237	0xbbed3a27	-0.0072395983
238	0xbc889612	-0.016673122
239	0xbccd3cd5	-0.025053421
240	0x3b273790	0.0025515296
241	0x3c5b9ed4	0.013404567
242	0xbc819d8e	-0.015822198
243	0xbc9f6ca1	-0.019460978
244	0x39b6c545	0.00034860722
245	0x3ce89cee	0.028395142
246	0xbccfec71	-0.025381299
247	0x3d1dfe05	0.03857233
248	0x3c60c26c	0.013718229
249	0x3cbcbde9	0.023039775
250	0x3af62449	0.0018779124
251	0x3ccf0bbc	0.02527415
252	0xbccfbb65	-0.025357911
253	0xbaaf2603	-0.0013362769
254	0xbba4d079	-0.0050297347
255	0xbd115d92	-0.035489626

action_model._discrete_distribution.branches.0.bias f4 [4]
0	0xbb6a2d3b	-0.0035732526
1	0x3a4c8204	0.0007801356
2	0x3ac8518b	0.0015283091
3	0x3a699a40	0.00089112297

onnx::Div_62 f4 [202]
0	0x3ea85869	0.32879952
1	0x3e76c876	0.24099907
2	0x3eaf720b	0.34266695
3	0x3e829292	0.2550245
4	0x3eaea7c0	0.34112358
5	0x3e8221f6	0.25416535
6	0x3eaf720b	0.34266695
7	0x3e822e1d	0.25425807
8	0x3eaea7c0	0.34112358
9	0x3e81bc73	0.25339088
10	0x3e973003	0.29528818
11	0x3e7a2a45	0.24430187
12	0x3e94beb9	0.2905176
13	0x3e7846cd	0.24245758
14	0x3e965aa0	0.29366016
15	0x3e798b95	0.24369653
16	0x3e93005e	0.28711218
17	0x3e765ef6	0.24059662
18	0x3e93dd17	0.28879616
19	0x3e74367a	0.23848906
20	0x3e912bd6	0.28353757
21	0x3e6f1dd8	0.23351228
22	0x3e9cd537	0.3063142
23	0x3e79e1ff	0.24402617
24	0x3e98dc01	0.2985535
25	0x3e7249d0	0.2366097
26	0x3e942f61	0.28942397
27	0x3e730284	0.23731428
28	0x3e901700	0.28142548
29	0x3e6b41f9	0.22974385
30	0x3e97bb06	0.29634875
31	0x3e73efaa	0.23821893
32	0x3e940648	0.28911042
33	0x3e6c01a7	0.23047505
34	0x3e94e0c4	0.29077733
35	0x3e743abf	0.23850535
36	0x3e903390	0.2816434
37	0x3e6c1dc0	0.23058224
38	0x3e94fbf2	0.2909847
39	0x3e70e3fc	0.23524469
40	0x3e9375df	0.28800866
41	0x3e6ac237	0.2292565
42	0x3e84a12a	0.25904208
43	0x3e23a1db	0.15979712
44	0x3e7de65b	0.24794905
45	0x3e17fd94	0.14842826
46	0x3e82cb72	0.2554584
47	0x3e212474	0.15736562
48	0x3e7c6e83	0.24651532
49	0x3e164f67	0.14678727
50	0x3e8237cb	0.25433192
51	0x3e20ac84	0.1569081
52	0x3e78fbe7	0.24314843
53	0x3e161118	0.14654958
54	0x3e8590b6	0.26086968
55	0x3e27b999	0.16379394
56	0x3e7bb17b	0.24579422
57	0x3e1a72b5	0.1508282
58	0x3e9dc88d	0.3081707
59	0x3e8120bb	0.25220284
60	0x3e90b393	0.28262004
61	0x3e692aa9	0.2277018
62	0x3e9fc098	0.31201625
63	0x3e8376bb	0.25676522
64	0x3e8fba15	0.28071657
65	0x3e6bb664	0.23018795
66	0x3ea28a6a	0.31746227
67	0x3e83ea66	0.2576477
68	0x3e92756d	0.28605214
69	0x3e6bb0ef	0.23016714
70	0x3ea09ab1	0.3136802
71	0x3e83f75f	0.25774667
72	0x3e902c63	0.28158864
73	0x3e6b4c65	0.22978361
74	0x3eac03b9	0.3359659
75	0x3e87518b	0.264294
76	0x3e9d1a0b	0.30683932
77	0x3e75c609	0.24001326
78	0x3ea4d2da	0.32192117
79	0x3e84c26d	0.25929585
80	0x3e9722b6	0.2951867
81	0x3e72aa67	0.23697816
82	0x3ea820a6	0.3283741
83	0x3e881c2d	0.26583996
84	0x3e99d95d	0.30048648
85	0x3e796401	0.24354555
86	0x3ea7a59a	0.3274353
87	0x3e87b15a	0.26502496
88	0x3e9bd2e0	0.30434322
89	0x3e7b0ad5	0.24515851
90	0x3ebb412d	0.36573163
91	0x3e8b99a6	0.27265662
92	0x3eb072d3	0.34462604
93	0x3e822b58	0.25423694
94	0x3ebb412d	0.36573163
95	0x3e8c05ff	0.27348325
96	0x3eb072d3	0.34462604
97	0x3e8295ee	0.25505012
98	0x3eb6f500	0.35733795
99	0x3e878466	0.264682
100	0x3eac2e8d	0.33629265
101	0x3e7c0258	0.24610269
102	0x3eb9f888	0.36322427
103	0x3e8a8a77	0.27058765
104	0x3eb044d4	0.34427512
105	0x3e81d8d3	0.25360736
106	0x3eb9f888	0.36322427
107	0x3e8a15f8	0.26969886
108	0x3eb044d4	0.34427512
109	0x3e816ae9	0.25276878
110	0x3ea154ff	0.3151016
111	0x3e84ed58	0.2596233
112	0x3e9ad435	0.30240026
113	0x3e78fdfa	0.24315634
114	0x3e9eb992	0.31000954
115	0x3e839727	0.25701258
116	0x3e9778fa	0.29584485
117	0x3e75e178	0.24011791
118	0x3e97dc1c	0.29660118
119	0x3e7c97a6	0.24667224
120	0x3e9451a0	0.28968525
121	0x3e6e3681	0.23262979
122	0x3e9da33d	0.30788603
123	0x3e7e8c40	0.24858189
124	0x3e9a0d00	0.30088043
125	0x3e71b338	0.23603523
126	0x3e914f0c	0.2838062
127	0x3e766676	0.24062523
128	0x3e8b160d	0.2716526
129	0x3e65ee27	0.22454129
130	0x3e936efd	0.28795615
131	0x3e764ff9	0.24053945
132	0x3e8ea865	0.2786285
133	0x3e662f1b	0.22478907
134	0x3e920cb5	0.2852532
135	0x3e75bfb7	0.23998915
136	0x3e8b9cdd	0.27268115
137	0x3e65e425	0.22450311
138	0x3e92b40c	0.2865299
139	0x3e72b329	0.23701157
140	0x3e8c22f6	0.27370423
141	0x3e62e42c	0.22157353
142	0x3e586b5c	0.21134704
143	0x3e06e76d	0.1317422
144	0x3e66bb2d	0.2253234
145	0x3e0e6937	0.13907324
146	0x3e5a1ecf	0.21300815
147	0x3e05a25e	0.1305022
148	0x3e672e86	0.22576341
149	0x3e0c4400	0.13697815
150	0x3e59a2ea	0.21253553
151	0x3e05c153	0.13062029
152	0x3e64c3d0	0.22340322
153	0x3e0bd4b0	0.13655353
154	0x3e5770ad	0.21039076
155	0x3e070883	0.1318684
156	0x3e663417	0.22480808
157	0x3e0eee61	0.13958122
158	0x3e8e99e3	0.2785178
159	0x3e6acfae	0.22930786
160	0x3e90b389	0.28261974
161	0x3e6ce12f	0.23132776
162	0x3e8d8518	0.27640605
163	0x3e6dda9d	0.23227926
164	0x3e8ea859	0.27862814
165	0x3e6fb6fa	0.23409644
166	0x3e9132dd	0.28359118
167	0x3e6f188a	0.23349205
168	0x3e9337bd	0.28753462
169	0x3e70eb55	0.23527272
170	0x3e8ecc9a	0.27890474
171	0x3e6ee1c9	0.23328318
172	0x3e90ec2f	0.28305194
173	0x3e70f821	0.23532154
174	0x3e952b82	0.29134756
175	0x3e750692	0.23928288
176	0x3e971572	0.2950855
177	0x3e76ff60	0.24120855
178	0x3e8e99e8	0.27851796
179	0x3e72dad5	0.2371629
180	0x3e901713	0.28142604
181	0x3e739fce	0.2379143
182	0x3e9228ab	0.28546652
183	0x3e7a0104	0.2441445
184	0x3e92baff	0.28658292
185	0x3e7adf27	0.24499188
186	0x3e9473d7	0.2899463
187	0x3e7c3aaf	0.24631761
188	0x3e94883a	0.29010183
189	0x3e7cb11e	0.2467694
190	0x3eb24e3b	0.3482531
191	0x3e8455dd	0.25846758
192	0x3eb2bc1a	0.34909135
193	0x3e849fba	0.25903112
194	0x3eb24e3b	0.3482531
195	0x3e84bd22	0.25925547
196	0x3eb2bc1a	0.34909135
197	0x3e850435	0.25979772
198	0x3eabfe5b	0.33592495
199	0x3e7bbfac	0.24584836
200	0x3eabfe5b	0.33592495
201	0x3e7bbfac	0.24584836

onnx::Div_65 f4 [10]
0	0x41b404bb	22.50231
1	0x412646e6	10.392309
2	0x3bc7840a	0.0060887383
3	0x3bc7840a	0.0060887383
4	0x3bc7840a	0.0060887383
5	0x3bc7840a	0.0060887383
6	0x3bc7840a	0.0060887383
7	0x3bc7840a	0.0060887383
8	0x3bc7840a	0.0060887383
9	0x3bc7840a	0.0060887383
