results/GameLevelReached1/PlayerBehaviour/PlayerBehaviour-29908.onnx (onnx, 182503 bytes, 10 tensors)

network_body.observation_encoder.processors.0.normalizer.running_mean f4 [202]
0.8445964 0.8824219 0.6964122 0.75024927 0.727574 0.7773787 0.6964122 0.7496804
0.727574 0.7770875 0.70577544 0.75332564 0.7470324 0.78557575 0.7007585 0.74942565
0.7463632 0.78461283 0.6937047 0.7456225 0.738807 0.7807675 0.67350936 0.73003775
0.72192395 0.7679994 0.68073237 0.7364333 0.73315567 0.7763246 0.6732412 0.7330539
0.72947973 0.7743777 0.6614739 0.72004485 0.7120591 0.7579565 0.65886533 0.71951497
0.70951897 0.7572149 0.6657872 0.73495805 0.72764003 0.7778808 0.685312 0.7519313
0.7457612 0.7916059 0.6890905 0.7530065 0.74408925 0.7912365 0.66170645 0.73038554
0.7278077 0.77750623 0.63392353 0.69782823 0.7157056 0.7627418 0.6349586 0.6973366
0.71898097 0.7640349 0.63877225 0.70539606 0.72917867 0.77456045 0.64589214 0.7085499
0.73499656 0.7768268 0.6343236 0.7009345 0.72416264 0.76873535 0.6530811 0.7157901
0.7385064 0.7796161 0.6612393 0.72000337 0.74258596 0.78170663 0.6675923 0.7247695
0.7472994 0.78511876 0.6454247 0.7154389 0.73275775 0.7787894 0.6454247 0.7158882
0.73275775 0.7792735 0.8063128 0.8576416 0.8638537 0.8978095 0.66645306 0.73098874
0.7266702 0.7765829 0.66645306 0.73069376 0.7266702 0.776062 0.693203 0.74214303
0.73666614 0.78035957 0.6863155 0.73707736 0.7314511 0.7765474 0.6826709 0.7356352
0.72847503 0.77500904 0.6596342 0.71821696 0.7129961 0.7628275 0.6701661 0.7253036
0.7278063 0.77267677 0.6635788 0.72206974 0.7230598 0.77053195 0.6533158 0.7114661
0.72088826 0.7657072 0.65264714 0.7119081 0.72122115 0.7664764 0.6821031 0.7448991
0.7354975 0.78465617 0.7025297 0.76138514 0.7567284 0.80279535 0.703633 0.7619074
0.7548558 0.8023138 0.68240213 0.7445689 0.73546314 0.7877422 0.66401464 0.7210554
0.7163392 0.7647796 0.6663214 0.7215084 0.7184457 0.7653157 0.6758162 0.7335185
0.7291109 0.77703804 0.6821688 0.73655164 0.7338592 0.77928627 0.66782606 0.72685903
0.72459805 0.7729251 0.69039416 0.74362975 0.743421 0.7863783 0.6941396 0.7444434
0.7458297 0.78654516 0.69708186 0.74699354 0.75061107 0.79011387 0.6905958 0.7445606
0.7396101 0.78560585 0.6905958 0.74506897 0.7396101 0.7858702 0.8383773 0.8757777
0.8383773 0.8757777
00000000: 7837 583f 67e6 613f 1248 323f 5610 403f
00000010: 4a42 3a3f 4a02 473f 1248 323f 0eeb 3f3f
00000020: 4a42 3a3f 35ef 463f b3ad 343f f3d9 403f
00000030: 843d 3f3f 7e1b 493f e964 333f 5cda 3f3f
00000040: a911 3f3f 63dc 483f a296 313f 1ee1 3e3f
00000050: 7522 3d3f 61e0 473f 1c6b 2c3f c1e3 3a3f
00000060: 02d0 383f 9c9b 443f 7a44 2e3f e586 3c3f
00000070: 17b0 3b3f 36bd 463f 8959 2c3f 6ca9 3b3f
00000080: 2fbf 3a3f 9e3d 463f 5a56 293f dc54 383f
00000090: 8149 363f 7009 423f 66ab 283f 2232 383f
000000a0: 09a3 353f d6d8 413f 0871 2a3f 3626 3c3f
000000b0: 9e46 3a3f 3223 473f 9b70 2f3f 927e 403f
000000c0: 35ea 3e3f afa6 4a3f 3c68 303f 09c5 403f
000000d0: a27c 3e3f 7a8e 4a3f 9865 293f 8cfa 3a3f
000000e0: 9b51 3a3f a60a 473f d048 223f dfa4 323f
000000f0: 7b38 373f 0c43 433f a68c 223f a784 323f
00000100: 230f 383f cb97 433f 9486 233f d694 343f
00000110: 74ab 3a3f 9849 463f 3059 253f 8763 353f
00000120: bc28 3c3f 1fde 463f 0863 223f 7270 333f
00000130: b962 393f d7cb 443f 5330 273f 053e 373f
00000140: c10e 3d3f ec94 473f fb46 293f 2452 383f
00000150: 1d1a 3e3f ed1d 483f 54e7 2a3f 7e8a 393f
00000160: 034f 3f3f 8bfd 483f 8e3a 253f 0127 373f
00000170: 0396 3b3f be5e 473f 8e3a 253f 7344 373f
00000180: 0396 3b3f 787e 473f 846a 4e3f 668e 5b3f
00000190: 8425 5d3f d8d6 653f ab9c 2a3f 1422 3b3f
000001a0: 0f07 3a3f 23ce 463f ab9c 2a3f bf0e 3b3f
000001b0: 0f07 3a3f 00ac 463f c075 313f 16fd 3d3f
000001c0: 2796 3c3f a5c5 473f 5fb2 2f3f 1ab1 3c3f
000001d0: 6140 3b3f cfcb 463f 85c3 2e3f 9752 3c3f
000001e0: 577d 3a3f fe66 463f c9dd 283f 11dd 373f
000001f0: ea86 363f aa48 433f 0190 2b3f 7fad 393f
00000200: 8451 3a3f 25ce 453f 4de0 293f 90d9 383f
00000210: 721a 393f 9541 453f b43f 273f a422 363f
00000220: 228c 383f 6305 443f e213 273f 9c3f 363f
00000230: f3a1 383f cc37 443f 4f9e 2e3f b5b1 3e3f
00000240: 9049 3c3f 3adf 483f fdd8 333f 23ea 423f
00000250: f4b8 413f ff83 4d3f 4b21 343f 5d0c 433f
00000260: 3b3e 413f 7064 4d3f e8b1 2e3f 119c 3e3f
00000270: 5047 3c3f 79a9 493f ddfc 293f 1697 383f
00000280: 0162 373f 99c8 433f 0a94 2a3f c6b4 383f
00000290: 0fec 373f bbeb 433f 4a02 2d3f dec7 3b3f
000002a0: 03a7 3a3f f7eb 463f 9da2 2e3f a68e 3c3f
000002b0: 32de 3b3f 4e7f 473f a6f6 2a3f 6f13 3a3f
000002c0: 427f 393f 6bde 453f acbd 303f 855e 3e3f
000002d0: d750 3e3f 1750 493f 22b3 313f d893 3e3f
000002e0: b2ee 3e3f 065b 493f f573 323f f83a 3f3f
000002f0: 0c28 403f e744 4a3f e3ca 303f 869b 3e3f
00000300: 1657 3d3f 771d 493f e3ca 303f d7bc 3e3f
00000310: 1657 3d3f ca2e 493f e59f 563f f832 603f
00000320: e59f 563f f832 603f

network_body.observation_encoder.processors.1.normalizer.running_mean f4 [10]
34.126377 14.454957 0.0 0.0 0.0 0.0 0.0 0.0
0.0 0.0
00000000: 6981 0842 8147 6741 0000 0000 0000 0000
00000010: 0000 0000 0000 0000 0000 0000 0000 0000
00000020: 0000 0000 0000 0000

network_body._body_endoder.seq_layers.0.weight f4 [128, 212]
0.11431599 0.17828842 0.024321865 -0.11732199 0.040797826 0.13332424 0.041306864 -0.037361756
0.17916399 0.12730277 0.023090957 -0.021223303 0.10978142 0.13518843 -0.09802547 -0.017105063
0.037615106 0.10550209 0.042493135 0.07124224 0.14718936 0.1263013 -0.03764199 -0.15952772
0.07349933 -0.03616718 -0.11817906 0.027468307 0.109959885 0.14350067 0.026349626 -0.08147201
0.16345218 0.032790795 0.018771073 -0.021569401 0.019354861 0.05044849 -0.027287096 0.08801616
0.15074584 0.03603481 -0.17161979 -0.02478529 0.0769741 -0.02147109 0.010619253 -0.09501935
0.10649496 0.025286946 0.026223963 -0.15441222 0.16980724 0.15591127 -0.0052770004 0.14934032
0.07837849 0.11883744 0.07496289 -0.08532031 0.11486605 0.027963454 -0.08094211 -0.08399309
0.05731365 0.026053088 0.04143356 0.084214665 0.013667271 -0.041331884 0.056281943 -0.023054553
-0.025836144 -0.1053362 0.02099554 -0.07708675 0.07500939 -0.0028041543 -0.01378211 -0.091215275
-0.13406146 -0.048036676 0.12210418 0.077557825 0.105360806 -0.03963559 0.13103664 0.12278456
-0.093104005 -0.06910009 -0.0702916 -0.031883623 -0.11729202 -0.08315003 -0.27518728 -0.0033706329
-0.1189148 -0.011553296 -0.13591169 -0.12221386 -0.0353339 -0.021597661 -0.0109317405 -0.0881351
-0.18656524 -0.049533058 -0.07129219 -0.08571656 -0.09776074 -0.0010439253 -0.12604845 0.20224077
-0.05207843 -0.08618966 -0.083772615 0.11589028 0.009893026 0.10539146 0.076174244 0.12832594
-0.09642485 -0.08371914 0.022076875 0.13830319 -0.014123839 -0.076822266 0.06928533 -0.16193436
-0.16922887 -0.072046354 -0.06541225 0.0020704234 -0.11381855 -0.14765172 -0.010035115 -0.03480194
-0.12411577 -0.20558532 -0.10620396 -0.01133062 0.02164228 0.011701404 -0.012750277 -0.03776466
0.029087696 0.051276583 -0.05519441 -0.12300512 0.13779162 -0.02962084 -0.074592166 0.12411875
0.036449745 0.19704449 -0.18257993 0.09887004 -0.01819477 0.03691305 -0.030402854 0.06809212
0.15425651 0.055501476 0.041761834 -0.036207512 0.11202847 0.10186422 0.00023560216 -0.0948597
0.14011008 0.08284312 0.021751864 -0.0071968194 0.18256763 0.21285063 -0.09171372 -0.14444095
0.17274575 0.048095178 -0.12615529 0.0013117883 0.058324147 -0.06899215 -0.11393411 -0.14226797
0.041723523 0.04259359 -0.026149333 -0.0446341 0.081528105 -0.0032844108 0.019167615 0.046057653
-0.01621009 0.14615798 0.0031355163 -0.0816761 -0.029473502 0.025852196 0.08354502 0.044210576
0.1256314 0.2894954 -0.19858178 -0.15545118 0.01865667 -0.04800274 -0.08955362 0.044273764
0.17514056 -0.12916853 0.066651314 0.054075744 0.26848835 0.16510135 0.14340164 0.03521367
-0.116039075 -0.067557424 -0.045754403 0.09313819 -0.1084502 -0.15417166 0.12174092 -0.06685196
-0.10051413 -0.23480713 0.0075895507 -0.07483918 -0.026045807 0.012624776 0.027279003 -0.08883479
-0.035102136 0.039150707 -0.023228096 -0.017687643 -0.030154496 -0.11146551 -0.031724583 0.05625258
-0.11853772 -0.15857005 -0.02717879 0.013286863 -0.22471598 -0.0426488 0.090960324 0.043553285
-0.15058681 0.006052293 -0.076346174 0.058488514 -0.042049136 0.040998828 -0.15842701 -0.031526826
00000000: 801e ea3d 3d91 363e a63e c73c 8346 f0bd
00000010: 9f1b 273d 2686 083e 6331 293d a408 19bd
00000020: c476 373e a85b 023e 3f29 bd3c 7edc adbc
00000030: 15d5 e03d d66e 0a3e 94c1 c8bd eb1f 8cbc
00000040: 4c12 1a3d 7b11 d83d 480d 2e3d 74e7 913d
00000050: cfb8 163e 2155 013e 7d2e 1abd 3c5b 23be
00000060: d186 963d 0924 14bd dd07 f2bd 3705 e13c
00000070: a632 e13d d7f1 123e 2cdb d73c ccda a6bd
00000080: 0260 273e a44f 063d cbc5 993c 50b2 b0bc
00000090: 168e 9e3c 13a3 4e3d 3089 dfbc d141 b43d
000000a0: 1e5d 1a3e 3d99 133d 19bd 2fbe 850a cbbc
000000b0: 99a4 9d3d 24e4 afbc 60fc 2d3c 8199 c2bd
000000c0: 081a da3d 9226 cf3c a3d3 d63c 3d1e 1ebe
000000d0: f3e1 2d3e 34a7 1f3e b0ea acbb abec 183e
000000e0: e784 a03d 0b61 f33d 2586 993d 6abc aebd
000000f0: e43e eb3d 9d13 e53c fac4 a5bd 9204 acbd
00000100: b8c1 6a3d 496d d53c 3db6 293d bd78 ac3d
00000110: b0ec 5f3c 9f4b 29bd e587 663d e7dc bcbc
00000120: 52a6 d3bc 81ba d7bd d7fe ab3c a8df 9dbd
00000130: 869e 993d e7c5 37bb 5cce 61bc 13cf babd
00000140: 6847 09be 1bc2 44bd c211 fa3d a3d6 9e3d
00000150: 68c7 d73d ee58 22bd 782e 063e 7976 fb3d
00000160: 50ad bebd 5984 8dbd 0bf5 8fbd 6798 02bd
00000170: cc36 f0bd 904a aabd 59e5 8cbe d6e5 5cbb
00000180: 9a89 f3bd 094a 3dbc 6f2c 0bbe 434b fabd
00000190: 48ba 10bd 94ed b0bc 0b1b 33bc 2d80 b4bd
000001a0: f50a 3fbe 2de3 4abd a401 92bd 2a8c afbd
000001b0: c836 c8bd 52d4 88ba d812 01be 3418 4f3e
000001c0: 3150 55bd 3484 b0bd fa90 abbd e257 ed3d
000001d0: 5c16 223c 7ad7 d73d 3e01 9c3d e067 033e
000001e0: 647a c5bd f174 abbd 90da b43c 5a9f 0d3e
000001f0: ad67 67bc fe54 9dbd 78e5 8d3d 1fd2 25be
00000200: 554a 2dbe 0a8d 93bd dcf6 85bd f1af 073b
00000210: b319 e9bd 0332 17be 536a 24bc 7b8c 0ebd
00000220: 6930 febd f584 52be 7681 d9bd 11a4 39bc
00000230: 274b b13c 3fb7 3f3c 8ae6 50bc 1eaf 1abd
00000240: 5249 ee3c 6507 523d 8913 62bd 1cea fbbd
00000250: 3f19 0d3e 67a7 f2bc c7c3 98bd f931 fe3d
00000260: 544c 153d 08c6 493e 3cf6 3abe 607c ca3d
00000270: 330d 95bc 2332 173d 680f f9bc e273 8b3d
00000280: 6bf5 1d3e 8455 633d 750e 2b3d 544e 14bd
00000290: 2f6f e53d 309e d03d f90b 7739 cd45 c2bd
000002a0: 0479 0f3e a7a9 a93d f730 b23c 4cd3 ebbb
000002b0: 02f3 3a3e 84f5 593e 67d4 bbbd 54e8 13be
000002c0: 43e4 303e 73ff 443d da2e 01be 50f0 ab3a
000002d0: 4de5 6e3d c24b 8dbd 4956 e9bd b2ae 11be
000002e0: 49e6 2a3d 9e76 2e3d 2037 d6bc 3fd2 36bd
000002f0: 35f8 a63d 453f 57bb 6705 9d3c f3a6 3c3d
00000300: 06cb 84bc 70aa 153e 3c7d 4d3b cd45 a7bd
00000310: 6a72 f1bc fcc7 d33c a719 ab3d 2616 353d
00000320: 85a5 003e be38 943e 0659 4bbe 982e 1fbe
00000330: dfd5 983c 859e 44bd e367 b7bd 6858 353d
00000340: 0c58 333e c144 04be 7c80 883d 877e 5d3d
00000350: 4e77 893e 5410 293e e1d7 123e 363c 103d
00000360: e5a5 edbd 8c5b 8abd f868 3bbd 3cbf be3d
00000370: 231b debd 2ddf 1dbe 4e53 f93d aee9 88bd
00000380: 5ada cdbd 4871 70be c4b1 f83b 4945 99bd
00000390: 045e d5bc 26d8 4e3c 3778 df3c 04ef b5bd
000003a0: 42c7 0fbd 7e5c 203d d948 bebc ade5 90bc
000003b0: 9006 f7bc 0848 e4bd a3f1 01bd 1b69 663d
000003c0: e7c3 f2bd 3060 22be 0ea6 debc 25b1 593c
000003d0: f21b 66be 82b0 2ebd 6849 ba3d ee64 323d
000003e0: 6e33 1abe 5052 c63b 625b 9cbd a791 6f3d
000003f0: b73b 2cbd 63ee 273d b13a 22be 4622 01bd

network_body._body_endoder.seq_layers.0.bias f4 [128]
0.015477487 -0.07202216 -0.050419595 0.025317492 -0.034186922 -0.03587821 -0.057258297 0.01890016
-0.07576455 -0.017225934 0.02754383 -0.08968799 -0.030681094 0.0037051686 -0.03969443 -0.05969601
-0.046893314 -0.07287866 -0.02439 -0.00026913764 0.00464982 -0.060750883 -0.002351414 -0.01842152
-0.02775982 -0.06848007 0.040119275 0.014505269 -0.027918495 -0.024417324 0.0042676236 -0.00631396
0.046159513 -0.0061668935 0.011165051 -0.032435883 -0.082590766 -0.011759563 -0.04976648 -0.0073879957
-0.011120624 -0.06327275 -0.015044566 -0.06383753 -0.07669726 0.029761605 -0.023707733 -0.047592103
-0.00532606 -0.0018504531 0.055178955 -0.017512532 0.022530464 -0.13346958 0.016318465 0.0010741657
0.03672587 -0.01806466 -0.03816778 -0.07913019 -0.06352263 -0.08991694 -0.042561315 -0.021108467
-0.007428344 -0.07684482 0.0081725735 0.044673175 -0.044982806 0.013827626 -0.005812482 -0.031732168
-0.02185287 -0.062149726 -0.07943594 0.0835905 -0.0020072248 -0.034569595 -0.038229205 0.014772734
0.05315654 0.015782956 -0.05797939 -0.022092905 -0.051678035 -0.02909745 -0.0056229834 -0.029010253
0.028795773 -0.020057842 -0.023209745 -0.003730132 0.051537793 -0.1289312 -0.008603587 0.007691086
-0.0037293863 0.021379776 0.023621287 -0.014229524 -0.03605973 -0.021974875 -0.07449843 -0.027234372
-0.07937315 -0.048821967 -0.04230334 -0.03147502 -0.023897585 -0.044585608 -0.036382526 -0.0019358947
-0.009800151 -0.07915411 -0.006450381 -0.037257068 -0.014957708 0.014116847 -0.026853396 0.021944556
-0.017637243 -0.02281073 -0.010671207 -0.014686474 -0.04706453 -0.037382573 0.03744163 -0.011919576
00000000: 4995 7d3c 5b80 93bd c784 4ebd a166 cf3c
00000010: 9607 0cbd 08f5 12bd ad87 6abd 82d4 9a3c
00000020: 722a 9bbd 671d 8dbc 99a3 e13c 56ae b7bd
00000030: eb56 fbbc 6ad2 723b a096 22bd ce83 74bd
00000040: 3413 40bd 6841 95bd 8acd c7bc 0b1b 8db9
00000050: 845d 983b ebd5 78bd 2e1a 1abb bae8 96bc
00000060: 9068 e3bc 473f 8cbd 1c54 243d 82a7 6d3c
00000070: 54b5 e4bc d706 c8bc 6cd7 8b3b 56e5 cebb
00000080: c211 3d3d a713 cabb 9eed 363c 7ddb 04bd
00000090: 5925 a9bd 2fab 40bc f0d7 4bbd 0017 f2bb
000000a0: 4733 36bc 2595 81bd 7c7d 76bc 40bd 82bd
000000b0: 7413 9dbd 9cce f33c b836 c2bc f0ef 42bd
000000c0: 3b86 aebb e78a f2ba 5403 623d 7176 8fbc
000000d0: cf91 b83c 40ac 08be 4dae 853c 05cb 8c3a
000000e0: de6d 163d 56fc 93bc d155 1cbd 020f a2bd
000000f0: 2718 82bd 5f26 b8bd c654 2ebd aaeb acbc
00000100: 7769 f3bb d160 9dbd 42e6 053c 38fb 363d
00000110: e43f 38bd 448d 623c a276 bebb 97f9 01bd
00000120: ca04 b3bc b690 7ebd 4faf a2bd 7f31 ab3d
00000130: a58b 03bb d998 0dbd 3a96 1cbd 5609 723c
00000140: acba 593d 424b 813c cc7b 6dbd 2efc b4bc
00000150: 59ac 53bd c75d eebc 0141 b8bb e9a6 edbc
00000160: 1de5 eb3c 5850 a4bc 5d22 bebc 3b75 74bb
00000170: 4b19 533d 8a06 04be 0ff6 0cbc 8105 fc3b
00000180: b868 74bb a424 af3c 6e81 c13c f322 69bc
00000190: 5eb3 13bd a704 b4bc a292 98bd 9e1a dfbc
000001a0: 648e a2bd 8bf9 47bd 4446 2dbd f3eb 00bd
000001b0: dec4 c3bc 669f 36bd d805 15bd d9bd fdba
000001c0: d090 20bc 8d1b a2bd b85d d3bb de9a 18bd
000001d0: 2d11 75bc 594a 673c a7fb dbbc 12c5 b33c
000001e0: fb7b 90bc 91dd babc 49d6 2ebc 899f 70bc
000001f0: bdc6 40bd 781e 19bd 655c 193d 534a 43bc

network_body._body_endoder.seq_layers.2.weight f4 [128, 128]
0.067543164 -0.06046993 -0.0867439 -0.035903655 -0.096638516 0.03253011 0.010877479 -0.081042975
-0.013605538 -0.06402853 -0.03851145 0.1501284 -0.025404867 -0.048281733 -0.12869212 0.1134435
-0.15279299 -0.009715516 -0.016557552 0.08682873 0.19662558 0.12259238 0.07281931 -0.029647678
0.09247475 -0.0022317183 0.050529324 0.058582846 0.05295557 -0.16205695 -0.06703159 0.07675062
-0.017235419 0.04349117 -0.0699323 -0.027306134 0.055359244 -0.06902154 0.0824468 0.03914511
-0.07828688 -0.009025007 0.04235868 0.04531024 -0.162314 -0.052689444 0.06370585 0.32312813
-0.029550472 0.044773288 0.17651969 -0.095404565 0.027486436 0.107820615 -0.03648626 -0.051998638
-0.045209467 -0.13308357 -0.021478357 -0.070773214 0.008341145 0.123850994 0.21155468 -0.03901248
0.15573145 0.2081491 0.08068255 0.13558483 0.083216965 -0.11637113 0.04989481 0.15579681
0.121294394 0.050931823 -0.06186243 -0.020582242 -0.11808278 0.08146528 0.023067081 -0.25554892
0.1037828 0.087854296 -0.061384175 0.15268181 -0.04963169 -0.08693388 -0.15116034 0.01270968
-0.072053134 -0.15823548 0.06274438 0.07370838 -0.01327046 -0.009347698 -0.06868417 -0.09851112
0.031312726 -0.040120907 -0.14474727 0.027462319 0.19587575 -0.082574256 -0.040287923 -0.08092669
0.19045822 0.25530472 0.039334223 0.008185552 0.013843813 -0.019036956 0.21362713 0.10845463
-0.15579562 -0.10395537 0.006432638 -0.03476159 -0.14161688 0.0008271569 -0.019103993 -0.16170904
0.2404217 -0.131723 0.3830901 0.04107527 -0.0450041 -0.15251115 -0.030202989 -0.038889956
-0.072416365 -0.007739617 0.014158195 0.083316736 -0.12669152 -0.022816097 0.1332629 -0.064551264
-0.105416335 0.16448243 0.021273477 0.124121666 -0.16801673 0.10509294 -0.0042346446 0.13805544
-0.050812148 -0.27698523 -0.026379166 0.023528436 -0.0061474387 0.18013513 0.081580564 -0.12593552
-0.031215038 0.18317458 0.084892586 0.09156975 -0.16325237 -0.11708711 -0.01309325 0.043310363
-0.11714916 0.07884316 -0.05949641 0.0578391 -0.16511443 -0.15694124 0.04517373 0.08808382
0.08462814 -0.095740214 0.14798845 0.02825348 -0.044856332 -0.22921477 0.21748976 -0.08153375
0.15284732 0.010509644 0.09999167 -0.01289711 0.11629432 -0.05512638 -0.04738862 -0.052281693
-0.027730512 -0.05011086 0.15244053 -0.27492085 -0.13419336 0.12286118 -0.028903589 -0.06482435
-0.01956187 0.22726893 -0.0044248737 -0.039580874 0.11952574 0.03493834 -0.12561269 4.0304345e-05
0.082354344 0.047757406 0.059188582 -0.32414162 0.08683148 -0.0500524 0.18408848 -0.24715364
0.21976957 0.07432715 0.13407376 0.2595991 -0.033667296 -0.038182054 -0.1498318 0.04163797
-0.061485823 -0.23721923 -0.014663335 -0.031119747 -0.0034768016 0.023387257 -0.17943276 0.033606052
-0.068806544 -0.14147007 -0.17996772 0.032013904 0.1015199 -0.26958042 0.20266472 -0.12915212
-0.2008145 0.16014855 -0.20667402 -0.17795667 0.059779312 -0.08637078 0.04999658 -0.24525636
0.03635444 0.10202288 0.22213376 -0.007639 -0.12716185 0.085964136 -0.06681591 -0.27549192
0.28036794 0.13061145 0.06561533 -0.16956498 0.06410568 -0.027690452 -0.09401814 0.084486574
00000000: 1254 8a3d 51af 77bd c9a6 b1bd b60f 13bd
00000010: 6aea c5bd 4b3e 053d 7437 323c dcf9 a5bd
00000020: c3e9 5ebc 6421 83bd 2fbe 1dbd 42bb 193e
00000030: de1d d0bc 11c3 45bd dec7 03be 1155 e83d
00000040: c475 1cbe d42d 1fbc b4a3 87bc 43d3 b13d
00000050: 3758 493e b711 fb3d 4a22 953d b0df f2bc
00000060: 6763 bd3d 0542 12bb d6f7 4e3d 91f4 6f3d
00000070: f1e7 583d 42f2 25be dc47 89bd 6e2f 9d3d
00000080: 4b31 8dbc cc23 323d aa38 8fbd 1db1 dfbc
00000090: 60c0 623d 2a5b 8dbd ded9 a83d 9f56 203d
000000a0: df54 a0bd 9fdd 13bc 4c80 2d3d 3b97 393d
000000b0: a435 26be e3d0 57bd 3678 823d 0d71 a53e
000000c0: d513 f2bc 3264 373d 94c1 343e 7863 c3bd
000000d0: 3c2b e13c 0ed1 dc3d 9e72 15bd 86fc 54bd
000000e0: 902d 39bd 0f47 08be 61f3 afbc 8cf1 90bd
000000f0: 4ca9 083c 97a5 fd3d caa1 583e 8dcb 1fbd
00000100: 1178 1f3e 0a25 553e e53c a53d c0d6 0a3e
00000110: a86d aa3d fd53 eebd 805e 4c3d 3389 1f3e
00000120: 3269 f83d e39d 503d 7663 7dbd 179c a8bc
00000130: 62d5 f1bd 45d7 a63d 2df7 bc3c 4fd7 82be
00000140: 148c d43d f4ec b33d f96d 7bbd 9f58 1c3e
00000150: 994a 4bbd 640a b2bd c7c9 1abe 433c 503c
00000160: 9890 93bd 7b08 22be 2080 803d 6bf4 963d
00000170: 586c 59bc 1627 19bc 49aa 8cbd 33c0 c9bd
00000180: c641 003d d255 24bd a138 14be a8f8 e03c
00000190: a793 483e b11c a9bd f304 25bd e4bc a5bd
000001a0: 7b07 433e 4db7 823e ec1c 213d b21c 063c
000001b0: 29d1 623c 64f3 9bbc 12c1 5a3e 761d de3d
000001c0: e388 1fbe 8ee6 d4bd e1c8 d23b 2b62 0ebd
000001d0: 0404 11be 8fd5 583a fa7f 9cbc 0e97 25be
000001e0: 1b31 763e 65e2 06be 6324 c43e 8b3e 283d
000001f0: 3856 38bd e22b 1cbe 426c f7bc 134b 1fbd
00000200: 084f 94bd 9d9c fdbb c6f7 673c f7a1 aa3d
00000210: 6cbb 01be d3e8 babc 1276 083e 7433 84bd
00000220: 85e4 d7bd 156e 283e b745 ae3c 8033 fe3d
00000230: 940c 2cbe f83a d73d c6c2 8abb 685e 0d3e
00000240: 6620 50bd 02d1 8dbe 1f19 d8bc b5be c03c
00000250: 7470 c9bb 5875 383e b613 a73d 3ef5 00be
00000260: aeb6 ffbc 1e92 3b3e 2adc ad3d ec88 bb3d
00000270: a12b 27be 5ecb efbd 1285 56bc 3566 313d
00000280: e6eb efbd 8678 a13d 82b2 73bd b1e8 6c3d
00000290: c213 29be 34b5 20be 1708 393d 4a65 b43d
000002a0: 8551 ad3d 7213 c4bd 498a 173e d873 e73c
000002b0: 46bb 37bd 47b7 6abe a3b5 5e3e 2bfb a6bd
000002c0: 0284 1c3e a430 2c3c 6fc8 cc3d 664e 53bc
000002d0: b72b ee3d 33cc 61bd 921a 42bd 5425 56bd
000002e0: 192b e3bc 0c41 4dbd 5f19 1c3e 6dc2 8cbe
000002f0: fc69 09be a49e fb3d 38c7 ecbc a1c2 84bd
00000300: 3740 a0bc 30b9 683e 88fe 90bb 8e1f 22bd
00000310: e9c9 f43d 811b 0f3d 9da0 00be 760c 2938
00000320: 65a9 a83d 459d 433d ba6f 723d e4f5 a5be
00000330: b4d4 b13d bf03 4dbd b181 3c3e d815 7dbe
00000340: 460b 613e d538 983d a24a 093e 2cea 843e
00000350: b8e6 09bd c964 1cbd 826d 19be 938c 2a3d
00000360: 8fd8 7bbd 99e9 72be 7c3e 70bc d7ee febc
00000370: 0ddb 63bb a296 bf3c 39bd 37be 80a6 093d
00000380: 72ea 8cbd 88dd 10be 7549 38be 0321 033d
00000390: aae9 cf3d 7206 8abe 5787 4f3e 7440 04be
000003a0: 51a2 4dbe fbfd 233e 5ba2 53be 463a 36be
000003b0: 27db 743d 2ae3 b0bd 37c9 4c3d 7c24 7bbe
000003c0: 65e8 143d 5ff1 d03d 0877 633e 9450 fabb
000003d0: b736 02be f70d b03d c8d6 88bd 470d 8dbe
000003e0: 638c 8f3e 02bf 053e 5561 863d 71a2 2dbe
000003f0: d749 833d 16d7 e2bc 958c c0bd 4c07 ad3d

network_body._body_endoder.seq_layers.2.bias f4 [128]
-0.008890218 -0.021222519 0.0030467284 -0.009691327 0.017893769 -0.07138728 -0.0020323207 -0.008976834
-0.028101029 -0.024174009 0.025342297 -0.01710097 0.035189826 -0.06401144 0.001683136 -0.01034978
0.025659693 -0.032489598 0.0096681155 -0.027028501 -0.03675299 -0.014177314 0.025436224 0.038729545
0.004549703 -0.00196739 0.0066759894 0.0026467068 -0.016878845 -0.00719781 -0.019295081 0.005981118
-0.044475757 -0.05803035 0.0041760257 0.002549621 -0.06972637 0.0052610133 -0.011156202 0.006301975
0.0044881823 -0.031715028 -0.052631002 -0.124967344 0.016743055 -0.06536555 0.049000397 -0.0212031
-0.111318104 -0.042489126 -0.043924496 0.004850765 -0.030162308 -0.014482814 0.033741307 -0.02762096
-0.055239543 -0.01236606 0.011781658 -0.008599637 -0.027956132 -0.023169905 -0.013873616 -0.05335773
0.03638397 -0.023691498 -0.06299128 -0.014585058 0.019486157 0.018058168 -0.0033082874 -0.0037878903
-0.06564315 -0.001579715 -0.044700254 -0.041505683 -7.7429926e-05 -0.03461829 0.009986909 -0.02312792
-0.02015404 -0.027616406 -0.0341301 -0.035630487 -0.059767473 0.0029248884 -0.04765813 -0.1023766
-0.020994153 -0.049527533 -0.061106782 0.07486864 -0.031439964 -0.026657375 -0.0034429997 0.03343128
-0.041813053 -0.0033392485 -0.03916278 0.017193919 -0.00570482 0.01364229 -0.031700455 -0.040498767
-0.038592316 -0.018038252 0.020203684 -0.027081324 -0.023756552 -0.0033248751 -0.0955538 -0.02050723
-0.014289005 0.011100023 -0.031773414 -0.020352157 -0.0060210996 -0.0021126496 0.034343608 -0.017102933
0.018458912 -0.0070712008 -0.0073226336 -0.004225061 -0.071616225 -0.04765232 -0.05827808 -0.035130907
00000000: 47a8 11bc d9da adbc 9fab 473b 5fc8 1ebc
00000010: f495 923c 7f33 92bd af30 05bb 9213 13bc
00000020: 2134 e6bc 9208 c6bc a69a cf3c 5517 8cbc
00000030: 3523 103d 6e18 83bd ac9c dc3a 2092 29bc
00000040: 4734 d23c d013 05bd 0467 1e3c e06a ddbc
00000050: 4e8a 16bd f747 68bc a15f d03c dfa2 1e3d
00000060: ad15 953b 54ef 00bb 42c2 da3b 5f74 2d3b
00000070: 8145 8abc 9bdb ebbb b810 9ebc 41fd c33b
00000080: 362c 36bd 3bb1 6dbd 0bd7 883b 8b17 273b
00000090: b3cc 8ebd 9464 ac3b 81c8 36bc cc80 ce3b
000000a0: 9a11 933b 9ee7 01bd 9b93 57bd e1ee ffbd
000000b0: bb28 893c 60de 85bd a4b4 483d 20b2 adbc
000000c0: bffa e3bd 1409 2ebd 2cea 33bd 2bf3 9e3b
000000d0: f216 f7bc 5349 6dbc 5334 0a3d 5a45 e2bc
000000e0: dc42 62bd 049b 4abc db07 413c 7ee5 0cbc
000000f0: 4204 e5bc d0ce bdbc 2a4e 63bc a38d 5abd
00000100: 5c07 153d ac14 c2bc 9201 81bd 2bf6 6ebc
00000110: 6fa1 9f3c b9ee 933c dacf 58bb 413e 78bb
00000120: ea6f 86bd 710e cfba 9d17 37bd dd01 2abd
00000130: e061 a2b8 e8cb 0dbd 22a0 233c c476 bdbc
00000140: 161a a5bc cd3b e2bc 01cc 0bbd 46f1 11bd
00000150: bdce 74bd 7caf 3f3b 2c35 43bd d3aa d1bd
00000160: eefb abbc 62dd 4abd 1b4b 7abd bb54 993d
00000170: 31c7 00bd 9160 dabc f3a3 61bb 3def 083d
00000180: 2a44 2bbd 4bd7 5abb 2769 20bd 43da 8c3c
00000190: 80ef babb e983 5f3c 56d8 01bd 09e2 25bd
000001a0: fa12 1ebd f5c4 93bc 3282 a53c a7d9 ddbc
000001b0: 1a9d c2bc 26e6 59bb b6b1 c3bd c7fe a7bc
000001c0: 6e1c 6abc dfdc 353c d724 02bd 91b9 a6bc
000001d0: a54c c5bb 6174 0abb e2ab 0c3d 731b 8cbc
000001e0: 2537 973c 88b5 e7bb b4f2 efbb 6172 8abb
000001f0: 87ab 92bd 142f 43bd ffb4 6ebd 6de5 0fbd

action_model._discrete_distribution.branches.0.weight f4 [4, 128]
-0.06833909 -0.0004920217 -0.03778603 0.06053243 0.008788096 0.0103034545 0.0059173605 -0.14277847
0.009778895 -0.0096706515 -0.014009918 -0.0074926326 0.00305579 -0.063251406 -0.019364437 -0.0065730577
0.037213113 -0.013355191 -0.028673364 -0.028740685 -0.074641354 0.03320695 -0.027938921 0.10163599
0.004441492 -0.05717661 -0.17631693 0.051391046 -0.14001526 0.0055155014 -0.055768695 0.030635467
0.02492029 0.06895588 0.011267907 -0.03605916 0.03923644 0.038891926 -0.016509496 -0.13566856
-0.096846916 -0.051112242 0.00016125207 -0.034333985 0.08532267 -0.016360294 0.07546374 0.061673798
0.025608404 -0.0670369 0.065687284 0.038397003 0.013080416 -0.011861146 -0.010134534 0.0372624
0.07172863 0.021643013 0.07004125 -0.045156743 -0.07099431 -0.09152663 0.0335837 0.088305674
0.027783882 -0.121990554 0.04847771 -0.013537015 -0.079918444 0.060830947 0.09441842 0.013786163
0.026123308 0.08396559 0.012748111 0.014657944 -0.021445079 -0.017887104 0.019028766 0.03251513
-0.020672055 0.06988616 -0.00885959 -0.027218482 0.030399026 0.0014954818 0.024569709 -0.014066725
0.045121618 0.014884939 0.07424879 0.016242957 0.016802067 -0.13071728 -0.06983525 0.088071026
0.031618062 0.039536126 0.015805867 -0.04164022 0.039745633 -0.064053394 0.020673536 -0.009643532
0.045355044 0.0155127095 -0.06438668 -0.021913812 0.043128785 -0.052051183 0.009636923 -0.059649426
-0.054620847 0.0076935464 0.0126913395 -0.08178762 -0.017562887 -0.05998194 0.021802653 -0.012379352
-0.011705347 0.016243167 0.10375722 -0.0027975878 0.03721172 -0.04361871 -0.009364966 0.07532679
-0.028066726 -0.021311652 -0.17533894 -0.074475735 -0.18461202 0.0108808195 -0.10200293 0.018564586
-0.008579356 0.034462336 -0.07326885 -0.026890092 -0.018951725 0.052686606 -0.09947741 -0.124259956
-0.05296277 -0.010514658 0.028589446 -0.052409463 -0.010081011 -0.06291838 0.07104781 -0.0013857451
0.081015036 -0.04765381 0.107971996 -0.09467643 0.050523024 -0.1517733 -0.014913299 0.07346051
-0.083304666 -0.082751274 -0.12860142 0.03526449 -0.007073423 -0.17492794 0.05142237 0.08822274
-0.040777665 -0.029184267 -0.029275706 -0.015880104 -0.00023789123 0.0006942366 -0.02672746 0.014400914
-0.0379273 0.038900327 -0.021120805 0.043573607 -0.010825965 -0.006281696 0.041460842 -0.045742307
0.006038328 -0.084180005 -0.0011395216 0.07621767 -0.06924942 -0.040739223 -0.049847532 -0.013864661
0.051778153 0.030544003 -0.046569705 0.040871315 0.027521206 0.017293433 -0.020107765 -0.17563654
-0.036285084 -0.09460253 0.02928526 -0.026142672 -0.109191984 -0.012495031 0.029174112 -0.014376815
-0.012034719 -0.091299795 -0.06658907 -0.013026696 0.03659562 0.013901998 0.042930596 0.084589265
-0.0043230634 0.007963254 -0.024261143 0.058265314 0.015449239 0.0006880504 -0.051850963 -0.030630745
0.024072252 -0.010213826 -0.0023826035 -0.08213725 -0.13147086 0.109639704 0.07618602 -0.087304
-0.08344461 -0.0068457182 -0.015894469 -0.11181232 -0.039018743 0.04908516 -0.012804427 -0.09681462
0.08180171 -0.12656674 0.025602367 0.016832678 -0.003935859 0.021586385 0.04880161 -0.013675119
-0.018691733 -0.042651065 0.011066939 -0.09716077 -0.026329575 0.05978687 -0.023741627 -0.005803178
00000000: 5df5 8bbd 04fb 00ba 86c5 1abd daf0 773d
00000010: f2fb 0f3c d2cf 283c 6be6 c13b 8534 12be
00000020: a937 203c a771 1ebc db89 65bc c284 f5bb
00000030: a643 483b f489 81bd 2ba2 9ebc ce62 d7bb
00000040: c76c 183d bbcf 5abc 67e4 eabc 9671 ebbc
00000050: 91dd 98bd 0304 083d 2ae0 e4bc 8826 d03d
00000060: ef89 913b 0532 6abd 6d8c 34be 6b7f 523d
00000070: 2960 0fbe 61bb b43b b76d 64bd 3bf7 fa3c
00000080: a325 cc3c be38 8d3d 079d 383c c5b2 13bd
00000090: 64b6 203d 244d 1f3d ec3e 87bc b3ec 0abe
000000a0: ad57 c6bd 125b 51bd c615 2939 cba1 0cbd
000000b0: a7bd ae3d 0606 86bc bc8c 9a3d aa9d 7c3d
000000c0: b7c8 d13c a44a 89bd 0e87 863d 2d46 1d3d
000000d0: 3e4f 563c 4155 42bc 510b 26bc 75a0 183d
000000e0: 76e6 923d b04c b13c c971 8f3d 47f6 38bd
000000f0: 7765 91bd 5072 bbbd 108f 093d 9bd9 b43d
00000100: 069b e33c 2fd6 f9bd 9090 463d 5bca 5dbc
00000110: 48ac a3bd df29 793d 725e c13d 5cdf 613c
00000120: 8c00 d63c 27f6 ab3d 74dd 503c e027 703c
00000130: 97ad afbc fa87 92bc 37e2 9b3c 962e 053d
00000140: 7158 a9bc 7a20 8f3d d027 11bc 4bf9 debc
00000150: 6107 f93c 0b04 c43a 6a46 c93c 1f78 66bc
00000160: 72d1 383d f6df 733c c00f 983d f30f 853c
00000170: 7da4 893c c0da 05be c905 8fbd 955e b43d
00000180: f181 013d a2f0 213d 4e7b 813c ef8e 2abd
00000190: 51cc 223d 6d2e 83bd 8c5b a93c e8ff 1dbc
000001a0: 36c6 393d 0529 7e3c 2add 83bd 9884 b3bc
000001b0: cfa7 303d 9f33 55bd 2fe4 1d3c f552 74bd
000001c0: 1cba 5fbd 251a fc3b 56ef 4f3c 4580 a7bd
000001d0: 0be0 8fbc 9faf 75bd 7a9b b23c c4d2 4abc
000001e0: c9c7 3fbc 6410 853c aa7e d43d bc57 37bb
000001f0: 516b 183d 88a9 32bd 846f 19bc ef44 9a3d
00000200: 31ec e5bc c695 aebc 0d8c 33be bc86 98bd
00000210: ef0a 3dbe 7745 323c eae6 d0bd c214 983c
00000220: 6d90 0cbc 6128 0d3d fb0d 96bd 9c48 dcbc
00000230: a640 9bbc e9cd 573d d0ba cbbd 017c febd
00000240: 7def 58bd ac45 2cbc 6a34 ea3c 4eab 56bd
00000250: d32a 25bc 5adb 80bd 8481 913d e4a1 b5ba
00000260: 36eb a53d a430 43bd 6c20 dd3d b7e5 c1bd
00000270: 3bf1 4e3d 766a 1bbe e956 74bc 7772 963d
00000280: a39b aabd 8079 a9bd 17b0 03be 7f71 103d
00000290: 2cc8 e7bb 4f20 33be 43a0 523d 20ae b43d
000002a0: 7b06 27bd d813 efbc 9bd3 efbc fe16 82bc
000002b0: 7172 79b9 6efd 353a 8cf3 dabc d0f1 6b3c
000002c0: a859 1bbd f355 1f3d 8a05 adbc 3d7a 323d
000002d0: 635f 31bc afd6 cdbb d8d2 293d 495c 3bbd
000002e0: 2bdd c53b 9166 acbd 005c 95ba 0318 9c3d
000002f0: a4d2 8dbd 2cde 26bd ed2c 4cbd 9a28 63bc
00000300: 5415 543d 6b37 fa3c e0bf 3ebd ae68 273d
00000310: 2774 e13c f5aa 8d3c 0ab9 a4bc 11da 33be
00000320: ab9f 14bd f9be c1bd a4e7 ef3c 2829 d6bc
00000330: 0ca0 dfbd f5b7 4cbc 8cfe ee3c bc8c 6bbc
00000340: 452d 45bc 63fb babd da5f 88bd ec6d 55bc
00000350: 4ae5 153d 35c5 633c fed7 2f3d 233d ad3d
00000360: 7ca8 8dbb 4f78 023c 4ebf c6bc 9ca7 6e3d
00000370: ce1e 7d3c 485e 343a ad61 54bd 54ed fabc
00000380: 2c33 c53c e457 27bc 7425 1cbb 9337 a8bd
00000390: 4ca0 06be c88a e03d 6b07 9c3d 71cc b2bd
000003a0: 02e5 aabd 0c52 e0bb 1e35 82bc dcfd e4bd
000003b0: 1ed2 1fbd 850d 493d a9c9 51bc be46 c6bd
000003c0: a887 a73d b69a 01be 0ebc d13c afe4 893c
000003d0: 61f8 80bb eed5 b03c 32e4 473d 9b0d 60bc
000003e0: 681f 99bc e2b2 2ebd 1b52 353c 3afc c6bd
000003f0: 1fb1 d7bc 14e3 743d cd7d c2bc 9628 bebb

action_model._discrete_distribution.branches.0.bias f4 [4]
-0.00908674 0.023225661 0.0010243955 -0.014375099
00000000: 8de0 14bc be43 be3c 0245 863a 8985 6bbc

onnx::Div_62 f4 [202]
0.36233595 0.28484064 0.45984325 0.38948452 0.4452457 0.3752403 0.45984325 0.39069477
0.4452457 0.37613752 0.4557308 0.39150828 0.43475118 0.3763253 0.4579622 0.39262632
0.43513027 0.37690675 0.46099073 0.39314285 0.43932256 0.37755716 0.46896458 0.39805982
0.44808877 0.38286594 0.46622905 0.39576563 0.44234753 0.37951094 0.46906346 0.39574775
0.44426683 0.37985846 0.47324452 0.4024237 0.45283994 0.3887789 0.47412586 0.4019223
0.4540206 0.3883837 0.4717506 0.3914908 0.4452111 0.37421587 0.4644273 0.3852891
0.4354701 0.3684063 0.46290204 0.38564283 0.43640947 0.3683276 0.473164 0.3931261
0.44512564 0.37463292 0.48176593 0.40886503 0.4511158 0.38581964 0.48147637 0.40969706
0.44953373 0.3861341 0.48039156 0.40423334 0.44442186 0.3798406 0.47827685 0.40462133
0.4413729 0.37981555 0.48165408 0.40570635 0.44697186 0.3830845 0.47602525 0.4017799
0.43948632 0.37847403 0.4733237 0.4017145 0.4372475 0.37806797 0.4711119 0.40086073
0.43459865 0.37690395 0.47841963 0.39898637 0.44255865 0.37667206 0.47841963 0.39785883
0.44255865 0.3755362 0.39522946 0.30424312 0.34299248 0.26743227 0.47151488 0.39472786
0.4457058 0.37462902 0.47151488 0.39570883 0.4457058 0.37580222 0.46120057 0.3973738
0.44047883 0.3760883 0.46402565 0.39846364 0.44324192 0.37732586 0.46547347 0.39834082
0.44478327 0.37763247 0.47386748 0.40314564 0.45240054 0.38280547 0.47018805 0.40191695
0.44512567 0.37973747 0.47251981 0.40193656 0.4475241 0.3798279 0.47594914 0.4070431
0.44860047 0.3843671 0.4761639 0.40630224 0.44843596 0.38376018 0.46569562 0.38922277
0.44110537 0.37029174 0.45718142 0.38340238 0.42909583 0.36072907 0.456691 0.38338843
0.43021074 0.3605272 0.4655777 0.38999256 0.44112402 0.36721945 0.47236937 0.40329668
0.45081118 0.38361323 0.47156152 0.40387398 0.44979393 0.3840718 0.46810392 0.39709523
0.4444563 0.37646905 0.46566883 0.3970189 0.44197637 0.3760814 0.47102803 0.39910895
0.44675383 0.3787657 0.46236736 0.3941652 0.4367823 0.373237 0.46080717 0.3947829
0.43543258 0.37388486 0.4595572 0.39400518 0.43269813 0.37259826 0.46228415 0.39330444
0.43888614 0.3723279 0.46228415 0.39219135 0.43888614 0.37151524 0.36815074 0.29342815
0.36815074 0.29342815
00000000: 1984 b93e a2d6 913e 9370 eb3e 846a c73e
00000010: 3ff7 e33e 7f1f c03e 9370 eb3e 2509 c83e
00000020: 3ff7 e33e 1995 c03e 8c55 e93e c673 c83e
00000030: b597 de3e b6ad c03e 057a ea3e 5106 c93e
00000040: 65c9 de3e ecf9 c03e fa06 ec3e 054a c93e
00000050: e3ee e03e 2c4f c13e 201c f03e 7fce cb3e
00000060: e46b e53e 0107 c43e 93b5 ee3e cba1 ca3e
00000070: 607b e23e 424f c23e 1629 f03e 739f ca3e
00000080: f176 e33e cf7c c23e 1b4d f23e 7b0a ce3e
00000090: a3da e73e 070e c73e a0c0 f23e c2c8 cd3e
000000a0: 6375 e83e 3ada c63e 4b89 f13e 7b71 c83e
000000b0: b6f2 e33e 3999 bf3e 6ac9 ed3e 9d44 c53e
000000c0: f0f5 de3e c09f bc3e 7f01 ed3e fa72 c53e
000000d0: 1071 df3e 6f95 bc3e 8d42 f23e d347 c93e
000000e0: 82e7 e33e e3cf bf3e 06aa f63e c256 d13e
000000f0: a6f8 e63e 278a c53e 1284 f63e d0c3 d13e
00000100: 4929 e63e 5eb3 c53e e2f5 f53e acf7 ce3e
00000110: 438b e33e 787a c23e b4e0 f43e 872a cf3e
00000120: a1fb e13e 2f77 c23e 5d9b f63e beb8 cf3e
00000130: 7fd9 e43e a723 c43e 95b9 f33e 18b6 cd3e
00000140: 5a04 e13e 59c7 c13e 7c57 f23e 86ad cd3e
00000150: e8de df3e 2092 c13e 9435 f13e 9e3d cd3e
00000160: b783 de3e 8ef9 c03e 6bf3 f43e f147 cc3e
00000170: 0c97 e23e 29db c03e 6bf3 f43e 27b4 cb3e
00000180: 0c97 e23e 4846 c03e 845b ca3e c1c5 9b3e
00000190: b69c af3e e2ec 883e 666a f13e c519 ca3e
000001a0: 8d33 e43e 60cf bf3e 666a f13e 599a ca3e
000001b0: 8d33 e43e 2669 c03e 7b22 ec3e 9474 cb3e
000001c0: 7186 e13e a58e c03e c594 ed3e 6d03 cc3e
000001d0: 9bf0 e23e db30 c13e 8a52 ee3e 54f3 cb3e
000001e0: a2ba e33e 0b59 c13e c29e f23e 1b69 ce3e
000001f0: 0ba1 e73e 14ff c33e 7dbc f03e 0fc8 cd3e
00000200: 83e7 e33e f36c c23e 1eee f13e a1ca cd3e
00000210: e121 e53e cd78 c23e 9baf f33e f467 d03e
00000220: f6ae e53e c4cb c43e c1cb f33e d906 d03e
00000230: 6699 e53e 377c c43e a86f ee3e 3548 c73e
00000240: 90d8 e13e e196 bd3e af13 ea3e 514d c43e
00000250: 73b2 db3e 7bb1 b83e 67d3 e93e 7d4b c43e
00000260: 9544 dc3e 0597 b83e 3360 ee3e 1bad c73e
00000270: 02db e13e 3004 bc3e 66da f13e e77c ce3e
00000280: b9d0 e63e f468 c43e 8370 f13e 92c8 ce3e
00000290: 644b e63e 0fa5 c43e 51ab ef3e 1150 cb3e
000002a0: c78f e33e 8dc0 c03e 256c ee3e 1046 cb3e
000002b0: ba4a e23e be8d c03e 962a f13e 0258 cc3e
000002c0: ebbc e43e 94ed c13e 6abb ec3e 05d0 c93e
000002d0: eea1 df3e ec18 bf3e ebee eb3e fc20 ca3e
000002e0: 05f1 de3e d66d bf3e 154b eb3e 0cbb c93e
000002f0: 9c8a dd3e 33c5 be3e 82b0 ec3e 335f c93e
00000300: afb5 e03e c3a1 be3e 82b0 ec3e 4ecd c83e
00000310: afb5 e03e 3f37 be3e 417e bc3e 373c 963e
00000320: 417e bc3e 373c 963e

onnx::Div_65 f4 [10]
22.53036 10.37503 0.005782279 0.005782279 0.005782279 0.005782279 0.005782279 0.005782279
0.005782279 0.005782279
00000000: 2d3e b441 1f00 2641 4679 bd3b 4679 bd3b
00000010: 4679 bd3b 4679 bd3b 4679 bd3b 4679 bd3b
00000020: 4679 bd3b 4679 bd3b
