results/GameLevelReached11/PlayerBehaviour/PlayerBehaviour-38437.onnx (onnx, 490727 bytes, 10 tensors)

network_body.observation_encoder.processors.0.normalizer.running_mean f4 [202]
00000000: d53a 543f 0bc0 5f3f 2d29 2e3f 6d5d 3e3f
00000010: 8ba8 373f f8a7 453f 2d29 2e3f 0543 3e3f
00000020: 8ba8 373f a596 453f 105f 313f 0692 3f3f
00000030: 18cb 3c3f 34cb 473f 743b 303f 7fa3 3e3f
00000040: 9249 3c3f 704a 473f fe81 2e3f 3fbf 3d3f
00000050: 0a2b 3b3f bef2 463f 5caa 293f 1600 3a3f
00000060: 8caf 363f 737a 433f 5cc4 2e3f 6515 3d3f
00000070: 9c6c 383f 5805 453f 1e59 2d3f 7b63 3c3f
00000080: 808d 363f 7838 443f 4e0b 2b3f e0af 393f
00000090: 23c3 333f 42e4 403f ee0c 2b3f 54ea 393f
000000a0: 78e5 323f a59e 403f 4cdf 2f3f 1258 403f
000000b0: 8f40 373f bcea 453f 083f 363f ca89 453f
000000c0: fef5 3b3f d3a6 493f 391b 363f e88c 453f
000000d0: 51f2 3c3f 81f1 493f 592d 323f 25f9 413f
000000e0: a939 373f 3054 453f 3c46 2e3f d644 3c3f
000000f0: 8b60 323f 176f 3f3f 1f2e 2f3f ea94 3c3f
00000100: fe0a 333f 5f8e 3f3f 6a9a 323f b8ef 3f3f
00000110: c3fc 343f 24e4 413f 9511 343f 1fa2 403f
00000120: 3a0a 363f 6b69 423f 8c95 313f 04d0 3e3f
00000130: c96f 323f d7f1 3f3f e46e 363f ef94 423f
00000140: 42eb 363f ea63 433f a9f3 373f b245 433f
00000150: ef5e 383f f630 443f 3d39 393f 1b3b 443f
00000160: 39d1 383f 56a6 443f e4fc 343f b577 423f
00000170: bd72 343f 2bc6 423f e4fc 343f 5e91 423f
00000180: bd72 343f 0ade 423f 80e5 533f 32d6 5e3f
00000190: 5018 563f 4a82 603f 6e83 353f 34f1 433f
000001a0: 510e 3a3f beed 463f 6e83 353f 05e2 433f
000001b0: 510e 3a3f 71d6 463f 0be5 3a3f 3a35 463f
000001c0: a7e2 3d3f 0d7b 483f 19ca 393f a85d 453f
000001d0: bd7f 3d3f 6817 483f fcba 383f dce7 443f
000001e0: ccfa 3c3f dfe9 473f 0dc8 343f c6e1 413f
000001f0: 0623 393f 9be3 443f ca82 383f 3e3f 443f
00000200: ec25 3b3f db9e 463f 8540 373f 15a9 433f
00000210: 868e 393f 97e2 453f dfa5 343f fce7 403f
00000220: 46bd 363f d7f5 423f efbd 333f e1af 403f
00000230: 02d2 353f 949b 423f bea2 3a3f dd80 483f
00000240: d93a 393f a2aa 473f 7578 3f3f c284 4c3f
00000250: 442c 3d3f 7d23 4b3f 11df 3e3f 3953 4c3f
00000260: 615a 3d3f 5e2d 4b3f 3065 3a3f e163 483f
00000270: 2994 373f be70 463f 8de1 343f 8649 423f
00000280: 4497 313f e191 3f3f 3aae 353f 4376 423f
00000290: 3334 323f 8e9f 3f3f ce9a 373f b1ec 443f
000002a0: 9dcb 333f 98ca 413f 098b 393f bfb4 453f
000002b0: 8838 353f b678 423f a5a1 373f d523 443f
000002c0: 2847 313f dbe4 3f3f 9683 3b3f c61c 473f
000002d0: e201 353f 7fb4 423f 57a2 3b3f a7e5 463f
000002e0: 65c9 353f 4bfe 423f 90aa 3c3f e2b6 473f
000002f0: d7d6 363f 6acc 433f 2703 373f 3746 453f
00000300: 8b1a 323f 02c7 413f 2703 373f 4958 453f
00000310: 8b1a 323f e4dc 413f d838 553f 018e 603f
00000320: d838 553f 018e 603f
0.8290227 0.8740241 0.6803158 0.74361306 0.7174155 0.77209425 0.6803158 0.74321014
0.7174155 0.7718299 0.6928568 0.7483219 0.73747396 0.7804444 0.6884072 0.74468225
0.7354976 0.7784796 0.681671 0.74119943 0.7311255 0.77714145 0.6627557 0.7265638
0.71361613 0.7635872 0.6826837 0.7386077 0.72040725 0.7696128 0.6771411 0.73589295
0.7130966 0.76648664 0.66814125 0.7253399 0.7021963 0.75348294 0.66816604 0.7262318
0.6988139 0.7524207 0.687001 0.75134385 0.71582884 0.773113 0.7118993 0.77163374
0.7342223 0.7877018 0.7113529 0.7716813 0.73807245 0.7888413 0.69600445 0.7577079
0.7157236 0.77081585 0.6807592 0.73542535 0.6967856 0.74778885 0.6842975 0.73664725
0.6993865 0.74826616 0.6976687 0.74975157 0.70698184 0.7573874 0.7033933 0.7524738
0.71109354 0.75942105 0.69368815 0.74536157 0.6970182 0.74978393 0.71262956 0.76008505
0.71452725 0.7632433 0.7185617 0.7627822 0.7201986 0.7663721 0.72352964 0.7665269
0.7219425 0.7681631 0.7069838 0.7596391 0.70487577 0.7608363 0.7069838 0.7600306
0.70487577 0.76120055 0.82772064 0.87045586 0.8363085 0.87698805 0.7090367 0.7653992
0.72678095 0.77706516 0.7090367 0.76516753 0.72678095 0.7767096 0.7300574 0.7742497
0.7417397 0.7831276 0.72574 0.77096033 0.7402304 0.78160715 0.72160316 0.7691629
0.73820186 0.78091234 0.70617753 0.7573513 0.72319067 0.769098 0.7207457 0.76659
0.7310474 0.77586144 0.71582824 0.76429874 0.724831 0.77298874 0.705656 0.7535398
0.7138256 0.7615637 0.7021169 0.7526837 0.7102357 0.76018643 0.72904575 0.7832163
0.7235542 0.7799474 0.7479318 0.7989007 0.7389567 0.79351026 0.7455912 0.7981449
0.7396603 0.793661 0.7281065 0.78277403 0.7171045 0.7751578 0.70656663 0.7589344
0.6937144 0.7483197 0.70968974 0.75961703 0.696109 0.74852836 0.7172059 0.7692366
0.70232564 0.7569976 0.72477776 0.7722892 0.70789385 0.7596544 0.71731025 0.76617175
0.692492 0.7495858 0.7324766 0.7777828 0.70706 0.76056665 0.73294586 0.7769417
0.7101043 0.7616927 0.7369776 0.7801343 0.7142157 0.76483786 0.71489185 0.77060264
0.6957175 0.75694287 0.71489185 0.7708784 0.6957175 0.7572768 0.8328986 0.8771668
0.8328986 0.8771668

network_body.observation_encoder.processors.1.normalizer.running_mean f4 [10]
00000000: 0000 0000 0000 0000 0000 0000 0000 0000
00000010: 0000 0000 0000 0000 0000 0000 0000 0000
00000020: 0000 0000 0000 0000
0.0 0.0 0.0 0.0 0.0 0.0 0.0 0.0
0.0 0.0

network_body._body_endoder.seq_layers.0.weight f4 [256, 212]
00000000: 23f0 2b3d 1ae3 243b 8fd0 1f3c 59fd 733c
00000010: c8cd e83d bb34 2d3d 1ae9 3bbd 62a3 273c
00000020: 546b 083e ab26 2e3d 218f abbb 1fdf 9ebc
00000030: a859 223d ca98 37bd 0945 013d 06f9 f0bd
00000040: 4888 313b fb0a ad3d e742 cbbd 36fd 9fbb
00000050: 03d1 acbd a517 9d3d 0cb5 8bbd 4de1 09bd
00000060: 94fd 093d 1e03 0a3d d6fd f3bd 68f0 1a3d
00000070: a28f 00bd ae22 4dbd 3f52 df3c de1e 86bd
00000080: 2aec c4bc b76c 773c d290 8b3d 46e8 8c3d
00000090: c61a f5bc 1950 f73d 87e1 463d cdf2 0c3e
000000a0: 0307 f2bd f1ff 893d ad13 cfbc 88af 1cbb
000000b0: 5d52 63bd fd3a cc3c 3c59 13bd 559e 82bd
000000c0: 999c bfbd 396c b43d a15b 20bd ee88 a9bd
000000d0: ee43 963c 0d3a a4bd 08b1 803d 5ac1 b1bd
000000e0: 9996 f1bd 15c8 5abc 2eb5 a5bd bb21 c23d
000000f0: 048e dbbc 4643 493d 326f f0bc 9f95 01bc
00000100: df30 42bd f59b c5bb 4a92 c5bd 93c4 403c
00000110: e528 a43d 61c8 cebc 5795 67bc eb00 453d
00000120: fdd3 133e 743e d13c a487 fdbc ce73 d1bc
00000130: 08e7 7d3c 262d 67bd 0928 cd3d bb59 a63c
00000140: 6302 febb b1b8 353d b24c 98bc 50eb 873d
00000150: 6095 c23d a875 23bd 2319 063e fa74 afbd
00000160: b203 e93a 9a3f 153e 50e5 99bd db98 a9bd
00000170: c0f9 cb3d 3e0d d63c 0bfc 5e3d 949b 953d
00000180: 1618 b73d 4601 543e 2402 67be 6bec febd
00000190: 691d 0dbc a099 623d 1b2c 89bd 412f a4bd
000001a0: 0240 96bc fe39 143d 49bc 81be 06f1 85bc
000001b0: 5beb 353d 1deb 543d c390 4c3b 9256 733c
000001c0: e5fc d03d ea51 223d 39a4 0bbe 934c 2dbd
000001d0: 9254 adbb c695 cfbb 8089 9f3b 0d2d 1e3d
000001e0: 7452 b73d f110 073d 5691 b83d 8762 a4bc
000001f0: 965e 3e3d c933 99bd 553d 073d 3955 423d
00000200: 65d1 c23c e522 c2bd 9c61 a6bc e707 27bd
00000210: ef48 733d ed4e 11bd d9a6 803d c009 eabc
00000220: 8210 1c3e 1b33 04bd a360 06be 3ba8 3a3d
00000230: c497 b33b 3acf bd3d 78c8 6d3d 2298 ca3d
00000240: bf6e 61bb 8a0d fc3c 3cd1 853c d162 e83c
00000250: 2ea5 9d3d 089f 01bc 135c 0e3d 40e6 273d
00000260: 3a62 923c a306 3fbd f230 2e3d 52ad 49bc
00000270: 5c7a 183d c864 4abd 627b c9bd 4b92 81bd
00000280: a33d 753c 0f6a afbd c2b8 c9bc 7dd5 01bd
00000290: 451e a03d cd16 db3d 0732 b8bc 7b09 7fbd
000002a0: 7894 1a3e 040d 883d 4f40 343d bc36 1b3e
000002b0: c032 e7bd f3fa 8c3d 5e12 d93d 79c6 50bd
000002c0: caf1 193d 0af4 423c c251 1c3c bb2c d33d
000002d0: ecd5 a13d e413 053e 1852 01bd 360a f6bd
000002e0: bbff 033d f8b1 923d aa16 efbd b87e a33d
000002f0: 2ca3 0f3e 623f 1b3d 6cbd 793b 8305 0c3d
00000300: 4696 4cbd f15c 44bd 6c14 993c 88c4 6c3d
00000310: f732 513d b03e b33c b5e5 2e3d 2329 913d
00000320: 6878 10ba 01f8 d6bd 2822 883d fca2 1e3d
00000330: 9b4c a7bd 4c88 b3bd 13c9 a43c c92a d4bd
00000340: 4899 fc3d 78d1 c63c 7bd7 0d3d efdc 8cbb
00000350: 0b86 bd3c 5d87 203c ac6c 523d 091f 76bd
00000360: 86d4 15bd c574 e53d a183 8f3c 3855 e53d
00000370: e8c2 f23b ada6 913c 3348 a1bd 0169 b9bc
00000380: aba7 35bd 39ff e73c 7eb3 a7bd a637 17bd
00000390: ff2e b2bd 5483 c33d 4b90 18bd f757 61bd
000003a0: dd2f 093c 6308 cbbb 7922 afbc 4ca5 23bd
000003b0: 659a 42be 929c 9b3d 939f 80bc 2ce7 6cbd
000003c0: 0603 cabd 7af7 d53d bfab d5bd eb32 1ebe
000003d0: 79f9 303d a022 083e 35d1 56bc 61f9 873c
000003e0: 117c 253c f099 70bc 87e5 d63c 318b 1e3d
000003f0: 0cc2 88bd 1a2e 803d 1e5d 6a3d 30d3 c13d
0.04197706 0.0025159777 0.009754314 0.014891946 0.11367375 0.042286616 -0.0458766 0.010231825
0.13322192 0.042517345 -0.005235568 -0.019393502 0.039636284 -0.044823445 0.031559978 -0.117662475
0.0027089287 0.0844936 -0.0992487 -0.00488248 -0.08438303 0.076705255 -0.06821641 -0.03366213
0.033689097 0.03369438 -0.1191365 0.037826926 -0.03138698 -0.0500819 0.027260898 -0.06548856
-0.024038393 0.015101603 0.06814732 0.0688024 -0.029919993 0.12075824 0.048554923 0.13764496
-0.11817744 0.0673827 -0.025277937 -0.0023908336 -0.05549847 0.024930472 -0.035973772 -0.06377856
-0.093560405 0.08809704 -0.039149884 -0.082780704 0.018342938 -0.08018885 0.06283766 -0.08679457
-0.11796302 -0.013353367 -0.08091198 0.0947909 -0.026801117 0.049136423 -0.029349897 -0.007909208
-0.04740989 -0.0060305544 -0.09647043 0.011765617 0.080156125 -0.025242032 -0.0141347265 0.04809658
0.14436336 0.025542475 -0.030948468 -0.025567915 0.015496977 -0.05643954 0.10017402 0.020306459
-0.0077517494 0.04436559 -0.018591259 0.06636679 0.09501147 -0.039907128 0.13095526 -0.085672334
0.001777759 0.14575043 -0.07514441 -0.08281108 0.099597454 0.026129361 0.054439586 0.07305065
0.08940141 0.20703611 -0.2255941 -0.12447437 -0.008612969 0.05532229 -0.066978656 -0.080168255
-0.018341068 0.03618812 -0.25338963 -0.01635028 0.044413906 0.051982034 0.0031214214 0.014852183
0.10204486 0.0396289 -0.13636865 -0.042309355 -0.0052896226 -0.006334993 0.004868686 0.038617183
0.089512736 0.03297514 0.09012096 -0.020066513 0.046476923 -0.0748058 0.033017475 0.047444556
0.023781488 -0.09479312 -0.020310216 -0.04077902 0.059395727 -0.03547566 0.06281824 -0.028569102
0.15240672 -0.0322753 -0.13122801 0.045570593 0.0054807384 0.09268041 0.05805251 0.09892298
-0.0034398285 0.030768175 0.016335122 0.028367432 0.07697521 -0.007911451 0.034755778 0.040991068
0.017869104 -0.04663719 0.042527147 -0.012309389 0.037226066 -0.04941252 -0.098379865 -0.06326731
0.014968309 -0.08565151 -0.024624232 -0.03169774 0.078182735 0.10697708 -0.022484792 -0.0622649
0.15095699 0.066431075 0.044006642 0.15157598 -0.11288977 0.06883802 0.105992064 -0.05097053
0.037584104 0.011899004 0.009540977 0.10311266 0.079021305 0.12995869 -0.03157243 -0.12013666
0.032226305 0.07162851 -0.11674245 0.07983154 0.14027089 0.037902243 0.003810729 0.034184944
-0.049948 -0.0479402 0.018686496 0.057804614 0.051073994 0.021880478 0.042699534 0.07087924
-0.0005511106 -0.10496522 0.0664714 0.038729653 -0.08168908 -0.08766231 0.02011541 -0.10359723
0.123339236 0.024269804 0.034629326 -0.0042987983 0.023135206 0.009797898 0.05137317 -0.06008819
-0.03657963 0.11203913 0.01751882 0.11197895 0.0074084885 0.017779673 -0.07875099 -0.022633078
-0.044349354 0.028319942 -0.08188532 -0.036918305 -0.0870037 0.09546533 -0.037246983 -0.05501553
0.008373228 -0.006196068 -0.021378743 -0.03995256 -0.1900421 0.07598223 -0.01570109 -0.05783765
-0.09863858 0.10447593 -0.104331486 -0.15449111 0.043206666 0.13294458 -0.013111402 0.016598405
0.0101003805 -0.014685139 0.026232494 0.038706962 -0.066776365 0.06258793 0.05721771 0.09464109

network_body._body_endoder.seq_layers.0.bias f4 [256]
00000000: f8bc 3d3c f13d 81bb f168 2dbb c7c5 ee3c
00000010: 829d eb3b 840c fcba a66b b13c fe2f 83bc
00000020: ef01 af3b c873 e8ba 1fdc c8bb 9c55 cb3c
00000030: 30b9 d93c 7d36 d93c c797 953c cd54 703b
00000040: 7b37 a53c 2661 583c f8f8 0dbd 6e08 d13b
00000050: 7438 3cbc 0df7 54bc 26bf 813b ee70 973c
00000060: d9a8 ddbb adac ccba 1fad 763b 6ce4 943b
00000070: cc7f 443c 9b55 66ba ea7d 033c b555 0fbc
00000080: d919 bb3c db2f aa3b 58fc 86bb 98a4 fc3b
00000090: ba7e 953c 4dd0 b53c be06 99ba 4da5 a03b
000000a0: 70a8 603c acde 4c3c 2d99 9e3b a488 8dbc
000000b0: de3c 1f3b 38ea 27bd aa8d d0bb 4ea6 a83b
000000c0: 8061 ccbc 3668 48bc fa25 1c3d 6e3e d33a
000000d0: e81e 20bb ec99 99bb 31e4 f93b 12ba a93b
000000e0: e770 0abc 7d6c 693c b760 803c 7586 1a3c
000000f0: ec68 6dbc 8a1a a8bb 21e2 4bb8 0379 7b3b
00000100: f980 32bb bcf3 d63c 190f deba e076 093c
00000110: d841 013c 2b80 e83b 823d 1e3c aa33 f53c
00000120: d8c2 d13a df0d 133c df8c 053c f7c9 563c
00000130: e3a1 df3b 5d4e 95bc e8a1 fd3a 5b51 103c
00000140: 9430 3ebc 7680 96bb a6f5 9439 699d fbbc
00000150: 22d8 b33c 0932 5a3c e173 033c 48f7 873c
00000160: 07f8 f2bb 8ed4 a23b 85ed d63c 0c7d 02bc
00000170: c15e faba aac8 13bc 8a58 863c 7a78 bd3a
00000180: e709 223a f8bb 9d3c 5547 89bb ee54 293b
00000190: 2234 99bb ea7b 753c 6cca a73c ea47 1a3d
000001a0: 84ff 6839 edbd b83c 14a1 113c 3578 323c
000001b0: 23aa 6c3a 4217 91bc 81ae 793c a88f b43b
000001c0: 2413 88bc 1fec 233c f1f5 4cbc b1c3 6a3c
000001d0: a686 4f3c 4fe8 71bc 4f2d 1b3c 4433 d0bb
000001e0: 89e9 8cbb 776d 543b a8f1 84bb 5322 14bc
000001f0: dfa7 50bc 3d3a 3f3c 118e d939 51fd 863c
00000200: 0eb9 49bb e6f2 2a3c 10cf 8a3b 9afb 8dbb
00000210: 6192 5f39 f47f 6f3c ae1d cc3c 2792 a83c
00000220: 5fff 95bb 9133 fd3b 6434 22bc ab0d e83b
00000230: f1e7 823c d0da 243c 6058 aeba 6e5b 1d3c
00000240: aa70 cabb 15f1 1b3d c1b3 b63b a0b9 4f3b
00000250: 2ecf 463c 7fc7 65bc ced3 b3ba 9d32 50bb
00000260: f0de 553c af99 c1bb 7f7b 193b 2397 eb3b
00000270: 3ed3 fa3b 58b0 453c 54e5 a53a 1500 453a
00000280: eb68 99bc 2e19 b73a 8453 823b 46c7 b03c
00000290: f624 163b 1040 9bb9 ca3c f7bb 9999 073d
000002a0: e1b2 4f3b e77d 44bc 251e 6a3c 8ada 063d
000002b0: d651 ff3b c555 4f3c 1c4a ed3c 011e 54bc
000002c0: 7295 823c 7e18 893b ff97 eabb 1723 ccbc
000002d0: 2e8b c9ba 19ca 0ebc ca60 7d3c 0191 bfbc
000002e0: e700 e23b a9a6 dd3c b1d6 69bc 6453 7f3b
000002f0: 901c 8a3b d8fa a03b 1623 c33c d788 e33a
00000300: b7cb 64bc 2618 8dbc 8177 683c 595f 363c
00000310: fff0 01bc 5017 ebbb f6c6 313c ea5e 113b
00000320: 0c29 53bc 42a1 2c3c 83a2 a53c 27c0 a13c
00000330: c5cf d73b 3339 5dbc 3d29 8bbb ea5a 2a3c
00000340: af99 53bc e044 02bc 7e24 1d3c aebc b9bc
00000350: f3b6 35bb 4c2c 17bc 32f9 b93b 8026 893c
00000360: 0900 35bc 36e8 023d 8b08 9a3c 7491 973b
00000370: d73e 1c3b b2a2 88ba 1f68 8ebb 5f2a 403c
00000380: 05a0 513a f6b6 9a3b adaf ae3b 5cfe 1e3c
00000390: 2936 c3bb cfa0 283c f6d9 dab8 f7c4 b2bb
000003a0: f0bc 263c c3b4 153c ed46 723b 12be ecbc
000003b0: c5d7 3f3c 2035 eb3b 13e1 92ba 3365 44bb
000003c0: ffab dd3b c956 4f3c 6cb9 abbc 2334 c23c
000003d0: 594a 6bbc 2ffc c53b ad6f b339 3242 833c
000003e0: c845 d73b c1f7 b33a 087d 8eb9 d7ae b73b
000003f0: 4a60 73bb 9ea3 f9bb 404d 40bc 7b01 113c
0.011580698 -0.0039441516 -0.0026460255 0.029147042 0.0071904073 -0.0019229804 0.021657776 -0.016014095
0.0053408067 -0.0017734701 -0.006129756 0.024821095 0.026577562 0.02651524 0.01826085 0.003667164
0.020168057 0.013206756 -0.034661263 0.0063791787 -0.011488069 -0.012998355 0.0039595542 0.018486466
-0.006764513 -0.0015615426 0.003763981 0.0045438316 0.01199336 -0.000878656 0.008025626 -0.0087484615
0.022839474 0.005193693 -0.004119437 0.007710051 0.018248904 0.022194052 -0.0011674983 0.004902518
0.013712034 0.012504261 0.0048400373 -0.01727707 0.0024297754 -0.040994853 -0.006364544 0.005146778
-0.024948835 -0.012231877 0.038122155 0.0016116628 -0.0024432484 -0.0046875384 0.0076260795 0.005179652
-0.00844977 0.014247057 0.015671117 0.009431471 -0.014490347 -0.005130117 -4.860957e-05 0.003837169
-0.0027237518 0.026239268 -0.0016941755 0.008390158 0.0078892335 0.007095357 0.009658219 0.029931862
0.0016003503 0.008975475 0.008151262 0.013109676 0.0068247183 -0.018225843 0.001935062 0.008808459
-0.011608262 -0.0045929505 0.00028411782 -0.030714707 0.021953646 0.013317593 0.008023233 0.016597405
-0.007414821 0.004969186 0.026236305 -0.007964384 -0.0019101725 -0.00902001 0.01639964 0.001445546
0.0006181285 0.01925467 -0.0041894116 0.0025837976 -0.004675404 0.014983157 0.020482264 0.03766624
0.00022220431 0.022551501 0.008888502 0.010892917 0.0009028038 -0.017711286 0.015239359 0.005510289
-0.01661069 0.010005026 -0.012509809 0.014328883 0.01266638 -0.014764859 0.009471252 -0.0063537676
-0.0043003005 0.003241388 -0.004057128 -0.009041387 -0.012735336 0.0116716 0.00041495313 0.016478213
-0.0030780467 0.010433888 0.0042361096 -0.0043329718 0.00021321468 0.014617909 0.024916496 0.020577503
-0.0045775617 0.0077270945 -0.009900186 0.0070817075 0.015979739 0.010061935 -0.0013301484 0.009604318
-0.0061779814 0.03807171 0.0055756276 0.0031696334 0.012134356 -0.014024614 -0.0013719739 -0.003176845
0.013053641 -0.005908213 0.0023419557 0.0071896478 0.0076545766 0.012065969 0.0012656846 0.0007514966
-0.018726787 0.0013969296 0.003977241 0.021579396 0.0022910214 -0.00029611634 -0.0075450884 0.033105467
0.0031692313 -0.011992908 0.014289414 0.03292326 0.007791738 0.012654726 0.028966002 -0.012946607
0.015940402 0.004183828 -0.0071592326 -0.024919076 -0.0015376562 -0.008715176 0.015464971 -0.023384573
0.00689708 0.027057009 -0.014272378 0.0038959617 0.0042148307 0.0049127154 0.023820441 0.0017359507
-0.013964585 -0.017223429 0.014188648 0.011131131 -0.007930993 -0.00717441 0.010850659 0.0022181817
-0.012888204 0.010536494 0.020219093 0.019744946 0.0065860474 -0.013502407 -0.0042468593 0.010397652
-0.012915059 -0.007950991 0.00959122 -0.022672977 -0.0027727454 -0.00922687 0.0056754583 0.016741991
-0.011047372 0.031959735 0.018802902 0.0046254937 0.0023841166 -0.0010424464 -0.0043459083 0.011728852
0.0007996562 0.0047215177 0.005331001 0.009704199 -0.005957384 0.010292246 -0.000104356484 -0.005455609
0.010176882 0.009137335 0.0036968545 -0.028899226 0.011709158 0.007177964 -0.0011205993 -0.0029967546
0.0067648883 0.012654969 -0.02096244 0.023706501 -0.014360988 0.0060420255 0.00034224745 0.016022775
0.006569598 0.0013730453 -0.00027177506 0.0056055593 -0.003713625 -0.0076183816 -0.011737168 0.008850451

network_body._body_endoder.seq_layers.2.weight f4 [256, 256]
00000000: c858 47bc 00fc 07bd 6d30 123e 6d0a 1d3c
00000010: ee33 e0bd 5bd8 523d 15c4 45ba 41e3 f23a
00000020: 6a18 f9bd a84e 3c3d a3dd ef3d b9a8 c73c
00000030: 7839 823d 1ba1 fabc 1bd9 433d 872e de3c
00000040: afe8 04bd dffc 17bc 4324 a73b 888c c03d
00000050: 37ab ca3d 0436 2fbd 6d56 c9bc f1bc 543d
00000060: 37aa 103e 41c3 ef3a 0dc0 d63c 7ac9 83bd
00000070: 9d91 213d d5f6 113d f4c1 24bc 3c52 c13c
00000080: 6880 933d e3bf 303d 787b 253b c206 883d
00000090: 97bc 09bd f675 b93d ccf5 bfbd e737 f0bc
000000a0: 1087 d83d 1a87 3a3d 90bc e6bd 315b 563e
000000b0: 18c0 9ebd e761 3d3d f03b c0bd e931 603d
000000c0: e8fe 9bbc 2871 ee3b 10a9 2e3d efa7 1abc
000000d0: 3bc7 243d 86fc a6bd 1064 af3c 6d23 383d
000000e0: 96f2 c5bc 53b4 763c 4801 93bd 49e5 263d
000000f0: 3ff2 413c 11e0 3ebd 5623 b63d bcfd 03bd
00000100: aa30 9c3d 7692 6cbd 90f1 2dbd 1c09 533e
00000110: 3f66 343a 18e7 f23c 303e c53d f23b 1ebe
00000120: db03 d33d f8e3 75bd 557e deb9 6ef7 b2bb
00000130: 8276 b23d 4dbb 3dbd 2f6b 83bd b444 b13d
00000140: d7fb 08bd daee ad3b f473 7dbb d85f b9bb
00000150: f06d 0dbe edec 1abd 3771 363b aa75 38bb
00000160: 7f90 10bd d243 f13b adb1 493d f194 2abd
00000170: 44f6 913c 954f 51bb 3580 1a3d 0e55 c33c
00000180: 23b1 6fbd 357d 03bd 4278 afbd 84ca 19bc
00000190: 1751 143d 5b3e e7bd f9bd 38bc 9227 f93d
000001a0: 3a88 2bbc ebd7 233d b408 d83d ffb4 6c3d
000001b0: 39a2 1f3c dec9 433d f96b db3d dbde fdbb
000001c0: 4840 9abc 071a 95bb b36d bf3d 24d6 4cbd
000001d0: 7115 5d3b ef2f 6ebd de4f 593c 47c0 b6bd
000001e0: 5a13 9e3d 1102 fdbd 8bd0 913c 542c e93c
000001f0: 1271 c83d 57da 6b3d 9f11 ba3b db1e 083e
00000200: 7ead 8cbd 7bab 2cbd ecd6 a03b 08d5 f43d
00000210: d1b6 2e3d 7f25 ba3d c799 a4bd 286f 2b3c
00000220: 1e70 9dbd 93b7 563d b6b5 9d3d b9f2 16bb
00000230: ba7f b9bd 8376 c53d 2c4f dd3c 1ed4 acbb
00000240: 447f 563d 3ad1 9d3d 1b83 e4ba e310 c83d
00000250: 03ac 8cbd 3b60 c1bd f7d8 b7bd 204c bfbd
00000260: fb7a 52bd 8e47 41bd 9bf8 89bc 173f c13d
00000270: d7fa 06bd d683 36bd 0a3e 193c cc0b 92bc
00000280: da5e 9bbd cfe2 8f3d 48f8 91bc b62b 0f3d
00000290: aafa 51bd d5c1 22bd 8dcf 313d 459c ae3d
000002a0: d03c a03d 76a4 133d dc5b 44be c5ad 0dbd
000002b0: b268 51bd 0fa5 d63d 298a 2d3d 1e9e ccbd
000002c0: 4694 0abc 2065 403d d8bd e4bc 8ac4 5cbc
000002d0: 4fcf 8bbc 7313 b6bd 73f3 c13d b3d9 25bd
000002e0: c1d0 163c 3f18 c1bb 307b de3c 019d 9d3d
000002f0: 8aa9 cc3b d4a9 8ebc 9f9e f2bd 1f50 c3bd
00000300: fdd2 e4bd 8b5d ad3d 63a7 24bd 3a9a 24bd
00000310: 7113 18bd 7230 6a3d 0af6 79bb 4d2b ba3d
00000320: db38 a3bc de6f 13bd 4b80 5b3c ac4c 20bc
00000330: 80a1 893d 3da0 b53d 80bb 7cbd cb44 d03d
00000340: 65ea cb3d 6fa0 803d 1567 44bd 1947 73bd
00000350: 881c 763d e2ad 2a3c 7736 a0bd 2219 ae3c
00000360: 96f9 b03c 6e54 6cbd 75b9 68bc 2244 423d
00000370: 7016 67bc 6cd9 503c 4db1 413b 7212 3d3b
00000380: 04a2 193c 610c 9a3d b150 fb3c d463 743d
00000390: b0d9 32bd d29d 663c 331a 443d 4e3e 98bc
000003a0: e43f eebd b4fa 3f3d 65db 69bd 2952 60bd
000003b0: c340 a43d 3bee a43c cdc8 8a3d 9b31 06bd
000003c0: 7753 7a3d 5bf1 bbbd c284 0e3d 02f2 703d
000003d0: 1e6d b339 2c55 7abd 4ccf 463c 0336 bbbd
000003e0: cb1b 403c d75a a9bd 5e39 9dbc 1a3a b43c
000003f0: f96c cfbc 0f2c 9b3c ca75 9d3d 91ae f53b
-0.012167163 -0.03319931 0.14276285 0.009585005 -0.10947405 0.051475864 -0.0007544172 0.0018530862
-0.1216286 0.04597345 0.11712196 0.024372445 0.063586175 -0.0305944 0.04781447 0.027121795
-0.032448467 -0.009276598 0.0051007583 0.09401804 0.09895938 -0.042776123 -0.024577344 0.051938
0.14127432 0.0018292443 0.026214624 -0.06434913 0.03944551 0.035635788 -0.010056008 0.023598783
0.07202226 0.043151747 0.0025250595 0.06641914 -0.03362712 0.090557024 -0.09373054 -0.029323531
0.10572636 0.045539 -0.11266434 0.20933224 -0.07751483 0.046235945 -0.09386432 0.054735098
-0.019042447 0.007276673 0.0426417 -0.009439453 0.040229063 -0.08153634 0.021410018 0.04495566
-0.024163526 0.015057641 -0.07177979 0.040746007 0.011837541 -0.046600405 0.088934585 -0.0322244
0.076264694 -0.057756864 -0.0424667 0.20608944 0.0006881691 0.02965121 0.09631002 -0.15452555
0.1030347 -0.06003186 -0.00042437264 -0.005461625 0.0871401 -0.046321202 -0.06416928 0.08655682
-0.0334433 0.0053080143 -0.003867385 -0.0056571774 -0.13811469 -0.037823606 0.0027838477 -0.0028146305
-0.035294052 0.007362821 0.04924171 -0.041645948 0.017817624 -0.0031938304 0.037719924 0.023844268
-0.05851854 -0.03210183 -0.08567859 -0.009386662 0.036210146 -0.1129119 -0.011275762 0.121657506
-0.010469491 0.040000837 0.10548535 0.0577898 0.009743267 0.047799937 0.107139535 -0.0077475137
-0.01882948 -0.004550222 0.09347095 -0.050008908 0.0033734704 -0.05815118 0.013263671 -0.08923393
0.07718535 -0.1235391 0.017799636 0.02846352 0.097871915 0.057581272 0.00567837 0.1329302
-0.068690285 -0.042155724 0.004908433 0.11954695 0.042654816 0.09089183 -0.08037143 0.010463513
-0.076874 0.052421164 0.07700674 -0.0023032858 -0.09057565 0.09641745 0.027015291 -0.00527431
0.052367464 0.077059224 -0.0017434092 0.09768846 -0.06868746 -0.09442183 -0.0897693 -0.093406916
-0.051386815 -0.04718738 -0.016842177 0.094358616 -0.032954063 -0.044559322 0.00935317 -0.01782789
-0.07586451 0.07025682 -0.017818585 0.034953795 -0.051264443 -0.039735634 0.043410826 0.085259
0.07824099 0.036045514 -0.19175667 -0.034589548 -0.051125236 0.10480701 0.042368088 -0.09991096
-0.008458203 0.04697144 -0.027922556 -0.013474593 -0.017066626 -0.088904284 0.094702624 -0.040490817
0.009205044 -0.005892783 0.02715835 0.07695962 0.0062457966 -0.017414965 -0.11846661 -0.09536766
-0.11173055 0.084651075 -0.040198695 -0.040186144 -0.037127916 0.057175107 -0.0038141035 0.0909029
-0.019924572 -0.035995357 0.013397287 -0.009783905 0.06720257 0.08868454 -0.06170225 0.10169371
0.099568166 0.062806 -0.04794987 -0.059393976 0.060085803 0.010417433 -0.07822888 0.021252219
0.021603387 -0.057697706 -0.014204373 0.047428258 -0.014104471 0.01274715 0.0029555142 0.0028850106
0.009377006 0.07521892 0.030678125 0.059665516 -0.043664634 0.014075713 0.047876548 -0.018584397
-0.1163328 0.04686995 -0.057093997 -0.054765854 0.08020165 0.020133128 0.06776581 -0.03276215
0.061114755 -0.09176894 0.034794576 0.058824547 0.0003422284 -0.061116382 0.012134384 -0.09141161
0.011725376 -0.082692795 -0.019192394 0.022000361 -0.025320517 0.018941907 0.07688482 0.0074976166

network_body._body_endoder.seq_layers.2.bias f4 [256]
00000000: 45d5 0b3c 2e36 f43c 62ff 953c 8ede 04bb
00000010: c76e 4b3c bb3d c33b b293 60bc 097b 803c
00000020: 1e85 243c 3377 193c e822 433c 8659 453b
00000030: b37f 2b39 8cdc 953b 28db 0e3c 5ef9 3a3c
00000040: 33b2 583b aef0 cd3b 853d 883c c28a 763c
00000050: 0c74 cabb b4a6 883c a4f4 0a3c 5190 8d3c
00000060: 6c6f 8d3c 0ee3 88bb 2030 0d3c d716 513c
00000070: 5dbf 993b e976 2dbc 3afd 213c ef6e 953c
00000080: c14e c23b 8a87 593c 5f69 b93c 0f01 f53b
00000090: a87e 4b3c 7d11 113a a42f 163b 4045 bc3a
000000a0: ece9 6a3b 2798 533c 738a 30bc 86e2 efba
000000b0: 6998 233c dde5 943c ea74 23bc 3029 913b
000000c0: ef7c 043d 4deb 4ebc eb3d 963c dc51 35bc
000000d0: 95a9 1b3b bb4f 973c aceb a23a 0b99 013c
000000e0: 04b5 633b 380a 4d3c 2c8d e53b 28f4 9d3c
000000f0: 6697 103c ba68 b03c d610 a13c 2736 443c
00000100: 898a c63c 53d8 813c 2f7b 17bc 33db c13b
00000110: ca9c 0e3c a9fe 85bb 7eee 983c e283 cb3b
00000120: c062 e03c 2b3b ee3b 9619 663c 8e00 633b
00000130: 69d9 983c a421 56bc b61d d83c cce6 2f3b
00000140: c8f0 963b ff06 b1bb c170 b1bb 27d6 303b
00000150: f347 703b 2cca 613c 639b 4c3c bcca 02ba
00000160: 7a75 723b 41d4 cf3b 0617 03bc 0672 b13c
00000170: a9a5 953c ceca f33b f8ec a83b 434b 6b3c
00000180: 9ddb b13b 379b 353c 099d d73b b816 583c
00000190: 8474 893b 1063 413c 4cc5 b73c 2831 42ba
000001a0: bc89 1cbc e699 323c 4b1d 82ba 9ab6 883c
000001b0: aea0 aa3c d91b ec3c c944 0b3c 1b11 d03b
000001c0: 269b 46bc 1205 c73c 5501 99bc 9b97 0a3b
000001d0: 7aeb cbb9 833d fc3b 296a a93b 079c a13c
000001e0: 7610 7dbb b783 7fbc 37af 4b3b 3a46 973c
000001f0: 2243 383c f01d 113c f573 d1bb bb3a 4b3c
00000200: 8bac 8b3b 4234 a13c fc7c 2bbc 5364 9c3b
00000210: 8c9a babb f81c 033b ced8 4f3c b65f c83a
00000220: 4cc5 9c3b 0e73 53bb 44a4 803b 406f a33c
00000230: 4852 123c 1b8e 543b 514a 92bb e68d d8bb
00000240: 847e b03b 906c da3c b1ba 9f3c bbb9 433b
00000250: 3d9e 9d3c ccb7 c43a 7628 be3c 1b37 89bb
00000260: a974 af3c d557 3bbc 8975 973b 4653 21bb
00000270: 394a a73c eb47 193c b401 1f3c a19d 063c
00000280: d09c d03c 6460 de3c e003 633b c122 9fbb
00000290: 0665 0fbb 877c 663c b4fe 863c fd83 1fbc
000002a0: f897 a23c b88c 183b e1d4 363c 8c35 583b
000002b0: d4a1 83bc 1fcc 95bb cf94 12bb be21 32bb
000002c0: d54f 653c c744 bf3b 437d 253b cc4c 9a3c
000002d0: b664 2cba ecbb afbb 6589 093c f47d f73c
000002e0: 446f 803c 8821 3d3a e2eb a63b f615 3ebb
000002f0: ece3 963b bd2a 22ba d891 bc3c cfba 1fbb
00000300: 97d3 523b ad01 f23c 03a2 853c 2bbd 523c
00000310: b662 d4bb a83e 703b 1b90 573c 4fd9 12bc
00000320: 3610 873c 8b1d 243c 4bd9 c53b e942 dd3c
00000330: dc0b 84bb 9b8a 8a3a e3bb 993b 2bb3 ac3b
00000340: 893b aaba ce58 d33a 9ccd 623c caf3 8c3c
00000350: 669f 49bb 47da 073a b04d 8d3c 2a25 703c
00000360: 57e0 893c 47d4 a3bb 1f87 3bbc f26c b23b
00000370: c583 8d3c c7dc cdba 2b36 af3c d661 d33b
00000380: 3179 313c fbb7 1a3b 693e 243b 9663 2d3c
00000390: e9e2 723a fd6f da3b f2d2 d43b 5438 d03c
000003a0: bab4 ba3c 564b bf3c c022 73ba e580 e6ba
000003b0: 918d 06bc 7bb6 273c 5f06 493c 4650 2f3c
000003c0: e979 b13c 9169 4e3b 80aa 62bb 3696 263c
000003d0: 8fec d83b 0b62 213a f5c9 813b 04ef fd3b
000003e0: 749e d6bb d2a0 9f3c 3445 2f3c 75ac 803c
000003f0: 4ef3 343c 114d 1f3b 1c94 8c3c 5b19 083c
0.008534734 0.029810991 0.018310253 -0.0020274254 0.012416548 0.0059582866 -0.013707088 0.015683668
0.010041503 0.009366798 0.011910178 0.0030113175 0.00016355402 0.0045734104 0.008719243 0.011411993
0.00330652 0.006284795 0.016630897 0.015047731 -0.0061783846 0.016681053 0.008481178 0.01728073
0.017265044 -0.0041774577 0.008617431 0.012761793 0.0046920017 -0.010587432 0.009887034 0.018241374
0.0059297984 0.013276944 0.022633253 0.007476933 0.012420334 0.0005533917 0.002291658 0.00143639
0.0035844995 0.012914694 -0.010775196 -0.0018301762 0.009985068 0.018176014 -0.009976605 0.0044299588
0.03234571 -0.012629342 0.018340072 -0.01106688 0.0023752202 0.018470636 0.0012429855 0.007910023
0.0034745345 0.012514643 0.0070053544 0.019281462 0.008825159 0.021534313 0.019661348 0.011975802
0.02423598 0.015850222 -0.009245678 0.005916023 0.008704374 -0.0040891957 0.01866841 0.00621079
0.027390838 0.007270237 0.014044186 0.0034637782 0.018658357 -0.013069544 0.026381355 0.0026840447
0.00460634 -0.0054024453 -0.0054150526 0.0026983113 0.0036663979 0.013781112 0.012488219 -0.0004989316
0.003699629 0.0063424413 -0.008001095 0.021660816 0.01826747 0.0074399477 0.005155202 0.0143612055
0.0054277913 0.011084369 0.0065799993 0.01318901 0.004194798 0.0118034035 0.022432946 -0.00074078375
-0.009554323 0.01090095 -0.0009926943 0.016688634 0.020828571 0.028821873 0.008500286 0.0063496954
-0.012121951 0.02429441 -0.018677393 0.0021147493 -0.0003889462 0.0076977625 0.005170126 0.01972772
-0.0038614548 -0.015595368 0.0031079778 0.018466104 0.011246474 0.008857235 -0.006391997 0.012404139
0.004262512 0.019678239 -0.01046681 0.0047727018 -0.005694693 0.002000628 0.012685968 0.0015287313
0.004784262 -0.0032264623 0.003925832 0.01995051 0.00893075 0.0032433334 -0.0044644256 -0.0066087125
0.0053861756 0.026663095 0.019498201 0.0029865343 0.019240493 0.0015008389 0.023212653 -0.0041874773
0.021417933 -0.011434515 0.0046221656 -0.0024616285 0.020421134 0.0093555255 0.009704996 0.008216293
0.025465399 0.027145572 0.003463976 -0.004856438 -0.0021880283 0.014067776 0.016478874 -0.009736058
0.019847855 0.0023277234 0.011159153 0.00329909 -0.016068377 -0.0045714523 -0.002236653 -0.0027180756
0.013996084 0.0058370563 0.0025251664 0.018835448 -0.00065762864 -0.005362978 0.008394574 0.030211426
0.015678056 0.00072147744 0.0050940374 -0.002900479 0.004604807 -0.0006186178 0.023018762 -0.0024372821
0.0032169574 0.029541815 0.016312605 0.012862484 -0.006481494 0.003665844 0.013156916 -0.008962943
0.016487222 0.010016809 0.006037866 0.027009444 -0.004029734 0.0010569872 0.0046915873 0.005270382
-0.0012987714 0.0016124488 0.013842966 0.017206091 -0.0030765175 0.0005182367 0.017248958 0.014657298
0.016830606 -0.0049996707 -0.01144579 0.005445116 0.017274747 -0.0015706056 0.021388134 0.006450872
0.010832117 0.0023608196 0.0025061613 0.010582825 0.00092653796 0.006666182 0.006494873 0.025417484
0.022791255 0.023351353 -0.00092748925 -0.0017586021 -0.008212463 0.010236378 0.012269585 0.010700291
0.021664577 0.0031496028 -0.003458649 0.010167649 0.006619997 0.0006156272 0.0039608427 0.00774944
-0.006549651 0.019485865 0.010697652 0.015707234 0.0110443365 0.002430741 0.017160468 0.008306826

action_model._discrete_distribution.branches.0.weight f4 [4, 256]
00000000: 7848 8cbc a755 53bb 1017 103d 8ca2 28bd
00000010: c788 393c 84e9 babc 7d83 e1bb 8ec8 1f3d
00000020: 0ede a03c c921 2abc 774a 99bc 8a15 99bb
00000030: 599e cbbc 45bb 42bc 24a9 f43c 87c8 02bb
00000040: f247 d93c 8858 92bc c854 f9bc b752 163d
00000050: e7f2 b6bc 8c50 bd3c 8126 05bd 1371 a1bc
00000060: 9188 8fbc 15dd 93bb bcfd 42bc 3f1f 113d
00000070: 6ae1 1abc 2bae 78bb 3bdb 6f3c f619 18bd
00000080: 1702 d1bc 84ff a63b 208b 593d 641e 2abd
00000090: e069 ba3c 2692 75bc 1b99 6fbc 7b54 8dbc
000000a0: 3c1f 97bc a400 1a3d b9cd 5bbc 7611 d7bc
000000b0: 4e62 873c 07bd beba 47d6 253b 72dc a5bc
000000c0: 2502 cd3c 2a70 763a 5334 bebc 08bb ebbb
000000d0: d61f 31bd dc71 bc3c 0857 d6bc 018d 0a3b
000000e0: 5852 1cbc 3820 6abd c5e0 b83b b0e8 48bc
000000f0: e132 583c bb9e ff3c 2635 123d 500e a23c
00000100: 5ffe 613d e32e 1c3d 04c2 1cbc 2883 9cbc
00000110: 0304 7fbc 78a2 96bc 0187 8c3c 64a3 9fbc
00000120: 20d0 5fbd e54c 55bd 20e2 a33c d30a d2bc
00000130: 6e39 023d e76f d7bb 6c95 bcbc 477a edbc
00000140: 34bb 6f3c dc4d 2d3c 28fb a7bc ad98 2fbd
00000150: b11f 02bd 46f2 32bc 8174 5cbc 8b78 c0bc
00000160: 3e36 fbbc a302 1dbd 1e27 5abc 1a57 123d
00000170: 68b5 ba3b 41d4 da3c e93e 63bc 43d7 173d
00000180: 1a24 a4bc 1735 eabc 8533 b23b 761c 09bd
00000190: 86ef 57bb 4f90 e5bc 80cd 543d dd1a 733a
000001a0: 1b84 b3ba d999 0bbd b368 a2bc dd6b 3abd
000001b0: eedf 1dbd 5d5b 083d 84f1 8c3c 2f90 003d
000001c0: 7311 a53b 7dcb 6a3c b3be 813b 976f 02bd
000001d0: 6fcd 90bb ace3 663a da3d 31bd b44b fb3c
000001e0: b44e 0bbc 0b17 2bbc 0865 bdbc 641f 2bbd
000001f0: f8d9 223d 23ac 1abc f96b 03bd a3c5 40bd
00000200: 2d71 8fbb 23fa 06bc 7ea0 72bb 4b0a c4bc
00000210: 778a 2ebc 324a 383b 024b 90bb fb3b 1b3c
00000220: b257 07bc ab05 9b3c 90b4 b2bb dc52 8d3c
00000230: 866a 07bb 5f10 23bd 24b3 8339 48c3 96bc
00000240: 37ec 063d 43cd 2f3d 5296 c53c 3552 6b3c
00000250: 474b 083d 3564 e5bc ce25 333d 3fff 95bb
00000260: ebf5 1cbd dff8 75bc eb3e c2bc 9d4f fb3c
00000270: 2958 27bc 2c7b 6d3c a765 2c3c 6453 90bc
00000280: 0142 1f3d d1dc d9bb 66aa 213b c316 2d3b
00000290: 22a5 3bbc 49c8 10bd 17a4 933c 5c73 c7bc
000002a0: d6ab 93bb 2ef6 003d a204 76bc 29c8 5dbc
000002b0: 0cad adbb 046c 94ba ba7e bfbc 5173 22bc
000002c0: b492 223d a97a 3a3c d3f8 e6bc be40 37bd
000002d0: 95c1 0fbc 4f65 8bbc 7c46 35bd 422f 5a3b
000002e0: 30ae 443d 2e7f 3839 41ae 00bd c646 8fbb
000002f0: b2a4 793c c023 653b af22 77bb c946 f7bc
00000300: 9cfb 673a 4947 053d 9359 303c 9044 063a
00000310: 9863 873c 8500 c43b b2ed 143b 843d f03a
00000320: 9c09 f4bc 03f9 933a 7dfe 1d3c d69d 133d
00000330: e12d 44bc a364 b6bc 5333 c63b 7018 05bd
00000340: 7aa1 06bb d1dd a8bc 661d c6bc 450b f63c
00000350: 7dc8 da3b a6f9 c53b 6875 e1bc 3a15 2abd
00000360: 8159 bc3c bf8f 9dba 6b6e 90bc 4160 18bd
00000370: 849b 123c e735 2e3c 7b12 48bd bcd7 03bd
00000380: f922 0b3d b533 443c 2ca0 ad3c 30cf 9dbc
00000390: 0efd 4abb 50e4 b33c b860 e4bc 36ae 073c
000003a0: aba8 223c 4bf2 c1bb d7ff bdba 7475 60bc
000003b0: c162 e1bc a8ae 0abd f89c 9a3c 277e 30ba
000003c0: 2422 063d 4f3c 8f3c 76ff bdbc c3fd 37bc
000003d0: 5d63 aebc 0b48 94bc 99f9 09bd 865b 8abc
000003e0: 2c7f c8bb bfe9 c139 0b17 483d 18d7 19bd
000003f0: 57c2 023c a693 80bc e606 113d 4b01 c8bc
-0.0171244 -0.0032247098 0.035178244 -0.04117064 0.011324114 -0.022816427 -0.0068821297 0.039009623
0.019637134 -0.010384032 -0.018712265 -0.004671757 -0.02485578 -0.011885469 0.029865809 -0.001995595
0.026523564 -0.01786448 -0.030435935 0.036699977 -0.022332622 0.023109697 -0.032507423 -0.019707238
-0.017521175 -0.004512439 -0.011901315 0.03543019 -0.009453157 -0.003794561 0.014639671 -0.037134133
-0.025513692 0.005096378 0.053111196 -0.04153289 0.022755563 -0.014988458 -0.0146239055 -0.017252197
-0.01844751 0.037598267 -0.013415747 -0.026253443 0.016526368 -0.0014552184 0.0025304721 -0.020246718
0.025025437 0.0009400869 -0.02321831 -0.0071939267 -0.04324325 0.023003511 -0.026164547 0.0021141174
-0.009541117 -0.057159632 0.005642029 -0.012262508 0.013195724 0.031203618 0.035695218 0.019782215
0.055174228 0.038130652 -0.009567741 -0.019105509 -0.015564921 -0.018388018 0.017154219 -0.01948709
-0.054641843 -0.052075285 0.020005286 -0.025639927 0.03179305 -0.006574619 -0.023020469 -0.02898897
0.014632035 0.010577645 -0.020505503 -0.042870212 -0.031768505 -0.01092202 -0.013455511 -0.02349498
-0.030665513 -0.038332593 -0.01331499 0.035727598 0.005697895 0.026712539 -0.013869979 0.037070524
-0.020036746 -0.028589768 0.0054382705 -0.033474408 -0.0032949164 -0.028022913 0.051953793 0.00092737173
-0.0013695987 -0.034082267 -0.019825315 -0.045513023 -0.038543634 0.033290256 0.017205007 0.031387504
0.0050374805 0.014330742 0.0039595007 -0.0318447 -0.004419021 0.00088077295 -0.043271877 0.030675747
-0.008502651 -0.010442506 -0.023119465 -0.041777983 0.039758652 -0.009440455 -0.032085393 -0.04706348
-0.0043775053 -0.008238348 -0.003702193 -0.02393069 -0.01065313 0.0028120396 -0.004403473 0.00947475
-0.008260654 0.018923601 -0.0054536536 0.017251424 -0.0020662858 -0.039810535 0.00025119737 -0.018403664
0.032940116 0.042920362 0.02411953 0.014362861 0.033274915 -0.028001884 0.043737225 -0.004577547
-0.038320463 -0.015012949 -0.023711642 0.030677611 -0.01021389 0.0144946985 0.010522283 -0.017617889
0.038881306 -0.006648638 0.0024668216 0.0026411272 -0.011452945 -0.035347257 0.01802258 -0.024347
-0.0045065684 0.031484775 -0.015015753 -0.013536491 -0.00530017 -0.0011323695 -0.023375858 -0.009915189
0.03969069 0.0113817835 -0.02819482 -0.044739477 -0.008774181 -0.017016081 -0.044256672 0.0033292328
0.04801768 0.00017594986 -0.03141618 -0.0043724505 0.01523702 0.0034963936 -0.0037709882 -0.03018512
0.00088494434 0.032538686 0.010763544 0.0005121911 0.016526982 0.0059815072 0.0022724685 0.001832888
-0.029789738 0.0011289421 0.009643194 0.036039196 -0.011973829 -0.022264784 0.006048599 -0.03249401
-0.0020543025 -0.020613583 -0.02418394 0.03003467 0.006676732 0.0060417233 -0.027521804 -0.04152415
0.022991898 -0.0012020989 -0.017630776 -0.03720117 0.008948211 0.0106329685 -0.04884575 -0.032188162
0.0339689 0.011975219 0.02119454 -0.019263834 -0.0030973586 0.021959454 -0.02787815 0.008281281
0.009927909 -0.005918776 -0.0014495802 -0.013699878 -0.02751291 -0.03385797 0.018873677 -0.00067326654
0.032747403 0.017484812 -0.023193102 -0.011229935 -0.021287614 -0.018100759 -0.0336853 -0.016889345
-0.0061186757 0.00036985983 0.0488501 -0.037558645 0.007980905 -0.015695404 0.03540697 -0.024414679

action_model._discrete_distribution.branches.0.bias f4 [4]
00000000: 86b0 733b cde9 36bb fbfb 963b 6c2b 88bb
0.0037184074 -0.0027910352 0.004607675 -0.004155567

onnx::Div_62 f4 [202]
00000000: a8c7 c03e d33b 943e 9dc9 ee3e 795c c63e
00000010: d88b e63e 0e47 c03e 9dc9 ee3e 30e8 c63e
00000020: d88b e63e e5ba c03e 7734 ec3e 205e c73e
00000030: 9d4c e13e 60ec c03e f624 ed3e 37e7 c73e
00000040: 90d7 e13e ca62 c13e cb84 ee3e bd14 c83e
00000050: bf05 e33e 8830 c13e 5b12 f23e 5b89 ca3e
00000060: 9279 e73e 600f c43e c450 ee3e b5a2 c93e
00000070: d3cc e53e 3d98 c23e cd68 ef3e 4ca9 c93e
00000080: e099 e73e b7aa c23e ed1a f13e deb6 cc3e
00000090: 0726 ea3e faed c63e a719 f13e d45c cc3e
000000a0: 23e8 ea3e 24b2 c63e 716f ed3e 9ec7 c43e
000000b0: b2ef e63e ba7a bf3e 7be3 e73e 66ae c03e
000000c0: 9830 e23e 0a60 bc3e c904 e83e b299 c03e
000000d0: 2622 e13e 1a83 bc3e 5286 eb3e d5bb c33e
000000e0: 61f6 e63e 9297 c03e 3fb3 ee3e ce2b cb3e
000000f0: 915a eb3e 8061 c83e 4dfd ed3e 1977 cb3e
00000100: 87c7 ea3e 04c3 c83e db28 eb3e ed14 c83e
00000110: ae0c e93e cdd1 c53e 70e0 e93e db02 c83e
00000120: a114 e83e e8b8 c53e b206 ec3e 6c1d c93e
00000130: 8d4d eb3e 9d33 c73e a3b6 e73e fa63 c63e
00000140: 1041 e73e dfa4 c43e 1a43 e63e d653 c63e
00000150: 43da e53e 5054 c43e 2302 e53e 44c1 c53e
00000160: 9e69 e53e d8ed c33e af0c e93e d35d c53e
00000170: 8889 e93e 06a1 c33e af0c e93e 64d9 c43e
00000180: 8889 e93e cf1d c33e 255c c13e 1aaf 973e
00000190: 9a74 bd3e a625 943e 6f91 e83e c006 c23e
000001a0: 202b e43e 3ac9 bf3e 6f91 e83e 9a76 c23e
000001b0: 202b e43e c545 c03e 804e e33e ffb8 c23e
000001c0: 2b1b e03e ac68 c03e 7070 e43e 4643 c33e
000001d0: fb87 e03e d7c7 c03e 7d7f e53e d34a c33e
000001e0: d718 e13e edc5 c03e a13c e93e 65aa c53e
000001f0: 4018 e53e de6e c33e f8b6 e53e 355e c43e
00000200: 2a0b e33e 28c6 c13e b7ef e63e 3b6a c43e
00000210: 8eac e43e 0bea c13e 6f5b e93e c3a3 c73e
00000220: a76c e73e 2472 c53e 912a ea3e fb30 c73e
00000230: fc48 e83e e93e c53e 5293 e33e d305 bd3e
00000240: 5900 e53e 4ca2 bd3e 5853 de3e 56fe b83e
00000250: 43e3 e03e 5830 ba3e ac01 df3e e2ef b83e
00000260: fbb0 e03e 3638 ba3e 54d2 e33e 47c6 bc3e
00000270: 929f e63e ae9c be3e 7925 e93e fb05 c53e
00000280: 5b05 ec3e c859 c73e 2a6a e83e 6869 c53e
00000290: 7580 eb3e 66c2 c73e fd98 e63e 2d1d c23e
000002a0: 8e1e ea3e d8c6 c43e 1ab0 e43e 371e c23e
000002b0: 59d6 e83e cfbb c43e 6892 e63e d187 c33e
000002c0: 7348 ec3e 2021 c63e 19a9 e23e 3302 c13e
000002d0: f307 e93e 56f8 c33e d188 e23e 6c6c c13e
000002e0: f250 e83e c007 c43e 756f e13e 36d5 c03e
000002f0: 7c54 e73e 988d c33e 692a e73e fda2 c03e
00000300: 4a96 eb3e c02f c33e 692a e73e fd2c c03e
00000310: 4a96 eb3e 0cae c23e 0107 bf3e dc83 923e
00000320: 0107 bf3e dc83 923e
0.37652326 0.28951892 0.46638194 0.38742426 0.45028567 0.3755421 0.46638194 0.3884902
0.45028567 0.3764259 0.46133777 0.38939 0.44003764 0.3768034 0.4631726 0.3904359
0.44109774 0.37770683 0.46585688 0.39078322 0.4434032 0.3773234 0.4727963 0.3955792
0.45209938 0.3829298 0.46545994 0.39381948 0.4488283 0.38006774 0.46759644 0.39386976
0.45234585 0.3802087 0.47090855 0.39983267 0.45732138 0.38853437 0.47089884 0.39914572
0.4588023 0.38807786 0.46374086 0.38433546 0.45104748 0.3739832 0.4529074 0.37633055
0.441777 0.36792022 0.4531615 0.3761726 0.43971366 0.36818773 0.46000916 0.38229242
0.45109847 0.3761564 0.4662113 0.39681858 0.45967534 0.39136887 0.46482316 0.39739302
0.45855352 0.39211285 0.45929608 0.39078465 0.45517486 0.38636628 0.45679045 0.3906468
0.4532824 0.38617635 0.46098858 0.3928026 0.45957604 0.38906565 0.45256528 0.3874815
0.45166826 0.38407037 0.4497307 0.38735837 0.44893083 0.38345575 0.44728193 0.38624012
0.44807142 0.38267398 0.4551749 0.38548145 0.4561274 0.3820879 0.4551749 0.38447106
0.4561274 0.3810868 0.37765613 0.2962578 0.37003022 0.28934973 0.45423457 0.37895775
0.44564152 0.3745821 0.45423457 0.3798111 0.44564152 0.3755323 0.44395828 0.38031766
0.43770728 0.37579858 0.44617033 0.38137263 0.43853745 0.37652466 0.44823828 0.38143024
0.43964264 0.37651005 0.4555407 0.38606563 0.44745064 0.38170522 0.44866157 0.38353124
0.44344455 0.37846494 0.45104763 0.38362297 0.446629 0.37873873 0.4557757 0.38992128
0.45200083 0.38563645 0.457356 0.38904557 0.45368183 0.3852456 0.44448334 0.36918506
0.44726828 0.37037885 0.4342296 0.36131543 0.43923387 0.36365008 0.43555963 0.36120516
0.43885025 0.3637101 0.44496405 0.36870024 0.45043617 0.37228912 0.45536402 0.38481125
0.46097836 0.38935685 0.45393497 0.3855698 0.45996442 0.39015502 0.45038596 0.37912884
0.45726436 0.38432956 0.44665605 0.37913677 0.45476034 0.38424537 0.45033574 0.38189557
0.46149024 0.38697147 0.44269636 0.3769699 0.45513877 0.38275403 0.44245008 0.37778032
0.45374256 0.38287163 0.44030347 0.37662667 0.45181644 0.38193965 0.45149544 0.3762435
0.460131 0.38122368 0.45149544 0.37534323 0.460131 0.38023412 0.3731003 0.28616226
0.3731003 0.28616226

onnx::Div_65 f4 [10]
00000000: c522 a73b c522 a73b c522 a73b c522 a73b
00000010: c522 a73b c522 a73b c522 a73b c522 a73b
00000020: c522 a73b c522 a73b
0.0051005804 0.0051005804 0.0051005804 0.0051005804 0.0051005804 0.0051005804 0.0051005804 0.0051005804
0.0051005804 0.0051005804
