results/GameAddedRewards5/PlayerBehaviour.onnx (onnx, 490727 bytes, 10 tensors)

network_body.observation_encoder.processors.0.normalizer.running_mean f4 [202]
0.91131276 0.94302166 0.90767074 0.9403569 0.8768133 0.91029406 0.90767074 0.9408708
0.8768133 0.91068727 0.9401196 0.9554362 0.9144675 0.9272584 0.9420621 0.9565761
0.9165443 0.9282695 0.94777894 0.9608565 0.921616 0.93236715 0.9434362 0.95885944
0.91587204 0.9291944 0.9584591 0.966203 0.9256062 0.93482995 0.95584553 0.9654869
0.9159775 0.93232083 0.95630366 0.9653091 0.9175704 0.93231726 0.95605934 0.9658321
0.91700274 0.9332708 0.97019297 0.9863448 0.6849277 0.918224 0.97065276 0.9864638
0.6808014 0.9036778 0.97086847 0.98643243 0.6793435 0.90309775 0.9700859 0.9864291
0.679641 0.9169469 0.9623723 0.97232735 0.81073004 0.8444622 0.9638278 0.97247034
0.8180656 0.8445223 0.9618871 0.9720707 0.81528944 0.84356827 0.9645837 0.9730342
0.82610303 0.84598786 0.9625627 0.97234744 0.7973239 0.8309655 0.96862805 0.97497785
0.80409414 0.83378756 0.9690336 0.9743562 0.80147856 0.8313586 0.96917045 0.9744557
0.7928196 0.82596767 0.9491557 0.9655695 0.77148443 0.8157358 0.9491557 0.9653203
0.77148443 0.81519735 0.95201385 0.9676233 0.7772557 0.81875545 0.9491017 0.96511847
0.7735061 0.815951 0.9491017 0.96536964 0.7735061 0.8164855 0.9691695 0.9742638
0.8057131 0.8313594 0.96925247 0.97425836 0.81553215 0.8374654 0.9701934 0.9756167
0.81701493 0.83926797 0.9652062 0.97359973 0.81207937 0.83722097 0.96733624 0.97431064
0.8298257 0.84789705 0.9643973 0.97341144 0.8249982 0.8470368 0.96571755 0.9735817
0.82645637 0.84787 0.9651511 0.97383845 0.8261312 0.8499432 0.97111106 0.9883371
0.94209135 0.9586461 0.97227126 0.9885531 0.94133264 0.95824736 0.97092396 0.98825353
0.94087416 0.95816493 0.9702212 0.9881246 0.9409815 0.95828074 0.9474291 0.95854163
0.9168144 0.9291658 0.94840056 0.9582868 0.91797274 0.92861044 0.94797015 0.9582672
0.9164123 0.9282653 0.9516088 0.95908844 0.92188585 0.92955023 0.9348613 0.9509747
0.91320115 0.92438936 0.9382319 0.952308 0.917003 0.9264361 0.9311925 0.94714546
0.9107995 0.921733 0.92884564 0.9456603 0.9076177 0.9198055 0.8951823 0.93036926
0.86540425 0.90095174 0.8951823 0.92984265 0.86540425 0.9005379 0.8996603 0.9329829
0.8996603 0.9329829
00000000: cb4b 693f de69 713f 1c5d 683f 3bbb 703f
00000010: d676 603f 0809 693f 1c5d 683f e9dc 703f
00000020: d676 603f cd22 693f aeab 703f 7897 743f
00000030: 8b1a 6a3f ce60 6d3f fb2a 713f 2ce2 743f
00000040: a6a2 6a3f 12a3 6d3f a4a1 723f b1fa 753f
00000050: 07ef 6b3f 9daf 6e3f 0985 713f d077 753f
00000060: 9776 6a3f afdf 6d3f 935d 753f 1459 773f
00000070: 87f4 6c3f 0451 6f3f 4bb2 743f 262a 773f
00000080: 807d 6a3f 94ac 6e3f 51d0 743f 7f1e 773f
00000090: e5e5 6a3f 58ac 6e3f 4ec0 743f c640 773f
000000a0: b1c0 6a3f d6ea 6e3f 915e 783f 1881 7c3f
000000b0: 6c57 2f3f ba10 6b3f b37c 783f e488 7c3f
000000c0: 0049 2e3f 6e57 673f d68a 783f d686 7c3f
000000d0: 75e9 2d3f 6a31 673f 8d57 783f 9e86 7c3f
000000e0: f4fc 2d3f 08bd 6a3f 085e 763f 72ea 783f
000000f0: 018c 4f3f ad2e 583f 6bbd 763f d1f3 783f
00000100: bf6c 513f 9d32 583f 3c3e 763f a0d9 783f
00000110: cfb6 503f 17f4 573f f5ee 763f c518 793f
00000120: 7d7b 533f a992 583f 826a 763f c3eb 783f
00000130: 6b1d 4c3f 28ba 543f 02f8 773f 2698 793f
00000140: 1dd9 4d3f 1a73 553f 9612 783f 686f 793f
00000150: b32d 4d3f ebd3 543f 8e1b 783f ee75 793f
00000160: 3af6 4a3f 9e72 533f defb 723f 902f 773f
00000170: 0180 453f 10d4 503f defb 723f 3b1f 773f
00000180: 0180 453f c6b0 503f 2eb7 733f 29b6 773f
00000190: 3bfa 463f f599 513f 54f8 723f 0112 773f
000001a0: 7f04 463f 2ae2 503f 54f8 723f 7722 773f
000001b0: 7f04 463f 3205 513f 7e1b 783f 5a69 793f
000001c0: 3743 4e3f f8d3 543f ee20 783f ff68 793f
000001d0: b7c6 503f 2264 563f 985e 783f 04c2 793f
000001e0: e427 513f 44da 563f c117 773f d53d 793f
000001f0: 6fe4 4f3f 1d54 563f 59a3 773f 6c6c 793f
00000200: 756f 543f c80f 593f bee2 763f 7e31 793f
00000210: 1533 533f 67d7 583f 4439 773f a63c 793f
00000220: a592 533f 020e 593f 2414 773f 7a4d 793f
00000230: 567d 533f e195 593f bc9a 783f a903 7d3f
00000240: e62c 713f d569 753f c5e6 783f d111 7d3f
00000250: 2dfb 703f b34f 753f 798e 783f 2ffe 7c3f
00000260: 21dd 703f 4c4a 753f 6b60 783f bcf5 7c3f
00000270: 2ae4 703f e351 753f b78a 723f fc62 753f
00000280: 59b4 6a3f cfdd 6d3f 61ca 723f 4952 753f
00000290: 4300 6b3f 6ab9 6d3f 2cae 723f 0051 753f
000002a0: ff99 6a3f cba2 6d3f a29c 733f d286 753f
000002b0: b600 6c3f 01f7 6d3f 1253 6f3f 1473 733f
000002c0: 8dc7 693f c8a4 6c3f f72f 703f 75ca 733f
000002d0: b5c0 6a3f eb2a 6d3f a262 6e3f 2078 723f
000002e0: 282a 693f b2f6 6b3f d4c8 6d3f cb16 723f
000002f0: a259 683f 6078 6b3f ab2a 653f ae2c 6e3f
00000300: 228b 5d3f c6a4 663f ab2a 653f 2b0a 6e3f
00000310: 228b 5d3f a789 663f 2350 663f f8d7 6e3f
00000320: 2350 663f f8d7 6e3f

network_body.observation_encoder.processors.1.normalizer.running_mean f4 [10]
35.569386 13.074714 0.0 0.0 0.0 0.0 0.0 0.0
0.0 0.0
00000000: 0d47 0e42 0732 5141 0000 0000 0000 0000
00000010: 0000 0000 0000 0000 0000 0000 0000 0000
00000020: 0000 0000 0000 0000

network_body._body_endoder.seq_layers.0.weight f4 [256, 212]
0.067345195 0.17547558 -0.06273885 0.043404482 0.005123488 -0.07099738 -0.082389556 -0.031140614
-0.08205546 0.017820273 0.061096694 0.05048997 -0.059478138 -0.025980162 -0.12567239 0.08031624
0.013939951 -0.07497275 -0.040127464 -0.06607432 -0.016995374 -0.06207558 0.030712372 -0.032280706
0.029391062 -0.030827992 0.08970378 0.006843855 0.10672779 0.080680646 -0.036225524 -0.05049685
-0.0105959065 -0.08335388 0.048984196 0.049790334 0.0793644 -0.0029253298 0.068162955 0.06976144
-0.053101033 0.12548769 -0.006667761 -0.001282601 -0.017525282 -0.08084444 0.0150389355 -0.1298036
-0.16937326 -0.03511223 -0.015948314 0.0039274283 -0.009060099 -0.03936513 -0.059287775 -0.06250492
-0.118717454 -0.06449102 0.042264618 0.109490894 0.12858236 0.064632624 0.036296334 -0.0542862
-0.0034619784 0.00481089 0.10987254 0.026165571 0.052149277 -0.006050093 0.057881102 -0.06800109
-0.0569336 -0.0651593 0.022364026 -0.058475517 -0.08383864 -0.06974816 0.16939947 0.032684453
0.08387083 0.014112025 -0.0064874906 -0.021486862 -0.007922188 0.045364074 -0.024133183 0.10516624
0.045162633 0.06168602 -0.0003399083 0.041273933 0.08877738 0.1077034 -0.04410937 0.08423109
0.0039320034 0.047923904 -0.027958974 0.019813092 0.031097151 0.114518866 0.061597332 0.08096726
0.027288066 0.07502538 -0.13649522 -0.019861756 0.042623464 0.042363983 -0.21034908 -0.018039733
0.075005315 0.06796074 -0.022125125 0.0005779945 0.04390295 0.06858711 -0.02344477 0.030902704
0.007690014 0.10130707 0.036313295 0.029177723 0.035944242 -0.026373493 0.03933116 -0.033392157
0.052180994 0.010392059 -0.11592054 -0.03312174 -0.047688115 0.07830504 0.043186374 -0.024494799
0.012614672 -0.081100136 -0.176257 -0.009355117 -0.021656852 0.05042406 0.02285717 0.0144474115
0.13547128 -0.10631357 -0.04076081 -0.072326675 0.06014464 -0.04166968 -0.0037258598 -0.09156158
-0.010471498 0.026070748 -0.022512171 0.10284929 -0.05988047 -0.026765108 0.044995565 0.07096352
-0.029258272 -0.095382646 0.013516931 0.06329893 0.038306177 0.11966612 0.09494989 -0.014989923
-0.14580174 0.07570516 -0.018693933 0.058418997 -0.09013775 -0.043837566 -0.08565845 -0.13464232
0.01751494 0.03715245 0.1066566 -0.054626416 0.059440542 -0.0631641 -0.04706489 -0.08578129
0.05816693 0.107999995 -0.14755788 -0.05991661 0.14790873 -0.07516474 -0.065296195 0.026230408
0.038227938 0.118461415 -0.13573413 0.076708905 0.067406684 0.14713515 0.10618319 0.014848146
-0.00889311 0.011056336 0.038171872 0.061368894 0.04266872 -0.026216144 0.1423305 -0.062414754
0.038198974 0.010807963 0.0013738091 -0.09189948 -0.038653154 0.07561496 -0.08425886 0.022351515
-0.026561879 -0.008106219 0.050282143 0.14713429 0.10108416 -0.02354438 -0.013386467 0.067534976
-0.027130885 0.14914587 0.032820404 0.059219435 0.033603918 -0.04351854 0.066742025 0.039442126
0.03526474 -0.09140758 0.020087143 0.02163791 0.092312194 0.06296091 0.043424707 0.025831431
0.035257373 0.00450895 0.09349537 0.029751081 0.0061400044 -0.1936255 0.13931768 0.029502075
-0.049072195 0.00053845276 0.100908905 -0.02470984 -0.03924615 -0.025344396 0.10558045 -0.062720664
00000000: 47ec 893d dfaf 333e 3a7d 80bd e6c8 313d
00000010: efe2 a73b 1367 91bd dbbb a8bd 9a1a ffbc
00000020: b10c a8bd d2fb 913c 8740 7a3d 92ce 4e3d
00000030: 599f 73bd 59d4 d4bc 43b0 00be d77c a43d
00000040: 6464 643c 508b 99bd b25c 24bd f951 87bd
00000050: e239 8bbc f742 7ebd 8398 fb3c c638 04bd
00000060: 86c5 f03c fc8a fcbc 9eb6 b73d 6b42 e03b
00000070: 1994 da3d e53b a53d 3761 14bd c9d5 4ebd
00000080: 749a 2dbc 70b5 aabd a7a3 483d f3f0 4b3d
00000090: cd89 a23d e4b6 3fbb 0599 8b3d 16df 8e3d
000000a0: 7880 59bd d87f 003e 3c7d dabb f31c a8ba
000000b0: 2e91 8fbc c591 a5bd de65 763c 3ceb 04be
000000c0: 2f70 2dbe d7d1 0fbd 0aa6 82bc a8b1 803b
000000d0: cf70 14bc 553d 21bd bdd7 72bd 9402 80bd
000000e0: 2322 f3bd de13 84bd aa1d 2d3d c33c e03d
000000f0: 18ab 033e 1c5e 843d 77ab 143d 355b 5ebd
00000100: 5ce2 62bb aca4 9d3b db04 e13d 2e59 d63c
00000110: 7b9a 553d dc3f c6bb bc14 6d3d 2844 8bbd
00000120: 3533 69bd 3d72 85bd c334 b73c 0684 6fbd
00000130: 98b3 abbd 20d8 8ebd 0e77 2d3e 22e0 053d
00000140: 78c4 ab3d 1f36 673c 0495 d4bb 3705 b0bc
00000150: 11cc 01bc aecf 393d f4b2 c5bc 6661 d73d
00000160: 74fc 383d 7baa 7c3d b835 b2b9 db0e 293d
00000170: ead0 b53d 9a93 dc3d 07ac 34bd 5a81 ac3d
00000180: 09d8 803b db4b 443d 380a e5bc 114f a23c
00000190: 74bf fe3c de88 ea3d 7c4d 7c3d 2ad2 a53d
000001a0: 398b df3c e8a6 993d 67c5 0bbe 1fb5 a2bc
000001b0: f195 2e3d db85 2d3d c065 57be 10c8 93bc
000001c0: 639c 993d 002f 8b3d c03f b5bc 8e84 173a
000001d0: 94d3 333d 6677 8c3d 3f0f c0bc ab27 fd3c
000001e0: 83fc fb3b 157a cf3d 40bd 143d 1f06 ef3c
000001f0: 453a 133d 390d d8bc b619 213d 37c6 08bd
00000200: bdbb 553d 7443 2a3c c067 edbd a9aa 07bd
00000210: 9d54 43bd 655e a03d 32e4 303d 51a9 c8bc
00000220: c5ad 4e3c d417 a6bd b77c 34be 3446 19bc
00000230: b669 b1bc 7689 4e3d f63e bb3c d6b4 6c3c
00000240: fcb8 0a3e eeba d9bd cff4 26bd 0220 94bd
00000250: 3a5a 763d d4ad 2abd 8e2d 74bb a384 bbbd
00000260: a590 2bbc 5292 d53c 726b b8bc a6a2 d23d
00000270: 3945 75bd 8042 dbbc 454d 383d 5255 913d
00000280: 0baf efbc fa57 c3bd 1e76 5d3c dfa2 813d
00000290: f0e6 1c3d 8313 f53d 1775 c23d 4b98 75bc
000002a0: 0d4d 15be 4f0b 9b3d 0524 99bc c248 6f3d
000002b0: 249a b8bd 058f 33bd b36d afbd addf 09be
000002c0: 7e7b 8f3c 2b2d 183d c76e da3d f3bf 5fbd
000002d0: ed77 733d 2e5c 81bd 1dc7 40bd 1aae afbd
000002e0: 7240 6e3d 1a2f dd3d 6a19 17be 1f6b 75bd
000002f0: 6375 173e f9ef 99bd 03ba 85bd 27e1 d63c
00000300: e694 1c3d e69b f23d e3fd 0abe 8f19 9d3d
00000310: 840c 8a3d 99aa 163e 9376 d93d a345 733c
00000320: 68b4 11bc a225 353c 1c5a 1c3d f35d 7b3d
00000330: 65c5 2e3d 3dc3 d6bc 16bf 113e 9da6 7fbd
00000340: 8776 1c3d e213 313c 6211 b43a cb35 bcbd
00000350: c552 1ebd 04dc 9a3d e98f acbd 861a b73c
00000360: 4c98 d9bc f2cf 04bc a6f4 4d3d 5faa 163e
00000370: 3605 cf3d 25e0 c0bc e952 5bbc c74f 8a3d
00000380: 9741 debc b2b9 183e b06e 063d 1490 723d
00000390: 43a4 093d 7f40 32bd 0bb0 883d 118e 213d
000003a0: c371 103d e633 bbbd cb8d a43c fc41 b13c
000003b0: 2d0e bd3d a6f1 803d 1bde 313d 709c d33c
000003c0: 096a 103d d0bf 933b 807a bf3d 8ab8 f33c
000003d0: 1732 c93b c345 46be 4ba9 0e3e 56ae f13c
000003e0: edff 48bd f426 0d3a 54a9 ce3d 4a6c cabc
000003f0: 92c0 20bd 0d9f cfbc 903a d83d b173 80bd

network_body._body_endoder.seq_layers.0.bias f4 [256]
0.012337644 0.029935995 0.016374927 -0.0073927254 -0.0033076885 -0.011350055 -0.01173321 0.031336267
0.0071265814 0.017817022 0.0177704 -0.009406173 0.014377895 0.023479018 0.031620204 0.00420785
0.016732417 0.008311439 0.04095616 0.0011674837 0.02007711 0.012271092 0.046688028 0.036223486
-0.03153428 0.017006274 0.019459225 -0.014252691 0.012774052 -0.004816901 -0.013721598 0.0368645
0.010924873 0.00056172744 0.03927565 0.031598736 0.009319483 -0.025293251 -0.020469904 0.024533961
0.021500316 0.045441736 0.0031234624 0.022321604 0.03776781 -0.013794543 -0.013374478 0.009699633
0.04574851 0.028654898 0.02085875 0.00664795 -0.01552013 0.010846326 0.05042723 0.0023871367
0.00036946608 0.013266543 -0.021509638 0.008312552 0.0037534838 0.0055042566 0.04951443 -0.013242185
0.0059121447 0.046227094 -0.03522295 0.038408633 0.024766345 -0.023647787 0.0141897 0.008781474
0.012320531 -0.008405905 0.016450265 0.03446501 0.024533952 -6.113665e-05 -0.00057294965 0.03652828
0.016771158 -0.0072759404 0.0154045755 0.044885896 -0.033725224 -0.002759985 -0.0014237777 -0.02289502
0.044438656 0.010334062 0.035001297 0.016224865 0.05715838 0.014431904 0.030409865 -0.0042813234
0.018776799 -0.018315399 -0.039014224 -0.007684959 0.018275866 -0.008655651 0.048638508 0.02781543
-0.0005099123 0.027155768 -0.0017551103 0.020013046 0.02941081 0.0041013528 0.04538335 0.0027598375
0.007906693 0.011131042 0.028617784 0.022259938 0.01094385 -0.0111246295 -0.0035130857 0.034825813
0.015907887 0.042053033 0.020727891 -0.017829223 0.027007338 -0.0059050517 0.025091112 0.004216631
-0.008875975 0.009339314 0.0009935673 -0.007977871 0.026863841 0.00789664 0.012371221 0.042825468
-0.031135729 0.011662743 0.034647483 0.021198038 -0.027456807 0.02776517 -0.0053199646 0.024946759
0.025066603 0.022778617 -0.012790568 0.008031069 0.042984936 -0.022304578 0.022094952 -0.006204369
-0.016287437 0.014399657 0.03270351 0.014140608 0.019039012 -0.003394519 0.0038175227 -0.00081959646
-0.012348793 -0.001573594 0.0087502105 0.048516206 0.012976 -0.0106282495 0.030156134 0.011780967
-0.023214906 -0.004220907 0.019196514 0.01664223 -0.005893579 0.02442207 -0.0032109008 0.014222894
-0.0153108565 0.039747197 0.049046554 0.011899309 0.037115358 0.03202218 -0.009805718 -0.004741305
-0.013184511 0.011988593 -0.029020265 -0.018433359 -0.011256062 0.012154824 0.013946228 0.025745777
0.028928002 0.006342786 -0.011663655 0.028769363 0.0121742645 -0.009461556 -0.016987352 -0.0037874242
0.006953346 -0.02865298 0.027428014 -0.018061852 0.01370312 -0.013819189 0.0053489 0.020591402
0.018549979 0.018417424 0.018375797 0.0156761 0.05511244 0.018124575 0.0029573925 -0.005353609
0.015592157 0.0010497943 0.015545904 0.029259326 0.04310959 0.04067192 0.024510067 -0.01012103
0.04656479 0.013661595 -0.01125909 0.025271365 -0.008223234 0.019925311 0.0020130882 0.022147309
0.0031960062 -0.015920784 -0.025237268 0.007966882 0.023829939 0.011938919 0.046275537 0.017848713
0.012992117 0.03068118 -0.004862678 0.018345859 0.040564034 0.024866384 0.031172484 0.015470598
0.015813705 -0.032534093 0.016867714 0.020485096 0.00055539416 0.0031301668 0.018301751 0.047460485
00000000: d423 4a3c 553c f53c b624 863c ad3e f2bb
00000010: cec5 58bb 95f5 39bc a63c 40bc 755a 003d
00000020: 1986 e93b 01f5 913c 3b93 913c 591c 1abc
00000030: 4391 6b3c 1257 c03c 3084 013d 01e2 893b
00000040: 6c12 893c b42c 083c a5c1 273d 4106 993a
00000050: c078 a43c b10c 493c f23b 3f3d 145f 143d
00000060: 172a 01bd be50 8b3c f468 9f3c 1e84 69bc
00000070: 424a 513c 18d7 9dbb 8ed0 60bc 3bff 163d
00000080: 3dfe 323c e440 133a 81df 203d ad6d 013d
00000090: bfb0 183c cb33 cfbc 80b0 a7bc 72fb c83c
000000a0: 6e21 b03c 1d21 3a3d 01b3 4c3b ccdb b63c
000000b0: 6bb2 1a3d 8202 62bc a020 5bbc 36eb 1e3c
000000c0: ca62 3b3d adbd ea3c f8df aa3c 0cd7 d93b
000000d0: 2548 7ebc cab4 313c c88c 4e3d 8271 1c3b
000000e0: e6b4 c139 ea5b 593c fb34 b0bc 5f31 083c
000000f0: 02fd 753b 0d5d b43b a5cf 4a3d c0f5 58bc
00000100: aaba c13b 9f58 3d3d f145 10bd 5f52 1d3d
00000110: cae2 ca3c 01b9 c1bc ea7b 683c 2ce0 0f3c
00000120: 0ddc 493c ecb8 09bc b5c2 863c 2f2b 0d3d
00000130: 6dfb c83c 7d36 80b8 0032 16ba ad9e 153d
00000140: ab63 893c 036b eebb 7963 7c3c 46da 373d
00000150: 7623 0abd dde0 34bb 0d9e baba 568e bbbc
00000160: 4f05 363d 3350 293c 855d 0f3d 02ea 843c
00000170: e81e 6a3d cb73 6c3c 1c1e f93c 584a 8cbb
00000180: cdd1 993c 2d0a 96bc 61cd 1fbd 1cd2 fbbb
00000190: 45b7 953c 6ed0 0dbc 2c39 473d 2fdd e33c
000001a0: a3ab 05ba c675 de3c bb0b e6ba 66f2 a33c
000001b0: f0ee f03c a464 863b e4e3 393d 64de 343b
000001c0: 138b 013c f95e 363c d86f ea3c 795a b63c
000001d0: d54d 333c 1444 36bc cc3b 66bb 83a5 0e3d
000001e0: 4251 823c cd3f 2c3d 8acd a93c 970e 92bc
000001f0: 7e3e dd3c 2a7f c1bb e08b cd3c aa2b 8a3b
00000200: 8a6c 11bc ec03 193c 963a 823a 9eb5 02bc
00000210: 8f11 dc3c e960 013c a9b0 4a3c c269 2f3d
00000220: 5b10 ffbc 1715 3f3c 85ea 0d3d 82a7 ad3c
00000230: 19ed e0bc c873 e33c 1953 aebb 255d cc3c
00000240: 7a58 cd3c 399a ba3c 888f 51bc bf94 033c
00000250: f910 303d 17b8 b6bc 7900 b53c 054e cbbb
00000260: 3b6d 85bc 8aec 6b3c 1ef4 053d 02ae 673c
00000270: b4f7 9b3c 9476 5ebb 672f 7a3b 30da 56ba
00000280: 9852 4abc 0e41 ceba 0b5d 0f3c eeb8 463d
00000290: 4a99 543c 1c22 2ebc ff09 f73c f504 413c
000002a0: 302d bebc 894f 8abb 0242 9d3c 4955 883c
000002b0: ed1e c1bb cb10 c83c fa6d 52bb 2407 693c
000002c0: 63da 7abc f5cd 223d 0ae5 483d 52f5 423c
000002d0: 4606 183d b029 033d 2aa8 20bc f35c 9bbb
000002e0: d903 58bc ce6b 443c e8bb edbc 8e01 97bc
000002f0: 596b 38bc 0725 473c b87e 643c cfe8 d23c
00000300: 6bfa ec3c 25d7 cf3b ea18 3fbc baad eb3c
00000310: 9176 473c a404 1bbc 0f29 8bbc 6f36 78bb
00000320: e5d8 e33b a8b9 eabc b7b0 e03c 73f6 93bc
00000330: 0d83 603c e169 62bc d345 af3b 4daf a83c
00000340: 20f6 973c 23e0 963c d788 963c 2a6b 803c
00000350: 95bd 613d fd79 943c d0d0 413b 546d afbb
00000360: 3f76 7f3c 4099 893a 3fb4 7e3c 41b1 ef3c
00000370: ae93 303d 9997 263d 56c9 c83c add2 25bc
00000380: b9ba 3e3d e2d4 5f3c 0c78 38bc e505 cf3c
00000390: beba 06bc 683a a33c 04ee 033b 466e b53c
000003a0: 1674 513b 4e6c 82bc 63be cebc 8687 023c
000003b0: 0137 c33c 759b 433c 6b8b 3d3d 7737 923c
000003c0: e3dc 543c 1957 fb3c 1957 9fbb 0e4a 963c
000003d0: 7926 263d 96b4 cb3c 705d ff3c 6478 7d3c
000003e0: be8b 813c 7842 05bd 292e 8a3c 5cd0 a73c
000003f0: df97 113a 7c23 4d3b 8eed 953c ed65 423d

network_body._body_endoder.seq_layers.2.weight f4 [256, 256]
0.078808285 -0.052340873 -0.062350195 0.012812283 0.06723295 0.014569251 -0.12666535 -0.0089764185
-0.017006285 0.04100384 -0.046466034 0.08000639 0.058969777 -0.07323472 -0.04857089 0.062459834
-0.039018735 -0.0020722246 0.07153262 0.027222842 -0.008040132 -0.22795151 0.08883917 -0.018893452
0.022681754 0.006348117 -0.02696125 0.023875173 -0.032424226 -0.0007321174 -0.05317651 -0.00051474513
0.11540319 0.0848589 -0.033081528 0.10069826 -0.015753292 0.008813286 0.043204688 0.07996206
-0.12024444 0.04187333 -0.1296748 0.10929795 0.023940463 0.016104702 0.012088279 0.015118021
0.080923565 0.013843507 -0.08146783 -0.023709947 -0.008836486 -0.16033833 -0.022347681 0.031219432
0.01964851 -0.11389381 0.15547399 0.030570539 -0.009332574 0.099379845 0.0373591 0.027556773
0.032142762 -0.044486955 -0.10255878 -0.057032652 0.01737616 0.033723466 0.052758455 0.0030399964
-0.10735198 -0.067147814 -0.07098166 -0.0046779946 -0.031526595 -0.00043405595 -0.03546965 0.015418463
-0.09326398 0.037237704 0.10813814 -0.072244555 0.022970479 -0.11543052 0.056419637 -0.025940193
-0.021606686 -0.095982194 0.009308439 0.044599492 0.056867447 -0.041201144 -0.078066714 -0.007571427
-0.07800894 0.0164958 0.021909917 0.061614722 -0.0986779 0.07654375 -0.014934553 0.045754828
0.010453069 -0.026534008 -0.03225731 0.053765282 0.092621796 -0.03350259 -0.008222626 0.06232609
-0.086407974 0.034571823 0.014895673 -0.06595252 -0.0032728275 -0.007796312 0.07713853 0.05028749
-0.020625036 0.033419155 0.054261625 0.04833131 0.103277475 0.13980615 -0.08012936 0.108347006
0.03632604 0.023543458 -0.0038235688 -0.03601024 0.05437636 -0.006481362 -0.0135226 -0.0011553861
-0.04724848 -0.022573628 0.022059606 -0.14196612 -0.061772812 -0.0051233494 0.03563119 0.02879598
0.014027752 0.03985246 -0.121513024 0.073316045 -0.039623484 0.015768118 -0.020338114 -0.038810316
0.041425712 0.05259892 0.05950649 0.099898 0.05242221 0.08554546 -0.13825479 -0.03954092
0.09878327 -0.13291758 0.024065692 -0.010128046 0.10145717 -0.096870035 -0.08147467 0.0033875788
0.043646477 -0.02244887 0.02602811 -0.053557914 0.069513984 -0.030584661 -0.098495185 0.0106321955
0.010388367 -0.13074996 0.12889689 0.17118652 -0.035001945 -0.005413655 0.056508448 0.02822122
0.049425673 0.08273328 0.0024297696 0.059371687 -0.10337382 0.012602696 0.06140723 -0.06800489
0.13824204 -0.07567879 -0.06531489 -0.06807767 -0.07915979 0.07092678 -0.0050837435 0.0024957752
0.010100969 -0.03628974 -0.048921354 0.08559695 -0.12287578 0.112564996 0.03017896 -0.069896646
-0.1431829 0.0022105842 0.046093438 -0.0179167 0.05471991 -0.038381357 0.050982304 -0.023412244
-0.095488675 -0.00863172 0.031432334 -0.04892101 -0.02241976 -0.047081135 0.106580146 0.031989638
-0.021472326 0.028790776 0.027933706 0.118575506 0.06356861 -0.016180968 -0.0063007707 0.123113126
-0.00030895357 0.06144442 0.10242843 0.05710985 -0.05393793 -0.02469918 0.039722037 0.037498157
0.08809151 -0.009097412 0.0289776 0.078078136 0.04688368 0.03088523 0.03476748 0.1360553
0.00041594426 0.038127605 0.07423221 0.01668726 0.04234543 -0.068392955 0.061838616 -0.049498487
00000000: 3d66 a13d 6263 56bd eb62 7fbd 9cea 513c
00000010: 6eb1 893d deb3 6e3c 90b4 01be d411 13bc
00000020: c450 8bbc a4f3 273d 2b53 3ebd 64da a33d
00000030: 4b8a 713d 16fc 95bd 45f2 46bd e2d5 7f3d
00000040: 1cd2 1fbd 29ce 07bb b27f 923d 7002 df3c
00000050: c2ba 03bc 1f6c 69be 50f1 b53d 71c6 9abc
00000060: 16cf b93c dd03 d03b d7dd dcbc de95 c33c
00000070: 44cf 04bd 91eb 3fba 9dcf 59bd f6ef 06ba
00000080: 8258 ec3d 81ca ad3d 7f80 07bd e43a ce3d
00000090: 0c0d 81bc 9a65 103c 66f7 303d 26c3 a33d
000000a0: b842 f6bd 5e83 2b3d 79c9 04be 9bd7 df3d
000000b0: ca1e c43c 02ee 833c eb0d 463c 93b1 773c
000000c0: 41bb a53d e0cf 623c 9bd8 a6bd 5d3b c2bc
000000d0: e9c6 10bc bb2f 24be 7c12 b7bc e5bf ff3c
000000e0: e9f5 a03c 2841 e9bd 9334 1f3e 116f fa3c
000000f0: a7e7 18bc a987 cb3d db05 193d bebe e13c
00000100: 21a8 033d f437 36bd 560a d2bd 129b 69bd
00000110: 7358 8e3c 9e21 0a3d 4019 583d ad3a 473b
00000120: 5bdb dbbd cb84 89bd d55e 91bd dd49 99bb
00000130: 0822 01bd 0192 e3b9 a048 11bd b99d 7c3c
00000140: 2f01 bfbd 9086 183d 8777 dd3d f4f4 93bd
00000150: 962c bc3c d666 ecbd 4718 673d 8780 d4bc
00000160: 8100 b1bc 5092 c4bd 6c82 183c f5ad 363d
00000170: d7ed 683d 88c2 28bd 71e1 9fbd bc19 f8bb
00000180: 27c3 9fbd 3322 873c 6d7c b33c b85f 7c3d
00000190: a417 cabd f8c2 9c3d 0eb0 74bc 6a69 3b3d
000001a0: 5943 2b3c d95d d9bc 3e20 04bd fc38 5c3d
000001b0: 7fb0 bd3d 033a 09bd 31b8 06bc a449 7f3d
000001c0: aaf6 b0bd 2f9b 0d3d fb0c 743c 1d12 87bd
000001d0: ef7c 56bb 3578 ffbb cefa 9d3d 41fa 4d3d
000001e0: d6f5 a8bc 86e2 083d 7041 5e3d 0df7 453d
000001f0: 2483 d33d 5829 0f3e dd1a a4bd 09e5 dd3d
00000200: 9dca 143d 36de c03c d794 7abb 797f 13bd
00000210: bfb9 5e3d 9b61 d4bb e58d 5dbc 5370 97ba
00000220: 9f87 41bd 54ec b8bc 59b6 b43c 915f 11be
00000230: 7d05 7dbd c5e1 a7bb 03f2 113d 8ce5 eb3c
00000240: a8d4 653c 553c 233d d2db f8bd b926 963d
00000250: 3c4c 22bd 242c 813c 1e9c a6bc 91f7 1ebd
00000260: 02ae 293d f771 573d 14bd 733d 5397 cc3d
00000270: acb8 563d 7532 af3d aa92 0dbe a9f5 21bd
00000280: e24e ca3d 8c1b 08be 6a25 c53c 1bf0 25bc
00000290: c7c8 cf3d cc63 c6bd 31dc a6bd 2402 5e3b
000002a0: a6c6 323d b1e6 b7bc e738 d53c 8b5f 5bbd
000002b0: 595d 8e3d af8c fabc d8b7 c9bd a932 2e3c
000002c0: f833 2a3c 51e3 05be 8cfd 033e 854b 2f3e
000002d0: 335e 0fbd 0865 b1bb 6775 673d 3030 e73c
000002e0: 9372 4a3d 1170 a93d c53c 1f3b ba2f 733d
000002f0: a7b5 d3bd 8a7b 4e3c 2686 7b3d 2646 8bbd
00000300: 528f 0d3e 7bfd 9abd d0c3 85bd 4e6c 8bbd
00000310: 871e a2bd 0f42 913d 8895 a6bb 2990 233b
00000320: 897e 253c 8da4 14bd c261 48bd 744d af3d
00000330: 4ca6 fbbd 7a88 e63d de39 f73c f925 8fbd
00000340: 8a9e 12be 73df 103b 79cc 3c3d 0bc6 92bc
00000350: fc21 603d c535 1dbd d2d2 503d 09cb bfbc
00000360: 918f c3bd 0f6c 0dbc 31bf 003d 6661 48bd
00000370: a5a9 b7bc 26d8 40bd b146 da3d 9107 033d
00000380: bbe6 afbc a2da eb3c 3ad5 e43c b7d7 f23d
00000390: 4230 823d f38d 84bc b276 cebb bc22 fc3d
000003a0: 0cfb a1b9 25ad 7b3d ffc5 d13d 05ec 693d
000003b0: 05ee 5cbd ef55 cabc 93b3 223d ab97 193d
000003c0: 5269 b43d 500d 15bc 6f62 ed3c 6ee7 9f3d
000003d0: 1a09 403d 0603 fd3c 5868 0e3d 1552 0b3e
000003e0: 1813 da39 b12b 1c3d 0f07 983d b8b3 883c
000003f0: 6772 2d3d 9b11 8cbd 7d4a 7d3d edbe 4abd

network_body._body_endoder.seq_layers.2.bias f4 [256]
-0.006121475 0.0019470205 0.032608543 0.016256101 0.0120491395 0.02014957 0.025321277 0.0026899814
0.017303493 0.021880222 0.005482388 0.029933093 0.015277208 0.017759793 0.022141825 0.03271858
0.019639704 -0.005001434 0.011365578 0.002574304 0.027311156 0.0045570354 0.03035831 0.037419762
-0.0010170266 0.02693652 -0.00842003 0.027074045 0.013577414 0.024737881 0.006993163 0.005226016
0.005054958 0.018213494 -0.007620107 -0.006621465 0.040825695 0.022579389 0.025693526 0.0030546174
0.025060717 0.024536518 -0.0116166985 0.027353205 0.009864527 0.027030237 0.027265768 -0.0013026273
-0.008812405 0.018317392 0.009296871 0.00015049387 0.02047838 0.0021644356 0.003579819 0.019826125
0.03527564 0.004299312 -0.011969312 0.024804935 0.009508578 0.031583555 0.020405015 0.03402712
0.025191056 0.033387955 -0.008613777 -0.0003284351 0.03253328 0.009314371 0.021118438 0.009747861
0.0010605908 0.014017505 0.023261867 0.021344244 0.004689237 0.02195977 0.023054292 0.022908665
0.02890812 0.01142521 0.024351267 0.034905963 0.022827314 0.0088813435 -0.016983502 0.016011223
0.018885141 0.034796502 -0.0052148784 0.00926163 0.024477549 0.010946576 0.027563805 0.017411416
0.019296417 0.017044391 0.033151254 0.020062653 0.025813228 0.0075111114 0.018331334 0.016289655
0.017787308 0.02809846 0.015096445 0.009231492 0.029073248 0.01357385 0.0134706395 0.013873182
0.005781311 -0.00010672129 0.024175929 0.036097605 -0.00785873 0.0063846847 -0.0013747413 0.030951455
-0.0044476907 0.015404459 0.014978323 0.014673881 0.007564041 0.029005384 0.022746304 0.011762331
-0.0015916001 0.025828201 -0.005518423 0.027228411 0.02098915 0.008125154 0.023391554 -0.005118345
-0.007552561 0.0062937313 0.031513724 -0.007011991 0.03279537 0.0046511134 -0.0067960755 0.008211388
-0.00039982845 -0.0136780385 0.025755107 -0.010361806 0.0053739115 0.036325645 0.007270519 0.0050653736
0.038248107 -0.009752367 0.032947846 0.026237037 -0.0021396084 0.0084494585 0.024084961 0.0064988825
0.028454611 0.016342172 0.046807714 -0.008906037 0.010363678 0.026825136 0.025964612 0.020052293
0.03848978 0.037070286 0.013301672 0.03039258 0.00083244534 0.016683435 0.029970523 -0.004406699
0.0008110295 -0.0026665146 0.012683392 -0.0010806897 0.016349183 0.021268388 0.015977133 0.0070811575
0.02269071 0.011040387 0.016121302 0.023488287 0.04572751 0.019796351 0.036968283 0.028195666
0.024793666 0.02750152 0.015847005 0.00019219017 0.019643975 0.0072187115 -0.010754739 0.012500664
0.014608803 0.02621702 0.00711654 0.022592291 -0.00027229462 0.0068223476 0.019454602 0.0023811618
0.022942536 -0.006651214 0.012907128 -0.021595981 0.012496807 0.016336054 -0.0037794902 0.025143983
0.02319075 0.02230108 0.031346984 0.009160042 -0.0085069295 0.011750701 0.019852193 0.017646717
0.0264132 -0.0001425488 0.01978361 0.018393181 0.017152369 0.023094514 0.01096574 0.02330451
0.032585744 -0.012536754 0.032076962 0.02231423 -0.0062986915 0.015489984 0.022486914 0.03308368
0.01651773 0.029826669 -0.003335254 0.023268593 0.014798799 0.025505655 -0.0037530074 -0.008049458
-0.0052125687 0.02762264 0.0075074565 0.011406207 0.0066762585 -0.0013660496 0.0065127364 0.013336839
00000000: a796 c8bb 2b33 ff3a 8990 053d 842b 853c
00000010: c169 453c b610 a53c 916e cf3c 664a 303b
00000020: 0ec0 8d3c 273e b33c 9ba5 b33b 3f36 f53c
00000030: 414d 7a3c fc7c 913c c662 b53c eb03 063d
00000040: 72e3 a03c 12e3 a3bb b036 3a3c a7b5 283b
00000050: a5bb df3c 2f53 953b feb1 f83c 7745 193d
00000060: c04d 85ba faa9 dc3c 2af4 09bc 63ca dd3c
00000070: cd73 5e3c 19a7 ca3c e726 e53b 003f ab3b
00000080: 10a4 a53b 7734 953c 17b2 f9bb e0f8 d8bb
00000090: d838 273d 69f8 b83c 3b7b d23c fa2f 483b
000000a0: 224c cd3c cf00 c93c f753 3ebc d413 e03c
000000b0: d39e 213c 846e dd3c 765c df3c ebbc aaba
000000c0: e861 10bc 5b0e 963c e751 183c e4cd 1d39
000000d0: 47c2 a73c 34d9 0d3b 669b 6a3b 666a a23c
000000e0: 317d 103d 3ee1 8c3b ef1a 44bc b833 cb3c
000000f0: dec9 1b3c c25d 013d 6b28 a73c 0560 0b3d
00000100: 795d ce3c cfc1 083d cd20 0dbc d031 acb9
00000110: 9e41 053d 4e9b 183c 9300 ad3c 7eb5 1f3c
00000120: 8603 8b3a ada9 653c ac8f be3c 20da ae3c
00000130: 2ca8 993b fae4 b33c 5bdc bc3c f4aa bb3c
00000140: b9d0 ec3c ce30 3b3c 4f7c c73c 8ef9 0e3d
00000150: 5900 bb3c 0e83 113c fc20 8bbc f829 833c
00000160: 03b5 9a3c c786 0e3d 92e1 aabb 17be 173c
00000170: 2485 c83c 4459 333c 7dcd e13c 63a2 8e3c
00000180: 8513 9e3c aea0 8b3c 9cc9 073d 6f5a a43c
00000190: 4376 d33c c51f f63b 982b 963c e271 853c
000001a0: b0b6 913c be2e e63c 1457 773c af3f 173c
000001b0: 052b ee3c da64 5e3c f5b3 5c3c 584c 633c
000001c0: 2771 bd3b 8ecf dfb8 990c c63c 15db 133d
000001d0: e7c1 00bc 9e36 d13b aa30 b4ba e88d fd3c
000001e0: efbd 91bb fc62 7c3c a467 753c b86a 703c
000001f0: c6db f73b b39c ed3c 7556 ba3c cbb6 403c
00000200: 3d9d d0ba aa95 d33c e3d3 b4bb 1e0e df3c
00000210: 70f1 ab3c 5e1f 053c a59f bf3c cab7 a7bb
00000220: 797b f7bb a53b ce3b 8914 013d d8c4 e5bb
00000230: 7054 063d 5e68 983b 9db1 debb 0f89 063c
00000240: 11a0 d1b9 da19 60bc 60fc d23c 90c4 29bc
00000250: a317 b03b 33ca 143d 893d ee3b 6ffb a53b
00000260: 0caa 1c3d 64c8 1fbc 52f4 063d 0eef d63c
00000270: ac38 0cbb 996f 0a3c d34d c53c 94f4 d43b
00000280: a519 e93c 05e0 853c 72b9 3f3d a0ea 11bc
00000290: 6bcc 293c 63c0 db3c bdb3 d43c b544 a43c
000002a0: 76a7 1d3d 03d7 173d 42ef 593c dcf9 f83c
000002b0: 7638 5a3a b3ab 883c be84 f53c 1266 90bb
000002c0: 459b 543a b1c0 2ebb 00ce 4f3c eea5 8dba
000002d0: b9ee 853c 0b3b ae3c 7ae2 823c 0e09 e83b
000002e0: dee1 b93c bde2 343c d210 843c 826a c03c
000002f0: c54c 3b3d f52b a23c 0e6c 173d 99fa e63c
00000300: 161c cb3c de4a e13c 94d1 813c a886 4939
00000310: 67ec a03c f18a ec3b a534 30bc 96cf 4c3c
00000320: c359 6f3c 13c5 d63c dd31 e93b 7813 b93c
00000330: c4c2 8eb9 008e df3b 425f 9f3c 440d 1c3b
00000340: fcf1 bb3c 6df2 d9bb 6b78 533c 0eea b0bc
00000350: 68bf 4c3c 30d3 853c 53b1 77bb c1fa cd3c
00000360: 87fa bd3c c1b0 b63c b265 003d 0014 163c
00000370: a660 0bbc 0386 403c 11a1 a23c d98f 903c
00000380: 7f60 d83c 2779 15b9 3d11 a23c 4cad 963c
00000390: 2083 8c3c b530 bd3c a6a9 333c 1ae9 be3c
000003a0: a178 053d f566 4dbc 2263 033d 55cc b63c
000003b0: 4165 cebb b4c9 7d3c 7a36 b83c c182 073d
000003c0: 3150 873c 0f57 f43c 4794 5abb c79d be3c
000003d0: a976 723c 3cf1 d03c 04f5 75bb e0e1 03bc
000003e0: 32ce aabb e048 e23c 1c01 f63b 1ae1 3a3c
000003f0: 84c4 da3b 050d b3ba cb68 d53b c282 5a3c

action_model._discrete_distribution.branches.0.weight f4 [4, 256]
-0.01585602 -0.00040480483 0.026998166 -0.02097665 0.004398369 -0.00016662548 0.021550987 -0.01440083
-0.010995485 0.036573812 -0.03905676 0.006700573 0.004549115 -0.02855332 -0.04064643 -0.055609073
0.002969497 0.0042104446 -0.0146395 -0.009869465 -0.035903104 -0.025943806 -0.030780032 0.033652984
0.018934686 -0.028231047 0.018435962 -0.027767388 0.007491699 -0.03173417 -0.013022805 -0.016845671
-0.029537749 0.016904298 -0.014634544 -0.008595484 0.041175533 -0.032704737 0.0036225356 -0.01893414
-0.011180564 0.046667937 -0.0013862372 -0.027825017 -0.004210503 -0.013482242 -0.018223235 -0.012818938
-0.007892533 0.022662593 -0.028188478 -0.0057776202 0.007957578 -0.015682997 -0.034458596 -0.04295462
0.028843477 -0.018876355 0.0012101408 -0.038065318 -0.0025491375 0.016745577 -0.035836834 0.015902672
-0.035211317 0.0061253067 0.011861057 -0.0018371872 -4.0516392e-05 -0.022502648 0.00060841336 -0.016906852
-0.021276515 0.016961774 0.017704185 -0.003997876 -0.0004695111 0.009239271 0.01618821 -0.010575559
-0.011874035 0.046561047 0.026421305 -0.014857968 -0.05699781 -0.020020438 0.0084883105 0.0031177143
-0.008484612 -0.022196302 0.023905212 0.019215928 -0.02602728 -0.011288375 -0.025046714 -0.041368052
-0.027853632 -0.01741788 -0.0075261937 -0.022434177 -0.014796385 -0.011450611 0.0227689 -0.014343776
-0.035615597 0.051061336 -0.034737863 -0.019074868 -0.020884467 -0.022297524 -0.012754979 0.025195023
0.0016693609 0.013014864 -0.022926932 0.005829208 0.009456817 -0.03697624 -0.009184066 0.008952448
0.021503475 -0.033094015 -0.04851808 -0.034858584 -0.008221173 -0.051189523 -0.035744626 -0.027360795
0.007236713 -0.02785945 -0.021620471 -0.053157635 -0.042103566 -0.013919636 -0.026381832 -0.002596665
-0.022667553 -0.001579933 0.05411376 0.0047806446 -0.0002410156 -0.01307698 0.011975179 -0.027951747
-0.01517227 -0.020768808 -0.04523129 -0.011688529 -0.016108334 -0.002090702 -0.0297463 0.01808846
-0.025830148 0.014293883 -0.017948188 -0.02244179 0.002224616 -0.015021354 -0.0014352782 -0.029056804
0.03484882 -0.0037774318 0.07536571 -0.028996687 -0.02291688 -0.046969745 -0.00948926 0.03202486
0.0009211337 0.010993694 0.021784984 -0.033419725 -0.026224172 -0.009625109 0.008130286 0.00077383313
-0.038229898 -0.009722479 -0.02184551 -0.019168356 -0.016117934 0.003519068 0.045948785 -0.005754518
-0.037669178 0.024537815 -0.03504736 -0.010134845 -0.03679896 -0.034618694 0.0021012546 -0.029680427
-0.063396655 -0.025695967 -0.02881579 0.001287521 0.032194275 -0.005143211 -0.0067794495 -0.037453312
-0.04360942 -0.05000384 -0.014645434 -0.0012500408 -0.004210294 0.036352746 -0.02723229 -0.00026143523
-0.02520532 -0.00824218 -0.019101707 0.014642224 0.005312155 0.036105808 0.008661961 -0.010069248
-0.007561084 0.002964885 -0.015145472 -0.024772238 0.001469409 0.018587243 -0.02203199 -0.026231503
-0.03614167 -0.02081543 -0.036304265 -0.0029506143 -0.01681329 0.007608818 -0.00472299 0.005852875
-0.052025154 -0.008421255 -0.0010912046 -0.00057634915 -0.0020655245 -0.018078808 0.01145649 -0.013247972
-0.043319378 -0.03181112 -0.006697062 0.037341215 -0.03639868 -0.029192816 -0.0001997644 0.012726103
0.0070945807 -0.012536192 -0.019540116 0.046677686 -0.016554127 0.0028097155 -0.005052134 -0.03209079
00000000: 7ce4 81bc fc3b d4b9 422b dd3c 39d7 abbc
00000010: 3220 903b 30b8 2eb9 b28b b03c 75f1 6bbc
00000020: 6826 34bc 6cce 153d fbf9 1fbd 7b90 db3b
00000030: be10 953b a7e8 e9bc df7c 26bd 57c6 63bd
00000040: e59b 423b c5f7 893b 83da 6fbc 89b3 21bc
00000050: 220f 13bd 1b88 d4bc 6826 fcbc b6d7 093d
00000060: ea1c 9b3c cc44 e7bc 0407 973c 6f78 e3bc
00000070: ed7c f53b b0fb 01bd 9a5d 55bc efff 89bc
00000080: 26f9 f1bc e27a 8a3c bac5 6fbc 13d4 0cbc
00000090: ada7 283d 67f5 05bd 1068 6d3b c51b 9bbc
000000a0: af2e 37bc e126 3f3d 67b2 b5ba 4af1 e3bc
000000b0: 42f8 89bb 9fe4 5cbc e548 95bc 8606 52bc
000000c0: af4f 01bc e7a6 b93c 86eb e6bc 3152 bdbb
000000d0: 8060 023c a179 80bc 7524 0dbd 2ff1 2fbd
000000e0: 2849 ec3c 96a2 9abc 969d 9e3a 61ea 1bbd
000000f0: 6e0f 27bb 052e 893c a5c9 12bd 5246 823c
00000100: be39 10bd ccb6 c83b e154 423c c6cd f0ba
00000110: 25f0 29b8 7957 b8bc ee7d 1f3a 3d80 8abc
00000120: 164c aebc 6bf3 8a3c 5e08 913c 9d00 83bb
00000130: b728 f6b9 5060 173c 239d 843c 1c45 2dbc
00000140: 508b 42bc ccb6 3e3d 7e71 d83c d66e 73bc
00000150: 8976 69bd e701 a4bc 8e12 0b3c 9152 4c3b
00000160: 0b03 0bbc 05d5 b5bc ddd4 c33c b96a 9d3c
00000170: 2a37 d5bc e0f2 38bc c42e cdbc 8c71 29bd
00000180: 4d2d e4bc f1af 8ebc 4a9e f6bb e1c7 b7bc
00000190: 896c 72bc 589b 3bbc d885 ba3c 2802 6bbc
000001a0: a9e1 11bd b125 513d 4a49 0ebd e642 9cbc
000001b0: e715 abbc 4ca9 b6bc 42fa 50bc cb65 ce3c
000001c0: 75ce da3a 4c3c 553c 43d1 bbbc f102 bf3b
000001d0: c4f0 1a3c 6674 17bd c478 16bc 4aad 123c
000001e0: 0e28 b03c 978d 07bd e5ba 46bd e0c7 0ebd
000001f0: 19b2 06bc 1bac 51bd f568 12bd bf23 e0bc
00000200: f321 ed3b 8039 e4bc 6a1d b1bc d2bb 59bd
00000210: ca74 2cbd 2f0f 64bc b61e d8bc cf2c 2abb
00000220: 4eb1 b9bc c115 cfba 64a6 5d3d f4a6 9c3b
00000230: 22b9 7cb9 d440 56bc 8b33 443c 10fb e4bc
00000240: 1d95 78bc 5923 aabc 7244 39bd 3e81 3fbc
00000250: a0f5 83bc 2904 09bb 83ae f3bc 402e 943c
00000260: bf99 d3bc e430 6a3c 1408 93bc d8d7 b7bc
00000270: ddca 113b 201c 76bc f21f bcba 8908 eebc
00000280: a3bd 0e3d ca8e 77bb 5659 9a3d 768a edbc
00000290: 2ebc bbbc 5963 40bd d778 1bbc 802c 033d
000002a0: 3c78 713a e51e 343c 6c76 b23c 1fe3 08bd
000002b0: 13d4 d6bc a2b2 1dbc e434 053c 10db 4a3a
000002c0: f496 1cbd 084b 1fbc 5bf5 b2bc f506 9dbc
000002d0: c209 84bc 2aa0 663b cb34 3c3d 6590 bcbb
000002e0: ff4a 1abd 8703 c93c d28d 0fbd 9f0c 26bc
000002f0: 82ba 16bd 55cc 0dbd 34b5 093b 5e24 f3bc
00000300: 1bd6 81bd 5980 d2bc 170f ecbc 09c2 a83a
00000310: 25de 033d 6288 a8bb 2526 debb a568 19bd
00000320: cb9f 32bd d4d0 4cbd 67f3 6fbc 69d8 a3ba
00000330: 82f6 89bb 9ee6 143d 4016 dfbc 3e11 89b9
00000340: 637b cebc 350a 07bc 2f7b 9cbc f0e5 6f3c
00000350: 9611 ae3b afe3 133d e6ea 0d3c 7df9 24bc
00000360: f8c2 f7bb 844e 423b b724 78bc 26ef cabc
00000370: 2f99 c03a 4644 983c 6f7c b4bc 73e3 d6bc
00000380: 4a09 14bd 1f85 aabc c8b3 14bd 185f 41bb
00000390: 06bc 89bc 6453 f93b 50c3 9abb 79c9 bf3b
000003a0: 5418 55bd 4ef9 09bc c006 8fba 2316 17ba
000003b0: c05d 07bb 021a 94bc 00b4 3b3c 060e 59bc
000003c0: a96f 31bd 614c 02bd 0773 dbbb 1af3 183d
000003d0: c816 15bd c625 efbc d977 51b9 2581 503c
000003e0: a879 e83b 9a64 4dbc 9812 a0bc 1a31 3f3d
000003f0: 859c 87bc 3423 383b 5f8c a5bb a271 03bd

action_model._discrete_distribution.branches.0.bias f4 [4]
-0.002672091 0.006540345 0.0061862464 -0.008785764
00000000: 3f1e 2fbb 6450 d63b ffb5 ca3b 2af2 0fbc

onnx::Div_62 f4 [202]
0.28433976 0.19282989 0.2895361 0.1976627 0.32869184 0.25290287 0.2895361 0.19660848
0.32869184 0.25254655 0.23732163 0.18323293 0.27971947 0.24323384 0.23368429 0.18147816
0.27661678 0.2424343 0.22253057 0.17373063 0.26882473 0.23715584 0.23106346 0.17644072
0.27763024 0.24036017 0.19959971 0.1661631 0.26245847 0.23433022 0.20550475 0.16649336
0.2774681 0.23501065 0.20448448 0.1669147 0.27506715 0.23511319 0.20502606 0.16460596
0.27592528 0.23274978 0.17012888 0.095104136 0.46457383 0.19532727 0.1688561 0.093009055
0.46619543 0.19994606 0.16825372 0.093136385 0.46675727 0.20011647 0.17042683 0.09415329
0.46664348 0.19534047 0.19036527 0.14681633 0.39175746 0.33337858 0.18678725 0.14790279
0.38582444 0.33738464 0.19153962 0.14784352 0.38809836 0.33861637 0.18490091 0.14688614
0.37905538 0.33964488 0.18990481 0.14794326 0.40202665 0.34573656 0.17439198 0.14359197
0.39693043 0.34526956 0.1733009 0.14629282 0.3989212 0.34701335 0.17293571 0.14615977
0.40531912 0.349398 0.21974123 0.15747099 0.41990897 0.35140976 0.21974123 0.15814012
0.41990897 0.35192114 0.21379758 0.15223746 0.41612023 0.35019866 0.21985112 0.15898663
0.41859335 0.35207465 0.21985112 0.15832873 0.41859335 0.35156626 0.172936 0.14711261
0.3956848 0.34897205 0.17271544 0.14710544 0.3879012 0.3462093 0.17012854 0.14305402
0.38668978 0.34457207 0.18333428 0.14608674 0.3906837 0.3448106 0.17783196 0.1450156
0.3758212 0.33899802 0.18537451 0.14570689 0.3800033 0.33803126 0.18202889 0.14591192
0.37875286 0.3367031 0.18347098 0.14413841 0.37903205 0.3325135 0.167573 0.086375475
0.23363325 0.1882088 0.16427547 0.08402962 0.2350564 0.18805373 0.1681024 0.08435725
0.23591568 0.18802154 0.17005455 0.08681846 0.2357141 0.18856438 0.22323479 0.18179417
0.2762107 0.24260868 0.2212778 0.1840069 0.27445212 0.24471292 0.22214992 0.1844569
0.27682018 0.24512269 0.21465124 0.184502 0.26840106 0.24510625 0.2468271 0.19431457
0.28158876 0.25046673 0.24078995 0.19310531 0.27592528 0.2486 0.2531812 0.2012051
0.28507963 0.2540955 0.2571364 0.20330577 0.28961194 0.25589648 0.30636212 0.2155346
0.34133077 0.26563004 0.30636212 0.21650665 0.34133077 0.2659937 0.30049777 0.21169023
0.30049777 0.21169023
00000000: fb94 913e 3375 453e 133e 943e 1768 4a3e
00000010: 4c4a a83e 7c7c 813e 133e 943e bc53 493e
00000020: 4c4a a83e c84d 813e 7104 733e 6aa1 3b3e
00000030: 6437 8f3e 4b12 793e ef4a 6f3e 69d5 393e
00000040: b7a0 8d3e b240 783e 0edf 633e 71e6 313e
00000050: 65a3 893e fbd8 723e e69b 6c3e e0ac 343e
00000060: 8d25 8e3e fa20 763e de63 4c3e a926 2a3e
00000070: f560 863e 43f4 6f3e d66f 523e 3c7d 2a3e
00000080: 4c10 8e3e a2a6 703e 6164 513e b0eb 2a3e
00000090: 9ad5 8c3e 83c1 703e 5af2 513e 778e 283e
000000a0: 1446 8d3e f555 6e3e 4436 2e3e f5c5 c23d
000000b0: 9fdc ed3e df03 483e 9de8 2c3e 887b be3d
000000c0: 2bb1 ee3e a9be 4c3e b44a 2c3e 4abe be3d
000000d0: cffa ee3e 55eb 4c3e 5f84 2e3e 71d3 c03d
000000e0: e5eb ee3e 5507 483e 1def 423e 0557 163e
000000f0: 6f94 c83e 99b0 aa3e 2845 3f3e d473 173e
00000100: c88a c53e aebd ac3e f622 443e 4b64 173e
00000110: d4b4 c63e 205f ad3e aa56 3d3e 5269 163e
00000120: 8c13 c23e efe5 ad3e 6876 423e 707e 173e
00000130: 70d6 cd3e 6204 b13e d093 323e c609 133e
00000140: 773a cb3e 2cc7 b03e cb75 313e c9cd 153e
00000150: 663f cc3e bcab b13e 0f16 313e e8aa 153e
00000160: fd85 cf3e 4be4 b23e d803 613e 1340 213e
00000170: 4ffe d63e fbeb b33e d803 613e 7cef 213e
00000180: 4ffe d63e 022f b43e c1ed 5a3e 23e4 1b3e
00000190: b60d d53e 3d4d b33e a720 613e 64cd 223e
000001a0: de51 d63e 2143 b43e a720 613e ed20 223e
000001b0: de51 d63e 7e00 b43e 2316 313e b0a4 163e
000001c0: 3397 ca3e 77ac b23e 51dc 303e cfa2 163e
000001d0: fc9a c63e 5842 b13e 2d36 2e3e c17c 123e
000001e0: 34fc c53e c06b b03e fbbb 3b3e c397 153e
000001f0: b207 c83e 048b b03e 9519 363e f87e 143e
00000200: a36b c03e 2691 ad3e d1d2 3d3e 3034 153e
00000210: cb8f c23e 6f12 ad3e c865 3a3e ef69 153e
00000220: e5eb c13e 5964 ac3e d1df 3b3e 0599 133e
00000230: 7d10 c23e 363f aa3e 4298 2b3e a0e5 b03d
00000240: 8e3d 6f3e cfb9 403e d437 283e b917 ac3d
00000250: a0b2 703e 2891 403e 0923 2c3e 7ec3 ac3d
00000260: e193 713e b888 403e c822 2e3e e0cd b13d
00000270: 095f 713e 0517 413e a997 643e 4028 3a3e
00000280: 7d6b 8d3e 696e 783e a696 623e 4e6c 3c3e
00000290: fd84 8c3e 0696 7a3e 457b 633e 45e2 3c3e
000002a0: 60bb 8d3e 7101 7b3e 89cd 5b3e 18ee 3c3e
000002b0: dd6b 893e 22fd 7a3e 3ec0 7c3e 66fa 463e
000002c0: 672c 903e 2d3d 803e a491 763e 66bd 453e
000002d0: 1446 8d3e 0091 7e3e f7a0 813e b608 4e3e
000002e0: f5f5 913e ce18 823e 62a7 833e 632f 503e
000002f0: 0448 943e dd04 833e 7fdb 9c3e 1ab5 5c3e
00000300: e8c2 ae3e a900 883e 7fdb 9c3e ebb3 5d3e
00000310: e8c2 ae3e 5430 883e d8da 993e 53c5 583e
00000320: d8da 993e 53c5 583e

onnx::Div_65 f4 [10]
22.551403 10.393075 0.0051935613 0.0051935613 0.0051935613 0.0051935613 0.0051935613 0.0051935613
0.0051935613 0.0051935613
00000000: 4669 b441 094a 2641 c02e aa3b c02e aa3b
00000010: c02e aa3b c02e aa3b c02e aa3b c02e aa3b
00000020: c02e aa3b c02e aa3b
