results/GameEnemyEscape3/PlayerBehaviour/PlayerBehaviour-86059.onnx (onnx, 490727 bytes, 10 tensors)

network_body.observation_encoder.processors.0.normalizer.running_mean f4 [202]
0	0x3f54e263	0.8315794
1	0x3f5edd10	0.87056065
2	0x3f343920	0.70399666
3	0x3f41818c	0.755883
4	0x3f377a51	0.71671015
5	0x3f44c144	0.768574
6	0x3f343920	0.70399666
7	0x3f41645a	0.7554375
8	0x3f377a51	0.71671015
9	0x3f44ac60	0.76825523
10	0x3f36506d	0.7121647
11	0x3f42361f	0.7586383
12	0x3f3a515d	0.727804
13	0x3f45d492	0.7727748
14	0x3f352c13	0.70770377
15	0x3f4151da	0.7551552
16	0x3f39434c	0.7236831
17	0x3f450281	0.76956946
18	0x3f33b32b	0.70195264
19	0x3f409281	0.7522355
20	0x3f3885af	0.72078985
21	0x3f44caf7	0.768722
22	0x3f2e830c	0.6816871
23	0x3f3ca016	0.7368177
24	0x3f33c635	0.70224315
25	0x3f4148a9	0.75501496
26	0x3f317d5a	0.69331896
27	0x3f3ec4e9	0.7451921
28	0x3f36e5ac	0.714442
29	0x3f438a89	0.7638326
30	0x3f305e44	0.6889384
31	0x3f3e3066	0.742926
32	0x3f357486	0.70880926
33	0x3f42dff2	0.76122963
34	0x3f2e1606	0.68002355
35	0x3f3b7233	0.7322113
36	0x3f33d606	0.7024845
37	0x3f40aabb	0.75260514
38	0x3f2d93eb	0.6780383
39	0x3f3b6f87	0.7321705
40	0x3f3364a2	0.7007543
41	0x3f40b595	0.7527707
42	0x3f343dae	0.70406616
43	0x3f42e7e8	0.7613511
44	0x3f3b62d9	0.73197705
45	0x3f48e718	0.7847762
46	0x3f39acdb	0.7252938
47	0x3f4751d8	0.7785926
48	0x3f410847	0.75403255
49	0x3f4d5514	0.80207944
50	0x3f3977b1	0.7244826
51	0x3f474480	0.778389
52	0x3f41146b	0.7542178
53	0x3f4d5999	0.8021484
54	0x3f33be9b	0.70212716
55	0x3f429cd1	0.7602053
56	0x3f3c011f	0.7343921
57	0x3f49466b	0.78623074
58	0x3f2bbc7b	0.67084473
59	0x3f39e51b	0.7261521
60	0x3f372ca8	0.71552515
61	0x3f43a2d1	0.76420313
62	0x3f2be7f1	0.6715079
63	0x3f39b37c	0.72539496
64	0x3f37cd5e	0.7179774
65	0x3f43c1a6	0.7646736
66	0x3f2e1b81	0.6801072
67	0x3f3c4af9	0.735519
68	0x3f3a10d4	0.7268193
69	0x3f4657ad	0.7747753
70	0x3f2f5469	0.68488175
71	0x3f3ce2d6	0.73783624
72	0x3f3b260b	0.73104924
73	0x3f46e05e	0.7768611
74	0x3f2ae456	0.66754663
75	0x3f39fdd0	0.7265291
76	0x3f387a16	0.7206129
77	0x3f44c517	0.76863235
78	0x3f3011fc	0.6877744
79	0x3f3df89a	0.7420746
80	0x3f3ca775	0.7369302
81	0x3f47f742	0.7811166
82	0x3f309367	0.6897492
83	0x3f3df73b	0.7420537
84	0x3f3d4979	0.73940235
85	0x3f4816b3	0.78159636
86	0x3f3188bb	0.6934926
87	0x3f3eb2ac	0.7449138
88	0x3f3dc5b7	0.74129814
89	0x3f488270	0.7832403
90	0x3f2d5d08	0.6772008
91	0x3f3ce65e	0.7378901
92	0x3f3aa49c	0.72907424
93	0x3f472dc4	0.7780421
94	0x3f2d5d08	0.6772008
95	0x3f3cfd38	0.7382388
96	0x3f3aa49c	0.72907424
97	0x3f47455a	0.778402
98	0x3f4f1ea4	0.8090613
99	0x3f5ae1d6	0.8550085
100	0x3f5764a2	0.8413793
101	0x3f61031b	0.87895364
102	0x3f2ec222	0.68264973
103	0x3f3db8f4	0.7411034
104	0x3f37f7c4	0.71862435
105	0x3f44f759	0.7693992
106	0x3f2ec222	0.68264973
107	0x3f3da0ed	0.7407368
108	0x3f37f7c4	0.71862435
109	0x3f44dd2b	0.76899976
110	0x3f326117	0.696794
111	0x3f3f26fb	0.74668854
112	0x3f3ae3a3	0.73003596
113	0x3f461664	0.77377915
114	0x3f311532	0.69172966
115	0x3f3e2a5f	0.74283403
116	0x3f3a3563	0.7273771
117	0x3f45868b	0.7715842
118	0x3f307e5c	0.6894281
119	0x3f3e19c6	0.7425808
120	0x3f393f89	0.7236257
121	0x3f4530a8	0.7702737
122	0x3f2bddea	0.6713549
123	0x3f3a8771	0.7286292
124	0x3f345da5	0.7045539
125	0x3f418f68	0.75609446
126	0x3f2fb5eb	0.6863696
127	0x3f3d2e96	0.7389921
128	0x3f37b111	0.71754557
129	0x3f43eea6	0.76536024
130	0x3f2e0f68	0.6799226
131	0x3f3c6c65	0.73602897
132	0x3f36ab18	0.7135482
133	0x3f436c8f	0.7633752
134	0x3f2ba7ec	0.67053103
135	0x3f39881c	0.7247331
136	0x3f348fff	0.7053222
137	0x3f410df7	0.75411934
138	0x3f2b62cd	0.66947633
139	0x3f39a00b	0.7250983
140	0x3f33d581	0.70247656
141	0x3f40e23a	0.75345194
142	0x3f325ed3	0.6967594
143	0x3f41c279	0.75687367
144	0x3f389ef6	0.72117555
145	0x3f46d1cc	0.77663875
146	0x3f3797fe	0.71716297
147	0x3f46122d	0.77371484
148	0x3f3df951	0.7420855
149	0x3f4b2372	0.7935096
150	0x3f37f0f7	0.7185206
151	0x3f4626d4	0.77402997
152	0x3f3db641	0.7410622
153	0x3f4b03fb	0.7930295
154	0x3f3241e0	0.6963177
155	0x3f416e3f	0.7555885
156	0x3f389cf1	0.72114474
157	0x3f46d1e5	0.77664024
158	0x3f2b6e3a	0.6696507
159	0x3f39aa5f	0.7252559
160	0x3f318e29	0.69357544
161	0x3f3f0135	0.74611217
162	0x3f2c151d	0.67219716
163	0x3f39bfd5	0.7255834
164	0x3f31ef78	0.69506025
165	0x3f3eef8a	0.7458426
166	0x3f2dcab1	0.6788741
167	0x3f3c0767	0.73448795
168	0x3f33c907	0.7022862
169	0x3f414a26	0.75503767
170	0x3f2f20ca	0.6840941
171	0x3f3cb1b6	0.73708665
172	0x3f3536e7	0.707869
173	0x3f41f249	0.7576032
174	0x3f2c0049	0.67187935
175	0x3f3a9430	0.72882366
176	0x3f323f7c	0.6962812
177	0x3f3fd621	0.7493611
178	0x3f306d62	0.68916905
179	0x3f3e0c9a	0.7423798
180	0x3f367729	0.71275574
181	0x3f431fbe	0.7622031
182	0x3f320af1	0.69547945
183	0x3f3edcb7	0.74555534
184	0x3f378598	0.7168822
185	0x3f438b99	0.76384884
186	0x3f331950	0.699605
187	0x3f3fae79	0.748756
188	0x3f382dfc	0.71945167
189	0x3f4420e5	0.76612693
190	0x3f2f36ae	0.6844281
191	0x3f3e032b	0.74223584
192	0x3f34bb6c	0.70598483
193	0x3f42a6e1	0.76035887
194	0x3f2f36ae	0.6844281
195	0x3f3e1feb	0.7426745
196	0x3f34bb6c	0.70598483
197	0x3f42bd92	0.7607051
198	0x3f53d74d	0.827504
199	0x3f5e7bf2	0.86907876
200	0x3f53d74d	0.827504
201	0x3f5e7bf2	0.86907876

network_body.observation_encoder.processors.1.normalizer.running_mean f4 [10]
0	0x00000000	0.0
1	0x00000000	0.0
2	0x00000000	0.0
3	0x00000000	0.0
4	0x00000000	0.0
5	0x00000000	0.0
6	0x00000000	0.0
7	0x00000000	0.0
8	0x00000000	0.0
9	0x00000000	0.0

network_body._body_endoder.seq_layers.0.weight f4 [256, 212]
0	0x3daf1379	0.08548636
1	0x3e1cd5ec	0.1531598
2	0xbdf20cb8	-0.11818832
3	0x3da4a9c5	0.080401935
4	0x3b03643c	0.0020048758
5	0x3d494c11	0.04914481
6	0x3d137c4c	0.03600721
7	0x3db9e686	0.09077172
8	0xbe021aa4	-0.12705475
9	0x3d82c0ae	0.06384407
10	0x3da5d276	0.08096783
11	0xbd8fb40c	-0.07016763
12	0xbd83e54e	-0.06440221
13	0xbb2242de	-0.0024759094
14	0xbe2fce67	-0.1716858
15	0xbb2c5acc	-0.0026299236
16	0xbd1811a8	-0.037126213
17	0xbd105daf	-0.035245594
18	0xbd3408ed	-0.043953825
19	0x3d9e7a1f	0.077381365
20	0x3bd00505	0.0063482546
21	0x3d997c66	0.0749443
22	0xbd387da8	-0.04504171
23	0x3cde8bd9	0.027166294
24	0xbce19e19	-0.027541207
25	0xbcf01245	-0.029305587
26	0xbd25e50f	-0.04050165
27	0x3c79da4a	0.015249798
28	0xbd04b8db	-0.032402854
29	0x3e034a9a	0.12821427
30	0x3e0f3cd1	0.13988043
31	0x3cb1727c	0.021661036
32	0x3d418cf2	0.047253557
33	0x3c3e7e5c	0.011626806
34	0xbdb027a2	-0.08601309
35	0x3e0f2f2c	0.13982838
36	0xbdd08413	-0.10181441
37	0x3dbce4a1	0.09223295
38	0x3ddbc174	0.10730258
39	0xbc5f45fa	-0.013627524
40	0xbc8c5372	-0.017129634
41	0x3d45a2cd	0.048250962
42	0xbd8a51b8	-0.06753868
43	0x3daf9d99	0.08574981
44	0xbca8c5ea	-0.020602185
45	0x3cf33621	0.029688897
46	0x3d293bca	0.041316785
47	0xbd23a04d	-0.039947797
48	0x3c431211	0.011906163
49	0x3d31402f	0.0432741
50	0x3d82c5c3	0.06385376
51	0x3d43d219	0.047807787
52	0x3c034d85	0.008014088
53	0x3d58d3b9	0.05293629
54	0x3dfa90f4	0.12234679
55	0x3e0e8baf	0.13920473
56	0x3cfb5349	0.030679362
57	0x3d2ba536	0.041905604
58	0x3b8f061f	0.0043647434
59	0x3bae8e91	0.005327054
60	0xbdbc4d2e	-0.09194408
61	0x3b55d9ec	0.0032631112
62	0x3c03eb39	0.008051687
63	0xbda4c443	-0.080452465
64	0x3c1eeaaa	0.009699503
65	0xbbf0531a	-0.007334125
66	0x3d0546d5	0.032538254
67	0xbd4823c3	-0.04886223
68	0x3de34c4e	0.11098538
69	0xbc92212d	-0.017838085
70	0xbc655138	-0.013996415
71	0xbd89a0f1	-0.0672015
72	0xbdafd9db	-0.085864745
73	0xbdb0e1cf	-0.086368196
74	0x3e06212e	0.13098595
75	0xbd951e63	-0.072811864
76	0x3dcc7f02	0.09985162
77	0x3da091f2	0.07840337
78	0x3d32fcf4	0.043698266
79	0x3adb9bae	0.001675477
80	0x3d876faf	0.06613099
81	0xbb8492f3	-0.004045838
82	0xbd233510	-0.039845526
83	0x3d4c2ea9	0.049849186
84	0xbcd986b6	-0.026553493
85	0xbd675883	-0.056480896
86	0x3d56fa59	0.052484844
87	0xbdc62990	-0.09675896
88	0xbe145f3c	-0.14489454
89	0x3caff64e	0.021479752
90	0xbb055fc0	-0.002035126
91	0xbd827ef8	-0.063718736
92	0xbe14dc99	-0.14537276
93	0x3cacb99b	0.021084597
94	0xbbf2876a	-0.0074013965
95	0xbdb99c79	-0.09063048
96	0xbd8e0e2a	-0.06936295
97	0x3ded0432	0.11573066
98	0xbe15cc67	-0.14628755
99	0xbdb50987	-0.08839708
100	0xbd859774	-0.06523028
101	0xbd6dc57b	-0.05804966
102	0xbc026ad6	-0.007960042
103	0x3db1b264	0.086766034
104	0x3ad52ca2	0.0016263912
105	0xbde50292	-0.11182131
106	0xbd23d534	-0.03999825
107	0xbe00a310	-0.12562203
108	0x3d7e19a8	0.062036186
109	0xbdfc5468	-0.12320787
110	0x3d305c3e	0.04305672
111	0x3ce94b03	0.028478151
112	0x3b54e5b7	0.0032485554
113	0xbdd13c81	-0.10216618
114	0x3d7c71bf	0.061631914
115	0xbd7edb64	-0.062220946
116	0x3cf5a014	0.029983558
117	0x3d3f39a6	0.046685837
118	0xbd967a71	-0.073475726
119	0xbe1644bb	-0.14674656
120	0x3db58583	0.08863356
121	0x3c52d9ad	0.012869281
122	0xbd8578fe	-0.06517218
123	0xbd857301	-0.06516076
124	0x3dd5f366	0.10446815
125	0xbe28c2d6	-0.16480574
126	0xbca246ea	-0.019809205
127	0x3d29144e	0.04127913
128	0x3ca34f55	0.01993529
129	0x3b0a48a9	0.0021100438
130	0xbd96d31a	-0.07364483
131	0x3bccbd2a	0.006248136
132	0x3b74ccee	0.0037353593
133	0x3d946767	0.07246285
134	0x3d980a68	0.0742386
135	0x3c7154ff	0.014729737
136	0x3cf77673	0.030207848
137	0x3cd0e932	0.025501821
138	0xbdd4d9b6	-0.103930876
139	0x3bd3fdab	0.0064694486
140	0x3c39d2cd	0.011341763
141	0x3caa2227	0.020768238
142	0x3d5a3451	0.05327255
143	0xbc4bae8a	-0.01243175
144	0xbd04df48	-0.0324395
145	0xbd15d906	-0.036583923
146	0x3c19d167	0.009388304
147	0x3d4b60c7	0.04965284
148	0xbb76e5da	-0.0037673623
149	0xbdc3d1c5	-0.09561495
150	0xbdcb5e30	-0.09930074
151	0x3d2801e6	0.041017435
152	0x3d0b87ec	0.034065172
153	0xbde34d3c	-0.11098716
154	0xbd7c1606	-0.06154444
155	0x3d8ee9a6	0.06978159
156	0xbd1cb257	-0.038256016
157	0x3d185a02	0.037195213
158	0x3d50b36e	0.050952367
159	0x3d2a90a2	0.04164184
160	0x3d472caa	0.04862658
161	0x3dfcbb13	0.12340369
162	0x3de95d3c	0.11394736
163	0xbd7d8afc	-0.061900124
164	0xbd2d9c3f	-0.042385336
165	0x3dddbf87	0.108275466
166	0xbe154221	-0.14576007
167	0x3ce4f42a	0.027948458
168	0xbc651476	-0.013981929
169	0x3d712dac	0.058881447
170	0xbc4e9cdf	-0.012610643
171	0xbd7fe489	-0.062473807
172	0xbdd498d3	-0.103807114
173	0xbd8fda86	-0.07024102
174	0xbc8467b1	-0.016162725
175	0x3d88c592	0.066783085
176	0xbdeef1e9	-0.116672345
177	0xbbf51683	-0.0074794902
178	0xbddb6804	-0.10713199
179	0x3c9f2f1f	0.019431649
180	0xbe3ac7de	-0.18240306
181	0xbe06da8d	-0.13169308
182	0x3d4bce63	0.049757373
183	0x3bbeb601	0.0058200364
184	0xbd164188	-0.03668359
185	0xbcf8de18	-0.03037934
186	0xb9dd8772	-0.0004225332
187	0x3d2909af	0.041269
188	0xbdd02da2	-0.10164954
189	0x3dce54f7	0.100747995
190	0x3987eb2c	0.00025924423
191	0xbc5d2772	-0.013498174
192	0x3d80211d	0.06256316
193	0x3d9ce96e	0.07661711
194	0x3dfd58fb	0.12370487
195	0x3d90deb4	0.07073727
196	0x3a5e2b2a	0.000847506
197	0x3dd8f452	0.105934754
198	0x3cb3ef5f	0.021964727
199	0x3d952d5c	0.07284042
200	0x3db41bc7	0.087943606
201	0xbe3e2fa8	-0.18572867
202	0xbbf6634a	-0.0075191604
203	0xbdf66624	-0.120312005
204	0x3b9a94f7	0.004717465
205	0xbc3d83f0	-0.011567101
206	0x3c1c64e7	0.009545541
207	0xbbbc0d31	-0.005738877
208	0xbc895a10	-0.016766578
209	0x3a375ec0	0.0006995015
210	0xbd07f31b	-0.033190828
211	0xbd9817e6	-0.07426433
212	0xbde9512a	-0.11392434
213	0xbd50ea95	-0.051004965
214	0xbde0d1fa	-0.1097755
215	0x3ba54dc7	0.005044672
216	0x3d1c04a8	0.038090378
217	0xbdce1bd7	-0.10063904
218	0xbda9db64	-0.082937986
219	0xbdc3811d	-0.09546111
220	0xbdd15e07	-0.102230124
221	0xbcd58eda	-0.026069093
222	0x3c8c5c30	0.017133802
223	0x3e1cd3f7	0.15315233
224	0x3cd75373	0.026284909
225	0xbd3e61fd	-0.046480168
226	0xbbe527c0	-0.006993264
227	0xbd1261e5	-0.03573789
228	0x3d1da21c	0.038484678
229	0xbd0a3eaf	-0.033751186
230	0x3e09ed4d	0.1346943
231	0xbd2e36a0	-0.042532563
232	0x3db7f60f	0.08982479
233	0xbe02f420	-0.12788439
234	0x3daf0e9c	0.085477084
235	0xbd28c7d9	-0.041206215
236	0xbd2ab74b	-0.041678708
237	0x3d848f8b	0.06472691
238	0x3de2e326	0.110784814
239	0xbba3b7a4	-0.004996257
240	0x3c370853	0.011171418
241	0xbdae2a2d	-0.08504138
242	0xbcb9d31b	-0.02268367
243	0x3de46125	0.11151341
244	0x3da8b4a0	0.082375765
245	0xbcb26a0f	-0.021779088
246	0xbdc473d8	-0.09592408
247	0x3d129343	0.03578497
248	0xbdb2e905	-0.08735851
249	0x3d391e69	0.045195017
250	0xbd428f98	-0.047500223
251	0x3cb0573d	0.021525973
252	0xbd0861f8	-0.033296555
253	0x3d8bdcc9	0.06829221
254	0xbbe8bd24	-0.0071026254
255	0x3e006c90	0.12541413

network_body._body_endoder.seq_layers.0.bias f4 [256]
0	0x3d02f348	0.031970292
1	0x3cb9257e	0.022600885
2	0x3ca24d02	0.01981211
3	0xbbe3f07f	-0.0069561596
4	0xbc6e1b67	-0.0145329
5	0xbb9bc7da	-0.004754049
6	0xbccbcad3	-0.024876988
7	0xba640f4d	-0.000869979
8	0x3d2a65bf	0.04160094
9	0x3b6e39da	0.00363504
10	0xbc356f35	-0.011073877
11	0xbc3ca5ca	-0.011514137
12	0x3b82d2ff	0.003992438
13	0xbc92e163	-0.017929738
14	0xbc000262	-0.007813068
15	0x3c4e19a4	0.012579355
16	0xbc4a7e81	-0.012359262
17	0x3cf7d07c	0.03025078
18	0x3bebca7e	0.00719577
19	0xbc565cd3	-0.013083654
20	0x3cba3f68	0.022735313
21	0xbc5a63c0	-0.013329446
22	0x3c766ce6	0.015040612
23	0xbace4991	-0.0015738477
24	0xbc1e54e9	-0.009663799
25	0xbb8c242c	-0.004276773
26	0x3cf1a79f	0.029498873
27	0x3c8855fe	0.016642567
28	0x3bd5d2fc	0.0065253954
29	0x3c015a04	0.007894997
30	0xbc05a60b	-0.0081572635
31	0x3c2a7458	0.010403715
32	0x3c2bfacb	0.010496805
33	0x3b41085a	0.002945444
34	0x3c1ca6a7	0.009561217
35	0x3bae48d9	0.0053187427
36	0x3ce6e04a	0.028183121
37	0x3cbc9794	0.023021497
38	0xbb9f9f5c	-0.004871292
39	0x3a914970	0.0011084508
40	0x3c06b26a	0.008221248
41	0x3cac30b7	0.021019323
42	0xbd6f89fb	-0.058481198
43	0x3c0be147	0.008537597
44	0x3d0c5146	0.034257196
45	0x3c10c0e9	0.008835056
46	0xbc2c4874	-0.010515321
47	0xbbd77ee8	-0.0065764077
48	0x3c314dc5	0.010821764
49	0x3b8e6589	0.0043456
50	0xbae6e821	-0.0017616787
51	0xb9fa05f0	-0.0004768814
52	0xbb2c0e69	-0.0026253706
53	0xbab23759	-0.0013596817
54	0x3d25247a	0.04031799
55	0x3c7fba75	0.01560842
56	0x3c4832e4	0.0122191645
57	0xbb1cac76	-0.0023906506
58	0x3c9600eb	0.018310985
59	0xba514d3c	-0.0007984226
60	0x3c8bc3eb	0.017061194
61	0x3c2fbf07	0.010726697
62	0xbaf47e89	-0.0018653433
63	0xbb01d26f	-0.0019809266
64	0x3c172be8	0.009226777
65	0x3b4bf3d8	0.0031120684
66	0x3c8f9715	0.017528096
67	0x3b26bd92	0.0025442583
68	0xb9413b7c	-0.00018428074
69	0x3b1ebb3b	0.0024220485
70	0xbc514fb2	-0.0127753485
71	0xbb412cb0	-0.0029476099
72	0x3c17dcea	0.009268979
73	0x3b920e58	0.0044572763
74	0xbc74a4fe	-0.014931915
75	0xbb28edec	-0.0025776578
76	0x3c16c1b0	0.009201452
77	0xbcc3c453	-0.023897326
78	0x3c46c66c	0.012132268
79	0x3cd63d00	0.026152134
80	0x3c180d37	0.009280494
81	0x3be8af15	0.0071009495
82	0x3d43d138	0.04780695
83	0x3b6a8401	0.0035784247
84	0xbcb56639	-0.02214347
85	0x3bfa21a8	0.0076334067
86	0x3bd5b635	0.006521965
87	0xbc70ee04	-0.014705185
88	0xbb8fc46e	-0.00438743
89	0xbc448e35	-0.011996795
90	0xbc13ba95	-0.009016653
91	0xbca2fc0c	-0.019895576
92	0x3b96f47f	0.004606783
93	0x3a3e7064	0.00072646723
94	0xbbc8ce18	-0.006128084
95	0x3c79b485	0.015240793
96	0xbb6aeeaa	-0.0035847821
97	0xbbc6ada6	-0.006063181
98	0xbc966ed3	-0.018363392
99	0x3c64f997	0.0139755225
100	0xbc93621e	-0.017991122
101	0xbc0551e2	-0.008137198
102	0x3c679e28	0.0141368285
103	0x3c5526a0	0.013009697
104	0xbbcf4e8a	-0.0063265013
105	0xbc8b9130	-0.017037004
106	0x3b8f62b6	0.004375781
107	0xbbd3718a	-0.006452744
108	0xbc4f93a5	-0.012669479
109	0xbc9d08be	-0.019169208
110	0x3cff72b4	0.031182624
111	0x3c021451	0.007939414
112	0x3cb5176c	0.022105895
113	0x3b756b3c	0.003744795
114	0xbca58d5c	-0.020209007
115	0xbd290fb9	-0.04127476
116	0xbc0dc22e	-0.008652253
117	0x3c882c73	0.016622758
118	0xbc7623ad	-0.015023154
119	0x3c6eed30	0.014582917
120	0xbc0e0b45	-0.008669679
121	0xba526236	-0.0008025499
122	0xba98e3f8	-0.001166462
123	0x3caebdbd	0.021330709
124	0x3d229e4d	0.03970175
125	0xbba84056	-0.0051346226
126	0xbc865814	-0.01639942
127	0xbc716056	-0.014732441
128	0xbb007216	-0.001959925
129	0xbb832b91	-0.0040029963
130	0xbbac683b	-0.0052614487
131	0xbc18d113	-0.009327191
132	0x3c0d1176	0.00861012
133	0xbbb547c8	-0.0055322386
134	0x3b93733d	0.0044998215
135	0xbc37a5da	-0.011208976
136	0xbb25dd77	-0.0025309005
137	0xba9ffb49	-0.0012205626
138	0x3cbf7e59	0.023375677
139	0xbb982798	-0.004643392
140	0x3bb021fe	0.005375146
141	0x3c023919	0.007948183
142	0xbc98f963	-0.018673604
143	0x3ca0a1c3	0.019608384
144	0xbc126d6d	-0.008937222
145	0x3c80edb9	0.015738355
146	0x3c87f371	0.016595574
147	0xbc6b545f	-0.014363377
148	0xbc99e191	-0.018784316
149	0x3a71da88	0.0009225984
150	0xbcaf7b93	-0.02142123
151	0xbbd53a11	-0.006507166
152	0xbce34dd2	-0.027747069
153	0xbbc86a01	-0.0061161523
154	0x3c520a7a	0.012819881
155	0xbbaf19b7	-0.0053436416
156	0xbbc92b43	-0.0061391904
157	0xbc964981	-0.018345596
158	0x3d4fbd44	0.050717607
159	0xbb20a797	-0.0024513954
160	0x3cd56de1	0.02605337
161	0xbc3e50a1	-0.011615903
162	0x3c6602b0	0.014038727
163	0xbc7eb235	-0.015545418
164	0xbcc3e2ce	-0.02391186
165	0xbce3915d	-0.027779276
166	0x3c479de9	0.012183645
167	0x3c0e42dc	0.008682933
168	0x3d186bf2	0.03721232
169	0xbc1d7835	-0.009611179
170	0x3c111189	0.008854278
171	0xbbd6e260	-0.0065577477
172	0x3bda1484	0.0066552777
173	0x3b86be48	0.0041120388
174	0xbbfad890	-0.007655211
175	0xbc63422a	-0.013870755
176	0x397a04fc	0.00023843715
177	0x3cd506a7	0.026004149
178	0xbc96f912	-0.018429313
179	0x3ca55056	0.020179909
180	0xba4b5f7b	-0.0007758063
181	0x3c5d9c7f	0.013526081
182	0xbc615acc	-0.013754558
183	0xb999cc2b	-0.0002933455
184	0xbc818df7	-0.015814764
185	0x3bf3cf25	0.007440465
186	0x3ae8260d	0.0017711535
187	0x3b575079	0.0032854362
188	0xbb91b4b2	-0.0044465894
189	0xbba5ffcf	-0.005065895
190	0xbc026704	-0.007959131
191	0xbc3fe67d	-0.0117126675
192	0xbc2690de	-0.010166375
193	0xbc02a3c6	-0.007973617
194	0xba939595	-0.0011259789
195	0x3cb96ec1	0.02263582
196	0xbb55f2d2	-0.0032645953
197	0x3b06b6ad	0.002055566
198	0xbc05fdd9	-0.008178198
199	0xbc6f4196	-0.014603039
200	0x3c310fc1	0.010806979
201	0x3c80359f	0.015650569
202	0x3cb036d5	0.021510521
203	0x3baa2bc0	0.0051932037
204	0x3bb37b7c	0.005477367
205	0x3c4f4efc	0.012653109
206	0x3c639999	0.013891601
207	0xbc03a62e	-0.008035226
208	0xbb0586d6	-0.0020374558
209	0xba8dac32	-0.0010808764
210	0x3ca6a9aa	0.020344574
211	0x3c8ff7b5	0.01757417
212	0x3b31717a	0.0027075694
213	0x3c343a14	0.011000175
214	0x3c3764a9	0.011193433
215	0x3b8edbae	0.004359684
216	0x3b307d12	0.0026930016
217	0x3c811c4b	0.015760561
218	0xbb94e459	-0.0045438227
219	0x3c3c28ec	0.011484366
220	0x3d16da68	0.036829382
221	0x3c2c37af	0.010511323
222	0x3c93bf45	0.01803554
223	0x3bb45cb0	0.0055042133
224	0x3c174f6e	0.009235246
225	0xbc0eceee	-0.008716328
226	0x39ff9eaa	0.00048755604
227	0x3c751e1a	0.01496079
228	0x3cd0067b	0.025393715
229	0x3c1403bd	0.009034094
230	0x3be5441c	0.0069966447
231	0x3ba88402	0.0051426897
232	0x3cfeae22	0.031088892
233	0xbc92f3d3	-0.01793853
234	0x3b9f8773	0.0048684417
235	0xbb37cf84	-0.0028047273
236	0x3bde92e8	0.006792415
237	0x3af744ac	0.001886507
238	0xbc05c7a5	-0.008165275
239	0x3c42f102	0.011898281
240	0x3bd101fc	0.0063784104
241	0xbb1f60b6	-0.0024319119
242	0xba8b356f	-0.0010620783
243	0x3d2abaa4	0.0416819
244	0xbb091602	-0.0020917659
245	0x3d278177	0.04089495
246	0x3c91c09a	0.017792035
247	0x3ce79848	0.028270856
248	0x3abc75c4	0.0014378359
249	0x3c260246	0.010132378
250	0x3c81f899	0.01586561
251	0x3bfe0e42	0.0077531645
252	0x3b9384b0	0.0045019016
253	0x3b1b30c4	0.002368019
254	0x3c7d7557	0.0154698705
255	0x3b1a8367	0.0023576857

network_body._body_endoder.seq_layers.2.weight f4 [256, 256]
0	0x3cee06be	0.02905595
1	0x3dc483a0	0.09595418
2	0x3d06cb88	0.032908946
3	0xbd25d2c2	-0.040484197
4	0xbd3f18c8	-0.046654493
5	0x3cf88deb	0.03034111
6	0xbdbf9838	-0.09355205
7	0x3d99c0c2	0.07507469
8	0x3d88fbd7	0.0668866
9	0xbdaa1f87	-0.083067946
10	0xbdb8162c	-0.08988604
11	0x3de8a1f3	0.11359014
12	0x3cadf26e	0.021233764
13	0xbdcfea40	-0.101521015
14	0x3d20537f	0.039142128
15	0xbdc4f3b2	-0.09616794
16	0x3dce3586	0.100688025
17	0xbc747eaa	-0.014922777
18	0x3db041ee	0.08606325
19	0x3d9429b5	0.072345175
20	0x3b8b2ba5	0.004247146
21	0x3d01c87d	0.03168534
22	0xbd40b701	-0.047049526
23	0xbdba5ec2	-0.09100105
24	0xbcb0e78b	-0.021594783
25	0x3d81b47d	0.063332535
26	0xbd1bdfc1	-0.038055185
27	0x3d86073f	0.06544351
28	0x3ca9fb61	0.02074975
29	0xbcd967c7	-0.026538743
30	0x3ab95ad7	0.0014141452
31	0x3d271588	0.04079202
32	0x3e0059a4	0.12534195
33	0xbd9108be	-0.070817456
34	0xbd602f6a	-0.054732718
35	0xbd3dc895	-0.046333868
36	0x3d5d626d	0.054048944
37	0x3d1775b1	0.036977474
38	0xbdd68af5	-0.10475723
39	0xbc4ab455	-0.012372096
40	0xbd5bb918	-0.053643316
41	0x3d99918a	0.074984625
42	0xbd3a78cf	-0.04552537
43	0xbde2ad4f	-0.11068212
44	0xbcbaf530	-0.022821993
45	0x3bce8184	0.0063020606
46	0xbd104025	-0.035217423
47	0x3de3544a	0.11100061
48	0xbb8f7d55	-0.0043789544
49	0x3d654330	0.055972278
50	0xbd954095	-0.07287709
51	0xbd25ef1e	-0.040511243
52	0xbd818ed3	-0.0632607
53	0xbdc87ac7	-0.09789043
54	0xbe2b8b4c	-0.16752356
55	0xbc13eb90	-0.00902833
56	0xbda8948f	-0.0823146
57	0x3bfc44c4	0.007698627
58	0x3db5e592	0.08881678
59	0x3d974227	0.073856644
60	0x3db516ce	0.0884224
61	0xbce7aee9	-0.028281646
62	0xbcfbd683	-0.030741936
63	0x3d15acab	0.036541622
64	0x3d2f3106	0.04277136
65	0xbc2f2247	-0.010689325
66	0x3dee314c	0.116304964
67	0x3de59aca	0.11211164
68	0xbd1ff5f5	-0.039052922
69	0x3cd94af8	0.026525006
70	0x3d437a11	0.047723833
71	0x3df0cce1	0.117578276
72	0x3d2ecf31	0.042678062
73	0x3d9510ee	0.0727862
74	0xbdd274ee	-0.10276209
75	0xbda5f2a6	-0.08102922
76	0x3df2e47d	0.11859987
77	0xbcd1f171	-0.025627824
78	0x3d238007	0.03991702
79	0xbb96bfdd	-0.0046005086
80	0xbd6d88bd	-0.057991732
81	0x3dd3ecd1	0.103479035
82	0x3c25643b	0.010094698
83	0xbc143294	-0.009045262
84	0xbd01c22b	-0.031679314
85	0x3ccdd57f	0.025126217
86	0x3d675f44	0.056487337
87	0x3d1e045b	0.038578372
88	0x3cb8d428	0.022562101
89	0xbdedf2f1	-0.11618603
90	0xbd33d7f9	-0.04390714
91	0x3dde7efb	0.10864063
92	0x3d87cb2d	0.066305496
93	0xbd7d2ede	-0.061812274
94	0x3cdc1ec1	0.026870133
95	0x3d87507d	0.06607149
96	0xbd8070f7	-0.06271546
97	0x3ca64ca2	0.020300213
98	0xbe07ca16	-0.13260683
99	0x3d615f80	0.055022717
100	0x3d8bbba8	0.06822902
101	0xbdeffbec	-0.11717972
102	0xbda28349	-0.07935197
103	0x3d008cd9	0.031384323
104	0xbdbbf845	-0.09178213
105	0x3d65fd5c	0.056149825
106	0x3d002484	0.031284824
107	0x3a2a40bf	0.0006494633
108	0xbcf45a5a	-0.02982824
109	0x3bca202e	0.006168387
110	0x3d1e2c91	0.03861672
111	0x3d119cbf	0.035549875
112	0xbcb12d20	-0.021627963
113	0xbd5ebf44	-0.054381624
114	0x3d2256a6	0.039633416
115	0xbd76f6c5	-0.06029393
116	0x3d602b83	0.054728996
117	0x3c8e7a97	0.01739244
118	0xbd942b84	-0.072348624
119	0x3c149573	0.009068835
120	0x3d10b0eb	0.035324972
121	0xbd8b9ad9	-0.06816644
122	0xbd7e9dd8	-0.06216225
123	0xbd0b887d	-0.034065712
124	0x3de584ed	0.11206994
125	0x3baa571f	0.005198374
126	0x3d215c98	0.039394945
127	0x3d882fbe	0.06649731
128	0x3d19dab0	0.037562072
129	0xbdd14120	-0.102175
130	0xbd63bc64	-0.055599585
131	0xbda76f7b	-0.0817556
132	0xbca0f9df	-0.019650398
133	0x3d7f7367	0.062365916
134	0x3a3ecffe	0.0007278918
135	0xbd295a79	-0.041346047
136	0x3dd92821	0.10603357
137	0x39408165	0.0001835875
138	0x3d0fe845	0.03513362
139	0x3c9f2a0c	0.01942923
140	0xbd9427ea	-0.072341755
141	0x3c2853d8	0.010273896
142	0x3ca91c65	0.020643422
143	0xbdc749a7	-0.09730845
144	0x3d6ac242	0.057314165
145	0x3c5459ce	0.012960864
146	0x3e160f95	0.14654382
147	0xbd235723	-0.039878022
148	0xbd14be3a	-0.036314227
149	0x3de4c6d6	0.111707374
150	0xbe02d31c	-0.12775844
151	0xbd35f321	-0.04442132
152	0xbd5b324f	-0.053514775
153	0xbdb7f8c5	-0.08982996
154	0x3dc9ed8d	0.09859762
155	0x3be8f2d2	0.0071090246
156	0x3d734d64	0.059399977
157	0x3dc08663	0.09400632
158	0x3e022d71	0.12712647
159	0x3c7458d1	0.014913754
160	0xbce0d21d	-0.02744394
161	0xbc0473c1	-0.0080842385
162	0xbc91a1cf	-0.017777352
163	0x3cadd246	0.02121843
164	0x3d61d0b5	0.05513068
165	0x3cec915d	0.028877908
166	0xbd2c1361	-0.04201067
167	0xbd08b473	-0.033375215
168	0x3e10e417	0.1414951
169	0xbd14565b	-0.036215167
170	0x3e004a9d	0.12528463
171	0x3ab7b832	0.0014016686
172	0xb90a7015	-0.0001320246
173	0x3c9d7767	0.019221975
174	0xbd822a3b	-0.06355711
175	0x3da442f2	0.08020581
176	0x3d1da48c	0.038487002
177	0x3d3d3da6	0.04620137
178	0xbd44a823	-0.04801191
179	0xbd7589cd	-0.05994587
180	0x3dc3ec74	0.09566584
181	0xbca90e6f	-0.020636765
182	0xbdd75bec	-0.105155796
183	0x3e01880e	0.12649557
184	0xbc88c3c2	-0.016694907
185	0xbb501559	-0.0031751005
186	0xbd120a24	-0.035654202
187	0x3d7bbe96	0.061461054
188	0x3d801840	0.06254625
189	0xbe46705d	-0.193788
190	0x3de3f32b	0.11130365
191	0xbcefcb53	-0.029271757
192	0xbd1ce902	-0.03830815
193	0x3d81b1e8	0.06332761
194	0xbd455e04	-0.048185363
195	0x3d836cc3	0.06417229
196	0x3de5507e	0.11196993
197	0x3d815483	0.063149475
198	0x3df6ea11	0.120563634
199	0x3d681c54	0.05666764
200	0xbcf07127	-0.02935083
201	0xbe09c249	-0.1345302
202	0x3cfad84e	0.03062072
203	0xbd792920	-0.060830235
204	0x3cc4938f	0.023996143
205	0xbd369773	-0.044578027
206	0xbd270a09	-0.040781055
207	0xbe1f9d89	-0.15587439
208	0x3c3995b3	0.011327195
209	0x3d84fede	0.064939246
210	0x3d622263	0.055208575
211	0x3d3937ee	0.045219354
212	0x3d7d54fd	0.06184863
213	0x3ce0f82c	0.027462088
214	0x3d754c6a	0.059887327
215	0xbe064b6c	-0.13114709
216	0x3bac4697	0.0052574384
217	0x3ccd275b	0.02504318
218	0x3d55f1e0	0.052232623
219	0xbbe82b45	-0.0070852363
220	0xbdbbb180	-0.09164715
221	0xbcfa6404	-0.03056527
222	0xbd09262e	-0.033483677
223	0xbbb5ce6b	-0.0055482886
224	0x3cf7c63a	0.030245889
225	0xbd41ef2c	-0.047347233
226	0xbd99e70a	-0.0751477
227	0xbd469909	-0.04848579
228	0x3c486a62	0.012232395
229	0xbdc82a9a	-0.097737506
230	0xbd9340a9	-0.07190067
231	0x3cdca549	0.026934283
232	0x3d9c3351	0.07626975
233	0x3c488abe	0.01224011
234	0xbd8ed6bf	-0.06974553
235	0x3ce99652	0.028514061
236	0x3cf20dbc	0.029547565
237	0xbd7df3ec	-0.0620002
238	0xbc4121ce	-0.011787845
239	0x3cf9de02	0.03050137
240	0x3e0d031b	0.13770716
241	0x3d01ea83	0.03171779
242	0xbd09519a	-0.033525087
243	0xbcd8e75d	-0.02647751
244	0xbd99ed57	-0.07515972
245	0xbdc6bae5	-0.09703616
246	0x3c51194e	0.012762381
247	0x3ae62e95	0.001756149
248	0xbbf66d28	-0.0075203367
249	0x3cabc21b	0.02096658
250	0x3ced6231	0.028977485
251	0x3e251174	0.16119939
252	0xbd2e3132	-0.042527385
253	0x3dab37ec	0.083602756
254	0x3d72a62d	0.05924051
255	0xbae02b10	-0.0017102677

network_body._body_endoder.seq_layers.2.bias f4 [256]
0	0x3be2c492	0.0069204057
1	0xbb0abcb0	-0.0021169595
2	0xbb76b9ba	-0.0037647323
3	0x3c4fb2a3	0.012676868
4	0x3c9bc5d3	0.019015228
5	0x3c36fd97	0.011168859
6	0x3bd5d122	0.0065251747
7	0x3c992795	0.018695632
8	0x3c9780f6	0.01849411
9	0x3be901b0	0.007110797
10	0x3c145623	0.00905374
11	0xbb836ddb	-0.0040108985
12	0x39bb5d42	0.00035736902
13	0xbc0b829c	-0.008515026
14	0x3bf73dbd	0.0075452016
15	0xbba694d7	-0.005083661
16	0x3c79d538	0.015248589
17	0x3c128215	0.008942147
18	0x3c900614	0.017581023
19	0x3c4a38fa	0.012342686
20	0x3c4abbb8	0.012373857
21	0xbc5878db	-0.013212408
22	0x3d16a971	0.036782686
23	0xbcd1e883	-0.025623566
24	0x3c202b2f	0.009775921
25	0x3c9da76f	0.019244878
26	0x3c169d01	0.009192706
27	0x3b7d209e	0.0038624178
28	0xbb59af5c	-0.0033216095
29	0x3ca6ae3d	0.020346755
30	0xbbf3b4ad	-0.0074373097
31	0x3bf02327	0.0073284092
32	0x3c575bb5	0.013144423
33	0xbbb3b2c6	-0.005483958
34	0xbbec5e2c	-0.0072133746
35	0xbc89c4d8	-0.016817495
36	0x3c019bf8	0.007910721
37	0xbb9d5aee	-0.0048020994
38	0x3c06df43	0.008231941
39	0xbbc72219	-0.006077063
40	0x3b195d34	0.00234015
41	0xbae07cd2	-0.0017127043
42	0xbc3fe1a1	-0.011711509
43	0xbb5f83e8	-0.0034105722
44	0x3bf91788	0.007601682
45	0x3c66eee4	0.014095042
46	0x3c7688c2	0.015047254
47	0xbb61384d	-0.0034365833
48	0x3c02f348	0.007992573
49	0xbc1b6673	-0.009484875
50	0x3c7fa7bc	0.015603956
51	0x3ab29a37	0.0013626282
52	0x3caa9ba7	0.020826174
53	0x3cb2487b	0.021763077
54	0x3c2bbf88	0.010482676
55	0x3c8d5cdc	0.017256193
56	0xbbca4563	-0.0061728223
57	0xbc0cd4eb	-0.0085956855
58	0xbc7f8697	-0.015596054
59	0xbb5fdf2d	-0.0034160123
60	0x3a488b87	0.0007650186
61	0x3c237090	0.009975567
62	0x3cb17649	0.021662848
63	0x3b4748a1	0.003040828
64	0x3caa63d8	0.020799562
65	0xbc8a4a0b	-0.01688101
66	0x3c663030	0.014049575
67	0x3b76cba4	0.0037658
68	0xb9f21f30	-0.00046181073
69	0x3c9cb328	0.019128397
70	0x3b2c243c	0.0026266715
71	0x3c21f1da	0.009884322
72	0x3bdb6bfa	0.0066962214
73	0x3cb7f5b5	0.02245603
74	0x3c74d2f7	0.014942876
75	0x3bfd574c	0.007731354
76	0x3c6f55c2	0.014607849
77	0xbafc2e0f	-0.0019239801
78	0x3ac6b34a	0.0015159633
79	0x3adef4a8	0.0017010169
80	0x3ba3588c	0.004984921
81	0xbc524abc	-0.012835201
82	0x3bd43a0e	0.006476647
83	0x3c57bfa2	0.013168247
84	0x3ac2c401	0.0014859439
85	0xbc416127	-0.011802948
86	0x3c2d5df5	0.010581483
87	0xbc8631f8	-0.016381249
88	0x3aceeff7	0.0015788068
89	0x3b83e551	0.0040251394
90	0x3c15bc4f	0.009139135
91	0x3c686c6b	0.014186005
92	0x3cf531f5	0.029931048
93	0x3b8bf914	0.004271636
94	0xbca1e39e	-0.019761857
95	0x3c3abdbb	0.011397774
96	0xbac887cc	-0.001529926
97	0x3c8b5987	0.017010463
98	0xbbd5af64	-0.0065211523
99	0xbc8228de	-0.015888628
100	0x3c271710	0.01019837
101	0x3cc453e7	0.023965789
102	0x3c01b5f0	0.007916912
103	0x376fa7c4	1.4284571e-05
104	0x3c8b4a07	0.017003072
105	0xbc690124	-0.014221463
106	0x3c95a2ba	0.01826607
107	0x3c1340f3	0.008987653
108	0x3c901f66	0.017593097
109	0xbaeec6fe	-0.0018217263
110	0xba634a61	-0.0008670446
111	0xbca338c5	-0.01992453
112	0x3bb48903	0.005509497
113	0x39353592	0.00017281462
114	0xb7fce4f0	-3.0147348e-05
115	0xbcdfc777	-0.027316792
116	0xbb295a5d	-0.0025841214
117	0x3b0b34d2	0.00212412
118	0x3cd213df	0.02564424
119	0x3c1496e3	0.009069177
120	0x3aeabd78	0.0017909249
121	0x3cb63900	0.022243977
122	0x3c700808	0.014650352
123	0x3acc261b	0.0015575321
124	0x3cf03efc	0.029326908
125	0x3c81fe35	0.015868286
126	0xbc50e58f	-0.0127500435
127	0x3b666a95	0.0035158743
128	0x3abade7f	0.0014256983
129	0x3cb081c9	0.021546261
130	0xbbf470d0	-0.0074597374
131	0xbc3dae54	-0.011577208
132	0x3ba66e2d	0.005079052
133	0x3cb80cf5	0.022467116
134	0x39148306	0.0001416319
135	0xbc0af495	-0.008481164
136	0x3bfb9f0d	0.0076788724
137	0x3c5bb809	0.013410577
138	0x3b3735da	0.0027955682
139	0x3845bdbf	4.7145175e-05
140	0x3bf7cb2e	0.0075620627
141	0x3c8abc4d	0.016935492
142	0x3c013390	0.007885829
143	0xbba9c4b3	-0.005180919
144	0x3c3f086a	0.011659721
145	0x3bf4a6c6	0.00746617
146	0x3bb7fd02	0.0056148777
147	0xb9bf782b	-0.0003651989
148	0x3c5f21b6	0.013618877
149	0x3cca10f1	0.024666281
150	0x3cf26eb7	0.029593809
151	0xbbee5aad	-0.007273993
152	0x3ad2e6e1	0.0016090536
153	0x3cb6a8fe	0.022297379
154	0x3bc62ffa	0.0060481997
155	0xbb9f5f33	-0.0048636436
156	0x3c254a5a	0.010088528
157	0x3cc5181b	0.024059346
158	0xba13769f	-0.0005625281
159	0x3c6fa568	0.014626838
160	0x3ae9d7ae	0.0017840767
161	0x3839575a	4.418879e-05
162	0x3c05fa45	0.008177345
163	0x3bb3c5de	0.005486234
164	0x3c1ff26d	0.009762389
165	0xbab02347	-0.0013438248
166	0x3cc7f33e	0.02440798
167	0x3b8dbe51	0.004325666
168	0x3bd1e830	0.0064058527
169	0xbb91bd1e	-0.0044475934
170	0xba3e83e6	-0.0007267579
171	0xbc271e99	-0.010200166
172	0x3b0c897b	0.002144425
173	0xbaac44c9	-0.0013143058
174	0x3b81c54d	0.0039602877
175	0x3b1de2f3	0.002409157
176	0x3cd88159	0.026428865
177	0x3a88c610	0.0010435004
178	0x3b70d2b5	0.0036746685
179	0x3c84e8e2	0.016224328
180	0x3c08e405	0.008355145
181	0xbc633a85	-0.013868933
182	0x3ccfbba4	0.025358029
183	0x3be21821	0.006899849
184	0x3c67b8a5	0.014143144
185	0x3bd5195e	0.006503268
186	0x3b247ed3	0.0025100007
187	0x3b4649f8	0.003025649
188	0xbc8f054e	-0.017458584
189	0x3c2955e3	0.010335418
190	0x3c884d1c	0.016638331
191	0x3c043962	0.008070322
192	0x3c618c88	0.013766415
193	0x39992ccc	0.0002921581
194	0xbbd995b3	-0.00664016
195	0x3cb5c251	0.022187384
196	0xbb0d9f64	-0.0021609897
197	0x39c12369	0.0003683821
198	0xbc2df348	-0.010617085
199	0x3c329a13	0.010900992
200	0x3ca43838	0.020046338
201	0x3b049ba0	0.0020234361
202	0x3c877924	0.016537257
203	0x3c85c730	0.016330332
204	0x3c4a041a	0.012330079
205	0x3d1de13c	0.03854488
206	0xbb41bffc	-0.0029563894
207	0xbcdb9b0d	-0.026807332
208	0x3c56bb6f	0.013106211
209	0x3c28139c	0.0102585815
210	0x3c632a1b	0.013865019
211	0x3c7d72ad	0.015469235
212	0x3c91b7e5	0.017787883
213	0x3b716ccf	0.0036838537
214	0xbc08781d	-0.0083294185
215	0x3c3347d2	0.010942416
216	0x3c220a8a	0.009890208
217	0x3bcc2fa2	0.006231264
218	0x3ce1f85c	0.027584247
219	0x3c872336	0.016496282
220	0x3b708b1e	0.0036704014
221	0x3c94f159	0.01818149
222	0xbce603cb	-0.02807798
223	0xbc0c1023	-0.008548769
224	0x3bc0a5d3	0.005879143
225	0x3a908403	0.0011025671
226	0x3c0763b5	0.008263518
227	0x3bd2670d	0.006420976
228	0x3c10c1a4	0.00883523
229	0x3c65ad15	0.014018317
230	0x3a56628e	0.0008178138
231	0xbbd94ecf	-0.006631709
232	0xbcbd9c8b	-0.023145935
233	0xb87368e0	-5.8033387e-05
234	0x3c31d62a	0.010854283
235	0x3cc4d398	0.024026677
236	0x3b88de35	0.00417688
237	0x3cb7a76d	0.022418702
238	0x3bfde416	0.007748137
239	0x3c780731	0.015138433
240	0x3be577f8	0.007002827
241	0x3b9a2eca	0.0047052847
242	0x3b4b41d7	0.0031014585
243	0x3c89f55f	0.016840635
244	0x3c58b53e	0.013226805
245	0x3cd8f742	0.02648509
246	0x3c8fad65	0.017538736
247	0xbb7c1e67	-0.003847027
248	0x3bfa02f7	0.007629748
249	0x3be2d8cc	0.006922817
250	0x3b697768	0.003562415
251	0x3c209499	0.009801053
252	0xbc56ed5d	-0.013118115
253	0x3c7c60b1	0.015403912
254	0x3c266ce1	0.010157795
255	0x3c714767	0.014726496

action_model._discrete_distribution.branches.0.weight f4 [4, 256]
0	0xbc0872dd	-0.008328167
1	0x3d0bc798	0.034125894
2	0xbc0e8449	-0.008698531
3	0xbcf9460d	-0.03042891
4	0xbd51ce1c	-0.05122195
5	0xbd11b6ea	-0.03557483
6	0x3c7dae1e	0.015483407
7	0xbd2f15dd	-0.04274546
8	0x3c85ce23	0.016333645
9	0x3c2042cb	0.00978155
10	0xbcfdbecb	-0.030974766
11	0x3d02f6e3	0.03197373
12	0xbc24f77d	-0.010068771
13	0x3aa04df1	0.001223026
14	0x3d1aaa66	0.03776016
15	0x3ceeb34a	0.029138226
16	0x3cde85ba	0.027163375
17	0x3cdfe47c	0.02733063
18	0x3d282ac3	0.041056406
19	0x3d5af0fa	0.05345247
20	0x3c8742e3	0.016511386
21	0xbcd7384f	-0.026271967
22	0xbc40d2f9	-0.01176905
23	0xbc12ab45	-0.008951967
24	0x3cb58fa4	0.02216322
25	0x3cbc2895	0.02296857
26	0xbc3cb74a	-0.011518309
27	0xbccbcc5f	-0.024877725
28	0xbc664ed3	-0.014056879
29	0x3d2ecc98	0.042675585
30	0x3c98b476	0.018640738
31	0xbd18e92c	-0.037331745
32	0x3bfb7a53	0.0076744943
33	0x3d1934f2	0.03740401
34	0xbc566928	-0.013086595
35	0x3c07431e	0.008255748
36	0x3ce8981f	0.02839285
37	0x3d282668	0.041052252
38	0x3bb819a3	0.0056182905
39	0xbc9386e4	-0.018008657
40	0x3d227511	0.039662424
41	0xbd0d3160	-0.034470916
42	0x3c831d09	0.016005056
43	0xbd11d0d1	-0.035599533
44	0x3be8c3ef	0.007103435
45	0x3d8ae31e	0.067816004
46	0x3d80f4de	0.06296705
47	0x3c34e3fd	0.011040685
48	0xbcfc6a08	-0.030812278
49	0x3bb13ada	0.005408627
50	0xbd28eb2f	-0.041239914
51	0xbbc304f6	-0.005951519
52	0x3cc60e9c	0.024176888
53	0xbb2420df	-0.0025044007
54	0xbc9d2143	-0.0191809
55	0xbd18feb9	-0.037352297
56	0xbce80b93	-0.028325832
57	0xbc155d51	-0.009116487
58	0xbc84f5ca	-0.016230483
59	0xbd2d8b42	-0.042369135
60	0xbc8a6636	-0.016894441
61	0x3c0c933f	0.008580028
62	0xbcddcc85	-0.027075062
63	0xbc63b34b	-0.013897727
64	0xbc21d956	-0.009878477
65	0x3c98c36d	0.018647874
66	0x3c037539	0.0080235535
67	0x3ce1554b	0.027506491
68	0x3b342b09	0.0027491471
69	0x3d1fba2a	0.0389959
70	0x3be94f75	0.0071200677
71	0xbcd8657e	-0.026415583
72	0xbd091b80	-0.03347349
73	0x3d3d16a9	0.04616419
74	0x3c20b443	0.009808603
75	0x3c9026b6	0.017596584
76	0x3ca3ece4	0.02001042
77	0x3cb2fd20	0.021849215
78	0xbd0f5cb5	-0.03500052
79	0xbbf87787	-0.007582608
80	0xbc840351	-0.016114863
81	0xbd1548a7	-0.03644624
82	0xbbdce4d3	-0.006741145
83	0x3ca3986c	0.019970141
84	0xbc0b3d4f	-0.008498504
85	0x3c49e1ad	0.012321872
86	0xbc7d1a79	-0.015448206
87	0x3cbdf040	0.02318585
88	0x3d119319	0.035540674
89	0xbd219cda	-0.039456226
90	0xbd143430	-0.036182582
91	0x3c606260	0.013695329
92	0x3c36215d	0.011116353
93	0xbd134d94	-0.035962656
94	0x3c3a7b3e	0.011381922
95	0xbcc38680	-0.023867846
96	0xbd203906	-0.03911688
97	0x3cb55e9c	0.02213984
98	0xbceed07c	-0.029152147
99	0x3c8904fa	0.016726006
100	0xbd06925c	-0.032854423
101	0xbd42fa58	-0.047602028
102	0xbd096e2d	-0.033552337
103	0x3d2256f9	0.039633725
104	0xbb103112	-0.0022001904
105	0x3a409268	0.0007346035
106	0xbce2f4af	-0.027704565
107	0x3d3e398f	0.04644161
108	0xbce0a0ea	-0.02742048
109	0xbd0a73cb	-0.033801835
110	0x3c516bcb	0.0127820475
111	0x3cae7eda	0.021300722
112	0xbc9d4e60	-0.019202411
113	0x3c38c690	0.01127781
114	0xbcfe0b18	-0.03101115
115	0x3b2926c3	0.0025810457
116	0xbc13c88a	-0.00901998
117	0xbb29a1e8	-0.0025883857
118	0xbb51f3a4	-0.003203609
119	0x3cfa27fe	0.030536648
120	0x3d01e65c	0.03171383
121	0xbc91b707	-0.01778747
122	0x3d5639cb	0.05230121
123	0x3c5771c9	0.013149687
124	0x3c8183c4	0.015809901
125	0x3d2c517b	0.042069893
126	0x3baebb6c	0.005332401
127	0xbbdd9fc8	-0.006763432
128	0xbc9d6244	-0.019211896
129	0x3c824a10	0.015904456
130	0xbbb1fd5d	-0.0054318146
131	0xbc299f6f	-0.010352953
132	0xbc4adea1	-0.01238218
133	0xbc830e72	-0.015998099
134	0xbc96b31a	-0.01839595
135	0xbc1f9d4a	-0.0097420905
136	0xbc803769	-0.015651422
137	0x3bf20638	0.0073859952
138	0x3cf39f2d	0.029738987
139	0x3caddf16	0.02122454
140	0xbcd11462	-0.025522415
141	0xbc9aedef	-0.018912284
142	0x3a76f799	0.000942105
143	0xbcfe3578	-0.031031355
144	0xbccc6a4d	-0.024953032
145	0x3cf519f9	0.029919611
146	0x3c0426bd	0.008065877
147	0x3cefc3db	0.029268196
148	0x3d05c333	0.03265686
149	0xbc3e38e6	-0.011610245
150	0xb99e11d3	-0.00030149388
151	0x3d0a7305	0.033801097
152	0xbc7543da	-0.01496979
153	0x3b767fd4	0.0037612813
154	0xbc2b98cf	-0.010473444
155	0x395a65ff	0.00020828097
156	0x3d1b2364	0.037875548
157	0xbcbaec7e	-0.022817846
158	0x3b8273d6	0.003981094
159	0xbcb519b4	-0.022106983
160	0xbc7abf47	-0.015304393
161	0xbce2fb31	-0.027707668
162	0xbd82fc45	-0.06395773
163	0xbbc2052a	-0.0059210258
164	0xbd367d77	-0.044553246
165	0x3c248403	0.01004124
166	0xbd2f2bba	-0.04276631
167	0xbb470a62	-0.003037118
168	0xbccbe7c6	-0.024890792
169	0xbd12b2cd	-0.03581505
170	0x3c44aabc	0.012003597
171	0xbcb98964	-0.02264852
172	0xba9d682e	-0.0012009197
173	0x3cc0c25f	0.023530183
174	0x3aff6822	0.001948599
175	0x3c678959	0.014131867
176	0x3cadb7c1	0.021205785
177	0x3d23a881	0.03995562
178	0xbc6e65ec	-0.014550667
179	0x3c2886f2	0.01028608
180	0xbc2aedb4	-0.010432649
181	0xbb2e6173	-0.0026608377
182	0xbcd2fbaf	-0.025754778
183	0x3d05ec17	0.032695856
184	0x3c44ac79	0.012004011
185	0xbcf5379e	-0.029933747
186	0x3d4c4c2c	0.04987733
187	0xbca0d0c5	-0.0196308
188	0x3bde57f4	0.006785387
189	0xbbcada3b	-0.006190566
190	0xbd15e441	-0.036594633
191	0x3c207717	0.009794018
192	0x3cdbc2be	0.026826259
193	0x3b6392af	0.0034724881
194	0x3bdfca35	0.006829525
195	0xbb3e691a	-0.0029054345
196	0x3d489f8d	0.048980284
197	0x3d24be09	0.040220294
198	0xbc0cd03d	-0.00859457
199	0xbc125e06	-0.00893355
200	0xbd21b382	-0.039477833
201	0xbc839ab5	-0.016064981
202	0x3ca566ee	0.020190682
203	0xbcf4676d	-0.029834474
204	0xbcecffbe	-0.028930541
205	0x3cc5f801	0.024166109
206	0x3c741df8	0.014899723
207	0x3c008fbc	0.007846769
208	0xbc350c00	-0.011050224
209	0x3d883175	0.06650058
210	0xbd34864f	-0.0440734
211	0x3d008a24	0.03138174
212	0x3c93defd	0.018050665
213	0xbd2bb0bd	-0.041916598
214	0xbd13798a	-0.03600458
215	0x3ac15226	0.0014749214
216	0xbc8238f2	-0.015896294
217	0x3d0581ec	0.032594606
218	0xbc6a988e	-0.014318598
219	0x3d436649	0.04770497
220	0x3d57fa6f	0.052729066
221	0x3c9ace58	0.01889722
222	0xbcc24000	-0.023712158
223	0xbbac9eea	-0.0052679675
224	0xbc4b437d	-0.012406227
225	0xbcc70a8d	-0.024297023
226	0x3d626b3a	0.05527804
227	0x3c6aa3ce	0.014321281
228	0x3d1fd48b	0.039021056
229	0xbcbe46af	-0.023227064
230	0xbccdede4	-0.02513785
231	0xbcab12f5	-0.020883063
232	0xbcb8eacd	-0.0225729
233	0x3bc8a8ff	0.0061236615
234	0x3d461f14	0.048369482
235	0x3c0c5226	0.008564508
236	0x3c1eed74	0.009700168
237	0xbd0eedc6	-0.034894727
238	0xbc36e4e9	-0.011162975
239	0xbc89acb7	-0.01680599
240	0xbcd0e139	-0.02549802
241	0xbc83225b	-0.016007593
242	0xbd139607	-0.03603175
243	0xbc023e0b	-0.0079493625
244	0x3cbe986a	0.023266036
245	0xbc4e39e2	-0.0125870425
246	0xbc2568f3	-0.010095823
247	0xbb0de336	-0.002165032
248	0x3d5961c5	0.053071756
249	0x3c938cff	0.018011568
250	0x3d27842b	0.04089753
251	0x3d219291	0.039446417
252	0xbc266103	-0.010154965
253	0x3cd5346c	0.026025973
254	0xbc2c9977	-0.010534636
255	0x3a874087	0.0010318913

action_model._discrete_distribution.branches.0.bias f4 [4]
0	0xb9be0bf0	-0.00036248518
1	0xbb56ba12	-0.0032764715
2	0xbba32880	-0.004979193
3	0x3c0d606e	0.008628948

onnx::Div_62 f4 [202]
0	0x3ebf9e0a	0.37425262
1	0x3e9887af	0.29791018
2	0x3ee9bacd	0.4565033
3	0x3ec62629	0.3870099
4	0x3ee6b5fc	0.45060718
5	0x3ec2097a	0.37897855
6	0x3ee9bacd	0.4565033
7	0x3ec6acab	0.3880361
8	0x3ee6b5fc	0.45060718
9	0x3ec27c3b	0.37985405
10	0x3ee7d0e4	0.45276558
11	0x3ec6fdf6	0.38865632
12	0x3ee3e42c	0.4451002
13	0x3ec2bafa	0.38033277
14	0x3ee8df51	0.45482877
15	0x3ec780e9	0.38965538
16	0x3ee4f638	0.447191
17	0x3ec3424f	0.38136527
18	0x3eea31e0	0.45741177
19	0x3ec7a6c4	0.3899442
20	0x3ee5b2d4	0.44862998
21	0x3ec31e9e	0.38109297
22	0x3eee81d2	0.4658342
23	0x3eca4d08	0.39511895
24	0x3eea2104	0.45728314
25	0x3ec5b1bd	0.38612166
26	0x3eec1975	0.46113172
27	0x3ec9111d	0.3927087
28	0x3ee74415	0.4516913
29	0x3ec4178e	0.3829922
30	0x3eed0678	0.46293998
31	0x3ec92942	0.3928929
32	0x3ee89d73	0.45432624
33	0x3ec421b8	0.38306975
34	0x3eeed631	0.4664779
35	0x3ecc6355	0.39919534
36	0x3eea1358	0.45717883
37	0x3ec7273d	0.38897124
38	0x3eef3a5d	0.46724215
39	0x3ecbf9c0	0.39838982
40	0x3eea769c	0.45793617
41	0x3ec6a5c1	0.38798335
42	0x3ee9b70e	0.45647472
43	0x3ec3180a	0.38104278
44	0x3ee2c928	0.44294095
45	0x3ebc25ab	0.36747488
46	0x3ee48b8f	0.44637725
47	0x3ebf7e0f	0.37400863
48	0x3edc8173	0.43067512
49	0x3eb80b53	0.3594614
50	0x3ee4c0f8	0.44678473
51	0x3ebf78b8	0.3739679
52	0x3edc72c7	0.43056318
53	0x3eb8084c	0.3594383
54	0x3eea27fa	0.45733625
55	0x3ec3472d	0.3814024
56	0x3ee222a4	0.44167054
57	0x3ebbf7f4	0.3671261
58	0x3ef098ce	0.4699158
59	0x3ecd2f85	0.40075317
60	0x3ee700de	0.4511785
61	0x3ec42453	0.38308963
62	0x3ef0793b	0.46967492
63	0x3ecdaf8f	0.40173003
64	0x3ee66671	0.45000032
65	0x3ec47b15	0.38375154
66	0x3eeed227	0.4664471
67	0x3ecad5c1	0.39616206
68	0x3ee42665	0.44560543
69	0x3ec111d5	0.37708917
70	0x3eeddcdd	0.46457568
71	0x3ecacf95	0.39611498
72	0x3ee3096e	0.44343132
73	0x3ec0ef9c	0.37682807
74	0x3ef1344d	0.47110215
75	0x3ecbf290	0.39833498
76	0x3ee5be14	0.4487158
77	0x3ec2cd3e	0.38047212
78	0x3eed44da	0.46341592
79	0x3ec98369	0.3935807
80	0x3ee170f9	0.44031504
81	0x3ec014f4	0.37515986
82	0x3eecdab9	0.46260622
83	0x3ec9dbbf	0.39425465
84	0x3ee0c121	0.43897346
85	0x3ec051fc	0.3756255
86	0x3eec0f67	0.461055
87	0x3ec9858e	0.39359707
88	0x3ee038b7	0.4379327
89	0x3ebffd6f	0.37498042
90	0x3eef643f	0.4675617
91	0x3ec90b2a	0.3926633
92	0x3ee38ee8	0.44444966
93	0x3ebfdd3e	0.37473482
94	0x3eef643f	0.4675617
95	0x3ec88eec	0.3917154
96	0x3ee38ee8	0.44444966
97	0x3ebf62bc	0.37380016
98	0x3ec93ea9	0.39305618
99	0x3e9ee266	0.31032103
100	0x3ebb0df5	0.36534086
101	0x3e93d39b	0.2887238
102	0x3eee5047	0.46545622
103	0x3ec8a293	0.39186534
104	0x3ee63cd9	0.44968298
105	0x3ec20f1c	0.37902153
106	0x3eee5047	0.46545622
107	0x3ec91fab	0.39281973
108	0x3ee63cd9	0.44968298
109	0x3ec290c1	0.38001063
110	0x3eeb5837	0.4596574
111	0x3ec99390	0.39370394
112	0x3ee34d92	0.4439512
113	0x3ec2c864	0.3804351
114	0x3eec7013	0.46179256
115	0x3eca0bb5	0.39462057
116	0x3ee40106	0.4453203
117	0x3ec32dec	0.38120973
118	0x3eecec65	0.46274105
119	0x3ec9c4e2	0.39408022
120	0x3ee4f9d8	0.44721866
121	0x3ec3118c	0.38099325
122	0x3ef080b0	0.4697318
123	0x3ecc0290	0.39845705
124	0x3ee99a4d	0.45625535
125	0x3ec5c003	0.38623056
126	0x3eed8ef0	0.46398115
127	0x3ecabff6	0.3959958
128	0x3ee6815f	0.45020577
129	0x3ec41b28	0.3830197
130	0x3eeedb58	0.4665172
131	0x3ecab35f	0.39589974
132	0x3ee77b7f	0.45211408
133	0x3ec433fc	0.3832091
134	0x3ef0a800	0.47003174
135	0x3ecddbd1	0.4020677
136	0x3ee96d04	0.45590985
137	0x3ec7389b	0.38910374
138	0x3ef0da3d	0.47041503
139	0x3ecd6bd5	0.40121332
140	0x3eea137b	0.45717987
141	0x3ec6dfa8	0.3884251
142	0x3eeb5a66	0.45967406
143	0x3ec3f9a1	0.3827639
144	0x3ee5993a	0.44843465
145	0x3ebea80d	0.37237588
146	0x3ee699d4	0.45039237
147	0x3ec081f9	0.3759916
148	0x3ee00016	0.43750066
149	0x3ebabbd9	0.3647144
150	0x3ee6433c	0.4497317
151	0x3ec09a8e	0.37617916
152	0x3ee049c0	0.43806267
153	0x3ebac442	0.36477858
154	0x3eeb7240	0.45985603
155	0x3ec46e1b	0.38365254
156	0x3ee59b12	0.44844872
157	0x3ebe99a2	0.37226588
158	0x3ef0d1ce	0.47035068
159	0x3ecd5734	0.40105593
160	0x3eec0ad1	0.46102002
161	0x3ec89384	0.39175045
162	0x3ef058aa	0.46942645
163	0x3ecdcec8	0.40196824
164	0x3eebb8db	0.4603947
165	0x3ec91306	0.39272326
166	0x3eef107d	0.46692267
167	0x3ecb125e	0.3966245
168	0x3eea1e70	0.45726347
169	0x3ec61f3f	0.38695714
170	0x3eee06b7	0.46489498
171	0x3ecb0eea	0.39659816
172	0x3ee8d576	0.45475358
173	0x3ec61a09	0.38691738
174	0x3ef067a5	0.46954075
175	0x3ecc0839	0.39850023
176	0x3eeb7463	0.45987234
177	0x3ec773d9	0.38955572
178	0x3eecfa32	0.46284634
179	0x3ec9c0da	0.39404947
180	0x3ee7acce	0.45249027
181	0x3ec4f956	0.38471478
182	0x3eeba17d	0.46021643
183	0x3ec9a35e	0.39382452
184	0x3ee6aaac	0.45052087
185	0x3ec5044c	0.3847984
186	0x3eeab8d6	0.45844144
187	0x3ec93665	0.39299312
188	0x3ee607dc	0.4492787
189	0x3ec496f6	0.38396424
190	0x3eedf4ca	0.46475822
191	0x3ec8c56f	0.3921313
192	0x3ee94596	0.45560902
193	0x3ec454d6	0.38345975
194	0x3eedf4ca	0.46475822
195	0x3ec83b52	0.39107758
196	0x3ee94596	0.45560902
197	0x3ec3db48	0.38253236
198	0x3ec17251	0.3778253
199	0x3e9895bd	0.2980174
200	0x3ec17251	0.3778253
201	0x3e9895bd	0.2980174

onnx::Div_65 f4 [10]
0	0x3b5f65e2	0.0034087826
1	0x3b5f65e2	0.0034087826
2	0x3b5f65e2	0.0034087826
3	0x3b5f65e2	0.0034087826
4	0x3b5f65e2	0.0034087826
5	0x3b5f65e2	0.0034087826
6	0x3b5f65e2	0.0034087826
7	0x3b5f65e2	0.0034087826
8	0x3b5f65e2	0.0034087826
9	0x3b5f65e2	0.0034087826
