results/GameLevelReached9/PlayerBehaviour.onnx (onnx, 490727 bytes, 10 tensors)

network_body.observation_encoder.processors.0.normalizer.running_mean f4 [202]
0	0x3f5d03e7	0.8633408
1	0x3f65f9d6	0.89834344
2	0x3f3f2df3	0.7467949
3	0x3f4bbf9b	0.7958924
4	0x3f40baef	0.7528524
5	0x3f4ca37e	0.7993697
6	0x3f3f2df3	0.7467949
7	0x3f4bab1c	0.7955797
8	0x3f40baef	0.7528524
9	0x3f4c8fb2	0.7990676
10	0x3f43b0a6	0.7644142
11	0x3f4d9549	0.80305916
12	0x3f4561b2	0.77102196
13	0x3f4e9596	0.80697
14	0x3f424ebc	0.7590139
15	0x3f4c95c0	0.79916
16	0x3f44e5ff	0.76913446
17	0x3f4e35a9	0.8055063
18	0x3f41891b	0.7559983
19	0x3f4c1767	0.7972321
20	0x3f446a50	0.7672472
21	0x3f4dfd1f	0.8046436
22	0x3f3e2390	0.74273014
23	0x3f4966cc	0.7867248
24	0x3f3fd12d	0.7492855
25	0x3f4ab71c	0.7918565
26	0x3f3f6a03	0.74771136
27	0x3f4ab9e4	0.79189897
28	0x3f4304d2	0.7617923
29	0x3f4cd3b5	0.8001054
30	0x3f3e179c	0.74254775
31	0x3f4a232b	0.7895991
32	0x3f420d5d	0.7580164
33	0x3f4c58f9	0.7982326
34	0x3f3c94f0	0.7366476
35	0x3f481a02	0.78164685
36	0x3f40ab5a	0.7526146
37	0x3f4aa485	0.79157287
38	0x3f3b4cbd	0.7316397
39	0x3f47a628	0.7798791
40	0x3f4021e2	0.750517
41	0x3f4a9dca	0.79147017
42	0x3f3edb5d	0.7455347
43	0x3f4c6859	0.7984672
44	0x3f4572e9	0.77128464
45	0x3f5030e7	0.8132462
46	0x3f431b1a	0.7621323
47	0x3f4fc214	0.81155515
48	0x3f497efe	0.787094
49	0x3f53997f	0.8265609
50	0x3f434b4e	0.7628678
51	0x3f4fdd6e	0.8119725
52	0x3f498cac	0.78730273
53	0x3f53a777	0.82677406
54	0x3f3f7985	0.747948
55	0x3f4cca6b	0.79996365
56	0x3f469f8b	0.77587193
57	0x3f510bb1	0.81658465
58	0x3f3ac4fb	0.7295682
59	0x3f46c290	0.7764063
60	0x3f4247ca	0.7589079
61	0x3f4c2728	0.7974725
62	0x3f3c5deb	0.7358081
63	0x3f475d2d	0.7787655
64	0x3f42ad24	0.7604544
65	0x3f4c3903	0.7977449
66	0x3f3ead10	0.7448282
67	0x3f49cde2	0.7882978
68	0x3f462218	0.7739577
69	0x3f4f815e	0.81056774
70	0x3f40557b	0.7513043
71	0x3f4a8e30	0.7912321
72	0x3f47335b	0.7781274
73	0x3f500a54	0.8126576
74	0x3f3c70ef	0.73609823
75	0x3f480159	0.78127056
76	0x3f44f042	0.76929104
77	0x3f4e70ca	0.8064085
78	0x3f40031f	0.7500476
79	0x3f4aac20	0.7916889
80	0x3f494d31	0.7863341
81	0x3f5194aa	0.8186747
82	0x3f4147c0	0.75500107
83	0x3f4b5173	0.79421157
84	0x3f4966f3	0.78672713
85	0x3f517789	0.8182302
86	0x3f41b246	0.7566265
87	0x3f4bb1b6	0.7956804
88	0x3f4a5cb9	0.79047734
89	0x3f522d0f	0.82100004
90	0x3f368a77	0.7130503
91	0x3f46c9ec	0.7765186
92	0x3f442fe3	0.7663557
93	0x3f4f5eea	0.810042
94	0x3f368a77	0.7130503
95	0x3f46c910	0.7765055
96	0x3f442fe3	0.7663557
97	0x3f4f69fc	0.81021094
98	0x3f5344fa	0.82527125
99	0x3f60381c	0.87585616
100	0x3f5bdfcf	0.8588838
101	0x3f64bf42	0.89354336
102	0x3f2eac7e	0.6823195
103	0x3f3eec12	0.74578965
104	0x3f33cd50	0.70235157
105	0x3f40a71f	0.75255007
106	0x3f2eac7e	0.6823195
107	0x3f3ed031	0.74536425
108	0x3f33cd50	0.70235157
109	0x3f407709	0.75181633
110	0x3f33777b	0.7010419
111	0x3f40afe0	0.75268364
112	0x3f3543e2	0.70806706
113	0x3f410316	0.75395334
114	0x3f31ac90	0.69403934
115	0x3f3f45bc	0.7471578
116	0x3f336ee4	0.7009108
117	0x3f3fa9f0	0.7486868
118	0x3f2d0792	0.67589676
119	0x3f3c8860	0.7364559
120	0x3f315180	0.69264984
121	0x3f3e3b43	0.74309176
122	0x3f27ebc4	0.65594125
123	0x3f387cc6	0.7206539
124	0x3f2df678	0.67954206
125	0x3f3b61b0	0.73195934
126	0x3f2a2496	0.66462076
127	0x3f3a13b7	0.7268633
128	0x3f30d269	0.6907106
129	0x3f3d6b5d	0.7399195
130	0x3f281505	0.65657073
131	0x3f391cda	0.7230965
132	0x3f2fd5de	0.6868571
133	0x3f3ce4f4	0.73786855
134	0x3f2660a0	0.6499119
135	0x3f36e02a	0.714358
136	0x3f2e3970	0.6805639
137	0x3f3b0778	0.7305827
138	0x3f25073a	0.6446415
139	0x3f365b29	0.7123285
140	0x3f2de1cf	0.6792268
141	0x3f3b0b99	0.7306457
142	0x3f25b693	0.6473171
143	0x3f3ab20c	0.7292793
144	0x3f302a02	0.688141
145	0x3f3ee078	0.7456126
146	0x3f2a9439	0.6663242
147	0x3f3f142f	0.7464017
148	0x3f340603	0.70321673
149	0x3f42a558	0.76033545
150	0x3f2a6798	0.6656432
151	0x3f3f07f3	0.74621505
152	0x3f32ff2f	0.6992063
153	0x3f425b0f	0.75920194
154	0x3f259b14	0.64689755
155	0x3f3b0cde	0.7306651
156	0x3f2ec486	0.6826862
157	0x3f3ee965	0.7457488
158	0x3f254a46	0.6456646
159	0x3f36fe0d	0.714814
160	0x3f2b4c33	0.66913146
161	0x3f39d004	0.7258303
162	0x3f27cb25	0.6554435
163	0x3f382f91	0.7194758
164	0x3f2c2d5f	0.6725673
165	0x3f3a0ebf	0.7267875
166	0x3f2ab4eb	0.6668231
167	0x3f3b7a6a	0.73233664
168	0x3f2e911a	0.6819016
169	0x3f3d70ca	0.7400023
170	0x3f2ccb3e	0.6749762
171	0x3f3c7a5d	0.7362421
172	0x3f305d8a	0.6889273
173	0x3f3e4313	0.743211
174	0x3f2a703b	0.665775
175	0x3f3a9710	0.72886753
176	0x3f2ed5c3	0.68294924
177	0x3f3cf3f5	0.7380975
178	0x3f2dd0a8	0.6789651
179	0x3f3d9ba4	0.74065614
180	0x3f333cf8	0.70014906
181	0x3f407a45	0.7518657
182	0x3f2fff17	0.6874861
183	0x3f3ec050	0.74512196
184	0x3f34bc2c	0.7059963
185	0x3f413335	0.7546876
186	0x3f3148f6	0.69251955
187	0x3f3fd874	0.74939656
188	0x3f358c2f	0.7091703
189	0x3f41f566	0.75765073
190	0x3f2a6e90	0.66574955
191	0x3f3d081a	0.73840487
192	0x3f2fdcc9	0.68696266
193	0x3f3fa421	0.74859816
194	0x3f2a6e90	0.66574955
195	0x3f3d192e	0.73866546
196	0x3f2fdcc9	0.68696266
197	0x3f3fb8d3	0.74891394
198	0x3f50fe7d	0.8163832
199	0x3f5eb3ac	0.8699291
200	0x3f50fe7d	0.8163832
201	0x3f5eb3ac	0.8699291

network_body.observation_encoder.processors.1.normalizer.running_mean f4 [10]
0	0x00000000	0.0
1	0x00000000	0.0
2	0x00000000	0.0
3	0x00000000	0.0
4	0x00000000	0.0
5	0x00000000	0.0
6	0x00000000	0.0
7	0x00000000	0.0
8	0x00000000	0.0
9	0x00000000	0.0

network_body._body_endoder.seq_layers.0.weight f4 [256, 212]
0	0x3df2f2b0	0.11862695
1	0x3dd2aefa	0.102872804
2	0xbd0a5522	-0.033772595
3	0xbb8283a2	-0.003982977
4	0xbcb2d3a1	-0.021829428
5	0x3daae289	0.083439894
6	0xbd2c1e70	-0.042021215
7	0xbd8441e8	-0.06457883
8	0xbd885767	-0.06657296
9	0xbd95d8a7	-0.07316714
10	0x3e06c9b0	0.13162875
11	0x3d5683de	0.052371852
12	0xbd896ef3	-0.06710615
13	0x3dabbce1	0.08385635
14	0xbd7ad65d	-0.06123959
15	0xbd543cf2	-0.051815934
16	0xbd862302	-0.06549646
17	0xbdf4a848	-0.119461596
18	0x3d36b7ad	0.04460876
19	0x3d0e87ee	0.0347976
20	0x3d6bda39	0.05758116
21	0x3c7f18cf	0.01556988
22	0x3cbd3368	0.023095801
23	0x3dbfdf2a	0.09368737
24	0xbc8fb061	-0.017540159
25	0x3c8d3ed2	0.01724187
26	0x3ddd22bb	0.1079764
27	0xbd546b3b	-0.051860075
28	0x3d147739	0.036246512
29	0xbd160fa2	-0.036636002
30	0xbd931288	-0.07181269
31	0x3e30e29e	0.17273948
32	0x3cb65bbc	0.02226054
33	0xbd9f3f19	-0.07775707
34	0x3c3c6db4	0.011500765
35	0x3e49cd43	0.19707207
36	0x3d117c2a	0.035518803
37	0x3d8510a7	0.06497317
38	0xbdc897a4	-0.09794548
39	0x3d5249d0	0.051339924
40	0x3da56b15	0.08077065
41	0x3cf5c188	0.02999951
42	0x3cf36142	0.029709462
43	0xbdd1699c	-0.102252215
44	0x3e03c1cc	0.12866896
45	0x3d3af3f7	0.04564282
46	0x3d90ccc1	0.07070304
47	0xbceebc94	-0.029142655
48	0xbc3258b7	-0.010885409
49	0x3dd5d593	0.10441127
50	0xbdae4e4e	-0.08511029
51	0x3c9b6570	0.018969268
52	0x3ce8bc0d	0.028409982
53	0x3e046a78	0.1293124
54	0x3cc29d2e	0.02375659
55	0x3dbe0bed	0.092796184
56	0xbd5ed6d0	-0.05440408
57	0xbd1bcdbd	-0.038038004
58	0x3ca4c5d9	0.020113872
59	0xbce96f8f	-0.028495578
60	0xbcd2f6aa	-0.025752384
61	0xbd49692f	-0.049172577
62	0x3c6dd984	0.014517192
63	0x3d010028	0.03149429
64	0xbd0e902e	-0.03480547
65	0xbc75a54c	-0.014993023
66	0x3c115a7e	0.008871673
67	0x3b07d6c9	0.0020727387
68	0xbe3520ba	-0.17688265
69	0xbdda5ad5	-0.10661856
70	0xbdaf0133	-0.085451506
71	0xbd64cbd5	-0.055858452
72	0x3db6c5ac	0.08924422
73	0x3d87043f	0.06592607
74	0x3c32f563	0.010922763
75	0x3da15b0e	0.078786954
76	0xba7769b7	-0.0009438055
77	0xbd1c5015	-0.03816231
78	0x3d46d03f	0.048538443
79	0x3d485ea8	0.048918396
80	0xbc3564ac	-0.011071365
81	0xbd53d5e8	-0.05171767
82	0xbcc6e139	-0.024277316
83	0xba87bc3a	-0.0010355779
84	0x3d778053	0.060425114
85	0xbdb4209d	-0.08795283
86	0xbc9a8f62	-0.018867198
87	0x3e137514	0.1440013
88	0x3de6e5ad	0.11274276
89	0x3e0b3642	0.13594916
90	0x3e2ae8f3	0.16690426
91	0x3d4c645d	0.0499004
92	0x3ceb3aa3	0.028714484
93	0xbd0845cf	-0.0332697
94	0x3dc441b8	0.09582847
95	0x3e515a71	0.20444657
96	0xbd2ccc11	-0.0421868
97	0x3db27567	0.08713799
98	0x3db3a4f1	0.087716945
99	0x3d065507	0.032795932
100	0xbdca32c0	-0.09872961
101	0xbd0db9a7	-0.03460088
102	0xbdbda051	-0.092590936
103	0xbd9afa26	-0.07567243
104	0xbb2ac19d	-0.0026055344
105	0x3d5c8210	0.053834975
106	0xbd5e9120	-0.05433762
107	0xbe02934c	-0.12751502
108	0xbcd8dd2b	-0.026472649
109	0x3d0e247c	0.034702763
110	0xbdeccbbb	-0.11562296
111	0x3e1b7de6	0.15184745
112	0x3e0f5d4f	0.14000438
113	0x3d80a9a2	0.06282355
114	0xbd910eb2	-0.07082881
115	0xbd81f5a7	-0.063456826
116	0x3cf3ea74	0.029774882
117	0xbc832c32	-0.016012285
118	0xbc4e1d1d	-0.012580183
119	0x3d42c04d	0.047546674
120	0x3d50eabe	0.051005118
121	0x3cd16597	0.025561137
122	0xbe11024f	-0.14161037
123	0xbe123611	-0.14278437
124	0xbd8be41a	-0.06830616
125	0xbdf6d52d	-0.12052379
126	0xbdad1b54	-0.08452478
127	0x3d428380	0.04748869
128	0x3d9abeed	0.075559475
129	0x3e019b7b	0.12656967
130	0xbd528e00	-0.051404953
131	0xbc3ad0cc	-0.01140232
132	0x3d24ac2b	0.040203255
133	0xbcc6755d	-0.024225885
134	0x3e071172	0.13190249
135	0xbc948d06	-0.018133651
136	0xbd8e4268	-0.0694626
137	0x3d0a6207	0.033784892
138	0x3de566d5	0.11201254
139	0x3dc85b2c	0.09783015
140	0x3d7a880e	0.061164908
141	0x3d427aae	0.047480278
142	0x3d6db536	0.058034144
143	0x3e0da08f	0.1383078
144	0x3da71f90	0.08160317
145	0x3e1d7aed	0.15378924
146	0x3cc98fcf	0.024604706
147	0x3d04d629	0.0324308
148	0x3d0984d1	0.03357393
149	0x3b191303	0.002335728
150	0x3d778b94	0.060435846
151	0xbc9f072f	-0.019412605
152	0x3c796892	0.015222685
153	0xbd3cb166	-0.046067618
154	0x3d851f3d	0.06500099
155	0x3ce36d3b	0.027762046
156	0x3ca8566e	0.020549025
157	0xbd17adf9	-0.037031148
158	0x3d196f7a	0.037459828
159	0x3df3cb67	0.1190403
160	0xbc912aa4	-0.017720528
161	0xbca59853	-0.020214235
162	0x3df3300f	0.11874401
163	0x3e0114f0	0.12605643
164	0xbdc2316d	-0.094820835
165	0x3ddc1c2c	0.10747561
166	0x3e092c7d	0.13395877
167	0x3cc21087	0.023689521
168	0x3c8d6284	0.01725889
169	0x3d2a7b7a	0.041621663
170	0x3d88af29	0.06674034
171	0x3dbaeb9b	0.091269694
172	0xbc485cfd	-0.012229201
173	0x3d007b0c	0.031367347
174	0xbb9f89f7	-0.0048687416
175	0xbca505b0	-0.020144314
176	0xbcdd1c3c	-0.026991002
177	0x3e0101b1	0.12598301
178	0xbe011067	-0.12603913
179	0x3d1bc063	0.03802527
180	0x3d5fef24	0.05467142
181	0x3caf376c	0.021388732
182	0x3d6eb348	0.058276445
183	0x3de844e0	0.11341262
184	0xbd1bc931	-0.038033668
185	0x3d5dbf32	0.054137416
186	0xbd6572c4	-0.056017652
187	0xbdb7e187	-0.08978563
188	0xbc4ee389	-0.012627491
189	0xbda9133f	-0.08255624
190	0x3db5d4c4	0.088784724
191	0x3ce4bf7d	0.02792334
192	0xbcf95a6d	-0.030438626
193	0xbdb6314c	-0.088961214
194	0x3c9a5212	0.018837962
195	0x3dafb638	0.08579677
196	0xbd84f48c	-0.06491956
197	0xbb946b84	-0.0045294184
198	0x3d396cc4	0.045269743
199	0x3c746278	0.014916055
200	0x3db83c8f	0.08995926
201	0x3e22daf8	0.15903842
202	0xbd1c038c	-0.03808932
203	0x3dc17dac	0.09447798
204	0xbc672f72	-0.014110433
205	0xbd233d43	-0.039853346
206	0xbd11a803	-0.03556062
207	0x3db57826	0.08860807
208	0xbd105ce0	-0.035244823
209	0x3dba3927	0.09092932
210	0xbd740795	-0.059577543
211	0x3dd6f53e	0.10495995
212	0x3dd39829	0.103317566
213	0xbc11ee3e	-0.008906899
214	0xbd3108fe	-0.043221466
215	0x3e42323e	0.18964478
216	0xbd8ccd51	-0.068750985
217	0xb8e81d80	-0.00011068117
218	0x3e3110df	0.17291592
219	0x3d9995d6	0.07499282
220	0xbe1df5a8	-0.15425742
221	0x3d2ff221	0.04295552
222	0x3c1bbc64	0.009505365
223	0x3dcb4e78	0.09927076
224	0x3d024c0a	0.031810798
225	0x3bc879c8	0.006118033
226	0x3d4c1d2b	0.049832504
227	0x3d0206df	0.031744834
228	0x3d9010f4	0.070344836
229	0xbd08b16a	-0.03337232
230	0x3c5701b0	0.013122961
231	0x3d24194f	0.0400632
232	0x3ca5c88f	0.020237235
233	0xbe0f3bdb	-0.13987677
234	0xbd873d96	-0.066035435
235	0x3d92739c	0.07150957
236	0xbd5fa66f	-0.054602083
237	0xbd8b3259	-0.067967124
238	0xbdb9dbb8	-0.09075111
239	0x3ceb2ffd	0.028709406
240	0xbd9b055a	-0.0756938
241	0xbdb6d473	-0.0892724
242	0x3d126674	0.03574224
243	0xbdb3c770	-0.08778274
244	0xbcde7d3e	-0.02715933
245	0xbd601de3	-0.054716002
246	0xbd33bbc4	-0.04388024
247	0x3688f820	4.0820014e-06
248	0xbc001952	-0.007818537
249	0xbccd5d18	-0.025068805
250	0xbe0220eb	-0.1270787
251	0xbdc17bbf	-0.09447431
252	0xbd19fe97	-0.03759631
253	0x3c853453	0.016260302
254	0xbd052cd5	-0.03251346
255	0xbe3f8953	-0.18704729

network_body._body_endoder.seq_layers.0.bias f4 [256]
0	0xbcc21103	-0.023689752
1	0xbd375ad2	-0.044764347
2	0x3d2b7a58	0.041864723
3	0xbccf3807	-0.02529527
4	0x3c848520	0.01617676
5	0x3a0e0b2d	0.00054185354
6	0x3b2bc6c2	0.0026210998
7	0xbd5474c0	-0.051869154
8	0xbc2a7940	-0.010404885
9	0x3bba8191	0.005691715
10	0xbb44c28d	-0.0030023188
11	0xbc737f1a	-0.014861846
12	0xbd66bb0a	-0.056330718
13	0xbde0e4df	-0.10981154
14	0xbce6f82d	-0.028194511
15	0xbd5da5f3	-0.05411334
16	0xbc98a64f	-0.01863399
17	0xbcbbfd2a	-0.022947866
18	0xbc479ce9	-0.012183406
19	0xbc8e168f	-0.017344741
20	0xbdacd28c	-0.08438596
21	0xbc20350f	-0.009778275
22	0xbd11d575	-0.03560396
23	0xbda2b308	-0.07944304
24	0xbd7ef554	-0.062245682
25	0xbcd8ec7d	-0.026479954
26	0xbd357dd4	-0.044309452
27	0xbc43fbc4	-0.011961881
28	0xbcba8bfd	-0.02277183
29	0xbd516d1b	-0.05112944
30	0xbd9ec6c4	-0.07752755
31	0x3cdc4e34	0.026892759
32	0xbcbf1891	-0.023327144
33	0xbc861d6d	-0.016371453
34	0xbcf47d04	-0.029844768
35	0xbda3cd0d	-0.07998095
36	0x3cb389e4	0.021916337
37	0x3bc60696	0.0060432656
38	0x3aeb10f2	0.0017934127
39	0xbbffde5a	-0.007808489
40	0xbd91f8c7	-0.07127529
41	0xbd6c0067	-0.05761757
42	0xbc8d519d	-0.01725083
43	0x3cd8f4a2	0.026483838
44	0xbd90d1d5	-0.07071272
45	0x3c5ee008	0.013603218
46	0x3cc5037a	0.02404951
47	0xbdc7eabf	-0.09761571
48	0x3b8f266d	0.0043685944
49	0xbd90aec4	-0.07064584
50	0xbd1d4371	-0.038394395
51	0xbd2913e0	-0.04127872
52	0xbcea5507	-0.028604997
53	0xbd471ad9	-0.04860959
54	0xbc5cdc95	-0.013480325
55	0xbb75f67b	-0.0037530947
56	0xbd28f0cc	-0.041245267
57	0xbba88201	-0.005142451
58	0x3d0c4111	0.03424174
59	0x3d0a2cc0	0.033734083
60	0x3bbdb397	0.005789231
61	0x3bd988fc	0.0066386443
62	0x3c953280	0.018212557
63	0xbd75b8d5	-0.059990723
64	0x3bcc0114	0.0062257145
65	0x3c9f2888	0.019428506
66	0xbd5442b2	-0.051821418
67	0xbd1a9ec5	-0.03774907
68	0x3c8de620	0.017321646
69	0xbc821b40	-0.015882134
70	0xbd6551fa	-0.055986382
71	0xbd52a8d0	-0.051430523
72	0xbcc41299	-0.02393465
73	0xbd91336f	-0.07089888
74	0xbd709a14	-0.05874069
75	0xbc019603	-0.007909301
76	0xbc775057	-0.015094838
77	0x3c1da916	0.009622833
78	0xbcbc4940	-0.022984147
79	0x3d13a5fb	0.036046963
80	0xbd51a7cc	-0.051185414
81	0x3c5c57e4	0.013448689
82	0xbd573529	-0.05254093
83	0xbd3c9f0c	-0.046050116
84	0xbd4d5d45	-0.050137777
85	0xbd13182f	-0.035911735
86	0xbd2050a0	-0.03913939
87	0xbcdc97e4	-0.026927896
88	0xbac9e276	-0.0015402574
89	0xbbd8d988	-0.0066177286
90	0xbd3633a5	-0.044482846
91	0xbd6a2557	-0.057164516
92	0xbb8096e9	-0.00392424
93	0x3c1ffe07	0.009765155
94	0xbd35b6ff	-0.04436397
95	0x3cac93d8	0.021066591
96	0xbd029fab	-0.031890552
97	0xbd88df07	-0.06683164
98	0xbcb464a9	-0.022020655
99	0x3ce97127	0.028496338
100	0xbd747f33	-0.05969162
101	0x3cb5916e	0.022164073
102	0x3c136440	0.008996069
103	0x3bf84858	0.0075769834
104	0x3b8b29ac	0.004246911
105	0x3cb48ddf	0.022040306
106	0x3b52eeaf	0.0032185724
107	0x3beb1bad	0.00717493
108	0xbc5d128c	-0.013493191
109	0xbd89f495	-0.067361034
110	0x3c3071a9	0.010769286
111	0x3bb6bdc8	0.005576823
112	0x3c21bbf7	0.0098714745
113	0xbc9a8383	-0.018861538
114	0xbcaf694a	-0.02141251
115	0x3c6c8822	0.0144367535
116	0x3cbd36ea	0.023097474
117	0xbd1ef351	-0.038806263
118	0xbc40adec	-0.011760216
119	0xbcc0df30	-0.023543924
120	0xbd04c370	-0.032412946
121	0xbcbb8d75	-0.0228946
122	0xbd1eac4e	-0.03873854
123	0x3d3c40d8	0.045960277
124	0xbc5dbf06	-0.013534313
125	0xbc95ad74	-0.018271185
126	0x3d3c1b63	0.045924556
127	0xbca76b9c	-0.020437054
128	0xbc520c7c	-0.012820359
129	0x3b9910e3	0.0046712025
130	0x3bd238ba	0.0064154537
131	0xbc81a359	-0.01582496
132	0xbda03e3a	-0.07824369
133	0xbc444144	-0.011978451
134	0xbc4bd9f7	-0.012442104
135	0x3b86713d	0.0041028545
136	0xbcc853c9	-0.024454014
137	0xbb926900	-0.0044680834
138	0xbd6d56f4	-0.057944253
139	0x3c25ee15	0.010127564
140	0xbb5405cc	-0.0032352088
141	0xbd569639	-0.052389357
142	0xbd958858	-0.07301396
143	0xbd3a777b	-0.0455241
144	0x3bf1d74c	0.0073804017
145	0xbc07cb78	-0.008288257
146	0xbd2b7aa8	-0.04186502
147	0xbc8da7a4	-0.017291851
148	0x3cbde60e	0.023180988
149	0x3c0db748	0.008649655
150	0xbd127897	-0.035759535
151	0xbd1052b5	-0.035235126
152	0xbba6b558	-0.005087536
153	0xbd21f15f	-0.03953683
154	0xbda46a4c	-0.08028087
155	0x3cff318c	0.031151555
156	0xbd36b186	-0.044602893
157	0xbc0cc40c	-0.008591663
158	0xbb899834	-0.004199052
159	0xbcbb6c46	-0.022878777
160	0xbd27f116	-0.0410014
161	0x3adf5fa8	0.0017042058
162	0xba76a423	-0.00094086136
163	0xbc16274b	-0.009164642
164	0xbcdc9d26	-0.026930403
165	0x3bd99cc0	0.0066410005
166	0x3b0a8f0c	0.0021142391
167	0x3c50c8ea	0.012743214
168	0x3c1e26c2	0.009652795
169	0xbcb05ecb	-0.021529576
170	0x37399121	1.106065e-05
171	0xbc6e7324	-0.014553819
172	0xbd1238d9	-0.035698745
173	0xbd5242cf	-0.051333245
174	0x3ac6add3	0.0015158005
175	0xbc148b54	-0.009066422
176	0xbcde892b	-0.027165016
177	0xbceacfed	-0.0286636
178	0xbd24786c	-0.040153906
179	0xbbe5900d	-0.0070056976
180	0xbd4ed5b1	-0.05049676
181	0xba1d5773	-0.00060021057
182	0x3bc74fe5	0.006082522
183	0x3b279edc	0.0025576865
184	0xbadeb7cc	-0.0016992032
185	0xbd97fd21	-0.074213274
186	0xbbdb5ede	-0.0066946587
187	0xbd990106	-0.07470898
188	0x3c804017	0.01565556
189	0xbd473acb	-0.048640054
190	0x3be6b670	0.007040791
191	0xbd0788ad	-0.03308933
192	0xbc1dd45b	-0.009633149
193	0xbcc40ed9	-0.023932861
194	0xbb90d527	-0.004419941
195	0xbd9810c2	-0.07425071
196	0xbd89837e	-0.06714533
197	0x3c62153e	0.01379901
198	0x3bfd2ea5	0.0077265077
199	0xbdbe98f1	-0.09306515
200	0xbc045386	-0.008076554
201	0x3bd8eab3	0.006619775
202	0xbc3fd031	-0.011707352
203	0x3ccb3da1	0.02480966
204	0xbb84ebf9	-0.0040564504
205	0xbc9e8102	-0.019348625
206	0xbd077d76	-0.033078633
207	0x3d161abb	0.036646586
208	0xbc5d25a0	-0.01349774
209	0x3ceedd38	0.02915822
210	0x3ca1b14f	0.019737868
211	0xbcb2f24f	-0.021844057
212	0x3b06017a	0.0020447657
213	0xbbd32b46	-0.0064443676
214	0xbd0578b6	-0.032585822
215	0xbbbe9f1d	-0.0058173076
216	0x3baff4f6	0.005369778
217	0x3bb2cb33	0.005456352
218	0xbcd5b934	-0.026089288
219	0xbd569cd4	-0.052395657
220	0xbd0cf5cb	-0.034414094
221	0x3b0470b2	0.0020208773
222	0xbc32ccdd	-0.010913101
223	0xbd14d9e8	-0.036340624
224	0x3cf6ff2c	0.030150972
225	0xbc3d9a19	-0.011572384
226	0xbca98ec6	-0.020697962
227	0xbd4a1f74	-0.049346402
228	0x3a1d8f36	0.0006010415
229	0xbd939513	-0.07206168
230	0xbd235bac	-0.039882347
231	0x3bd11688	0.0063808598
232	0xbd11068c	-0.035406634
233	0xbd0d31db	-0.034471374
234	0xbc01edc4	-0.007930223
235	0x3d095c6f	0.033535417
236	0xbb87b285	-0.0041411542
237	0xbc43e3e2	-0.011956187
238	0xbc4a2768	-0.012338497
239	0xbcf07c40	-0.029356122
240	0xbddbd1f8	-0.10733408
241	0x3c7f50ce	0.01558323
242	0xbd1df210	-0.038560927
243	0xbca772f6	-0.02044056
244	0xbdb0ad84	-0.086268455
245	0x3d053931	0.032525245
246	0xbc1aa73d	-0.009439287
247	0xbb6941be	-0.0035592164
248	0x3c5307a8	0.012880243
249	0xbd8c8555	-0.068613686
250	0xbcbf61ee	-0.023362126
251	0xbb9e4d02	-0.0048309574
252	0x3c9db788	0.019252554
253	0x3a46a5da	0.00075778144
254	0xbc7ef9ba	-0.015562469
255	0x3cbc1d54	0.022963203

network_body._body_endoder.seq_layers.2.weight f4 [256, 256]
0	0xbc0bd7d1	-0.008535341
1	0xbd073da2	-0.033017762
2	0x3dbd3ee1	0.09240509
3	0xbcf2950b	-0.029612085
4	0xbd923d27	-0.0714057
5	0x3b1a32b5	0.002352876
6	0x3e19fb63	0.15037303
7	0xbc9a1f85	-0.018813858
8	0xbe005764	-0.12533337
9	0x3c714940	0.014726937
10	0xbc42f3e5	-0.011898969
11	0xbd4a8f8d	-0.049453307
12	0x3d41d125	0.047318596
13	0x3d7240d2	0.05914385
14	0x3e0fb520	0.14033937
15	0xbd71cb46	-0.059031747
16	0x3dab78d9	0.08372659
17	0x3e01bba2	0.12669232
18	0x3b9864f0	0.0046507046
19	0x3ce182f4	0.027528264
20	0x3d171661	0.036886577
21	0xbdd23a74	-0.10265055
22	0x3da46f7a	0.08029075
23	0xbe25ba8a	-0.1618444
24	0xbdb63bc3	-0.088981174
25	0xbdfd5ec4	-0.12371591
26	0x3db7a891	0.08967698
27	0xba287dc4	-0.0006427432
28	0xbe07a11a	-0.13245049
29	0xbd5439a3	-0.05181278
30	0x3db37e02	0.087642685
31	0xbd1425d1	-0.036168877
32	0xbaf1037b	-0.0018387878
33	0xbc8cbce8	-0.017179921
34	0xbe1f8a7a	-0.15580168
35	0x3d6fe699	0.058569524
36	0xbb88993a	-0.0041686567
37	0xbd85ff0a	-0.065427855
38	0xbdc2943f	-0.09500932
39	0x3d9271df	0.071506254
40	0x3d424e5f	0.04743802
41	0xbce77eed	-0.028258765
42	0xbd3612c3	-0.044451486
43	0xbd705a27	-0.058679726
44	0xbc21a0a0	-0.009864956
45	0xba8d21f4	-0.0010767565
46	0x3ddcea85	0.107869186
47	0xbcf0551a	-0.029337455
48	0x3c7996ec	0.0152337365
49	0xbb645cae	-0.003484528
50	0xbd9fda54	-0.07805315
51	0x3e407f1c	0.18798488
52	0x3d6fa965	0.058511157
53	0x3dcdace5	0.10042743
54	0xbc6b04ea	-0.014344433
55	0x3e0e2fa0	0.13885355
56	0x3e10e9eb	0.14151733
57	0xbc06dac0	-0.008230865
58	0x3c8bdfd8	0.01707451
59	0xbe423e5b	-0.18969099
60	0xbd2361a5	-0.039888043
61	0x3c217391	0.009854213
62	0xbd9b915d	-0.07596085
63	0xbd0e56f1	-0.034750883
64	0x3d22bded	0.03973191
65	0x3d2eb9f1	0.042657796
66	0xbcd68e02	-0.026190761
67	0x3d8be0f5	0.068300165
68	0x3e00e19e	0.12586066
69	0xbd4253c3	-0.047443163
70	0xbc98983a	-0.018627275
71	0xbdd6fba7	-0.104972176
72	0xbd7d5cb3	-0.061855983
73	0x3bdd6595	0.0067564943
74	0xbdeeda88	-0.11662775
75	0xbce029c6	-0.02736367
76	0xbd61f1a6	-0.055162095
77	0x3bf6d356	0.0075325174
78	0xbcbedb17	-0.02329783
79	0xbb8406fd	-0.0040291534
80	0x3d6ddbce	0.05807095
81	0xbd6bc822	-0.05756391
82	0xbe02b775	-0.12765296
83	0xbe0ac115	-0.13550217
84	0xbd8775d3	-0.0661427
85	0xbe1029bf	-0.14078425
86	0xbd19f0ba	-0.03758309
87	0x3c8b0465	0.016969869
88	0xbd8bf484	-0.06833747
89	0x3dd8850f	0.10572254
90	0xba846232	-0.0010100065
91	0x3c433d42	0.0119164605
92	0xbd126ec2	-0.035750158
93	0x3dd8b96d	0.10582242
94	0xbd7de8f5	-0.061989743
95	0x3df00e00	0.1172142
96	0xbc7044d1	-0.014664845
97	0xbe0c9a24	-0.13730675
98	0xbc8dadd3	-0.0172948
99	0x3d1aef2c	0.03782575
100	0xbd8b93d7	-0.068153076
101	0x3da51ecf	0.08062517
102	0x3d59b983	0.053155433
103	0x3d9dd000	0.077056885
104	0xbb64bd5f	-0.0034902913
105	0xbdb6136f	-0.088904254
106	0x3bc1b4c9	0.005911444
107	0x3db6c23d	0.08923767
108	0x3da1c434	0.07898751
109	0x3b19c1a8	0.0023461375
110	0x3b81159f	0.003939345
111	0xbddd39c5	-0.10802034
112	0x3d542338	0.0517914
113	0xbe46bc04	-0.1940766
114	0x3dbd04bb	0.09229418
115	0xbcc01ed2	-0.023452196
116	0xbc319ec3	-0.010841074
117	0xbc0956ca	-0.0083825085
118	0x3ca7c51d	0.020479733
119	0x3cdc432c	0.026887499
120	0x3d477266	0.048693083
121	0x3e235a76	0.15952477
122	0x3ca12732	0.01967201
123	0x3d9332a0	0.0718739
124	0xbe01aa64	-0.12662655
125	0x3ce04240	0.02737534
126	0x3de97c37	0.11400645
127	0x3de0c63a	0.10975309
128	0x3cb16a83	0.021657234
129	0x3e144771	0.14480378
130	0xbd6c2c41	-0.05765939
131	0x3cc78151	0.024353655
132	0xbcc93eda	-0.024566103
133	0x3d4c363f	0.04985642
134	0xbd9c38c3	-0.07628014
135	0xbe208e2b	-0.15679233
136	0xbbe1b9bb	-0.006888596
137	0x3d783088	0.060593158
138	0x3c9140e7	0.017731143
139	0xbd5f2bb1	-0.054485027
140	0x3d4ba4af	0.0497176
141	0x3e00cceb	0.1257817
142	0x3d02c685	0.031927604
143	0x3d3286b2	0.043585487
144	0xbd71880e	-0.058967642
145	0xbc6332a8	-0.013867058
146	0xbd298dcd	-0.041394997
147	0x3d6ae208	0.057344466
148	0x3d1ca469	0.03824273
149	0x3d8cb94c	0.0687128
150	0xbe074374	-0.13209325
151	0xbd1d9d9b	-0.038480382
152	0xbd86f924	-0.065904886
153	0xbe2c0e4c	-0.16802329
154	0x3ab82264	0.0014048335
155	0xbcb8ff94	-0.022582807
156	0xbc381ec4	-0.011237804
157	0x3c0a0d40	0.008426011
158	0x3dd39dd1	0.103328355
159	0x3ce2003f	0.027588008
160	0xbe035b1b	-0.12827723
161	0xbcf75935	-0.030193904
162	0x3d9d22fe	0.0767269
163	0x3dab26ca	0.08357008
164	0xbdee56dd	-0.116376616
165	0xbe21f896	-0.15817484
166	0xbc8b3649	-0.016993659
167	0xbc7bf65f	-0.015378564
168	0x3dbe2bc0	0.092856884
169	0x3a0ffd7e	0.00054927904
170	0x3e066610	0.13124871
171	0x3c200b8e	0.00976838
172	0x3d934dba	0.071925595
173	0xbd6293ed	-0.055316854
174	0x3e0e4e5f	0.13897084
175	0x3e20995a	0.15683499
176	0xbd6d3fa0	-0.057922006
177	0xbe17f514	-0.14839584
178	0x3dc0d445	0.09415487
179	0xbd85d4af	-0.06534707
180	0x3c6dd8ff	0.014517068
181	0xbd677814	-0.056511
182	0x3c52f20a	0.012875089
183	0xbda92323	-0.08258655
184	0x3c9e8293	0.019349372
185	0x3d795fae	0.060882263
186	0xbdc3d5a0	-0.0956223
187	0x3d803d4c	0.062616915
188	0xbd8692a7	-0.065709405
189	0x3d4ba6df	0.049719688
190	0xbc220dbb	-0.009890969
191	0x3d51e72b	0.05124585
192	0xbd77283e	-0.060341112
193	0xbda8e16d	-0.082461216
194	0x3be6511a	0.007028711
195	0xbe8327ea	-0.2561639
196	0x3c50bb64	0.01273999
197	0xbd73ede6	-0.05955305
198	0x3d13dc0d	0.03609853
199	0xbd11918a	-0.035539187
200	0xbda00b30	-0.07814634
201	0xbc875fd0	-0.01652518
202	0x3d8493af	0.06473481
203	0xbcec53f2	-0.028848622
204	0xbd9654ca	-0.07340391
205	0xbd6d7007	-0.057968166
206	0x3db2128f	0.08694946
207	0x3d33e1a2	0.043916352
208	0x3be1097d	0.006867586
209	0x3d761f39	0.06008837
210	0xbd980f02	-0.074247375
211	0xbbce5c78	-0.006297644
212	0x3d10fcea	0.035397448
213	0xbda3bccc	-0.079949945
214	0x3da42078	0.080140054
215	0xbc9c7009	-0.019096391
216	0xbe0186bd	-0.12649055
217	0x3de6b86b	0.11265644
218	0xbc8fb7ac	-0.017543636
219	0xbdc39048	-0.09549004
220	0x3d26a6fe	0.0406866
221	0xbd513c29	-0.051082764
222	0xbcf7e68f	-0.030261306
223	0xbc8c00e4	-0.017090268
224	0x3ce40528	0.02783449
225	0xbbc7be20	-0.0060956627
226	0xbcb76484	-0.022386797
227	0xbd1d7bfa	-0.03844831
228	0xbe289a84	-0.16465193
229	0xbc186fe1	-0.009304018
230	0x3da5ec73	0.0810174
231	0xbd8ba4af	-0.0681852
232	0xbc5b47be	-0.013383804
233	0xbd339e61	-0.043852214
234	0x3d112f38	0.035445422
235	0xbc6a21fa	-0.014290327
236	0x3df42013	0.1192018
237	0xbe2e0232	-0.16993025
238	0x3d34df28	0.04415813
239	0x3a2a862d	0.0006504979
240	0xbe2e121f	-0.169991
241	0xbcc3b703	-0.023890978
242	0x3d3fe195	0.04684599
243	0xbd796bd9	-0.060893867
244	0xbd02dfef	-0.03195184
245	0x3e05b711	0.13058116
246	0x3bfe150a	0.007753973
247	0x3c7264ea	0.014794568
248	0x3d46fd16	0.048581205
249	0xbd606f60	-0.054793715
250	0xbd50060f	-0.050787028
251	0x3d4a4f5e	0.049392097
252	0xbddd7adf	-0.108144514
253	0x3d564b5d	0.052317966
254	0xbd325ae7	-0.043543722
255	0xbaa8a34a	-0.0012866047

network_body._body_endoder.seq_layers.2.bias f4 [256]
0	0x3b1f70b7	0.0024328658
1	0x3d11e003	0.035614025
2	0x3c07f994	0.00829925
3	0xbc511afc	-0.012762781
4	0xbd07cd5e	-0.033154838
5	0x3b86cac7	0.0041135284
6	0xbcbdac04	-0.023153313
7	0xbb97a169	-0.004627396
8	0xbafb233f	-0.0019160284
9	0xbd2a6fa0	-0.04161036
10	0x378d5f9e	1.6853035e-05
11	0x3d21bb01	0.03948498
12	0xbcded5a2	-0.027201477
13	0xbd35ee3c	-0.04441665
14	0xbc9bbd61	-0.019011201
15	0xbd579948	-0.052636415
16	0xbc9fd400	-0.01951027
17	0xbd5a2a71	-0.05326313
18	0xbc812269	-0.015763478
19	0x3ccd33a3	0.025049036
20	0xbd096a86	-0.033548854
21	0xbd0cd294	-0.03438051
22	0x3d00128b	0.031267684
23	0xbbbe3d22	-0.0058056274
24	0xbd238a16	-0.03992661
25	0xbd033ebc	-0.03204225
26	0x3c28e0b4	0.01030748
27	0x3b01a4a1	0.0019781964
28	0xbcc4c29f	-0.024018584
29	0xbd6e34cd	-0.058155823
30	0xbd2c2d54	-0.042035416
31	0xba6e3007	-0.0009086136
32	0xbd00e0d4	-0.031464413
33	0xbcc6da1b	-0.024273923
34	0x3c02dd52	0.007987337
35	0xbc6138e6	-0.013746476
36	0xbcfb6bf7	-0.03069113
37	0xbc752e9f	-0.014964729
38	0x3a338e1d	0.00068494846
39	0xbbb51945	-0.005526694
40	0x3b4a9f05	0.0030917537
41	0xbcdb4ea1	-0.026770892
42	0xbcb9be1d	-0.02267366
43	0xbc8cee01	-0.017203333
44	0xbc37031a	-0.011170173
45	0xbc16a608	-0.009194858
46	0x3adb76a1	0.0016743728
47	0xbc8d2cb1	-0.017233225
48	0xbc444e8b	-0.011981617
49	0xbca18a20	-0.019719183
50	0xbc8f9b7b	-0.017530194
51	0x3b00b42d	0.0019638643
52	0xbd77b6fd	-0.060477246
53	0xbd07da79	-0.033167336
54	0xbd07c913	-0.033150744
55	0x3c8039e9	0.015652614
56	0xbc2bd8b2	-0.010488676
57	0x3aeca218	0.0018053679
58	0xbcb5ab96	-0.022176545
59	0xbb8821da	-0.004154426
60	0x3c427db5	0.011870791
61	0x3cdec217	0.027192159
62	0xbd29eaac	-0.041483566
63	0xbd0f7817	-0.035026636
64	0xbd1af4df	-0.037831184
65	0x3bf52012	0.0074806297
66	0xbcb31502	-0.021860603
67	0x3d2475dc	0.040151462
68	0xbcb919f9	-0.022595393
69	0x3c327eb3	0.010894465
70	0x3d035cce	0.032070927
71	0xbc3149d4	-0.010820825
72	0xbc47a4e0	-0.012185305
73	0xbd3ddf74	-0.04635568
74	0xbd2ba61f	-0.041906472
75	0xbbeaae1d	-0.007161869
76	0xbb648572	-0.0034869579
77	0x3c95782d	0.01824578
78	0xbbace5f6	-0.005276437
79	0xbc006ff7	-0.0078391945
80	0xbce45faf	-0.027877657
81	0xbb78bdb5	-0.003795487
82	0x3bb5a2a4	0.00554307
83	0x3c8ff249	0.017571585
84	0xbc920f66	-0.017829608
85	0xba475624	-0.00076040835
86	0xbc7e0f5e	-0.0155065935
87	0x3c3bdd8f	0.011466398
88	0xbc62f0ca	-0.013851354
89	0x3bfca9e4	0.007710682
90	0xbcdcc6ac	-0.026950203
91	0xbd4c7380	-0.049914837
92	0xbc996ac6	-0.018727671
93	0xbcde7f96	-0.027160447
94	0xbbe77bc2	-0.0070643136
95	0x3b1183d7	0.0022203827
96	0x3bdb853c	0.0066992324
97	0xbcfec113	-0.031097924
98	0x3c2bb472	0.010480033
99	0x3c3d84f3	0.011567342
100	0xbc969924	-0.01838357
101	0xbb9dc105	-0.0048142695
102	0x3a57a691	0.00082264194
103	0xbbf9d4d6	-0.007624249
104	0xbcc8458d	-0.024447227
105	0xbce28f0c	-0.0276561
106	0x3cd0fb7e	0.025510546
107	0xbb0b3aeb	-0.0021244835
108	0xbb0c586a	-0.0021415004
109	0xbcefb119	-0.029259251
110	0x3b34455b	0.002750716
111	0xbc65f4fb	-0.014035459
112	0x3c4d0d72	0.012515413
113	0xbc33a524	-0.010964666
114	0xbd03afbc	-0.032150015
115	0xbd038e85	-0.03211834
116	0xbcab7c94	-0.020933427
117	0xbd00e7dc	-0.03147112
118	0xbbf97237	-0.0076124924
119	0x3b859c3f	0.004077464
120	0xbcd8c477	-0.02646087
121	0x3d3f32f9	0.04667947
122	0xbb4fe371	-0.003172126
123	0xbcb3ea50	-0.021962315
124	0x3c2136f5	0.009839763
125	0x3b1726bb	0.0023063857
126	0xba0740d8	-0.0005159504
127	0xbd82c6f6	-0.06385605
128	0xbc1c0b4f	-0.009524181
129	0xbd2340fb	-0.039856892
130	0xbcab0d14	-0.02088026
131	0xba3195e3	-0.0006774349
132	0xbd07c4a6	-0.033146523
133	0xbc5e997a	-0.013586396
134	0xbb025950	-0.001988966
135	0x3c83618d	0.016037727
136	0xbcdc7395	-0.026910583
137	0xbc13963e	-0.0090079885
138	0xbc1b1c27	-0.009467161
139	0xba399470	-0.0007079309
140	0xbc9a5aa3	-0.018842047
141	0x3c673ef5	0.014114131
142	0xbca3adc8	-0.019980326
143	0xbcb2873b	-0.021792999
144	0xbd3b3cfd	-0.04571246
145	0x385ca082	5.2601572e-05
146	0xbcdbd0d3	-0.026832974
147	0xbb04665c	-0.0020202613
148	0xbc4a49b7	-0.012346677
149	0xbce0891f	-0.027409134
150	0xbc2ae539	-0.0104306275
151	0xbcd27de3	-0.025694793
152	0xbc843c20	-0.016141951
153	0xbc81fd22	-0.015867773
154	0xbc859618	-0.016306922
155	0x3c23243c	0.009957369
156	0xbca15374	-0.019693114
157	0xbc2b54ef	-0.010457261
158	0xbc8f4663	-0.017489618
159	0x3b2e0e7f	0.0026558933
160	0xbb0ac123	-0.0021172247
161	0xbb18f1a7	-0.0023337395
162	0xbce99b8a	-0.02851655
163	0xbb67baf7	-0.0035359242
164	0xbcb3d671	-0.02195284
165	0xbb4f91aa	-0.0031672516
166	0xbd6d0a5d	-0.05787121
167	0xbcdfbabd	-0.027310723
168	0xbb8a1c50	-0.004214801
169	0xbcce9b79	-0.02522062
170	0xbb80717a	-0.0039197775
171	0xbc879758	-0.016551659
172	0x3b3e5ea9	0.002904812
173	0xbd18eadb	-0.03733335
174	0xbc164310	-0.009171262
175	0xbd09a87d	-0.03360795
176	0x3ac48ffa	0.0014996522
177	0xbc657e53	-0.014007169
178	0xbc0532a4	-0.008129749
179	0xbd2c2a02	-0.04203225
180	0xbcccaa46	-0.024983536
181	0xbce0a265	-0.027421186
182	0x3ca8e4e1	0.02061695
183	0xbc20839d	-0.009797004
184	0xbc279a75	-0.0102296965
185	0x3c0db97b	0.008650179
186	0xbae18f07	-0.0017208763
187	0xbc7269ce	-0.014795734
188	0xbbf1ba30	-0.0073769316
189	0xbc28f96f	-0.010313376
190	0xbc21f2d5	-0.009884556
191	0xbd006433	-0.031345557
192	0x3d006f23	0.03135599
193	0xbad9b0de	-0.0016608497
194	0x3ccf295c	0.025288276
195	0xbbbf1d0e	-0.005832321
196	0xbca4a5cd	-0.020098591
197	0xbc5ec87c	-0.013597604
198	0xbcbeaea4	-0.023276635
199	0xbc5aeb2b	-0.0133617325
200	0x3c7caaa9	0.015421548
201	0x3c3da66c	0.011575323
202	0xbcc26e68	-0.023734286
203	0x3c8579a9	0.016293364
204	0x3b07f21c	0.0020743674
205	0xbc9f03ea	-0.019411046
206	0x3c37b95a	0.011213625
207	0x3b951806	0.004549983
208	0xbc9c6a43	-0.019093638
209	0x3b190111	0.0023346583
210	0x3c6a4d65	0.014300679
211	0x3c1bcfa1	0.009509952
212	0xbc29482b	-0.010332148
213	0x3b285738	0.0025686752
214	0xbc937d8c	-0.018004201
215	0xbc28cc34	-0.010302592
216	0xb9fa2019	-0.0004770763
217	0xbc47a558	-0.012185417
218	0xbc30723f	-0.010769426
219	0x3b0382d0	0.0020066984
220	0x3cbec04a	0.02328505
221	0x3d20aa1b	0.039224725
222	0xbc4cbc60	-0.012496084
223	0xbd3b23bf	-0.045688387
224	0x3ce85b4a	0.028363843
225	0x3b6b391e	0.0035892199
226	0xbcef0905	-0.029179106
227	0xbd4d4127	-0.050110962
228	0x3cb7702c	0.022392355
229	0xbd6d5fcc	-0.057952687
230	0xbc9f909a	-0.019478131
231	0xbc8942dd	-0.016755516
232	0xbd74ba69	-0.059748087
233	0xbd488dae	-0.04896324
234	0xbc951a40	-0.018200994
235	0x3c07adb2	0.008281158
236	0x3cd9b833	0.02657709
237	0xbcc824db	-0.024431637
238	0x3c793634	0.015210677
239	0xbd050a34	-0.032480434
240	0x3c9dc05a	0.01925676
241	0xbd072f32	-0.033003993
242	0xbca54198	-0.02017288
243	0xbc815c1a	-0.015790988
244	0xbabfd9a4	-0.0014637006
245	0xbb92a967	-0.0044757607
246	0xbcf4fa75	-0.029904583
247	0x3c4932ff	0.012280225
248	0xbd13d96e	-0.03609603
249	0xbba4073b	-0.0050057448
250	0x3cb15018	0.021644637
251	0x3bd32f59	0.0064448533
252	0xbc437ea3	-0.011932048
253	0x3b123a8e	0.0022312733
254	0xbb2273ff	-0.0024788377
255	0xbc206292	-0.009789126

action_model._discrete_distribution.branches.0.weight f4 [4, 256]
0	0x3cea10bd	0.028572435
1	0x3d1d3dd4	0.038389042
2	0x3d85dae4	0.06535891
3	0xbc8d3c12	-0.017240558
4	0xbcfe0653	-0.031008875
5	0x3d3535b2	0.04424066
6	0x3d2e1ac5	0.042506
7	0xbc4f753d	-0.012662229
8	0x3d329b58	0.04360518
9	0xbbf665d4	-0.007519463
10	0x3c0611f2	0.008182989
11	0xbdba71b0	-0.091037154
12	0xbb9701d0	-0.0046083704
13	0x3ad310a1	0.0016102978
14	0xbd42483d	-0.047432173
15	0xbc7fcd1c	-0.015612867
16	0xbce45aca	-0.027875323
17	0xbcd39989	-0.025830047
18	0xbd10c3da	-0.03534303
19	0xbc27724c	-0.010220122
20	0xbd0b4d3c	-0.034009203
21	0xbc9e9c81	-0.019361736
22	0x3d2de91f	0.04245865
23	0xbb8205b6	-0.003967966
24	0x3cb3e15b	0.021958044
25	0xbc53b151	-0.0129206935
26	0x3d46501a	0.048416235
27	0x3d8ee6e5	0.069776334
28	0xbd08906c	-0.033340856
29	0xbb0bf272	-0.0021354225
30	0x3c6c8a4d	0.01443727
31	0xbcff82aa	-0.031190235
32	0xbd52eb49	-0.051493917
33	0x3a508d26	0.0007955603
34	0x3d9785bb	0.07398554
35	0x3c4fbf36	0.012679866
36	0xbbdccf06	-0.0067385463
37	0xbd1138c3	-0.035454523
38	0xbd07a003	-0.033111583
39	0xbc9415f6	-0.018076878
40	0xbd569b21	-0.052394036
41	0xbc87d65e	-0.01658171
42	0xbb43d3a5	-0.0029880789
43	0xbbcb74d4	-0.0062089954
44	0xbc229626	-0.0099234935
45	0x3cb575b8	0.02215086
46	0x3c461e51	0.012092189
47	0xbd3fafa7	-0.046798375
48	0xbd1c5d1b	-0.03817473
49	0xbd4441a9	-0.04791418
50	0x3c26abf6	0.010172835
51	0xbd13b6b3	-0.036062907
52	0xbca00ad5	-0.019536415
53	0xbd267149	-0.04063538
54	0x3c733105	0.01484323
55	0x3c9cb56a	0.019129474
56	0xbd82c5e7	-0.06385403
57	0xbd41dd16	-0.047329985
58	0xbd283370	-0.04106468
59	0xbd2fe33d	-0.04294132
60	0x3d00e775	0.031470735
61	0x3d95c764	0.07313421
62	0xbc289519	-0.010289454
63	0x3c58907e	0.013218043
64	0xbc890b17	-0.01672892
65	0xbd908b97	-0.07057875
66	0xbd003c5e	-0.03130757
67	0x3cf4fee3	0.029906696
68	0xbcb46c6d	-0.022024358
69	0x3c88d64f	0.016703753
70	0x3d887bb7	0.06664222
71	0xbbec3eda	-0.007209641
72	0xbd6abd8d	-0.057309676
73	0xbcccff50	-0.025024086
74	0xbc293aa4	-0.010328922
75	0x3a82f68c	0.000999169
76	0xbc5e9a0a	-0.01358653
77	0x3c8518c9	0.01624717
78	0xbd1f33d9	-0.038867805
79	0x3cf76c5c	0.030203037
80	0xbc684bc4	-0.01417822
81	0xbd32f472	-0.043690152
82	0xbda0e5d3	-0.078563355
83	0xbd765669	-0.060141
84	0xbcc0882f	-0.023502437
85	0x3cfe2224	0.031022139
86	0x3cbe4a33	0.02322874
87	0x3cab1b44	0.020887025
88	0x3c38f235	0.011288215
89	0xbd1da192	-0.038484164
90	0x3c98245c	0.018572025
91	0x3bf51924	0.0074798036
92	0x3c1fc0ca	0.009750554
93	0x3c261db6	0.01013892
94	0xbd54138f	-0.051776465
95	0x3d917a23	0.07103374
96	0xbcac3096	-0.021019261
97	0xbd1649bb	-0.03669141
98	0x3d2ef0e6	0.042710207
99	0xbd5680fb	-0.0523691
100	0xbc8451a8	-0.016152218
101	0xbd60d80f	-0.05489355
102	0xbd925b01	-0.07146264
103	0x3d0073f7	0.031360593
104	0xbc72b4f2	-0.014813649
105	0xbc25c378	-0.010117404
106	0xbda07325	-0.07834462
107	0xbba09497	-0.004900526
108	0xbd1db291	-0.038500372
109	0xbca72a1c	-0.020405822
110	0x3bb1e02a	0.0054283338
111	0xbcdff2b8	-0.027337417
112	0x3d4cc315	0.049990732
113	0xbb8f542c	-0.0043740477
114	0x3bca23b5	0.0061688074
115	0xbce4c405	-0.0279255
116	0xbc53f4c5	-0.012936776
117	0x3c2a3492	0.01038851
118	0x3d26e92b	0.04074971
119	0x3ca15e74	0.01969836
120	0xbb3b8416	-0.0028612665
121	0x3d9a7534	0.07541886
122	0x3baf0e44	0.0053422768
123	0x3d5df550	0.054189026
124	0xbd2cbffb	-0.042175274
125	0x3d917242	0.07101871
126	0x3b202034	0.0024433257
127	0x3c3808d4	0.011232574
128	0xbcb0878f	-0.021549014
129	0xbc9d6ea5	-0.019217798
130	0xbcad48cf	-0.021152882
131	0xbc98ade3	-0.018637603
132	0xbd2465f7	-0.040136304
133	0xbd3d921e	-0.046281926
134	0xbd1b3fa3	-0.037902486
135	0x3d46a5ad	0.048497844
136	0x3be3defe	0.006954073
137	0x3d7ba06d	0.06143229
138	0x3bbf975a	0.0058469
139	0xbc9198ac	-0.017772995
140	0xbcffbe6a	-0.031218726
141	0x3d765f5a	0.060149528
142	0xbbf9836d	-0.007614544
143	0xbc9be546	-0.019030225
144	0xbb243be7	-0.0025060119
145	0x3d8287c5	0.06373552
146	0xbd44b16a	-0.048020758
147	0xbcfd2a54	-0.030903973
148	0xbcc85d32	-0.024458501
149	0x3a9ab5d6	0.0011803459
150	0x3a8255b2	0.0009943752
151	0xbcb3cad8	-0.02194731
152	0xbc716027	-0.014732397
153	0xbc307be6	-0.010771727
154	0x3c1cac58	0.009562574
155	0xbc5c584e	-0.013448788
156	0x3b3f9db5	0.0029238288
157	0xbc3c5f64	-0.011497352
158	0xbc17702a	-0.009243051
159	0xbc12fc11	-0.00897123
160	0x3cf0eadf	0.02940887
161	0x3d3778e9	0.044793043
162	0x3d4855a9	0.048909817
163	0xbd21e03f	-0.0395205
164	0x3ca4f541	0.020136477
165	0xbc98a099	-0.018631266
166	0x3c9d10c8	0.019173041
167	0x3ca592e3	0.020211643
168	0xbc6f5dd1	-0.01460977
169	0xbc0b12c8	-0.0084883645
170	0x3b6149c0	0.0034376234
171	0xbd57c0db	-0.052674156
172	0xbbbba9e4	-0.0057270397
173	0xbb574ad3	-0.0032850995
174	0xbd078476	-0.03308531
175	0xbcc81225	-0.024422714
176	0xbd21a9df	-0.039468642
177	0xbd685d78	-0.056729764
178	0xbd101648	-0.0351775
179	0xbb9da9fb	-0.004811523
180	0x3bfde9ca	0.007748817
181	0xbd07d21a	-0.033159353
182	0x3d94ead3	0.07271352
183	0xbd47bcb0	-0.04876393
184	0xbcf97f30	-0.030456156
185	0xbd2ad6d5	-0.041708786
186	0x3d2d0bf3	0.042247724
187	0xbd16a9d8	-0.03678307
188	0xbcfa3edf	-0.030547557
189	0xbd45ad6d	-0.048261095
190	0xbcd0ca8d	-0.025487209
191	0xbc2b300c	-0.010448467
192	0x3d31764c	0.043325707
193	0x3ba6ba46	0.0050881235
194	0x3dbda95b	0.092608176
195	0xbd04ce21	-0.032423142
196	0xbd5885ce	-0.05286198
197	0xbd246bf3	-0.04014201
198	0x3c169044	0.009189669
199	0xbd9c7cdf	-0.07641005
200	0x3d8c7972	0.06859101
201	0x3d7f36cf	0.06230813
202	0x3b91e33a	0.0044521363
203	0x3d10aff2	0.035324045
204	0xbcc07a49	-0.02349581
205	0x3b4983d0	0.0030748732
206	0xbd72ab7e	-0.05924558
207	0x3d04eac5	0.032450456
208	0xbb858b2a	-0.0040754275
209	0x3c4cae40	0.012492716
210	0xbd80a6c9	-0.06281812
211	0xbd6a3bd3	-0.05718596
212	0xbc9e739e	-0.01934224
213	0x3ca34321	0.01992947
214	0x3cba22d0	0.022721678
215	0xbd095de8	-0.03353682
216	0xbd5c4653	-0.053778004
217	0x3bd35ecc	0.0064505097
218	0xbcc417de	-0.023937162
219	0x3d1f9eda	0.038969852
220	0x3d6cf038	0.057846278
221	0x3d681cc6	0.056668065
222	0xbd0aa365	-0.03384723
223	0x3c10dd3c	0.008841809
224	0xbdac6b36	-0.08418886
225	0xbd104ae7	-0.035227682
226	0xbc38e82a	-0.011285821
227	0xbb3f20a7	-0.002916375
228	0xbc75a058	-0.014991842
229	0xbc9dd569	-0.019266801
230	0xbcd0de6f	-0.02549669
231	0xbb1057e8	-0.0022025052
232	0xbc95da02	-0.01829243
233	0xbcb055e7	-0.021525336
234	0x3d0293ee	0.031879358
235	0xbaac3959	-0.001313965
236	0x3da4df46	0.080503985
237	0xbbe127fd	-0.006871222
238	0x3d448096	0.04797419
239	0x3acc9345	0.0015607855
240	0x3d8b6638	0.06806606
241	0xbb9a8dd2	-0.0047166133
242	0xbcceda01	-0.025250437
243	0xbc0b4909	-0.0085013
244	0x3d15c18a	0.036561526
245	0x3d6d3ecd	0.05792122
246	0x3bccbfac	0.006248435
247	0xbd91bb3e	-0.07115792
248	0xbba1dd3f	-0.0049397047
249	0x3d8a082e	0.067398414
250	0x3c80e6a5	0.01573498
251	0xbd842c88	-0.06453806
252	0x3c98149c	0.018564515
253	0xbd05e7c1	-0.03269172
254	0xba9ee4bc	-0.0012122612
255	0x3d5e6b7b	0.05430172

action_model._discrete_distribution.branches.0.bias f4 [4]
0	0x3bd0594c	0.0063583013
1	0xbccc21a4	-0.024918385
2	0x3bea2ef5	0.007146711
3	0x3c1e85e3	0.009675476

onnx::Div_62 f4 [202]
0	0x3eafe266	0.34352416
1	0x3e887b28	0.2665646
2	0x3edea84b	0.43487772
3	0x3eb97b0e	0.36226696
4	0x3edcde62	0.43138415
5	0x3eb90465	0.36136165
6	0x3edea84b	0.43487772
7	0x3eb9f554	0.36319983
8	0x3edcde62	0.43138415
9	0x3eb97d67	0.36228487
10	0x3ed94a5e	0.4243955
11	0x3eb9ef30	0.36315298
12	0x3ed72531	0.42020562
13	0x3eb958b8	0.362005
14	0x3edafd32	0.42771298
15	0x3ebabb25	0.36470905
16	0x3ed7c41c	0.42141807
17	0x3eb9ad63	0.36265096
18	0x3edbeaa5	0.42952457
19	0x3ebb2c6a	0.36557323
20	0x3ed8615c	0.4226178
21	0x3eb9c50b	0.36283144
22	0x3edfd360	0.43715954
23	0x3ebde954	0.37092078
24	0x3eddedce	0.43345493
25	0x3ebcd795	0.36883226
26	0x3ede63e5	0.43435588
27	0x3ebc5093	0.36780223
28	0x3eda1ef5	0.42601743
29	0x3ebb31e3	0.36561498
30	0x3edfe0a5	0.43726078
31	0x3ebc78ae	0.3681082
32	0x3edb4c1a	0.42831498
33	0x3ebb5f42	0.36596113
34	0x3ee186cf	0.44048163
35	0x3ebfb660	0.3744383
36	0x3edcf084	0.4315225
37	0x3ebe0eee	0.37120765
38	0x3ee2e2b0	0.44313574
39	0x3ebf7a32	0.37397915
40	0x3edd908f	0.43274352
41	0x3ebdb301	0.37050632
42	0x3edf05ac	0.43559015
43	0x3eb8249f	0.3596544
44	0x3ed70f0c	0.42003667
45	0x3eb53a93	0.3539625
46	0x3eda037d	0.42580786
47	0x3eb49703	0.35271463
48	0x3ed19c09	0.40939358
49	0x3eb11ee3	0.34593877
50	0x3ed9c817	0.4253547
51	0x3eb48b38	0.35262465
52	0x3ed188b5	0.40924612
53	0x3eb10be2	0.34579378
54	0x3ede522e	0.43422073
55	0x3eb7e305	0.3591539
56	0x3ed585f2	0.41703755
57	0x3eb446bb	0.35210213
58	0x3ee36fd3	0.44421253
59	0x3ec10c91	0.377049
60	0x3edb058d	0.42777672
61	0x3ebc325f	0.3675718
62	0x3ee1c1c2	0.44093138
63	0x3ec155b1	0.3776069
64	0x3eda8a4e	0.42683643
65	0x3ebc5f02	0.36791235
66	0x3edf39cd	0.43598786
67	0x3ebe1583	0.37125787
68	0x3ed62b1c	0.41829765
69	0x3eb7da2e	0.35908645
70	0x3edd54ca	0.4322875
71	0x3ebdf58d	0.37101403
72	0x3ed4c152	0.41553742
73	0x3eb795e8	0.35856557
74	0x3ee1ad8f	0.44077727
75	0x3ebfc7dd	0.3745717
76	0x3ed7b6ed	0.4213175
77	0x3eb927a6	0.36163062
78	0x3eddb452	0.43301636
79	0x3ebd61c1	0.36988643
80	0x3ed1e1c3	0.40992555
81	0x3eb5e575	0.35526624
82	0x3edc3836	0.43011636
83	0x3ebd1a84	0.36934292
84	0x3ed1bda8	0.4096501
85	0x3eb62d38	0.35581374
86	0x3edbb96c	0.42914903
87	0x3ebcbfd5	0.36865106
88	0x3ed0625a	0.40700036
89	0x3eb58537	0.35453197
90	0x3ee79cac	0.4523672
91	0x3ebcd4be	0.3688106
92	0x3ed8ab1e	0.42318052
93	0x3eb6262a	0.35575992
94	0x3ee79cac	0.4523672
95	0x3ebc7bf1	0.3681331
96	0x3ed8ab1e	0.42318052
97	0x3eb5c71e	0.35503477
98	0x3ec27127	0.37976953
99	0x3e91aabc	0.28450572
100	0x3eb2446b	0.34817824
101	0x3e8c2520	0.27372074
102	0x3eee6376	0.46560258
103	0x3ec5f099	0.38660124
104	0x3eea1d00	0.4572525
105	0x3ec7c2c7	0.3901579
106	0x3eee6376	0.46560258
107	0x3ec68797	0.38775322
108	0x3eea1d00	0.4572525
109	0x3ec87843	0.39154252
110	0x3eea68c1	0.45783046
111	0x3ec7425e	0.38917822
112	0x3ee8cbcf	0.45467994
113	0x3ec8d0e4	0.3922187
114	0x3eebf352	0.46084076
115	0x3ec813a4	0.39077485
116	0x3eea704b	0.45788798
117	0x3ec984c9	0.3935912
118	0x3eefa684	0.4680673
119	0x3ec8f044	0.39245808
120	0x3eec3fb4	0.46142352
121	0x3eca487d	0.3950843
122	0x3ef33ea6	0.47508734
123	0x3ecb70f2	0.39734608
124	0x3eeef0df	0.46668145
125	0x3ecc7e3c	0.3994006
126	0x3ef1bdac	0.4721502
127	0x3ecac15c	0.39600646
128	0x3eeca952	0.4622293
129	0x3ecb8d6e	0.3975634
130	0x3ef32388	0.47488046
131	0x3ecaadef	0.39585826
132	0x3eed7742	0.4638005
133	0x3ecba385	0.39773193
134	0x3ef43c8a	0.47702438
135	0x3ecd5c40	0.40109444
136	0x3eeebd21	0.4662867
137	0x3ecdda23	0.40205488
138	0x3ef5117b	0.478649
139	0x3eccfc9c	0.40036476
140	0x3eef00b1	0.46680215
141	0x3ecd8f54	0.40148413
142	0x3ef4a677	0.47783253
143	0x3ec70ee9	0.38878563
144	0x3eed332d	0.46328107
145	0x3ec886ff	0.39165494
146	0x3ef16f52	0.47155243
147	0x3ec3769b	0.38176426
148	0x3ee9eaaf	0.45686862
149	0x3ec540a0	0.38525867
150	0x3ef18ed0	0.4717927
151	0x3ec36111	0.38159993
152	0x3eead1d8	0.45863223
153	0x3ec4fb52	0.38472992
154	0x3ef4b775	0.47796217
155	0x3ec671a3	0.38758573
156	0x3eee509c	0.46545875
157	0x3ec74a80	0.38924026
158	0x3ef4e8c8	0.47833848
159	0x3ecc277a	0.39873868
160	0x3ef0ec61	0.47055343
161	0x3ecd7816	0.4013068
162	0x3ef35416	0.4752509
163	0x3ecc73bb	0.39932045
164	0x3ef048b6	0.46930474
165	0x3ecdb20b	0.40174899
166	0x3ef15841	0.47137645
167	0x3ec8e122	0.39234263
168	0x3eee78e7	0.46576616
169	0x3ec97da2	0.39353663
170	0x3eefd382	0.46841055
171	0x3ec8e638	0.39238143
172	0x3eed0930	0.46296072
173	0x3ec97047	0.39343473
174	0x3ef188be	0.47174639
175	0x3ec9ff2d	0.39452496
176	0x3eee430f	0.46535537
177	0x3eca55a1	0.39518455
178	0x3eef0dec	0.4669031
179	0x3ec77c04	0.38961804
180	0x3eea9bf1	0.458221
181	0x3ec7c0f0	0.39014387
182	0x3eed55f4	0.4635464
183	0x3ec7344a	0.3890708
184	0x3ee94752	0.45562226
185	0x3ec79ec8	0.38988328
186	0x3eec46e8	0.46147847
187	0x3ec68423	0.38772687
188	0x3ee88988	0.45417428
189	0x3ec709ad	0.3887457
190	0x3ef189ee	0.47175545
191	0x3ec5a120	0.3859949
192	0x3eed71be	0.4637584
193	0x3ec65df1	0.38743547
194	0x3ef189ee	0.47175545
195	0x3ec51dbd	0.3849925
196	0x3eed71be	0.4637584
197	0x3ec5d9cb	0.38642725
198	0x3ec63fec	0.38720644
199	0x3e93e752	0.2888742
200	0x3ec63fec	0.38720644
201	0x3e93e752	0.2888742

onnx::Div_65 f4 [10]
0	0x3ba7ca29	0.005120535
1	0x3ba7ca29	0.005120535
2	0x3ba7ca29	0.005120535
3	0x3ba7ca29	0.005120535
4	0x3ba7ca29	0.005120535
5	0x3ba7ca29	0.005120535
6	0x3ba7ca29	0.005120535
7	0x3ba7ca29	0.005120535
8	0x3ba7ca29	0.005120535
9	0x3ba7ca29	0.005120535
