results/GameLevelReached4/PlayerBehaviour/PlayerBehaviour-39822.onnx (onnx, 490727 bytes, 10 tensors)

network_body.observation_encoder.processors.0.normalizer.running_mean f4 [202]
0.85224533 0.88883203 0.71569186 0.7686979 0.73173815 0.7808779 0.71569186 0.76827306
0.73173815 0.7805652 0.7293262 0.7740172 0.749718 0.78825825 0.72357696 0.76976967
0.7448223 0.7844416 0.7146369 0.7649662 0.7375893 0.77978426 0.69718504 0.75169986
0.71747535 0.7642404 0.70979285 0.7601998 0.72669184 0.77140826 0.7032114 0.7572776
0.7210673 0.7688495 0.6966342 0.7485956 0.7098661 0.7568379 0.6903293 0.7462372
0.7068517 0.7561931 0.7017061 0.7658428 0.72234726 0.77621025 0.71945906 0.7806473
0.7416064 0.7911059 0.7185292 0.7802502 0.7400752 0.7905834 0.69811434 0.7625816
0.71948266 0.7738484 0.6818677 0.7375851 0.70439166 0.75477356 0.6832231 0.7372699
0.70612365 0.7548622 0.6912344 0.7465408 0.7156917 0.76507974 0.69756114 0.74957347
0.72071236 0.7673926 0.6812139 0.739869 0.70474344 0.75721055 0.69896835 0.7535666
0.7249826 0.7726392 0.70511943 0.75675964 0.7315376 0.7760982 0.7098404 0.7604876
0.7338218 0.7783483 0.70150447 0.7573679 0.72887456 0.7763972 0.70150447 0.7577388
0.72887456 0.7768127 0.8328858 0.8743744 0.84855276 0.8845191 0.69143474 0.7466587
0.7157931 0.7664715 0.69143474 0.74621916 0.7157931 0.76601356 0.71084476 0.75435144
0.725035 0.76997805 0.70499593 0.750015 0.7235021 0.7682646 0.69834036 0.74660945
0.72106516 0.767283 0.6795318 0.7317312 0.70290923 0.75322294 0.68754166 0.7379186
0.7172491 0.76279664 0.6830973 0.73571193 0.7126282 0.7606612 0.66865665 0.72158605
0.7031113 0.74991643 0.66529375 0.7206045 0.69884247 0.7484969 0.68930006 0.7485896
0.7106197 0.76572174 0.71162564 0.7666261 0.72982824 0.78197247 0.71320564 0.7671067
0.73002917 0.7819745 0.69181186 0.7497551 0.7105452 0.7663625 0.67358035 0.72671074
0.69073135 0.74264604 0.67533857 0.72675085 0.69248796 0.7425708 0.6818166 0.73624676
0.7019312 0.75343037 0.6859342 0.73820615 0.7066268 0.75564975 0.66808033 0.726856
0.69472307 0.7475707 0.6861862 0.7408172 0.712728 0.7614243 0.6890227 0.7420887
0.7157174 0.7621456 0.69259053 0.7451168 0.7183292 0.76448727 0.6876433 0.74349535
0.7091637 0.7608331 0.6876433 0.74402285 0.7091637 0.76123375 0.8376571 0.87589616
0.8376571 0.87589616
00000000: c02c 5a3f 7f8a 633f 9537 373f 63c9 443f
00000010: 3153 3b3f 9de7 473f 9537 373f 8bad 443f
00000020: 3153 3b3f 1fd3 473f 1fb5 3a3f fe25 463f
00000030: 85ed 3f3f 4bcb 493f 573c 393f a00f 453f
00000040: adac 3e3f 2ad1 483f 72f2 363f d3d4 433f
00000050: a7d2 3c3f f19f 473f b87a 323f 676f 403f
00000060: 77ac 373f 42a5 433f fcb4 353f 749c 423f
00000070: 7a08 3a3f 037b 453f aa05 343f f2dc 413f
00000080: de97 383f 52d3 443f 9e56 323f f6a3 3f3f
00000090: c9b9 353f 21c0 413f 6cb9 303f 6709 3f3f
000000a0: 3cf4 343f df95 413f 03a3 333f 460e 443f
000000b0: c0eb 383f b7b5 463f 782e 383f 80d8 473f
000000c0: ebd9 3d3f eb85 4a3f 88f1 373f 7abe 473f
000000d0: 9175 3d3f ac63 4a3f 9fb7 323f 8c38 433f
000000e0: 0430 383f ee1a 463f e28e 2e3f 61d2 3c3f
000000f0: 0353 343f d738 413f b6e7 2e3f b8bd 3c3f
00000100: 85c4 343f a63e 413f bdf4 303f 4c1d 3f3f
00000110: 9237 373f 44dc 433f 5e93 323f 0ce4 3f3f
00000120: 9b80 383f d773 443f 0964 2e3f 0e68 3d3f
00000130: 116a 343f 8dd8 413f 97ef 323f bee9 403f
00000140: 7698 393f afcb 453f b582 343f 00bb 413f
00000150: 0c46 3b3f 5fae 463f 1ab8 353f 51af 423f
00000160: bfdb 3b3f d641 473f cc95 333f dde2 413f
00000170: 8697 3a3f f8c1 463f cc95 333f 2cfb 413f
00000180: 8697 3a3f 32dd 463f 0138 553f 00d7 5f3f
00000190: c13a 593f d86f 623f de01 313f 0625 3f3f
000001a0: 373e 373f 7a37 443f de01 313f 3808 3f3f
000001b0: 373e 373f 7719 443f ecf9 353f 2d1d 413f
000001c0: e59b 393f 481d 453f 9d7a 343f fc00 403f
000001d0: 6f37 393f fdac 443f 6fc6 323f cc21 3f3f
000001e0: ba97 383f a96c 443f ccf5 2d3f bc52 3b3f
000001f0: dcf1 333f 38d3 403f bb02 303f 3ce8 3c3f
00000200: a39d 373f a446 433f 77df 2e3f 9e57 3c3f
00000210: cd6e 363f b1ba 423f 152d 2b3f ddb9 383f
00000220: 1aff 333f 86fa 3f3f b150 2a3f 8979 383f
00000230: 57e7 323f 7e9d 3f3f f875 303f 91a3 3f3f
00000240: 2ceb 353f 5706 443f 192d 363f 9c41 443f
00000250: 06d6 3a3f 592f 483f a594 363f 1b61 443f
00000260: 31e3 3a3f 7b2f 483f 951a 313f f3ef 3f3f
00000270: 4ae6 353f 5530 443f c36f 2c3f b709 3a3f
00000280: c5d3 303f 0d1e 3e3f fde2 2c3f 580c 3a3f
00000290: e446 313f 1f19 3e3f 888b 2e3f ab7a 3c3f
000002a0: c3b1 333f d0e0 403f 6299 2f3f 14fb 3c3f
000002b0: 7ee5 343f 4372 413f 5007 2b3f 3c13 3a3f
000002c0: 5fd9 313f cb60 3f3f e6a9 2f3f 32a6 3d3f
000002d0: 5875 363f b4ec 423f cb63 303f 86f9 3d3f
000002e0: 4139 373f f91b 433f 9d4d 313f f9bf 3e3f
000002f0: 6ce4 373f 70b5 433f 6409 303f b655 3e3f
00000300: c18b 353f f5c5 423f 6409 303f 4878 3e3f
00000310: c18b 353f 37e0 423f b270 563f bb3a 603f
00000320: b270 563f bb3a 603f

network_body.observation_encoder.processors.1.normalizer.running_mean f4 [10]
34.33469 14.542295 0.0 0.0 0.0 0.0 0.0 0.0
0.0 0.0
00000000: b956 0942 3ead 6841 0000 0000 0000 0000
00000010: 0000 0000 0000 0000 0000 0000 0000 0000
00000020: 0000 0000 0000 0000

network_body._body_endoder.seq_layers.0.weight f4 [256, 212]
0.29900745 0.19835299 -0.043129064 0.01756876 0.016407644 0.030854017 0.03562077 -0.0934693
0.020065902 0.062564686 -0.15973262 0.008250887 -0.11601987 0.029556464 -0.006482 -0.022960564
-0.027466834 0.018268062 0.0133083835 -0.19756162 -0.096956916 0.03494787 -0.08154313 -0.030348247
-0.031748727 0.071526155 0.05831952 -0.021585023 -0.04507706 -0.06465719 -0.024189811 0.05627003
-0.07497883 0.040998735 -0.14538327 0.09148754 -0.07715625 -0.08396134 -0.04304578 0.04885944
-0.06435666 -0.07212191 -0.049231607 -0.053120155 -0.10240325 -0.06542176 0.08149381 -0.05208802
-0.17449057 -0.07035644 -0.20723376 -0.0015383301 -0.1111591 -0.06304873 -0.116035424 -0.0839904
0.024884513 0.005504023 -0.04225728 -0.17812395 -0.029695032 0.015713543 -0.07665437 -0.037785433
0.08939353 -0.11697086 -0.034211725 -0.047052052 -0.048472088 -0.03495417 -0.018029174 0.039597478
-0.09746859 0.055328615 0.025895763 0.112585455 0.030720929 -0.015434076 -0.06393788 0.05192285
0.03348194 0.030157255 0.1104623 -0.14613953 0.016421612 -0.1611134 -0.015954811 0.031542465
-0.07539081 -0.017448837 -0.036342554 0.03789264 -0.021715341 -0.22204313 0.008735697 -0.06708671
0.05009901 -0.13658564 -0.24516565 -0.30594632 -0.13437548 -0.034497738 -0.008689247 -0.050114546
0.023206417 -0.107770614 0.13477126 -0.076849915 -0.12949015 -0.0605246 -0.03804969 -0.12593415
0.010028791 0.14126647 0.00084467436 0.020821061 0.045557786 0.04052735 0.08795908 0.16805886
-0.038609166 -0.044248067 0.039046142 -0.0032938013 -0.06856471 -0.107725754 0.04916892 -0.011242227
-0.02793673 0.019776331 -0.013604277 -0.053489532 -0.023377102 0.06819813 0.021071235 -0.00066776876
-0.032900058 -0.1056266 0.047945824 -0.009425388 0.06501755 0.0054812725 -0.025435008 0.036934797
-0.02401096 -0.07427398 0.05312352 0.020701546 -0.043519262 0.023822296 -0.014866181 0.03216664
-0.007095798 -0.097117834 0.013356288 -0.07060142 -0.020222686 -0.053014178 -0.00762538 -0.06392979
-0.052166615 0.050992865 -0.03917292 -0.04468011 0.05434177 0.008608044 -0.0802923 0.09689276
-0.06308165 0.004917396 0.02234099 0.043984894 -0.11851791 0.00047198246 0.0498706 -0.011407156
-0.030549524 -0.008355923 0.11355488 0.08466032 0.08366766 -0.016057761 -0.10316339 0.071617745
0.038356137 -0.018848915 -0.07748856 0.00812171 0.07166934 -0.122522675 -0.06446002 -0.06299523
0.002310416 -0.0066408725 0.013166666 0.0359471 -0.06084817 -0.05812422 0.028466651 0.103330806
-0.16499056 -0.036274888 -0.0030132907 -0.11999678 0.09008843 -0.008322956 0.057166766 0.010665709
-0.0690052 0.09676334 0.012740685 0.0888923 0.10736471 0.11103316 0.08033566 0.060419608
-0.07947781 0.049674686 -0.05893928 -0.08232217 0.06080475 0.07549021 0.059533507 0.0745449
0.044558108 0.088727586 0.044058472 -0.1012541 -0.099244244 -0.02639918 -0.033440094 0.0014686949
-0.026602985 0.079679765 0.0015842384 -0.07839757 -0.067895375 0.01888849 0.05334965 -0.0919247
-0.054773893 0.068721496 -0.007396692 -0.07464758 0.01155765 0.11333009 -0.049907237 0.062029067
-0.027929861 -0.03750205 -0.086034045 0.06367022 0.07455146 0.029512133 -0.029308375 0.007383457
00000000: 8117 993e 0c1d 4b3e 1aa8 30bd 5cec 8f3c
00000010: 5369 863c 90c1 fc3c 16e7 113d d56c bfbd
00000020: 3f61 a43c ea21 803d f390 23be ba2e 073c
00000030: d39b edbd 6620 f23c f566 d4bb cb17 bcbc
00000040: 2002 e1bc e7a6 953c 680b 5a3c 984d 4abe
00000050: 5991 c6bd 7f25 0f3d 1600 a7bd e39c f8bc
00000060: f40a 02bd 4e7c 923d 73e0 6e3d 13d3 b0bc
00000070: b9a2 38bd fd6a 84bd b629 c6bc 677b 663d
00000080: 808e 99bd 4aee 273d 5adf 14be d25d bb3d
00000090: 1904 9ebd ecf3 abbd c650 30bd d620 483d
000000a0: 6dcd 83bd a7b4 93bd 15a7 49bd 8594 59bd
000000b0: ccb8 d1bd d8fb 85bd 3ae6 a63d 3f5a 55bd
000000c0: a8ad 32be 0a17 90bd 1635 54be cba1 c9ba
000000d0: 62a7 e3bd b11f 81bd fba3 edbd 2903 acbd
000000e0: 9bda cb3c 175b b43b f815 2dbd 2066 36be
000000f0: ff42 f3bc b0b9 803c f7fc 9cbd e6c4 1abd
00000100: f413 b73d 6b8e efbd 9821 0cbd a7b9 40bd
00000110: ab8a 46bd 1b2c 0fbd ebb1 93bc f730 223d
00000120: 9d9d c7bd 42a0 623d 5a23 d43c 3493 e63d
00000130: 75aa fb3c 35df 7cbc ddf1 82bd 0ead 543d
00000140: 5c24 093d 590c f73c 0f3a e23d 9aa5 15be
00000150: 9e86 863c e9fa 24be aab3 82bc ac32 013d
00000160: 7f66 9abd ddf0 8ebc eedb 14bd 5035 1b3d
00000170: 5fe4 b1bc 465f 63be 2b20 0f3c c264 89bd
00000180: 9f34 4d3d 1bdd 0bbe b40c 7bbe ffa4 9cbe
00000190: ba99 09be 804d 0dbd 585d 0ebc e944 4dbd
000001a0: 621b be3c d7b6 dcbd 7a01 0a3e 7d63 9dbd
000001b0: 1199 04be a5e8 77bd fed9 1bbd e2f4 00be
000001c0: cc4f 243c 28a8 103e 236d 5d3a ee90 aa3c
000001d0: cd9a 3a3d 0200 263d e423 b43d 9f17 2c3e
000001e0: a524 1ebd 763d 35bd d9ee 1f3d d1dc 57bb
000001f0: a86b 8cbd 529f dcbd 5965 493d 5131 38bc
00000200: 92db e4bc f901 a23c 79e4 5ebc d717 5bbd
00000210: 5681 bfbc 76ab 8b3d 959d ac3c 340d 2fba
00000220: 36c2 06bd c252 d8bd d762 443d f16c 1abc
00000230: ec27 853d 3f9c b33b 145d d0bc f148 173d
00000240: a2b2 c4bc f51c 98bd 0c98 593d 4a96 a93c
00000250: 4141 32bd fa26 c33c 4891 73bc 2bc1 033d
00000260: de83 e8bb b7e5 c6bd 55d4 5a3c 7a97 90bd
00000270: 0caa a5bc 6525 59bd 53de f9bb 9fed 82bd
00000280: a9ac 55bd e5dd 503d c973 20bd 7e02 37bd
00000290: 7a95 5e3d c108 0d3c 4a70 a4bd b66f c63d
000002a0: f430 81bd 1c22 a13b 7404 b73c 8129 343d
000002b0: 85b9 f2bd 6a74 f739 1d45 4c3d 14e5 3abc
000002c0: ff42 fabc 48e7 08bc 768f e83d 6462 ad3d
000002d0: f359 ab3d 918b 83bc 5447 d3bd 53ac 923d
000002e0: 531b 1d3d 0a69 9abc 52b2 9ebd ec10 053c
000002f0: 60c7 923d 2bed fabd 9d03 84bd a503 81bd
00000300: 596a 173b ad9b d9bb 00b9 573c 443d 133d
00000310: ee3b 79bd aa13 6ebd e532 e93c 1a9f d33d
00000320: 49f3 28be fa94 14bd a17a 45bb dfc0 f5bd
00000330: 4880 b83d 025d 08bc b327 6a3d 3abf 2e3c
00000340: 9952 8dbd dc2b c63d 4ebe 503c 2b0d b63d
00000350: 07e2 db3d 5a65 e33d 0687 a43d 8d7a 773d
00000360: 43c5 a2bd af77 4b3d 516a 71bd 8798 a8bd
00000370: 670e 793d 9c9a 9a3d 68d9 733d ffaa 983d
00000380: 9082 363d cfb6 b53d a876 343d 4f5e cfbd
00000390: 9140 cbbd 1843 d8bc 7bf8 08bd 3981 c03a
000003a0: 81ee d9bc 252f a33d 38a6 cf3a e88e a0bd
000003b0: bb0c 8bbd 09bc 9a3c 2a85 5a3d 0443 bcbd
000003c0: 975a 60bd dbbd 8c3d f35f f2bb d5e0 98bd
000003d0: 4c5c 3d3c 9b19 e83d 886b 4cbd 3112 7e3d
000003e0: 2acd e4bc c09b 19bd 9e32 b0bd 8865 823d
000003f0: 70ae 983d 6ec3 f13c 1e18 f0bc edf0 f13b

network_body._body_endoder.seq_layers.0.bias f4 [256]
0.029281113 0.0044511314 -0.059172787 -0.029792855 -0.0027702039 -0.064766005 -0.009324917 -0.010113793
-0.021519545 -0.044595465 -0.042343874 0.00044685867 0.031207701 0.0024646202 0.019281507 0.018524975
-0.06704713 -0.028618649 -0.00781687 0.039327238 -0.06608045 -0.021642465 -0.0736742 -0.010709187
0.027400406 -0.00040786664 -0.030541517 0.0013787055 -0.024400994 -0.018970782 -0.044503503 -0.044935286
-0.008279236 -0.018092569 -0.047419988 -0.028245931 -0.036102723 -0.055391304 -0.04177382 -0.01475207
-0.048714332 -0.033115547 0.059230257 -0.084178485 -0.01889116 0.01496018 0.020689098 -0.035290394
-0.02928998 0.0005710282 0.0070367325 0.0060636573 -0.039806485 -0.02063891 -0.006477622 -0.04855461
-0.022964574 0.032257937 -0.027482206 -0.009702369 0.046269253 0.011663729 -0.055214524 -0.012964759
-0.03612356 -0.036093984 -0.0029465847 0.0063741296 -0.054546587 -0.06273972 -0.031018864 0.01769256
-0.0024198664 -0.07688956 -0.010233369 -0.026342783 -0.020989606 -0.014611296 -0.08119988 0.018150501
0.00062362786 0.011947258 -0.005242949 -0.057591353 -0.010318644 0.044770133 -0.031350493 0.03238661
-0.0233174 -0.034605432 -0.03763251 -0.0014938685 0.044157512 -0.040988922 -0.03613699 -0.046788733
-0.032338567 -0.004218627 -0.03091985 -0.028179517 -0.048960436 -0.074639864 0.034458674 0.011979182
-0.025719091 0.0015592604 -0.033247992 0.001325324 -0.017845297 0.03729582 0.07087474 0.023215253
-0.049055297 -0.034351896 -0.00804034 -0.049072687 -0.01177572 -0.013553356 -0.05135566 -0.020364938
-0.0043526557 -0.037537776 -0.034659315 -0.0054954737 -0.0040731234 0.016216218 -0.0708589 -0.037686374
0.015470582 -0.04256301 -0.028115114 -0.0048695733 -0.034586478 -0.053017158 0.060284372 0.0014996447
-0.03365925 -0.02314906 0.024442965 -0.026297882 -0.024596939 -0.04156488 -0.014134245 0.03094369
-0.030021723 -0.010357501 -0.0009667466 -0.03188716 -0.06724403 -0.0141788665 -0.051373832 -0.018614007
-0.021907333 -0.016031776 0.010773665 -0.010423112 -0.06407306 -0.015760124 0.012885518 -0.005974181
-0.0423658 -0.05172882 -0.028452694 -0.034715377 -0.05975586 -0.03191527 -0.008460197 -0.04770996
0.025799902 -0.04222505 -0.024421386 -0.0033865103 0.00020171901 -0.017707929 -0.023145039 -0.024314377
0.008722284 -0.05784791 -0.03250034 -0.07455271 -0.03604112 -0.023467232 -0.0022226293 -0.004066571
-0.00097399217 0.040003464 -0.065120906 -0.054506075 0.022812491 -0.012651065 -0.032736477 -0.023266757
-0.05422153 -0.035192333 -0.0036514916 -0.058948588 -0.01299211 0.010498334 -0.034463663 -0.069002755
-0.0069362135 0.0010981706 -0.02143327 -0.03681465 -0.0036324607 0.0004744606 0.00095197087 -0.064961694
0.011305601 -0.031690497 -0.08093204 -0.019839564 -0.0023582946 -0.04934805 -0.057518627 -0.08048131
-0.0705732 -0.035284575 -0.03408704 -0.011663923 -0.0077588633 -0.0044707446 -0.0825451 -0.0867223
-0.045206152 -0.020905524 -0.039892953 -0.032630935 0.0050293896 -0.015444763 -0.00088587264 -0.021854773
-0.04230524 -0.012789309 -0.029781807 -0.019274313 0.031316373 0.014485725 -0.08264112 -0.033641577
-0.001123861 -0.023984253 -0.02125868 -0.04539646 0.027064586 -0.008365518 -0.018565858 0.017146267
-0.035502512 -0.0377726 -0.006236626 -0.015490828 -0.0067665596 -0.006003449 -0.057485502 -0.016308587
00000000: f2de ef3c ccda 913b 2a5f 72bd 2510 f4bc
00000010: 4f8c 35bb 0aa4 84bd 89c7 18bc 53b4 25bc
00000020: c249 b0bc bca9 36bd c570 2dbd 5b48 ea39
00000030: 4ba7 ff3c 7785 213b 40f4 9d3c b0c1 973c
00000040: 0150 89bd a871 eabc 5412 00bc 9915 213d
00000050: 3055 87bd 8a4b b1bc 80e2 96bd 9675 2fbc
00000060: d176 e03c efd6 d5b9 3432 fabc aeb5 b43a
00000070: 98e4 c7bc 9d68 9bbc 4e49 36bd 100e 38bd
00000080: a2a5 07bc de36 94bc 763b 42bd 0364 e7bc
00000090: 73e0 13bd fee1 62bd 061b 2bbd abb2 71bc
000000a0: ae88 47bd 2ba4 07bd 6d9b 723d c565 acbd
000000b0: a2c1 9abc 8b1b 753c 2f7c a93c a98c 10bd
000000c0: 8af1 efbc 0eb1 153a 6494 e63b a5b1 c63b
000000d0: 200c 23bd ee12 a9bc 3b42 d4bb 33e1 46bd
000000e0: 3420 bcbc e620 043d 5d22 e1bc aff6 1ebc
000000f0: d484 3d3d 3a19 3f3c a028 62bd 246a 54bc
00000100: 4cf6 13bd 49d7 13bd 7d1b 41bb 13de d03b
00000110: 3e6c 5fbd af7d 80bd 461b febc fdef 903c
00000120: 9f96 1ebb 4678 9dbd dca9 27bc d2cc d7bc
00000130: 65f2 abbc 3864 6fbc 1f4c a6bd 5cb0 943c
00000140: f57a 233a 6fbe 433c 0bcd abbb e9e4 6bbd
00000150: 880f 29bc e360 373d 6069 00bd d2a7 043d
00000160: 2204 bfbc 6dbe 0dbd 8c24 1abd e9cd c3ba
00000170: 82de 343d 00e4 27bd 6104 14bd 8ba5 3fbd
00000180: 7275 04bd 683c 8abb a04b fdbc bbd8 e6bc
00000190: bd8a 48bd c9dc 98bd 8a24 0d3d 5544 443c
000001a0: d8b0 d2bc 1960 cc3a 0c2f 08bd 7eb6 ad3a
000001b0: 4d30 92bc 80c3 183d c726 913d ea2d be3c
000001c0: 35ee 48bd 93b4 0cbd a1bb 03bc 7100 49bd
000001d0: f3ee 40bc e50e 5ebc 505a 52bd 5fd4 a6bc
000001e0: b9a0 8ebb 36c1 19bd edf6 0dbd 6013 b4bb
000001f0: d677 85bb e0d7 843c 791e 91bd 075d 1abd
00000200: 5378 7d3c 8d56 2ebd ab51 e6bc f190 9fbb
00000210: 8daa 0dbd 8528 59bd bfec 763d ba8f c43a
00000220: 48de 09bd 19a3 bdbc 9d3c c83c a86e d7bc
00000230: 857f c9bc f03f 2abd 5293 67bc 9f7d fd3c
00000240: 1ef0 f5bc 82b2 29bc 446d 7dba 1c9c 02bd
00000250: 3db7 89bd 7a4e 68bc 5e6d 52bd 677c 98bc
00000260: 0277 b3bc 1255 83bc 0784 303c b3c5 2abc
00000270: bd38 83bd 601b 81bc c81d 533c 10c3 c3bb
00000280: c387 2dbd 99e1 53bd a015 e9bc b631 0ebd
00000290: 90c2 74bd 96b9 02bd a39c 0abc 856b 43bd
000002a0: 515a d33c 2df4 2cbd 5c0f c8bc 37f0 5dbb
000002b0: 8984 5339 3810 91bc aa9a bdbc f22e c7bc
000002c0: e9e7 0e3c eef1 6cbd 141f 05bd 17af 98bd
000002d0: da9f 13bd 5a3e c0bc 88a9 11bb df40 85bb
000002e0: 8253 7fba acda 233d 1c5e 85bd c341 5fbd
000002f0: 43e1 ba3c 6a46 4fbc af16 06bd ed99 bebc
00000300: 6517 5ebd d625 10bd dd4d 6fbb 1374 71bd
00000310: dcdc 54bc 3401 2c3c c529 0dbd 5151 8dbd
00000320: 2d49 e3bb 7ef0 8f3a d394 afbc f5ca 16bd
00000330: 940e 6ebb 06c1 f839 af8d 793a a30a 85bd
00000340: 213b 393c e5cd 01bd b3bf a5bd 9586 a2bc
00000350: 9e8d 1abb 2e21 4abd a798 6bbd 63d3 a4bd
00000360: af88 90bd 8f86 10bd da9e 0bbd 0a1a 3fbc
00000370: 103e febb 537f 92bb 680d a9bd 769b b1bd
00000380: 162a 39bd 1042 abbc cb66 23bd 04a8 05bd
00000390: 94cd a43b 080c 7dbc e839 68ba c808 b3bc
000003a0: 4248 2dbd 408a 51bc faf8 f3bc 2ae5 9dbc
000003b0: 9945 003d 8955 6d3c bf3f a9bd c0cb 09bd
000003c0: 844e 93ba a07a c4bc af26 aebc a3f1 39bd
000003d0: 8db6 dd3c 870f 09bc 6d17 98bc 5476 8c3c
000003e0: 156b 11bd 71b7 1abd 9c5c ccbb 3ecd 7dbc
000003f0: 04ba ddbb 95b8 c4bb eb75 6bbd 9699 85bc

network_body._body_endoder.seq_layers.2.weight f4 [256, 256]
0.05939136 0.05143938 -0.106308505 -0.017906277 0.020528631 0.092763446 0.042732418 -0.072351195
-0.09229755 -0.063466616 -0.07166177 0.06626831 -0.05072139 0.021306323 -0.029793315 -0.07416898
0.005849107 -0.09216238 0.002680469 0.0053466344 -0.10024297 -0.020041708 -0.03437039 0.08657969
-0.0020327743 -0.024699442 -0.0021703155 0.035959624 0.046426557 0.083873674 0.029713804 -0.041459255
0.10834762 -0.0040679374 0.018408542 0.105247945 -0.0032078815 -0.055758204 -0.18693587 -0.18162565
0.0032743919 0.034587715 0.09070507 -0.04406475 0.03213485 -0.18514773 0.06673216 0.0756634
0.06551721 -0.055942427 -0.05566813 -0.13701543 -0.0028669678 -0.131024 -0.07467759 -0.086842835
-0.059191354 0.012555586 0.06919222 -0.047594506 -0.047584422 0.092336714 -0.06900378 -0.1061895
0.15121906 -0.040208142 0.0156058045 -0.08273196 0.12490968 -0.035884276 -0.068003215 0.0041900007
0.090417884 -0.03006746 0.13695724 -0.043910693 0.070253745 -0.052667793 -0.04302288 -0.13129203
0.005517734 -0.091711566 -0.16000701 -0.0004413527 0.03811601 -0.10108398 0.07928125 0.2150254
0.012600189 0.14049757 -0.067586966 -0.019456979 -0.092358395 0.028812671 -0.07392495 -0.094971016
0.1757615 -0.086427346 0.065229304 -0.088686295 0.016664693 0.039247617 -0.023307413 0.15484637
0.019849252 0.09996721 0.017419932 0.008358595 -0.04211287 -0.02424716 -0.147332 -0.0856277
0.05655276 -0.075144984 0.06271239 0.03704922 0.011001664 -0.012803249 -0.0330574 -0.14597683
0.07368567 0.022824837 0.09470142 -0.05742753 -0.013465017 0.07516302 0.08603185 -0.057308648
0.10466609 -0.08060242 0.057948876 -0.039096616 -0.037358053 -0.07037777 -0.1199015 0.09893171
-0.023360781 0.10811511 -0.0096361255 0.0068848617 -0.023795377 -0.020265546 -0.105771706 -0.08497473
0.015314269 0.04471808 0.03886566 0.023659559 -0.013049211 -0.052351106 0.12588891 -0.019473862
0.054732755 -0.19370866 0.061708555 0.0011874629 0.022258477 -0.0815188 -0.012124237 0.0716633
-0.074922666 0.0784746 0.014359931 -0.0040753926 -0.04131518 -0.13336767 0.04337824 0.09280562
-0.02740249 -0.041877285 -0.13881752 -0.16239373 -0.042096287 0.12771565 -0.03778852 -0.042475417
0.10755479 -0.035961423 -0.05511172 0.0010062995 0.025592137 -0.056912545 0.025443267 0.050747477
0.12905224 -0.06271355 0.122682996 -0.04713105 0.025517607 -0.054093674 -0.056310136 -0.018624686
-0.14240368 0.14449675 -0.059448645 -0.061521012 -0.0039336276 -0.06336547 -0.053148795 -0.08765969
0.114210196 -0.07336108 0.015209789 0.050077163 -0.029342324 -0.068698436 0.15456179 -0.023837471
-0.017817568 0.15813406 -0.06954181 -0.09859273 -0.073833585 -0.1049474 -0.09640151 -0.061773807
-0.038599826 -0.0156157175 -0.09871031 0.01158454 -0.014938915 -0.011443172 -0.023081684 0.03814457
0.07209203 -0.109601885 -0.02009775 -0.069066115 0.16619967 -0.0022184732 0.10529795 -0.05599391
-0.092492394 -0.069467254 0.020003244 -0.15780683 -0.20378506 0.07959821 0.086271696 -0.060850047
-0.035805978 -0.083410844 0.05095013 -0.0066246088 -0.12783587 -0.077588856 -0.012760883 0.0702226
0.0895846 0.029918848 -0.0048479913 -0.0663963 -0.045603953 0.041126527 -0.09471329 -0.052949034
00000000: 5b44 733d 19b2 523d 46b8 d9bd 2fb0 92bc
00000010: a92b a83c c3fa bd3d 3008 2f3d dd2c 94bd
00000020: 7f06 bdbd c9fa 81bd 68c3 92bd aeb7 873d
00000030: 3bc1 4fbd 998a ae3c 1c11 f4bc e8e5 97bd
00000040: dea9 bf3b a1bf bcbd cfaa 2f3b d232 af3b
00000050: 304c cdbd 822e a4bc f7c7 0cbd b150 b13d
00000060: 4b38 05bb 7c56 cabc da3b 0ebb 664a 133d
00000070: c629 3e3d f6c5 ab3d 5d6a f33c 2ed1 29bd
00000080: 5be5 dd3d 554c 85bb 83cd 963c 3c8c d73d
00000090: 523b 52bb b762 64bd 1e6c 3fbe 13fc 39be
000000a0: 2e97 563b d9ab 0d3d 94c3 b93d 3d7d 34bd
000000b0: d59f 033d 5e97 3dbe dfaa 883d 6af5 9a3d
000000c0: e32d 863d e323 65bd 4404 64bd c64d 0cbe
000000d0: bde3 3bbb 282b 06be 90f0 98bd a8da b1bd
000000e0: a272 72bd f2b5 4d3c a7b4 8d3d 75f2 42bd
000000f0: e2e7 42bd 081b bd3d db51 8dbd e179 d9bd
00000100: 2bd9 1a3e 4bb1 24bd 7daf 7f3c 606f a9bd
00000110: a5d0 ff3d 64fb 12bd 4545 8bbd 464c 893b
00000120: 032d b93d 0950 f6bc 853e 0c3e b3db 33bd
00000130: 32e1 8f3d 2fba 57bd c238 30bd 6b71 06be
00000140: 1cce b43b 46d3 bbbd e1d8 23be 5b65 e7b9
00000150: 891f 1c3d 1e05 cfbd 355e a23d 9e2f 5c3e
00000160: 0671 4e3c 98de 0f3e 096b 8abd 3e64 9fbc
00000170: 6626 bdbd 8d08 ec3c f765 97bd 2a80 c2bd
00000180: d3fa 333e d200 b1bd f196 853d 29a1 b5bd
00000190: 6584 883c 1cc2 203d 30ef bebc 0c90 1e3e
000001a0: e69a a23c 9cbb cc3d 3fb4 8e3c 7df2 083c
000001b0: 8b7e 2cbd fba1 c6bc 33de 16be 935d afbd
000001c0: dea3 673d 9de5 99bd 5b6f 803d ecc0 173d
000001d0: 5340 343c b8c4 51bc 3267 07bd f37a 15be
000001e0: 83e8 963d 27fb ba3c d1f2 c13d 2139 6bbd
000001f0: 609c 5cbc 12ef 993d 7731 b03d 79bc 6abd
00000200: 2d5b d63d e212 a5bd cd5b 6d3d c623 20bd
00000210: c204 19bd 3822 90bd eb8e f5bd b59c ca3d
00000220: 1c5f bfbc 746b dd3d d7e0 1dbc 689a e13b
00000230: 86ee c2bc ee03 a6bc d69e d8bd 3b07 aebd
00000240: b3e8 7a3c 4e2a 373d 9931 1f3d b1d1 c13c
00000250: 5ccc 55bc 1d6e 56bd 06e9 003e a687 9fbc
00000260: 742f 603d 905b 46be 1cc2 7c3d a5a4 9b3a
00000270: 6957 b63c 54f3 a6bd bca4 46bc 35c4 923d
00000280: 0e71 99bd 4bb7 a03d eb45 6b3c df8a 85bb
00000290: 1b3a 29bd 8991 08be 62ad 313d df10 be3d
000002a0: 307b e0bc 8487 2bbd 2e26 0ebe 8b4a 26be
000002b0: 286d 2cbd e4c7 023e 23c8 1abd b4fa 2dbd
000002c0: b045 dc3d 494c 13bd d4bc 61bd cfe5 833a
000002d0: 9aa6 d13c 211d 69bd 666e d03c 96dc 4f3d
000002e0: 4526 043e f66f 80bd 3941 fb3d 7d0c 41bd
000002f0: 4d0a d13c 5491 5dbd 75a5 66bd cc92 98bc
00000300: 45d2 11be f5f6 133e 6c80 73bd 75fd 7bbd
00000310: a9e5 80bb c1c5 81bd 8db2 59bd ec86 b3bd
00000320: 09e7 e93d 553e 96bd 7b32 793c b61d 4d3d
00000330: 505f f0bc c4b1 8cbd 7245 1e3e cd46 c3bc
00000340: 26f6 91bc e5ed 213e f06b 8ebd fcea c9bd
00000350: 1036 97bd aaee d6bd 286e c5bd 8806 7dbd
00000360: da1a 1ebd 11d9 7fbc a228 cabd 15cd 3d3c
00000370: 5ac2 74bc 247c 3bbc cd15 bdbc 7b3d 1c3d
00000380: fca4 933d f476 e0bd 09a4 a4bc 8972 8dbd
00000390: 3f30 2a3e ce63 11bb 74a6 d73d df59 65bd
000003a0: a76c bdbd d944 8ebd d8dd a33c 1d98 21be
000003b0: 08ad 50be 6304 a33d 37af b03d e63d 79bd
000003c0: 4aa9 12bd 4ed3 aabd 15b1 503d 3f13 d9bb
000003d0: 68e7 02be e8e6 9ebd 0613 51bc ded0 8f3d
000003e0: 2178 b73d 5f18 f53c e6db 9ebb c9fa 87bd
000003f0: 36cb 3abd 4a74 283d 0bf9 c1bd 16e1 58bd

network_body._body_endoder.seq_layers.2.bias f4 [256]
-0.011224685 -0.021758156 -0.005896954 -0.033812847 -0.008516937 -0.055966396 -0.029126322 -0.02199939
-0.05700558 -0.04572183 -0.0210206 0.0033834234 -0.03043106 0.0013825998 -0.026271498 -0.021327486
-0.055334292 -0.015072094 -0.02659658 0.013986569 -0.058785144 -0.014083073 -0.0031612548 0.018026205
-0.017579893 -0.018828137 -0.0028694186 0.0047122026 -0.0050531747 -0.01892374 -0.013451872 -0.0074281725
-0.029191867 0.017117228 -0.00034300308 -0.012238418 -0.0063181957 -0.020781297 -0.01499364 -0.020765968
-0.015592862 -0.009560873 -0.032699626 -0.02029354 0.019776898 0.002703782 -0.017591175 -0.013359884
-0.03935837 0.008837756 -0.072076924 0.0057279794 -0.034604184 -0.03995353 -0.029152395 -0.008402437
-0.03543648 -0.009062684 -0.00034615895 -0.017492032 -0.03397399 -0.03835592 -0.0006881787 0.0058895657
-0.04263947 0.0075152284 -0.02418255 -0.03979448 -0.013617729 -0.08056718 -0.04629775 -0.032334693
-0.012909152 -0.05985082 -0.024090998 -0.030722093 -0.03973407 0.054093994 -0.016965874 -0.0639384
-0.06982369 -0.0019213796 -0.0028498417 0.009814246 -0.03442392 0.016583953 -0.05378856 -0.011556335
-0.014771733 -0.006362868 -0.023211941 -0.016099596 0.0036532332 -0.030553594 -0.014013948 0.0071019665
0.0033828062 0.002777762 -0.02476774 0.025501829 -0.017241912 0.0083708735 -0.014202781 -0.055125847
-0.03154914 -0.027898626 -0.025799718 0.026690431 -0.035395145 -0.024521057 -0.05171207 -0.008780062
0.007839473 -0.031979322 -0.047132023 -0.040059563 0.012583853 -0.012258299 -0.050288174 -0.021288447
-0.0076287803 -0.02968287 0.026599236 -0.033742946 0.009593584 -0.042708192 -0.044139605 -0.01599499
-0.035010856 -0.015648672 -0.0043990696 -0.056359123 -0.03275499 -0.038804166 -0.05934949 -0.01920597
-0.067564495 -0.029706055 -0.020985715 -0.034219448 -0.0137271965 0.0039710077 -0.04463258 -0.0011355806
-0.02146815 -0.012827214 -0.018388042 -0.021613877 -0.0020979927 -0.035662442 -0.037277326 -0.016671767
-0.059859946 0.007095558 -0.02456803 -0.021295821 -0.008607279 -0.03457237 -0.019820035 -0.045117375
-0.04914156 0.0035857444 0.022857683 -0.012332193 -0.015108211 -0.03278971 -0.032567494 -0.05054312
-0.02574915 -0.02132944 -0.03108973 -0.0016096691 -0.028805468 -0.030822922 -0.023890467 -0.026768314
-0.0024572595 -0.019846218 -0.027281068 -0.073813766 -0.02027274 -0.060657587 -0.024810778 -0.048065316
-0.014435777 -0.0027806084 -0.011335052 -0.020272575 -0.0485722 -0.02670688 -0.033551954 0.03540686
0.01581457 0.02214206 -0.03819986 -0.061367076 -0.014131754 -0.036731746 -0.014664148 0.003985597
-0.035408325 -0.01614237 -0.040389203 -0.018334702 -0.012892153 -0.03411121 -0.08750531 -0.023418348
-0.0688726 -0.052377205 -0.021602057 -0.023309132 0.00951922 -0.046431888 0.0007795216 -0.054189086
-0.020554882 -0.007520961 -0.0042085256 -0.01991303 0.0022624447 0.013649514 -0.028147114 -0.026999112
-0.047731612 -0.015573692 -0.0026865078 -0.017052522 -0.02863811 -0.03627298 -0.006774926 -0.0341152
-0.025892416 0.0023781064 -0.03795333 -0.003440445 -0.036108 -0.03586438 -0.0078007537 0.006749828
-0.047903698 -0.034171548 -0.0314 -0.032538284 0.018906653 0.008529782 0.011160783 -0.02756969
-0.013690318 -0.0050996225 -0.016688813 -0.05404112 -0.006537444 -0.007862315 -0.009958603 -0.0293068
00000000: bee7 37bc 293e b2bc 3c3b c1bb 577f 0abd
00000010: 9f8a 0bbc 053d 65bd 539a eebc 1138 b4bc
00000020: af7e 69bd d046 3bbd 6533 acbc 6dbc 5d3b
00000030: 8f4a f9bc 5a38 b53a 5337 d7bc fbb6 aebc
00000040: 36a6 62bd f2f0 76bc 12e1 d9bc ec27 653c
00000050: b1c8 70bd b0bc 66bc 0e2d 4fbb b1ab 933c
00000060: b503 90bc 773d 9abc db0c 3cbb d268 9a3b
00000070: 1a95 a5bb f605 9bbc 3e65 5cbc 0768 f3bb
00000080: c823 efbc 6e39 8c3c 18d5 b3b9 a583 48bc
00000090: de08 cfbb 8a3d aabc e2a7 75bc 641d aabc
000000a0: 3479 7fbc 35a5 1cbc 0bf0 05bd a33e a6bc
000000b0: 2903 a23c ef31 313b 5e1b 90bc 6ae3 5abc
000000c0: 3e36 21bd 3ccc 103c 119d 93bd c6b1 bb3b
000000d0: 1ebd 0dbd 50a6 23bd 01d1 eebc 60aa 09bc
000000e0: d825 11bd a77b 14bc ab7c b5b9 734b 8fbc
000000f0: 4f28 0bbd 191b 1dbd e466 34ba 42fd c03b
00000100: baa6 2ebd 4e42 f63b 7c1a c6bc 89ff 22bd
00000110: e51c 5fbc 6800 a5bd b6a2 3dbd 6271 04bd
00000120: e880 53bc 2226 75bd 7c5a c5bc e6ac fbbc
00000130: 31c0 22bd aa91 5d3d 04fc 8abc 23f2 82bd
00000140: b9ff 8ebd cdd6 fbba 69c4 3abb eecb 203c
00000150: 1900 0dbd 12db 873c 6551 5cbd c856 3dbc
00000160: 2405 72bc 9b7f d0bb f826 bebc 4de3 83bc
00000170: 156b 6f3b 884b fabc c29a 65bc 9db7 e83b
00000180: 12b2 5d3b 1d0b 363b b7e5 cabc 36e9 d03c
00000190: e93e 8dbc fd25 093c c8b2 68bc a4cb 61bd
000001a0: ac39 01bd a98b e4bc ee59 d3bc e4a5 da3c
000001b0: 80fa 10bd 62e0 c8bc 09d0 53bd 40da 0fbc
000001c0: 2271 003c c0fc 02bd 820d 41bd 7f15 24bd
000001d0: 812c 4e3c 08d7 48bc f9fa 4dbd 1c65 aebc
000001e0: d9fa f9bb 7d29 f3bc a4e6 d93c 0b36 0abd
000001f0: 682e 1d3c c9ee 2ebd bbcb 34bd ed07 83bc
00000200: 8b67 0fbd a531 80bc 1226 90bb d3d8 66bd
00000210: 192a 06bd 1ef1 1ebd 7318 73bd d755 9dbc
00000220: 415f 8abd 1d5a f3bc 3cea abbc b129 0cbd
00000230: 09e8 60bc 3a1f 823b a7d0 36bd c3d7 94ba
00000240: f9dd afbc 3c29 52bc 85a2 96bc 960f b1bc
00000250: 7a7e 09bb c812 12bd 1cb0 18bd 3b93 88bc
00000260: b42f 75bd db81 e83b e542 c9bc 9374 aebc
00000270: 8b05 0dbc c29b 0dbd a05d a2bc ffcc 38bd
00000280: a948 49bd cffe 6a3b 0940 bb3c f70c 4abc
00000290: 6e88 77bc 814e 06bd 7e65 05bd 4d06 4fbd
000002a0: e2ef d2bc 14bb aebc e4af febc 88fb d2ba
000002b0: 72f9 ebbc 5a80 fcbc f1b5 c3bc 3949 dbbc
000002c0: f909 21bb 8994 a2bc 8c7c dfbc ac2b 97bd
000002d0: 0413 a6bc 1774 78bd f93f cbbc 23e0 44bd
000002e0: 0a84 6cbc de3a 36bb a7b6 39bc ac12 a6bc
000002f0: a5f3 46bd 63c8 dabc c66d 09bd c906 113d
00000300: 8f8d 813c 4463 b53c 7577 1cbd 0b5c 7bbd
00000310: df88 67bc 0774 16bd e541 70bc 9c99 823b
00000320: 5208 11bd 013d 84bc 266f 25bd a832 96bc
00000330: 9c39 53bc 32b8 0bbd fc35 b3bd d6d7 bfbc
00000340: 140d 8dbd 7b89 56bd ccf6 b0bc cbf2 bebc
00000350: 81f6 1b3c 5d2f 3ebd cf58 4c3a 60f5 5dbd
00000360: b662 a8bc 6572 f6bb ace7 89bb a720 a3bc
00000370: 8645 143b 36a2 5f3c c794 e6bc 3e2d ddbc
00000380: 3982 43bd cc28 7fbc 1f10 30bb bbb1 8bbc
00000390: 789a eabc fa92 14bd 3300 debb 61bc 0bbd
000003a0: 551c d4bc 01da 1b3b f374 1bbd 1779 61bb
000003b0: fbe5 13bd 87e6 12bd 779d ffbb a92d dd3b
000003c0: ab36 44bd 77f7 0bbd 499d 00bd dd46 05bd
000003d0: 20e2 9a3c 80c0 0b3c b7db 363c d5d9 e1bc
000003e0: 5b4d 60bc bc1a a7bb fab6 88bc 395a 5dbd
000003f0: 0e38 d6bb f0d0 00bc 6929 23bc d014 f0bc

action_model._discrete_distribution.branches.0.weight f4 [4, 256]
-0.069121204 -0.033321705 0.050931938 -0.024288977 -0.029469807 0.00844426 0.02879707 -0.02172945
-0.014607476 -0.026713198 -0.0063677332 0.0006031374 -0.0034720895 0.019013973 0.03143524 0.054634593
-0.014372099 0.0029449263 -0.024226837 -0.03223666 0.0049558342 0.0031513777 0.012754637 -0.01344688
-0.015250261 -0.027228653 0.063426614 -0.04427619 -0.016755719 -0.036456186 -0.00708922 -0.0034096318
-0.0063603404 -0.07048356 -0.019909443 -0.0011076899 0.07580251 -0.031682383 -0.025448972 -0.006412113
-0.005644541 0.0091664195 0.023979343 -0.008153308 -0.051428527 0.05959556 -0.009452685 -0.041551664
-0.023509376 -0.034316197 -0.004473374 -0.05422526 -0.020587161 -0.0033397453 -0.02488033 0.058781944
0.004653823 -0.03884678 0.062204372 0.0007793768 -0.016118357 -0.02414299 -0.027527107 -0.019974794
-0.0064279637 -0.03981803 0.060024273 -0.020915221 0.02044509 -0.02151959 -0.017677184 -0.02683745
-0.02544516 -0.021732816 -0.0043149195 0.029759685 -0.001334776 0.03521134 -0.03736332 -0.025972987
-0.040640824 -0.010115469 0.06207313 0.007628191 -0.018638158 -0.0540842 -3.1039926e-05 -0.012248504
-0.041346505 -0.022572933 0.04285668 0.035603598 0.06759714 -0.0050270045 -0.05298857 -0.055591717
0.053076174 0.076390944 0.0033368925 0.043141685 -0.015010797 -0.05201901 0.024062134 -0.02085828
-0.016975647 0.013326928 -0.014553377 0.034729116 -0.008787177 -0.01892655 -0.01572811 -0.027472248
-0.015269336 0.0083983 -0.004687356 -0.046706237 0.06400341 -0.021888137 -0.039426994 0.023175476
-0.03872567 -0.018366553 0.07956911 0.005528405 0.03191289 -0.022379234 -0.05231643 0.046921395
-0.026384884 -0.024940811 0.038622506 -0.012476979 -0.020249907 0.0022400327 0.0057427324 0.03100298
0.0036457716 -0.011849766 -0.010478951 0.023742469 -0.017157076 -0.003395767 0.0012033645 0.051306352
-0.03323318 0.0022951833 -0.04563144 -0.0320368 -0.025191588 -0.02532618 -0.02484643 -0.024826303
-0.026637778 -0.09208676 -0.013295715 -0.042686537 -0.016584795 0.004284485 -0.02006439 0.014216925
-0.03780826 0.0030405014 0.05863886 -0.020063967 0.003770015 -0.0034614336 -0.032382928 -0.0011744503
0.0414572 0.022764154 -0.023609335 -0.009170607 -0.02344178 0.00791874 -0.031411786 -0.0045004133
0.042699415 -0.030466942 -0.01994955 0.0033764015 0.010452292 -0.021390077 -0.0037477724 0.0126111
0.02325892 -0.019745456 -0.05236187 -0.0065331915 -0.008615296 -0.03806097 -0.023045229 0.032041512
0.060225032 0.039578833 -0.011569028 -0.00028090365 -0.044092726 0.048596494 -0.009023193 -0.018176911
-0.027987994 0.027695978 -0.01934176 -0.0011132339 -0.0028171272 0.02150381 -0.020731146 -0.031766985
-0.003687027 -0.029588183 -0.025253994 -0.034153834 0.077418104 -0.017482547 -0.03512898 -0.039003197
0.027195556 -0.03500506 -0.014413481 -0.042486183 -0.023893386 0.0610095 -0.005063607 -0.03540503
-0.026642857 0.018131208 0.027937392 -0.007112407 -0.048733152 -0.0076020216 -0.03216755 0.002319644
-0.023206031 -0.00076208386 -0.011045238 -0.014851427 -0.03713873 -0.010619804 -0.010460323 -0.01944913
-0.021882227 0.008247474 -0.031041315 -0.024535375 0.078634106 -0.03109982 -0.067203656 -0.030780617
0.058337327 -0.04483013 -0.031917818 -0.020344077 0.030451305 -0.031395998 -0.036779147 -0.012454698
00000000: 6b8f 8dbd 577c 08bd 029e 503d adf9 c6bc
00000010: aa6a f1bc cb59 0a3c d5e7 eb3c f601 b2bc
00000020: 3254 6fbc a3d5 dabc 6ba8 d0bb de1b 1e3a
00000030: ff8b 63bb 31c3 9b3c 3dc2 003d 86c8 5f3d
00000040: f478 6bbc aaff 403b 5c77 c6bc 970a 04bd
00000050: 8d64 a23b 5887 4e3b d3f8 503c 4d50 5cbc
00000060: 3bdc 79bc a00e dfbc d0e5 813d f35a 35bd
00000070: 4a43 89bc 1553 15bd b04c e8bb 2174 5fbb
00000080: 676a d0bb af59 90bd 2119 a3bc e82f 91ba
00000090: 593e 9b3d 63c5 01bd 5d7a d0bc b41c d2bb
000000a0: d7f5 b8bb c02e 163c 5470 c43c 7495 05bc
000000b0: b8a6 52bd 791a 743d 6fdf 1abc 1432 2abd
000000c0: bc96 c0bc 248f 0cbd 6295 92bb 4e1b 5ebd
000000d0: 68a6 a8bc a1df 5abb d5d1 cbbc 56c5 703d
000000e0: 197f 983b cd1d 1fbd 03ca 7e3d 174f 4c3a
000000f0: a50a 84bc 85c7 c5bc 8780 e1bc 2ea2 a3bc
00000100: aba1 d2bb 3b18 23bd 03dc 753d 6656 abbc
00000110: 767c a73c da49 b0bc becf 90bc 36da dbbc
00000120: 5e72 d0bc 0509 b2bc 2b64 8dbb 95ca f33c
00000130: a7f3 aeba c439 103d 480a 19bd 4dc5 d4bc
00000140: fe76 26bd 5abb 25bc 6540 7e3d e7f5 f93b
00000150: 0daf 98bc 6587 5dbd de30 02b8 f3ad 48bc
00000160: f45a 29bd dfea b8bc 7c8a 2f3d 14d5 113d
00000170: 5f70 8a3d 92b9 a4bb 8b0a 59bd 24b4 63bd
00000180: 6766 593d db72 9c3d c4af 5a3b 56b5 303d
00000190: d9ef 75bc e311 55bd f41d c53c fcde aabc
000001a0: 8310 8bbc 3059 5a3c 4a71 6ebc 1e40 0e3d
000001b0: 17f8 0fbc da0b 9bbc 3dd8 80bc 7b0d e1bc
000001c0: 3d2c 7abc 0699 093c 6498 99bb 0a4f 3fbd
000001d0: 3814 833d c04e b3bc 337e 21bd 7fda bd3c
000001e0: cf9e 1ebd 7475 96bc 21f5 a23d 9f27 b53b
000001f0: 17b7 023d a854 b7bc c149 56bd a630 403d
00000200: 1d25 d8bc ac50 ccbc a232 1e3d 3e6c 4cbc
00000210: 22e3 a5bc 83cd 123b 882d bc3b f6f9 fd3c
00000220: e6ed 6e3b 8525 42bc e8af 2bbc 917f c23c
00000230: ff8c 8cbc 848b 5ebb 36ba 9d3a 9c26 523d
00000240: 841f 08bd c96a 163b 08e8 3abd 0539 03bd
00000250: 975e cebc d978 cfbc be8a cbbc 8860 cbbc
00000260: 7837 dabc fc97 bcbd 45d6 59bc 14d8 2ebd
00000270: d6dc 87bc dd64 8c3b 135e a4bc 1bee 683c
00000280: d6dc 1abd 2643 473b 4d2f 703d 305d a4bc
00000290: 5b12 773b 38d9 62bb f6a3 04bd 03f0 99ba
000002a0: 06cf 293d e47b ba3c 5d68 c1bc 5040 16bc
000002b0: fa08 c0bc 9abd 013c a5a9 00bd 3478 93bb
000002c0: 95e5 2e3d cf95 f9bc 3d6d a3bc 9e46 5d3b
000002d0: 1740 2b3c 3e3a afbc 309d 75bb ca9e 4e3c
000002e0: 7e89 be3c 39c1 a1bc 6679 56bd 6214 d6bb
000002f0: 2c27 0dbc d2e5 1bbd 59c9 bcbc f63d 033d
00000300: 86ae 763d 6a1d 223d 058c 3dbc 4046 93b9
00000310: 939a 34bd 1e0d 473d 04d6 13bc bfe7 94bc
00000320: 1447 e5bc ade2 e23c 9c72 9ebc eee9 91ba
00000330: 8d9f 38bb c228 b03c 5dd4 a9bc 191e 02bd
00000340: 0ca2 71bb eb62 f2bc 77e1 cebc e4e4 0bbd
00000350: 628d 9e3d 8f37 8fbc 68e3 0fbd d1c1 1fbd
00000360: 37c9 de3c 7761 0fbd 8526 6cbc fe05 2ebd
00000370: 10bc c3bc 19e5 793d 9dec a5bb dd04 11bd
00000380: 1f42 dabc e687 943c f5dc e43c 320f e9bb
00000390: 6a9c 47bd 611a f9bb 1fc2 03bd 2b05 183b
000003a0: 931a bebc 95c6 47ba 16f7 34bc 6653 73bc
000003b0: c81e 18bd b0fe 2dbc c661 2bbc c853 9fbc
000003c0: 5b42 b3bc 6a20 073c 5b4a febc 69fe c8bc
000003d0: eb0a a13d 0dc5 febc 12a2 89bd a227 fcbc
000003e0: 1ff3 6e3d cc9f 37bd 42bc 02bd 9fa8 a6bc
000003f0: 0475 f93c 1799 00bd bba5 16bd ca0e 4cbc

action_model._discrete_distribution.branches.0.bias f4 [4]
0.0074658575 -0.0007066293 0.0044514053 0.00032425614
00000000: 27a4 f43b 173d 39ba 18dd 913b ec00 aa39

onnx::Div_62 f4 [202]
0.3548909 0.27824777 0.45111245 0.37874582 0.44308338 0.37369657 0.45111245 0.37980032
0.44308338 0.3746312 0.44433534 0.3802953 0.4332045 0.37487072 0.44725665 0.38163394
0.43599066 0.3763697 0.45161483 0.3824566 0.43997377 0.3779395 0.45950314 0.38756818
0.450255 0.38442624 0.45388687 0.38507143 0.44568586 0.3816535 0.45687032 0.38521713
0.44850302 0.38196814 0.45974135 0.3911632 0.45385152 0.3892076 0.46238518 0.3905746
0.4552332 0.38865495 0.45753703 0.37678215 0.44786954 0.37441388 0.44929153 0.36995006
0.43777952 0.36801717 0.4497443 0.36996666 0.43862188 0.36808485 0.45910326 0.37794882
0.4492798 0.37545094 0.46577838 0.394773 0.4563435 0.388586 0.46524623 0.39569435
0.4555632 0.38918662 0.46201164 0.39024553 0.45111188 0.38301226 0.45934093 0.3901336
0.44867647 0.3827349 0.46603283 0.3918142 0.45618537 0.3854976 0.45873368 0.38695976
0.44655094 0.3793594 0.45601612 0.38656345 0.44318804 0.37871945 0.4538638 0.38542965
0.44198677 0.37768453 0.45762557 0.3847084 0.4445688 0.37734786 0.45762557 0.38370997
0.4445688 0.3763371 0.3731121 0.29241267 0.35851765 0.28355807 0.4619287 0.3913838
0.45106402 0.38147214 0.4619287 0.39248025 0.45106402 0.38254523 0.45339727 0.39359537
0.44652516 0.38292024 0.45607254 0.3947238 0.44729364 0.38374236 0.45900497 0.39507115
0.44850346 0.3837766 0.46668443 0.39996102 0.45700377 0.38914198 0.4635232 0.3981503
0.45036447 0.3864161 0.46529564 0.3981866 0.4525641 0.38663796 0.47072187 0.40472856
0.45691434 0.3931938 0.47191435 0.4040288 0.45878744 0.3926742 0.4628066 0.38855192
0.45350277 0.3804105 0.45303482 0.3820688 0.44407645 0.37340698 0.4522924 0.38216
0.4439719 0.37343037 0.46177164 0.3886182 0.45353696 0.37989908 0.4689296 0.40225837
0.46221918 0.39480302 0.46827576 0.40290722 0.46149006 0.3955057 0.46579775 0.39667574
0.45743775 0.38895926 0.46416974 0.3966553 0.45533603 0.38883975 0.47092864 0.39866462
0.46055138 0.39109927 0.4640695 0.39423558 0.45251653 0.38608202 0.46291983 0.39417598
0.45109963 0.38650763 0.461448 0.3932768 0.44984186 0.38564783 0.4634819 0.39255798
0.45417607 0.3850615 0.4634819 0.39142165 0.45417607 0.38405827 0.36880004 0.2926309
0.36880004 0.2926309
00000000: 43b4 b53e 7e76 8e3e 36f8 e63e f9ea c13e
00000010: d3db e23e 2855 bf3e 36f8 e63e 3075 c23e
00000020: d3db e23e a9cf bf3e ec7f e33e 11b6 c23e
00000030: fbcc dd3e 0eef bf3e d3fe e43e 8665 c33e
00000040: 2b3a df3e 88b3 c03e 0f3a e73e 5ad1 c33e
00000050: 3e44 e13e 4981 c13e ff43 eb3e 566f c63e
00000060: d387 e63e 84d3 c43e dc63 e83e 1528 c53e
00000070: f030 e43e 1668 c33e e8ea e93e 2e3b c53e
00000080: 30a2 e53e 5491 c33e 3863 eb3e 8b46 c83e
00000090: 3a5f e83e 3846 c73e c0bd ec3e 65f9 c73e
000000a0: 5314 e93e c8fd c63e 4b42 ea3e 97e9 c03e
000000b0: 284f e53e 2db3 bf3e 8a09 e63e 186a bd3e
000000c0: a324 e03e bf6c bc3e e344 e63e 456c bd3e
000000d0: 0c93 e03e 9e75 bc3e 950f eb3e 8282 c13e
000000e0: 0008 e63e 1b3b c03e 817a ee3e b01f ca3e
000000f0: dba5 e93e bff4 c63e c134 ee3e 7398 ca3e
00000100: 943f e93e 7843 c73e ca8c ec3e 43ce c73e
00000110: 23f8 e63e 2f1a c43e bc2e eb3e 97bf c73e
00000120: ecb8 e53e d4f5 c33e db9b ee3e df9b c83e
00000130: 2191 e93e f15f c53e 24df ea3e 971f c63e
00000140: 53a2 e43e 653b c23e f27a e93e a5eb c53e
00000150: 8be9 e23e 84e7 c13e d660 e83e 0957 c53e
00000160: 174c e23e de5f c13e e64d ea3e 80f8 c43e
00000170: 869e e33e bd33 c13e e64d ea3e a275 c43e
00000180: 869e e33e 42af c03e 8d08 bf3e 1db7 953e
00000190: a08f b73e 862e 913e eb81 ec3e 7563 c83e
000001a0: ddf1 e63e 5150 c33e eb81 ec3e 2cf3 c83e
000001b0: ddf1 e63e f8dc c33e b023 e83e 5585 c93e
000001c0: f29e e43e 1f0e c43e 5782 e93e 3d19 ca3e
000001d0: ac03 e53e e179 c43e b302 eb3e c446 ca3e
000001e0: 3fa2 e53e 5e7e c43e 43f1 ee3e b1c7 cc3e
000001f0: 66fc e93e 9e3d c73e ea52 ed3e 5bda cb3e
00000200: 2c96 e63e 55d8 c53e 3b3b ee3e 1ddf cb3e
00000210: 7bb6 e73e 69f5 c53e 7502 f13e 9538 cf3e
00000220: adf0 e93e b350 c93e c29e f13e dddc ce3e
00000230: 30e6 ea3e 980c c93e fdf4 ec3e 47f0 c63e
00000240: 8431 e83e 2ac5 c23e 2ef4 e73e 869e c33e
00000250: fd5d e33e 332f bf3e df92 e73e 7aaa c33e
00000260: 4950 e33e 4432 bf3e 556d ec3e f7f8 c63e
00000270: ff35 e83e 2282 c23e 8a17 f03e cff4 cd3e
00000280: fea7 ec3e 9f23 ca3e d7c1 ef3e db49 ce3e
00000290: 6d48 ec3e b97f ca3e 0b7d ee3e 1519 cb3e
000002a0: 4835 ea3e ab25 c73e a8a7 ed3e 6716 cb3e
000002b0: ce21 e93e 0116 c73e 8f1d f13e c51d cc3e
000002c0: 64cd eb3e 2a3e c83e 849a ed3e 3fd9 c93e
000002d0: 3fb0 e73e 8bac c53e d403 ed3e 6fd1 c93e
000002e0: 88f6 e63e 54e4 c53e ea42 ec3e 945b c93e
000002f0: ac51 e63e a273 c53e 804d ed3e 5cfd c83e
00000300: c489 e83e c826 c53e 804d ed3e 6b68 c83e
00000310: c489 e83e 49a3 c43e 5cd3 bc3e b8d3 953e
00000320: 5cd3 bc3e b8d3 953e

onnx::Div_65 f4 [10]
22.563427 10.373112 0.0050110994 0.0050110994 0.0050110994 0.0050110994 0.0050110994 0.0050110994
0.0050110994 0.0050110994
00000000: e681 b441 44f8 2541 2634 a43b 2634 a43b
00000010: 2634 a43b 2634 a43b 2634 a43b 2634 a43b
00000020: 2634 a43b 2634 a43b
