results/GameUpdated3/PlayerBehaviour.onnx (onnx, 534464 bytes, 12 tensors)

network_body.observation_encoder.processors.0.normalizer.running_mean f4 [122]
0	0x3f555d8b	0.8334586
1	0x3f5ff9f3	0.8749077
2	0x3f342209	0.70364434
3	0x3f42160e	0.758149
4	0x3f3680c8	0.71290255
5	0x3f448f90	0.7678156
6	0x3f385354	0.7200215
7	0x3f43c5d4	0.76473737
8	0x3f3bb735	0.73326427
9	0x3f46c105	0.77638274
10	0x3f3606b8	0.71104
11	0x3f426f8d	0.75951463
12	0x3f39a5c2	0.7251855
13	0x3f459882	0.77185833
14	0x3f318813	0.6934826
15	0x3f3f68fe	0.7476958
16	0x3f35842b	0.709048
17	0x3f42e625	0.7613242
18	0x3f31a1ec	0.693877
19	0x3f3f2e33	0.7467987
20	0x3f35fed9	0.7109199
21	0x3f42ce2c	0.76095843
22	0x3f2fc22b	0.6865565
23	0x3f3d67b2	0.7398635
24	0x3f33fb6f	0.7030553
25	0x3f40c9e6	0.7530807
26	0x3f3806b0	0.71885204
27	0x3f46ce88	0.7765889
28	0x3f3e1474	0.7424996
29	0x3f4b528a	0.7942282
30	0x3f37ca8b	0.7179343
31	0x3f46b892	0.7762538
32	0x3f3e1494	0.7425015
33	0x3f4b4576	0.79402864
34	0x3f2d2fa4	0.6765082
35	0x3f3b4ef4	0.7316735
36	0x3f353836	0.70788896
37	0x3f41ab27	0.7565178
38	0x3f2ebbd5	0.6825536
39	0x3f3ce269	0.73782974
40	0x3f362ded	0.7116383
41	0x3f42d9d2	0.7611362
42	0x3f2d6976	0.67739046
43	0x3f3ca15c	0.73683715
44	0x3f35f508	0.71077013
45	0x3f43004b	0.7617232
46	0x3f320ca4	0.6955054
47	0x3f3fa626	0.748629
48	0x3f39accc	0.7252929
49	0x3f457650	0.77133656
50	0x3f349679	0.70542103
51	0x3f410d0d	0.7541054
52	0x3f3abcb7	0.72944206
53	0x3f4601cc	0.7734649
54	0x3f304522	0.6885549
55	0x3f3f4abb	0.74723405
56	0x3f364393	0.7119686
57	0x3f4425d5	0.7662023
58	0x3f50e1ab	0.8159434
59	0x3f5c7ff5	0.86132747
60	0x3f555bde	0.83343303
61	0x3f5ff418	0.8748183
62	0x3f2eee06	0.68331945
63	0x3f3e296c	0.74281955
64	0x3f355e19	0.70846707
65	0x3f43228a	0.7622458
66	0x3f338211	0.7012034
67	0x3f400796	0.75011575
68	0x3f397a0b	0.7245185
69	0x3f44d084	0.7688067
70	0x3f31683e	0.69299686
71	0x3f3ee1e7	0.7456345
72	0x3f3738ad	0.71570855
73	0x3f437962	0.7635709
74	0x3f2cfb31	0.6757079
75	0x3f3be745	0.73399764
76	0x3f32ecf3	0.69892806
77	0x3f40a138	0.75246
78	0x3f2d87fa	0.6778561
79	0x3f3bd61c	0.7337358
80	0x3f33035b	0.69926995
81	0x3f404cc2	0.75117123
82	0x3f2b59a5	0.6693366
83	0x3f39d74d	0.7259415
84	0x3f30f5fd	0.6912535
85	0x3f3e5f4e	0.74364173
86	0x3f34d41a	0.7063614
87	0x3f449680	0.76792145
88	0x3f395691	0.72397715
89	0x3f47a3a2	0.7798406
90	0x3f352df3	0.7077324
91	0x3f44ba0b	0.7684638
92	0x3f38ce90	0.7219019
93	0x3f476eac	0.77903247
94	0x3f2b4bd0	0.66912556
95	0x3f39cbc2	0.72576535
96	0x3f2ea74f	0.6822404
97	0x3f3c933f	0.7366218
98	0x3f2c96cf	0.67417616
99	0x3f3b30ec	0.73121524
100	0x3f306017	0.6889662
101	0x3f3e5924	0.7435477
102	0x3f2b7fbd	0.6699179
103	0x3f3b10bb	0.73072404
104	0x3f303c9f	0.688425
105	0x3f3e945d	0.74445134
106	0x3f305526	0.68879926
107	0x3f3e3902	0.74305737
108	0x3f345bc7	0.7045254
109	0x3f41415d	0.7549036
110	0x3f32dbb4	0.6986649
111	0x3f3fac39	0.74872166
112	0x3f368d66	0.71309507
113	0x3f427b4a	0.75969374
114	0x3f2f161c	0.6839311
115	0x3f3e29dc	0.7428262
116	0x3f31a015	0.6938489
117	0x3f406c95	0.75165683
118	0x3f511d60	0.8168545
119	0x3f5c9213	0.8616039
120	0x3f511d60	0.8168545
121	0x3f5c9213	0.8616039

network_body.observation_encoder.processors.1.normalizer.running_mean f4 [122]
0	0x3f73d91f	0.95253175
1	0x3f75f02e	0.9606961
2	0x3f5df197	0.8669676
3	0x3f635b20	0.8881092
4	0x3f5f381b	0.87194985
5	0x3f6468b0	0.8922224
6	0x3f5bf106	0.8591465
7	0x3f624645	0.8838847
8	0x3f5dccd3	0.8664066
9	0x3f63a451	0.889226
10	0x3f583401	0.8445435
11	0x3f5fe25d	0.8745478
12	0x3f5ab2df	0.85429186
13	0x3f61b237	0.8816256
14	0x3f5561ee	0.83352554
15	0x3f5dd47c	0.8665235
16	0x3f588741	0.8458138
17	0x3f6025e2	0.87557805
18	0x3f54631d	0.82963735
19	0x3f5d243b	0.8638341
20	0x3f57824e	0.84183204
21	0x3f5f71a8	0.872828
22	0x3f51e41c	0.8198869
23	0x3f5b2119	0.8559738
24	0x3f5541fc	0.8330381
25	0x3f5db096	0.86597574
26	0x3f518b46	0.8185314
27	0x3f5bceb0	0.85862255
28	0x3f553680	0.83286285
29	0x3f5e8914	0.86927915
30	0x3f518b47	0.81853145
31	0x3f5bcc55	0.8585866
32	0x3f551a99	0.8324371
33	0x3f5e7e8d	0.8691185
34	0x3f51b97b	0.81923646
35	0x3f5af37c	0.8552778
36	0x3f553d19	0.8329635
37	0x3f5db764	0.86607957
38	0x3f5364b2	0.82575524
39	0x3f5c5929	0.8607355
40	0x3f573f73	0.8408119
41	0x3f5f584d	0.8724411
42	0x3f543d64	0.82906175
43	0x3f5cf1fd	0.86306745
44	0x3f58459d	0.8448122
45	0x3f600bc4	0.8751795
46	0x3f570cac	0.8400371
47	0x3f5eed25	0.87080604
48	0x3f5aadca	0.8542143
49	0x3f61c12e	0.88185394
50	0x3f5a4a1c	0.8526933
51	0x3f60fa91	0.87882334
52	0x3f5de2e4	0.8667433
53	0x3f63c875	0.8897775
54	0x3f5c3589	0.8601919
55	0x3f620446	0.8828777
56	0x3f5fb0e7	0.87379307
57	0x3f64c2d8	0.8935981
58	0x3f73ad67	0.95186466
59	0x3f75e0e4	0.9604628
60	0x3f74fa68	0.9569459
61	0x3f76dd2a	0.9643122
62	0x3f5c98db	0.8617074
63	0x3f624aa0	0.8839512
64	0x3f5df750	0.86705494
65	0x3f634783	0.88780993
66	0x3f5a2f74	0.8522866
67	0x3f60fcec	0.8788593
68	0x3f5c0fa3	0.8596136
69	0x3f623de1	0.8837567
70	0x3f569564	0.838217
71	0x3f5eaaf4	0.86979604
72	0x3f588ddf	0.8459148
73	0x3f5fff9a	0.8749939
74	0x3f53a636	0.8267549
75	0x3f5c97ab	0.86168927
76	0x3f55b1c7	0.8347439
77	0x3f5df281	0.86698157
78	0x3f527d93	0.8222286
79	0x3f5bd6bf	0.8587455
80	0x3f54a6e4	0.83067155
81	0x3f5d3f28	0.86424494
82	0x3f5032c5	0.8132747
83	0x3f5a03e7	0.85162205
84	0x3f529bbe	0.82268894
85	0x3f5b895c	0.8575647
86	0x3f4f7926	0.8104423
87	0x3f5a83a1	0.853571
88	0x3f51c7a4	0.8194525
89	0x3f5bf3cf	0.859189
90	0x3f4f816b	0.8105685
91	0x3f5a7f06	0.8535007
92	0x3f518288	0.818398
93	0x3f5bc6ee	0.8585042
94	0x3f4fae03	0.81124896
95	0x3f599273	0.8498909
96	0x3f517e92	0.81833756
97	0x3f5aceeb	0.8547198
98	0x3f51ef1b	0.8200547
99	0x3f5b5739	0.85679966
100	0x3f5353e1	0.82549864
101	0x3f5c5b5b	0.860769
102	0x3f532cc0	0.8249016
103	0x3f5c2acb	0.86002797
104	0x3f541d94	0.8285763
105	0x3f5ce963	0.8629362
106	0x3f563a75	0.8368295
107	0x3f5e4c4d	0.86835176
108	0x3f56985f	0.8382625
109	0x3f5eb29f	0.86991304
110	0x3f59c190	0.8506098
111	0x3f6092d1	0.87724024
112	0x3f5a1136	0.8518251
113	0x3f60e2c4	0.87846017
114	0x3f5bd706	0.85874975
115	0x3f61b04d	0.8815964
116	0x3f5c28ac	0.8599956
117	0x3f62027d	0.88285047
118	0x3f72dc74	0.94867635
119	0x3f751f3c	0.95750785
120	0x3f72dc74	0.94867635
121	0x3f751f3c	0.95750785

network_body.observation_encoder.processors.2.normalizer.running_mean f4 [10]
0	0x42096b95	34.35506
1	0x41699016	14.597677
2	0x3e7440d5	0.23852856
3	0x3e1edc2d	0.15513678
4	0x3f33c980	0.7022934
5	0x3e2e220b	0.17005174
6	0x3f1b4f06	0.60667455
7	0x3db62ebf	0.08895635
8	0x3f8d2943	1.1028217
9	0xbd0cbf60	-0.034362197

network_body._body_endoder.seq_layers.0.weight f4 [256, 254]
0	0xbe24396f	-0.16037534
1	0xbe0962b6	-0.13416561
2	0xbd4c0066	-0.049805067
3	0x3bbc32a9	0.005743344
4	0xbc846e70	-0.016165942
5	0x3c393f5d	0.011306611
6	0x3d7ffe89	0.062498603
7	0xbc8adcab	-0.016950926
8	0xbd3829a4	-0.044961587
9	0xbd2917e3	-0.041282546
10	0x3cf77eb4	0.030211784
11	0x3d70b724	0.058768407
12	0x3cec037d	0.028810257
13	0x3d3b7d84	0.045773998
14	0x3d384b97	0.044993963
15	0xbd832e3c	-0.06405303
16	0xbde62faa	-0.1123956
17	0xbc773214	-0.015087623
18	0x3c78358e	0.015149487
19	0xbc3a14f0	-0.011357531
20	0xbdd625fb	-0.10456463
21	0x3d2def71	0.042464677
22	0x3bf4c2ea	0.0074695246
23	0xbdc01f3e	-0.09380959
24	0x3d3386b7	0.043829646
25	0xbc5b88a6	-0.013399279
26	0x3cf6b9c3	0.030117875
27	0x3d87f892	0.06639208
28	0x3dd70793	0.104994915
29	0x3d4af085	0.049545784
30	0xbc8ee938	-0.017445192
31	0x3c581743	0.01318914
32	0x3e3133b0	0.17304873
33	0x3dbbc7db	0.09168979
34	0x3c914a32	0.017735574
35	0x3d107628	0.035268933
36	0xbd387869	-0.045036707
37	0x3cbec451	0.02328697
38	0xbdfffb0e	-0.12499057
39	0xbcca0980	-0.024662733
40	0x3d5764ae	0.05258625
41	0x3c990be3	0.018682426
42	0xbc7a35b1	-0.01527159
43	0xbe023bac	-0.12718076
44	0xbd87a203	-0.06622698
45	0xbd8c009f	-0.06836056
46	0xbdd0ae83	-0.101895355
47	0xbd21f541	-0.039540533
48	0xbd6b6bed	-0.057475973
49	0xbd2c2e23	-0.042036187
50	0xbd3dae02	-0.046308525
51	0xbdac3abf	-0.084096424
52	0x3cd41aa3	0.025891608
53	0xbdb792ab	-0.089635216
54	0x3d02f82f	0.031974968
55	0x3b7fcc8d	0.0039031834
56	0x3d5d3274	0.054003194
57	0x3d0e8400	0.034793854
58	0x3e5ae76a	0.2137734
59	0x3db5707b	0.088593446
60	0xbd78ad30	-0.06071204
61	0xbcd353e9	-0.025796847
62	0x3d9d5196	0.07681577
63	0x3d1ef28e	0.038805537
64	0xbd2b787c	-0.04186295
65	0xbd25e8ff	-0.040505406
66	0x3def0b53	0.11672082
67	0x3da650af	0.08120858
68	0xbe16dd64	-0.14732891
69	0x3bb32285	0.0054667615
70	0x3d33cd24	0.04389681
71	0x3dff761a	0.12473698
72	0xbcfb892f	-0.030705063
73	0x3d8d000b	0.06884774
74	0x3ca23658	0.019801304
75	0x3de27725	0.11057881
76	0xbe312387	-0.17298709
77	0x3d5d674c	0.05405359
78	0x3e4110a2	0.18854001
79	0x3d962913	0.07332053
80	0xbcc0b01c	-0.023521475
81	0x3da445b7	0.080211096
82	0x3cb2a12a	0.021805365
83	0x3d6176ec	0.055045053
84	0xbd67f531	-0.056630317
85	0xbcae7618	-0.021296546
86	0x3e0bcc4f	0.13652156
87	0x3d205330	0.039141834
88	0xbcdfe31c	-0.027329974
89	0x3c860a7e	0.016362425
90	0xbc9bd923	-0.019024437
91	0x3d60c843	0.054878484
92	0xbcd4a536	-0.025957685
93	0xbdfa45a9	-0.12220318
94	0xbcd27a20	-0.025693
95	0x3ce75933	0.028240776
96	0xbd103c75	-0.035213906
97	0xbd01faf1	-0.031733457
98	0x3d75d04e	0.060013108
99	0x3e0df7f7	0.13864122
100	0x3d404c0d	0.046947528
101	0x3c61f9c6	0.013792461
102	0x3e53500c	0.20636004
103	0x3e11ab67	0.14225541
104	0xbbe57b8b	-0.007003253
105	0xbcdcc0bc	-0.026947372
106	0x3e497294	0.19672614
107	0x3dedd372	0.116125956
108	0x3d487a18	0.048944563
109	0xbbf5e426	-0.007504004
110	0x3e5e7373	0.21723728
111	0x3d25f637	0.040518012
112	0x3c517fa6	0.012786781
113	0x3cccd068	0.02500172
114	0x3de31fc6	0.11090045
115	0x3e123601	0.14278413
116	0x3cba0f19	0.022712277
117	0x3d88ca8b	0.06679257
118	0x3c723c6a	0.014784912
119	0x3e0af5b3	0.1357029
120	0xbb6092aa	-0.0034267106
121	0x3daca23b	0.084293805
122	0xbd1212fd	-0.03566264
123	0xbcb00539	-0.021486865
124	0x3d3b0ce1	0.04566658
125	0x3d77e530	0.060521305
126	0x3d23a9db	0.03995691
127	0xbd5c5e86	-0.053801082
128	0x3d1f25a5	0.03885426
129	0x3d74eca0	0.059795976
130	0x3d31f3a1	0.043445233
131	0x3d1c9ad7	0.038233604
132	0x3cbce563	0.023058599
133	0xbc933ca1	-0.017973246
134	0xbd8e0ebc	-0.06936404
135	0xbd933853	-0.07188477
136	0xbb975a23	-0.0046188994
137	0x3d27ea6e	0.040995054
138	0x3d95b5c8	0.07310063
139	0x3d9f444b	0.07776698
140	0xbd46b1a8	-0.04850927
141	0x3c984bfd	0.018590922
142	0xbd05289a	-0.032509424
143	0xbd61d9ba	-0.05513928
144	0x3de2d895	0.11076466
145	0x3db2c69f	0.0872929
146	0xbd04c408	-0.032413512
147	0xbc9fd907	-0.019512666
148	0xbc8ecad2	-0.017430697
149	0x3da8742c	0.08225283
150	0xbccab77b	-0.024745693
151	0x3d38e0eb	0.045136373
152	0x3d08bcec	0.033383295
153	0x3d10a5b0	0.035314262
154	0x3c4c04d3	0.012452322
155	0xbd91fd8b	-0.071284376
156	0x3d3056d7	0.043051567
157	0x3c5cdee9	0.01348088
158	0x3c18d598	0.0093282685
159	0x3dad1a3b	0.08452269
160	0xbc91f062	-0.017814819
161	0x3c19e6e7	0.00939343
162	0x3d4d8be8	0.050182253
163	0x3d87c46c	0.066292614
164	0x3d88c57a	0.06678291
165	0x3c10bd86	0.008834248
166	0xbd9ab713	-0.0755445
167	0xbc860699	-0.016360568
168	0xbcfc22c1	-0.03077829
169	0x3d497896	0.049187265
170	0xbd99f5f8	-0.07517618
171	0xbd9aab40	-0.075521946
172	0xbd024a15	-0.03180893
173	0x3afe071d	0.0019380782
174	0x3d8fe6bb	0.0702643
175	0xbc9e5059	-0.019325422
176	0xbc144b8b	-0.009051214
177	0xbc90d1ef	-0.01767823
178	0xbc8c72f8	-0.017144665
179	0x3d66f677	0.05638739
180	0xbde33718	-0.11094493
181	0xbdca73ad	-0.09885345
182	0x3d35f7f1	0.04442591
183	0x3dbd533b	0.092443906
184	0xbc390223	-0.011292013
185	0x3941a356	0.00018466762
186	0xbd159606	-0.036520027
187	0xbbc16c74	-0.005902821
188	0xbcd230dc	-0.025658064
189	0xbda12ad1	-0.07869495
190	0x3c21cdd8	0.009875737
191	0xbc9989db	-0.018742492
192	0xbbf1c9a3	-0.0073787733
193	0x3ccedd7d	0.025252098
194	0xb8679621	-5.521451e-05
195	0xbdc53cbd	-0.096307255
196	0x3dcfce07	0.101467185
197	0xbd94fc10	-0.072746396
198	0x3c672038	0.014106803
199	0x3ca99331	0.02070007
200	0x3dbd76fe	0.092512116
201	0x3d9bad50	0.07601416
202	0xbbfb66c6	-0.0076721637
203	0x3dcf87e7	0.10133343
204	0xbc8ba503	-0.017046457
205	0x3d86e71b	0.065870486
206	0xbe030004	-0.12792975
207	0x3c5419c1	0.012945593
208	0x3d830b85	0.063986816
209	0x3d8c6d71	0.06856812
210	0xbd2d99bb	-0.042382937
211	0x3b96a58b	0.004597371
212	0x3ca3a9f6	0.019978505
213	0x3d855f57	0.06512325
214	0x3d61d449	0.05513409
215	0xbcd2e68d	-0.0257447
216	0x3cd30640	0.025759816
217	0x3c3c28d1	0.011484341
218	0xbc060de0	-0.008182019
219	0xbd09a817	-0.03360757
220	0xbd8c5dbc	-0.06853816
221	0xbcdd4e77	-0.027014954
222	0xbdedf0a2	-0.11618163
223	0x3b9ea713	0.004841694
224	0xbd3af008	-0.045639068
225	0xbc7a3cf5	-0.015273322
226	0xbdcdebb9	-0.10054726
227	0xbd8f50e1	-0.06997848
228	0xbccb3d2c	-0.024809442
229	0x3d27c597	0.04095992
230	0xbe0b5bfa	-0.13609305
231	0x3cabe870	0.020984858
232	0xbc1fed26	-0.00976113
233	0x3d232040	0.039825678
234	0xbd072e40	-0.03300309
235	0x3de604dc	0.112313956
236	0xbd57880f	-0.05261999
237	0x3d77d000	0.0605011
238	0x3e277f00	0.1635704
239	0xbda2ab42	-0.07942821
240	0x3d4025f0	0.04691118
241	0x3d9d443d	0.07679031
242	0x3d861e8b	0.06548794
243	0xbc0111ed	-0.007877809
244	0xbc816e7b	-0.015799752
245	0xbcbbf3ce	-0.022943404
246	0xbdb07ad5	-0.08617178
247	0xbd3fe608	-0.046850234
248	0xbd379d1c	-0.044827566
249	0xbc70942c	-0.014683764
250	0x3d4924f2	0.0491075
251	0xbc22f031	-0.009944961
252	0x3d93a52e	0.0720924
253	0x3d017afa	0.03161142
254	0x3dd55ec0	0.10418463
255	0x3d18a985	0.03727104

network_body._body_endoder.seq_layers.0.bias f4 [256]
0	0xbbaf23ca	-0.0053448426
1	0xbb9ae135	-0.004726554
2	0xbd743d73	-0.059628915
3	0xbcc4bcdc	-0.024015836
4	0xbd019e3e	-0.031645052
5	0xbcc32e6c	-0.023825847
6	0xbc373a98	-0.011183403
7	0x3c99225c	0.018693142
8	0xbb9e2de4	-0.004827248
9	0x3cf35929	0.0297056
10	0xbc9a4165	-0.01883001
11	0xbce8f2d4	-0.028436102
12	0x3cfb2f43	0.030662185
13	0xbc967af5	-0.018369177
14	0x3a5bf1b5	0.0008390204
15	0x3d2a6678	0.041601628
16	0xbc9f4797	-0.019443316
17	0x3d0b6e8a	0.034040965
18	0x3c81b7f5	0.015834788
19	0xbca95e3f	-0.020674823
20	0xbd250b99	-0.040294264
21	0x3bfc1363	0.0076927408
22	0x3c1dd9e3	0.009634468
23	0x3cf05567	0.029337598
24	0x3cd78cb1	0.026312204
25	0x3d0b14b8	0.033955306
26	0xbc99d17f	-0.018776653
27	0x3cc5d645	0.024150023
28	0xbcaa326f	-0.020776002
29	0x3b5da22b	0.0033818583
30	0x3cc7b486	0.024378072
31	0xbb50c6e2	-0.0031856825
32	0x3bdce101	0.0067406897
33	0xb99b2c70	-0.00029597012
34	0xbca796ee	-0.020457711
35	0x3b780e86	0.0037850454
36	0x3bc97f4c	0.006149208
37	0x3ae6eb02	0.0017617645
38	0xbbfb281d	-0.007664694
39	0x3c9b7edf	0.018981395
40	0xbb82e514	-0.0039945934
41	0xbcd017d9	-0.025401996
42	0x3d2eed3f	0.042706724
43	0x3cb0d607	0.021586431
44	0x3cb84665	0.022494504
45	0x3c5a3b68	0.013319828
46	0xbb391d7c	-0.0028246334
47	0xbc96986a	-0.018383224
48	0x3ca9b6bc	0.020717017
49	0xbcb43c56	-0.022001427
50	0xbc09a8aa	-0.008402029
51	0xbcbec700	-0.02328825
52	0xbbaf8676	-0.005356605
53	0xbca7d74b	-0.020488402
54	0xbb97de22	-0.0046346346
55	0x3cef337d	0.029199356
56	0x3cad7315	0.02117304
57	0xbd749302	-0.05971051
58	0x3bac2c1c	0.0052542817
59	0x3bc433bb	0.005987612
60	0xbca35bd2	-0.019941244
61	0x3bc031da	0.005865318
62	0x3c26238b	0.01014031
63	0xbc23b3cb	-0.009991596
64	0xbcc3af27	-0.02388723
65	0xbccb5e66	-0.024825286
66	0xbd59df7b	-0.053191643
67	0x3c305036	0.010761311
68	0xbd4f6693	-0.05063493
69	0xbca124a8	-0.0196708
70	0xbd25f105	-0.040513057
71	0x3b88f27f	0.0041792984
72	0x3bfb1822	0.007662789
73	0xbb6f3f3d	-0.0036506199
74	0x3c345e08	0.011008747
75	0xbc3f8b1d	-0.011690882
76	0xbcd34487	-0.025789512
77	0x3bff42fe	0.0077899685
78	0x3b0c6893	0.0021424636
79	0xbc048601	-0.00808859
80	0xbb645ba2	-0.0034844656
81	0x3c58696d	0.013208729
82	0x3ceb2058	0.028701946
83	0xbc851a23	-0.016247815
84	0xbc5183bd	-0.0127877565
85	0x3c6ad967	0.014334059
86	0xbc4bad8a	-0.012431512
87	0x3c914cdb	0.017736843
88	0x3cc3786f	0.023861138
89	0xbce035af	-0.027369348
90	0xbc82d5b8	-0.01597105
91	0xbbe358f7	-0.0069380957
92	0x3c1fd4cd	0.0097553255
93	0xbd1028ec	-0.035195276
94	0xbc90bbf6	-0.017667752
95	0x3b1e9c0b	0.0024201896
96	0xbb42d92e	-0.00297315
97	0x3c1e7499	0.009671354
98	0x3d003614	0.031301573
99	0x3cfc53de	0.03080171
100	0xbb03042d	-0.0019991503
101	0x3c8d27b4	0.017230846
102	0xbcf2675a	-0.029590297
103	0x3bc88e92	0.0061205113
104	0x3b364313	0.0027810975
105	0x3d0e2a94	0.034708574
106	0xbb5acea8	-0.0033387337
107	0x3b93418b	0.0044938973
108	0xbcd392c9	-0.025826829
109	0x3c5c1fbf	0.013435303
110	0xbd382f9e	-0.044967286
111	0xbbb51c8a	-0.0055270838
112	0x3c70391b	0.0146620525
113	0x3c7d1a6f	0.015448197
114	0xbce9f471	-0.028558942
115	0x3c2f7a4e	0.010710312
116	0xbc9d10a6	-0.019172978
117	0xbc9f711e	-0.019463118
118	0x3c81be6d	0.015837872
119	0x3c04aab7	0.008097342
120	0x3bee3663	0.007269667
121	0xbcbada01	-0.02280903
122	0xbcfe877a	-0.03107046
123	0xbcae8feb	-0.02130886
124	0xbd002345	-0.031283636
125	0xbb41da7c	-0.002957969
126	0x3b56f386	0.003279896
127	0xb9c48d93	-0.00037489514
128	0xbb5d44b7	-0.003376288
129	0xbcefd04c	-0.029274128
130	0xbacc763a	-0.0015599199
131	0xbd07a4db	-0.033116203
132	0x3b572847	0.0032830404
133	0xbb9a0532	-0.0047003264
134	0xbc1d8507	-0.009614236
135	0x3a50a6e6	0.000795944
136	0xbc9800ce	-0.018555071
137	0xbc91a057	-0.017776651
138	0x3cdcb584	0.026942022
139	0xbd1d0450	-0.03833419
140	0xbcfe4648	-0.031039372
141	0xbb186192	-0.0023251516
142	0x3c9ac07e	0.018890616
143	0x3c626dee	0.013820155
144	0xbb60cb3c	-0.0034300825
145	0xbc3a5cb2	-0.011374639
146	0x3d4743e8	0.048648745
147	0xbb8bac59	-0.004262489
148	0xbc00e00b	-0.007865916
149	0x3c899aec	0.016797505
150	0xbc817f4b	-0.015807768
151	0xbc16ff6b	-0.00921617
152	0xbd51c403	-0.051212322
153	0xbcb405e4	-0.021975465
154	0xbc829b9f	-0.015943347
155	0x3bad49b0	0.0052883253
156	0x3be6214c	0.0070230123
157	0xbd190789	-0.0373607
158	0xbd73e107	-0.059540775
159	0xbcd58c6e	-0.026067939
160	0x3b0bfa61	0.0021358954
161	0xbc1cc226	-0.009567773
162	0x3b5fa53b	0.0034125585
163	0x3cb206a0	0.021731675
164	0xbb382faa	-0.0028104582
165	0x3d0779af	0.03307503
166	0x3ad230d7	0.0016036284
167	0x3c05aa52	0.008158283
168	0xbc2ce29c	-0.010552075
169	0x3b678917	0.0035329515
170	0xbd1697f1	-0.036765996
171	0x3cd22d4d	0.025656367
172	0xbc3442bf	-0.011002242
173	0xbd1e449e	-0.038639657
174	0xbb9d4353	-0.0047992854
175	0xbcc475ac	-0.023981892
176	0xbd532f93	-0.051559042
177	0xbd0a579d	-0.03377496
178	0xbb820b6a	-0.003968646
179	0xbd6230e1	-0.055222396
180	0x3ca3324f	0.01992145
181	0xb930348e	-0.00016804246
182	0x3be59a3d	0.007006912
183	0xbc91f35f	-0.017816244
184	0xbaa01de3	-0.0012215938
185	0xbc9e60d3	-0.019333279
186	0x3bebc5d8	0.0071952157
187	0x3c1f8672	0.009736644
188	0x3c06fe82	0.00823939
189	0xbb106d6a	-0.0022037872
190	0xbc6ea542	-0.014565768
191	0x3b31740e	0.002707723
192	0x3ceec4fb	0.029146662
193	0xbbd0cf64	-0.006372379
194	0x3b70a35f	0.003671847
195	0x3c8e2a66	0.017354202
196	0xbdca9de0	-0.098933935
197	0x3a3d9b22	0.00072328944
198	0xbccff0a4	-0.025383301
199	0x3ccb5c1f	0.0248242
200	0xbd6c8379	-0.05774257
201	0xbd1ca03c	-0.03823875
202	0x3b2be3db	0.0026228342
203	0xbcc4c584	-0.024019964
204	0x3c032e46	0.008006638
205	0xbc949689	-0.018138187
206	0xbd319f74	-0.043364957
207	0xbbb4e6e3	-0.005520688
208	0x3c88f292	0.016717229
209	0xbd0796d3	-0.03310282
210	0x3c1335f5	0.008985032
211	0xbc14b28f	-0.009075775
212	0xbc509704	-0.012731317
213	0x3cb1d058	0.021705791
214	0xbc2f0db2	-0.010684418
215	0x3d5d1a97	0.053980436
216	0x3cf2519d	0.029579932
217	0x3c80d972	0.015728686
218	0xbc479fb1	-0.0121840695
219	0xbc63626f	-0.013878449
220	0xbcb28482	-0.0217917
221	0xbd3c34ae	-0.045948677
222	0x3c91405b	0.017730882
223	0xbcd2308a	-0.02565791
224	0x3c7bc25f	0.015366166
225	0xbbef3e65	-0.007301139
226	0xbbfef052	-0.0077801133
227	0x3c6c76a1	0.01443258
228	0x3d0f043a	0.03491614
229	0x3d345da4	0.044034615
230	0x3c87e8c9	0.016590493
231	0xbc654755	-0.013994058
232	0xbd00b44d	-0.03142195
233	0x3b72cb55	0.0037047465
234	0xbd1626f6	-0.03665825
235	0xbc441b93	-0.011969465
236	0xbc8a8c05	-0.01691247
237	0xbb6ef409	-0.0036461374
238	0x3c530ce3	0.01288149
239	0x3cc50cf8	0.024054036
240	0xbc21812a	-0.009857455
241	0x3cb9cdb9	0.022681104
242	0x3bbca6a6	0.0057571707
243	0x3c9b1a66	0.018933486
244	0xbd24acd4	-0.040203884
245	0xbb08ad77	-0.0020855346
246	0xbc8dbc74	-0.017301776
247	0xbb648b7f	-0.0034873185
248	0xbc1b9181	-0.00949514
249	0x3c939b1c	0.018018298
250	0x3caf2b47	0.021382941
251	0x3c2bbdd6	0.010482272
252	0xbcf837a2	-0.030299965
253	0xbc2ffc56	-0.010741314
254	0xbd55dd87	-0.052213218
255	0xbbb457e8	-0.0055036433

network_body._body_endoder.seq_layers.2.weight f4 [256, 256]
0	0x3dbd3f8b	0.092406355
1	0xbcb2b67e	-0.021815535
2	0x3d624ac3	0.05524708
3	0xbc84cdeb	-0.01621147
4	0xbd64f6de	-0.055899493
5	0x3dc64451	0.09680999
6	0x3da04a9c	0.078267306
7	0xbe3cda36	-0.18442616
8	0x3a4df5ad	0.0007856738
9	0xbd777a40	-0.06041932
10	0xbdc97ccd	-0.09838257
11	0x3d6288ef	0.05530637
12	0xbdfcb2e8	-0.12338811
13	0x3d43164a	0.04762868
14	0x3ddfceca	0.10928114
15	0xbe1657fd	-0.14682002
16	0xbdc5602f	-0.09637486
17	0x3db036d4	0.08604208
18	0x3db82ac7	0.08992534
19	0x3dc57841	0.09642077
20	0x3b459c7e	0.003015309
21	0xbd6a31d3	-0.057176422
22	0xbceb656e	-0.028734889
23	0xbe0019c1	-0.12509824
24	0xbd7199a5	-0.058984417
25	0x3df0bce2	0.117547765
26	0x3d743439	0.059620116
27	0x3ca0d544	0.019632943
28	0xbcf07886	-0.029354345
29	0x3d03406a	0.032043852
30	0x3c2f1a29	0.010687389
31	0xb9c0ff33	-0.00036811232
32	0x3d06f1b4	0.03294535
33	0xbd0f8cdf	-0.035046455
34	0x3d3d7b77	0.046260323
35	0x3dfaf6f9	0.122541375
36	0x3d72f3b5	0.05931445
37	0x3a5a4847	0.000832681
38	0xbd42f21a	-0.047594167
39	0x3d677b11	0.05651385
40	0x3de12c89	0.109948225
41	0x3d2e1863	0.042503726
42	0x3d616bed	0.055034567
43	0x3e1801d9	0.14844455
44	0xbd295406	-0.041339897
45	0x3d60f852	0.054924317
46	0x3d2299f1	0.03969759
47	0xbc8f6e96	-0.017508786
48	0x3d1c5ba1	0.03817332
49	0xbb2cca6c	-0.002636577
50	0x3db5b8cf	0.0887314
51	0x3d033b3c	0.032038912
52	0xbe255205	-0.16144569
53	0x3ce5dd91	0.028059753
54	0xbdcf1320	-0.1011107
55	0x3d0d76e4	0.03453721
56	0x3dbf30a5	0.0933545
57	0xbc28dc1c	-0.010306384
58	0x3e228b6e	0.158735
59	0x3d79507a	0.060867764
60	0x3da78bab	0.081809364
61	0x3b855fa7	0.0040702405
62	0xbcfcb7dc	-0.03084939
63	0xbda937de	-0.08262609
64	0xbc87ee91	-0.01659325
65	0x3d6e3d75	0.05816408
66	0xbc90d8f0	-0.017681569
67	0x3d472bb8	0.048625678
68	0xba14e750	-0.000568022
69	0x3d58f230	0.052965343
70	0xbd2f9417	-0.04286584
71	0xbce88bea	-0.028387029
72	0x3d1eb2ca	0.038744725
73	0x3d35ed7e	0.044415943
74	0x3d832ab1	0.06404627
75	0x3c336e72	0.010951625
76	0x3d6992cd	0.057024766
77	0xbd69a794	-0.05704458
78	0x3cd84ad5	0.02640287
79	0x3ce8df43	0.028426772
80	0xbd39a841	-0.045326475
81	0x3d7b4978	0.061349362
82	0xbd269274	-0.040667012
83	0xbd3169bd	-0.04331373
84	0xbca8076c	-0.020511352
85	0xbdaeb0ba	-0.08529802
86	0xbd27ce04	-0.040967956
87	0xbd4575c6	-0.04820802
88	0x3dfff17b	0.124972306
89	0xbc6223c7	-0.013802475
90	0x3d829b35	0.0637726
91	0x3d516a08	0.05112651
92	0x3da48a90	0.08034241
93	0x3d85f771	0.06541336
94	0xbd1c4607	-0.03815272
95	0x3bd7f111	0.0065900167
96	0x3dd1dc8f	0.10247146
97	0xbdc93b6e	-0.098257884
98	0xbda4c88b	-0.08046063
99	0xbca9d978	-0.02073358
100	0xbc669f39	-0.014076048
101	0x3c612c09	0.013743409
102	0xbd3028cc	-0.043007657
103	0xbd7833ee	-0.0605964
104	0xbd82e00f	-0.06390392
105	0xbcc2a6ec	-0.023761235
106	0x3cc28d5c	0.023749046
107	0xbcc5c17b	-0.02414011
108	0xbda49fa5	-0.08038262
109	0x3e03f7de	0.12887523
110	0x3d80df92	0.06292643
111	0x3e057bfc	0.13035578
112	0xbd94940e	-0.07254802
113	0x3d0fd598	0.03511581
114	0x3c6f2da0	0.01459828
115	0xbe1d2262	-0.15345147
116	0xbc74b5be	-0.014935909
117	0x3da5fca3	0.08104827
118	0x3b7e8546	0.0038836761
119	0x3db0af09	0.08627135
120	0x3e14c203	0.14527135
121	0xbd091286	-0.03346493
122	0xbdcb07a6	-0.09913568
123	0xbd7d5426	-0.06184783
124	0xbcedfe1e	-0.029051837
125	0xbcc790d4	-0.024361052
126	0x3c48059d	0.01220837
127	0xbb227678	-0.002478985
128	0x3d6df425	0.058094162
129	0x3cc70f20	0.024299204
130	0x3d72b347	0.059253003
131	0x3beb90ec	0.007188907
132	0x3dcb732d	0.099340774
133	0xbde152af	-0.11002099
134	0x3d0b2904	0.033974662
135	0x3dc914a4	0.0981839
136	0x3d82ae8b	0.06380948
137	0xbe17c1ce	-0.14820024
138	0x3dd36932	0.10322799
139	0x3dbce51f	0.09223389
140	0xbdb1cb4d	-0.08681355
141	0x3bb9c3cc	0.0056690928
142	0x3d8b8af3	0.06813612
143	0x3d39215d	0.045197833
144	0x3dd628a9	0.10456974
145	0xbd6008cd	-0.054695893
146	0x3b774f46	0.003773646
147	0xbb1a29df	-0.0023523492
148	0x3e36ec29	0.17863525
149	0x3d155fc0	0.036468267
150	0xbccd6fd5	-0.02507774
151	0x3c5ee8e7	0.013605333
152	0xbc090110	-0.00836207
153	0x3d3ab0f0	0.045578897
154	0xbe004043	-0.12524514
155	0x3d04b875	0.032402474
156	0xbb16e8ca	-0.0023026937
157	0xbd820c8f	-0.063500516
158	0x3e01b59d	0.12666936
159	0x3d83357c	0.06406686
160	0xbdcf9dba	-0.10137506
161	0xbd23a97e	-0.039956562
162	0x3dd45bdd	0.10369084
163	0xbd009932	-0.0313961
164	0xbcc256be	-0.023723003
165	0x3d782a32	0.060587116
166	0x3e1eaf19	0.15496482
167	0xbd0381a8	-0.03210607
168	0xbd0ba205	-0.03409006
169	0x3d8c877b	0.06861778
170	0x3ce27586	0.02764393
171	0x3d85e630	0.065380454
172	0xbd8bf9fd	-0.06834791
173	0xbd304971	-0.04303879
174	0x3d13e012	0.036102362
175	0xbdfc33e4	-0.12314585
176	0xbd71b4fa	-0.059010483
177	0x3dbba28c	0.09161863
178	0xbd57f7c3	-0.05272652
179	0x3b902eec	0.004400125
180	0xbba3038d	-0.0049747885
181	0xbd48cbfb	-0.049022656
182	0xbd237f4b	-0.039916318
183	0x3b908de8	0.004411448
184	0x3ca76181	0.020432236
185	0x3daabbc4	0.08336595
186	0xbc437894	-0.0119306035
187	0x3b813aba	0.0039437683
188	0x3def73a0	0.116919756
189	0x3db423f7	0.08795922
190	0x3dbb29bd	0.0913882
191	0xbd95c72b	-0.07313379
192	0x3decef56	0.11569087
193	0x3c086e9b	0.008327152
194	0x3b101cc0	0.0021989793
195	0x3d8657c0	0.06559706
196	0x3d9b94c4	0.07596734
197	0x3e043bc8	0.1291343
198	0x3d63a779	0.055579636
199	0x3bba6138	0.005687859
200	0x3cfa4fb2	0.03055558
201	0x3d0d1698	0.034445375
202	0xbdb1a183	-0.08673384
203	0xbd81027f	-0.06299304
204	0x3b8e36c8	0.0043400265
205	0x3d4eaa1a	0.05045519
206	0xbe05380a	-0.13009658
207	0x3e12d7d2	0.14340141
208	0xbd8be016	-0.068298504
209	0x3d44f532	0.0480854
210	0x3d8afbfe	0.06786345
211	0x3d9ca0a7	0.076478295
212	0x3d286d26	0.041119717
213	0x3cf5e5db	0.03001683
214	0x3dbb8f61	0.09158207
215	0x3dba0108	0.09082228
216	0x3dbf770b	0.093488775
217	0x3bd0109e	0.006349637
218	0x3db1c988	0.08681017
219	0x3d5685f9	0.05237386
220	0xbe17f808	-0.1484071
221	0x3b91c90f	0.004449017
222	0xbc095f2d	-0.008384508
223	0xbd3e6e91	-0.046492163
224	0xbd4f663a	-0.0506346
225	0xbdc3970d	-0.09550295
226	0xbcecb978	-0.028897032
227	0x3d3d450b	0.046208423
228	0xbb89dbac	-0.004207095
229	0x3dd29fa3	0.102843545
230	0xbb836cd5	-0.0040107765
231	0x3d3abc1f	0.045589563
232	0x3dcec129	0.10095436
233	0x3c9b7160	0.01897496
234	0xbd0e2339	-0.03470156
235	0x3c079581	0.008275391
236	0x3da3ce68	0.07998353
237	0x3c6fbf64	0.014633033
238	0x3d01122d	0.031511474
239	0x3d33fc6a	0.043941893
240	0x3c4626e4	0.012094233
241	0xbe09eb55	-0.13468678
242	0x3e091c57	0.13389717
243	0xbdd3ae74	-0.10336009
244	0xbce0d0c8	-0.027443305
245	0x3d550416	0.05200585
246	0x3c4d4f68	0.012531139
247	0xbce81cbe	-0.028334018
248	0xbd22d8e7	-0.039757635
249	0x3d69c128	0.057068974
250	0x3e10da98	0.14145887
251	0x3dfc1ebe	0.12310551
252	0x3d27db30	0.040980518
253	0x3c20bfff	0.0098114
254	0x3d5845dd	0.052801
255	0x3c2c85c7	0.010529942

network_body._body_endoder.seq_layers.2.bias f4 [256]
0	0x3d2e568b	0.042563003
1	0x3c30d9dc	0.010794129
2	0xbc6b706e	-0.014370067
3	0x3bcb8b38	0.0062116645
4	0x3ce3beb4	0.027800895
5	0x3ca8d1e9	0.020607905
6	0x3c0a7a68	0.0084520355
7	0x3bc6ba9f	0.0060647274
8	0xbbc6fd85	-0.0060727024
9	0x3cbbdb6b	0.022931775
10	0xb98e7f32	-0.00027179118
11	0xbbae3264	-0.0053160656
12	0x3ccbeb98	0.024892613
13	0x3ca34168	0.019928649
14	0x3b4d149f	0.0031292809
15	0xb8bf4b07	-9.121565e-05
16	0xbb256189	-0.0025235137
17	0x3c90573d	0.017619723
18	0x3b6b6f0e	0.0035924348
19	0xbd19c176	-0.037538014
20	0xbcaf24f7	-0.02137993
21	0x3c1064e4	0.008813117
22	0x3b8d50c8	0.0043126084
23	0xbca8938d	-0.02057817
24	0x3c9c56f5	0.019084433
25	0x39fb4feb	0.00047933994
26	0x3c082d37	0.008311561
27	0xbcf83ec2	-0.030303363
28	0x3ce646ca	0.028109927
29	0xbb4867af	-0.0030579378
30	0x3c8049f6	0.015660267
31	0x3cd2d4b9	0.0257362
32	0xbb078a92	-0.002068196
33	0x3c67bb28	0.014143743
34	0x3af72257	0.0018854839
35	0x3c933c5b	0.017973116
36	0x3c08abb7	0.008341721
37	0xbc62f980	-0.013853431
38	0x3c8a74c1	0.016901376
39	0xbb86f980	-0.004119098
40	0x3c9e2a54	0.019307293
41	0x3b96756c	0.0045916345
42	0x3b6700ca	0.0035248273
43	0x3c163ef0	0.009170279
44	0xbc566aa0	-0.013086945
45	0x3cc6367b	0.0241959
46	0x3c194bf7	0.00935649
47	0x3b9fc13e	0.004875331
48	0xbb735b10	-0.0037133135
49	0x3d4ca609	0.04996303
50	0x3d01cb84	0.03168823
51	0x3bfd7b91	0.0077356775
52	0x3c5517c8	0.013006158
53	0xbc28db13	-0.010306138
54	0xbd042dd8	-0.032270283
55	0x3beedea4	0.0072897244
56	0x38897402	6.554277e-05
57	0x3bb12e32	0.0054071182
58	0xbc381632	-0.0112357605
59	0x3c5f4745	0.013627832
60	0xbb55369a	-0.0032533766
61	0x3cc04a6a	0.023472983
62	0x3be8b8d2	0.0071021104
63	0x3caf201f	0.021377621
64	0xbc058e7f	-0.0081516495
65	0xbc02fdf0	-0.007995114
66	0x3d2830c6	0.04106214
67	0x3af5c779	0.0018751464
68	0x3a6667d4	0.00087892753
69	0x3c16ecd9	0.009211742
70	0xba1eeafe	-0.0006062238
71	0xb943bf5d	-0.00018667938
72	0xba0f7de7	-0.0005473778
73	0x3cbb7adf	0.022885738
74	0x3d1892c3	0.037249338
75	0xbc820514	-0.015871562
76	0x3b7737cd	0.003772247
77	0xbc2e3592	-0.010632889
78	0xbcbb7c92	-0.022886548
79	0x3c52cdfc	0.012866493
80	0x3c593fd1	0.013259844
81	0xbb32a226	-0.0027257293
82	0x3c50b22c	0.012737792
83	0x3d1188ef	0.03553098
84	0x3cc21c24	0.02369506
85	0x3c0f34c0	0.008740604
86	0x3c1b6c75	0.009486307
87	0xbcabc28c	-0.02096679
88	0x3c9ccfac	0.019141994
89	0xbbaed592	-0.005335518
90	0xb8739aee	-5.8080004e-05
91	0xba8365b4	-0.0010024817
92	0x3ca7dcf0	0.020491093
93	0x3c120815	0.00891306
94	0x3af1f486	0.0018459714
95	0x3d00e7e5	0.03147115
96	0x3cc7bf7c	0.024383299
97	0x3c6c1dc4	0.014411394
98	0x392de9c6	0.00016585653
99	0x3ca37c87	0.01995684
100	0x3cf2e941	0.02965224
101	0xbcdad0cb	-0.026710888
102	0x3b3d81dc	0.0028916514
103	0x3c8deaed	0.017323935
104	0xbca74739	-0.020419704
105	0xbc9a5fd8	-0.01884453
106	0x3c49046c	0.012269121
107	0xbca4ff27	-0.020141197
108	0x3c8c4adc	0.01712554
109	0x3c424ac3	0.011858645
110	0x3cb73368	0.02236338
111	0x3c1d45c2	0.009599151
112	0xbbc07c2c	-0.0058741774
113	0x3c2a80de	0.010406701
114	0x3bf961c8	0.0076105334
115	0x3b60fbad	0.0034329698
116	0xbcdb9b24	-0.026807375
117	0xbb806197	-0.0039178836
118	0x3c514929	0.01277379
119	0x3bf21c1a	0.007388604
120	0xba95dfcf	-0.0011434498
121	0x3d21f008	0.039535552
122	0xba0e0d40	-0.00054188445
123	0x3b534045	0.0032234353
124	0x3cb7968f	0.02241066
125	0x3befe9b3	0.0073215603
126	0x3ce04196	0.027375024
127	0xbc882d1c	-0.016623072
128	0x39458392	0.00018836398
129	0x3c67b462	0.014142128
130	0xbc00bd8d	-0.007857692
131	0x3d275d1c	0.04086028
132	0xbc84c869	-0.016208844
133	0xbc2a936c	-0.010411125
134	0x3cf7c7ec	0.030246697
135	0xbc5a40dc	-0.013321128
136	0x3c595036	0.013263753
137	0x3cdf1d3f	0.027235625
138	0x3d117651	0.035513226
139	0x3acf41aa	0.0015812416
140	0xbc5b8d70	-0.013400421
141	0x3c44b4a1	0.012005956
142	0xbca2362e	-0.019801226
143	0x3cce6505	0.025194654
144	0x3cdc7691	0.026912006
145	0xbc974195	-0.01846389
146	0x3bcab229	0.006185789
147	0xbb57b682	-0.003291518
148	0xbcac3298	-0.021020219
149	0xbc053d71	-0.008132325
150	0x3d1c4ae1	0.038157348
151	0x3d2816df	0.041037437
152	0xbbc67fcc	-0.006057715
153	0xbbe73038	-0.0070553087
154	0xbb219bd2	-0.0024659527
155	0xbbbbadd6	-0.00572751
156	0x3c588257	0.013214669
157	0x3b937b33	0.0045007705
158	0xbca31efa	-0.019912232
159	0x3bc90c9b	0.006135536
160	0x3a607b67	0.000856331
161	0x3d09eea5	0.033674855
162	0x3c20c8f8	0.00981354
163	0x3c844b35	0.016149143
164	0xbc1ed7b6	-0.009694984
165	0xba256e72	-0.0006310708
166	0x3b778234	0.0037766816
167	0x3c8aa928	0.016926363
168	0x3c8a3188	0.016869321
169	0x3aebae15	0.0017980958
170	0x3d151ac8	0.036402494
171	0x3c6d309d	0.014476922
172	0x3c9a88d9	0.018864082
173	0xbc281c79	-0.010260695
174	0x3b6928e6	0.0035577356
175	0x3bd842be	0.006599753
176	0x3cc581a3	0.024109667
177	0x3c8bd676	0.017070036
178	0xbc1eb6c2	-0.009687128
179	0x3c22bee3	0.009933206
180	0x3ad3823f	0.0016136839
181	0x3c417f96	0.011810204
182	0x3cf5edfe	0.03002071
183	0x3bfe716b	0.0077649853
184	0x3c533fc6	0.012893623
185	0x3bb7ce6f	0.0056093256
186	0x3cb2bf79	0.021819817
187	0x3c42d66e	0.011891944
188	0x3ceae849	0.028675215
189	0xbc0091c2	-0.007847251
190	0xbc58dbdd	-0.013236013
191	0x3b27af6f	0.0025586744
192	0xbc1e5721	-0.009664328
193	0xbc10a5f3	-0.008828628
194	0xbd17e6a6	-0.037085198
195	0x3c23a7a6	0.009988701
196	0xba4db289	-0.0007846733
197	0x3c06488c	0.008196007
198	0xbc2104b1	-0.009827779
199	0x3c6fdb02	0.014639618
200	0xbb9971b1	-0.0046827425
201	0x3aff378b	0.0019471509
202	0xbc4037de	-0.01173207
203	0x3c84370c	0.01613953
204	0x3caedf15	0.021346608
205	0x3cdb10f7	0.026741488
206	0x3c4c7700	0.012479544
207	0xbbaf7353	-0.005354324
208	0x3d1d115a	0.038346626
209	0x3c29d0ff	0.01036477
210	0x3c5ab81a	0.013349557
211	0xbc9da1af	-0.019242136
212	0xbc56d16c	-0.0131114535
213	0xbcd8c078	-0.026458964
214	0x3be5998a	0.0070068287
215	0x3cdf121d	0.027230317
216	0xbbab2335	-0.005222703
217	0x3cdf79ad	0.0272797
218	0x3c0d5096	0.00862517
219	0x3cc99578	0.024607405
220	0x3b750e36	0.0037392504
221	0x3c102feb	0.008800487
222	0x3cf23668	0.029566959
223	0x3c99cc16	0.018774074
224	0x3c094f88	0.008380778
225	0x3cefa4e0	0.029253423
226	0xbb85dbfc	-0.004085062
227	0x3bbf8146	0.005844268
228	0x3ca527ee	0.020160642
229	0x3b840e99	0.0040300605
230	0x3cb31c09	0.021863954
231	0xbc88546e	-0.016641822
232	0x3c40f15a	0.011776293
233	0xbac63ca3	-0.0015124272
234	0x3c03dce6	0.008048272
235	0x3ba6b3ea	0.0050873654
236	0xbbd220ea	-0.006412615
237	0xbc52d070	-0.012867078
238	0x3d05bbed	0.032649923
239	0xbb870c81	-0.0041213636
240	0x3c5dcf60	0.013538212
241	0xbc04690c	-0.008081686
242	0xba7b9e4d	-0.0009598479
243	0x3c1579f4	0.009123314
244	0x3cc2f413	0.023798024
245	0xbc9c121a	-0.0190516
246	0xbb94e01d	-0.004543318
247	0x3c9d745d	0.019220525
248	0xbb3606b2	-0.0027774987
249	0x3bda6079	0.0066643325
250	0x3ca07b6d	0.019590104
251	0x3d12c4b1	0.03583211
252	0xbc340ed5	-0.010989864
253	0x3b7b7e8e	0.0038374993
254	0x3bfca6a5	0.0077102953
255	0x3c1f085d	0.009706584

action_model._discrete_distribution.branches.0.weight f4 [4, 256]
0	0x3d164fc4	0.036697164
1	0x3d41c8d1	0.047310654
2	0x3cff0087	0.031128181
3	0x3c37ee4d	0.011226249
4	0xbd868349	-0.065680094
5	0x3be3a720	0.006947413
6	0x3cc7c4e2	0.024385873
7	0xbc00d268	-0.007862665
8	0x3c232024	0.009956393
9	0xbb4aefdc	-0.0030965721
10	0x3d161b78	0.03664729
11	0x3b1b10ec	0.002366121
12	0x3ccfb23d	0.025353545
13	0xbbc226a7	-0.005925018
14	0x3b9139fb	0.0044319606
15	0xbd16635e	-0.036715858
16	0x3c70898d	0.014681232
17	0x3ba218c1	0.0049467986
18	0x3ceba7dc	0.028766565
19	0x3c1bd74c	0.00951178
20	0xbc8d232b	-0.017228683
21	0x3d8388dd	0.06422589
22	0xbcbc697f	-0.022999523
23	0x3c8c3e1c	0.01711946
24	0xbccc2103	-0.024918085
25	0xbd24d657	-0.040243473
26	0xbcf01d09	-0.02931072
27	0x3ce84127	0.02835138
28	0xbd86cb2e	-0.06581722
29	0x3d1052e9	0.03523532
30	0xbd04fd05	-0.03246786
31	0x3c6f94f1	0.014622913
32	0x3d2ee981	0.042703155
33	0x3d67372b	0.056449097
34	0x3d6087c4	0.054816976
35	0x3d7f7f91	0.062377516
36	0xbd6b1daa	-0.057401337
37	0x3cde0d7b	0.027106037
38	0xbd018e9b	-0.03163014
39	0x3d61079b	0.054938894
40	0x3d066e41	0.03281999
41	0xbc9d4852	-0.019199524
42	0xbd528d57	-0.051404323
43	0xbce6db9d	-0.028180892
44	0xbada69b0	-0.0016663577
45	0x3d0df426	0.034656666
46	0xbca4be88	-0.020110384
47	0x3cb1e464	0.02171535
48	0xbc1041e0	-0.008804768
49	0x36368bf0	2.7201568e-06
50	0xbdbf0b77	-0.093283586
51	0xbc9bb598	-0.01900749
52	0x3d14da1b	0.036340814
53	0x3ca3f653	0.020014917
54	0xbbfc3220	-0.007696405
55	0xbb83a779	-0.004017767
56	0xbcb48304	-0.02203513
57	0x3c916480	0.017748117
58	0x3c0a487a	0.008440131
59	0x3d384c83	0.044994842
60	0xbb8da2ad	-0.004322371
61	0xbcfe91c6	-0.03107537
62	0xbc870266	-0.016480636
63	0xbd4c1043	-0.049820196
64	0xbc8a03f0	-0.01684758
65	0x3c3d203a	0.011543328
66	0x3bd1bb37	0.0064004916
67	0x3c9c4e51	0.019080313
68	0x3cffdbb0	0.031232685
69	0xba684d8c	-0.0008861653
70	0xbcae7565	-0.021296212
71	0xbcf30e8a	-0.029670019
72	0xba9e3a3c	-0.0012071799
73	0xbd3cc805	-0.04608919
74	0xbc3ce66d	-0.011529547
75	0xbca4fcf4	-0.020140149
76	0xbc7461f6	-0.014915934
77	0x3ca3928a	0.019967336
78	0x3c70c21c	0.014694717
79	0x3ca43c55	0.0200483
80	0xbca09e03	-0.019606596
81	0xbc554703	-0.013017419
82	0xbcc3a711	-0.023883374
83	0xbda9426f	-0.08264624
84	0xbd600afe	-0.054697983
85	0xbd5456dc	-0.051840648
86	0xbb9a6b25	-0.0047124797
87	0x3d47dabc	0.048792586
88	0xbd675887	-0.05648091
89	0x3c8f52b3	0.017495489
90	0xbc68f4a2	-0.014218481
91	0x3b06f5ec	0.0020593358
92	0xbd9197d8	-0.0710904
93	0xbcd6cc7a	-0.026220549
94	0xbc091606	-0.008367067
95	0xbd3d3125	-0.046189446
96	0xbd4eccc7	-0.05048826
97	0x3d16d841	0.03682733
98	0x3d67aecb	0.05656318
99	0xbd8926e0	-0.06696868
100	0x3d08fb1d	0.033442605
101	0x3be47630	0.006972097
102	0x3ce9e583	0.028551823
103	0xbd9dd129	-0.0770591
104	0xbb2473f2	-0.0025093523
105	0x3cdaad4b	0.02669396
106	0xbca4d36f	-0.02012035
107	0xbb8e6e30	-0.0043466315
108	0x3d2f05e6	0.042730235
109	0x3d7de44f	0.06198531
110	0xbc9bb4a7	-0.01900704
111	0xbd6c70c1	-0.057724718
112	0x3cbdaad0	0.023152739
113	0x3c8eb0da	0.017418314
114	0x3d0619a4	0.032739297
115	0x3d154e96	0.0364519
116	0xbc16b816	-0.009199163
117	0xbc08efc7	-0.008357949
118	0x3d16bee2	0.036803134
119	0x3cf4c09d	0.029877001
120	0xbd23078d	-0.039802123
121	0xbd262ff4	-0.040573075
122	0xbc2011b3	-0.009769845
123	0xbc9b9e8e	-0.018996503
124	0xbd5eaae7	-0.054362204
125	0xbca05a1c	-0.019574217
126	0xbcb54110	-0.02212575
127	0x3d1465ef	0.036230024
128	0x3c9b3c32	0.018949602
129	0xbd100952	-0.03516514
130	0xbccec505	-0.02524043
131	0xbd74c7d5	-0.059760887
132	0xbc9295c1	-0.017893674
133	0xbb84bc03	-0.004050733
134	0xbd0cbb2d	-0.034358192
135	0x3c48ec8e	0.01226343
136	0xbd5bb451	-0.05363876
137	0xbc3e363d	-0.011609611
138	0xbd344488	-0.04401067
139	0x3bc391ef	0.0059683244
140	0xbd09d1b8	-0.03364727
141	0xbc9b7af9	-0.018979536
142	0x3d005097	0.031326856
143	0x3d5d58ec	0.05403988
144	0xbdbfae4b	-0.093594156
145	0x3bfb81b0	0.007675372
146	0x3d3e9bd9	0.046535347
147	0x3cd5630f	0.026048211
148	0x3c7f6f48	0.015590496
149	0xbc69844b	-0.0142527325
150	0xbd15501d	-0.036453355
151	0x3b4694aa	0.0030301013
152	0x3cdf68a7	0.027271582
153	0x3d30d08c	0.043167636
154	0xba9f55a8	-0.0012156265
155	0x3cf15cf8	0.029463276
156	0xbd2263be	-0.039645903
157	0x3ae63f2a	0.0017566432
158	0x3d1182e0	0.035525203
159	0xbcc69c40	-0.024244428
160	0xbd4040fd	-0.046936978
161	0x3c2eb146	0.0106623825
162	0x3c0fdd0c	0.008780729
163	0xbd3caa5d	-0.04606091
164	0x3d42dec5	0.04757573
165	0x3d865e2a	0.06560929
166	0x3c54d6e3	0.012990686
167	0xbd91b60a	-0.07114799
168	0xbd14c926	-0.036324643
169	0x3d14eddd	0.036359657
170	0x3d3cfbde	0.046138637
171	0x3b62507e	0.003453284
172	0xbd0a1aed	-0.033717085
173	0x3d22c112	0.039734907
174	0x3cb4b0e0	0.022056997
175	0x3cc100fc	0.02356004
176	0x3d0edab8	0.034876555
177	0xbd7a7a50	-0.061151803
178	0x3d260d01	0.040539745
179	0x3ce48036	0.027893167
180	0x3d280e8c	0.041029498
181	0xbcedfee4	-0.029052205
182	0xbdc19c17	-0.094536
183	0x3cb28502	0.021791939
184	0xba87ef6f	-0.0010371039
185	0xbd18dfb0	-0.0373227
186	0xbd2c3a72	-0.042047925
187	0xbd32a7d3	-0.04361708
188	0xbc196298	-0.0093618855
189	0x3d3bbff7	0.04583737
190	0x3c99e598	0.018786237
191	0xbbb21599	-0.0054347035
192	0x3ce9e02e	0.02854928
193	0x3cf4b4c3	0.02987135
194	0x3c3d37ac	0.011548918
195	0x3d8cc305	0.068731345
196	0x3d3531d3	0.04423697
197	0xbc36b3d0	-0.011151269
198	0x3d2d6106	0.042328857
199	0xbd093784	-0.03350021
200	0x3cc45471	0.023966046
201	0x3d28b5e0	0.041189075
202	0x3c923b73	0.017850613
203	0x3d121233	0.035661887
204	0xbc860dd2	-0.016364012
205	0x3b60ac5e	0.0034282426
206	0x3ce53af2	0.027982209
207	0xbcc11118	-0.023567721
208	0xbd88b3ae	-0.06674896
209	0x3d22b4d2	0.039723225
210	0x3cc13c84	0.023588426
211	0x3c450fe6	0.012027716
212	0xbab39d39	-0.0013703472
213	0xbc9b78aa	-0.018978436
214	0xbd22efb5	-0.039779384
215	0xbd765e92	-0.060148783
216	0x3cdb1268	0.026742175
217	0xbd9f7b53	-0.07787194
218	0xbd0471c9	-0.032335076
219	0xbda683f6	-0.08130638
220	0x3d1373ff	0.035999294
221	0x3d2d8128	0.0423595
222	0x3cd7c16a	0.026337344
223	0xbc2a5d6c	-0.01039825
224	0x3c9e759e	0.019343194
225	0xbdc57326	-0.096411034
226	0xbcc46490	-0.023973733
227	0xbd7687b2	-0.060188003
228	0x3c0861ed	0.008324129
229	0x3b700a83	0.003662736
230	0xbc936098	-0.017990395
231	0xbb27441b	-0.0025522772
232	0x3cf5b867	0.029995156
233	0xbbf410f4	-0.00744831
234	0xbd1f7c7a	-0.03893707
235	0xbba2b868	-0.0049658306
236	0xbcf84e92	-0.030310903
237	0x3b91a0ea	0.0044442313
238	0xbcc84efc	-0.024451725
239	0xbc994765	-0.018710801
240	0xbb039822	-0.0020079692
241	0xbc2a112f	-0.010380073
242	0x3ce64874	0.02811072
243	0xbcdce182	-0.026963
244	0x3d06e41e	0.032932393
245	0x385ecb82	5.3118456e-05
246	0x3c62a730	0.013833806
247	0x3b560e9c	0.0032662516
248	0x3c8d8ac5	0.017278085
249	0xbcc0ef89	-0.02355172
250	0xbd1926ab	-0.037390392
251	0x3c9440e0	0.018097341
252	0x3cb94f4a	0.022620816
253	0xbc462dbe	-0.012095867
254	0xbbf7a9be	-0.0075580766
255	0xbc0ee115	-0.008720656

action_model._discrete_distribution.branches.0.bias f4 [4]
0	0x3babca1c	0.005242599
1	0xbbb6b3eb	-0.005575647
2	0x3bc30196	0.005951117
3	0xbb44b2aa	-0.0030013719

onnx::Div_72 f4 [122]
0	0x3ebec27e	0.3725776
1	0x3e95520a	0.29164153
2	0x3ee9cf6c	0.45666063
3	0x3ec50963	0.38483724
4	0x3ee7a21d	0.4524087
5	0x3ec1ce2c	0.3785261
6	0x3ee5e41c	0.44900596
7	0x3ec59d27	0.3859646
8	0x3ee2714a	0.44227058
9	0x3ec2354a	0.3793128
10	0x3ee81563	0.45328817
11	0x3ec61c19	0.38693312
12	0x3ee4901f	0.44641206
13	0x3ec2a979	0.38019922
14	0x3eec0882	0.4610024
15	0x3ec7b3e5	0.39004436
16	0x3ee88efb	0.45421585
17	0x3ec4359d	0.38322154
18	0x3eebf97d	0.46088782
19	0x3ec8375c	0.39104736
20	0x3ee81d66	0.4533493
21	0x3ec4ca70	0.38435698
22	0x3eed8394	0.4638945
23	0x3eca3da2	0.39500147
24	0x3ee9f265	0.45692745
25	0x3ec747a5	0.38921848
26	0x3ee62a92	0.44954354
27	0x3ebe9f0b	0.37230715
28	0x3edfe0da	0.43726236
29	0x3eb9ef25	0.36315265
30	0x3ee66882	0.45001608
31	0x3ebea137	0.37232372
32	0x3edfe091	0.43726018
33	0x3eba026f	0.36329982
34	0x3eef855b	0.4678143
35	0x3ecbd40d	0.3981022
36	0x3ee8d42c	0.45474374
37	0x3ec69bf7	0.38790867
38	0x3eee52cb	0.4654754
39	0x3ec9f428	0.3944409
40	0x3ee7f08a	0.45300704
41	0x3ec4bd86	0.38425845
42	0x3eef59ca	0.4674819
43	0x3ec94ed4	0.39317954
44	0x3ee825b8	0.45341277
45	0x3ec4444f	0.38333365
46	0x3eeba148	0.46021485
47	0x3ec80719	0.39067915
48	0x3ee48a6c	0.44636858
49	0x3ec2e058	0.38061786
50	0x3ee963f5	0.45584074
51	0x3ec7b088	0.3900187
52	0x3ee373dd	0.44424334
53	0x3ec2b8af	0.38031527
54	0x3eed1aeb	0.463096
55	0x3ec70c6f	0.38876674
56	0x3ee7db10	0.4528432
57	0x3ec24cfa	0.37949353
58	0x3ec66b05	0.38753524
59	0x3e9bcabf	0.3042812
60	0x3ebec67f	0.37260816
61	0x3e953389	0.2914088
62	0x3eee2bb5	0.4651772
63	0x3ec8106b	0.39075026
64	0x3ee8af51	0.45446256
65	0x3ec3d88c	0.3825115
66	0x3eea5d11	0.4577413
67	0x3ec8c42f	0.39212176
68	0x3ee4be5a	0.44676477
69	0x3ec454c7	0.3834593
70	0x3eec2908	0.46125054
71	0x3ec90006	0.3925783
72	0x3ee6f2b1	0.45107034
73	0x3ec4e9be	0.3845958
74	0x3eefad61	0.46811965
75	0x3eca527d	0.3951606
76	0x3eeae0b7	0.4587457
77	0x3ec66dfd	0.3875579
78	0x3eef4074	0.4672886
79	0x3ecae5d3	0.39628467
80	0x3eeacd23	0.45859632
81	0x3ec7125e	0.388812
82	0x3ef0e0d5	0.47046533
83	0x3ecce456	0.40017956
84	0x3eec8a11	0.46199086
85	0x3ec94a80	0.3931465
86	0x3ee92e91	0.4554334
87	0x3ec07b98	0.37594295
88	0x3ee4e242	0.4470387
89	0x3ebdc2ad	0.37062588
90	0x3ee8db5e	0.45479864
91	0x3ec083f1	0.37600663
92	0x3ee56aaa	0.4480794
93	0x3ebdc277	0.37062427
94	0x3ef0eb0c	0.47054327
95	0x3eccebcb	0.40023646
96	0x3eee64f6	0.46561402
97	0x3ecaad44	0.39585316
98	0x3eeffa9f	0.46870896
99	0x3ecb2668	0.3967774
100	0x3eed0319	0.46291426
101	0x3ec89586	0.39176577
102	0x3ef0c686	0.4702646
103	0x3eca7cd8	0.39548373
104	0x3eed2147	0.4631445
105	0x3ec81058	0.3907497
106	0x3eed0d86	0.4629938
107	0x3ec93ac6	0.39302653
108	0x3ee996ff	0.45623013
109	0x3ec6dd0c	0.3884052
110	0x3eeaec31	0.45883325
111	0x3ec8d934	0.39228213
112	0x3ee7967a	0.45231992
113	0x3ec6821e	0.38771147
114	0x3eee0cab	0.4649404
115	0x3ec8327d	0.3910102
116	0x3eebfba1	0.46090415
117	0x3ec5edf9	0.3865812
118	0x3ec60a5c	0.3867978
119	0x3e9bd4bf	0.3043575
120	0x3ec60a5c	0.3867978
121	0x3e9bd4bf	0.3043575

onnx::Div_75 f4 [122]
0	0x3e59bc07	0.21263133
1	0x3e37a631	0.1793449
2	0x3eade234	0.33961642
3	0x3e94c858	0.290591
4	0x3eab15e0	0.33415127
5	0x3e927646	0.2860586
6	0x3eb21d7e	0.34788126
7	0x3e9615c3	0.29313478
8	0x3eae316a	0.34022075
9	0x3e93750f	0.28800246
10	0x3eb9857a	0.36234647
11	0x3e997f7f	0.29980084
12	0x3eb4a481	0.35281757
13	0x3e964f1b	0.29357228
14	0x3ebebb39	0.37252215
15	0x3e9ca4bc	0.30594432
16	0x3eb8e64c	0.36113203
17	0x3e98bb79	0.2983053
18	0x3ec07db8	0.37595916
19	0x3e9dbcd4	0.30808127
20	0x3ebad40e	0.3648991
21	0x3e99ddd8	0.30052066
22	0x3ec4c1e4	0.38429177
23	0x3ea1b5b1	0.31583932
24	0x3ebef374	0.37295115
25	0x3e9d6f6b	0.30749068
26	0x3ec55683	0.38542566
27	0x3e9ef37c	0.3104514
28	0x3ebf06ee	0.37309974
29	0x3e9a5be8	0.30148244
30	0x3ec55734	0.38543093
31	0x3e9efc88	0.3105204
32	0x3ebf3970	0.3734851
33	0x3e9a5f9f	0.30151078
34	0x3ec50a68	0.38484502
35	0x3ea2179f	0.31658646
36	0x3ebefb6a	0.3730119
37	0x3e9d49ae	0.30720276
38	0x3ec2377d	0.3793296
39	0x3e9f22a5	0.3108112
40	0x3ebb51f8	0.36585975
41	0x3e99d743	0.30047044
42	0x3ec0c0fc	0.37647235
43	0x3e9e2dd7	0.30894348
44	0x3eb96481	0.3620949
45	0x3e98b60c	0.2982639
46	0x3ebbb0da	0.36658365
47	0x3e9b56c0	0.30339622
48	0x3eb4af0e	0.35289806
49	0x3e960662	0.29301745
50	0x3eb57776	0.35442704
51	0x3e988922	0.29792124
52	0x3eadfeb3	0.33983383
53	0x3e930417	0.28714058
54	0x3eb18c76	0.34677476
55	0x3e9756a4	0.2955829
56	0x3eaa0a4a	0.33210975
57	0x3e91c696	0.28471822
58	0x3e5b32f8	0.21406162
59	0x3e3762f3	0.1790884
60	0x3e4fda68	0.20298159
61	0x3e2f5753	0.17123155
62	0x3eb0bfed	0.34521428
63	0x3e96e4fd	0.2947158
64	0x3eadd576	0.3395192
65	0x3e95252f	0.2912993
66	0x3eb5ac06	0.35482806
67	0x3e9860a5	0.29761234
68	0x3eb1dd55	0.34739175
69	0x3e966b6e	0.29378837
70	0x3ebc8e56	0.36827344
71	0x3e9b9663	0.30388173
72	0x3eb8d812	0.3610235
73	0x3e999d1a	0.3000267
74	0x3ec1c96e	0.3784899
75	0x3e9e8d88	0.30967355
76	0x3ebe2d07	0.37143728
77	0x3e9cb62f	0.30607745
78	0x3ec3c074	0.38232768
79	0x3e9fa1a4	0.3117801
80	0x3ec005b5	0.37504354
81	0x3e9dc6d4	0.30815756
82	0x3ec783c6	0.38967723
83	0x3ea33173	0.31873664
84	0x3ec38cbe	0.38193315
85	0x3ea1501c	0.3150643
86	0x3ec8aeb2	0.39195782
87	0x3ea08a80	0.31355667
88	0x3ec4f2ff	0.3846664
89	0x3e9ecc3d	0.31015196
90	0x3ec8a15d	0.3918561
91	0x3ea09df5	0.31370512
92	0x3ec56305	0.38552108
93	0x3e9efe6d	0.31053486
94	0x3ec859be	0.39130968
95	0x3ea3e9fd	0.32014456
96	0x3ec569e0	0.3855734
97	0x3ea2446a	0.3169282
98	0x3ec4aec4	0.38414586
99	0x3ea08a36	0.31355447
100	0x3ec25406	0.3795473
101	0x3e9f0238	0.3105638
102	0x3ec296c0	0.38005638
103	0x3e9f5fdf	0.3112783
104	0x3ec0f826	0.37689322
105	0x3e9e1aee	0.3087992
106	0x3ebd31bd	0.3695201
107	0x3e9c6b76	0.30550736
108	0x3ebc86a8	0.36821485
109	0x3e9b7f9c	0.30370796
110	0x3eb6847c	0.35647953
111	0x3e994ff7	0.2994382
112	0x3eb5e678	0.35527396
113	0x3e988e08	0.2979586
114	0x3eb253a9	0.34829453
115	0x3e98112f	0.2970061
116	0x3eb1aab5	0.34700552
117	0x3e9749e5	0.29548565
118	0x3e61f147	0.22064696
119	0x3e3e7ae4	0.18601567
120	0x3e61f147	0.22064696
121	0x3e3e7ae4	0.18601567

onnx::Div_78 f4 [10]
0	0x41b3ca35	22.473734
1	0x41266dbb	10.40179
2	0x41fdf5d8	31.74504
3	0x4168bda0	14.546295
4	0x41ff415d	31.906916
5	0x4168c1cb	14.547313
6	0x41fcff81	31.624758
7	0x4167de24	14.491734
8	0x41ff6731	31.925386
9	0x416c7feb	14.78123
