results/GameAddedRewards11AllPlayers/PlayerBehaviour/PlayerBehaviour-47707.onnx (onnx, 490727 bytes, 10 tensors)

network_body.observation_encoder.processors.0.normalizer.running_mean f4 [202]
00000000: 78f2 523f 2b6c 5d3f 7912 313f 043b 3f3f
00000010: d69f 313f 2251 3f3f 7912 313f 7a20 3f3f
00000020: d69f 313f 6a35 3f3f ae90 343f 1fa5 403f
00000030: 4659 353f 6fcb 403f 12cf 333f 060e 403f
00000040: 727d 343f e31c 403f 06b4 323f 1c87 3f3f
00000050: c05f 333f c3a8 3f3f ac0b 2e3f 68f3 3b3f
00000060: ae4d 2e3f 1cca 3b3f 6f0c 323f 879e 3e3f
00000070: a85b 303f 216f 3d3f 1fff 303f c420 3e3f
00000080: 1cd0 2e3f 32b0 3c3f cfc0 2e3f 9372 3b3f
00000090: cf81 2b3f 281c 393f 3c19 2e3f 5b57 3b3f
000000a0: 2e73 2a3f 07c6 383f 5f79 343f f28d 423f
000000b0: 5d23 303f f9b1 3f3f 158f 3a3f cc4b 473f
000000c0: f79d 353f 9d16 443f 2e4d 3a3f d03a 473f
000000d0: 830e 363f 0138 443f 26e7 343f af07 433f
000000e0: 3a4b 303f c386 3f3f 0c67 2f3f 269b 3c3f
000000f0: a212 2b3f 7942 393f 130c 303f 5dbf 3c3f
00000100: c2e8 2b3f fc72 393f 364f 333f 6b34 403f
00000110: 226d 2e3f be41 3c3f e17e 343f dfc4 403f
00000120: 0cbf 2f3f 03e1 3c3f e222 313f d623 3e3f
00000130: 9fa5 2b3f 7a0b 3a3f 421c 363f 3be3 413f
00000140: 1d1b 303f 4083 3d3f afe3 363f 8b2c 423f
00000150: 5b33 313f 19f3 3d3f c515 383f d511 433f
00000160: 4dc2 313f 7575 3e3f 1af9 343f e1c3 413f
00000170: d070 2f3f ef7f 3d3f 1af9 343f c4e0 413f
00000180: d070 2f3f dda1 3d3f 5af9 553f ae6d 5f3f
00000190: ea68 553f 0f35 5f3f 5711 333f ea55 403f
000001a0: 27b2 333f d8a6 403f 5711 333f 1a37 403f
000001b0: 27b2 333f 8a88 403f 98ad 343f bed1 403f
000001c0: ee90 363f 3cc1 413f 842f 333f 57ac 3f3f
000001d0: 1f02 363f 3841 413f 3557 313f 3893 3e3f
000001e0: c3dd 343f 14d0 403f d29e 2b3f 8422 3a3f
000001f0: 6db6 303f 53ae 3d3f afde 2f3f d202 3d3f
00000200: 7c8f 343f 7293 403f 1fa4 2e3f 806b 3c3f
00000210: b12f 333f 17f6 3f3f f009 2c3f 858f 393f
00000220: 9ce5 2f3f 8e9d 3c3f 4037 2c3f bbda 393f
00000230: d270 2f3f 8596 3c3f 2c68 303f 6bbb 3f3f
00000240: b27a 343f e049 423f 1470 363f 4798 443f
00000250: 1be6 393f 0ea1 463f c337 363f c17c 443f
00000260: f527 3a3f 09b2 463f e48f 303f a3fb 3f3f
00000270: 2e6a 343f 2d28 423f 2fd6 2a3f a617 393f
00000280: 8f32 2d3f bc87 3a3f ca72 2b3f d238 393f
00000290: 68af 2d3f 6494 3a3f fcc0 2e3f 21a4 3c3f
000002a0: a46d 303f 03c3 3d3f e50b 303f 6f50 3d3f
000002b0: 2f92 313f 7246 3e3f db9c 2c3f 8ed1 3a3f
000002c0: 1fec 2d3f 6090 3b3f fc41 323f 7a14 3f3f
000002d0: 3546 323f 5ad0 3e3f 00f6 323f e147 3f3f
000002e0: a649 333f ae3a 3f3f 2ef8 333f 2d09 403f
000002f0: 7b72 343f ce19 403f 9cdf 303f 79b0 3e3f
00000300: 5556 303f 4b51 3e3f 9cdf 303f e5cc 3e3f
00000310: 5556 303f dc6a 3e3f ed04 523f 3d69 5c3f
00000320: ed04 523f 3d69 5c3f
0.8240123 0.86493176 0.6916881 0.74699426 0.69384515 0.74733174 0.6916881 0.7465893
0.69384515 0.7469088 0.70533264 0.75251955 0.70839345 0.75310415 0.7023784 0.750214
0.70503914 0.7504408 0.69805944 0.74815536 0.7006798 0.74866885 0.6798656 0.73418283
0.6808728 0.7335527 0.6955022 0.74460644 0.68889856 0.73997694 0.69139284 0.74268746
0.682863 0.7370635 0.6826295 0.732217 0.6699495 0.7230859 0.68007255 0.7318017
0.66582 0.72177166 0.704977 0.7599784 0.6880396 0.7488094 0.72874576 0.7785003
0.7094416 0.76597005 0.72774017 0.77824116 0.71115893 0.76647955 0.70665205 0.761836
0.68864787 0.74815005 0.6851661 0.7367424 0.66825306 0.72367054 0.68768424 0.737295
0.67152035 0.7244108 0.7004274 0.75079983 0.68135273 0.73537815 0.705061 0.753004
0.6865089 0.7378084 0.6919385 0.7427343 0.6704959 0.7267376 0.7113687 0.7573735
0.6879137 0.74028397 0.7144117 0.7584922 0.6921899 0.7419906 0.7190822 0.76199085
0.69437104 0.74397975 0.706926 0.7568951 0.68531513 0.74023336 0.706926 0.7573359
0.68531513 0.7407511 0.83583605 0.8727673 0.8336321 0.87190336 0.69948334 0.75131094
0.70193714 0.75254583 0.69948334 0.7508408 0.70193714 0.7520834 0.70577383 0.7532004
0.71314895 0.7568548 0.6999438 0.74872345 0.71096987 0.7549014 0.6927369 0.7444339
0.7065088 0.753175 0.67039216 0.72708917 0.6902836 0.7409412 0.68699163 0.7383243
0.7053144 0.75224984 0.6821918 0.7360153 0.69994646 0.7498488 0.67202663 0.7248462
0.6870973 0.7367791 0.67271805 0.7259938 0.68531525 0.73667175 0.68908954 0.7489535
0.7049972 0.75893974 0.7126477 0.76794857 0.7261674 0.775895 0.71178836 0.7675286
0.7271722 0.7761541 0.6896956 0.7499334 0.7047452 0.75842553 0.6673307 0.7230171
0.6765527 0.72863364 0.6697203 0.72352326 0.67845774 0.72882676 0.6826322 0.7368794
0.689173 0.7412569 0.6876815 0.73950857 0.69363683 0.7432624 0.6742684 0.72976005
0.6793842 0.73267174 0.69631934 0.7464062 0.6963838 0.7453667 0.69906616 0.74719054
0.70034254 0.74698913 0.7030057 0.75014 0.70487183 0.75039375 0.690912 0.74488026
0.6888173 0.74342793 0.690912 0.74531394 0.6888173 0.74381804 0.82038766 0.8609808
0.82038766 0.8609808

network_body.observation_encoder.processors.1.normalizer.running_mean f4 [10]
00000000: 002b 0a42 0abe 6741 0000 0000 0000 0000
00000010: 0000 0000 0000 0000 0000 0000 0000 0000
00000020: 0000 0000 0000 0000
34.541992 14.483896 0.0 0.0 0.0 0.0 0.0 0.0
0.0 0.0

network_body._body_endoder.seq_layers.0.weight f4 [256, 212]
00000000: dd73 71be ba07 58bd 0704 febd e503 893d
00000010: ead8 cabd e39f e3bc 015e a7bd 9f4e 863d
00000020: 58db 09bd 8e1a 3b3d a884 ee3c 533a 00be
00000030: a0a7 37bd 0794 94bd 9abc 643d 336f 90bd
00000040: 30e0 d9bd 2b01 fe3d d97d 97bd 35f9 f53c
00000050: 6722 3a3d d641 aa3b d2a4 dbbb aabd 00be
00000060: 0422 123c d65c eabd 03d5 553d ba68 d13c
00000070: ade8 9c3d 20d7 fe3c 1730 b83d beb1 44bc
00000080: 3d05 e4bd 4cbc 36bd 6271 9c3c 41dd f9bc
00000090: b020 713c b3eb 173c 524a f53b cea4 87bc
000000a0: a3d6 843d f710 29be 019b 0d3e 1e5f 40bd
000000b0: f23b 71bc adf1 e23d 1823 74bd 1ae0 013b
000000c0: 4429 033e f8a0 a93d 5ff2 ef3d cd29 bebd
000000d0: 95cc 9a3d e4ba e63b c07b 16bd c237 23bb
000000e0: 64dd 5a3d 64d6 fdbd 9821 65bc 6963 e03d
000000f0: 11c9 2cbd 0933 003d bac1 663d 2c3a 9aba
00000100: d9e3 abbc 6484 eb3c 0abf 30bd f509 2a3b
00000110: 1ccf 08be 5613 303c 389b b5bd 225d d5bd
00000120: 0f06 dc3c a2ee 47bd 75d1 4cbd 3822 4139
00000130: b69c b2bc 072a 01be fb28 31be fc6f 53bd
00000140: ab93 d13c 05e9 883d a9f0 b03c 8a36 47bd
00000150: 1412 473d 51ba 90bd ecd5 01be a200 0fbe
00000160: e592 d5bd b320 8fbd 5d83 d8bc 4000 35bd
00000170: 23f6 4abd 9cbc 60bd bd72 19bd 617f 823d
00000180: db74 6e3c f160 163d aabb 4a3e 613a 053e
00000190: 88ce 03bd 1191 aa3d a8e5 08bc 7458 eebd
000001a0: ef72 8cbc 775c a33d 20c8 743d 85fd b5bd
000001b0: e382 c23d ecb5 5f3d d9e5 0abc 6afe f13d
000001c0: 13ea aabc f500 6dbd 9754 df3b 8744 71bd
000001d0: 8524 d3bd 63bd 92bd f35b 5e3c c30e d23d
000001e0: b311 a7bd fa07 e43d ff8b 99bd df80 953d
000001f0: 0242 84bd 5e05 1abc 6537 0d3c 6056 913d
00000200: 2912 a03b be0f da3c d407 493c 9baf d13d
00000210: f973 9fbd 4d5c ed3b 186d 183e 1b22 2cbd
00000220: 5bd0 aabd 2772 8bbd a975 453d 7680 ff3c
00000230: 4100 0ebd 052d c83d cc4b d93c 8f30 26bd
00000240: 233a c1bd f309 93bd 5774 89bc 70fd bbbd
00000250: 8054 ee3c 475f cfbc b93e 01bc da4a a73a
00000260: 1c9d b83d 25c7 213a ce77 0dbd 5735 19be
00000270: bf39 81bd 748f 8cbd 2062 77bd ed73 9d3c
00000280: 676f 5dbd 608d 4abd dbc0 2bbd 1b98 923d
00000290: 7bfe f9b9 96cc 9c3d 5247 50bd 084f c33d
000002a0: 3420 a4bd 0709 0d3e 0a4e 87bb 6f81 3f3c
000002b0: ebec 13bd 4225 a2b9 bae9 8b3c 8b6f e03d
000002c0: 094a 61bd 4385 9bbd 04e2 45bc 85bc 1cbd
000002d0: 0b09 34bd 8361 8f3d 31f6 633d 1fbe 06bd
000002e0: b5d9 e0bd defd 1cbc 0608 debd 5e4a 663d
000002f0: dc17 c1bd c4bb 9c3d a54e ff3d 668d 4d3d
00000300: f5d9 103d e619 e8bd 7604 7b3c 97b7 3d3c
00000310: 6ae1 223e b05a 0a3d 4d2f 92bd 92f3 4c3d
00000320: e775 60bd 56e1 4abd 3fd5 ccbc 6a75 033d
00000330: d8c6 ac3d 9e1e e03d 8882 aa3c c7f9 ba3c
00000340: 5c77 49be 674f 21bd d5e5 e0bc 01a0 1b3c
00000350: 92c3 413d 369f cfbb f2a0 0abd a353 57bc
00000360: acdf a23d b162 e53c 4c87 07bc ed41 3f3d
00000370: dcdc ea3d 95ff 9d3d c86b 84bd 3afd 10bd
00000380: fc2e b2bb 865e 973c f905 e63d 8b2c 693c
00000390: 7f57 a13d 7568 b0bd 9cd3 df3c cc6f dfbd
000003a0: 0d3f 9f3d 80b4 763b 1758 47bb 4cb8 d8bc
000003b0: b5cd c93d 1973 7e3c a347 40bd cb57 4c3c
000003c0: cc44 bb3d cfc7 7dbc a7f9 9abd 8055 09bd
000003d0: a555 de3b 7a85 a4bc 32a9 f03b 2cda 193d
000003e0: 7546 083e a3bb ddbc 0b8a 233d 59b0 ca3d
000003f0: c527 043c 2341 273e eaa6 d63d 189e 9a3b
-0.23579355 -0.052741744 -0.12403112 0.06690196 -0.09904654 -0.0277862 -0.08172227 0.065579645
-0.033656448 0.04567962 0.02911599 -0.12522249 -0.044837594 -0.072547965 0.055843927 -0.070524596
-0.106384635 0.124025665 -0.073970504 0.030026058 0.045442965 0.0051958365 -0.0067029977 -0.12572351
0.008919243 -0.11443488 0.052205097 0.025562633 0.07661567 0.031108439 0.089935474 -0.012005268
-0.111338116 -0.044613168 0.019097034 -0.03050101 0.014717266 0.009272504 0.0074856663 -0.016558077
0.06486251 -0.16510378 0.1382866 -0.04696571 -0.014723765 0.11081252 -0.05960378 0.0019817413
0.1280871 0.082826555 0.117161505 -0.092853166 0.07558552 0.007041322 -0.03673911 -0.002490506
0.05343379 -0.123944074 -0.01398506 0.10956461 -0.04218394 0.03129867 0.056337096 -0.0011766604
-0.02098267 0.028749652 -0.04315094 0.0025945876 -0.13360256 0.010746798 -0.08867496 -0.10418154
0.026858358 -0.048811562 -0.05000444 0.00018418662 -0.021803241 -0.12613688 -0.17300789 -0.05162047
0.025583109 0.0668507 0.02159913 -0.048635997 0.048601225 -0.07066787 -0.12679261 -0.13965085
-0.104284085 -0.06988659 -0.026429826 -0.04418969 -0.04955114 -0.054867372 -0.03746294 0.06371952
0.014554228 0.036713544 0.1979815 0.13010551 -0.032179385 0.083284505 -0.008355536 -0.11637965
-0.017144648 0.07976621 0.059761167 -0.08886246 0.09497621 0.054616854 -0.0084776515 0.11816104
-0.020863568 -0.05786224 0.006815504 -0.058903243 -0.103097 -0.07165029 0.013571727 0.10256722
-0.08157673 0.11134334 -0.07497405 0.07299971 -0.064579025 -0.009400694 0.008619164 0.07096553
0.0048849774 0.026618835 0.012269933 0.10238572 -0.07785792 0.007243669 0.14885366 -0.042024713
-0.08340522 -0.06808882 0.048207913 0.031189185 -0.03466821 0.09774212 0.0265254 -0.040573653
-0.09434917 -0.07179632 -0.016779108 -0.09179199 0.029093027 -0.025313986 -0.007888489 0.0012763396
0.09014341 0.00061713374 -0.034538083 -0.14961754 -0.06309842 -0.06863299 -0.060396314 0.019220317
-0.05406132 -0.049451232 -0.04193197 0.07157918 -0.00047682584 0.07656209 -0.050849266 0.095365584
-0.08013955 0.13772975 -0.004129176 0.011688574 -0.036114614 -0.00030926807 0.017079223 0.10958775
-0.055002246 -0.07593777 -0.012077812 -0.038265724 -0.043953937 0.07001021 0.05565471 -0.032896157
-0.10979024 -0.009582011 -0.10841374 0.056223266 -0.09428379 0.07653001 0.12466172 0.050183676
0.03536411 -0.11333065 0.015320888 0.011579416 0.15906301 0.033777893 -0.07137928 0.050036974
-0.05479994 -0.049531303 -0.025004027 0.032094397 0.08436364 0.1094334 0.020814195 0.022824181
-0.19674438 -0.039382365 -0.027453342 0.009498597 0.04730565 -0.006336118 -0.033844896 -0.013142499
0.07952818 0.028001161 -0.008272003 0.04669373 0.11467907 0.07714764 -0.0646587 -0.035397746
-0.00543773 0.01847769 0.11231608 0.014231811 0.07878017 -0.086136736 0.027322583 -0.109099954
0.07775698 0.0037644207 -0.0030417496 -0.026455067 0.09853689 0.015530371 -0.046943318 0.012472103
0.09143981 -0.015489533 -0.07567149 -0.033528805 0.006785112 -0.020083178 0.0073443884 0.03756158
0.13308127 -0.027067011 0.03992657 0.09896917 0.008066122 0.16333441 0.10481055 0.0047185533

network_body._body_endoder.seq_layers.0.bias f4 [256]
00000000: 5b1c 03bb 4e31 26ba 7709 413c 5e21 9337
00000010: ed03 893b e765 973c 3993 413c 3edd 40bc
00000020: 6e97 d33b 2eb0 983b 37a3 323a 6001 f83c
00000030: 7119 843c e271 03bd b0fa 233c cfe6 b0bc
00000040: 68e4 7bbc 4671 d93b 3176 173c df4e 8c3c
00000050: ae18 8f3c 47cc 2c3b 1b1d a53a 5b57 323c
00000060: d91c 8f3c c478 c03a 5217 b6bc c288 97ba
00000070: 587c e0bb 690b ca3c e49c 63bc c883 913b
00000080: 78fd f13c 68a1 4ebb f042 f9bc 5b6e b23b
00000090: bab5 2cbc 244b 923c bcff 843c e3b7 943c
000000a0: ce14 2c3b 6344 3dbc c31a 6d3b e296 e53c
000000b0: 012a 033d cf6e e43b 4c3a e03c 7ee3 583c
000000c0: 9da8 8f3c 88a6 673c cc61 62bc 6b18 7a3b
000000d0: d327 9d3c b6d6 9b3b 782e e5bb f346 8d3b
000000e0: f777 af3b 0548 883c a11d c03c f4fc b83c
000000f0: 76d2 f13b 3a3a 18bc 09c2 cc3b dc14 2539
00000100: 02bb aa3c a5db 8fbc 0b7d 9dbb 1291 163d
00000110: b9db a83b 77a3 c33a 43b5 6f3c ae1b 6c3b
00000120: 8fb5 643c 2953 fbbb 8c6f f23b 69f8 a13c
00000130: 6f47 b239 af02 583c 2ae5 86bc aeb5 b63c
00000140: 18b9 bfbb 65f1 1f3c d51b 4c3c 68ba db3c
00000150: ea46 40bc 14d9 e23c 651f a83c 7f1e d23c
00000160: d81e 693a d47e 01bb 5e37 a939 4b40 32bc
00000170: fdaa c73a 882b 9c3c 9dd5 ba3b 9284 833c
00000180: 6336 14bc d722 0b3b eb4f d83b 022a 693c
00000190: 6daf 9f3c e5f4 fbba 1a6f 993c df40 d63b
000001a0: d31d 3d3c 52e0 34bc 0017 30bc f7f3 af3b
000001b0: 88a2 3fbc f79f 6f3c e902 923c 5d28 0fbc
000001c0: 19f1 bc3c b148 043c d45b dd39 75c7 b1bc
000001d0: 58b8 9dbb 3e4b 383b c9ad df3b dcb1 4ebc
000001e0: 2d9e 96bc 9c87 f3bb 1ae8 9b3b 048c 22bc
000001f0: 993b 773b 3b48 1a3a e9d2 ab3b 045c b23c
00000200: 1301 753b ecdf c93b 8467 323c c833 b6ba
00000210: 21d8 8c3c a33c abbc f2c1 b9ba 785b 833c
00000220: 36fb 0c3c 48a4 9f3b 585c 303c 3154 5d3c
00000230: 2373 1ebb af5c a5bb 483a 183d e955 103c
00000240: 3a40 68bc a7aa 84bb 2d86 c1bb 4ef6 7e3c
00000250: 4e9d edb8 004f f639 3dbc ea3b cc44 3e3c
00000260: 4541 7b3c 0f5a f33b f03d b93c 18ae 69bb
00000270: 3421 883b 2b98 d53c e3ea cc3b 9425 5bbc
00000280: 9efc ac3b 3d23 f2bb b92d 313b 0b8c 283c
00000290: 4d6f 3f3c fea6 80bc d30f 0f3d 055a d13c
000002a0: aa6a b93a c94e fbbc 8beb b43c 1858 3f3c
000002b0: 214a e23b 520d 8ebb a93a 4d3c 61a7 2bbd
000002c0: d14e 153b 27d1 84bc f154 843a 7abb 163c
000002d0: 0871 b93c 3ffd 853c d615 a43c b880 9d3c
000002e0: 2af9 16bc 6c1d 3a3c 61df 0d3c d17e 973c
000002f0: 73f9 c8bc f7d8 f43c 1e6c ac3c 0008 8d3c
00000300: b551 bfba 2b06 22bc 6747 493c 4d3a acbb
00000310: 6d2c cd3c 8e5d c73c 4ee8 2abc 7451 583b
00000320: 2254 743c 6a85 733c e311 1ebb da48 533b
00000330: fc99 06bb 44af a03b d9b9 c93b bd42 9d3c
00000340: 05fb bf3c b4a0 843b 5479 083d 8586 7e3c
00000350: 1ed8 02bb acce b6bb c930 4e3b 9a8d 10bb
00000360: e19d 103c f74e 0a3c 633d 97bc 6ab5 2ebc
00000370: 4fc2 1e3c ddac 873b 4cc7 373c 9a40 a4b9
00000380: 8cf7 a1bb c05a d53b d5da 373c 99bb 933c
00000390: 2e92 dcbb d363 dbbc e107 f0bc 48d6 a73c
000003a0: 3b8f 9cbc 599b 953c a477 ba3b d40d 25ba
000003b0: 481c 4cbb d50f d53c 973f 323c 1728 ee3c
000003c0: f9cd 1e3c f876 383c 0a58 bfba 028a 203c
000003d0: 251a 97bb acff 46bc ce61 f2bc 4514 0ebc
000003e0: ed4c ce3b a971 053d a364 bb3b cce9 023c
000003f0: 68f2 20bc 617d 493c 9cec 853c 8b91 233c
-0.0020005915 -0.00063397444 0.011782042 1.7539303e-05 0.004181376 0.018481208 0.011814886 -0.011771498
0.006457261 0.004659674 0.0006814482 0.030274093 0.016125413 -0.03209103 0.010008499 -0.021594433
-0.0153742805 0.0066358177 0.009244488 0.017127452 0.017467823 0.0026366876 0.0012597175 0.010885085
0.01746981 0.0014684428 -0.022227917 -0.0011561143 -0.0068507604 0.024663644 -0.013892386 0.0044407584
0.029539809 -0.003152931 -0.030427426 0.0054452843 -0.010541374 0.017858095 0.016235225 0.01815409
0.0026257518 -0.011551949 0.0036179281 0.028026048 0.03202248 0.006971217 0.027371548 0.013237832
0.017536456 0.014138825 -0.013817262 0.0038161527 0.019184029 0.00475582 -0.006994065 0.0043114363
0.005354877 0.016635904 0.023451628 0.022581555 0.007379825 -0.009291226 0.0062487167 0.00015743397
0.020841125 -0.01756079 -0.004806166 0.036759444 0.005153146 0.0014926036 0.0146306185 0.003602724
0.013959303 -0.0076698256 0.0073985513 0.019771772 0.00034004028 0.013184234 -0.016466696 0.022303429
-0.0058509223 0.009762143 0.012457808 0.026822284 -0.011735657 0.027691402 0.020522783 0.025649307
0.00088928407 -0.0019759433 0.00032275444 -0.010879586 0.0015233454 0.019063726 0.005701734 0.016054425
-0.00904617 0.0021230483 0.006601324 0.014231207 0.01949283 -0.0019222765 0.018729735 0.006538495
0.011542755 -0.01103981 -0.010747671 0.005369659 -0.011696465 0.014625541 0.017823653 -0.008737651
0.023064183 0.008073972 0.00042220822 -0.021701554 -0.0048132353 0.002812102 0.0068261367 -0.012615647
-0.018385971 -0.0074319374 0.0047578933 -0.009921078 0.0037724732 0.0005885397 0.0052436483 0.021772392
0.0037384673 0.006160727 0.010888938 -0.001390093 0.017192902 -0.020902937 -0.001417218 0.016034827
0.008604815 0.004871879 0.010764204 0.013508842 -0.0024177514 -0.005046449 0.037164956 0.008809545
-0.014175469 -0.0040486637 -0.0059058876 0.015561653 -0.00011330341 0.00046979636 0.007163553 0.011613082
0.015335386 0.0074265073 0.022612542 -0.0035656746 0.0041543487 0.026073536 0.0062535866 -0.013375659
0.0052791378 -0.0073894546 0.002703531 0.010287295 0.011684251 -0.015704628 0.0349272 0.02555562
0.0014146168 -0.030677216 0.022084972 0.011678718 0.0069058095 -0.004335084 0.012526193 -0.04190767
0.0022782574 -0.016213013 0.0010096115 0.009199971 0.022636905 0.016356109 0.020029943 0.019226417
-0.009214679 0.011359554 0.008659215 0.018493088 -0.02453301 0.029888613 0.021047648 0.017215729
-0.0014596494 -0.009889166 0.01228509 -0.0052559734 0.025045598 0.024336603 -0.010431362 0.0033007534
0.014912637 0.014863351 -0.0024119548 0.0032239468 -0.002053856 0.004903706 0.006156188 0.019196862
0.023435125 0.0040474776 0.033318833 0.015535002 -0.0019965242 -0.0055788364 0.0031462184 -0.0022057057
0.008826704 0.008441678 -0.018461889 -0.01066337 0.0096898815 0.00414048 0.01121695 -0.0003132865
-0.00494284 0.0065110624 0.011221607 0.01803379 -0.006731293 -0.026780998 -0.029300632 0.02048792
-0.019111266 0.018262552 0.005690532 -0.0006296311 -0.0031144787 0.026008526 0.010879419 0.02907185
0.009692662 0.011258833 -0.0014598381 0.009798529 -0.004611271 -0.012145918 -0.029587653 -0.008671825
0.0062957914 0.032579098 0.005718784 0.007990312 -0.009823419 0.012297959 0.016348176 0.009983431

network_body._body_endoder.seq_layers.2.weight f4 [256, 256]
00000000: 69d1 a53b 1da3 b13d 9213 b33d 102a 093c
00000010: a85f 85bc 72c3 983b c791 4a3c a4f9 1ebe
00000020: 47fc d43d 1a4c ab3d 3687 8c3d 11c7 14be
00000030: ef77 273d 6a73 3ebd aa2b b5bd 376c 3cbb
00000040: 31d8 10bd 1d63 d03d db19 a93c bbda 613d
00000050: ec79 1cbd 012d 953d f022 18be 0c04 f13d
00000060: 9085 56bd 008f a6bc f11a 483d 9cec dcbd
00000070: 4b83 4abc 9f68 b83c 0a88 883d cd70 c13c
00000080: 3e29 a23c 5b70 213b 42f7 c93d f080 ea3a
00000090: 3530 eb3d bcd0 9c3d 4f2e ec3c 5862 223d
000000a0: 63a3 8f3d 2c56 283d 76b1 70bd 0a22 9ebd
000000b0: 633f 2cbd 0ed7 fc3c 94ab f2bc a87f 833d
000000c0: 0bd0 fdbd 7beb 553a 17dc e03d d208 2f3d
000000d0: 5480 373d d3f3 ea3d c805 1bbe 54dd eb3d
000000e0: 347b ddbc 1f61 f93b 7312 233c 3d69 8fbc
000000f0: 6b5d 10bd 552c d03d 373c 9b3d 2d7c 463d
00000100: 4134 683d 2b68 133b bda7 b1bd cd16 203d
00000110: 24de a4bd dd97 c5bd a7dd 5c3b ed18 a03d
00000120: 3125 923d f582 b53c e657 dcbc ea5e 473d
00000130: 05b1 07bd 180a 513c 678e adbb 6942 993d
00000140: 21cb a5bd 7dd1 763d 00fd cabc 6d65 61bd
00000150: cb3d 8ebd 03c0 1b3d 1c7a 24bc 6e88 053d
00000160: 0603 f13c 8beb b5bd f65f d43d 0383 8f3d
00000170: 8ee0 773a 6327 4dbd 6e96 9cbc 453f ac3c
00000180: bfcc 8abd a6dc 12bd 8a20 13be 6b21 493d
00000190: 0b41 843c 2793 dabc 648f 0e3d ae8e fc3c
000001a0: f488 4d3d a453 54be efed 09bd 3a1a da3d
000001b0: 695e ffbc bb33 853d f67e 1ebd ea3e 883d
000001c0: db73 e23a 4064 393d f60f 633d df85 24bd
000001d0: 8ffc e3bc 428c 923d 8c0a b83d e916 ea3c
000001e0: 5405 03bd ee7b 303d 77ba 06be e0e4 863d
000001f0: c220 943d 270f 963d 1e90 14be 7fbd 1b3e
00000200: 9c70 0bbe f33e 933c 8aa0 89bc 1a8e 3bbd
00000210: 22ad ae3d 370c 123e 4185 64bb e0ed 503d
00000220: fa17 ae3d 5b7f a13d 5e91 7bbd 8bd4 da3d
00000230: 8ed8 923d 9bee 67bd aa1d 9ebd 59c4 8c3c
00000240: 34a1 c73c 764b 003d aef2 0d3d e08b 23bd
00000250: 24d4 a0bd 2dd5 cfbc c95d 2cbd 533b 48bd
00000260: c7be 053c 577b 2c3d 0347 0a3b c727 7d3d
00000270: a9e1 3cbd 6601 cdbd 466a 8abd 1778 0d3b
00000280: 2bc7 6ebd bbec 99bc 77ac e23d a4ec 0cbc
00000290: 4838 b63d 02b8 543d fef6 f0bc 066a 95bd
000002a0: a7c9 473d 1f19 09be cee2 6cbd e9c1 683d
000002b0: 4f05 47bd d098 863d fcc0 313c ce28 be3d
000002c0: 3782 00be b0bb 36be a17f f9bd 861a 45bd
000002d0: 7c6b 8abd 80ac 9fbd 716a b6ba f959 993c
000002e0: e70e 40bd 1a4c a43d 08a2 c73c 4dc0 1d3c
000002f0: 6cc5 6fbd a388 4a3c aff7 5bbd ab9a bc3d
00000300: fd19 20bd e22d 01bd ba36 1abc 6a9e 4fbd
00000310: 1817 593d ef2b 5e3c 92dd 2abc 49db dc3c
00000320: 4065 3cbd ff1d 87bd 54ed 8ebc cfdb 403d
00000330: 6e54 b3bd 8113 71bc bfcf 5c3e ab25 b33d
00000340: 7971 7fbc 0e42 5f3c cf7b bbbd 0f7d 5f3d
00000350: e537 d03d bdbb 203d 859a 7b3d 2cbf a23c
00000360: 9af9 c4bc 45d7 25be 6d21 5abb 3656 5cbc
00000370: f36e 0abe 9713 f23c a897 6d3d fe89 3e3c
00000380: 689a 9ebd cc33 bebb ea67 4b3d bdd0 4c3d
00000390: 4c53 8f3d 3e03 5abc 680c 68bd 4540 613d
000003a0: eaea 9ebc 64b4 4f3d cb94 97bd f8cc 07bc
000003b0: 5baf 9437 49b7 87bd 931e 973b 25a2 a8bd
000003c0: 4995 473c c749 62bd a968 92bd 64e8 c9bd
000003d0: b551 a1bd 4b2a 7fbd 76ea 50bd 64dd 82bd
000003e0: 2646 9dbd 2cd9 b8bd e7c3 9a3c a96b 063d
000003f0: 79fa 0dbd db9d b83a eb83 9fbc 6669 e0bc
0.005060364 0.086736895 0.08743967 0.008371845 -0.016280964 0.004661971 0.012363858 -0.15524918
0.103996806 0.083641246 0.06861727 -0.14529063 0.040885862 -0.046496786 -0.08846219 -0.0028751025
-0.035362426 0.10175154 0.020642212 0.05514024 -0.03820221 0.072839744 -0.14857078 0.1176835
-0.05237347 -0.02033186 0.04885382 -0.10787317 -0.012360404 0.022510825 0.066665724 0.023613358
0.019795056 0.002463362 0.09861614 0.001789121 0.11483804 0.076570004 0.028830675 0.03964457
0.070135854 0.041097805 -0.05876299 -0.07721336 -0.042052638 0.030864265 -0.02962283 0.06420833
-0.12393197 0.00081603945 0.10979479 0.04273302 0.044800118 0.11472287 -0.15138924 0.11516824
-0.027036287 0.0076104547 0.009953129 -0.017506236 -0.03524534 0.10164706 0.075798444 0.048458267
0.05669046 0.002249251 -0.08674572 0.039084245 -0.080501825 -0.09648106 0.003370145 0.07817254
0.07136 0.022157172 -0.026897382 0.0486745 -0.033127803 0.012758754 -0.0052965167 0.0748337
-0.080953844 0.060258377 -0.024778843 -0.055028368 -0.0694538 0.038024914 -0.010038879 0.032600813
0.029420387 -0.08882817 0.103698656 0.070074104 0.00094557635 -0.05008639 -0.0191147 0.021026263
-0.067773335 -0.035854958 -0.14367881 0.049104135 0.016144296 -0.026681496 0.034804717 0.030829754
0.050179437 -0.20735031 -0.033674177 0.106495336 -0.031172948 0.065040074 -0.038695298 0.06652625
0.0017276959 0.04526162 0.055435143 -0.040166732 -0.02783039 0.07155658 0.08986387 0.028575378
-0.031987503 0.04308694 -0.13157068 0.06586623 0.072328106 0.07327109 -0.14508101 0.15209006
-0.13617176 0.017974352 -0.016800184 -0.045789815 0.08529116 0.14262472 -0.0034869465 0.051008105
0.08500667 0.07885619 -0.06141793 0.106850706 0.07170211 -0.056624036 -0.07720502 0.01718347
0.02436886 0.031321965 0.034655266 -0.039928317 -0.078529626 -0.025370205 -0.042081628 -0.0488847
0.008163161 0.042109814 0.0021099455 0.061805513 -0.046113644 -0.10010032 -0.06758551 0.0021586472
-0.05829541 -0.01878964 0.11068051 -0.008601341 0.088974535 0.051933296 -0.02941465 -0.07295613
0.048776295 -0.13388489 -0.057833485 0.056825552 -0.048589047 0.065721154 0.010849234 0.092851266
-0.12549673 -0.17845035 -0.121825464 -0.048120998 -0.06758782 -0.07796574 -0.001391722 0.01871966
-0.046889212 0.08022328 0.024369255 0.009628368 -0.058537886 0.012361678 -0.053703006 0.09209188
-0.039087284 -0.031537898 -0.009412462 -0.050688185 0.05300054 0.013560279 -0.010428803 0.026960032
-0.045994997 -0.06597518 -0.017447151 0.047084626 -0.08756338 -0.014714123 0.21563624 0.08747419
-0.015591019 0.0136265885 -0.09154474 0.054562625 0.10166911 0.03924154 0.06142666 0.019866548
-0.0240448 -0.161954 -0.0033284083 -0.013448289 -0.13518886 0.029550357 0.05800596 0.01162958
-0.077442944 -0.0058045145 0.049659647 0.050003756 0.069983095 -0.013306437 -0.056652457 0.054992933
-0.019399125 0.050709143 -0.07401427 -0.008288614 1.7724631e-05 -0.06626756 0.004611799 -0.082340516
0.012181588 -0.05524614 -0.071488686 -0.09858778 -0.078769125 -0.062296193 -0.05100485 -0.06389883
-0.076793954 -0.09025797 0.018892242 0.032817516 -0.034662697 0.001408513 -0.019472083 -0.027394008

network_body._body_endoder.seq_layers.2.bias f4 [256]
00000000: 4cab 463c 52fd 0bbb 52c7 5f3b 2143 163c
00000010: d5c0 943c 4bff f83b c1b4 7d3c f180 de3c
00000020: d71e 4fba fc54 a23c e34d fbbb c367 5a3c
00000030: 6ef4 0939 7032 283b 2abb cc39 9c40 583c
00000040: b6c4 e9bb 2a41 763c c54d e338 c6d1 663c
00000050: c1d3 333c 01f6 8b3c ba53 833c b5d4 7f3a
00000060: 8a5c 683c 0a14 313c b5f6 1bbb a3cf 9c3c
00000070: 73d5 af3c da87 263c 803e e23b 2949 cf3c
00000080: a7af c6bb 8d11 2739 770f d53c 23f0 d9bb
00000090: 1ce8 6e3b a258 fd3b 4ffd 523c 932e 09bc
000000a0: f0e3 49bb d0ed 49ba e5b3 4f3c 1e17 633c
000000b0: 9fb9 cb3c 1d72 7fbc 0d57 883c 255e a83c
000000c0: 8424 fabb fdd7 9f3c 9559 1ebb 9149 863c
000000d0: 95a5 853a a995 203c b26a 9b3c 8082 e9bb
000000e0: 1c41 65bb abb5 913b 6753 f4ba 2b11 ce3c
000000f0: 02fa a4bc ff13 a73c 4cfc de3c 0430 023c
00000100: cb91 903b 48ed 143d 172c 583c b6c5 d93c
00000110: 9b2b 983c 2a29 4dbc 96fc 9f3c f38f 8e3c
00000120: be6a 9d3b 600e 893c 0746 423c 82dd d3bb
00000130: 5ead 4e3c 9826 ab3c 23d0 b03c 928f fc3b
00000140: 30d0 0b3d b5ac 973b 276b 303c de33 a03c
00000150: 3cbc ddba 64a3 3e3c 7102 c13c 05c9 283c
00000160: 487c 49bc b982 243c dd7b a03c 70a8 c33c
00000170: 7e29 42bc e607 8a3b 1463 033c c9e9 fb3b
00000180: 255c a23c 8932 b83b e228 0239 84f0 e33c
00000190: 8813 9e3c 0cf2 f13b 2570 263c 5837 1d3c
000001a0: 5158 4b3c 3e0e 9b3a 5f74 163c f30c 0a3b
000001b0: 10df 6a3c 7e70 0bbc 4b0f 503c 75b8 763c
000001c0: a054 b53c dffd 813c 8432 2f3c 3e76 f53b
000001d0: 0555 393c f8e1 6dbb 6264 be3c e269 863b
000001e0: 33a4 a13b 55eb 6c3c 683f 5c3c 455e d53c
000001f0: 69fb d83c cf8c 9f3a adf6 be3c 7ea1 173c
00000200: 4c51 143c 70ec 6f3c 4347 913c 93b5 9d3c
00000210: c52c 8b3b 97d5 543c 0b94 59ba 64ce b43b
00000220: c64c 1a3c d2cb 993c 4c76 683c 07b6 1e3c
00000230: 6b46 ae3c e70c e03b 9d78 9d3b e748 923c
00000240: 46ee 9f3c 8c23 b13b d45e 013b e244 aa3a
00000250: 9855 ce3c 6f73 0d3c c5ef 123c f4c2 273b
00000260: b01c 923b 1303 6c3c 7956 353c 0ac5 833a
00000270: 4a3e 6e3c fbe7 af3b bc2e b83c f3e7 883b
00000280: ac52 c03b e675 c13c 658c 973c 4403 39bc
00000290: 8d3a 093c f7c9 ce3c 5815 a93c ccdb 2e3b
000002a0: 7191 8c3c 9256 9d3c 4b6c bf3c 962b 263c
000002b0: 4ad6 823c ad1f b83c fad2 3f3c 4106 363c
000002c0: f679 093c 7ccf 6d3c fa9e fcba 669d 6e3c
000002d0: cd6a 8b3a 7084 5b3c 4679 b13c e802 a0ba
000002e0: 6e3e 1e3b fbba 583c b0be af3c ddfa 6fbb
000002f0: b4d3 133c 3d84 a63c 9875 583c e054 8c3c
00000300: 3dc2 7b3c f4ae 8f3c ff45 bf3c 0de0 a83c
00000310: 1b3c 9f3c ea01 883c 123b 873c f8e9 683c
00000320: cb48 8c3c e215 65bb 02ba 703c ca31 923c
00000330: e0d4 683b 2c84 903b cb12 ff3c 3b78 0b3c
00000340: 6c97 0f3c b31a 273b 7f9f 483c 14c1 cabc
00000350: 39f4 203c a6a2 783c 132e c33b 5f14 503c
00000360: 26fc 293c 4d2a d83c 93b3 8f3c 747a 113a
00000370: 3a6d 2d3c 8fbe b23c 5c88 103c 88c3 2a3c
00000380: 1226 0c3c 5223 7d3c 5e2d f93b fbe5 ed3b
00000390: 1dcd 42bc 7390 cb3c 7be4 663b d738 b43c
000003a0: ecea 213c d8a8 403c 5964 1b3c e550 353c
000003b0: 785c 843b 595b 5d3a 2e3c b7bb e727 913c
000003c0: 4a59 b03c 5211 883c 994a 443c ddd8 8cbc
000003d0: 5acc daba 0707 863b 830e 5e3c f870 de3b
000003e0: 387c 8e3c 02f6 403a 525e ffb9 9d47 9c3c
000003f0: 790e 773c a057 b53b ac72 f0ba b9eb 8538
0.012125801 -0.0021360707 0.0034145904 0.009171278 0.018158356 0.0075987927 0.01548499 0.027161093
-0.0007901019 0.019815914 -0.007669197 0.013330403 0.00013156395 0.0025664829 0.0003904936 0.013198998
-0.0071340455 0.015030185 0.00010838689 0.0140881 0.010975779 0.017085077 0.016031135 0.0009759174
0.014182219 0.010808 -0.0023798172 0.019141978 0.021464085 0.0101642255 0.0069044232 0.02530344
-0.00606342 0.00015932899 0.02600835 -0.006650941 0.0036454266 0.007731513 0.012877776 -0.008372921
-0.0030806027 -0.00077029783 0.012677168 0.013860492 0.024868784 -0.015591172 0.016643072 0.020552704
-0.0076337475 0.01951217 -0.0024162282 0.016392501 0.0010196442 0.009801307 0.018971775 -0.0071261525
-0.0034981435 0.0044467053 -0.0018640578 0.02515467 -0.020138744 0.020395277 0.027219914 0.007946018
0.004411911 0.0363591 0.013194106 0.026583534 0.01857548 -0.012522021 0.019529622 0.017402625
0.0048039844 0.016730487 0.011857516 -0.006465615 0.012614576 0.020892426 0.021583622 0.0077075446
0.03413409 0.0046287426 0.010767735 0.019555982 -0.001691706 0.011635635 0.023560734 0.010301833
-0.012297697 0.010040932 0.019590313 0.023884028 -0.011850713 0.0042123673 0.008019228 0.0076877815
0.019819329 0.0056212586 0.00012412996 0.027824648 0.019296423 0.0073835906 0.010158573 0.0095957145
0.012411193 0.0011829806 0.0091830185 0.0021064847 0.014335409 -0.008510707 0.012698959 0.015058626
0.022135079 0.015868125 0.010693196 0.007490902 0.011311774 -0.0036298018 0.023241226 0.0041019777
0.004932904 0.014460404 0.013442852 0.026045928 0.02648707 0.0012172702 0.023310984 0.009254811
0.009052586 0.014643773 0.017734176 0.01925162 0.0042472803 0.012990377 -0.0008299953 0.0055177677
0.009417718 0.018773947 0.01418836 0.009686953 0.021273812 0.0068374756 0.004805638 0.017857028
0.019522797 0.005405849 0.001974036 0.0012990499 0.025187299 0.008633479 0.008968298 0.002559838
0.004458986 0.01440503 0.01106798 0.0010053229 0.014541218 0.0053682304 0.022483222 0.004178041
0.0058692303 0.023615789 0.018499563 -0.0112922825 0.008375776 0.025242789 0.02064006 0.0026681302
0.017159196 0.019206319 0.023367068 0.010142228 0.015971322 0.022476042 0.011708016 0.0111098895
0.008390894 0.0145148 -0.0019273453 0.014563894 0.0010636688 0.013398275 0.021664273 -0.0012207897
0.0024146098 0.013228173 0.021453232 -0.0036618032 0.009022642 0.020326728 0.01321163 0.017130315
0.015366134 0.017539479 0.023348806 0.020614648 0.01943784 0.016602475 0.01650766 0.014215939
0.017124554 -0.003495567 0.014692785 0.017846007 0.0035527274 0.0044102874 0.03113689 0.008512552
0.008764129 0.0025498092 0.012245058 -0.02475027 0.009823852 0.015175497 0.00595642 0.012700169
0.010375058 0.026387358 0.017541682 0.0005549558 0.010585124 0.021819381 0.008821573 0.010422595
0.008553999 0.015450316 0.007604285 0.007260082 -0.011889723 0.024849152 0.00352314 0.02199976
0.00988267 0.0117590055 0.009484374 0.01106665 0.0040393434 0.0008444093 -0.005591891 0.017719222
0.021526951 0.016609821 0.011980676 -0.017193252 -0.0016692982 0.004090193 0.013553265 0.0067883693
0.017393216 0.0007360877 -0.00048707664 0.019077117 0.015079134 0.0055341274 -0.0018344722 6.385841e-05

action_model._discrete_distribution.branches.0.weight f4 [4, 256]
00000000: 8175 e0bc 48bb 87bc db6c 1d3c f915 163d
00000010: 55fb 28bd b06b fcbc 46a4 43bd 6e83 313d
00000020: 42a5 8ebc 3b19 81bb 806a a0bc c05d 9c3c
00000030: 1452 c43b 3770 db3c 3261 65bc ba3f 39bd
00000040: 2fd9 cb3b fc41 103b 148b 9b3c 5fab 34bd
00000050: 8e51 f2bc 98ad 1ebd cf15 b43b 9f0d c83c
00000060: be14 513d 8fa3 b33b bcc9 dabb 6335 f1bc
00000070: 1457 99bc ec83 babc ccd5 e43c 0f3d 95bc
00000080: 58f9 5ebc 8bbc 77bc b032 1f3d cb4d 2a3a
00000090: 4dde 163c c943 c1bb 9b73 c3bb f741 2dbc
000000a0: 80b4 86bc 248c 8a3c 002a c7bc 7830 d6bc
000000b0: a290 2fbd 012c 4a3c b131 373d bd9b 87bd
000000c0: 3ba5 973c 6623 48bd 5718 243c a3b1 713c
000000d0: 6171 53ba 1f13 913c 6b2e 1bbd 9b94 f1bb
000000e0: 803d 0cbd 89d8 e63c ab74 debb 09b0 553b
000000f0: 6154 cabb d636 42bd ec7e 28bc fb83 533c
00000100: bbe5 d53c c21f 1bbd 6479 203d b337 5f3d
00000110: afec 2abd 855f 07bc ba01 553d 9e8a d9bc
00000120: 2f00 dabc bc83 37bd fd8f 20bd 0c3b 83bb
00000130: 1c6d edbc c0a5 273d ea2c 943d e808 213c
00000140: 1846 24bd c06b 9abc aeb7 813c 110f 633d
00000150: 583b 9b3b 493a d9bc 0611 ddbc 4851 0b3d
00000160: af86 a33c 9e14 013c b167 973a b5a3 1fbd
00000170: 5831 0cbb 4b0b 3f3c 2d5f dabc 8848 c53b
00000180: a410 9dbc 0bc7 a439 4499 67bc 156c 023d
00000190: d1e1 173d 5857 fdbc 8d99 823c 2ea3 a93c
000001a0: 4486 b4bb 7b25 bdbc 0847 ec3c 5f4b 8fbc
000001b0: c70b 9dbb 7e0d 573c 18ad 993c 22a6 eabc
000001c0: 9249 50bd 2a28 11bd 2b4c a83b f3e7 38bc
000001d0: 69ff ad3c 9cf1 e7b9 fb86 82bd 2370 953c
000001e0: 3d91 c93c b3f3 87bc b3d6 223d 9979 8ebd
000001f0: fbf7 33bd c92c 74bb 7b59 12bd 45a9 d4bb
00000200: 26e1 28bc 71d2 c63c 3f60 26bd 2b42 293c
00000210: c33f e2bc 72bb a0bc ba77 823c e498 52bc
00000220: cf2d 883c 30cf 973b 766d b73b cb9f 85bb
00000230: 36b8 373d e9e1 073c 2998 2dbd 4da6 f1bc
00000240: 236c a6bc db6b 9a3c 4286 86bc 85df c13c
00000250: 37ac d9bc 467f 48bd e3dd 26bd 654f 553c
00000260: 87c6 0e3d aeb4 233d c460 5fbc 66c1 08bd
00000270: fb0b b6bc e786 0dbd 68b9 19bc b542 ccbb
00000280: 3f34 91bc 08b9 a03c 0720 34bd b9e6 c8bc
00000290: d273 623c 88b4 33bc 079f d9bb 6c88 dd3b
000002a0: 86b6 e33c f001 67bc 6bf4 bebc b81e 033d
000002b0: dd25 45bd 9b0d a43c dff8 ed3b c89e 0abd
000002c0: e415 c8bc c3f5 1a3d 8bd0 77bb 6e4b d0bc
000002d0: bdce bbbb fb10 76bb 907a 1f3c 0308 a33b
000002e0: 36af dbbb 0506 9dbc 8845 e03c f4b6 77bc
000002f0: f92a b43c bb5a 343c 90c9 b33c 25aa b7bb
00000300: ed2a 0bbc c0dd 51bc 8a0f cbbb ae03 433d
00000310: f7db d3bb 3f7e 0d3d 3fab 563a c91d bb3c
00000320: 4d5a d9bc 674d 283c 9647 88bc f5b4 dcbc
00000330: add0 acbc de54 fb3c 6fad fb3c 2a0b 9fbc
00000340: eb32 b63c a700 91bc 331f acbc fa65 8438
00000350: 60d0 ec3c fe5d fabc 8a4f 7bbb 9101 d1bc
00000360: 67c0 b0bc 2410 dfbc 6928 08bc cb7f 00bd
00000370: 1146 a2bb 1ba2 3e3d 7f0a cf3c 2c4a 1f3c
00000380: fe4d 773b e15a 5ebc c016 17bd 9d8d f5bc
00000390: 60bb 4fbb 5767 36bd 5c92 2ebc ec2e 943c
000003a0: 4ea5 1ebd 2770 da3b acb3 5bbc c239 893c
000003b0: 7645 b83c f6a3 a6bc 9e11 10bd 57d3 6ebc
000003c0: 88b3 153d 79f8 1fbd 36f1 07bd 446f c5bc
000003d0: 0ae2 8ebb 75d9 2c3a e805 553c f21f b93c
000003e0: 384c 973c fe89 de3c a40d 923c e2b6 48bb
000003f0: 5823 3e3c f9bc 6dbc 2330 8a3c f441 873c
-0.02739978 -0.016568795 0.009608473 0.03664205 -0.041255314 -0.030813068 -0.047764085 0.04333823
-0.017412785 -0.0039397753 -0.019582033 0.019087672 0.00599123 0.026786907 -0.014000224 -0.04522679
0.0062209587 0.0022011986 0.018987216 -0.044108745 -0.029579904 -0.03873977 0.005495764 0.024420558
0.051045172 0.005482144 -0.0066768806 -0.029444402 -0.01871828 -0.022767983 0.027933978 -0.018217592
-0.013609253 -0.015120636 0.0388667 0.00064965774 0.009208274 -0.005897973 -0.005964709 -0.010574809
-0.016443491 0.016912527 -0.02431202 -0.026146159 -0.042862542 0.012339593 0.044725124 -0.066215016
0.018511405 -0.048861884 0.010015569 0.014751825 -0.0008065906 0.017709313 -0.037886064 -0.0073724515
-0.03423834 0.028179424 -0.0067888102 0.0032606146 -0.0061746095 -0.047415577 -0.010284167 0.012909885
0.02611052 -0.037872083 0.039178267 0.05449648 -0.041729625 -0.00826252 0.0520036 -0.026555356
-0.026611416 -0.044803366 -0.039199818 -0.0040048417 -0.028982691 0.040929556 0.07235129 0.009828784
-0.04010591 -0.018850207 0.015834656 0.05543429 0.004737299 -0.02651705 -0.026985656 0.034013063
0.019961683 0.007878451 0.0011551288 -0.038974483 -0.0021391716 0.011660407 -0.026656711 0.0060206093
-0.019172974 0.00031428816 -0.0141356625 0.031841356 0.03708059 -0.030925438 0.01594236 0.020707693
-0.00550917 -0.023089161 0.028842464 -0.017491994 -0.0047926637 0.013125775 0.018759295 -0.028643671
-0.050851412 -0.035438694 0.005136033 -0.01128577 0.021239953 -0.00044239766 -0.06373402 0.018241948
0.024605388 -0.016595697 0.039755534 -0.06956787 -0.043937664 -0.003725814 -0.035729866 -0.006489905
-0.010307586 0.024270268 -0.04061913 0.010330717 -0.027618295 -0.01962063 0.01592623 -0.012853835
0.016623406 0.004632853 0.0055977656 -0.0040778867 0.04485341 0.008293607 -0.04238144 -0.029498244
-0.020315235 0.018850258 -0.016421441 0.023666153 -0.026571376 -0.048949502 -0.04073895 0.013019417
0.0348573 0.03996723 -0.013633911 -0.033387564 -0.02222251 -0.03455248 -0.009382583 -0.006233538
-0.017725108 0.01961948 -0.043975856 -0.02452408 0.013821559 -0.010968335 -0.006641272 0.0067606475
0.027796995 -0.014099583 -0.023309907 0.032011718 -0.048131812 0.020026019 0.0072623338 -0.03384283
-0.0244245 0.037832033 -0.003781351 -0.025426593 -0.0057314322 -0.0037546742 0.009733811 0.0049753203
-0.0067042364 -0.01916791 0.027376905 -0.015119303 0.021993147 0.01100796 0.021946698 -0.0056049996
-0.008494121 -0.012809217 -0.0061969208 0.04761093 -0.006465431 0.034544226 0.000818897 0.022841351
-0.026532317 0.01027236 -0.016635697 -0.026941756 -0.021095598 0.030680116 0.030722348 -0.019414503
0.022241076 -0.017700506 -0.02101097 6.313245e-05 0.028907955 -0.030562397 -0.003834697 -0.025513442
-0.02157612 -0.027229376 -0.008310416 -0.031371873 -0.0049522 0.046541315 0.02527356 0.009722274
0.0037735696 -0.013571472 -0.03688693 -0.029974753 -0.0031697378 -0.044532146 -0.010655012 0.01808878
-0.038731866 0.0066662016 -0.013409536 0.016751174 0.022494059 -0.020341855 -0.03517305 -0.0145767545
0.036548167 -0.03905532 -0.03318902 -0.024100907 -0.004360442 0.0006593683 0.013001896 0.02259824
0.018468961 0.02716541 0.01782877 -0.0030626585 0.011605106 -0.014510387 0.016868657 0.016510941

action_model._discrete_distribution.branches.0.bias f4 [4]
00000000: 5bbd 54bb 4755 243c 35cd 9aba 3739 2fbb
-0.0032461497 0.010030097 -0.0011810424 -0.0026736984

onnx::Div_62 f4 [202]
00000000: 20fd c23e df46 9b3e 9173 ec3e 4df3 c73e
00000010: 7bfd eb3e 3b7d c83e 9173 ec3e ad75 c83e
00000020: 7bfd eb3e 1801 c93e e26d e93e 41cd c83e
00000030: abb7 e83e 3667 c93e cd1a ea3e 211c c93e
00000040: 257f e93e 9cc8 c93e f611 eb3e bd29 c93e
00000050: d17c ea3e 61ba c93e e8df ee3e b384 cb3e
00000060: c4ac ee3e d13a cc3e 88a1 eb3e 8048 ca3e
00000070: e909 ed3e b91b cb3e ab83 ec3e 444b ca3e
00000080: e746 ee3e ee2b cb3e bb52 ee3e 084d cd3e
00000090: efc4 f03e e1c8 ce3e 00d5 ee3e 3be5 cc3e
000000a0: c285 f13e 556f ce3e e982 e93e 3246 c43e
000000b0: ed37 ed3e d170 c63e 9da6 e33e 9c9a c03e
000000c0: 4478 e83e a64c c33e 26ea e33e a68c c03e
000000d0: f10f e83e 5660 c33e 901f e93e fec2 c33e
000000e0: 7f17 ed3e b9d3 c63e 33cf ed3e 82ab cb3e
000000f0: ff14 f13e b41e ce3e a54a ed3e b5fa cb3e
00000100: 067a f03e a684 ce3e 328b ea3e 464a c83e
00000110: 4094 ee3e 3e94 cb3e 147e e93e fc3c c83e
00000120: df88 ed3e bc92 cb3e d565 ec3e 2318 ca3e
00000130: 17ab f03e fcf1 cc3e 2b03 e83e c9a2 c73e
00000140: 7d3e ed3e 73c0 ca3e a247 e73e d4b4 c73e
00000150: 3058 ec3e 3ed9 ca3e c520 e63e 8d35 c73e
00000160: 54e0 eb3e a686 ca3e 3e0f e93e c6e5 c63e
00000170: 8ec7 ed3e 6929 ca3e 3e0f e93e a160 c63e
00000180: 8ec7 ed3e 9397 c93e 30ac bd3e b82f 983e
00000190: 26b0 be3e 26ff 973e 39c1 ea3e 6bc6 c73e
000001a0: 6034 ea3e 42ca c73e 39c1 ea3e e950 c83e
000001b0: 6034 ea3e bb53 c83e cc53 e93e 2ea2 c83e
000001c0: 8a95 e73e b4a2 c83e e2a6 ea3e 7b3f c93e
000001d0: 941b e83e 3dfb c83e 763a ec3e dea5 c93e
000001e0: 5628 e93e a2e0 c83e 13b0 f03e 916e cc3e
000001f0: 9bbf ec3e 78df ca3e 6f6f ed3e 3a25 cb3e
00000200: 266f e93e 9dfa c83e 4a69 ee3e cd35 cb3e
00000210: eba6 ea3e 17f7 c83e 0462 f03e 0736 ce3e
00000220: ee69 ed3e c55a cc3e cd40 f03e 3ee2 cd3e
00000230: 5ec7 ed3e c6fc cb3e c8ff ec3e d482 c63e
00000240: b481 e93e 35e2 c43e b7b4 e73e bdee c23e
00000250: 3953 e43e 9894 c13e 69e9 e73e 74e8 c23e
00000260: 3f10 e43e fca4 c13e 35df ec3e 7230 c63e
00000270: 7c90 e93e 321e c53e 0b40 f13e 791b ce3e
00000280: 4385 ef3e 57bc cd3e c6cf f03e 076f ce3e
00000290: 8026 ef3e ff1a ce3e 9952 ee3e 0f1c cb3e
000002a0: 69fb ec3e 68aa ca3e c04a ed3e 28ff ca3e
000002b0: c908 ec3e 44ae ca3e acf5 ef3e 7c58 cc3e
000002c0: fdf7 ee3e c259 cc3e 3174 eb3e c2bc c93e
000002d0: 8370 eb3e 3759 ca3e f1d8 ea3e 12e4 c93e
000002e0: 2890 ea3e f769 ca3e 24f6 e93e cc88 c93e
000002f0: 1689 e93e b3fd c93e a59d ec3e 4336 c93e
00000300: 760e ed3e 5c93 c93e a59d ec3e 52b5 c83e
00000310: 760e ed3e 3315 c93e 918d c43e 54b0 9d3e
00000320: 918d c43e 54b0 9d3e
0.38083744 0.30327508 0.4618192 0.3905281 0.46091828 0.39158043 0.4618192 0.3915228
0.46091828 0.39258647 0.45591646 0.39219096 0.45452628 0.39336556 0.45723572 0.39279273
0.45604816 0.39410865 0.4591214 0.39289656 0.45798352 0.39400008 0.46655202 0.3974968
0.46616185 0.39888623 0.46021676 0.39508438 0.46296623 0.39669588 0.46194205 0.39510548
0.4653847 0.39681953 0.46547493 0.40097833 0.47025248 0.40387633 0.4664688 0.4001864
0.47172362 0.40319315 0.4560769 0.38334805 0.4633173 0.38757947 0.44463053 0.37617958
0.45404255 0.38144416 0.4451458 0.37607306 0.45324662 0.38159436 0.45531893 0.38234705
0.4630699 0.38833407 0.46447143 0.39779288 0.4708633 0.402578 0.46346012 0.39839712
0.46968096 0.40335578 0.45809323 0.39119166 0.4659748 0.39761537 0.45604002 0.39109027
0.46393487 0.39760387 0.46171442 0.3947154 0.4700553 0.4002837 0.45314917 0.38991383
0.46336737 0.39599952 0.4517184 0.39005148 0.46161032 0.39618868 0.44946876 0.38908044
0.46069586 0.39555854 0.4551944 0.38847178 0.4644131 0.39484718 0.4551944 0.38745597
0.4644131 0.39373454 0.3704543 0.29723907 0.37243766 0.2968685 0.45850542 0.39018568
0.45743084 0.39021498 0.45850542 0.3912423 0.45743084 0.3912638 0.45571744 0.39186233
0.45231277 0.39186633 0.45830446 0.39306244 0.4533354 0.3925418 0.46138352 0.3938436
0.45538586 0.3923388 0.47009334 0.39928105 0.46239933 0.39623618 0.4637408 0.3967684
0.45592612 0.39253703 0.46564704 0.39689484 0.45830473 0.39251015 0.4694978 0.40275595
0.4636988 0.39913002 0.4692444 0.40211672 0.46441168 0.39841288 0.46288896 0.3877169
0.45606768 0.38453832 0.45255062 0.38072768 0.44594744 0.3780868 0.45295265 0.38067973
0.44543645 0.37821186 0.46264043 0.38708836 0.45618045 0.384996 0.47119173 0.40255335
0.46781358 0.40182754 0.4703352 0.40319082 0.4670906 0.4025497 0.46547392 0.39669845
0.4628556 0.39583135 0.46346092 0.39647794 0.46100453 0.3958608 0.4686712 0.39911258
0.46673575 0.3991223 0.45987085 0.39401823 0.45984277 0.3952119 0.45868638 0.39431816
0.45813107 0.3953397 0.45695603 0.3936218 0.456124 0.3945137 0.46214023 0.3929921
0.46300095 0.3937024 0.46214023 0.39200836 0.46300095 0.39273986 0.38389257 0.3079859
0.38389257 0.3079859

onnx::Div_65 f4 [10]
00000000: eb66 b441 1459 2541 9405 963b 9405 963b
00000010: 9405 963b 9405 963b 9405 963b 9405 963b
00000020: 9405 963b 9405 963b
22.550253 10.334248 0.0045783017 0.0045783017 0.0045783017 0.0045783017 0.0045783017 0.0045783017
0.0045783017 0.0045783017
