results/GameLevelReached12/PlayerBehaviour/PlayerBehaviour-80063.onnx (onnx, 490727 bytes, 10 tensors)

network_body.observation_encoder.processors.0.normalizer.running_mean f4 [202]
0	0x3f53d579	0.8274761
1	0x3f5e9a9e	0.8695468
2	0x3f38c03b	0.7216832
3	0x3f46463d	0.77450925
4	0x3f31eb0e	0.6949929
5	0x3f40babc	0.75284934
6	0x3f38c03b	0.7216832
7	0x3f463582	0.77425396
8	0x3f31eb0e	0.6949929
9	0x3f40a3ea	0.75250113
10	0x3f3c701b	0.7360856
11	0x3f47cc5b	0.78046197
12	0x3f3645f4	0.7120049
13	0x3f4280ea	0.7597796
14	0x3f3c12cf	0.734662
15	0x3f476c35	0.77899486
16	0x3f355c04	0.7084353
17	0x3f41c4a0	0.7569065
18	0x3f3b66d8	0.732038
19	0x3f474050	0.7783251
20	0x3f346599	0.70467526
21	0x3f4151ea	0.75515616
22	0x3f377592	0.71663773
23	0x3f4449f0	0.7667532
24	0x3f30b28e	0.6902245
25	0x3f3e6ec4	0.74387765
26	0x3f3a7e7b	0.72849244
27	0x3f46ad54	0.7760823
28	0x3f3417d7	0.70348877
29	0x3f40f2a5	0.75370246
30	0x3f393b3c	0.7235601
31	0x3f460b1d	0.7736071
32	0x3f32b2e4	0.69804215
33	0x3f4047e1	0.7510968
34	0x3f36cf8d	0.7141045
35	0x3f4338c9	0.7625852
36	0x3f317ba8	0.6932931
37	0x3f3e52c6	0.7434505
38	0x3f3622bc	0.7114675
39	0x3f430e0b	0.761933
40	0x3f308066	0.6894592
41	0x3f3e16ed	0.7425373
42	0x3f3b43d0	0.7315035
43	0x3f496fcb	0.7868621
44	0x3f36ceb5	0.7140916
45	0x3f456a00	0.7711487
46	0x3f3f59ca	0.7474638
47	0x3f4cd309	0.80009514
48	0x3f3b7db8	0.73238707
49	0x3f496dbc	0.78683066
50	0x3f3fa6b9	0.74863774
51	0x3f4ce296	0.8003324
52	0x3f3b56b7	0.7317919
53	0x3f496703	0.7867281
54	0x3f3ab8bd	0.7293814
55	0x3f48e2f3	0.784713
56	0x3f369588	0.71321917
57	0x3f455a13	0.7709057
58	0x3f33f8ba	0.703014
59	0x3f41216a	0.7544161
60	0x3f322881	0.69593054
61	0x3f3f8b16	0.74821603
62	0x3f3420c7	0.70362514
63	0x3f40fa12	0.75381577
64	0x3f32db00	0.6986542
65	0x3f3fac7b	0.7487256
66	0x3f361d26	0.71138227
67	0x3f4330fe	0.7624663
68	0x3f3514b3	0.7073471
69	0x3f425a23	0.7591879
70	0x3f377b59	0.7167259
71	0x3f43dab3	0.76505584
72	0x3f3665d3	0.7124912
73	0x3f42fc88	0.7616658
74	0x3f3432b5	0.7038987
75	0x3f41bb22	0.75676167
76	0x3f32faf6	0.69914186
77	0x3f408f32	0.752185
78	0x3f386b3d	0.7203863
79	0x3f44f414	0.76934934
80	0x3f3731d1	0.7156039
81	0x3f43bc5e	0.764593
82	0x3f39fb8a	0.72649443
83	0x3f45a440	0.7720375
84	0x3f3831fe	0.7195128
85	0x3f440f21	0.76585585
86	0x3f3b4987	0.7315907
87	0x3f469f93	0.7758724
88	0x3f38cbbb	0.7218587
89	0x3f449e24	0.76803803
90	0x3f36442c	0.7119777
91	0x3f447c2a	0.7675196
92	0x3f352f8e	0.7077569
93	0x3f430e63	0.7619383
94	0x3f36442c	0.7119777
95	0x3f448c97	0.76777023
96	0x3f352f8e	0.7077569
97	0x3f4323d4	0.76226544
98	0x3f54a469	0.8306337
99	0x3f5f68d6	0.8726934
100	0x3f532141	0.82472616
101	0x3f5e39fb	0.8680722
102	0x3f3922ab	0.72318524
103	0x3f4638f7	0.7743067
104	0x3f319bc7	0.6937832
105	0x3f40be50	0.75290394
106	0x3f3922ab	0.72318524
107	0x3f46269a	0.7740265
108	0x3f319bc7	0.6937832
109	0x3f40a80e	0.7525643
110	0x3f3d7bb2	0.7401687
111	0x3f47fb75	0.7811807
112	0x3f358832	0.7091094
113	0x3f425c72	0.7592231
114	0x3f3c5d31	0.735797
115	0x3f471a50	0.77774525
116	0x3f344d11	0.70430094
117	0x3f41686b	0.75549954
118	0x3f3b2db0	0.7311659
119	0x3f46a365	0.7759307
120	0x3f32a748	0.697865
121	0x3f40a751	0.75255305
122	0x3f37193c	0.7152288
123	0x3f439540	0.7639961
124	0x3f2e7644	0.6814921
125	0x3f3d7ccc	0.7401855
126	0x3f391ff8	0.72314405
127	0x3f452fa0	0.77025795
128	0x3f32d30d	0.6985329
129	0x3f405d16	0.7514204
130	0x3f37ae10	0.71749973
131	0x3f4486da	0.7676827
132	0x3f315e5b	0.692846
133	0x3f3fab03	0.7487032
134	0x3f3517ea	0.70739615
135	0x3f41a6bf	0.7564506
136	0x3f2fcfb9	0.68676335
137	0x3f3d8d80	0.74044037
138	0x3f347e8b	0.7050559
139	0x3f4184c4	0.7559321
140	0x3f2f655a	0.68514025
141	0x3f3d8edb	0.74046105
142	0x3f3a9b00	0.7289276
143	0x3f48b2e4	0.78397965
144	0x3f3437f1	0.7039786
145	0x3f443e69	0.7665773
146	0x3f3ee4be	0.7456778
147	0x3f4c4256	0.7978872
148	0x3f392fef	0.72338766
149	0x3f487926	0.7830986
150	0x3f3ef925	0.74598914
151	0x3f4c496c	0.7979953
152	0x3f392a00	0.7232971
153	0x3f4878c7	0.7830929
154	0x3f39e3a2	0.72612965
155	0x3f481f34	0.7817261
156	0x3f351649	0.7073713
157	0x3f44fa99	0.7694488
158	0x3f32e9dd	0.698881
159	0x3f4021f2	0.75051796
160	0x3f304685	0.68857604
161	0x3f3e40f3	0.74317855
162	0x3f339b66	0.70158994
163	0x3f4044ae	0.75104797
164	0x3f3161ba	0.69289744
165	0x3f3e97c5	0.7445033
166	0x3f34e6db	0.7066476
167	0x3f420486	0.7578815
168	0x3f33f6f0	0.7029867
169	0x3f419491	0.7561732
170	0x3f362146	0.7114452
171	0x3f429602	0.76010144
172	0x3f35704d	0.7087448
173	0x3f424ca5	0.758982
174	0x3f320bc3	0.69549197
175	0x3f3fb698	0.7488799
176	0x3f32e8c4	0.6988642
177	0x3f4016ce	0.750348
178	0x3f359292	0.70926774
179	0x3f427558	0.759603
180	0x3f36e0cb	0.71436757
181	0x3f4320af	0.76221746
182	0x3f362565	0.7115081
183	0x3f428aa5	0.75992805
184	0x3f37fa35	0.7186616
185	0x3f438939	0.7638126
186	0x3f36e151	0.71437556
187	0x3f431b75	0.7621377
188	0x3f38f687	0.7225117
189	0x3f445246	0.7668804
190	0x3f3222d3	0.6958439
191	0x3f410ecb	0.754132
192	0x3f34ab07	0.70573467
193	0x3f4280bc	0.75977683
194	0x3f3222d3	0.6958439
195	0x3f412358	0.75444555
196	0x3f34ab07	0.70573467
197	0x3f429514	0.76008725
198	0x3f5235e9	0.8211351
199	0x3f5d7116	0.8650068
200	0x3f5235e9	0.8211351
201	0x3f5d7116	0.8650068

network_body.observation_encoder.processors.1.normalizer.running_mean f4 [10]
0	0x00000000	0.0
1	0x00000000	0.0
2	0x00000000	0.0
3	0x00000000	0.0
4	0x00000000	0.0
5	0x00000000	0.0
6	0x00000000	0.0
7	0x00000000	0.0
8	0x00000000	0.0
9	0x00000000	0.0

network_body._body_endoder.seq_layers.0.weight f4 [256, 212]
0	0x3c01e1b0	0.007927343
1	0x3da98565	0.08277396
2	0xbdd94861	-0.10609508
3	0xbd3a4492	-0.04547555
4	0xbb2e6c32	-0.0026614782
5	0xbc5a1b52	-0.013312178
6	0xbdc844f1	-0.097787745
7	0x3e1e614e	0.15466806
8	0xbdedc2b0	-0.11609399
9	0xbd763bf6	-0.060115777
10	0x3d0908d7	0.033455696
11	0xbcf37c72	-0.029722426
12	0x3db14d7c	0.08657357
13	0xbd20aab1	-0.039225284
14	0x3da9a5d1	0.0828358
15	0xbd6f9ad7	-0.058497276
16	0x3d9c48e5	0.07631091
17	0x3cb9cd20	0.022680819
18	0xbbed3f2f	-0.007240198
19	0xbd180ff4	-0.03712459
20	0x3e2388c8	0.15970147
21	0x3da32729	0.079664536
22	0xbe558d73	-0.2085474
23	0x3d8cf4f4	0.068826586
24	0x3da93624	0.0826228
25	0x3cefb2f1	0.02926013
26	0xbdd275b9	-0.1027636
27	0x3dab7325	0.083715715
28	0x3d2ea626	0.04263892
29	0x3be5dafe	0.0070146313
30	0xbd90439b	-0.07044145
31	0x3e1cdcf4	0.15318662
32	0xbd5a1080	-0.053238392
33	0x3d38b04d	0.04509001
34	0x3d499e4b	0.049223226
35	0xbdbc3ffc	-0.091918916
36	0x3ddd61ff	0.10809707
37	0x3d503fe9	0.0508422
38	0xbd9caac1	-0.07649756
39	0x3d66e925	0.056374688
40	0x3d862e5f	0.06551813
41	0xbba54cd5	-0.0050445595
42	0x3ba38913	0.0049907058
43	0x3dd9b565	0.106303014
44	0xbdd61482	-0.1045313
45	0x3da1328f	0.078709714
46	0x3d4d7ac0	0.05016589
47	0xbd2c40ac	-0.042053863
48	0xbc18a37a	-0.00931632
49	0x3d7953a2	0.060870774
50	0x3d859ed5	0.065244354
51	0x3dbc0e0f	0.09182369
52	0xbd882971	-0.06648529
53	0xbd269d7b	-0.04067753
54	0xbd7dfd03	-0.06200887
55	0xbd2767bc	-0.040870413
56	0xbcbe75e4	-0.023249574
57	0xbd0f2b46	-0.03495338
58	0xbc950048	-0.01818861
59	0xbcd13b8b	-0.025541088
60	0x3d4836e5	0.048880477
61	0xbcd691ae	-0.026192512
62	0xbd310a04	-0.043222442
63	0x3c5e88cf	0.013582422
64	0x3daf9438	0.08573192
65	0xbbae7432	-0.00532391
66	0x3b000de0	0.001953952
67	0xbd9077ce	-0.07054101
68	0xbb6f9675	-0.0036558185
69	0x3c959bc1	0.018262746
70	0x3c928f6b	0.017890653
71	0x3db112dd	0.08646176
72	0xbceff1cf	-0.029290108
73	0xbe0c0c97	-0.13676678
74	0xbbda95a7	-0.006670672
75	0xbd3a1886	-0.045433544
76	0xbe0977da	-0.13424626
77	0xbd24b86b	-0.040214937
78	0x3d026910	0.031838477
79	0xbd8f871e	-0.070081934
80	0x3c522f61	0.012828679
81	0xbdc564ba	-0.09638353
82	0xbc433b67	-0.011916018
83	0x3e03ac39	0.12858666
84	0x3d769a0b	0.0602055
85	0x3d3d28d7	0.046181526
86	0xbbbe57e2	-0.0058088163
87	0xbcf55ac3	-0.029950505
88	0xbce67be6	-0.028135251
89	0x3c39c017	0.011337302
90	0xbe107690	-0.14107728
91	0xb9a4723a	-0.00031365623
92	0x3cc47465	0.023981282
93	0x3db9e6f8	0.09077257
94	0xbd831001	-0.06399537
95	0xbcd57e81	-0.026061298
96	0xbe0c465b	-0.13698713
97	0xbcf4b87d	-0.029873127
98	0x3bacd8b1	0.005274855
99	0x3dd09b99	0.10185928
100	0x3d16d56b	0.036824625
101	0xbdbe5395	-0.09293286
102	0xbd460fcd	-0.048354913
103	0xbccd926b	-0.025094232
104	0x3d86ad6b	0.065760456
105	0x3d9b1c39	0.075737424
106	0xbd951e87	-0.07281213
107	0xbd8c3f65	-0.06848029
108	0x3ca0967c	0.019603007
109	0x3d06ae6a	0.032881178
110	0xbde6613b	-0.11249014
111	0xbd4634e1	-0.048390273
112	0x3e33fb9f	0.17576455
113	0x3d2ad7dd	0.04170977
114	0xbda330a3	-0.07968261
115	0x3d0059c6	0.031335615
116	0x3d88d930	0.0668205
117	0x3d080f6b	0.03321783
118	0xbd5cbfd7	-0.05389389
119	0xbd046ec2	-0.03233219
120	0x3d9b2b01	0.07576562
121	0x3d36892c	0.04456441
122	0x3e13272f	0.14370416
123	0xbda7edd6	-0.081996605
124	0x3dae1025	0.08499173
125	0x3b52156e	0.003205623
126	0x3c951264	0.018197246
127	0xbd781289	-0.06056455
128	0x3cd071a7	0.025444819
129	0x3d66ad57	0.056317654
130	0x3dba9499	0.09110374
131	0xbbf3055e	-0.0074164113
132	0x3cc634be	0.024195071
133	0x3d124063	0.035705935
134	0x3d1e7b53	0.03869183
135	0x3d4c942f	0.049946006
136	0x3c7e2eb2	0.015514063
137	0x3bda7300	0.006666541
138	0xbd7d2164	-0.061799422
139	0xbe04e3d4	-0.12977535
140	0x3e15b714	0.1462062
141	0xbb5cb104	-0.0033674845
142	0x3da8dfa9	0.08245785
143	0x3dcfd4a0	0.10147977
144	0xbd0ee983	-0.034890663
145	0xbd72c4e8	-0.059269816
146	0xbd8ed626	-0.06974439
147	0x3d0bd232	0.034136005
148	0xbe193064	-0.14959866
149	0x3d88d856	0.06681888
150	0x3e100431	0.14064099
151	0xbc3f4967	-0.011675215
152	0xbdcfaed6	-0.10140769
153	0x3d5745b8	0.052556723
154	0x3dba324f	0.09091627
155	0xbb063986	-0.0020481064
156	0xbdbc84f7	-0.092050485
157	0x3c1f983a	0.0097408835
158	0x3c273120	0.010204583
159	0x3d92ccc0	0.07167959
160	0x3d7c14f9	0.06154344
161	0xbd235f4b	-0.0398858
162	0xbd45826d	-0.048220087
163	0xbc7c387a	-0.015394324
164	0x3d43eeea	0.047835268
165	0x3d91fdc9	0.07128484
166	0x3e1a2656	0.15053686
167	0x3c242bcd	0.010020209
168	0xbd729b7c	-0.059230313
169	0xbd664e0f	-0.056226786
170	0x3cd5da1a	0.026104975
171	0x3d8e2a00	0.069416046
172	0x3c36940e	0.011143697
173	0xbd36dcbf	-0.044644114
174	0xbcbc8480	-0.0230124
175	0x3e1f186c	0.1553666
176	0x3d18b0b6	0.0372779
177	0x3d72233c	0.059115633
178	0xbce1e4c2	-0.0275749
179	0x3daf4c72	0.08559503
180	0x3e19fec3	0.1503859
181	0xbda65a95	-0.08122746
182	0xbc8b1225	-0.016976425
183	0x3c516f44	0.012782875
184	0xbc83dd54	-0.016096748
185	0x3aa20554	0.0012361207
186	0x3e4cdce9	0.20006146
187	0x3de881cc	0.11352882
188	0xbda1d8a5	-0.0790265
189	0xbcb9e793	-0.022693431
190	0x3c8c8f47	0.017158164
191	0xbd36df47	-0.044646528
192	0x3d8dbd94	0.06920925
193	0x3ddecfd9	0.108794875
194	0x3e3a0853	0.18167238
195	0x3db29212	0.08719267
196	0xbc15f70a	-0.009153137
197	0xbd2a956d	-0.04164641
198	0x3dabd557	0.08390301
199	0x3c6359ec	0.0138764195
200	0xbcfacef2	-0.030616257
201	0x3cb186c7	0.021670712
202	0x3d204f66	0.03913822
203	0xbc2b9d61	-0.010474534
204	0x3d4ad8ba	0.049523093
205	0x3dc791b5	0.09744588
206	0xbdcff1aa	-0.10153516
207	0xbc5e729d	-0.013577131
208	0xbdbb78ca	-0.09153898
209	0x3d7b6166	0.061372183
210	0xbc9da8eb	-0.019245585
211	0xbd0d48a5	-0.034493107
212	0x3c8df9be	0.017331
213	0x3de8dcb6	0.11370222
214	0x3c8b7b67	0.017026616
215	0x3bfd639a	0.0077328207
216	0x3e0dc14c	0.13843268
217	0xbe53fdb7	-0.20702253
218	0xbd51cea9	-0.051222477
219	0x3cdbe198	0.02684097
220	0x3dcebe42	0.100948825
221	0xbde56dab	-0.11202558
222	0x3cfb7030	0.030693144
223	0xbd960c18	-0.073265254
224	0xbb307cbe	-0.002692982
225	0x3c88fc86	0.016721975
226	0xbca28af8	-0.019841656
227	0x3d9877e3	0.074447416
228	0x3db82845	0.08992056
229	0xbdae354c	-0.08506259
230	0xbc8729e7	-0.016499473
231	0x3bf8dc6d	0.007594636
232	0xbd2532e6	-0.040331744
233	0x3c17e435	0.009270717
234	0xbc8da6d7	-0.01729147
235	0xbbd5a29c	-0.0065196287
236	0x3e022dc4	0.1271277
237	0x3deae5e4	0.114696294
238	0xbd591a29	-0.053003464
239	0xbc4176c8	-0.011808105
240	0x3e050fae	0.12994263
241	0x3dbcf19f	0.09225773
242	0x3d1f9920	0.03896439
243	0xbca1ac75	-0.019735554
244	0xbcf591bd	-0.02997672
245	0x3ca72156	0.020401638
246	0x3db1bc5e	0.08678506
247	0xbd80fb56	-0.062979385
248	0xbc94358f	-0.018091945
249	0xbd055fae	-0.03256195
250	0xbcceb8a0	-0.02523452
251	0xbd60a588	-0.054845363
252	0x3cfc313f	0.030785201
253	0xbcf8297f	-0.030293224
254	0xbd4c1575	-0.04982515
255	0x3c57057b	0.013123865

network_body._body_endoder.seq_layers.0.bias f4 [256]
0	0xbbd22428	-0.0064130016
1	0xbcd63071	-0.026146146
2	0xbc076804	-0.008264545
3	0xbc9e4254	-0.019318737
4	0xbb91b9bd	-0.0044471906
5	0xbc95b56f	-0.01827499
6	0xbbe863b2	-0.0070919627
7	0xbd09fe34	-0.033689693
8	0x3c3afeb9	0.01141327
9	0xbb9131c0	-0.0044309795
10	0xbb91decb	-0.004451608
11	0x3c1fdc96	0.009757182
12	0x3c96c33c	0.018403642
13	0x3c2d9b06	0.0105960425
14	0x3ad4f0f0	0.0016246121
15	0x3c197ad3	0.0093676625
16	0x3bacfb29	0.005278964
17	0x3c1cb5a0	0.009564787
18	0x3c60aee9	0.013713577
19	0xbc7fb2b9	-0.015606576
20	0xbcb31e04	-0.021864899
21	0x3c32a82c	0.010904353
22	0xba1f57be	-0.0006078443
23	0x3c2c089c	0.0105000995
24	0x3cda56df	0.026652751
25	0xbc8266ac	-0.015918098
26	0xbc50b19d	-0.012737659
27	0x3d17838c	0.036990687
28	0x3c5b7ee2	0.01339695
29	0x3d392517	0.045201387
30	0x3c4c5fc4	0.012474004
31	0xb90c551c	-0.00013383146
32	0x3be99422	0.0071282545
33	0x3b0dd0ef	0.0021639427
34	0x3c834dfd	0.016028399
35	0x3cb8d2d8	0.022561476
36	0xbd41311a	-0.047165968
37	0xbcd13bc9	-0.025541203
38	0xba952bec	-0.0011380888
39	0x3c9c0297	0.019044204
40	0x3c7bffa7	0.0153807765
41	0x3c0b22a9	0.00849215
42	0x3b340e93	0.0027474507
43	0x3b8ab148	0.0042325594
44	0xbc44d780	-0.01201427
45	0xbc9db15b	-0.019249609
46	0x3ac74336	0.0015202526
47	0xbcf9b6d7	-0.030482693
48	0x3cbd1376	0.023080569
49	0xbc0332d9	-0.0080077285
50	0x3c8d27db	0.017230919
51	0x3c1198d8	0.008886538
52	0xbc27dcd3	-0.01024552
53	0xbae3fe52	-0.0017394519
54	0x396e0f86	0.00022703232
55	0x3b98009a	0.0046387436
56	0x3bc0665b	0.0058715767
57	0x3be70669	0.0070503247
58	0x3b2202ef	0.0024720987
59	0xbd0d70fb	-0.034531575
60	0xbb5f23a3	-0.003404834
61	0xbc964473	-0.018343186
62	0xbb7e429c	-0.0038797027
63	0x3c0a8e73	0.008456814
64	0x3becea8d	0.007230109
65	0xb9f22ab0	-0.00046189642
66	0xbb994e4a	-0.0046785222
67	0x3c254672	0.010087596
68	0xbb9c4da1	-0.0047699963
69	0xbb3238c2	-0.0027194475
70	0x3ab1116e	0.0013509223
71	0x3cd33cd1	0.025785835
72	0xbbf0610e	-0.0073357886
73	0x3ce3e0a2	0.027817074
74	0xbbe8012d	-0.0070802183
75	0x3b1dff34	0.0024108412
76	0x3c12c824	0.00895885
77	0x3c7adc02	0.015311243
78	0xbc046ed5	-0.008083065
79	0x3cb062a9	0.02153142
80	0x3d5b240e	0.05350118
81	0x3b109857	0.0022063458
82	0x3cf94e37	0.030432804
83	0x3ca22af8	0.01979588
84	0x3c095851	0.008382873
85	0xbcc1837d	-0.023622269
86	0xbba4ae7d	-0.0050256834
87	0xbc29e832	-0.010370301
88	0x3cc3e0f7	0.023910983
89	0x3cb67da5	0.022276709
90	0x3cb2b4b7	0.021814687
91	0x3cd04bae	0.025426712
92	0x3c4f88ec	0.012666922
93	0x3c79e34d	0.015251947
94	0x3c36aadf	0.011149137
95	0x3c11ff2e	0.008910937
96	0x3c927515	0.017878095
97	0x3bb4ce5b	0.0055177636
98	0x3bc53d36	0.00601926
99	0x3c49fae7	0.012327886
100	0xbc3c158b	-0.011479746
101	0xbca6b459	-0.020349668
102	0xbd06d106	-0.032914184
103	0x3cdee80d	0.02721026
104	0x3bb215a0	0.005434707
105	0x3c156665	0.009118651
106	0xbc3fb2bc	-0.011700328
107	0xbce8fc9d	-0.028440768
108	0x3c115247	0.008869714
109	0xbb06630d	-0.0020505816
110	0x3b9075d1	0.004408576
111	0xbbe00929	-0.0068370295
112	0x3baefeea	0.0053404467
113	0x3c9e3f52	0.019317303
114	0xbc381a84	-0.011236791
115	0xba9d00ce	-0.0011978389
116	0x3c87e5e7	0.016589118
117	0x3d36ae93	0.04460008
118	0x3c6df85e	0.014524547
119	0x3b57902a	0.0032892325
120	0x3c08d024	0.008350406
121	0x3ce4dd0a	0.02793743
122	0xbd2448e1	-0.040108565
123	0x3c37ae69	0.011211016
124	0xbc8a7800	-0.016902924
125	0x3c24a32a	0.010048667
126	0xbc2c56d9	-0.010518753
127	0xbc2fc332	-0.0107276905
128	0x3bfa84be	0.0076452186
129	0xbca42871	-0.020038815
130	0x3c1f4601	0.00972128
131	0x3c53cc52	0.012927132
132	0x3c430666	0.011903381
133	0xbb877574	-0.0041338746
134	0xbab58da1	-0.0013851413
135	0x3ba583aa	0.005051096
136	0x3b84336e	0.004034451
137	0xbc9aeea1	-0.018912615
138	0x3c83b567	0.01607771
139	0x3d3a0749	0.045417104
140	0xbbe3bfb0	-0.006950341
141	0x3c9da1a9	0.019242125
142	0xbb9f4d99	-0.0048615453
143	0x3ca9eac8	0.020741835
144	0x3c897fd7	0.016784592
145	0xbc566363	-0.013085219
146	0x3d00831b	0.031375032
147	0x3cc8799b	0.024472049
148	0x3c198518	0.009370111
149	0xb8ef87a4	-0.00011421673
150	0x3c6d3835	0.014478733
151	0x3b62e8ab	0.0034623544
152	0xbc598935	-0.013277342
153	0x3c090a96	0.00836434
154	0x3d047907	0.032341983
155	0x3c2d4eda	0.010577882
156	0x3bc503d2	0.0060124183
157	0x3b135231	0.002247941
158	0xbc83274f	-0.016009955
159	0x3ca9471f	0.020663796
160	0x3c236d77	0.009974829
161	0xbb13662d	-0.0022491321
162	0xb911437e	-0.0001385342
163	0x3baaa017	0.0052070725
164	0x3d00c7e3	0.031440627
165	0x3c99982a	0.018749315
166	0xbcce397e	-0.025173899
167	0xba265c1b	-0.0006346122
168	0xbc74eab1	-0.014948533
169	0x3c39a8ff	0.011331796
170	0x3c95ceba	0.018287051
171	0x3ce2fd2e	0.027708616
172	0x3c3e84eb	0.01162837
173	0x3bd7dbf9	0.006587502
174	0x3ccc3c84	0.0249312
175	0xbc5a88db	-0.013338293
176	0x3c2b7b56	0.010466417
177	0xbb72ceb3	-0.0037049472
178	0xbca5aced	-0.020224059
179	0xbbb1cafd	-0.0054258094
180	0xbc2b97de	-0.01047322
181	0x3ca23b62	0.019803707
182	0xbbc2e78f	-0.005948014
183	0x3c889cfd	0.01667642
184	0x3cc1d25a	0.023659874
185	0x3c10b5e0	0.008832425
186	0x3cbe5f83	0.023238903
187	0x3b951501	0.004549623
188	0x3c4c476c	0.0124682
189	0xbd1d4e7f	-0.038404938
190	0x3beab855	0.0071630874
191	0xbd33633f	-0.04379582
192	0x3918ee43	0.00014584609
193	0x3cb23bfd	0.02175712
194	0x3bd8f739	0.006621268
195	0xbb935380	-0.004496038
196	0xbbdd2862	-0.006749199
197	0x3cb6b726	0.022304129
198	0xbc7ade11	-0.015311734
199	0x3bf72ef6	0.00754344
200	0xbc399e64	-0.011329267
201	0x3c9c0917	0.019047303
202	0x3d0ed52b	0.03487126
203	0x3c87fc9a	0.016599942
204	0x3bf6ab8e	0.007527775
205	0xbc99b7dc	-0.018764429
206	0x3b5ebd89	0.0033987483
207	0x3c7c870b	0.015413056
208	0x3d0e3473	0.03471799
209	0xbc8d2d48	-0.017233506
210	0x3c3ae662	0.011407467
211	0xbc486d6e	-0.012233121
212	0xbcc6fef5	-0.024291495
213	0x3c021586	0.007939702
214	0x3b8c31f9	0.004278418
215	0x3c5a3882	0.013319137
216	0x3c8aef72	0.01695988
217	0xbc22f7b8	-0.009946756
218	0x3c9926b2	0.01869521
219	0xbc95cfab	-0.0182875
220	0xbbfeb574	-0.0077730957
221	0x3be78b33	0.0070661544
222	0xbb123a63	-0.0022312633
223	0x3c0198f5	0.007910003
224	0x3c723840	0.014783919
225	0x3c2837dc	0.010267224
226	0x3c28c0b2	0.010299848
227	0x3c60efbc	0.013729032
228	0x3c0d92d9	0.008640968
229	0xbb7ada8e	-0.0038277241
230	0x3c903c41	0.017606856
231	0xbc06b908	-0.008222826
232	0x3c2b3053	0.010448533
233	0xbc430a2a	-0.011904279
234	0x3c8127c6	0.015766036
235	0x3c669eb8	0.014075927
236	0xbce7ec28	-0.02831085
237	0x3c68d220	0.014210254
238	0xbae0bcf5	-0.0017146157
239	0x3be42bab	0.0069632134
240	0x3cb8995f	0.02253407
241	0xbc1fe6f1	-0.009759651
242	0xbc3dc3b3	-0.011582303
243	0xbc0dd005	-0.008655553
244	0x3c0bb0a0	0.008525997
245	0x3c90f8fa	0.017696846
246	0x3bed4ab7	0.0072415727
247	0x3cceb327	0.02523191
248	0xbcb34439	-0.021883117
249	0x38b41f1e	8.588865e-05
250	0xbc0fac8a	-0.008769164
251	0xbc30303a	-0.010753686
252	0x3bbe2d0c	0.00580371
253	0x3ca8c33d	0.02060091
254	0x3c68f904	0.014219526
255	0x3bc70aeb	0.0060742996

network_body._body_endoder.seq_layers.2.weight f4 [256, 256]
0	0x3d6988be	0.057015173
1	0x3d4cd851	0.050010983
2	0x3d34c366	0.04413166
3	0xbd39a59b	-0.04532395
4	0xbd429c6b	-0.047512453
5	0xbe0bf055	-0.13665898
6	0xbcea4e73	-0.02860186
7	0xbcf64cf5	-0.030065993
8	0xbe114c26	-0.14189205
9	0xbd56f51a	-0.05247984
10	0x3cf4f144	0.0299002
11	0xbc6e3108	-0.014538057
12	0xbd70862a	-0.0587217
13	0xbd51ed5a	-0.051251747
14	0x3ce10379	0.027467476
15	0x3d934615	0.071911015
16	0x3c86be75	0.016448239
17	0xbaccdab4	-0.0015629143
18	0x3c9bc445	0.019014487
19	0xba9e149a	-0.0012060583
20	0xbd064776	-0.032782994
21	0x3cc71d4e	0.024305966
22	0x3d284b98	0.041087717
23	0x3d9d5157	0.0768153
24	0x3c37c3a7	0.011216081
25	0x3ccb7269	0.024834828
26	0x3d6a146b	0.05714838
27	0x3da6eec2	0.08151008
28	0x3d83c320	0.064337015
29	0x3e078763	0.1323524
30	0xbbb5bc33	-0.0055461167
31	0xb93fbbfa	-0.00018285206
32	0x3d3c4c19	0.04597101
33	0x3d505cae	0.050869636
34	0xbe23f42e	-0.16011116
35	0x3d996a84	0.07491019
36	0xbbbe2163	-0.00580232
37	0x3d8916c0	0.06693792
38	0xbd3fdf5b	-0.046843868
39	0xbdc6a19e	-0.09698795
40	0xbce1f9a3	-0.027584856
41	0x3e0c0309	0.13673033
42	0xbc26c15b	-0.0101779355
43	0x3cbd2cd0	0.023092657
44	0x3c929a77	0.01789592
45	0xbcaf0431	-0.021364303
46	0x3be9b8d1	0.0071326275
47	0xbdaebff3	-0.08532705
48	0xbe01a548	-0.12660706
49	0xbd41207c	-0.04715012
50	0xbc9dc921	-0.019260945
51	0x3d76f5ad	0.06029289
52	0xbcc77671	-0.02434847
53	0x3ca50255	0.020142714
54	0xbcf8f0d1	-0.030388268
55	0xbe0a111e	-0.13483092
56	0x3d8e5cd0	0.06951296
57	0xbdfb563b	-0.122723065
58	0xbdaf0a4b	-0.08546885
59	0x3ddd2935	0.10798875
60	0xbaff01ad	-0.0019455455
61	0xbd93f269	-0.072239704
62	0xbd450192	-0.0480972
63	0xbd230831	-0.039802734
64	0xbd36d820	-0.044639707
65	0xbcdb9a16	-0.026806872
66	0xbd26ce12	-0.040723868
67	0xbac35fe6	-0.0014905899
68	0xbc905746	-0.01761974
69	0xbda987bf	-0.08277845
70	0x3e10f865	0.14157255
71	0xbd563393	-0.05229528
72	0x3c5e7421	0.013577492
73	0xbd8b31f3	-0.067966364
74	0xbc743d1c	-0.014907148
75	0xbd5756af	-0.052572902
76	0xbb9a21b2	-0.004703724
77	0xbc34e03a	-0.011039788
78	0xbd167369	-0.036731157
79	0x3cd8808d	0.026428485
80	0xbcd82c66	-0.026388358
81	0x3c384cc4	0.011248771
82	0x3cace57b	0.021105519
83	0xbd702903	-0.05863286
84	0x3c6d4329	0.014481344
85	0x3c6affec	0.014343243
86	0xbd2eca75	-0.042673547
87	0x3d8b45df	0.06800436
88	0xbd5a05af	-0.053228077
89	0x3d5518d6	0.05202564
90	0xbd6d4180	-0.057923794
91	0x3d65be8c	0.056089923
92	0xbdedb3e2	-0.116065755
93	0x3dcf9118	0.10135096
94	0xbddb9fc6	-0.10723834
95	0xbc1a8778	-0.009431712
96	0xbe00ca74	-0.1257723
97	0xbd2dae66	-0.042402647
98	0xbd22775a	-0.039664604
99	0x3d8c50a2	0.06851317
100	0xbd823102	-0.06357004
101	0xbd5ac655	-0.0534118
102	0x3b8273a8	0.0039810725
103	0xbe0176da	-0.12642995
104	0x3d52a77c	0.051429257
105	0xbcba347d	-0.022730106
106	0x3ba2525e	0.0049536666
107	0x3d91cac2	0.07118751
108	0x3bff526f	0.0077918093
109	0x3d9a5107	0.07534986
110	0xbd2187fe	-0.039436333
111	0x3c5fe6cb	0.013665865
112	0x3d660ccb	0.056164544
113	0xbdb31a25	-0.08745221
114	0x3d763931	0.060113136
115	0xbc8dc09d	-0.01730376
116	0x3d748f8e	0.059707217
117	0x3d3d932a	0.046282925
118	0xbd088b47	-0.03333595
119	0xbd70db47	-0.05880287
120	0x3c3ddac1	0.0115877995
121	0xbc20b8d4	-0.009809691
122	0x3cb1db20	0.021710932
123	0xb99342fa	-0.00028087926
124	0xbd6471ab	-0.055772465
125	0xbcad0228	-0.021119192
126	0xbe0027e8	-0.12515223
127	0xbd64ca74	-0.055857137
128	0x3e37678c	0.17910594
129	0xbd14e92f	-0.036355194
130	0xbbee9bdd	-0.007281764
131	0x3d4150d6	0.04719623
132	0x3c221d2b	0.0098946495
133	0xbd3261dd	-0.04355036
134	0xbca398d5	-0.019970337
135	0x3dba33b7	0.09091895
136	0xbd3cd180	-0.046098232
137	0x3e0eaccb	0.13933103
138	0x3d9a1f48	0.07525498
139	0x3ca64252	0.020295296
140	0x3c9f3263	0.019433206
141	0xbdc10461	-0.09424663
142	0xbd0709ad	-0.032968212
143	0x3d16df81	0.036834244
144	0x3bac5cd1	0.005260088
145	0x3b03ce3f	0.0020111946
146	0xbc325bc3	-0.0108861355
147	0x3cbe2351	0.0232102
148	0xbdbdbe10	-0.09264767
149	0xbd92444d	-0.071419336
150	0x3b664dd9	0.0035141616
151	0xbd4231a4	-0.047410622
152	0x3d80e575	0.062937655
153	0xbd294919	-0.041329477
154	0xbda35c16	-0.079765484
155	0xbd252853	-0.04032166
156	0x3bc3b474	0.0059724394
157	0xbd101551	-0.03517658
158	0xbcab2557	-0.020891828
159	0xbd62f0cc	-0.055405423
160	0x3d14a491	0.036289755
161	0x3cd5cf68	0.026099876
162	0xbd0c7d6d	-0.034299303
163	0xbd0326b6	-0.03201934
164	0xbdfcf715	-0.12351815
165	0xbe06ba4c	-0.13157004
166	0xbd97dfc8	-0.0741573
167	0x3deed567	0.11661797
168	0x3d4b68a3	0.049660336
169	0xbde5e7da	-0.11225863
170	0xbccd7ec7	-0.025084866
171	0x3d8557a1	0.065108545
172	0xbcfeeb76	-0.031118136
173	0x3c96f347	0.01842655
174	0x3d863409	0.06552894
175	0xbdadb84a	-0.08482416
176	0xbbfaed73	-0.0076577007
177	0xbd9d76d1	-0.07688678
178	0x3dbd51d4	0.09244123
179	0xbd7fc5c8	-0.06244448
180	0x3caf6a30	0.021412939
181	0x3d29784d	0.041374493
182	0xbe0d9103	-0.13824849
183	0x3dd967cb	0.106155
184	0x3b588af8	0.0033041816
185	0xbd9cc6f3	-0.07655134
186	0xbda2f25a	-0.07956381
187	0xbe505d44	-0.20348078
188	0xbd11f293	-0.035631727
189	0x3e153269	0.14570011
190	0x3d240490	0.040043414
191	0xbd823209	-0.063572
192	0x3e0a3a97	0.13498913
193	0xbb358fa7	-0.0027704032
194	0xbcacf614	-0.021113433
195	0x3d759cf9	0.059964154
196	0xbd2f6a09	-0.042825732
197	0x3d86b919	0.06578273
198	0x3e48b709	0.19601072
199	0xbd69bf52	-0.057067223
200	0xbcbe3431	-0.023218246
201	0xbd3d399b	-0.046197515
202	0x3c754c33	0.014971781
203	0x3ce576e4	0.028010793
204	0xbdcbdd70	-0.09954345
205	0xbd30d3c3	-0.0431707
206	0xbe1f5716	-0.15560564
207	0x3d00eef4	0.031477883
208	0xbbcc9851	-0.0062437435
209	0x3c329f86	0.010902291
210	0xbcde56a3	-0.027140921
211	0x3d3d2e63	0.046186816
212	0x3d6bb72e	0.05754774
213	0xbc755d11	-0.014975802
214	0x3d33468f	0.04376846
215	0x3d73f020	0.059555173
216	0xbdb10f05	-0.08645443
217	0xbb727396	-0.0036995164
218	0xbe080319	-0.13282432
219	0x3bea4928	0.007149834
220	0xbd4c96d1	-0.049948517
221	0xbd81edef	-0.0634421
222	0xbcbef713	-0.023311174
223	0x3d7adb09	0.061244044
224	0x3ca07510	0.01958707
225	0x3dc5745e	0.09641336
226	0x3d770784	0.0603099
227	0xbc53839c	-0.012909796
228	0xbdf29eb8	-0.118466794
229	0xbcf42b46	-0.02980579
230	0xbc99545d	-0.018716985
231	0xbc65eb2b	-0.014033119
232	0x3d369b15	0.04458149
233	0x3dc0ff3a	0.094236806
234	0xbbfdfd19	-0.007751119
235	0x3cd50d0d	0.0260072
236	0x3d6e4761	0.05817354
237	0x3c3b8354	0.011444885
238	0xbc946d7b	-0.01811861
239	0x3db0bb53	0.08629479
240	0x3d8322a2	0.0640309
241	0xbca1d58f	-0.019755153
242	0x3d9697b1	0.073531516
243	0x3b8e7a68	0.004348088
244	0xbb9a3e66	-0.0047071455
245	0xbc6d1ead	-0.014472646
246	0x3d0569a6	0.032571457
247	0x3d94de70	0.07268989
248	0x393652dc	0.0001738774
249	0x3dac5ac4	0.0841575
250	0xbd89d403	-0.06729891
251	0x3c82c551	0.015963228
252	0xbcbff09b	-0.02343016
253	0xbc9bcfcc	-0.019019984
254	0x3d47ca82	0.04877711
255	0x3c0d55dd	0.008626428

network_body._body_endoder.seq_layers.2.bias f4 [256]
0	0xba72895b	-0.0009252035
1	0xbb992b44	-0.004674347
2	0x3c9091ee	0.01764771
3	0x3cc1597a	0.023602236
4	0x3c7be930	0.01537542
5	0x3c38a936	0.011270812
6	0x3c83aae8	0.016072705
7	0xbba2845b	-0.0049596257
8	0x3c0ab689	0.008466371
9	0x3d10b4e5	0.035328764
10	0x3c64951e	0.013951568
11	0x3cda3a5d	0.026639158
12	0xbb039f12	-0.0020083827
13	0x3b5cc868	0.0033688787
14	0x3c896a27	0.01677425
15	0x3b8cd19d	0.004297449
16	0x3bf72877	0.0075426656
17	0x3c9bb6da	0.019008089
18	0x3c268818	0.010164283
19	0xbb270ddb	-0.0025490436
20	0x3c383ab2	0.011244463
21	0x3ca03473	0.01955626
22	0x3c60ac21	0.013712914
23	0x3c0aafc1	0.008464755
24	0x3cdcf119	0.026970433
25	0xbc36cc7a	-0.011157149
26	0x3cb0aaa5	0.021565745
27	0xbaed1217	-0.0018087056
28	0x3c9463a8	0.018113926
29	0x3b6dc47c	0.0036280444
30	0xbbcffbb7	-0.0063471454
31	0x3cce469d	0.025180155
32	0x3bebd775	0.0071973153
33	0x3cb4f88d	0.022091174
34	0x3c61044a	0.013733933
35	0x3c9f7e05	0.01946927
36	0xbc0d97e4	-0.008642171
37	0x3b4b768a	0.0031045997
38	0xbc1122e6	-0.008858418
39	0xbc156ad7	-0.009119711
40	0xbbb630be	-0.0055600097
41	0xbb860017	-0.004089366
42	0xbb9568b4	-0.0045596007
43	0x3c411a3d	0.011786041
44	0xbbdc57fc	-0.0067243557
45	0x3c97f1c4	0.0185479
46	0x3cc282c4	0.023743995
47	0x3c7d9bd3	0.015479046
48	0x3b82ca27	0.0039913836
49	0x3b2ce0c5	0.002637909
50	0x3c8e4f6f	0.017371861
51	0x3c174b5c	0.009234276
52	0x3bde8dbd	0.006791799
53	0x3c3c9f40	0.0115125775
54	0xbc64f525	-0.013974463
55	0x3c237ff0	0.009979233
56	0x3c843e2d	0.016142929
57	0x3c28dd33	0.010306644
58	0x3c11279c	0.008859541
59	0x3bdf3dfb	0.0068128086
60	0x3c789cf3	0.015174138
61	0x3b43dfa9	0.002988795
62	0x3c6c9bf3	0.014441478
63	0x3cea80e4	0.028625913
64	0x3ce3163b	0.027720561
65	0x3c999fe0	0.018752992
66	0x3c08c078	0.008346669
67	0x39658fe8	0.00021892751
68	0x3bb4ac9c	0.0055137407
69	0xbbf48dbe	-0.007463186
70	0x3ceed02f	0.029152004
71	0x3b384f3f	0.0028123406
72	0x3bf2d3dd	0.00741051
73	0x3c9cba34	0.019131757
74	0x3cb15c7c	0.021650545
75	0xbb935e83	-0.0044973507
76	0xbc8bf2f7	-0.017083628
77	0x3d0443a1	0.03229106
78	0x3ca16a8f	0.019704131
79	0x3bc734da	0.0060792984
80	0x3c7f30b9	0.015575581
81	0xbc3a7ee7	-0.011382795
82	0x3afb37de	0.001916643
83	0x3c8eab6f	0.01741573
84	0x3b9b085a	0.00473122
85	0x3c84d150	0.01621309
86	0x3c55f837	0.013059667
87	0x3cd81b93	0.026380336
88	0x3c92e327	0.01793058
89	0x3bbcd2c0	0.005762428
90	0xb90e8520	-0.00013591768
91	0xb9f3a0b4	-0.00046468305
92	0x3bdbe5ab	0.006710728
93	0x3bf0db95	0.007350395
94	0x3be488f8	0.0069743358
95	0xbbda5f1b	-0.0066641695
96	0xbbc17c5a	-0.0059047164
97	0x3c4961de	0.0122914
98	0x3d1ddce7	0.038540747
99	0x3c91ec6b	0.017812928
100	0x3c928518	0.01788573
101	0xbb75d5e2	-0.0037511517
102	0x3c0c9019	0.008579277
103	0x3cbb8745	0.02289165
104	0x3d0dd846	0.034630083
105	0x3bcab8fd	0.006186603
106	0xbac6121f	-0.0015111602
107	0x3ccea1f6	0.025223713
108	0x3ca80e6e	0.020514693
109	0xbcc4e055	-0.024032751
110	0x3b3785a3	0.0028003238
111	0x3d00aa9f	0.031412717
112	0x3cb3406c	0.021881305
113	0x3c8f0285	0.017457256
114	0x3c8109f5	0.015751818
115	0x3cb234a6	0.02175362
116	0x39d63975	0.0004086007
117	0x3d2f8b5c	0.042857513
118	0xbb4f3386	-0.0031616404
119	0xbcde70e8	-0.027153447
120	0xb83b9e92	-4.4731954e-05
121	0x3cb33c31	0.021879287
122	0x3a3f811e	0.0007305312
123	0xbba19b91	-0.004931875
124	0x3c70660d	0.014672768
125	0x3ce6da15	0.028180161
126	0x3c5ff648	0.013669558
127	0x3bbff5fe	0.005858182
128	0x3ca0abcb	0.019613167
129	0x3c0eae25	0.0087085115
130	0x3c361ef3	0.011115777
131	0x3be510c1	0.0069905226
132	0x3c55f9d5	0.013060053
133	0x3ca7301b	0.02040868
134	0xbbb79321	-0.005602256
135	0x3c77898e	0.015108479
136	0x3c199029	0.009372749
137	0x3c436937	0.011926941
138	0x3cb6d630	0.02231893
139	0x3c4ea47e	0.01261246
140	0x3ca373b6	0.019952636
141	0xbc01d643	-0.007924619
142	0x3c56e069	0.013115027
143	0x3ac78eb9	0.001522503
144	0x3cdc4670	0.026889056
145	0x3c6aca2a	0.014330426
146	0x3ca463e5	0.020067165
147	0xbcb2ac60	-0.02181071
148	0x3d1b6fb7	0.037948336
149	0x3c38face	0.011290265
150	0x3bf230ee	0.007391087
151	0xbc943341	-0.018090846
152	0xbae58b13	-0.0017512761
153	0xbbc70a03	-0.0060741915
154	0x3c574f1c	0.01314142
155	0x3c73beb2	0.014877008
156	0xbc237d15	-0.009978552
157	0xbc46f381	-0.012143017
158	0x3c35ae01	0.011088849
159	0x3cb590d7	0.022163792
160	0x3bffab46	0.0078024
161	0x3cd206fe	0.0256381
162	0x3abeb821	0.0014550724
163	0x3c7f2570	0.015572891
164	0x3c9df1b9	0.019280301
165	0x3cf4b310	0.02987054
166	0xb8240134	-3.9101767e-05
167	0x3c09b5cd	0.008405161
168	0x3c5430af	0.01295106
169	0x3c90f0d0	0.017692953
170	0x3c2a5b90	0.010397807
171	0x3c197a23	0.009367499
172	0x3c9b4b35	0.01895676
173	0xbc5f3571	-0.013623581
174	0x3ca431b3	0.02004323
175	0x3c2ffcef	0.010741456
176	0x3d0d229c	0.034456834
177	0x3bad9a29	0.0052979183
178	0x3c876c1b	0.01653104
179	0x3bea5111	0.007150777
180	0x3c6c2c28	0.014414825
181	0x3a62f70b	0.0008658028
182	0xbc4002b8	-0.011719398
183	0xbc44e8cf	-0.0120183965
184	0xbc1e0d29	-0.009646692
185	0x3c76684d	0.015039516
186	0x3c891bc1	0.016736867
187	0x3c77a09c	0.015113976
188	0x3bb2873e	0.005448251
189	0x3c09d2cb	0.008412073
190	0xb833e982	-4.2894397e-05
191	0x3cb30659	0.021853613
192	0x392dba20	0.00016567903
193	0x3cbe712f	0.02324733
194	0xbbc5fd18	-0.006042134
195	0x3cc78cde	0.024359163
196	0x3d4797af	0.04872864
197	0xba87cc4c	-0.0010360568
198	0x3c8c2d4b	0.017111441
199	0x3c9221f9	0.017838465
200	0x3c609267	0.01370678
201	0x3c0f37d2	0.008741336
202	0xb9c1f376	-0.0003699322
203	0x3c079d6b	0.008277277
204	0x3b646b30	0.0034853928
205	0xbb87e4b9	-0.004147139
206	0x3c26fba4	0.010191832
207	0xbc25a5eb	-0.010110359
208	0x3bb7fba2	0.0056147138
209	0xb90593b4	-0.00012738892
210	0xbc5ad20e	-0.013355745
211	0x3b2b2ce7	0.0026119293
212	0xba04a0d2	-0.00050593645
213	0x3cb4838c	0.022035383
214	0x3c52748d	0.012845171
215	0x3c9419e8	0.01807876
216	0x3c9926af	0.018695204
217	0x3c096774	0.008386482
218	0x3c20a971	0.009806023
219	0x3c9b30f8	0.018944249
220	0x38bfa0c4	9.137535e-05
221	0xbbcdcdf2	-0.006280654
222	0xbcbd1c6f	-0.023084847
223	0xbb9fb7b7	-0.0048741954
224	0x3c31fb59	0.010863149
225	0x3c740d55	0.014895757
226	0x3d18d082	0.037308224
227	0x3a677810	0.00088298414
228	0x37cd8e40	2.4504145e-05
229	0x3ccdefd5	0.025138775
230	0x3bb0896c	0.0053874757
231	0x3baf9fa5	0.0053596073
232	0x3cad3b7b	0.021146527
233	0xbb279c1f	-0.0025575233
234	0x3c56f5ad	0.013120097
235	0x3c5988fc	0.0132772885
236	0x3c90e593	0.017687595
237	0x3c7af864	0.01531801
238	0x3cf2cca0	0.029638588
239	0xbb55f874	-0.003264931
240	0x3c9c2bc3	0.019063836
241	0x3d073f8a	0.03301958
242	0x3c548428	0.012970962
243	0xbc8eec81	-0.017446758
244	0x3cf0b8af	0.029384939
245	0x3c03f6e4	0.008054469
246	0x3b809da2	0.0039250413
247	0xbc127898	-0.008939885
248	0x3c87d547	0.01658119
249	0x3c9a83d7	0.018861694
250	0x3c8690e8	0.016426519
251	0x3b34758e	0.0027535888
252	0x3ceedcd3	0.029158032
253	0x3a6573b9	0.0008752901
254	0xbc2de12f	-0.01061277
255	0x3cb25c9a	0.021772671

action_model._discrete_distribution.branches.0.weight f4 [4, 256]
0	0x3c6e9332	0.014561461
1	0x3c481016	0.012210866
2	0x3c2059c1	0.009787024
3	0xbc396cc1	-0.011317433
4	0xbd150c01	-0.0363884
5	0xbc1e15de	-0.009648768
6	0xbce797ad	-0.028270567
7	0xbb2ee0cb	-0.002668428
8	0x3c19c04c	0.009384226
9	0xbd4a00b8	-0.04931709
10	0x3c14a2fb	0.009072061
11	0x3c9406ba	0.018069614
12	0xbc387f1b	-0.011260773
13	0xbc3d238e	-0.011544121
14	0xbc8461c9	-0.016159909
15	0x3ca4f68b	0.020137092
16	0x3cde2ef9	0.027122008
17	0xbcb0dc9f	-0.021589575
18	0xbcdd52b2	-0.027016971
19	0xbb66f1cf	-0.0035239344
20	0xbc868798	-0.016422078
21	0x3d0dec4a	0.03464917
22	0x3d06cbfa	0.03290937
23	0x3c8e7a18	0.017392203
24	0x3d336434	0.043796733
25	0x3c9d64ec	0.019213162
26	0xbd00df42	-0.031462915
27	0xbc58bf83	-0.013229254
28	0x3cdf3be5	0.02725024
29	0xbcceeef7	-0.025260432
30	0x3c4ed9c4	0.012625162
31	0xbb44cd5d	-0.0030029633
32	0x3bcc5179	0.0062352982
33	0xbd42687b	-0.04746292
34	0xbbed6f49	-0.0072459322
35	0xbc29643e	-0.010338841
36	0x3c350056	0.011047443
37	0xbc34e1bd	-0.011040148
38	0xbbe53d30	-0.0069958195
39	0xbb6f8ec1	-0.0036553594
40	0xbb364a31	-0.0027815218
41	0xbc19dec6	-0.009391492
42	0xbcb09325	-0.021554539
43	0xbb408b51	-0.0029379914
44	0x3b4fe318	0.0031721052
45	0xbb672580	-0.0035270154
46	0x3c0c2ab0	0.008555099
47	0x3d287aff	0.041132923
48	0x3c74823d	0.014923629
49	0xbc961979	-0.018322693
50	0x3cc6e3dd	0.024278576
51	0xbc8fc36a	-0.017549235
52	0xbc7c5e51	-0.015403346
53	0xbd088e2b	-0.033338707
54	0xbaa333ac	-0.0012451313
55	0xbc9659f6	-0.018353444
56	0xbc8b925e	-0.017037567
57	0xbd386cd4	-0.04502566
58	0xbcb856ac	-0.022502266
59	0x3c880653	0.016604578
60	0x3d3c7928	0.04601398
61	0xbcb7a157	-0.0224158
62	0xbb30669f	-0.0026916636
63	0x3d5d7cb4	0.054074004
64	0xbcfc025f	-0.03076285
65	0xbd2f07bc	-0.042731985
66	0x3d08c2cd	0.0333889
67	0x3c910587	0.017702831
68	0xbce98daf	-0.028509943
69	0x3c04a30f	0.008095517
70	0xbca4e96f	-0.020130841
71	0xb9df88b9	-0.0004263574
72	0xbca4b5a1	-0.020106139
73	0xbd2f471d	-0.04279243
74	0xbd040388	-0.03222993
75	0xbc4c591d	-0.012472418
76	0xbbe190ac	-0.0068837013
77	0xbc967742	-0.018367413
78	0x3ce6b7fd	0.028163904
79	0xbc6da94c	-0.014505696
80	0xbd179ad8	-0.037012905
81	0x3ca4a0d4	0.02009622
82	0x3c2391db	0.009983505
83	0xbd892906	-0.06697278
84	0xbd15c8eb	-0.036568563
85	0xbd46b7bb	-0.048515063
86	0xbca58727	-0.020206047
87	0x3d760c9c	0.06007062
88	0xbcd097c7	-0.025462998
89	0x3cd36f79	0.02580999
90	0x3d206fbb	0.039169054
91	0x3c414771	0.011796818
92	0x398b4efa	0.00026570988
93	0xba2e724b	-0.0006654604
94	0x3d48f8c3	0.049065363
95	0x3c53c718	0.012925886
96	0x3c8793dd	0.016549999
97	0x3b4e2f26	0.0031461208
98	0xbd835352	-0.064123765
99	0xbc9c8da2	-0.019110505
100	0x3d284df2	0.04108996
101	0xbbc4787e	-0.005995809
102	0xbcb037f2	-0.021511052
103	0xbd446935	-0.047951896
104	0xbd2c06ec	-0.04199879
105	0xbc2e8198	-0.010651015
106	0xbd295ae0	-0.04134643
107	0xbc299817	-0.010351202
108	0x3d1ac027	0.037780907
109	0xbbb185b9	-0.0054175523
110	0xbccbd13c	-0.024880044
111	0xbc2c0059	-0.01049813
112	0x3c3fae18	0.011699222
113	0x3c4a0dda	0.012332404
114	0xbb3125df	-0.002703063
115	0x3cd16343	0.025560027
116	0xbc46a86d	-0.012125117
117	0xbd48a918	-0.048989385
118	0x3c557bca	0.013030002
119	0xbc3b7fe3	-0.011444065
120	0x3d171442	0.036884554
121	0xbcebaa33	-0.02876768
122	0xbcadc9f3	-0.021214461
123	0xba8311ce	-0.0009999813
124	0xbce2364b	-0.02761378
125	0xbd3c1989	-0.04592279
126	0xbc9d2400	-0.019182205
127	0xbc570961	-0.013124795
128	0xbd31dabf	-0.043421503
129	0xbcbde39c	-0.023179822
130	0xbd000721	-0.0312568
131	0xbce79116	-0.028267425
132	0xbcd807f9	-0.02637099
133	0xbce3efbe	-0.027824279
134	0xbc4cb8fd	-0.0124952765
135	0xbc047f8b	-0.008087049
136	0xbcef1809	-0.029186266
137	0xbcc9e591	-0.024645599
138	0x3d5714e6	0.052510165
139	0x3b4be98a	0.0031114542
140	0xbccaa6a0	-0.024737656
141	0x3c888752	0.016666088
142	0xbc3ffb06	-0.0117175635
143	0xbd041ae4	-0.032252207
144	0xbc66bbe0	-0.014082879
145	0x3bba4e3b	0.0056855953
146	0xbc4b71ad	-0.012417239
147	0xb9d668a6	-0.0004089523
148	0xbd3c88ce	-0.046028905
149	0xbce85684	-0.028361566
150	0xbc9bcf78	-0.019019827
151	0x3c901575	0.017588357
152	0xbc8984fa	-0.016787041
153	0x3c7f736b	0.015591483
154	0xbba087c8	-0.004898999
155	0x3cc8fa34	0.024533369
156	0xbb09641d	-0.0020964213
157	0xbb66e3a5	-0.0035230902
158	0xbba882ac	-0.0051425304
159	0xbab9542b	-0.0014139464
160	0x3d20c067	0.03924599
161	0xbd5e0dc6	-0.054212354
162	0xbce8cdd2	-0.028418455
163	0x3d3395ce	0.043844037
164	0xbcf9fef6	-0.030517083
165	0x3c9dfb07	0.019284738
166	0xbbb94d59	-0.0056549725
167	0xbd25a427	-0.04043975
168	0xbb7f59f0	-0.003896352
169	0xbd40a5d3	-0.047033142
170	0xbccd436f	-0.025056569
171	0x3b807b7a	0.0039209696
172	0xbb41f9ff	-0.0029598472
173	0xbc90b955	-0.017666498
174	0xbd2f974e	-0.042868905
175	0x3b5478cd	0.0032420636
176	0xbd1b7316	-0.03795155
177	0xbcefaa28	-0.029255942
178	0x3cb5d88c	0.022197984
179	0xbd0b3bc5	-0.033992548
180	0x3cc263bb	0.023729196
181	0xbc225ca0	-0.009909779
182	0x3adac5b8	0.0016691005
183	0xbb1fc224	-0.0024377191
184	0xbbc8326a	-0.0061095254
185	0x3d3d84f7	0.046269383
186	0xbd391296	-0.04518374
187	0xbcc29ee0	-0.023757398
188	0x3d145f76	0.03622385
189	0x3c4e84e6	0.012604928
190	0x3c9d56b3	0.01920638
191	0x3cf03557	0.02932231
192	0xbc01d344	-0.007923905
193	0x3ccd6af6	0.025075417
194	0xbd0f57fc	-0.034996018
195	0x3ccc3bcb	0.024930855
196	0xbd064b5a	-0.032786705
197	0x3b891e01	0.004184485
198	0xbccaa006	-0.024734508
199	0xbc836cfc	-0.016043179
200	0xba846a32	-0.001010245
201	0x3d0a3da5	0.033750195
202	0x3c4e789f	0.0126020005
203	0x3c88787a	0.01665901
204	0x3b2cfdf5	0.0026396487
205	0xbc00878c	-0.007844817
206	0x3c95863a	0.01825248
207	0x3b877213	0.0041334718
208	0x3c9394f1	0.018015357
209	0x3d01c01f	0.03167736
210	0x3a37f924	0.0007018021
211	0xbbfa5b05	-0.007640245
212	0xbc89e498	-0.016832635
213	0xbd1b175d	-0.037864078
214	0xbc9f14d4	-0.019419111
215	0x3c5198f8	0.012792818
216	0xbbcd1366	-0.006258416
217	0x3c0f2b50	0.008738354
218	0xbcface6f	-0.030616013
219	0x3d1f2032	0.038849063
220	0xbb7710e0	-0.0037699267
221	0xbcdf5e89	-0.027266758
222	0xbc439bab	-0.01193897
223	0x3c01059c	0.007874873
224	0xbd0ee605	-0.034887332
225	0xbcbb3d27	-0.022856308
226	0xbc10823a	-0.008820111
227	0x3bc74b52	0.006081977
228	0x3b98d22c	0.0046637263
229	0x3d28db12	0.041224547
230	0xbc426d26	-0.011866843
231	0xbc7b6500	-0.0153439045
232	0x3b5f0157	0.0034027898
233	0xbb284bd7	-0.002567997
234	0xbc533d1a	-0.012892986
235	0xbc5f8dca	-0.013644645
236	0xbb957c53	-0.0045619397
237	0xbd16b259	-0.03679118
238	0xbd6600dd	-0.056153167
239	0xbb1c31bc	-0.0023833355
240	0x3bb84b43	0.0056242063
241	0x3d6c013f	0.057618376
242	0xbc779ec7	-0.015113539
243	0xbc9df0b7	-0.01927982
244	0x3cd1e819	0.025623368
245	0xbd2c1930	-0.04201621
246	0xbc35dfe6	-0.011100745
247	0xbc69125e	-0.0142255705
248	0xbd3d6e3d	-0.04624771
249	0x3c2fe0b8	0.0107347295
250	0x3d46ea29	0.048563156
251	0x3bd0f939	0.006377366
252	0xbd7b506b	-0.06135599
253	0xbc5747cd	-0.013139677
254	0x3c23df67	0.010001994
255	0xbcaf6c83	-0.021414047

action_model._discrete_distribution.branches.0.bias f4 [4]
0	0xbb9c7be9	-0.0047755134
1	0xbbb1b1af	-0.005422793
2	0xbb871b70	-0.004123144
3	0x3c7cfe8b	0.015441547

onnx::Div_62 f4 [202]
0	0x3ec1759b	0.37785038
1	0x3e981a25	0.29707447
2	0x3ee5786f	0.44818446
3	0x3ebfe54b	0.37479624
4	0x3eebbc8f	0.46042296
5	0x3ec56598	0.38554072
6	0x3ee5786f	0.44818446
7	0x3ec04e9d	0.37559977
8	0x3eebbc8f	0.46042296
9	0x3ec5e27f	0.38649365
10	0x3ee1ac29	0.4407666
11	0x3ec06cf0	0.37583113
12	0x3ee7daaa	0.45284015
13	0x3ec64297	0.3872268
14	0x3ee20fe6	0.44152755
15	0x3ec0c3d3	0.37649402
16	0x3ee8b3ad	0.45449582
17	0x3ec6b4f6	0.38809937
18	0x3ee2c53a	0.44291097
19	0x3ec09748	0.37615418
20	0x3ee9930b	0.45619997
21	0x3ec6c643	0.38823137
22	0x3ee6bab3	0.45064315
23	0x3ec31013	0.380982
24	0x3eecc1a2	0.4624148
25	0x3ec8e7a8	0.3923924
26	0x3ee3b663	0.44475088
27	0x3ec0f42d	0.3768629
28	0x3ee9d8ce	0.4567322
29	0x3ec73816	0.38909978
30	0x3ee4fe2e	0.44725174
31	0x3ec120a0	0.37720203
32	0x3eeb11b9	0.4591196
33	0x3ec741c0	0.3891735
34	0x3ee7594f	0.45185325
35	0x3ec4de0f	0.38450667
36	0x3eec1ab4	0.46114123
37	0x3eca0d7b	0.3946341
38	0x3ee7fbe5	0.45309368
39	0x3ec48c10	0.3838811
40	0x3eeceaa8	0.4627278
41	0x3ec99c9a	0.3937729
42	0x3ee2e9f9	0.44319132
43	0x3ebb7fd4	0.36620963
44	0x3ee75a3f	0.4518604
45	0x3ec07687	0.3759043
46	0x3ede7435	0.43448034
47	0x3eb81118	0.35950541
48	0x3ee2ad0e	0.44272655
49	0x3ebcc660	0.36870098
50	0x3ede1c81	0.43381122
51	0x3eb828ee	0.35968727
52	0x3ee2d68f	0.4430432
53	0x3ebcbabb	0.36861214
54	0x3ee37a76	0.44429368
55	0x3ebc255c	0.36747253
56	0x3ee79065	0.45227352
57	0x3ec05fe3	0.37573156
58	0x3ee9f4a9	0.45694473
59	0x3ec66875	0.3875157
60	0x3eeb8841	0.4600239
61	0x3ec84480	0.3911476
62	0x3ee9d111	0.45667318
63	0x3ec6e78d	0.38848534
64	0x3eeaef7f	0.45885846
65	0x3ec8a3c3	0.3918744
66	0x3ee80134	0.45313418
67	0x3ec434e1	0.38321593
68	0x3ee8f505	0.45499435
69	0x3ec54a43	0.3853322
70	0x3ee6b59c	0.45060432
71	0x3ec42260	0.38307476
72	0x3ee7bccf	0.45261237
73	0x3ec5363f	0.3851795
74	0x3ee9c0af	0.45654818
75	0x3ec555ae	0.3854193
76	0x3eead3d5	0.4586474
77	0x3ec6cb92	0.38827187
78	0x3ee5cc44	0.44882405
79	0x3ec2d3a0	0.38052082
80	0x3ee6fbc4	0.45113957
81	0x3ec4772b	0.38372168
82	0x3ee43c1b	0.44577107
83	0x3ec2c6d0	0.38042307
84	0x3ee6041d	0.44925013
85	0x3ec4a16a	0.384044
86	0x3ee2e40a	0.44314605
87	0x3ec22528	0.37918973
88	0x3ee56d08	0.44809747
89	0x3ec43250	0.38319635
90	0x3ee7dc5f	0.45285317
91	0x3ec1e142	0.3786717
92	0x3ee8dc57	0.45480606
93	0x3ec3f78a	0.38274795
94	0x3ee7dc5f	0.45285317
95	0x3ec16f39	0.3778017
96	0x3ee8dc57	0.45480606
97	0x3ec37f21	0.3818293
98	0x3ec00bf4	0.3750912
99	0x3e968427	0.293977
100	0x3ec2abb5	0.38021627
101	0x3e988ad4	0.29793417
102	0x3ee516d3	0.44743976
103	0x3ec0bbd3	0.37643299
104	0x3eebfff5	0.46093717
105	0x3ec4e261	0.38453963
106	0x3ee516d3	0.44743976
107	0x3ec12daa	0.3773015
108	0x3eebfff5	0.46093717
109	0x3ec55f62	0.38549334
110	0x3ee08a9b	0.43855748
111	0x3ec162c2	0.3777066
112	0x3ee88b31	0.45418695
113	0x3ec5b0a6	0.38611335
114	0x3ee1c0a1	0.44092277
115	0x3ec2053f	0.37894627
116	0x3ee9a988	0.45637155
117	0x3ec63ba6	0.38717383
118	0x3ee30103	0.4433671
119	0x3ec1fb1e	0.378869
120	0x3eeb1bb3	0.4591957
121	0x3ec646ef	0.38725993
122	0x3ee7135e	0.45131963
123	0x3ec465a7	0.38358805
124	0x3eee8ba2	0.46590906
125	0x3ec86ae3	0.39144048
126	0x3ee518f0	0.44745588
127	0x3ec30bef	0.38095042
128	0x3eeaf62c	0.4589094
129	0x3ec6f3a0	0.38857746
130	0x3ee68499	0.4502304
131	0x3ec3192a	0.38105136
132	0x3eec32d8	0.4613254
133	0x3ec6f88c	0.388615
134	0x3ee8f216	0.45497197
135	0x3ec6a117	0.38794777
136	0x3eed7a43	0.4638234
137	0x3ec9c149	0.39405277
138	0x3ee97c92	0.45602852
139	0x3ec646a7	0.38725778
140	0x3eedcf5c	0.46447265
141	0x3ec957f6	0.3932492
142	0x3ee39900	0.44452667
143	0x3ebcb853	0.36859378
144	0x3ee9bc59	0.4565151
145	0x3ec0b97e	0.3764152
146	0x3edef923	0.4354945
147	0x3eb92e28	0.36168027
148	0x3ee509a6	0.44733924
149	0x3ebcd071	0.36877778
150	0x3edee18a	0.43531448
151	0x3eb9328d	0.3617138
152	0x3ee50f45	0.44738212
153	0x3ebcc545	0.36869255
154	0x3ee45475	0.44595686
155	0x3ebd4cd7	0.36972687
156	0x3ee8f393	0.45498332
157	0x3ebffcff	0.37497708
158	0x3eeae273	0.45875892
159	0x3ec7a572	0.38993412
160	0x3eed1a1b	0.4630898
161	0x3ec9009c	0.39258277
162	0x3eea46da	0.4575718
163	0x3ec81f61	0.3908644
164	0x3eec3049	0.4613059
165	0x3ec96424	0.39334214
166	0x3ee91e9b	0.45531163
167	0x3ec5af61	0.38610366
168	0x3ee9f690	0.45695925
169	0x3ec5dbfc	0.38644397
170	0x3ee7fd7c	0.4531058
171	0x3ec5b26f	0.38612697
172	0x3ee8a112	0.45435387
173	0x3ec5cb81	0.38631824
174	0x3eeba0a0	0.46020985
175	0x3ec787e8	0.38970876
176	0x3eeae2ee	0.4587626
177	0x3ec7af17	0.3900077
178	0x3ee8814e	0.45411152
179	0x3ec57412	0.38565117
180	0x3ee74913	0.4517294
181	0x3ec56ffe	0.38562006
182	0x3ee7f948	0.45307374
183	0x3ec5b592	0.3861509
184	0x3ee63aa2	0.44966608
185	0x3ec58a95	0.38582292
186	0x3ee748b2	0.4517265
187	0x3ec56510	0.38553667
188	0x3ee5428f	0.44777343
189	0x3ec50b6a	0.3848527
190	0x3eeb8cf8	0.46005988
191	0x3ec50a0f	0.38484237
192	0x3ee954aa	0.45572406
193	0x3ec4b908	0.38422418
194	0x3eeb8cf8	0.46005988
195	0x3ec49330	0.38393545
196	0x3ee954aa	0.45572406
197	0x3ec444af	0.3833365
198	0x3ec43a54	0.3832575
199	0x3e9a0f4f	0.30089805
200	0x3ec43a54	0.3832575
201	0x3e9a0f4f	0.30089805

onnx::Div_65 f4 [10]
0	0x3b679cb4	0.0035341205
1	0x3b679cb4	0.0035341205
2	0x3b679cb4	0.0035341205
3	0x3b679cb4	0.0035341205
4	0x3b679cb4	0.0035341205
5	0x3b679cb4	0.0035341205
6	0x3b679cb4	0.0035341205
7	0x3b679cb4	0.0035341205
8	0x3b679cb4	0.0035341205
9	0x3b679cb4	0.0035341205
