results/GameAddedRewards8/PlayerBehaviour.onnx (onnx, 490727 bytes, 10 tensors)

network_body.observation_encoder.processors.0.normalizer.running_mean f4 [202]
0	0x3f633461	0.887518
1	0x3f6c33c0	0.92266464
2	0x3f600ebf	0.875225
3	0x3f69ad5d	0.91280156
4	0x3f601144	0.87526345
5	0x3f698475	0.9121774
6	0x3f600ebf	0.875225
7	0x3f69cf62	0.91332066
8	0x3f601144	0.87526345
9	0x3f69a6bf	0.9127006
10	0x3f6a7834	0.91589665
11	0x3f6e7617	0.9314894
12	0x3f6b93d7	0.9202246
13	0x3f6ed0a7	0.9328713
14	0x3f6aee37	0.91769737
15	0x3f6ebda1	0.932581
16	0x3f6c256f	0.9224462
17	0x3f6f30a4	0.93433595
18	0x3f6b70b8	0.9196887
19	0x3f6f9e95	0.9360135
20	0x3f6d18ed	0.9261616
21	0x3f704f8b	0.9387137
22	0x3f678239	0.9043308
23	0x3f6dd149	0.9289747
24	0x3f6b09bc	0.9181173
25	0x3f6fb5d5	0.9363683
26	0x3f6961b1	0.9116469
27	0x3f6eb2b2	0.9324142
28	0x3f6d09d6	0.92593133
29	0x3f70c2fb	0.94047517
30	0x3f682073	0.90674514
31	0x3f6e3e85	0.9306415
32	0x3f6c27f2	0.9224845
33	0x3f708757	0.9395651
34	0x3f697841	0.9119912
35	0x3f6e9581	0.93196875
36	0x3f6da2f0	0.9282675
37	0x3f710fb9	0.94164616
38	0x3f68e6a1	0.9097691
39	0x3f6ea5a1	0.9322148
40	0x3f6d0ecf	0.9260072
41	0x3f71268d	0.9419945
42	0x3f6ef5c2	0.93343747
43	0x3f7752df	0.96610826
44	0x3f75b993	0.9598629
45	0x3f7aca6d	0.9796513
46	0x3f702cfd	0.93818647
47	0x3f77d2af	0.9680585
48	0x3f7548b6	0.95814073
49	0x3f7a8dee	0.9787282
50	0x3f706bbd	0.93914396
51	0x3f77ef3c	0.9684942
52	0x3f752f8b	0.9577567
53	0x3f7a83f1	0.97857577
54	0x3f6fa081	0.93604285
55	0x3f7773be	0.96660984
56	0x3f75bc3c	0.9599035
57	0x3f7ac7ef	0.97961324
58	0x3f678741	0.90440756
59	0x3f6ca059	0.9243217
60	0x3f6b13e2	0.91827214
61	0x3f6f0342	0.93364346
62	0x3f674d9a	0.90352786
63	0x3f6c2cd7	0.9225592
64	0x3f6b4d9d	0.91915303
65	0x3f6ec279	0.9326549
66	0x3f6693dd	0.9006937
67	0x3f6c03de	0.921934
68	0x3f69cd94	0.9132931
69	0x3f6e1994	0.9300778
70	0x3f674885	0.9034503
71	0x3f6c30b8	0.9226184
72	0x3f6a8254	0.91605115
73	0x3f6e3eb8	0.9306445
74	0x3f613bed	0.87982064
75	0x3f690e2b	0.91037244
76	0x3f6622df	0.8989696
77	0x3f6c0f01	0.92210394
78	0x3f63f5b6	0.890468
79	0x3f6a5ee2	0.9155103
80	0x3f678c53	0.9044849
81	0x3f6c8020	0.92383003
82	0x3f621b50	0.88322926
83	0x3f68c590	0.90926456
84	0x3f654378	0.89556074
85	0x3f6a7eab	0.9159953
86	0x3f620ec3	0.88303775
87	0x3f68cc5b	0.9093682
88	0x3f641b5c	0.8910425
89	0x3f69c527	0.91316456
90	0x3f5a1139	0.8518253
91	0x3f653368	0.89531565
92	0x3f5709a9	0.83999115
93	0x3f63cae1	0.88981444
94	0x3f5a1139	0.8518253
95	0x3f650ce1	0.89472777
96	0x3f5709a9	0.83999115
97	0x3f639be9	0.88909775
98	0x3f5c31cf	0.860135
99	0x3f66a0a6	0.9008888
100	0x3f58acd2	0.846387
101	0x3f64d3ab	0.8938548
102	0x3f5a45f5	0.85262996
103	0x3f64fbd6	0.8944677
104	0x3f56c5e4	0.8389571
105	0x3f634b15	0.8878644
106	0x3f5a45f5	0.85262996
107	0x3f652244	0.8950541
108	0x3f56c5e4	0.8389571
109	0x3f6379bd	0.8885763
110	0x3f6452aa	0.89188635
111	0x3f699f41	0.9125863
112	0x3f648236	0.89261186
113	0x3f69c283	0.91312426
114	0x3f65074c	0.8946426
115	0x3f6a08cd	0.9141968
116	0x3f654603	0.89559954
117	0x3f6a4067	0.9150452
118	0x3f6627ee	0.8990468
119	0x3f6b44b0	0.91901684
120	0x3f67b6f5	0.90513545
121	0x3f6c389c	0.9227388
122	0x3f633464	0.88751817
123	0x3f69d362	0.9133817
124	0x3f6598d2	0.8968631
125	0x3f6b71ef	0.91970724
126	0x3f67488f	0.9034509
127	0x3f6c23e9	0.92242295
128	0x3f694d9b	0.9113404
129	0x3f6d40ce	0.9267701
130	0x3f665514	0.8997357
131	0x3f6bdf13	0.9213726
132	0x3f68aced	0.90888864
133	0x3f6d14f1	0.9261008
134	0x3f675016	0.90356576
135	0x3f6c11b5	0.9221452
136	0x3f68ebb6	0.90984666
137	0x3f6d122e	0.92605865
138	0x3f672cfb	0.9030301
139	0x3f6c5e1c	0.923311
140	0x3f687ac5	0.9081233
141	0x3f6d2e8a	0.9264914
142	0x3f6ea570	0.9322119
143	0x3f76e817	0.9644789
144	0x3f737adb	0.9510934
145	0x3f78f8b6	0.972545
146	0x3f6ee1b3	0.9331314
147	0x3f76f03c	0.9646032
148	0x3f7352bf	0.95048136
149	0x3f7902ad	0.9726971
150	0x3f6ee1ba	0.9331318
151	0x3f76ec83	0.9645464
152	0x3f734b24	0.9503653
153	0x3f79035a	0.9727074
154	0x3f6ddf36	0.9291872
155	0x3f7674e9	0.9627214
156	0x3f73230e	0.94975364
157	0x3f78e22d	0.97220117
158	0x3f6627ee	0.8990468
159	0x3f6bc7c0	0.9210167
160	0x3f688ed9	0.9084297
161	0x3f6d6fee	0.92748916
162	0x3f66347d	0.8992384
163	0x3f6b68fb	0.9195706
164	0x3f6922df	0.91068834
165	0x3f6d4bd2	0.9269382
166	0x3f6466a8	0.8921914
167	0x3f6ad021	0.9172383
168	0x3f67ad05	0.9049838
169	0x3f6cd319	0.9250961
170	0x3f655a20	0.89590645
171	0x3f6b1945	0.91835433
172	0x3f68a066	0.9086975
173	0x3f6d181a	0.926149
174	0x3f605008	0.8762212
175	0x3f68ac84	0.9088824
176	0x3f65f5bb	0.8982808
177	0x3f6b9232	0.9201995
178	0x3f63d52b	0.88997144
179	0x3f6a4efe	0.9152678
180	0x3f68643a	0.90777934
181	0x3f6c7ee9	0.9238115
182	0x3f62709b	0.8845307
183	0x3f68d9f7	0.9095759
184	0x3f6675b0	0.90023327
185	0x3f6a9bab	0.9164378
186	0x3f61aa56	0.88150537
187	0x3f68672a	0.90782416
188	0x3f6531f0	0.89529324
189	0x3f69cc2f	0.91327184
190	0x3f580e97	0.8439726
191	0x3f640a72	0.8907844
192	0x3f581da9	0.8442026
193	0x3f63e158	0.8901572
194	0x3f580e97	0.8439726
195	0x3f63e2c9	0.8901792
196	0x3f581da9	0.8442026
197	0x3f63b9b5	0.8895524
198	0x3f5bd4ee	0.8587178
199	0x3f66d10a	0.9016272
200	0x3f5bd4ee	0.8587178
201	0x3f66d10a	0.9016272

network_body.observation_encoder.processors.1.normalizer.running_mean f4 [10]
0	0x420a0845	34.508076
1	0x4169fc33	14.624072
2	0x00000000	0.0
3	0x00000000	0.0
4	0x00000000	0.0
5	0x00000000	0.0
6	0x00000000	0.0
7	0x00000000	0.0
8	0x00000000	0.0
9	0x00000000	0.0

network_body._body_endoder.seq_layers.0.weight f4 [256, 212]
0	0x3d09e614	0.033666685
1	0x3d1eea96	0.038797937
2	0x3d1aa466	0.03775444
3	0x3c65fbc8	0.01403708
4	0x3da06804	0.078323394
5	0xbd2bcd5b	-0.04194389
6	0xbaa27a10	-0.0012395997
7	0xbe61731a	-0.22016564
8	0xbdbfa2c6	-0.093572184
9	0xbbc67842	-0.0060568163
10	0x3d170db0	0.036878288
11	0x3d69dcf0	0.057095468
12	0xbda88ec5	-0.08230356
13	0x3b032ab7	0.0020014474
14	0x3d01e5ae	0.03171318
15	0xbcb53e0f	-0.022124318
16	0x3d873f26	0.066038415
17	0xbcd0c1a7	-0.025482966
18	0xbc216593	-0.009850877
19	0x3e0fe2ed	0.14051409
20	0x3c6e2866	0.014535999
21	0xbc9e20df	-0.019302784
22	0xbd88b209	-0.066745825
23	0x3c1d74d5	0.009610374
24	0xbd9d76a9	-0.07688648
25	0xbd8d966f	-0.069134586
26	0x3caaedd5	0.02086536
27	0xbdd20e1b	-0.10256597
28	0x3c9a5e67	0.018843843
29	0x3db789ca	0.08961828
30	0x3cbeaf36	0.023276906
31	0x3d4cd4d8	0.05000767
32	0x3cf6be39	0.030120002
33	0x3adc6439	0.0016814537
34	0xbd4d62b3	-0.050142955
35	0xbddbd232	-0.10733451
36	0x3da69f26	0.08135824
37	0xbc5c0e84	-0.013431195
38	0x3d7952d1	0.060869996
39	0x3cce50f3	0.025185084
40	0xbd00d22b	-0.03145043
41	0xbb71a1ed	-0.0036870197
42	0x3c8e5bcc	0.017377757
43	0xbd379bfa	-0.044826485
44	0x3d7c712e	0.061631374
45	0xbd92cfa4	-0.071685106
46	0x3d5b15ab	0.05348746
47	0xbc6ab004	-0.014324192
48	0xbdffde3d	-0.124935605
49	0xbc8829b0	-0.01662144
50	0x3dacce0d	0.084377386
51	0xbd8915ff	-0.066936485
52	0x3d7dc967	0.06195965
53	0x3d008936	0.031380855
54	0xbc046310	-0.008080259
55	0x3d3bdaf9	0.045863125
56	0x3d62d57d	0.05537938
57	0xbb19e210	-0.002348069
58	0xbcf69f43	-0.030105239
59	0x3cc7503f	0.024330257
60	0xbdee301f	-0.11630272
61	0xbd862ee0	-0.065519094
62	0xbc8c238b	-0.017106792
63	0x3cd5f1ed	0.026116336
64	0xbdaee3a3	-0.08539512
65	0xbc85c58f	-0.016329555
66	0x3d2382f3	0.039919805
67	0x3d86567d	0.06559465
68	0xbdc6da29	-0.097095795
69	0x3b9018eb	0.0043975017
70	0xbdb4920c	-0.08816919
71	0x3e00b967	0.12570725
72	0x3ca80305	0.020509252
73	0x3b483544	0.0030549327
74	0x3b84d511	0.00405372
75	0x3deb6b14	0.11495033
76	0xbda13acd	-0.078725435
77	0xbe5be355	-0.21473439
78	0x3daafdd8	0.08349198
79	0x3cf4c43e	0.029878732
80	0x3d46c553	0.048528027
81	0xbdf2275d	-0.11823914
82	0x3ca281ad	0.019837225
83	0x3d82cf95	0.063872494
84	0x3e0eeaaf	0.13956712
85	0xbd684b7f	-0.056712624
86	0x3d7764cb	0.060398858
87	0x3ca176d9	0.019709991
88	0x3cececd7	0.028921528
89	0x3d6cc0af	0.057800945
90	0x3c6d6114	0.014488477
91	0xbd04e32c	-0.03244321
92	0xbd8f0945	-0.0698419
93	0xbd3d0568	-0.046147734
94	0x3e615d37	0.22008215
95	0xbca0559c	-0.019572072
96	0x3cdbd7d1	0.026836308
97	0xbe299957	-0.16562401
98	0x3da3adc0	0.079921246
99	0x3c92caa7	0.017918898
100	0x3c5bc0a1	0.0134126255
101	0x3df5185b	0.11967536
102	0x3c0e0c2b	0.008669893
103	0x3d3a893a	0.045541026
104	0x3d6c46e9	0.057684813
105	0x3d00a1d7	0.031404343
106	0x3d2570e7	0.040390875
107	0x3e02e643	0.1278315
108	0xbdc2cec4	-0.09512094
109	0xbe142723	-0.14468054
110	0x3da8a759	0.08235044
111	0x3c2bb25e	0.010479538
112	0xbdc6bd91	-0.09704126
113	0xbb916405	-0.004436972
114	0xbdb8957d	-0.090128876
115	0x3d93f564	0.07224539
116	0x3dafa5c2	0.08576538
117	0x3d3f3e63	0.046690356
118	0x3d2fe1b3	0.042939853
119	0x3db1b148	0.08676392
120	0x3d748970	0.059701383
121	0xbd136b29	-0.035990868
122	0x3e538873	0.2065752
123	0x3e22601e	0.15856978
124	0x3b8a3547	0.004217777
125	0xbe06ab85	-0.13151367
126	0x3ce8a034	0.028396703
127	0x3cf5df00	0.030013561
128	0xbd9d9f06	-0.07696347
129	0xbb2979ae	-0.002585988
130	0xbd40c816	-0.047065817
131	0xbd76ae51	-0.060224835
132	0x3d7e6b16	0.062113844
133	0x3d5724b0	0.052525222
134	0x3ccbbf5b	0.024871519
135	0x3d87190f	0.065965764
136	0x3d27134e	0.040789895
137	0xbc03a51a	-0.008034969
138	0xbc9388b8	-0.018009529
139	0x3d9eb133	0.07748642
140	0x3d7e1fca	0.062042035
141	0xbb9908ed	-0.0046702535
142	0xbd3c4936	-0.045968257
143	0x3c68d5d5	0.014211138
144	0xbcbc254e	-0.022967007
145	0xbdebd76e	-0.11515699
146	0x3de7b8f6	0.113145754
147	0xbdd4fb70	-0.103995204
148	0x3c08f9c4	0.00836033
149	0xbd6550c7	-0.05598524
150	0x3dc03ff4	0.09387198
151	0x3dd90863	0.10597303
152	0xbdfba9b6	-0.12288229
153	0xbd88b807	-0.066757254
154	0x3df584f3	0.11988249
155	0xbd2e72f4	-0.042590097
156	0xbd9c4150	-0.07629645
157	0xbd65ba42	-0.056085832
158	0x3aad91cd	0.0013242305
159	0xbe04778b	-0.12936227
160	0xbcf1100d	-0.029426599
161	0x3dbb05df	0.09131979
162	0x3dd35ddb	0.10320636
163	0xbd13b4c2	-0.036061056
164	0xbc194045	-0.009353702
165	0xbdd232e0	-0.1026361
166	0x3d541d15	0.051785547
167	0x3e03a949	0.12857546
168	0xbd97e8a5	-0.0741742
169	0xbbcccb87	-0.0062498483
170	0xbca52e13	-0.020163571
171	0xbdb4b8a1	-0.08824278
172	0xbdf6d9c9	-0.12053258
173	0xbc079a52	-0.008276539
174	0x3df75b01	0.120779045
175	0x3dd4c357	0.103888206
176	0x3c9f4392	0.0194414
177	0xbcd5d79b	-0.026103785
178	0x3e04031a	0.12891808
179	0x3c19cec3	0.009387675
180	0x3d68c840	0.0568316
181	0xbddd990c	-0.10820207
182	0x3c776d8c	0.015101802
183	0x3d506b2e	0.050883465
184	0xbd893804	-0.06700137
185	0x3da259eb	0.07927307
186	0x3da93678	0.08262342
187	0x3c83e93a	0.016102422
188	0x3e08fbb2	0.13377264
189	0xbd082852	-0.033241577
190	0xbc9bad1d	-0.019003445
191	0x3de0dc2d	0.10979495
192	0xbde8f0f9	-0.11374087
193	0x3d6c11c0	0.057634115
194	0x3d7112c2	0.05885578
195	0x3d168ff6	0.036758386
196	0x3d7811aa	0.06056372
197	0x3d2e76ac	0.042593643
198	0x3db3889d	0.08766291
199	0x3d811c81	0.06304265
200	0x3e374860	0.17898703
201	0x3c349c9e	0.011023669
202	0xbdbcb4c5	-0.092141666
203	0xbd757397	-0.05992469
204	0x3da483cb	0.0803295
205	0x3da330f3	0.07968321
206	0x3cba76c5	0.022761712
207	0x3e0d4f1a	0.13799706
208	0xbcaa1af0	-0.020764798
209	0x3d3e28a5	0.04642548
210	0x3c8039ae	0.015652504
211	0xbcde4014	-0.027130164
212	0x3e23814a	0.15967289
213	0xbca186e2	-0.019717637
214	0xbc4c95f3	-0.012486923
215	0xbd83cc83	-0.06435492
216	0x3da5f6da	0.08103724
217	0x3d68b056	0.056808792
218	0xbd4b4bd7	-0.049632873
219	0x3da5eddc	0.08102009
220	0xbdce8576	-0.100840494
221	0x3d6f3bfa	0.058406807
222	0x3d981188	0.07425219
223	0xbadad49a	-0.001669544
224	0xbcebb263	-0.028771585
225	0xbda9d869	-0.0829323
226	0xbd27a8f4	-0.04093261
227	0x3b8d2b33	0.0043081283
228	0x3d2b5f69	0.041839037
229	0xba839db5	-0.0010041507
230	0xbd4a42ba	-0.04938004
231	0x3e0c15a7	0.13680135
232	0xbd88422c	-0.06653246
233	0xbbf73a5c	-0.007544799
234	0x3d33acd9	0.043866012
235	0x3cae841c	0.021303229
236	0x3e26a2ed	0.16273089
237	0xbcbd39cf	-0.023098854
238	0x3c870b5a	0.016484905
239	0x3daf9172	0.08572663
240	0xbdc5dc06	-0.09661107
241	0xbcac51a3	-0.021035021
242	0xbcb43c1c	-0.022001319
243	0xbbc21782	-0.0059232125
244	0xbda428da	-0.08015604
245	0xbda5d653	-0.0809752
246	0xbda52a99	-0.080647655
247	0xbccd06cd	-0.025027657
248	0x3d4ec592	0.050481386
249	0xbd1ae8a9	-0.03781954
250	0xbd798a9f	-0.060923215
251	0xbd94cc38	-0.07265514
252	0xbd84ec01	-0.06490327
253	0xbd0b9b9a	-0.03408394
254	0xbd853c17	-0.06505602
255	0x3cc154b5	0.023599962

network_body._body_endoder.seq_layers.0.bias f4 [256]
0	0x3b8f9948	0.004382286
1	0xbc90b9ae	-0.017666664
2	0x3c63b364	0.0138977505
3	0x3cbac61c	0.022799544
4	0xbc5f5e2b	-0.013633291
5	0x3ce8259c	0.028338246
6	0x3bfca4b5	0.0077100643
7	0x3c9c994b	0.019116065
8	0x3ca2e6e3	0.019885486
9	0x3c8f2715	0.01747469
10	0x3ce12601	0.027483942
11	0x3d026a5d	0.031839717
12	0xbb68537a	-0.0035450147
13	0xbb91a085	-0.0044441842
14	0xba711da3	-0.00091978366
15	0x3cd03b6d	0.025418961
16	0x3c63ab5f	0.0138958385
17	0x3d14aa42	0.036295183
18	0x39a9d9a2	0.0003239634
19	0x3b32fedb	0.002731255
20	0x3c882224	0.016617842
21	0x3cbb2400	0.022844315
22	0x3c55c855	0.013048251
23	0x3c5f5a71	0.013632403
24	0x3d009e1c	0.031400785
25	0xbca0e783	-0.019641643
26	0x3b0d2e2f	0.002154242
27	0x3ce3faf8	0.027829632
28	0x3c87bd0e	0.01656964
29	0x3c35ffda	0.011108363
30	0x3d127b67	0.035762217
31	0x3b9a7c29	0.004714508
32	0xbc139345	-0.00900728
33	0x3c5f1e7a	0.013618106
34	0x3c761145	0.015018766
35	0x3d1d08dc	0.038338527
36	0x3ca51897	0.020153327
37	0x3cdda32c	0.027055345
38	0x3bcb6720	0.006207362
39	0x3c875b06	0.016522896
40	0x3d2b4146	0.041810296
41	0x3ca791b0	0.020455211
42	0x3c55f5b0	0.013059065
43	0x3b6fa3af	0.003656607
44	0x3cb2352d	0.021753872
45	0x3be219ca	0.006900047
46	0x3b96c098	0.0046005957
47	0x3c57274f	0.0131319305
48	0x3d0bc3e6	0.03412237
49	0x3c32cc94	0.010913033
50	0x3cbf08a5	0.023319552
51	0x3c5adad5	0.013357838
52	0x3c637099	0.013881826
53	0x3d2be3de	0.041965358
54	0xbc9c00e3	-0.019043392
55	0x3be0cbfc	0.0068602543
56	0x3b5dcb13	0.0033842965
57	0x3d3403c7	0.043948915
58	0x3c8f63bb	0.01750361
59	0xbc3971ba	-0.011318618
60	0x3d0b2437	0.033970084
61	0xbbf155b0	-0.007364951
62	0x3c9ba154	0.018997826
63	0x3ba731df	0.0051023806
64	0x3a373f28	0.0006990307
65	0x3c044967	0.008074141
66	0x3ca59143	0.020210868
67	0x3cec6fcb	0.0288619
68	0x3c8487f1	0.016178103
69	0x3c3054f1	0.010762439
70	0x3cf78886	0.030216467
71	0x3ca54044	0.020172246
72	0x3cfad5f2	0.030619595
73	0x3ca42434	0.020036794
74	0x3c08172b	0.008306305
75	0x3a8615eb	0.0010229921
76	0x3d067b28	0.032832295
77	0x3c8f919a	0.017525483
78	0x3ccaf2d3	0.02477399
79	0x3c81019e	0.015747841
80	0x3c9374a9	0.017999964
81	0xb9c84fde	-0.00038206478
82	0xbcaf787d	-0.021419758
83	0x3cf659bd	0.030072087
84	0x3c8b29a7	0.016987635
85	0x3c8eb50c	0.017420314
86	0x3bdf20f3	0.006809348
87	0x3c12ae49	0.008952686
88	0x3cdd38b6	0.027004581
89	0x3cd20b65	0.025640199
90	0xbc3dbc0b	-0.0115804775
91	0x3b06f89f	0.0020594967
92	0x3d2241c1	0.03961349
93	0xbcdb5752	-0.026775036
94	0x3c9ae56c	0.018908225
95	0x3c570f78	0.013126247
96	0x3c3c2dbc	0.011485513
97	0xbccdcf42	-0.025123242
98	0x3d042d4b	0.032269757
99	0x3cd064ec	0.025438748
100	0x3b6e45fe	0.0036357637
101	0x3cbd2a28	0.02309139
102	0x3d09ce17	0.03364381
103	0x3cc8eb8a	0.024526376
104	0x3b445c43	0.0029962219
105	0x3d269908	0.040673286
106	0x3cf16a98	0.029469773
107	0x3d0b1bed	0.03396218
108	0xbbd503f5	-0.006500716
109	0x3c9e2fa9	0.019309836
110	0x3b08f749	0.0020899347
111	0x3c9b2f19	0.018943356
112	0x3c7a66a6	0.015283262
113	0x3c5e0f24	0.0135534145
114	0x3c4969e1	0.01229331
115	0xbb8ee86e	-0.004361204
116	0x3ca5ba16	0.020230334
117	0x3c8cb7d4	0.0171775
118	0x3cec6b6b	0.028859815
119	0x3c6f118c	0.014591586
120	0xbaa508a9	-0.0012591082
121	0x3cc3dff6	0.023910504
122	0xbb9f7424	-0.00486614
123	0x3c28248d	0.010262621
124	0x3c0344ee	0.00801204
125	0x3bcdafdb	0.006277067
126	0x3c7e923b	0.015537794
127	0x3cfc0ff2	0.030769322
128	0x3c10cde8	0.008838154
129	0x3c34def5	0.011039485
130	0x3ce7063d	0.028201217
131	0xbc4b78a3	-0.012418899
132	0x3ce65e19	0.028121041
133	0x39d0e535	0.00039843624
134	0x3ccb203f	0.02479565
135	0x3c9d6e01	0.019217493
136	0x3d1034f7	0.03520676
137	0x3c56bf39	0.0131071145
138	0x3a733412	0.00092774734
139	0x3ce776b9	0.028254854
140	0x3c4b1f05	0.012397532
141	0x3c6c8abc	0.014437374
142	0x3ce3ea53	0.027821695
143	0x3cd7365a	0.026271034
144	0xbc1a0389	-0.009400257
145	0x3bedfb8f	0.007262654
146	0x3cd0e685	0.025500545
147	0x3cead319	0.028665112
148	0x3caef47a	0.02135681
149	0xbc4d9e63	-0.012549969
150	0x3c363777	0.011121622
151	0x3cca40a2	0.024689022
152	0x3d25c8b6	0.040474616
153	0x3cf3b958	0.029751465
154	0x3c6c3da6	0.014418995
155	0xbc784a80	-0.015154481
156	0x3cd6f036	0.026237588
157	0x3ce9b468	0.028528407
158	0x3c67962e	0.014134927
159	0x3d189f7d	0.037261475
160	0x3c9bf147	0.019035948
161	0xbbb0c213	-0.005394229
162	0x3bc41d44	0.005984934
163	0x3ca6c791	0.020358833
164	0x3cd2dcd4	0.025740065
165	0x3d23a7c1	0.039954904
166	0x3c92037d	0.017823929
167	0x3cb4948e	0.022043493
168	0x3cd82ba7	0.026388003
169	0x3cb03e22	0.021514002
170	0x3ca2009c	0.019775681
171	0x3cefc723	0.02926976
172	0xbbc14582	-0.0058981786
173	0xbbbb51ca	-0.005716537
174	0x3c93681d	0.017993981
175	0x3d1d20c0	0.03836131
176	0x3c566c05	0.013087277
177	0x3c20ca3b	0.0098138405
178	0x3c5a9645	0.013341491
179	0x3c7b44fc	0.015336271
180	0x3cadf6aa	0.021235783
181	0x3c0fb8ce	0.008772088
182	0x3ca1efb0	0.019767612
183	0x3c0d1df7	0.008613101
184	0x3c287c70	0.010283574
185	0x3aebc8d4	0.0017988929
186	0x3c555d5c	0.013022747
187	0xbcc1ecab	-0.023672422
188	0xbc45e6cc	-0.012078952
189	0x3c18d814	0.009328861
190	0x3cc7522b	0.024331173
191	0x3cd60de8	0.026129678
192	0x3d466308	0.048434287
193	0xbc00265a	-0.007821644
194	0x3cf66979	0.03007959
195	0x3cce200a	0.025161762
196	0x3c7f46db	0.015580858
197	0x3d579c11	0.05263907
198	0xbcd0162a	-0.025401194
199	0xbb489ea9	-0.0030612147
200	0xbbb257c9	-0.0054425937
201	0xbb481926	-0.0030532568
202	0x3be28dac	0.0069138613
203	0x3c163d03	0.00916982
204	0xbc81e349	-0.015855448
205	0xbbec0964	-0.007203268
206	0xbc228672	-0.00991975
207	0x3bd7b0c1	0.00658235
208	0x3c2b45c3	0.010453644
209	0xbc0579ad	-0.008146686
210	0x3c8e825e	0.017396148
211	0xbcc3d15e	-0.023903545
212	0xbbed540b	-0.0072426847
213	0x3ca94218	0.020661399
214	0x3cb705f4	0.022341706
215	0x3c9f479f	0.019443331
216	0x3cae688c	0.021290086
217	0x3c62eb7e	0.013850091
218	0xbaf001a9	-0.0018311042
219	0x3c095765	0.008382653
220	0x3c9788f3	0.01849792
221	0x3cddb911	0.027065786
222	0x3ccc9f97	0.024978442
223	0x3d0a5162	0.03376902
224	0x3c5b5fd7	0.013389549
225	0x3d026953	0.031838726
226	0x3c50d623	0.012746367
227	0xbaab32bc	-0.0013061385
228	0xbc9a9990	-0.018872052
229	0x3c100980	0.0087913275
230	0xbc71a6c8	-0.014749236
231	0x3c37080e	0.011171354
232	0xba9436c6	-0.0011307828
233	0x3b1b4d16	0.002369707
234	0x3a3ddf71	0.0007243073
235	0x3cd849ac	0.026402317
236	0xbcb1c6a1	-0.021701159
237	0xbcc347c9	-0.02383794
238	0x3d007486	0.031361125
239	0x3c36358d	0.011121166
240	0x3cd6a654	0.026202358
241	0x3ca2a179	0.019852387
242	0x3b75a500	0.003748238
243	0x3cd04eb9	0.025428163
244	0x3ccdb569	0.025110917
245	0xbb7f0bbe	-0.003891691
246	0x3ccdece9	0.025137382
247	0xbc335026	-0.010944402
248	0x3d048441	0.03235269
249	0x3c4a7095	0.012355943
250	0x3ca852d6	0.020547312
251	0xba476ffe	-0.00076079357
252	0x3c4e9920	0.01260975
253	0x3c78ab58	0.01517757
254	0x3cb31070	0.021858424
255	0x3b81ad21	0.003957406

network_body._body_endoder.seq_layers.2.weight f4 [256, 256]
0	0xbce26fd1	-0.027641209
1	0x3d1d2fa1	0.0383755
2	0xbd93bec3	-0.07214119
3	0xbd1d0b2d	-0.038340736
4	0x3d61413f	0.054993864
5	0xbd71d683	-0.059042465
6	0x3ced46b0	0.02896437
7	0x3c3abb5c	0.011397209
8	0xbd90feaa	-0.07079823
9	0x3d6b47cc	0.057441518
10	0xbd110a36	-0.03541013
11	0xbc21816f	-0.0098575195
12	0xbb5bdb1f	-0.0033547354
13	0x3de9d53a	0.11417623
14	0xbd7c0911	-0.061532084
15	0x3d4f932a	0.050677456
16	0x3c9adca3	0.018904036
17	0x3dc7f7bf	0.09764051
18	0xbd818f94	-0.063262135
19	0x3c030a97	0.00799813
20	0x3cc57583	0.024103886
21	0xbd195e9c	-0.037443742
22	0x3d684eb6	0.05671569
23	0xbc0229ea	-0.007944563
24	0xbdf696ac	-0.12040457
25	0x3d496f76	0.049178563
26	0x3d0bf064	0.0341648
27	0xbd4e9680	-0.050436497
28	0xbe28f8ab	-0.1650111
29	0x3db3b5e7	0.087749295
30	0x3c75e8bf	0.015009104
31	0x3df725ba	0.12067743
32	0x3bcf2c66	0.0063224314
33	0xbd90ebe3	-0.07076242
34	0x3cc6243b	0.024187198
35	0xbd568937	-0.052376952
36	0x3daf6005	0.08563236
37	0xbcf45e96	-0.029830258
38	0x3e006e46	0.12542066
39	0xbc9841a2	-0.018585984
40	0xbdb8016a	-0.08984645
41	0x3d077811	0.03307349
42	0xbdb77eab	-0.08959707
43	0x3d640ec9	0.055678163
44	0x3d6fca44	0.058542505
45	0xbd890d9f	-0.06692051
46	0xbd13530c	-0.03596787
47	0xbd67d897	-0.05660304
48	0xbdd9838f	-0.10620796
49	0xbc8f6f01	-0.017508985
50	0x3d1b0689	0.03784803
51	0x3d554d22	0.052075513
52	0x3d7fb0f4	0.062424615
53	0x3e07a7a5	0.13247545
54	0x3d081a61	0.033228282
55	0x3d738531	0.059453193
56	0x3b56adcc	0.00327574
57	0xbe342b94	-0.17594749
58	0x3baa1d26	0.005191463
59	0x3d2ae05b	0.04171787
60	0xbc918333	-0.017762756
61	0xbcdcb9b9	-0.026944028
62	0xbcf77716	-0.030208152
63	0xbdb87f66	-0.09008674
64	0xbdad3098	-0.08456534
65	0xbc240229	-0.010010281
66	0xbd36599c	-0.044519052
67	0x3d53d9a1	0.05172122
68	0xbddce3b4	-0.107856184
69	0x3a29f0d8	0.0006482727
70	0x3daafb6d	0.08348737
71	0xbcf2cf94	-0.029639997
72	0xbd37cf5f	-0.0448755
73	0x3d8802a5	0.066411294
74	0x3d187812	0.037223883
75	0xbe2606c7	-0.16213523
76	0xbddbc692	-0.10731234
77	0x3ccde643	0.025134211
78	0x3d5ef26b	0.054430407
79	0xbd539c88	-0.05166295
80	0x3d8ee06b	0.06976398
81	0x3bc56d01	0.006024957
82	0xbc27054e	-0.010194136
83	0xbd1d47e1	-0.038398627
84	0xbcc6fe7d	-0.024291271
85	0x3d2c565c	0.042074546
86	0x3dc7d5c4	0.097575694
87	0xbcbb5a00	-0.022870064
88	0x3ce9f436	0.028558832
89	0xbd6661a2	-0.056245454
90	0x3d244ff1	0.0401153
91	0xbd85e0cf	-0.065370195
92	0x3df538cc	0.11973724
93	0xbc194eb0	-0.0093571395
94	0x3dae84b5	0.085214056
95	0x3d93f504	0.072244674
96	0xbd1ee383	-0.03879119
97	0x3c48178d	0.012212646
98	0x3d195b5a	0.037440635
99	0xbc210faf	-0.009830399
100	0x3d010f51	0.031508747
101	0xbd5d79c0	-0.054071188
102	0xbda1bba6	-0.07897119
103	0x3dafd8ab	0.08586248
104	0x3d8d70fe	0.06906317
105	0xbc95b751	-0.018275889
106	0xbc05ccb6	-0.008166483
107	0x3cb467ed	0.022022212
108	0xbd00ca97	-0.031443205
109	0xbd691276	-0.05690237
110	0x3ddbb48f	0.10727798
111	0x3a5644dd	0.00081737136
112	0xbcd604a7	-0.026125265
113	0xbb011082	-0.0019693677
114	0x3cb12919	0.021626042
115	0xbd11e600	-0.035619736
116	0xbd610a95	-0.054941732
117	0x3db97c1d	0.09056876
118	0x3cdc76cf	0.026912121
119	0xbdc49d55	-0.09600321
120	0xbe10b6ec	-0.14132279
121	0xba7b1020	-0.0009577293
122	0x3cc7e1e2	0.024399702
123	0x3d9dea4e	0.07710706
124	0x3d2d1c5e	0.04226338
125	0x3d30593b	0.043053847
126	0x3d2923db	0.04129396
127	0xbce4c831	-0.02792749
128	0xbc732fe1	-0.014842958
129	0x3d3fe2b8	0.046847075
130	0x3c36b8fb	0.011152501
131	0x3c0ac8ac	0.0084706955
132	0x3d9d831e	0.07691024
133	0xbc5e5e15	-0.013572236
134	0x3df0e696	0.11762731
135	0x3c87fbbe	0.016599532
136	0x3d4aaf24	0.049483433
137	0x3d06c401	0.032901768
138	0x3c2a96e8	0.010411955
139	0xbc91cf0f	-0.017798929
140	0x3dddc3cf	0.10828363
141	0xbd140b2c	-0.036143467
142	0xbd7aadda	-0.061200954
143	0xbced7fc8	-0.028991595
144	0xbd9f4a7f	-0.07777881
145	0x3ccb4321	0.024812283
146	0x3c1d8941	0.009615243
147	0x3cd877eb	0.026424369
148	0x3da87a7b	0.08226486
149	0xbcd0514f	-0.025429396
150	0xbb8ddf79	-0.0043296185
151	0xbda4a59d	-0.08039401
152	0x3bcf1aaf	0.0063203196
153	0xbd8f54c4	-0.0699859
154	0xbd994b8c	-0.074851125
155	0x3cce8b7e	0.025213
156	0x3d18eaa7	0.037333157
157	0x3d8e4754	0.069471985
158	0x3cea0446	0.02856649
159	0xbc42ef48	-0.011897869
160	0xbc1bf45f	-0.009518712
161	0xbe0c8e95	-0.13726266
162	0x3bc3c594	0.005974481
163	0x3d91008c	0.070801824
164	0x3e0b175d	0.13583131
165	0x3c15b770	0.009137973
166	0x3d24aaf7	0.040202107
167	0x3da43c7a	0.080193475
168	0xbd1d7786	-0.038444065
169	0x3da848d2	0.08217014
170	0xbdca16d1	-0.09867633
171	0xbcf562a2	-0.029954258
172	0x3cb12ec0	0.021628737
173	0x3c500e04	0.012698654
174	0x3d912e1f	0.07088875
175	0xbd85d7bf	-0.06535291
176	0xbcb15fc1	-0.021652104
177	0xbce7ff1c	-0.028319888
178	0x3c096325	0.008385454
179	0x3d6dbcfd	0.05804156
180	0xbbeade85	-0.0071676397
181	0x3dfb7d4f	0.1227976
182	0x3c74107a	0.014896506
183	0x3d5353ee	0.051593713
184	0xbcf0565b	-0.029338052
185	0x3d6c6a70	0.057718694
186	0x3df4643e	0.11933182
187	0x3d29e546	0.041478418
188	0x3d2d9637	0.042379584
189	0xbc9a56c4	-0.018840201
190	0xbd9a9986	-0.075488135
191	0xbd9ba799	-0.07600326
192	0xbd03b500	-0.032155037
193	0x3dae5359	0.08511991
194	0xbcd5cf0d	-0.026099706
195	0x3d3a9255	0.04554971
196	0xbd8fa608	-0.0701409
197	0xbd043e7b	-0.03228615
198	0xbdb9cd5b	-0.090723716
199	0x3db49922	0.0881827
200	0xbcad64a2	-0.02116615
201	0x3db8a0ba	0.09015031
202	0x3d7763c6	0.060397886
203	0xbc37e849	-0.011224815
204	0xbdd8ee87	-0.105923705
205	0xbdc6ff4d	-0.097166635
206	0x3d707b4d	0.05871134
207	0x3d2ebefd	0.04266261
208	0x3cb38ff1	0.021919223
209	0xbd14e386	-0.036349796
210	0x3d26e9d0	0.040750325
211	0xbc91d4da	-0.01780169
212	0xbdbd7025	-0.092499055
213	0x3d47c487	0.048771407
214	0xbccc3025	-0.0249253
215	0x3d0216a3	0.03175987
216	0x3cb8faf2	0.022580598
217	0x3d5842a2	0.05279792
218	0x3b870055	0.0041199126
219	0xbd1c62e1	-0.038180236
220	0xbd6e8f1c	-0.05824195
221	0xbd9243cd	-0.07141838
222	0xbd5d50cc	-0.054032132
223	0x3dbf66ba	0.093457654
224	0xbd554cfb	-0.052075367
225	0xbca53d34	-0.020170785
226	0xbd126a2b	-0.03574578
227	0xbcaf2bb3	-0.021383142
228	0x3d4680e5	0.048462767
229	0x3d1df12a	0.03856007
230	0xbcb8dff9	-0.022567736
231	0x3e484c15	0.19560273
232	0xbc99ab4f	-0.018758444
233	0x3d6c59af	0.057702716
234	0x3c58b939	0.013227754
235	0xbcc10b6f	-0.023565022
236	0xbd9d63db	-0.076850615
237	0x3d93720f	0.07199489
238	0x3d324865	0.043526072
239	0x3e0326b4	0.12807733
240	0x3d1b5782	0.03792525
241	0x3c1c6aca	0.009546945
242	0xbd8d519b	-0.06900331
243	0xbd8204ca	-0.0634857
244	0xbce62a9b	-0.028096488
245	0x3be1c84e	0.0068903333
246	0x3d3f555a	0.046712257
247	0xbb02bb0b	-0.0019947912
248	0x3de3ca6f	0.111225955
249	0xbcf1ddaf	-0.029524652
250	0x3d8936fa	0.06699939
251	0xbc8580fe	-0.01629686
252	0xbd198d63	-0.037488353
253	0xbdd48ce1	-0.10378433
254	0xba8069f7	-0.0009797205
255	0xbc563c8c	-0.013075959

network_body._body_endoder.seq_layers.2.bias f4 [256]
0	0x3cbbf2a8	0.022942856
1	0x3c86a048	0.01643385
2	0x3cbb03ae	0.022828903
3	0x3c548aad	0.012972516
4	0x39281f09	0.0001603329
5	0x3cc62dc7	0.02419175
6	0x3c6d9076	0.014499774
7	0x3cafb835	0.021450141
8	0x3ca65ede	0.020308908
9	0x3963976d	0.00021704817
10	0x3c7d6c6d	0.015467745
11	0x3c3c2e9e	0.011485724
12	0x3c6ed4db	0.014577116
13	0x3c9d91ae	0.019234505
14	0x3bfa9de9	0.007648219
15	0x3cc20335	0.02368317
16	0x3c5f0a16	0.0136132445
17	0x3c16ca11	0.00920345
18	0xbb6d7a28	-0.003623614
19	0x3cb52be4	0.022115655
20	0xbbc03243	-0.0058653667
21	0x3c402403	0.011727336
22	0x3c0eefab	0.0087241335
23	0x3c8e55f6	0.017374974
24	0x3c1b2e63	0.009471509
25	0x3c921634	0.017832853
26	0x3c3c8e4e	0.011508537
27	0x3ca01acc	0.019544028
28	0x3ca3d98a	0.020001192
29	0x3c8ef62d	0.01745137
30	0x3c50b17d	0.012737629
31	0x3ca91e1c	0.02064424
32	0x3cd41680	0.025889635
33	0x3c15b0b6	0.009136369
34	0x3b2a93a0	0.0026027933
35	0x3c61b3e8	0.013775803
36	0xbbb37bad	-0.00547739
37	0x3c3172de	0.010830609
38	0x3c9a4062	0.018829528
39	0x3c0e48be	0.008684335
40	0x3cacdd18	0.02110152
41	0x3c870336	0.016481023
42	0xba2424af	-0.000626157
43	0x3ca7221d	0.020402009
44	0x3c8255d5	0.015910069
45	0x3c81a237	0.01582442
46	0xbc438afe	-0.011934994
47	0x3c674efc	0.014117952
48	0x3c899b30	0.016797632
49	0x3cbbc842	0.022922639
50	0x3cab3c96	0.020902913
51	0x3c8eaaa5	0.017415354
52	0x3c81dbdf	0.015851913
53	0xbc28cacf	-0.01030226
54	0x3b473d79	0.003040163
55	0x3c956e65	0.018241117
56	0x3acba409	0.0015536557
57	0x3cb05809	0.021526353
58	0x3c164e57	0.009173951
59	0x3c448fe8	0.011997201
60	0x3a08f0b8	0.0005223858
61	0x3cdd2771	0.026996346
62	0x3c283b5d	0.01026806
63	0x3c940cff	0.018072603
64	0x3c390a05	0.011293893
65	0x3b9dfe2f	0.004821561
66	0x3bc820d9	0.0061074314
67	0x3c803f5b	0.01565521
68	0x3c9f081d	0.019413048
69	0x3c6d8f9d	0.014499572
70	0x3c89bcc9	0.016813653
71	0x3c16eec5	0.0092122005
72	0x3c4f1a05	0.012640481
73	0x3cce7edf	0.025206981
74	0x3c9ac6cc	0.018893622
75	0x3c3df48f	0.011593952
76	0x3cd843f2	0.026399586
77	0x3bef7c3b	0.0073085106
78	0x3cb1786a	0.021663863
79	0x3b562121	0.0032673555
80	0x3c075471	0.0082598785
81	0x3c2acc75	0.010424723
82	0x3c93a021	0.018020691
83	0x3c2d8c64	0.010592554
84	0x3c9b628f	0.018967895
85	0x3c3a75d6	0.011380633
86	0x3c778b0c	0.015108835
87	0x3d00ce95	0.031447012
88	0x3c89e033	0.01683054
89	0x3c709a4e	0.014685227
90	0x3be27559	0.0069109616
91	0x3c4df1db	0.01256987
92	0x3be06866	0.0068483828
93	0x3c7f4538	0.015580468
94	0x3cfc7666	0.030818176
95	0x3c239dfa	0.009986395
96	0x3c4eb3ae	0.012616081
97	0x3c10a9e3	0.008829567
98	0x3c8dee88	0.017325655
99	0x3c41b18c	0.011822116
100	0x3cdf2b10	0.027242213
101	0x3bbe9b7b	0.0058168746
102	0x3ce4d332	0.027932737
103	0x3c0a0552	0.00842412
104	0x3c9ed2e1	0.019387664
105	0x3c6c8dd0	0.014438108
106	0x3cc083cb	0.023500344
107	0x3c68539f	0.014180093
108	0x3c1f51af	0.009724065
109	0x3c8ee4eb	0.017443141
110	0x3c294558	0.010331474
111	0x3c8c53d5	0.017129818
112	0x3cc3b6ff	0.02389097
113	0x3c9501b5	0.01818929
114	0x3cb3ee19	0.02196412
115	0x3c255370	0.010090694
116	0x3af25863	0.0018489476
117	0x3bb1ebfb	0.0054297424
118	0x3b7ba949	0.0038400462
119	0x3c50476f	0.012712344
120	0x3cc8faf7	0.024533732
121	0x3c60286d	0.013681513
122	0x3cb288fa	0.021793831
123	0x3cb3486b	0.021885118
124	0x3c54de9f	0.01299253
125	0x3cd91130	0.026497453
126	0x3c0f9379	0.008763188
127	0x3c8575e9	0.016291576
128	0x3c0338ad	0.008009118
129	0x3cc0d6b9	0.023539888
130	0x3c84d14e	0.016213086
131	0x3cfbfd0a	0.030760307
132	0x3c5b863f	0.013398706
133	0xbbe3f70a	-0.0069569396
134	0x3c655fc6	0.013999885
135	0x3cac7284	0.021050699
136	0x3c8b3b3f	0.016996024
137	0x3c3b5ff9	0.011436456
138	0x3c35af3b	0.0110891415
139	0x3cf57244	0.029961713
140	0x3c0ab74b	0.008466552
141	0x3cda7ede	0.026671823
142	0x3c531b57	0.012884936
143	0x3b362355	0.0027792056
144	0xbbad7f60	-0.0052947253
145	0x3cc089c7	0.023503197
146	0x3c902b5d	0.017598802
147	0x3c36895f	0.01114115
148	0x3ce2953d	0.027659053
149	0x3c2da97b	0.010599489
150	0x3d0475bf	0.032338854
151	0x3ca8bee9	0.020598846
152	0x3c95ed28	0.018301561
153	0x3c537fcc	0.012908887
154	0x3cbea172	0.023270342
155	0xb9a76d01	-0.00031933936
156	0x3c9462a4	0.018113442
157	0x3c1c564a	0.009542057
158	0x3bfef8fe	0.007781147
159	0x3c8cc8d3	0.017185604
160	0x3cda41e3	0.026642745
161	0x3c153754	0.0091074295
162	0x3c97fb7a	0.01855253
163	0x3c1089e0	0.008821934
164	0x3cb4a0f8	0.022049412
165	0x3ca9c8a8	0.020725563
166	0x3c2beb3b	0.010493095
167	0x3c53d82c	0.012929957
168	0x3befc55f	0.0073172296
169	0x3c0a2568	0.00843177
170	0x3cd68684	0.026187189
171	0x3aa1d299	0.0012346088
172	0x3cb0d571	0.021586152
173	0x3c5945c4	0.013261262
174	0x3c38f46d	0.011288744
175	0x3b63da9f	0.003476776
176	0x3cb2ebc0	0.02184093
177	0x3cfbedf3	0.030753111
178	0x3cc27e11	0.023741754
179	0x3ceed05d	0.02915209
180	0x3c44b104	0.012005094
181	0x3c4d8a32	0.012545155
182	0x3c2793d1	0.010228113
183	0x3c81744a	0.015802521
184	0x3c3b59ea	0.011435011
185	0x3c75ad2f	0.0149949035
186	0x3c62375f	0.013807147
187	0x3c58cc73	0.013232338
188	0x3be65c9e	0.007030084
189	0x3b5daa50	0.0033823438
190	0xbac2b8c7	-0.0014856093
191	0x3cba3a2d	0.022732818
192	0x3c67109b	0.01410308
193	0x3ce72151	0.028214129
194	0x3ba7708e	0.005109853
195	0x3c88cf05	0.016700277
196	0x3c4818bf	0.012212931
197	0x3c97ab2a	0.018514235
198	0x3bda39e7	0.0066597345
199	0x3c9501ef	0.018189399
200	0x3c3b8bc3	0.011446896
201	0x3d00cc9a	0.031445123
202	0x3c2b4374	0.010453094
203	0x3c259e9d	0.010108617
204	0x3cc490fa	0.023994911
205	0x3cd89292	0.026437078
206	0xbbd4e4ac	-0.0064969864
207	0x3c9cfc93	0.019163406
208	0x3cb7386d	0.022365773
209	0x3c2e905a	0.010654533
210	0x3ccd0c65	0.025030324
211	0x3ca91b6f	0.020642964
212	0x3cd8c7b6	0.026462417
213	0x3bd2ad94	0.0064293835
214	0x3caaf2d5	0.020867744
215	0x3c666b73	0.014063704
216	0x3c8eabaa	0.01741584
217	0x3bc5943f	0.006029635
218	0x3c78bb8c	0.015181433
219	0x3cc9cdf0	0.024634331
220	0x3cb0b5b3	0.021571016
221	0x3b40ba40	0.0029407889
222	0x3c0d44aa	0.008622328
223	0x3c410363	0.011780593
224	0x3cb25693	0.021769797
225	0x3c43d071	0.011951552
226	0x3cb19d00	0.021681309
227	0x3cc37411	0.023859056
228	0x3ce77fe8	0.028259233
229	0x3bff9415	0.007799635
230	0x3c37053d	0.0111706825
231	0x3ca99818	0.020702407
232	0x3ca65d66	0.020308208
233	0x3c94dc06	0.018171322
234	0xbb392136	-0.0028248555
235	0x3cd2cded	0.025732959
236	0x3c211dc2	0.009833755
237	0x3c2f635d	0.010704842
238	0x3c6263cf	0.013817742
239	0x3c6d359a	0.014478112
240	0x3c8bd4c9	0.017069237
241	0x3cb9dcbe	0.022688266
242	0x3aff66ba	0.0019485571
243	0xb8ab2c8f	-8.162215e-05
244	0x3cdbbcf1	0.026823493
245	0x3c2b4bbc	0.010455068
246	0x3c52039a	0.0128182415
247	0x3c1df9c0	0.009642065
248	0x3ab9054a	0.0014115956
249	0x3c212bc9	0.009837099
250	0x3cb88c31	0.022527786
251	0x3cc4e1b2	0.024033401
252	0x3ceb1e4f	0.028700976
253	0x3c6a782e	0.01431088
254	0x3c55907c	0.013034936
255	0x3c666b79	0.014063709

action_model._discrete_distribution.branches.0.weight f4 [4, 256]
0	0x3d0db69f	0.03459799
1	0x3d1bc6f0	0.03803152
2	0x3c7e999f	0.015539556
3	0x3c869fd2	0.01643363
4	0x3c74b423	0.014935526
5	0x3cd48287	0.025941147
6	0xbd16659f	-0.036718007
7	0xbd157301	-0.03648663
8	0x3d2a9b40	0.041651964
9	0x3c3ed4be	0.011647401
10	0xbd079195	-0.033097822
11	0x3cc0515c	0.023476295
12	0xbaabf274	-0.0013118521
13	0x3cf7acec	0.030233823
14	0x3a3b0fe7	0.00071358535
15	0xbca502c6	-0.020142924
16	0x3c7ef64b	0.0155616505
17	0x3c5b74c6	0.01339454
18	0xbc808f2d	-0.015693272
19	0x3d029255	0.031877834
20	0xbc1b7896	-0.009489199
21	0xbc808b51	-0.015691431
22	0xbcaba9d9	-0.020955013
23	0xbce91372	-0.028451655
24	0x3a638bfd	0.00086802227
25	0xbd491c13	-0.04909904
26	0xbc1ce6cd	-0.009576512
27	0xbc7addd6	-0.015311679
28	0xbcf8895a	-0.030338932
29	0xbd03d19e	-0.03218233
30	0xbcb5146b	-0.022104463
31	0x3d3401d0	0.04394704
32	0xbd510f77	-0.05104014
33	0x3c5504db	0.013001646
34	0x3c5c9573	0.013463366
35	0x3cbf7f43	0.023376113
36	0xba365ab1	-0.0006956263
37	0xbc152a94	-0.00910439
38	0x3d415dd4	0.047208622
39	0xbc5e9353	-0.0135849295
40	0xbad5c3eb	-0.0016308998
41	0xbc453580	-0.012036681
42	0xbc1ee9af	-0.009699269
43	0x3b790733	0.0037998676
44	0x3c3b1470	0.011418447
45	0xbcd6f444	-0.026239522
46	0x3a836b47	0.0010026478
47	0x3cb21537	0.021738632
48	0x3a404327	0.0007334225
49	0x3c974e0e	0.018469837
50	0x3bf74a22	0.007546679
51	0x3c9e4e8c	0.019324563
52	0x3c45d20b	0.012074004
53	0xbbf7f13f	-0.0075666006
54	0xbcc19fbe	-0.023635741
55	0x3d5cc216	0.053896032
56	0xbc6c3a1a	-0.014418149
57	0x3c9553f6	0.018228512
58	0xbbf5cfd1	-0.0075015803
59	0x3b68b050	0.003550548
60	0x3b6c99c6	0.0036102398
61	0x3afac327	0.0019131646
62	0x3ca2b726	0.019862723
63	0x3d171120	0.036881566
64	0x3c8637b6	0.016383987
65	0x3bac0ba6	0.005250412
66	0xbcb67a17	-0.022275014
67	0xbcbe1189	-0.02320172
68	0x3ca6ab2f	0.020345299
69	0x3c91ff73	0.017822003
70	0xbc8acdb7	-0.016943796
71	0xbc83f804	-0.016109474
72	0xbc5bb2ec	-0.0134093575
73	0xbb73dff6	-0.0037212349
74	0xbb3ddf73	-0.0028972297
75	0xb8f32c5c	-0.000115954055
76	0xbb39c28d	-0.002834472
77	0x3cc889c4	0.024479754
78	0xbd2c25a9	-0.042028103
79	0x3b5f1884	0.0034041712
80	0xbc85ca22	-0.016331736
81	0x3c6309c8	0.0138573125
82	0xba932a94	-0.0011227899
83	0x3caa213f	0.020767806
84	0x3d14aa78	0.036295384
85	0xbce9675c	-0.028491668
86	0xbbc687b3	-0.006058657
87	0xbbf636b5	-0.007513846
88	0xbd04a04c	-0.032379434
89	0xbca7dbe9	-0.020490604
90	0x3bb0a15d	0.0053903298
91	0x3d04224a	0.032259263
92	0xbcee8421	-0.029115738
93	0xbcf217fe	-0.029552456
94	0x3d02048a	0.03174261
95	0xbb58f14d	-0.003310281
96	0x3cdda166	0.0270545
97	0xbca37bbd	-0.019956464
98	0xbcb249bc	-0.021763675
99	0x3c063e5e	0.00819358
100	0xbcf5e552	-0.030016575
101	0xbce3d446	-0.02781118
102	0x3d066947	0.032815244
103	0x3ca2e370	0.019883841
104	0xbc9c6730	-0.019092172
105	0x3cb80ca6	0.022466969
106	0x3ca62089	0.020279186
107	0xbd1311f1	-0.035905782
108	0xbc83d54c	-0.016092919
109	0x3c86f867	0.01647587
110	0x3cafe2e2	0.02147049
111	0x3d0002d5	0.0312527
112	0x3c7534f7	0.014966241
113	0xbc918874	-0.017765261
114	0xbd221534	-0.039571002
115	0x3c8eb0fd	0.017418379
116	0xbc23ea64	-0.010004614
117	0x3d02cbd3	0.031932663
118	0x3c28194a	0.010259936
119	0xbcd26bcd	-0.025686169
120	0x3bfed208	0.0077765025
121	0x3cc91ac2	0.024548892
122	0xbd0d6827	-0.034523156
123	0x3ccb4fbb	0.024818292
124	0xbcf70fc8	-0.030158892
125	0x3d2ac59d	0.041692365
126	0xbca47e39	-0.020079719
127	0xbce30a0b	-0.02771475
128	0x3cc5bc71	0.024137707
129	0xbc4fb3ee	-0.012677176
130	0xbc3afe85	-0.011413221
131	0xbd672ff9	-0.056442235
132	0x3cbab6db	0.02279227
133	0xbbb5e993	-0.005551526
134	0x3c5f75d9	0.013638937
135	0x3c2baf44	0.010478798
136	0x3ccacb12	0.024755035
137	0x3c5430fe	0.012951134
138	0xbafd3479	-0.0019318006
139	0xbbab3212	-0.0052244747
140	0xbac50d51	-0.0015033876
141	0xbcf20b90	-0.029546529
142	0xbcb7faf4	-0.022458531
143	0xbcbb5512	-0.022867713
144	0xbbc5a8a4	-0.0060320664
145	0xbcc96eb3	-0.024588918
146	0x3ccd60c8	0.025070563
147	0xbd078e30	-0.033094585
148	0x3cb884a0	0.022524178
149	0x3cc22269	0.023698049
150	0xbd360e64	-0.044447318
151	0xbd132886	-0.035927318
152	0x3d1eaf10	0.03874117
153	0xbc8d8259	-0.017274069
154	0x3c133136	0.008983901
155	0xbc176ce1	-0.009242267
156	0x3c891f09	0.016738432
157	0x3c8a1965	0.016857812
158	0x3c9846d9	0.01858847
159	0xbc46cb4f	-0.0121334335
160	0xbd3ec29e	-0.04657232
161	0xbbca14ab	-0.0061670146
162	0x3ce84007	0.028350843
163	0xbccc699d	-0.024952704
164	0xbce0025a	-0.027344871
165	0xbce82661	-0.028338613
166	0x385ca5b4	5.260641e-05
167	0x3c9d5a1b	0.019208005
168	0x3c1f9328	0.009739675
169	0x3c859904	0.016308315
170	0xbd11dc25	-0.035610337
171	0xbbcb298c	-0.006200021
172	0x3d406422	0.046970494
173	0xbd27ab2c	-0.040934727
174	0xbb440ba0	-0.0029914156
175	0x3c005419	0.00783255
176	0xbd06b579	-0.03288791
177	0xbc283d2d	-0.010268492
178	0xbb2c48d1	-0.002628852
179	0xbc8fc8dc	-0.017551832
180	0x3c8f88eb	0.017521342
181	0xbd1481b3	-0.036256503
182	0x3c426cea	0.011866787
183	0xbc7a7972	-0.015287744
184	0xbc26c5e4	-0.010179017
185	0xbbe1e04a	-0.0068931924
186	0x3cb6104e	0.022224572
187	0xbcd790ef	-0.026314227
188	0xbbe447a3	-0.0069665476
189	0x3c9cfd38	0.019163713
190	0x3b5dffc4	0.0033874372
191	0xbca862a7	-0.020554854
192	0xbc40690a	-0.011743793
193	0xbd1d4220	-0.03839314
194	0xbbc61f63	-0.006046222
195	0x3cf77b51	0.030210169
196	0xbc964d6a	-0.01834746
197	0x3d10a25a	0.03531108
198	0xbc40d537	-0.011769584
199	0x3d456181	0.04818869
200	0xbc84da6d	-0.016217435
201	0xbd1db966	-0.038506888
202	0xbc5405b5	-0.012940814
203	0x3cdd84ff	0.027040957
204	0xbc79fc27	-0.015257872
205	0x3d0732db	0.033007484
206	0xbb392cd8	-0.0028255489
207	0x39ef18ee	0.00045604206
208	0x3d4e9d00	0.050442696
209	0xbc5ad5b5	-0.013356616
210	0x3aa7c936	0.0012801054
211	0x3cb470ec	0.022026502
212	0xbd30850f	-0.043095645
213	0xbcb1f60c	-0.02172377
214	0x3c72f06f	0.014827832
215	0xbcb3f6d7	-0.021968288
216	0xbc7c77b5	-0.0154094
217	0xbbeb1a7d	-0.0071747885
218	0xbcd0ec2c	-0.02550324
219	0xbb46a098	-0.0030308124
220	0xbc97a9c3	-0.018513566
221	0xbc090241	-0.008362354
222	0xbbc3b42f	-0.0059724073
223	0xbc2d395d	-0.0105727585
224	0xbd26870f	-0.040656146
225	0x39ff384d	0.00048679337
226	0xbd2924da	-0.04129491
227	0xbd178bae	-0.036998443
228	0xbc715844	-0.014730517
229	0x3cb6026b	0.02221795
230	0xbca6d70d	-0.020366216
231	0xbbdb088c	-0.0066843685
232	0x3d3ddb95	0.046351988
233	0xbb99e39d	-0.004696323
234	0xbc192a9c	-0.009348538
235	0x3d21d6dc	0.039511546
236	0xbbe3b719	-0.006949317
237	0xbb88b33e	-0.004171758
238	0x3d141d9a	0.036161043
239	0x3c54718f	0.012966528
240	0x3c05e719	0.008172774
241	0xbcddbe5d	-0.027068311
242	0x3c869cbc	0.016432159
243	0x3c0a25d0	0.008431867
244	0xbd12bda6	-0.035825394
245	0xbd031fb4	-0.032012656
246	0x3c878383	0.016542202
247	0xbd2c10e6	-0.042008303
248	0x3ba8290c	0.0051318463
249	0xbc4866d5	-0.012231548
250	0x3d15f0fe	0.03660678
251	0x3c61c4a9	0.013779798
252	0xbd480e86	-0.048841976
253	0x3c16dba9	0.0092076445
254	0xbc617e45	-0.013763015
255	0x3ca5926a	0.020211417

action_model._discrete_distribution.branches.0.bias f4 [4]
0	0xb9ba51bc	-0.0003553758
1	0xba945ceb	-0.0011319196
2	0x3b19aae3	0.0023447804
3	0x3972d020	0.00023156451

onnx::Div_62 f4 [202]
0	0x3ea1cd28	0.31601834
1	0x3e6a6e67	0.22893678
2	0x3ea93a1c	0.33052146
3	0x3e7968d7	0.243564
4	0x3ea93471	0.33047822
5	0x3e7b4bbd	0.2454061
6	0x3ea93a1c	0.33052146
7	0x3e789f3a	0.2427949
8	0x3ea93471	0.33047822
9	0x3e7a82ca	0.24463955
10	0x3e8e22f4	0.27761042
11	0x3e6d0b58	0.23148859
12	0x3e8ac271	0.27101472
13	0x3e6d9b03	0.23203664
14	0x3e8cbefb	0.27489457
15	0x3e6bb83b	0.23019497
16	0x3e88fae6	0.2675392
17	0x3e6bc179	0.23023023
18	0x3e8b2f35	0.27184454
19	0x3e65666a	0.22402349
20	0x3e85edfb	0.26158127
21	0x3e645c36	0.223008
22	0x3e96a18b	0.29420123
23	0x3e6bd7d6	0.23031554
24	0x3e8c6af0	0.27425337
25	0x3e6563f6	0.22401413
26	0x3e915834	0.28387606
27	0x3e67fea4	0.22655731
28	0x3e861f0c	0.26195562
29	0x3e5ff9ac	0.21872586
30	0x3e94eb1c	0.29085624
31	0x3e68df79	0.22741498
32	0x3e88f2f6	0.26747864
33	0x3e5feeaf	0.21868394
34	0x3e911690	0.28337526
35	0x3e68cd4f	0.22734569
36	0x3e842811	0.25811818
37	0x3e5e68c2	0.2171965
38	0x3e92ba60	0.28657818
39	0x3e668f2e	0.22515556
40	0x3e860eab	0.26183066
41	0x3e5bc933	0.2146347
42	0x3e7f52aa	0.24933878
43	0x3e1a4c98	0.1506828
44	0x3e4916df	0.19637631
45	0x3dff41de	0.12463735
46	0x3e76ad23	0.24089484
47	0x3e159890	0.14608979
48	0x3e4d2c46	0.2003642
49	0x3dff9180	0.12478924
50	0x3e74e282	0.23914531
51	0x3e15260a	0.14565292
52	0x3e4e1137	0.20123754
53	0x3e000d43	0.12505059
54	0x3e7aa146	0.24475583
55	0x3e1b227d	0.15149875
56	0x3e48ff4f	0.19628642
57	0x3dff87da	0.124770835
58	0x3e9693c0	0.294096
59	0x3e756051	0.23962523
60	0x3e8c4c4f	0.2740197
61	0x3e6b3d25	0.22972544
62	0x3e973201	0.29530337
63	0x3e79086f	0.24319623
64	0x3e8b9b77	0.27267048
65	0x3e6e9678	0.23299587
66	0x3e99288a	0.2991374
67	0x3e792262	0.24329522
68	0x3e901d36	0.28147286
69	0x3e70fc92	0.23533848
70	0x3e973fa2	0.29540735
71	0x3e79308c	0.24334925
72	0x3e8e04dc	0.27738082
73	0x3e716ee4	0.23577458
74	0x3ea6848a	0.32522994
75	0x3e820c64	0.25400078
76	0x3e9a5545	0.3014318
77	0x3e79620d	0.2435381
78	0x3e9fee9d	0.31236735
79	0x3e7ff1a0	0.24994516
80	0x3e9685f7	0.29399082
81	0x3e78bef9	0.242916
82	0x3ea4752c	0.32120645
83	0x3e83c337	0.25734875
84	0x3e9c9dd4	0.30589163
85	0x3e81743f	0.25284
86	0x3ea49318	0.32143474
87	0x3e83bad6	0.25728482
88	0x3e9f9059	0.31164816
89	0x3e82de7e	0.25560373
90	0x3eb5ed79	0.3553274
91	0x3e875725	0.26433674
92	0x3ebbbbc2	0.36666685
93	0x3e88f356	0.2674815
94	0x3eb5ed79	0.3553274
95	0x3e87c1e2	0.26515108
96	0x3ebbbbc2	0.36666685
97	0x3e89723a	0.2684496
98	0x3eb19d1a	0.3469017
99	0x3e84251c	0.25809562
100	0x3eb8a4a4	0.3606311
101	0x3e86a909	0.2630084
102	0x3eb584cf	0.35452887
103	0x3e8884d1	0.2666383
104	0x3ebc3911	0.36762288
105	0x3e8a74e2	0.270423
106	0x3eb584cf	0.35452887
107	0x3e881c37	0.26584026
108	0x3ebc3911	0.36762288
109	0x3e89f942	0.2694798
110	0x3e9f0557	0.3105876
111	0x3e83a727	0.25713465
112	0x3e9e8cbe	0.30966753
113	0x3e83a823	0.25714216
114	0x3e9d3925	0.3070766
115	0x3e82dd68	0.25559545
116	0x3e9c9760	0.3058424
117	0x3e82a58f	0.25516936
118	0x3e9a4817	0.30133125
119	0x3e7ef8ea	0.2489964
120	0x3e96102f	0.29309222
121	0x3e7bec9a	0.24601975
122	0x3ea1cd27	0.3160183
123	0x3e81e3ed	0.25369206
124	0x3e9bc028	0.3042004
125	0x3e7db112	0.24774578
126	0x3e973fb5	0.29540792
127	0x3e7a76c1	0.24459364
128	0x3e919259	0.28431967
129	0x3e773f75	0.241453
130	0x3e99d01e	0.30041593
131	0x3e7a94e9	0.24470867
132	0x3e935ef1	0.28783372
133	0x3e7717b9	0.24130143
134	0x3e972b26	0.29525107
135	0x3e7af08e	0.24505827
136	0x3e92ac07	0.2864687
137	0x3e775da8	0.24156821
138	0x3e978afa	0.29598218
139	0x3e77ca17	0.24198185
140	0x3e93ed18	0.28891826
141	0x3e74c506	0.23903283
142	0x3e80befc	0.2514571
143	0x3e21e8b8	0.15811431
144	0x3e5cf0a9	0.2157618
145	0x3e13692e	0.14395592
146	0x3e7fde12	0.24987057
147	0x3e1fb3e0	0.1559596
148	0x3e5e3f36	0.217038
149	0x3e110677	0.14162622
150	0x3e7fde11	0.24987055
151	0x3e1fcf7b	0.15606491
152	0x3e5e7da6	0.21727619
153	0x3e10e335	0.14149173
154	0x3e835f56	0.25658673
155	0x3e24d164	0.16095501
156	0x3e5fc95c	0.21854156
157	0x3e1372ec	0.14399308
158	0x3e9a4804	0.3013307
159	0x3e7a23b7	0.24427687
160	0x3e93b452	0.2884851
161	0x3e72f015	0.23724397
162	0x3e9a26bd	0.3010768
163	0x3e7d9551	0.24763991
164	0x3e920d8b	0.28525957
165	0x3e75d867	0.24008332
166	0x3e9ed2a8	0.31020093
167	0x3e7e7e16	0.24852785
168	0x3e962c02	0.2933045
169	0x3e76da02	0.24106601
170	0x3e9c6359	0.30544546
171	0x3e7e544d	0.24836846
172	0x3e93828c	0.28810537
173	0x3e76e105	0.24109276
174	0x3ea8a56f	0.32938716
175	0x3e82f07f	0.2557411
176	0x3e9acca1	0.30234244
177	0x3e7da10d	0.24768467
178	0x3ea04012	0.31298882
179	0x3e8071d9	0.2508686
180	0x3e942cdb	0.28940472
181	0x3e7b9068	0.24566805
182	0x3ea3a8b9	0.31964663
183	0x3e8435d4	0.25822318
184	0x3e99791b	0.2997521
185	0x3e82c742	0.25542647
186	0x3ea58145	0.32325187
187	0x3e850531	0.25980523
188	0x3e9ccb35	0.30623785
189	0x3e845a88	0.2585032
190	0x3eb9d25b	0.362933
191	0x3e894bb9	0.26815584
192	0x3eb9b5c4	0.3627149
193	0x3e8a32d0	0.26991892
194	0x3eb9d25b	0.362933
195	0x3e89b172	0.26893193
196	0x3eb9b5c4	0.3627149
197	0x3e8a9782	0.27068716
198	0x3eb25d23	0.34836683
199	0x3e829454	0.2550379
200	0x3eb25d23	0.34836683
201	0x3e829454	0.2550379

onnx::Div_65 f4 [10]
0	0x41b41dc4	22.514534
1	0x4125c1ec	10.359844
2	0x3bcac93e	0.0061885407
3	0x3bcac93e	0.0061885407
4	0x3bcac93e	0.0061885407
5	0x3bcac93e	0.0061885407
6	0x3bcac93e	0.0061885407
7	0x3bcac93e	0.0061885407
8	0x3bcac93e	0.0061885407
9	0x3bcac93e	0.0061885407
